results/4_model_2_case_2/epoch250/model_weights.pth (torch, 484214 bytes, 88 tensors)

init_layer.0.weight f4 [64, 3]
-0.3399157 -0.032030944 0.08030032 0.42819354 -0.07731145 0.02690109 -0.012154257 -0.28744942
-0.23074374 0.60335726 0.15051262 0.12980586 -0.079458624 0.33133918 0.24096036 -0.11749539
-0.24672653 0.28886026 0.34445736 0.0135485185 0.36956263 0.25414893 0.13982172 0.34436706
0.66272974 -0.36448762 0.09447035 -0.079535805 -0.06988759 0.36187175 -0.33233455 -0.14377062
0.023638085 0.11561636 0.11678299 -0.34838757 -0.085357316 -0.057613198 -0.1335708 -0.06157808
0.06836872 0.37819633 0.18106434 -0.29860607 -0.046295088 0.17822835 -0.16437428 -0.36884147
0.11305647 -0.030976728 0.35069993 0.2203964 0.2546483 -0.22065124 0.12582727 0.14944538
-0.38681918 -0.3191241 0.0377161 -0.24888544 0.15074913 -0.20802926 -0.18005417 0.32500556
0.009809489 -0.10165103 0.009083114 -0.014910538 -0.34284565 -0.18141276 0.21521579 -0.07435089
-0.09025034 0.053637378 0.31935456 -0.08374145 0.12957679 -0.24128176 0.045188475 0.24862753
0.3021845 -0.16480899 -0.15372027 0.15013732 0.10273922 0.27311862 -0.22512984 0.06484251
-0.38616478 0.1933449 -0.48971736 -0.27405393 -0.11780753 -0.06524009 0.06183452 0.3947356
-0.07473239 0.14811406 0.30089357 -0.37834838 0.3514833 -0.049131066 -0.010246612 -0.045080967
-0.23534644 -0.0062322947 -0.047932457 -0.3436543 0.0595734 -0.081956945 -0.2910857 -0.27940187
-0.04402683 -0.01902202 0.38754702 0.030799298 0.20082441 -0.36774364 0.2241598 0.26817054
0.15248485 0.15136597 -0.3394085 -0.009542011 -0.01757373 -0.31853136 0.031380866 -0.042179868
0.32423612 -0.06429641 0.102437004 0.2820932 0.13447356 -0.2107191 -0.30038747 -0.30419332
-0.117551304 0.23682033 -0.0047571566 -0.15939005 0.1443226 0.16525373 0.3383362 0.06274087
0.44337797 0.2960964 0.02103518 0.15441136 -0.14874692 0.30346963 0.0123675 -0.42477134
-0.17966759 -0.5410291 -0.33491576 -0.09735537 0.65000474 -0.46400067 0.16280553 -0.11128506
-0.3309365 0.08163403 0.15591998 -0.082027376 -0.3311759 0.26732647 -0.06680743 0.31149173
0.19901483 0.04183503 0.35417578 0.14920114 -0.11418932 0.044441495 0.39071572 0.23518422
0.07579305 0.17430985 0.19777086 -0.22121565 -0.22434694 -0.14534588 -0.11750535 -0.21843544
-0.025163468 -0.08927706 0.37601823 -0.04716465 0.020548752 0.30338585 0.02327023 0.21208805
00000000: 6e09 aebe e132 03bd 7f74 a43d 2f3c db3e
00000010: 7755 9ebd ad5f dc3c a622 47bc 922c 93be
00000020: 1648 6cbe 9f75 1a3f fb1f 1a3e d4eb 043e
00000030: 34bb a2bd 4aa5 a93e 50be 763e 6ca1 f0bd
00000040: e1a5 7cbe 7ee5 933e b75c b03e 9bfa 5d3c
00000050: 5037 bd3e cf1f 823e 6d2d 0f3e e150 b03e
00000060: a8a8 293f 1f9e babe ac79 c13d abe3 a2bd
00000070: 3a21 8fbd 4147 b93e c127 aabe 9b38 13be
00000080: a8a4 c13c 45c8 ec3d ec2b ef3d db5f b2be
00000090: d1cf aebd d1fb 6bbd c9c6 08be 4c39 7cbd
000000a0: e604 8c3d f3a2 c13e ee68 393e e5e2 98be
000000b0: eb9f 3dbd 7e81 363e bb51 28be cad8 bcbe
000000c0: 278a e73d e8c2 fdbc f18e b33e 98af 613e
000000d0: 4361 823e 66f2 61be ddd8 003e 3608 193e
000000e0: 2a0d c6be 3c64 a3be 337c 1a3d d3db 7ebe
000000f0: fb5d 1a3e 9f05 55be 1f60 38be 2167 a63e
00000100: fbb7 203c 6a2e d0bd 57d1 143c 544b 74bc
00000110: 7789 afbe 44c4 39be 8761 5c3e 4845 98bd
00000120: 2cd5 b8bd deb2 5b3d 7182 a33e a380 abbd
00000130: c7af 043e 9112 77be 8d17 393d 3798 7e3e
00000140: edb7 9a3e b0c3 28be d968 1dbe 99bd 193e
00000150: f168 d23d 34d6 8b3e 7088 66be 26cc 843d
00000160: 64b7 c5be 35fc 453e 3cbc fabe cc50 8cbe
00000170: 1345 f1bd 999c 85bd 3246 7d3d c91a ca3e
00000180: 4c0d 99bd 36ab 173e b90e 9a3e e1b6 c1be
00000190: 9ef5 b33e a83d 49bd 68e1 27bc d2a6 38bd
000001a0: a8fe 70be 4738 ccbb d354 44bd 75f3 afbe
000001b0: 3d03 743d 0bd9 a7bd 2f09 95be c30d 8fbe
000001c0: 7a55 34bd 11d4 9bbc 906c c63e cf4e fc3c
000001d0: eaa4 4d3e e548 bcbe 268a 653e a64d 893e
000001e0: fd24 1c3e aeff 1a3e f3c6 adbe 1856 1cbc
000001f0: c8f6 8fbc 8b16 a3be 3989 003d ccc4 2cbd
00000200: 4702 a63e d6ad 83bd 7eca d13d 856e 903e
00000210: 70b3 093e bfc6 57be 63cc 99be 3abf 9bbe
00000220: bdbe f0bd 0781 723e ece1 9bbb 2537 23be
00000230: 4ec9 133e 4638 293e 673a ad3e 497e 803d
00000240: 7002 e33e f399 973e f851 ac3c 031e 1e3e
00000250: 1d51 18be 5f60 9b3e 0ea1 4a3c a17b d9be
00000260: c8fa 37be e280 0abf 147a abbe 4162 c7bd
00000270: b666 263f 7f91 edbe 7eb6 263e 6ce9 e3bd
00000280: 8270 a9be be2f a73d 7da9 1f3e f8fd a7bd
00000290: e38f a9be 04df 883e 55d2 88bd d87b 9f3e
000002a0: 8bca 4b3e 355b 2b3d 8756 b53e 2fc8 183e
000002b0: 17dc e9bd 4908 363d e40b c83e 22d4 703e
000002c0: 6339 9b3d 487e 323e 7284 4a3e 5b86 62be
000002d0: 34bb 65be 8dd5 14be a5a6 f0bd 8aad 5fbe
000002e0: 9e23 cebc e4d6 b6bd 7685 c03e b82f 41bd
000002f0: db55 a83c 6455 9b3e 36a1 be3c 9c2d 593e

init_layer.0.bias f4 [64]
0.26994765 -0.055907946 -0.099009186 -0.1370849 -0.03193414 0.009458344 0.062225685 0.19302186
-0.07987502 -0.123569265 0.37598464 0.15441494 0.18364656 0.34104213 -0.035425376 0.26178947
0.17525385 0.08893883 0.19892372 -0.04553854 0.13135143 0.045723177 0.3535448 0.097949244
0.22776872 -0.12236274 0.11206563 -0.026163796 -0.27202907 0.12594399 -0.11667506 -0.20253162
-0.120087564 0.091172464 0.23266877 0.062015157 -0.15539695 -0.11723127 -0.22466162 -0.03994374
-0.27822274 -0.24735533 -0.23682532 0.1412848 0.14691302 -0.020038025 -0.17706925 -0.1301264
-0.074127905 0.16973782 -0.19546054 -0.1261159 0.00014210868 -0.06195939 0.1449281 0.15398954
0.15040508 -0.15020081 0.05553638 -0.28843507 -0.083342806 -0.09609136 0.14126644 0.09843234
00000000: 9436 8a3e bbff 64bd 54c5 cabd fc5f 0cbe
00000010: 5fcd 02bd 2cf7 1a3c 5ce0 7e3d 86a7 453e
00000020: 8495 a3bd e211 fdbd 0f81 c03e f31e 1e3e
00000030: d80d 3c3e 139d ae3e 331a 11bd 4509 863e
00000040: bf75 333e 9025 b63d a9b2 4b3e 9f86 3abd
00000050: fd80 063e 3a48 3b3d d303 b53e 9d99 c83d
00000060: 343c 693e 5199 fabd aa82 e53d 7555 d6bc
00000070: 6547 8bbe 76f7 003e 55f3 eebd 7364 4fbe
00000080: 78f0 f5bd a1b8 ba3d b940 6e3e 9b03 7e3d
00000090: 6120 1fbe f316 f0bd b20d 66be 0c9c 23bd
000000a0: 3673 8ebe b74a 7dbe 5682 72be f6ac 103e
000000b0: 5e70 163e c926 a4bc a451 35be db3f 05be
000000c0: 5fd0 97bd c0cf 2d3e cf26 48be 8724 01be
000000d0: 0203 1539 21c9 7dbd 0868 143e 6faf 1d3e
000000e0: ca03 1a3e 3ece 19be 1d7a 633d c3ad 93be
000000f0: a2af aabd 8ccb c4bd 26a8 103e e596 c93d

hiden_layers.0.weight f4 [64, 64]
-0.26811484 0.23316956 0.0068719154 0.31367743 -0.064922586 0.013599305 0.33682194 -0.019424122
0.2759904 0.02653281 -0.14132075 0.11321261 -0.07509188 0.25193158 0.205998 -0.24483956
0.13783464 -0.08360225 -0.093399376 -0.4221579 -0.07180362 0.23339565 -0.08525552 -0.39117077
0.2275351 -0.13553421 -0.0023305523 -0.19321498 -0.09118383 0.005851803 -0.36661786 0.04357418
0.04343547 -0.26271856 0.07046871 -0.16927342 -0.10765714 -0.16658285 0.4495016 0.097935386
0.06659543 -0.19527182 0.23967722 0.022456262 -0.13972813 -0.07056818 0.09518044 0.020482548
0.36514696 0.030743474 -0.17367958 -0.11329916 0.30459508 -0.13576514 0.10841947 0.4099107
0.019826064 0.11042664 0.03318842 0.12746955 -0.14341256 -0.41409117 0.20307256 0.12298154
0.055599637 -0.24202316 -0.2011834 0.10949732 -0.25164807 -0.22415422 0.18339519 -0.15660512
-0.08233799 -0.53054893 0.361484 0.21614848 0.34105533 0.04743345 -0.01327327 0.3759834
0.058618434 0.24293113 0.4417779 -0.023249041 0.08189423 -0.19224522 0.6116125 0.31347987
-0.08860123 -0.047693897 0.25487006 0.04179751 0.10618294 0.1166834 -0.14006299 -0.5487595
-0.22315864 0.124563046 0.6449481 0.23086055 0.20580412 -0.041903928 -0.21208416 0.12738734
-0.060381804 -0.055732395 -0.57113534 -0.03011964 0.3297716 -0.20107533 -0.43213812 -0.2765656
-0.11867869 -0.07017747 -0.15883148 -0.10866176 0.07022478 -0.18587907 0.3617689 0.14611018
-0.15648003 -0.3278886 -0.19146389 -0.221767 0.22039579 0.20914362 0.19369811 -0.087391414
0.12038871 -0.1275117 0.3088356 -0.083900295 -0.2621924 0.0134922145 -0.17420934 -0.34251222
0.07208811 -0.031069297 -0.0012789463 0.113517076 0.13421947 -0.2736283 0.26883137 -0.1566344
-0.20104408 -0.2689296 0.033641573 -0.012862641 -0.038125347 -0.24671249 -0.16374595 -0.027269304
-0.042621657 -0.09711469 -0.1303388 0.274457 -0.005953804 -0.14532289 0.46940592 0.23244391
-0.182181 -0.13422823 0.1923097 0.24898808 -0.011405483 0.07331762 -0.08613517 0.06650317
-0.17356022 0.043502614 0.18701136 0.16335669 0.1841202 0.114811294 -0.003050693 -0.08737129
-0.115889974 0.033226233 0.033648167 0.21563758 0.06803795 0.06611918 -0.15826638 -0.08008917
-0.35924014 0.13207488 -0.36285082 -0.13699096 0.37184557 0.019679405 -0.2834798 -0.020361744
0.07798987 -0.091244675 -0.024014456 -0.011031983 0.07387829 0.039894506 -0.06055826 -0.19743268
-0.17410383 -0.22291957 -0.0021781411 0.11266777 -0.13050078 -0.23754354 0.08709273 -0.06466137
-0.21456574 0.17185953 0.22030316 -0.09003538 0.29836583 -0.082761995 -0.15459594 -0.12515932
0.073694654 0.18565585 0.011120785 -0.10517967 0.052911215 -0.2721215 -0.107100815 -0.032066748
-0.19982678 0.008677764 -0.1238278 0.06449999 0.08827643 -0.101845756 0.03829571 -0.12631346
-0.046451714 0.13140804 0.02811357 0.06660354 0.115481414 0.05389129 0.027409207 0.15178591
0.051648255 -0.23171654 0.103059895 -0.046919066 -0.16693987 0.05140545 0.262224 0.0125305895
-0.2747234 -0.1291019 -0.14913015 0.25142586 -0.03268919 0.00622674 -0.043953646 -0.12227149
00000000: 5946 89be 00c4 6e3e ce2d e13b 549a a03e
00000010: 22f6 84bd 9fcf 5e3c ed73 ac3e 561f 9fbc
00000020: 9d4e 8d3e 565b d93c 63b6 10be 03dc e73d
00000030: c6c9 99bd 2dfd 803e 24f1 523e 39b7 7abe
00000040: 8624 0d3e a837 abbd 2c48 bfbd 1525 d8be
00000050: c70d 93bd 45ff 6e3e 729a aebd 8947 c8be
00000060: f6fe 683e 7bc9 0abe 2ebc 18bb 26da 45be
00000070: 96be babd 7bc0 bf3b 56b5 bbbe d77a 323d
00000080: 64e9 313d 0c83 86be e651 903d 0356 2dbe
00000090: 597b dcbd b294 2abe 1325 e63e 5992 c83d
000000a0: 2f63 883d 56f5 47be f26d 753e 32f6 b73c
000000b0: e414 0fbe 0d86 90bd f6ed c23d 04cb a73c
000000c0: 8bf4 ba3e bdd9 fb3c 0fd9 31be 6409 e8bd
000000d0: e3f3 9b3e 0406 0bbe 070b de3d d1df d13e
000000e0: 456a a23c 5d27 e23d 95f0 073d 6187 023e
000000f0: beda 12be c203 d4be 41f2 4f3e bfdd fb3d
00000100: 72bc 633d ebd4 77be 0503 4ebe 2240 e03d
00000110: 04d8 80be af88 65be f3cb 3b3e 185d 20be
00000120: d2a0 a8bd 0ed2 07bf 6e14 b93e 0756 5d3e
00000130: ce9e ae3e 9449 423d 2178 59bc e580 c03e
00000140: e219 703d f0c2 783e b730 e23e c674 bebc
00000150: 29b8 a73d eedb 44be a392 1c3f 6f80 a03e
00000160: 9074 b5bd ad5a 43bd 547e 823e de33 2b3d
00000170: 7176 d93d b5f7 ee3d ac6c 0fbe 817b 0cbf
00000180: b383 64be e91a ff3d 521b 253f b566 6c3e
00000190: 51be 523e 74a3 2bbd 972c 59be d471 023e
000001a0: e952 77bd a747 64bd ed35 12bf 77bd f6bc
000001b0: d3d7 a83e b1e6 4dbe 3541 ddbe 029a 8dbe
000001c0: d00d f3bd 35b9 8fbd b8a4 22be 0f8a debd
000001d0: 02d2 8f3d 1557 3ebe c639 b93e e89d 153e
000001e0: 4d3c 20be 04e1 a7be 1c0f 44be e316 63be
000001f0: 6faf 613e bf29 563e cc58 463e 45fa b2bd
00000200: 5b8e f63d 6d92 02be b31f 9e3e ebd3 abbd
00000210: 153e 86be 730e 5d3c ef63 32be c35d afbe
00000220: eea2 933d 0a85 febc 51a2 a7ba a47b e83d
00000230: d470 093e 0219 8cbe 44a4 893e c564 20be
00000240: 80de 4dbe 24b1 89be bfcb 093d d4bd 52bc
00000250: 5329 1cbd 33a2 7cbe 05ad 27be e063 dfbc
00000260: 0c94 2ebd 11e4 c6bd 8977 05be a185 8c3e
00000270: 2118 c3bb 86cf 14be f955 f03e c705 6e3e
00000280: a88d 3abe 2073 09be d6ec 443e bbf6 7e3e
00000290: 10de 3abc 8c27 963d a367 b0bd d032 883d
000002a0: c5b9 31be cc2f 323d e87f 3f3e fa46 273e
000002b0: 018a 3c3e 2f22 eb3d 23ee 47bb b8ef b2bd
000002c0: b957 edbd 3b18 083d a9d2 093d 19d0 5c3e
000002d0: 7b57 8b3d 7e69 873d 9510 22be ca05 a4bd
000002e0: 53ee b7be a33e 073e 95c7 b9be 5c47 0cbe
000002f0: 8b62 be3e b436 a13c 4424 91be accd a6bc
00000300: 27b9 9f3d 7dde babd f7b9 c4bc 7ebf 34bc
00000310: 804d 973d 6c68 233d f00b 78bd cb2b 4abe
00000320: 4648 32be 0745 64be 25bf 0ebb 5cbe e63d
00000330: ffa1 05be 9d3e 73be ac5d b23d 2e6d 84bd
00000340: 1fb7 5bbe f2fb 2f3e 2797 613e 7864 b8bd
00000350: 68c3 983e 1f7f a9bd 664e 1ebe c429 00be
00000360: 39ed 963d 911c 3e3e f433 363c 7068 d7bd
00000370: 6eb9 583d 8253 8bbe ac57 dbbd 6c58 03bd
00000380: 649f 4cbe 2e2d 0e3c 6e99 fdbd 9218 843d
00000390: 46ca b43d 8294 d0bd f6db 1c3d 5158 01be
000003a0: 2744 3ebd d48f 063e 6e4e e63c 7067 883d
000003b0: 8581 ec3d 1dbd 5c3d 4689 e03c c46d 1b3e
000003c0: 1f8d 533d 1a47 6dbe 1111 d33d 352e 40bd
000003d0: 49f2 2abe 858e 523d 3942 863e 1a4d 4d3c
000003e0: 8ca8 8cbe 4a33 04be 93b5 18be e4ba 803e
000003f0: 1ae5 05bd ae09 cc3b bd08 34bd 7a69 fabd

hiden_layers.0.bias f4 [64]
-0.057968173 0.22352451 -0.06966358 -0.09022575 0.07421531 -0.05592134 0.1113446 -0.117212646
-0.02622494 -0.019453205 -0.18277949 0.1159766 0.14268157 0.006160194 0.06948619 0.082222514
-0.09920112 -0.119879246 0.053966723 -0.19685708 -0.26728 0.08792464 -0.01941263 -0.007323274
-0.048108444 0.09718233 -0.19997075 0.0061693457 0.069128454 0.031783465 0.08314261 0.066979796
0.072430536 -0.09022072 -0.14249112 -0.105183184 -0.0685309 0.049535252 -0.19939631 -0.08666693
-0.20551471 -0.026847929 0.103366435 -0.12752473 -0.0911684 0.31585458 -0.117531 -0.2449723
0.09635033 -0.08959049 0.12088405 -0.009687296 0.037584916 -0.0900532 0.21640384 0.119256124
-0.08713519 -0.03359052 -0.20163557 -0.12029134 -0.8531239 0.15856038 -0.05255726 0.029865718
00000000: 0970 6dbd 9ce3 643e c7ab 8ebd 47c8 b8bd
00000010: 32fe 973d c60d 65bd a308 e43d 2f0d f0bd
00000020: afd5 d6bc 545c 9fbc 8c2a 3bbe 2485 ed3d
00000030: 1e1b 123e 74db c93b c74e 8e3d 4764 a83d
00000040: f529 cbbd 4083 f5bd 360c 5d3d e794 49be
00000050: edd8 88be d511 b43d 3c07 9fbc 13f8 efbb
00000060: 5c0d 45bd 8807 c73d 22c5 4cbe 3928 ca3b
00000070: 3893 8d3d 612f 023d ac46 aa3d b42c 893d
00000080: 7656 943d a4c5 b8bd 31e9 11be 486a d7bd
00000090: ee59 8cbd 7ae5 4a3d 8c2e 4cbe 6e7e b1bd
000000a0: 7372 52be 30f0 dbbc c8b1 d33d d895 02be
000000b0: 80b6 babd b1b7 a13e 18b4 f0bd 05da 7abe
000000c0: 5253 c53d 387b b7bd 0f92 f73d 77b7 1ebc
000000d0: a4f2 193d d06d b8bd f898 5d3e 8e3c f43d
000000e0: ef73 b2bd 3796 09bd 8e79 4ebe 4e5b f6bd
000000f0: 5466 5abf a75d 223e 4846 57bd f3a8 f43c

hiden_layers.1.weight f4 [64, 64]
-0.105479434 0.02266742 -0.17976198 0.08718522 -0.34718496 0.22430132 -0.1510725 -0.1749502
0.08578026 0.10874501 0.031872652 -0.21612994 0.029710518 0.03560149 -0.04027426 -0.009047137
0.043879665 0.23046762 -0.06858661 0.1426464 0.3035351 -0.050380185 0.13323325 -0.043860026
-0.155969 -0.17486337 -0.08998035 0.2314989 -0.10742711 0.022106795 -0.16937125 0.05817188
-0.16669461 0.39353308 -0.1321891 -0.27214128 -0.03622581 -0.08190102 -0.028635263 0.12986855
0.17975801 0.08077725 -0.19756907 0.17085727 0.23930068 0.095948465 0.2392563 -0.1832327
0.112138964 -0.09943474 -0.06664197 0.0872659 -0.11961838 0.14443186 -0.011453631 -0.3239691
0.37815562 -0.13646488 -0.17071807 0.12573737 0.11281066 0.060701877 0.14852609 -0.16333641
0.07447218 -0.020741347 -0.1955156 0.07678759 -0.14352652 -0.0067973537 -0.046398435 -0.025478642
0.13129017 -0.11732749 0.2232165 0.15451594 0.06746348 -0.06784861 0.065901905 0.08327109
0.027984653 -0.13541159 0.12732144 -0.12855963 0.0403783 0.17449848 -0.1845719 0.08949883
-0.008369878 0.15394822 0.019087499 -0.12579128 -0.044475697 0.07926582 -0.044039235 0.1959762
0.234953 0.17481436 -0.2507149 -0.15578698 -0.111412756 -0.01994569 -0.23547521 -0.2255088
-0.4024543 -0.17295837 0.08266286 -0.19574916 0.123836815 0.07152302 -0.0068041617 -0.23691474
0.19529864 0.05524316 -0.2142092 -0.12792423 0.05352637 -0.0049873907 0.21213047 -0.045935564
0.016867012 0.07723017 -0.009014316 0.040156186 0.42570817 0.027283665 0.06887642 0.15458055
0.04201024 0.22809882 0.062789835 0.06928491 0.10943812 0.23208581 -0.086852685 0.25004035
0.21986225 -0.03354701 -0.26071736 -0.021485457 0.05971457 0.087022215 0.13578716 0.073799714
-0.075710855 -0.07332631 0.04019281 -0.011134537 -0.030433258 -0.27463228 -0.23997565 -0.14653467
-0.052477054 0.13128811 -0.13950357 -0.20237902 0.13303421 0.082749724 0.21514475 0.334911
0.16168423 -0.1366993 -0.17837268 -0.12159848 0.064091854 -0.22827402 -0.12480714 -0.08053748
-0.22963387 -0.26992887 -0.20491828 -0.12791702 0.08047592 0.03840957 -0.07094042 -0.04389625
0.06497958 0.0061335205 0.016883604 -0.28315014 0.02899852 -0.112562455 0.19501267 -0.0051026084
-0.07165355 0.15418562 -0.06052462 0.12820446 0.010025118 0.07514905 0.04946528 0.0552555
0.21875654 0.01893549 -0.12240538 0.081100546 0.28034613 -0.24887472 -0.0017994498 -0.0055725845
0.023465179 0.072916225 -0.19097605 0.2645683 0.23405221 0.15465412 0.031069137 0.114204265
0.012632528 -0.10076414 0.037436772 0.10630952 -0.038918007 -0.29541746 0.028948706 0.14755356
0.1155882 0.02343007 -0.08072483 -0.08672482 0.07464218 -0.039724853 0.23375511 0.23597202
0.06584569 0.011711196 -0.06422519 0.04494888 0.14815655 -0.13571534 0.21148221 0.15969376
0.039423067 -0.014225471 0.21530765 0.09523996 -0.19152227 -0.06338742 -0.20871893 -0.06613006
-0.102247946 0.1731875 0.013700272 0.07637438 0.09236151 -0.05357329 -0.30436784 -0.026556881
-0.08566924 -0.031617418 0.22834174 0.07035646 -0.1888647 0.17862447 0.1740156 -0.13336861
00000000: 9a05 d8bd 06b1 b93c 8613 38be 2a8e b23d
00000010: 3ac2 b1be 3faf 653e c0b2 1abe 2526 33be
00000020: 90ad af3d b4b5 de3d e68c 023d 2b51 5dbe
00000030: 7963 f33c ded2 113d 9ff6 24bd 713a 14bc
00000040: 2abb 333d b4ff 6b3e 2377 8cbd e611 123e
00000050: f468 9b3e 745b 4ebd 4c6e 083e 92a6 33bd
00000060: 56b6 1fbe 620f 33be 9e47 b8bd 0c0e 6d3e
00000070: bf02 dcbd 4f19 b53c a86f 2dbe a345 6e3d
00000080: feb1 2abe 2b7d c93e 945c 07be 1a56 8bbe
00000090: 8461 14bd b9bb a7bd 8094 eabc 43fc 043e
000000a0: 7c12 383e 8b6e a53d 8c4f 4abe 35f5 2e3e
000000b0: 3d0b 753e a180 c43d 9aff 743e 5aa1 3bbe
000000c0: 1da9 e53d 71a4 cbbd 967b 88bd 77b8 b23d
000000d0: 7bfa f4bd f2e5 133e 03a8 3bbc 47df a5be
000000e0: 9d9d c13e 73bd 0bbe b8d0 2ebe 4cc1 003e
000000f0: 4609 e73d 88a2 783d 3917 183e a941 27be
00000100: df84 983d c2e9 a9bc 3e35 48be d042 9d3d
00000110: 9ef8 12be 56bc debb 490c 3ebd 96b8 d0bc
00000120: ee70 063e 6549 f0bd de92 643e 6d39 1e3e
00000130: 4b2a 8a3d 36f4 8abd 94f7 863d 098a aa3d
00000140: 1240 e53c 56a9 0abe 8d60 023e 23a5 03be
00000150: b763 253d bbaf 323e 6b00 3dbe 2a4b b73d
00000160: d021 09bc 9aa4 1d3e 635d 9c3c 6ecf 00be
00000170: 262c 36bd 1e56 a23d 7c62 34bd fcad 483e
00000180: 8597 703e 8902 333e b45d 80be 9f86 1fbe
00000190: 5f2c e4bd 2565 a3bc 6a20 71be c7eb 66be
000001a0: 7d0e cebe 001c 31be 254b a93d 7872 48be
000001b0: 289e fd3d a97a 923d 72f5 debb c799 72be
000001c0: 5efc 473e a746 623d a859 5bbe 92fe 02be
000001d0: 783e 5b3d 446d a3bb bb38 593e ee26 3cbd
000001e0: b02c 8a3c da2a 9e3d c8b0 13bc d07a 243d
000001f0: 6cf6 d93e fe81 df3c 150f 8d3d 5d4a 1e3e
00000200: ee12 2c3d bd92 693e f597 803d 3fe5 8d3d
00000210: 1821 e03d e7a7 6d3e d2df b1bd 4a05 803e
00000220: 9223 613e 9768 09bd bf7c 85be 4502 b0bc
00000230: 4497 743d b438 b23d ca0b 0b3e 4e24 973d
00000240: 4b0e 9bbd 1b2c 96bd 37a1 243d a26d 36bc
00000250: 2b4f f9bc 9a9c 8cbe 2dbc 75be 2f0d 16be
00000260: 2ef2 56bd 6470 063e 06da 0ebe 723c 4fbe
00000270: 1f3a 083e b078 a93d e84e 5c3e 7479 ab3e
00000280: 8d90 253e e7fa 0bbe 54a7 36be a008 f9bd
00000290: 9742 833d aac0 69be e39a ffbd d6f0 a4bd
000002a0: 2425 6bbe 1e34 8abe 19d6 51be aefc 02be
000002b0: 8fd0 a43d 5a53 1d3d 3649 91bd 8ecc 33bd
000002c0: 0414 853d b3fb c83b 7c4f 8a3c 0ef9 90be
000002d0: 4e8e ed3c 2587 e6bd 67b1 473e c833 a7bb
000002e0: 19bf 92bd d6e2 1d3e aae8 77bd 0848 033e
000002f0: 6440 243c bfe7 993d 1b9c 4a3d 9753 623d
00000300: b701 603e 9a1e 9b3c acaf fabd 0b18 a63d
00000310: 8789 8f3e 04d9 7ebe 84db ebba 3a9a b6bb
00000320: 0c3a c03c 1a55 953d 3a8f 43be 7f75 873e
00000330: 62ab 6f3e a65d 1e3e b484 fe3c ede3 e93d
00000340: aaf8 4e3c 6e5d cebd 4d57 193d ceb8 d93d
00000350: 7d68 1fbd f540 97be d625 ed3c 4818 173e
00000360: 82b9 ec3d 6bf0 bf3c 0f53 a5bd c89c b1bd
00000370: 00de 983d 87b6 22bd 805d 6f3e a6a2 713e
00000380: 1bda 863d 51e0 3f3c 7f88 83bd 511c 383d
00000390: 5ab6 173e f6f8 0abe cb8e 583e c386 233e
000003a0: 157a 213d f311 69bc 9c79 5c3e 2b0d c33d
000003b0: 6a1e 44be 43d1 81bd 6aba 55be 326f 87bd
000003c0: 5f67 d1bd 1058 313e 1b77 603c 2c6a 9c3d
000003d0: 0828 bd3d ab6f 5bbd 1ad6 9bbe d18d d9bc
000003e0: 5b73 afbd 4481 01bd 6bd2 693e 0c17 903d
000003f0: bf65 41be 55e9 363e 2531 323e c891 08be

hiden_layers.1.bias f4 [64]
-0.08983589 0.03221645 0.03225155 -0.04993659 -0.06152717 0.100756325 -0.1390776 -0.058635652
-0.09239438 0.052983455 -0.051705077 -0.069939725 0.049808588 0.1657215 -0.069834016 -0.087042056
-0.07532326 -0.06651308 0.04657754 0.077815734 -0.05432 0.019193567 0.020425484 0.068472646
0.019128563 0.0030973987 0.08265285 0.035429418 -0.07825706 -0.16409186 -0.059149724 -0.10693457
-0.034104936 -0.05417863 0.07308776 0.07267221 -0.04086171 -0.4045512 -0.04542178 0.14855587
0.118886404 -0.06635349 -0.07875094 -0.16359794 -0.065025374 -0.021924717 -0.07933541 0.038642205
-0.121236704 -0.07192359 0.12020182 0.038680192 -0.062979124 -0.03955777 -0.041736864 0.012195312
0.036940906 -0.0076172557 -0.040976167 0.082875654 0.20633262 -0.0455797 0.036868148 -0.06072863
00000000: e1fb b7bd 65f5 033d 341a 043d 4f8a 4cbd
00000010: ea03 7cbd 5559 ce3d 5c6a 0ebe f02b 70bd
00000020: 4439 bdbd 2e05 593d b4c8 53bd 8f3c 8fbd
00000030: 1704 4c3d e6b2 293e 2305 8fbd 1b43 b2bd
00000040: 1543 9abd 0238 88bd 17c8 3e3d db5d 9f3d
00000050: a67e 5ebd d43b 9d3c 5853 a73c 633b 8c3d
00000060: 81b3 9c3c bafd 4a3b e645 a93d 701e 113d
00000070: 3d45 a0bd b207 28be fb46 72bd 8300 dbbd
00000080: 9eb1 0bbd 69ea 5dbd 09af 953d 2bd5 943d
00000090: 9c5e 27bd 5621 cfbe 300c 3abd 081f 183e
000000a0: b77a f33d 57e4 87bd 2c48 a1bd 3886 27be
000000b0: 062c 85bd 779b b3bc 9a7a a2bd 4a47 1e3d
000000c0: f34a f8bd ad4c 93bd 5f2c f63d 1f6f 1e3d
000000d0: 33fb 80bd 5407 22bd 46f4 2abd d9ce 473c
000000e0: 594f 173d 2c9a f9bb a0d6 27bd b6ba a93d
000000f0: dc48 533e c8b1 3abd 0e03 173d 95be 78bd

hiden_layers.2.weight f4 [64, 64]
-0.06731524 -0.058221556 -0.00010896468 -0.015923727 -0.13265562 -0.04388192 0.01500314 -0.20961249
-0.40078232 -0.3247577 0.3317793 -0.074183956 -0.086449705 -0.24173738 -0.26533252 0.1443352
0.20653862 -0.15177535 -0.0015222006 -0.28540313 0.076647304 0.022293475 -0.2217603 0.25537822
-0.3291189 -0.8213123 -0.15277556 -0.25108197 -0.008378994 -0.16060348 0.18914026 0.08789996
-0.21212448 0.012644828 -0.17454949 0.0045266123 0.4896051 0.1781241 0.0967052 -0.25184193
0.026334956 -0.074352115 0.03911961 0.50269717 0.1673368 -0.040305674 0.051052105 0.18471631
0.0961076 0.05625865 -1.2347021 -0.21511662 -0.2840973 0.17956093 0.78174406 0.33120853
-0.014293786 0.26411554 0.035963576 0.121073596 -0.24017982 -0.11980072 0.13886675 0.15270834
0.10624543 -0.19413717 0.18628553 0.1024507 0.22112042 0.16041851 0.33100206 0.27305692
0.0053355363 0.20213048 0.20103936 0.15250851 -0.024758829 -0.48163047 -0.119168594 0.20399275
-0.09569276 0.06744385 -0.39366627 -0.3484089 0.10630141 -0.036938187 0.06269554 -0.16522063
-0.02647 -0.06812862 0.18627921 0.1178093 -0.053738456 0.019482862 0.0067860074 0.0055380687
0.08827277 0.22137079 -0.054408744 0.1370809 0.043380372 -0.110111244 0.24358144 0.19237706
-0.14085788 -0.058078613 0.012168665 0.15939552 0.05338681 -0.24074742 -0.07031952 0.45060146
-0.046006974 0.25482377 -0.42717716 -0.25250193 -0.14157079 0.16417204 -0.5227591 -0.20182487
0.17909084 -0.36774325 0.017476887 0.19383086 -0.22594187 0.52920353 0.0515131 -0.24670373
0.3639789 -0.26377907 -0.3434829 -0.14017853 0.07370758 0.1092558 0.2835507 -0.058984213
-0.1703984 0.27439398 -0.054617774 0.22851555 0.14858463 0.5896499 -0.123847604 -0.00022168885
0.104954265 -0.25839108 0.4486503 -0.28518626 -0.23417437 -0.066753425 0.0864898 -0.22039591
0.037518553 -0.30351236 0.013695204 -0.30288658 0.014778081 0.3115239 0.12698463 0.41137516
-0.074371085 -0.2424225 0.062057253 0.03488523 0.38945368 -0.2008179 -0.23864067 0.11461004
0.21567193 -0.029860865 -0.39465684 0.09863282 0.37522164 -0.07090172 -0.055007774 0.11999061
0.2513498 0.14310153 -0.73463374 0.22665618 -0.33387 0.19492885 0.1661392 -0.04530011
-0.087411456 -0.16324274 -0.1846672 -0.10815456 0.067062214 -0.16887863 0.14275682 0.14292815
-0.067320034 -0.09698945 -0.15204956 0.38506904 -0.07757988 -0.15070844 -0.035366446 -0.18182372
0.13217029 0.06098443 -0.004736883 -0.1577163 0.14818668 0.013883353 0.09093895 0.08489514
0.09320404 -0.13635072 -0.16784208 -0.18738693 -0.29723868 -0.097698145 0.1251863 -0.15291812
-0.10168649 0.03732278 0.1653495 0.105378285 -0.10000955 0.18786581 -0.016244203 -0.20625933
-0.22669615 -0.14442874 0.17722708 0.1608012 -0.10069655 0.14209524 0.010783355 -0.28015304
0.0994008 -0.10013779 -0.060881004 -0.15867311 0.05756656 -0.280558 -0.17088637 -0.08368837
-0.119569466 0.19637138 -0.04475819 -0.060908534 0.0012545822 -0.08325539 0.29168302 -0.041247956
0.17671661 -0.08652605 0.17498438 0.18205719 0.12268882 -0.30138806 0.26514843 -0.08073446
00000000: 93dc 89bd ba79 6ebd f883 e4b8 7a72 82bc
00000010: e0d6 07be 87bd 33bd bbcf 753c a8a4 56be
00000020: 5733 cdbe a446 a6be fade a93e c2ed 97bd
00000030: 8b0c b1bd 018a 77be aad9 87be 9bcc 133e
00000040: dc7e 533e ff6a 1bbe 9484 c7ba 5c20 92be
00000050: 43f9 9c3d cea0 b63c 2215 63be efc0 823e
00000060: 4682 a8be 8641 52bf 3271 1cbe d18d 80be
00000070: 0c48 09bc 3d75 24be fcad 413e e504 b43d
00000080: 2937 59be 412c 4f3c 1abd 32be fa53 943b
00000090: 85ad fa3e 2a66 363e 600d c63d 6df1 80be
000000a0: 68bc d73c ec45 98bd e23b 203d c3b0 003f
000000b0: 575a 2b3e 9017 25bd 031c 513d 4626 3d3e
000000c0: 10d4 c43d 786f 663d b80a 9ebf 8847 5cbe
000000d0: 3475 91be d2de 373e 6120 483f 2a94 a93e
000000e0: 7c30 6abc 273a 873e 8b4e 133d 6ff5 f73d
000000f0: b3f1 75be 145a f5bd 1633 0e3e 935f 1c3e
00000100: 3497 d93d e5cb 46be a2c1 3e3e acd1 d13d
00000110: 646d 623e c044 243e 1a79 a93e 1ece 8b3e
00000120: b9d5 ae3b 4bfb 4e3e 43dd 4d3e 312b 1c3e
00000130: 07d3 cabc 4598 f6be aa0e f4bd 7ae3 503e
00000140: 91fa c3bd 0020 8a3d a08e c9be a762 b2be
00000150: 8eb4 d93d 7f4c 17bd 8566 803d 992f 29be
00000160: 9dd7 d8bc 0587 8bbd fabf 3e3e 0146 f13d
00000170: db1c 5cbd 869a 9f3c 285d de3b b078 b53b
00000180: 5bc8 b43d 06af 623e b4db 5ebd ef5e 0c3e
00000190: 9eaf 313d 0182 e1bd 6a6d 793e 7efe 443e
000001a0: 0c3d 10be d7e3 6dbd 155f 473c 9438 233e
000001b0: 21ac 5a3d 7e86 76be ae03 90bd 3cb5 e63e
000001c0: cf71 3cbd 4378 823e f7b6 dabe ef47 81be
000001d0: eff7 10be b71c 283e 8ad3 05bf 2eab 4ebe
000001e0: 9763 373e d848 bcbe b02b 8f3c 997b 463e
000001f0: 4e5d 67be e279 073f 66ff 523d e79f 7cbe
00000200: 715b ba3e 0d0e 87be fedc afbe f68a 0fbe
00000210: 00f4 963d 81c1 df3d 8f2d 913e 6e99 71bd
00000220: eb7c 2ebe 5e7d 8c3e e3b6 5fbd fbff 693e
00000230: 9226 183e 4cf3 163f d0a3 fdbd 2675 68b9
00000240: 43f2 d63d d64b 84be 7eb5 e53e ef03 92be
00000250: 68cb 6fbe 05b6 88bd 9021 b13d 77af 61be
00000260: 0ead 193d f965 9bbe d961 603c f313 9bbe
00000270: c41f 723c 1080 9f3e 4208 023e c49f d23e
00000280: de4f 98bd 9b3d 78be bf2f 7e3d d1e3 0e3d
00000290: 7966 c73e 35a3 4dbe 385e 74be abb8 ea3d
000002a0: 1ad9 5c3e c69e f4bc 7610 cabe 0100 ca3d
000002b0: 0d1d c03e ec34 91bd d54f 61bd a3bd f53d
000002c0: ecb0 803e 3589 123e f510 3cbf 8f18 683e
000002d0: 02f1 aabe 6e9b 473e 6520 2a3e 9c8c 39bd
000002e0: c704 b3bd 1b29 27be 6619 3dbe 2380 ddbd
000002f0: ea57 893d 85ee 2cbe d82e 123e c25b 123e
00000300: 16df 89bd 68a2 c6bd e1b2 1bbe c527 c53e
00000310: 33e2 9ebd 5053 1abe 68dc 10bd ff2f 3abe
00000320: a657 073e cfca 793d db37 9bbb 6280 21be
00000330: 40be 173e 0177 633c 333e ba3d 81dd ad3d
00000340: c2e1 be3d 869f 0bbe cbde 2bbe 5ce2 3fbe
00000350: ab2f 98be f715 c8bd d630 003e 9196 1cbe
00000360: 0241 d0bd c5df 183d 6151 293e 92d0 d73d
00000370: cfd1 ccbd e55f 403e 9012 85bc a535 53be
00000380: 0923 68be 21e5 13be 047b 353e 12a9 243e
00000390: fe39 cebd 6a81 113e abac 303c 3870 8fbe
000003a0: a692 cb3d 0b15 cdbd 5c5e 79bd 347b 22be
000003b0: eaca 6b3d 4ca5 8fbe d6fc 2ebe cf64 abbd
000003c0: d6e0 f4bd 9415 493e 5d54 37bd 3a7b 79bd
000003d0: cb70 a43a cd81 aabd 7a57 953e 9ef3 28bd
000003e0: 33f5 343e 9234 b1bd 1b2f 333e 336d 3a3e
000003f0: 4744 fb3d 894f 9abe 89c1 873e 1c58 a5bd

hiden_layers.2.bias f4 [64]
-0.030625295 -0.10809702 0.030229717 0.12705894 0.014296044 -0.045692228 -0.086141415 -0.09671384
0.034402087 -0.0921556 0.06911196 -0.023675554 0.09987585 0.09741238 0.072077416 0.037259348
-0.021354793 -0.063488685 0.025677187 0.019909529 -0.17835501 -0.10752326 0.088278934 0.02561154
-0.032292087 0.022200132 0.018010529 -0.049833022 0.028119357 0.03756245 -0.087621614 0.056151092
0.008069007 -0.1364749 -0.06272925 0.0665989 0.022864664 0.12809427 0.0052297176 -0.048722036
0.02355887 -0.0048948233 -0.06596308 0.011807489 0.0043276804 0.023405027 -0.0028863805 -0.13460499
-0.030859716 0.07578372 0.066963166 -0.12122444 -0.08567177 0.15977135 -0.043772742 0.017786574
0.13293937 -0.04823386 0.004609915 -0.10909684 -0.051842082 0.09558219 -0.006418229 0.15541781
00000000: e6e1 fabc f861 ddbd 50a4 f73c bd1b 023e
00000010: f439 6a3c c627 3bbd e96a b0bd e811 c6bd
00000020: 34e9 0c3d 13bc bcbd 928a 8d3d 3cf3 c1bc
00000030: b68b cc3d 2480 c73d 539d 933d 429d 183d
00000040: 3ff0 aebc 5b06 82bd f758 d23c 4f19 a33c
00000050: b2a2 36be 2835 dcbd 96cb b43d 4bcf d13c
00000060: b544 04bd 0ddd b53c d18a 933c b61d 4cbd
00000070: 915a e63c 15db 193d f672 b3bd b0fe 653d
00000080: de33 043c 14c0 0bbe 3178 80bd 0165 883d
00000090: ad4e bb3c 252b 033e 0d5e ab3b c290 47bd
000000a0: 88fe c03c c164 a0bb a717 87bd 3374 413c
000000b0: 37cf 8d3b e6bb bf3c 6e29 3dbb e4d5 09be
000000c0: 84cd fcbc 7f34 9b3d fc23 893d 8544 f8bd
000000d0: ae74 afbd 1a9b 233e 0c4b 33bd 26b5 913c
000000e0: 4221 083e de90 45bd c50e 973b 2a6e dfbd
000000f0: 5d58 54bd 98c0 c33d 0250 d2bb d925 1f3e

hiden_layers.3.weight f4 [64, 64]
-0.0027186407 0.22974537 0.08122353 -0.026323915 -0.08366941 0.20377986 0.06883582 -0.20673977
0.1123848 0.082565874 0.17055912 -0.17622876 0.34888864 -0.2080771 0.13959306 -0.06797529
-0.1937823 -0.040662024 0.1407084 -0.25485754 0.25873223 -0.15634063 0.26415494 0.14192997
0.00807702 -0.123708844 -0.17931373 0.08317051 0.21417424 0.123855256 -0.09319386 0.27329072
0.08140139 0.05730387 -0.084616646 0.063458025 0.28440616 0.14759561 -0.12747033 -0.057183407
-0.022735836 0.08950985 -0.36226165 -0.094526075 0.1619748 0.32667673 -0.015455026 -0.12811011
0.10547017 -0.14765915 -0.1147517 -0.14630505 0.2128341 0.1991491 0.011745965 -0.134154
0.069029056 0.17221555 -0.20390725 0.13822822 -0.09581766 0.19703071 -0.07755921 0.15847266
-0.27537933 0.031157428 -0.15292737 0.04132731 -0.02296293 0.2218493 -0.17932013 0.07757768
-0.14866455 -0.327997 0.334648 0.08301246 0.071021624 -0.0001489542 0.08546645 0.12934695
0.16789952 -0.3529651 0.09372225 0.14292361 0.24718018 -0.061651565 -0.07828719 0.31584603
-0.07895957 0.1471312 0.26950064 -0.48351905 0.14944212 0.12414492 -0.3129602 0.07960166
0.3388917 -0.11785422 0.21247035 0.11916522 -0.05841567 -0.15212733 -0.121290796 0.16503221
0.08190028 0.062790275 0.10335823 0.44123244 0.027255945 0.085213825 0.13456477 0.30817997
0.22728191 -0.42034513 0.028707568 0.11635003 0.18657973 0.0777834 -0.2434 0.20401023
0.35225254 -0.2263215 -0.0318001 0.15806912 0.10696769 0.09350431 0.07152617 0.3508391
-0.1289042 0.058408115 -0.1475446 -0.07082103 -0.0588644 0.047213893 0.18188019 -0.17277014
0.12547164 0.096821055 -0.25541845 -0.015385391 -0.26848814 0.010406029 0.06610319 -0.06320025
0.10243545 0.082702555 -0.15402703 -0.10639176 -0.48277017 0.0076426156 -0.09006193 0.15444294
0.024892358 0.19420385 -0.046223488 0.19933178 0.19080676 0.06624292 0.26993623 -0.1425683
-0.12593158 -0.050650008 0.14750512 -0.024327872 -0.14798231 -0.11090116 0.18500957 0.109813586
0.18045755 -0.41563097 -0.10095441 -0.018312817 -0.033222172 -0.1590094 0.26687887 -0.16183063
-0.02497295 -0.50673866 0.23189268 0.1669775 0.029530643 -0.04948814 -0.34506425 -0.01952997
-0.28322163 -0.06478431 0.15762073 0.17818074 0.14377947 -0.048669163 0.36752543 -0.16012305
0.08800775 -0.26721105 0.113920994 0.0054860483 -0.19874139 -0.11490248 0.12712869 -0.11562218
0.09182283 -0.08884334 -0.08469066 -0.13924982 -0.25678277 -0.32402545 -0.008023346 -0.1027383
0.01650309 0.035960425 0.027685389 -0.020215819 0.056447037 -0.031087236 -0.091602586 -0.014756892
0.33912832 -0.07133848 0.060372956 0.006016326 0.18370172 -0.14897731 0.08639362 0.047086194
0.15707536 0.17437582 0.24907248 -0.17869075 -0.08420593 -0.04092693 -0.24966432 -0.11838609
-0.037686963 -0.17484848 -0.19839719 -0.1402854 -0.011651323 -0.25469503 0.32431787 0.16402304
-0.25026867 0.04934919 -0.28746697 -0.37741482 0.18245766 0.35115448 -0.11321217 0.2016677
0.24904086 0.13453124 0.13115188 -0.12943043 -0.015538313 -0.19044948 -0.08318312 -0.0035732256
00000000: 392b 32bb 5f42 6b3e 8658 a63d 40a5 d7bc
00000010: de5a abbd abab 503e cbf9 8c3d 97b3 53be
00000020: 012a e63d 4c18 a93d 0da7 2e3e 5075 34be
00000030: 88a1 b23e 2a12 55be 7cf1 0e3e a136 8bbd
00000040: de6e 46be 398d 26bd dd15 103e b07c 82be
00000050: 8d78 843e c217 20be 513f 873e 1756 113e
00000060: 7a55 043c 105b fdbd 059e 37be 4d55 aa3d
00000070: 7e50 5b3e d3a7 fd3d 6cdc bebd c3ec 8b3e
00000080: c6b5 a63d 76b7 6a3d 7e4b adbd 48f6 813d
00000090: af9d 913e 4e23 173e 9587 02be 2639 6abd
000000a0: 8140 babc f150 b73d 5c7a b9be e396 c1bd
000000b0: b9dc 253e 2c42 a73e 1437 7dbc 4c2f 03be
000000c0: bf00 d83d f633 17be f002 ebbd fed0 15be
000000d0: 2ff1 593e beed 4b3e 2672 403c ab5f 09be
000000e0: 1b5f 8d3d 4659 303e 10cd 50be b38b 0d3e
000000f0: 0d3c c4bd 6bc2 493e 5dd7 9ebd a846 223e
00000100: 85fe 8cbe dd3d ff3c fe98 1cbe d346 293d
00000110: c11c bcbc 772c 633e b29f 37be 0ce1 9e3d
00000120: 853b 18be 39ef a7be fc56 ab3e 7002 aa3d
00000130: c973 913d 9730 1cb9 0909 af3d 8773 043e
00000140: daed 2b3e d7b7 b4be 73f1 bf3d 915a 123e
00000150: cd1c 7d3e 5a86 7cbd 0955 a0bd 92b6 a13e
00000160: 8eb5 a1bd 90a9 163e fdfb 893e cf8f f7be
00000170: 5b07 193e b13f fe3d 523c a0be 3206 a33d
00000180: 3783 ad3e 8e5d f1bd d491 593e e50c f43d
00000190: 4545 6fbd 44c7 1bbe 4f67 f8bd 34fe 283e
000001a0: 56bb a73d 3098 803d 7bad d33d 38e9 e13e
000001b0: dc47 df3c 9684 ae3d 59cb 093e c4c9 9d3e
000001c0: 97bc 683e 7a37 d7be 222c eb3c ed48 ee3d
000001d0: c20e 3f3e e74c 9f3d d93d 79be 0fe8 503e
000001e0: 725a b43e d3c0 67be d240 02bd dfdc 213e
000001f0: e011 db3d 307f bf3d 507c 923d 2fa1 b33e
00000200: 76ff 03be 593d 6f3d ee15 17be 9e0a 91bd
00000210: cc1b 71bd 5b63 413d cd3e 3a3e a8ea 30be
00000220: a37b 003e 1e4a c63d 35c6 82be 0213 7cbc
00000230: 4777 89be 0d7e 2a3c 1c61 873d 226f 81bd
00000240: adc9 d13d f55f a93d 43b9 1dbe ece3 d9bd
00000250: a72d f7be e86e fa3b 6472 b8bd 4a26 1e3e
00000260: 0feb cb3c 60dd 463e d754 3dbd a11d 4c3e
00000270: d962 433e 5eaa 873d 1535 8a3e 6dfd 11be
00000280: 35f4 00be 6276 4fbd 950b 173e 3f4b c7bc
00000290: ad88 17be 2620 e3bd 2673 3d3e f2e5 e03d
000002a0: ddc9 383e 95cd d4be 30c1 cebd c304 96bc
000002b0: f913 08bd 5cd3 22be 59a4 883e eeb6 25be
000002c0: 1294 ccbc a0b9 01bf 4675 6d3e 26fc 2a3e
000002d0: 3fea f13c 13b4 4abd 43ac b0be 51fd 9fbc
000002e0: 6d02 91be a3ad 84bd 5467 213e 0375 363e
000002f0: ed3a 133e 5159 47bd 4b2c bc3e 4cf7 23be
00000300: 683d b43d e3cf 88be 694f e93d 4fc4 b33b
00000310: dd82 4bbe fe51 ebbd 062e 023e 52cb ecbd
00000320: 9c0d bc3d 7ff3 b5bd 4c72 adbd 8197 0ebe
00000330: 0879 83be aae6 a5be 5a74 03bc 7568 d2bd
00000340: 7d31 873c 3d4b 133d 78cc e23c a59b a5bc
00000350: 0235 673d a9aa febc 239a bbbd e4c6 71bc
00000360: 3aa2 ad3e e919 92bd a249 773d 9a24 c53b
00000370: 4e1c 3c3e 828d 18be 23ef b03d 74dd 403d
00000380: 5dd8 203e 938f 323e db0c 7f3e b5fa 36be
00000390: 2974 acbd ffa2 27bd 01a8 7fbe 6874 f2bd
000003a0: a55d 1abd 7b0b 33be a228 4bbe faa6 0fbe
000003b0: 31e5 3ebc 6367 82be fe0c a63e a8f5 273e
000003c0: 3723 80be 6022 4a3d df2e 93be 843c c1be
000003d0: 2ed6 3a3e 85ca b33e c8db e7bd fa81 4e3e
000003e0: 9104 7f3e 8fc2 093e ae4c 063e 6989 04be
000003f0: 6994 7ebc 3005 43be e95b aabd c72c 6abb

hiden_layers.3.bias f4 [64]
-0.02900658 -0.045178257 -0.09153046 -0.04391417 0.04765382 -0.0477258 0.097117566 0.012163698
0.0744771 -0.091900796 0.08102011 -0.105381906 0.053210925 0.13429779 0.05483227 0.0016120056
0.11190946 -0.055746045 0.11930881 0.14371224 -0.0609317 -0.04344722 -0.08554904 0.24741307
-0.10025745 0.031211665 -0.03135345 -0.06871771 -0.06362887 -0.06271782 -0.021423073 -0.020847354
-0.014395712 0.13003503 0.09941907 -0.15210524 -0.026439374 -0.048018076 -0.050659515 -0.09255221
-0.014941099 0.05595701 0.09293 0.07210695 -0.042435344 0.0033630424 -0.07241773 -0.038799264
-0.021920806 0.042897884 -0.0033893732 -0.08928901 0.16177338 0.018390028 -0.01051313 0.033731557
0.07389771 0.06775685 0.031160094 0.013648559 0.07339507 0.0485336 -0.08470123 0.021053508
00000000: 359f edbc d60c 39bd 5274 bbbd 58df 33bd
00000010: a730 433d 217c 43bd 93e5 c63d 3f4a 473c
00000020: 7387 983d 7c36 bcbd dfed a53d 78d2 d7bd
00000030: b3f3 593d 5c85 093e cd97 603d ef49 d33a
00000040: c930 e53d f755 64bd 2d58 f43d 4d29 133e
00000050: 8593 79bd b6f5 31bd 5634 afbd da59 7d3e
00000060: c753 cdbd 9baf ff3c 7a6c 00bd dfbb 8cbd
00000070: da4f 82bd 3372 80bd 717f afbc 12c8 aabc
00000080: fedb 6bbc e727 053e 3a9c cb3d 7ac1 1bbe
00000090: 6397 d8bc 9aae 44bd 5a80 4fbd 038c bdbd
000000a0: 83cb 74bc 2d33 653d 1552 be3d cfac 933d
000000b0: afd0 2dbd 7d66 5c3b bf4f 94bd faeb 1ebd
000000c0: 4393 b3bc b1b5 2f3d 3f20 5ebb 28dd b6bd
000000d0: eca7 253e afa6 963c 433f 2cbc 1a2a 0a3d
000000e0: af57 973d 1ac4 8a3d 7443 ff3c 359e 5f3c
000000f0: 2850 963d 2bcb 463d d777 adbd 6878 ac3c

hiden_layers.4.weight f4 [64, 64]
-0.16838433 0.12768903 0.10028573 -0.33089232 0.00821703 -0.060366392 -0.10715674 0.17327407
-0.101834215 0.005019124 -0.04936812 0.07036872 0.08607521 -0.12085957 -0.1725298 -0.0744721
0.0053628315 -0.07404899 0.08668052 0.28027603 -0.029876355 0.07028791 -0.2475683 -0.04915252
0.14235905 -0.13870671 0.17215794 0.17073187 -0.16965076 -0.2702117 -0.13344546 -0.015820188
0.17127119 0.103058085 0.071962245 -0.13441049 0.17507957 -0.17506441 -0.11925601 0.023705605
-0.25901708 -0.062761724 0.17041473 0.013867646 -0.01274993 0.06281609 0.26804507 -0.083931446
-0.14086075 -0.19196728 0.10150792 0.01831775 -0.26729545 0.046513986 0.16038904 -0.14250931
0.07405252 0.056163616 -0.36523828 -0.16946344 0.09797816 0.26654136 0.00011970459 -0.09984655
-0.06637804 -0.09500593 -0.09521633 0.07282868 -0.05900362 0.21914428 -0.30048525 -0.07291329
-0.19497448 -0.08628501 0.022475524 0.056622826 0.2555565 0.21359229 -0.23500188 0.13607377
-0.41515997 -0.14916967 0.1308803 -0.0055723786 0.0497959 0.22954473 0.1345566 -0.23769009
0.19719975 -0.24621531 -0.08923818 0.1428951 0.0943634 0.08364514 -0.24468477 -0.3211838
0.23867875 -0.0030379812 0.18864477 -0.013659461 -0.14252786 0.016840957 0.014332659 -0.010181601
0.49625018 -0.029794859 0.1302781 0.11132759 -0.10527863 0.7540631 0.032404 0.016468357
-0.06564518 0.18735458 -0.21824555 -0.07651734 0.03647568 0.025696633 0.17989095 -0.05547741
0.023955714 -0.04093498 0.2476699 0.011195732 0.1482529 -0.3713592 0.0710219 0.09776689
-0.11179472 -0.071413845 -0.10136522 -0.26777598 0.09877285 -0.11365674 -0.05632058 0.040050194
-0.04022084 -0.25185615 0.23741883 -0.13515867 0.0058717886 0.3652195 0.15386586 -0.14467332
0.0012933961 0.1256566 0.022664644 0.05633681 -0.32552347 -0.14150664 -0.1776158 0.036536347
-0.23024766 -0.22487816 -0.18812902 0.017102515 -0.21567653 0.22694927 -0.17064372 0.20620503
-0.10506643 0.12831827 -0.07924543 0.14383608 0.063806765 -0.109003425 -0.0064813546 0.19255136
0.29845706 0.13360468 -0.2269655 -0.10666062 0.0085058445 -0.14369582 0.26890537 -0.09900383
0.10947467 0.007213337 0.12820111 -0.28405353 -0.17685981 0.49266577 -0.1575496 0.072551996
-0.2271965 0.36263788 0.28965852 0.25396124 -0.025981117 -0.15167165 0.10370664 0.073537156
-0.070398875 -0.08128929 -0.079017304 0.23879929 0.14265057 -0.007622929 0.14998361 0.0028017662
0.17376553 0.17011361 0.09203488 -0.057187624 -0.27923504 -0.034481175 0.12696066 0.32885745
0.020832859 0.1642633 -0.17342736 -0.5030568 -0.22919849 0.14991291 0.2350401 0.12452883
-0.009868736 -0.014849555 0.025140023 -0.024921678 -0.034810312 0.24001536 0.04685977 -0.2411868
-0.07883138 0.11788502 0.15090753 -0.25599763 0.081530325 -0.051293418 -0.088633314 0.15323128
-0.111917526 0.31516674 -0.17556725 0.18194152 0.09887918 -0.17482674 -0.10422916 -0.29034507
-0.06544553 0.088224255 -0.08443599 0.2015035 -0.17999797 -0.09361315 0.28395513 0.22764309
-0.22383001 -0.2728125 0.00465158 0.09123281 0.319319 0.074355334 0.124002606 0.14454292
00000000: f16c 2cbe eac0 023e 9b62 cd3d b86a a9be
00000010: b9a0 063c c042 77bd fe74 dbbd c26e 313e
00000020: 758e d0bd 7777 a43b 3a36 4abd 7a1d 903d
00000030: 3348 b03d 3985 f7bd a7ab 30be d484 98bd
00000040: b1ba af3b ffa6 97bd 8e85 b13d 5780 8f3e
00000050: 42bf f4bc 1cf3 8f3d 8b82 7dbe 2754 49bd
00000060: 92c6 113e 2209 0ebe 2c4a 303e 56d4 2e3e
00000070: eeb8 2dbe 3059 8abe eda5 08be 5799 81bc
00000080: b761 2f3e 1e10 d33d f160 933d e7a2 09be
00000090: 0f48 333e 1644 33be 7f3c f4bd 4232 c23c
000000a0: e39d 84be 3889 80bd 3381 2e3e 2035 633c
000000b0: 15e5 50bc b9a5 803d 343d 893e 40e4 abbd
000000c0: cd3d 10be 1293 44be 62e3 cf3d 1b0f 963c
000000d0: f3da 88be 7385 3e3d 063d 243e f6ed 11be
000000e0: d9a8 973d d20b 663d 8300 bbbe d387 2dbe
000000f0: c6a8 c83d 1c78 883e ea09 fb38 597c ccbd
00000100: 36f1 87bd 7892 c2bd c700 c3bd 3427 953d
00000110: c8ad 71bd 5c67 603e 34d9 99be 9053 95bd
00000120: 64a7 47be 32b6 b0bd 971e b83c 56ed 673d
00000130: 4dd8 823e f0b7 5a3e 55a4 70be ec56 0b3e
00000140: d98f d4be efbf 18be 7c05 063e 8098 b6bb
00000150: c9f6 4b3d c60d 6b3e 35c9 093e 0865 73be
00000160: bbee 493e de1f 7cbe 82c2 b6bd 1853 123e
00000170: 9941 c13d 254e ab3d a58e 7abe 3472 a4be
00000180: 3468 743e de18 47bb 182c 413e efcb 5fbc
00000190: d3f2 11be 0cf6 893c 87d3 6a3c bbd0 26bc
000001a0: 8114 fe3e 5914 f4bc 9f67 053e b8ff e33d
000001b0: 539c d7bd 480a 413f 0fba 043d a6e8 863c
000001c0: fb70 86bd e1d9 3f3e c37b 5fbe 20b5 9cbd
000001d0: 8667 153d bf81 d23c 5535 383e 483c 63bd
000001e0: c63e c43c 70ab 27bd 2e9d 7d3e 4e6e 373c
000001f0: 9ccf 173e cb22 bebe ee73 913d 023a c83d
00000200: a1f4 e4bd 6c41 92bd 9298 cfbd ef19 89be
00000210: 6c49 ca3d ddc4 e8bd 69b0 66bd ac0b 243d
00000220: 9cbe 24bd 4af3 80be ec1d 733e 0967 0abe
00000230: 2268 c03b 0dfe ba3e 038f 1d3e 3e25 14be
00000240: 2c87 a93a 20ac 003e 34ab b93c 6dc1 663d
00000250: 03ab a6be 1ee7 10be ebe0 35be 23a7 153d
00000260: 0bc6 6bbe 7646 66be e5a4 40be 931a 8c3c
00000270: 4fda 5cbe 6465 683e 3abd 2ebe 6927 533e
00000280: 122d d7bd dd65 033e 6e4b a2bd c449 133e
00000290: 1fad 823d 303d dfbd 8b61 d4bb 2f2c 453e
000002a0: 5dcf 983e aacf 083e a569 68be e270 dabd
000002b0: 195c 0b3c ff24 13be f7ad 893e 85c2 cabd
000002c0: 4134 e03d db5d ec3b 2747 033e 776f 91be
000002d0: bd1a 35be b03e fc3e af54 21be 2496 943d
000002e0: 33a6 68be acab b93e 1f4e 943e 3507 823e
000002f0: 5ad6 d4bc d04f 1bbe 2664 d43d a69a 963d
00000300: 492d 90bd 007b a6bd d3d3 a1bd cd87 743e
00000310: fe12 123e c3c9 f9bb 4e95 193e d69d 373b
00000320: 97ef 313e 4332 2e3e c87c bc3d 923d 6abd
00000330: e5f7 8ebe 223c 0dbd fa01 023e 0160 a83e
00000340: aca9 aa3c a334 283e f196 31be 55c8 00bf
00000350: 02b3 6abe c582 193e 5aae 703e f908 ff3d
00000360: 7bb0 21bc 8c4b 73bc 73f2 cd3c 8c28 ccbc
00000370: 4295 0ebd 96c6 753e 08f0 3f3d acf9 76be
00000380: 5972 a1bd b46d f13d 8187 1a3e 1f12 83be
00000390: 5ff9 a63d 0c19 52bd 6285 b5bd a9e8 1c3e
000003a0: 0435 e5bd 895d a13e e7c7 33be e14e 3a3e
000003b0: 2b81 ca3d c805 33be 1976 d5bd 1ca8 94be
000003c0: 4e08 86bd ebae b43d c7ec acbd ef56 4e3e
000003d0: 6351 38be 40b8 bfbd 9162 913e 451b 693e
000003e0: b233 65be 14ae 8bbe 486c 983b 44d8 ba3d
000003f0: c87d a33e 9c47 983d 14f5 fd3d 0f03 143e

hiden_layers.4.bias f4 [64]
-0.0027814081 0.013185237 0.038416848 -0.062730886 0.005553722 0.067828715 0.21061197 -0.019460898
-0.06690043 0.07737855 0.066027254 0.118206486 -0.019785224 0.049514536 -0.008712417 0.15821108
0.028443739 0.03756161 0.070630975 0.045715556 0.10495281 -0.0997491 -0.06046041 -0.004996935
-0.057120897 -0.060716256 -0.13192528 0.034083374 0.048089854 0.034181394 0.030983463 -0.060690634
-0.011412622 0.02623496 -0.0025930481 -0.082520254 0.08193849 0.058918674 -0.08848577 -0.016402885
0.050316412 -0.09579022 0.015579797 -0.0034961128 -0.08528617 0.04411717 0.08711809 0.06770543
0.062441386 -0.058592904 -0.006800191 0.06502539 0.041763984 0.044899732 -0.013279664 -0.18819743
-0.1032167 -0.045347646 -0.05234753 -0.035149194 -0.007616319 -0.11039718 -0.020251283 0.012983489
00000000: 4948 36bb e406 583c fc5a 1d3d 0d79 80bd
00000010: fffb b53b c8e9 8a3d aaaa 573e 766c 9fbc
00000020: 1803 89bd a578 9e3d 4c39 873d 3e16 f23d
00000030: 9f14 a2bc c1cf 4a3d 87be 0ebc 1602 223e
00000040: d802 e93c 34da 193d f9a6 903d 3c40 3b3d
00000050: 80f1 d63d 4249 ccbd 56a5 77bd 54bd a3bb
00000060: 9af7 69bd 9cb1 78bd 6c17 07be 029b 0b3d
00000070: def9 443d ca01 0c3d 08d1 fd3c be96 78bd
00000080: 02fc 3abc b3ea d63c 21f0 29bb 6100 a9bd
00000090: 5ecf a73d b554 713d 0738 b5bd 585f 86bc
000000a0: 9518 4e3d aa2d c4bd 6842 7f3c 0a1f 65bb
000000b0: 84aa aebd 35b4 343d f86a b23d 25a9 8a3d
000000c0: 8ac2 7f3d 1dff 6fbd 23d4 debb 082c 853d
000000d0: b610 2b3d c8e8 373d f392 59bc d4b6 40be
000000e0: 4763 d3bd 74be 39bd 5d6a 56bd 9af8 0fbd
000000f0: 5192 f9bb eb17 e2bd 05e6 a5bc b3b8 543c
