results/5_model_3_case_1/epoch500/model_weights.pth (torch, 484214 bytes, 88 tensors)

init_layer.0.weight f4 [64, 3]
00000000: 467b 0bbe e731 a3bd 2e96 a33e 1545 523f
00000010: 9dc3 a53d b66a f0bd 5a4f 19be 06c1 25be
00000020: fe78 14be 2272 993e cd4b 673d 195e 923d
00000030: 5a8d d6bd 2902 4e3e b637 843e 5c6e 84be
00000040: 6b48 aabe c1b3 5a3e c461 cb3e 44b0 f63b
00000050: 71f7 b43e c7d7 e03e 4660 b53d 2fd7 853e
00000060: 453c 9f3e 3d14 7dbe 4eb9 da3d 230e dcbd
00000070: 7e53 b3bd a6c6 863e 5718 b4be 4d92 5d3c
00000080: 0506 1c3d 78d3 013e 87ef d23d f6c6 88be
00000090: 48f3 3abe 35b5 a03c c632 b8bc a9bb 7dbd
000000a0: 3097 483d 11a5 b23e 8d79 4b3e 90f7 d2be
000000b0: 95f2 57bd 6e02 563e d20b c5bd d22b 9bbe
000000c0: 1120 21bd 72da 65bd 02eb ad3e 9a37 393e
000000d0: 572f 323e 0e14 68be 0d9e 2e3e 469e c03d
000000e0: 8c02 7bbe 78bc d7be 7fe7 d6bc 5794 76be
000000f0: c6bb 0d3e 1bd5 80bd 8814 27be 37b8 1a3e
00000100: 3f58 07be cb9b f8bd 50e7 103b 58be 13be
00000110: e3be 5dbe 3288 c6bd 51af 6a3e 2c2c 2ebc
00000120: f0c0 8bbd 1ad8 833c c870 853e 60c2 b1bc
00000130: 4261 3d3e eb32 12be e0a8 05bd 247a 093e
00000140: 029f 9c3e 3945 14be 177b 2dbe 9236 243e
00000150: eefc aa3d 3f61 6ebc 33da 9cbe 11f6 e9bc
00000160: 7cfa 59be 34f5 323e 8d28 afbe f8cf 60be
00000170: 3902 10be 902d 14be b1d1 743d e9a6 c63e
00000180: f996 80bd bf72 e13d cac8 9a3e d08d 9abe
00000190: e52e 3e3e 88d5 e8bd 5f4f 3c3d 39ec b2ba
000001a0: fae1 33be af31 1ebd 4dbf b8bd 357d 8cbe
000001b0: 4624 a43d 9c41 1abd d70c a7be df88 03be
000001c0: 892b 24be 7f86 d7bd dfea aa3e 5a20 09bd
000001d0: 7aae 843e 8945 8bbe cbcd ac3e 8d41 a53e
000001e0: 2b31 003e 7d04 193e 9314 c9be e257 803d
000001f0: f89f 3abc 0d46 8fbe 1da4 da3b 668a 06bd
00000200: 80f6 983e 655d c3bd f151 0ebd b3a8 7c3e
00000210: 4264 063e 2566 28be 88c8 6fbe 058d 4dbe
00000220: b0a3 6bbe b52b 673e d7be 48ba 44fb 29be
00000230: e207 b43d e9d6 213e cfc4 243e 93aa 383d
00000240: a1ff a53e 2c9d cc3e 803f 9d3c bf5a 773e
00000250: 39f9 a5be 6586 893e 2ba3 dd3d bce6 42be
00000260: ae2f 74be fd63 a5be 30cc 2dbe 40cb f2bd
00000270: 911c 9e3e 604c b7be f5c1 bb3d b1f3 d0bd
00000280: f109 49be df6d 923d a886 3f3e c880 30be
00000290: 0a16 a6be 12a0 b33e 5fdd bdbd cedf 893e
000002a0: 5b86 8abb 2cb5 873d 1502 943e e446 b9bd
000002b0: a243 7dbd 139a 2d3e ce2b 643e 722a c93e
000002c0: 6f61 0e3e d9d7 1c3e 7a54 353e 9915 3ebe
000002d0: ae6a 94be 6144 42be b0b5 3dbe 3696 b4be
000002e0: 119f a93d 0661 d5bd 2bff b43e d53e c5bd
000002f0: fc69 913d 30df fc3e 45cf bc3d 2741 3f3e
-0.13621244 -0.079685025 0.31950516 0.8213666 0.08093951 -0.117391035 -0.14971676 -0.16186914
-0.1449928 0.2996989 0.056468774 0.07146854 -0.104761794 0.20118012 0.25823754 -0.25865448
-0.33258376 0.21357633 0.39723027 0.0075283367 0.35345033 0.43914625 0.08856253 0.26140735
0.3110067 -0.24714752 0.10679875 -0.10744884 -0.08756159 0.26323432 -0.3517482 0.01352365
0.03809168 0.12678325 0.102995925 -0.26714295 -0.18256867 0.019617656 -0.022485148 -0.061946545
0.04897231 0.3489156 0.19870587 -0.412045 -0.05272158 0.20899364 -0.09621395 -0.3030687
-0.03933722 -0.05611653 0.3396836 0.18087617 0.17400871 -0.226639 0.17052479 0.09405188
-0.2451269 -0.42135978 -0.026233433 -0.24080025 0.13841161 -0.06290647 -0.16316426 0.15109335
-0.13217257 -0.1213909 0.002211053 -0.14428079 -0.21654849 -0.09693946 0.2291844 -0.010630649
-0.06823909 0.016094256 0.26062608 -0.02169913 0.18494132 -0.14277236 -0.032631755 0.13425499
0.30590063 -0.14479531 -0.16941486 0.16036442 0.08349024 -0.014549552 -0.30635223 -0.028559716
-0.21286958 0.1747635 -0.34210625 -0.21954334 -0.14063348 -0.14470506 0.05977029 0.38799217
-0.06278796 0.11008214 0.30231315 -0.3018632 0.18572576 -0.11368853 0.04597413 -0.0013650722
-0.17566672 -0.0386216 -0.09020863 -0.27439275 0.08014731 -0.037660226 -0.32626984 -0.12845181
-0.16032232 -0.105237 0.33382317 -0.03347812 0.25914365 -0.2720149 0.33750758 0.32276574
0.12518756 0.14943118 -0.3927351 0.06266762 -0.011390679 -0.27983132 0.006672396 -0.03284683
0.29875565 -0.09539298 -0.034746114 0.24673729 0.13124183 -0.16445215 -0.2341634 -0.20073326
-0.2301166 0.22575267 -0.0007657832 -0.16599756 0.08790566 0.15804638 0.16090702 0.045084547
0.32421592 0.39963663 0.019195318 0.2415571 -0.32416704 0.26860347 0.108221374 -0.1903333
-0.23846313 -0.32302848 -0.16972423 -0.11855173 0.3088117 -0.35800457 0.09167854 -0.102027304
-0.19632699 0.071498625 0.18703711 -0.17236626 -0.3243869 0.3508306 -0.09270739 0.26928562
-0.004227442 0.06626353 0.28907838 -0.090467244 -0.061832078 0.16953306 0.22282335 0.39290196
0.13904355 0.15316714 0.17708007 -0.18562926 -0.2898764 -0.18971397 -0.1852634 -0.35270852
0.08282293 -0.104188964 0.35350928 -0.09631125 0.07100293 0.4938903 0.09219221 0.18677197

init_layer.0.bias f4 [64]
00000000: cd71 8c3e 490e b2bd 46ca ac3d 3f0a 81be
00000010: ff14 883c 2dae 043d 3d38 dc3d 2d77 2d3e
00000020: 2f4e 01be 34ee 1ebe 24b4 963e c580 023e
00000030: 4068 313e e4d3 a13e bacd afbd 1c6c 843e
00000040: 6164 a23e bb19 f93d 8c5c 5d3d 9e3b ff3d
00000050: 9fed 1c3e 657f 303c 53c6 7a3e f80b b83d
00000060: d590 023e 2389 1dbe 7f0a 093e 4383 64bd
00000070: 70b8 9bbe 5756 6c3e 21bb e5bd 8b04 d8bd
00000080: a45b eabd 1126 303e 0117 1c3e cca1 743e
00000090: 0a2b 69be e08f f4bd ffcf 93be 78aa 47bd
000000a0: f911 b0be b3e6 bd3b af63 42be bee8 88bd
000000b0: 6776 fb3d 239b 693d 343e 1dbe 9a60 69bd
000000c0: a3d6 75bd 8db6 733e 673c 27be 01c2 fabd
000000d0: b782 05be 8cbe 0ebe e9b1 a73d fc51 b73d
000000e0: 33a4 563e 53b7 4b3d 9b7e 3b3d 15cd 5abe
000000f0: 028b a53d 30be 5abd 83da 033e 8bab b93c
0.27430573 -0.08694131 0.08437018 -0.2520313 0.016611574 0.03239267 0.10752914 0.16939993
-0.12627481 -0.15520555 0.2943431 0.12744434 0.17324924 0.31606972 -0.08584161 0.2586373
0.31717208 0.12163111 0.054043338 0.12462543 0.1532502 0.010772561 0.24489717 0.08986658
0.12750562 -0.15384345 0.1338291 -0.055789243 -0.30414152 0.23079811 -0.11217333 -0.105477415
-0.1144326 0.17202021 0.1524315 0.23889846 -0.22770324 -0.119415045 -0.28869626 -0.048746556
-0.34388712 0.0057953238 -0.18983339 -0.06685017 0.12278443 0.057032716 -0.1535576 -0.056976892
-0.060019147 0.23800106 -0.16331635 -0.122440346 -0.13038145 -0.13939875 0.081882305 0.08951184
0.20961075 0.04973538 0.045775037 -0.21367295 0.08083154 -0.053404033 0.12876324 0.022664806

hiden_layers.0.weight f4 [64, 64]
00000000: 5c74 81be 6305 c8bd 1245 283c 4c55 b13e
00000010: 56a9 c1bd e0e7 c1bc db50 ee3d 5211 31be
00000020: ca71 713e 612f 3d3d 9aaf 1fbe 1916 c03d
00000030: f09b 58be a75b e23d b103 4b3e 07b9 d7be
00000040: b69e 7cbd ade0 21be 441b dbbd 15ef a2be
00000050: b9a8 5dbe ffb2 003e d19a 83be ef40 f1be
00000060: 5d3b 0b3e bf80 863d 2bbc febd d88e 2abe
00000070: fa36 e7bc 24ed 0fbe f93a 31be ef9e da3d
00000080: d4ac 953d 53ad 99be b908 663b 6a61 76be
00000090: 1ee0 cd3b adaf 1dbc 6076 043f 883a 9b3e
000000a0: 0446 253e 4375 30be b4ce 993e dcbe 053d
000000b0: 2e2c 5dbe 35d3 aabd e1c8 503e 363a 73bd
000000c0: 8f44 973e 672d 50be 95e3 bcbd 0d92 0f3d
000000d0: 14cd 863e 98ab 823d d1af 103c 5103 8c3e
000000e0: e139 26be f356 fdbc e109 50be c514 583e
000000f0: 6ce5 19bd 7b32 69be fc72 893b f7ba 16bd
00000100: de37 84bc a00a 83be 8288 d5bd 3031 efbd
00000110: 41bd 7dbe be19 35be 4932 553e 6aa2 20be
00000120: 4da6 e0bd 6e19 f9be 0785 e63e 4f56 193e
00000130: 64ae 6e3e 1027 8a3d e743 6d3d 00d5 c33e
00000140: 7974 143d c39d 9c3e 3921 173e e9e1 e03d
00000150: 6a2d b43e 29e1 edbd 2701 b53e 6fab 6f3e
00000160: e404 ffbd f3c1 9abd b319 643e 5ea8 cabc
00000170: 39f3 e63d eb21 0e3e 46f3 22be 8b5f b1be
00000180: d39b 3bbe 0312 303e b967 323f 23c0 f03e
00000190: 363c 543e 5ad8 e6bd dd87 b1be 1f3f a63c
000001a0: 5f50 babd eb2e 093e 563f 08bf b804 98be
000001b0: aee2 873e b645 7fbe 4cfa dcbd 121d 6bbe
000001c0: 3529 35be 4237 9cbd 918d f6bd ba2f b3bd
000001d0: 8230 06bc b29b acbe b1f2 863e ea99 193e
000001e0: 6c5d 47be 532d 4ebe 991f 48be 8d9e 35be
000001f0: bd1f 9d3e e856 1c3e 2ac1 863e bc69 12be
00000200: 165a ca3d b0e3 19be 3378 723e 1078 ddbc
00000210: 7267 81be e454 ad3d 8b82 b9bd e069 8cbe
00000220: fd28 943d ffa6 bbbc f282 bcbc 6f52 d13d
00000230: ac23 053e 13c4 72be d02c 7b3e aa05 03be
00000240: 8feb 0ebe 26c0 8abe 9485 3d3d f486 2bbd
00000250: 71e3 98bb b4cf 08be f0be 12be 6e1b b5bd
00000260: 18c4 56bc 0ad3 2bbe aa74 abbd b4dc a43e
00000270: fa6c 9cbb 74cc 08be dc60 bc3e fbc2 603e
00000280: adb3 3dbe 06b6 01be 89c3 363e 527d 4c3e
00000290: a07a 55bd c1d1 b2bc b454 f3bc 49ac 4a3d
000002a0: 9158 39be f7f5 23bd 1820 4c3e becf 733e
000002b0: 94d8 4c3e 0742 d83d 1d6a 2e3d 8815 adbd
000002c0: 5335 e6bd a653 863d 3a1e 0abd 4303 e63d
000002d0: 2b82 853d aa72 d03d cbac 02be b910 dfbb
000002e0: f56e 89be 6e17 443e ce7c b9be 8bd9 32be
000002f0: e8d4 803e d048 babd 1375 4ebe 1632 b53d
00000300: d675 36be 4193 96bb 3a4d 4f3d 12b3 0ebd
00000310: 099b e43c 2268 c4bd 0494 31be 4aad 8fbe
00000320: 0680 c1bd 4077 4fbe 6457 30bd 457f cb3d
00000330: fa5b 61be e529 0cbf 2911 a53e f383 b2bd
00000340: c853 d9be 1f9e 6a3e 1faa 8a3e 21be 56bd
00000350: 56f2 763e aeb4 1d3d aad2 20be e702 7bbe
00000360: 6aa5 18bd 5390 423e da19 5ebe 0508 0ebe
00000370: ee75 ac3e edba d6be 475f 43bd 9a4a 24bd
00000380: 261f 39be d215 0b3b 57da 0cbe 8491 753c
00000390: 4533 943e 9979 93bc d179 fdba b578 10be
000003a0: 9db9 373e a2e8 993d 7540 263d f048 fe3d
000003b0: 4563 dc3d 1766 e6bd 9ddf c93d 635b d93d
000003c0: c4bb 933e 6b13 f6bd a197 e83e bc74 bc3c
000003d0: 7610 63bc 3fbb 103e c6e3 8f3e a2c1 eebc
000003e0: 6a0b edbe 3bf2 86be 1d10 9fbc f817 043f
000003f0: 915b 75bd e0af 87bc 0600 8fbd 261f 22be
-0.25284088 -0.097666524 0.010270374 0.3463539 -0.094561264 -0.023670137 0.11636516 -0.17291763
0.23578563 0.046187762 -0.1559433 0.09379215 -0.21153235 0.110526375 0.19825627 -0.42133352
-0.061674796 -0.15808363 -0.1069856 -0.3182303 -0.21646394 0.12568282 -0.25704053 -0.47119853
0.13596864 0.06567525 -0.12438234 -0.16656053 -0.028224457 -0.14055306 -0.17307653 0.106748454
0.07308355 -0.30015048 0.0035100414 -0.24060598 0.0062828204 -0.009624404 0.51743126 0.30318093
0.1613999 -0.17232232 0.30040514 0.03265272 -0.21598884 -0.08341066 0.20389129 -0.059381686
0.29544494 -0.2032982 -0.09223095 0.035051394 0.26328337 0.06380385 0.00883098 0.2734628
-0.16233017 -0.03092525 -0.20316269 0.21101673 -0.03757231 -0.22773163 0.0041946154 -0.036799397
-0.01613992 -0.25594044 -0.104264274 -0.11679304 -0.24779226 -0.17685601 0.20819964 -0.15686956
-0.10969219 -0.48652214 0.45023367 0.1497433 0.23308712 0.06745732 0.057926085 0.38248444
0.03624389 0.30589113 0.14758767 0.10980589 0.35190898 -0.116152115 0.35352442 0.2340524
-0.12452105 -0.07556524 0.22275428 -0.024738487 0.1127686 0.13880126 -0.15913114 -0.34643206
-0.18321161 0.17194371 0.6968952 0.4702159 0.20726094 -0.112717345 -0.34673968 0.02029377
-0.09097361 0.13396804 -0.5322164 -0.296911 0.2654013 -0.24928936 -0.10789928 -0.22960308
-0.176915 -0.07627727 -0.120387204 -0.087493375 -0.008190276 -0.33712536 0.26357034 0.1500012
-0.19469231 -0.20134477 -0.19543304 -0.17736264 0.30688277 0.15267527 0.26319247 -0.14298147
0.09880464 -0.15028262 0.23678665 -0.02703479 -0.25274235 0.08463457 -0.09058102 -0.27424526
0.072343804 -0.022906778 -0.023011658 0.10220801 0.13001889 -0.23707609 0.24528813 -0.1279513
-0.13957046 -0.27099723 0.04626997 -0.04187675 -0.004665785 -0.13360482 -0.1433065 -0.088431224
-0.013108276 -0.16779724 -0.08371861 0.32199633 -0.004773733 -0.13359243 0.36792648 0.21949379
-0.18525572 -0.12667093 0.17848028 0.19969681 -0.052118897 -0.021828534 -0.029703476 0.04948071
-0.18100192 -0.040029492 0.19934118 0.23809716 0.20004493 0.10559469 0.042581666 -0.084513724
-0.112406395 0.065589234 -0.033720233 0.11231091 0.06518968 0.101781204 -0.12761228 -0.0068074134
-0.26842466 0.19149563 -0.3622803 -0.17465799 0.25162435 -0.09095919 -0.20161848 0.08847444
-0.17818388 -0.0045951908 0.05061076 -0.034838744 0.027905958 -0.09590174 -0.1734162 -0.28061897
-0.09448247 -0.20260334 -0.043052092 0.09936384 -0.22007743 -0.54751426 0.32239655 -0.087165736
-0.42446733 0.22911881 0.27082917 -0.052427415 0.24115881 0.038502388 -0.15705362 -0.24512826
-0.037267126 0.19000368 -0.21689549 -0.13870247 0.33683723 -0.41939488 -0.047698285 -0.040110208
-0.18078288 0.0021222723 -0.13755165 0.014988307 0.28945366 -0.018002318 -0.0019338672 -0.14108546
0.179419 0.07515074 0.040588815 0.124162555 0.10761122 -0.11249941 0.09857104 0.10613134
0.2885419 -0.120154224 0.45428184 0.023004882 -0.013858905 0.14133929 0.28103465 -0.029145066
-0.4629777 -0.26356682 -0.019416863 0.51599073 -0.059901778 -0.016563356 -0.06982426 -0.15832195

hiden_layers.0.bias f4 [64]
00000000: 0e6f e3bd 911a 8c3e a0aa 55bd 44f8 53be
00000010: 48d4 983d ff38 8abc bd3e c73d 1595 4abd
00000020: 5ea1 fa3b d273 17be e49b 16be a983 1d3e
00000030: ba31 a93d 37e8 a4bc db0a 423b 5b4b e73d
00000040: 8835 1abd f13c 353d 6fc0 a53d 3bab 76be
00000050: 4bd3 58be 29c6 863d 5430 c7bc abfa 8d3d
00000060: 025f 053e 326a 7b3d ac4f 89bd e1fa 81bd
00000070: 564c d03d 0241 8dbc f6ea 08bd cc96 9f3d
00000080: 367b 633d 9a70 32bd e765 0bbe 48e6 31bd
00000090: e1a5 92bd 19ff 2e3d 6fcc 01be 7290 8cbd
000000a0: dfd9 a6be 19eb e9bd 54d7 f33d c8d9 e1bd
000000b0: a402 d53b 2e66 9c3d 1e7c 633c 00c2 5d3c
000000c0: f470 cb3d 702b 74bd 6e19 673e 3c5c ec3d
000000d0: d797 8bbd 7a8a cdbd 56ea ba3c 8b04 403d
000000e0: d156 f1bd 8e39 df3c 30c2 82bd 307e c7bd
000000f0: b999 7abe 2a5a 833d f8e0 00be 7767 853d
-0.111051664 0.2736402 -0.052164674 -0.20700175 0.074623644 -0.016872881 0.09728763 -0.049458582
0.007648631 -0.14790276 -0.14707905 0.15382256 0.08261438 -0.02013026 0.002960852 0.1129367
-0.037648708 0.04424757 0.080933444 -0.24088757 -0.21174352 0.06580765 -0.024315037 0.06932577
0.13024524 0.061380573 -0.06704649 -0.063466795 0.1017081 -0.017242912 -0.0334272 0.07792434
0.055537425 -0.043564416 -0.13613091 -0.043432504 -0.07160545 0.04272375 -0.12675641 -0.06863488
-0.32588097 -0.114217944 0.11906305 -0.110278666 0.006500559 0.07636677 0.013884572 0.013535023
0.099336535 -0.059611738 0.22568294 0.1154103 -0.068160705 -0.10036178 0.022816818 0.046879333
-0.11784137 0.027249124 -0.063846946 -0.09740865 -0.24472703 0.06413682 -0.12585819 0.06513875

hiden_layers.1.weight f4 [64, 64]
00000000: 32e2 0bbd 8a1b 813d bc13 9cbe dbc4 3e3d
00000010: 0578 91be 68b4 563e 8b86 e1bd d793 15be
00000020: 118b ac3d 34a1 6abc 2b03 2cbc 42c9 1dbe
00000030: 916f e63d ec24 abbc 1a1c 88bd 5d76 94bd
00000040: 2843 183d c607 683e 503b 4a3d ee49 f53d
00000050: 8aa0 593e 1fbb a6bd 835c 533d 6399 00be
00000060: baa2 7cbd 0f93 4cbe 5cc3 d6bd ac22 3d3e
00000070: 37ae 833c ac09 87bc bddc f5bd 5ec1 a73d
00000080: 3aca aabe ee35 653e 8d16 36be bfd9 45be
00000090: d058 7ebd a4d0 b8bc ca70 6bbd 8148 033e
000000a0: 4370 a63d bc34 203e 02a5 2cbe e06b 393e
000000b0: 6602 683e 7452 8f3d 6b39 1e3e 8c17 34be
000000c0: 18f6 cb3c d966 1cbe d07e 1bbe 6f4f 0c3e
000000d0: b16f cfbd 8b0d 8dbd b8aa 47bc dce5 62be
000000e0: 4dcc 703e 39e3 0abe 5dd8 61be 313b a33d
000000f0: cc6a 523d 5ce0 923d d3ee 3e3d 512d edbd
00000100: 8229 4c3e 030d dd3a e6b9 6dbd 48d7 0dbe
00000110: 6839 aabd d758 67bd 1416 42bd bae3 9bbe
00000120: 52d6 0f3e f9bb 94bf 6116 593d 3eb1 663e
00000130: 360e a53c 7d24 c8bd adb9 8ebd 5477 9cbd
00000140: 3435 0cbd 4614 acbd a0ae 343e 3cb1 90be
00000150: 0224 423d ac3b fd3d c79b dabd f2dc e33d
00000160: d95c 6cbd 235f f13c 4ebe 5d3d f2fe 883c
00000170: cd7e 9abd 859d 4e3e 6b3e f43c 90a4 203e
00000180: e36b 2a3e f385 b43d e5b1 0bbe 597d 99be
00000190: 1fea b6be 1d32 05bd db47 6cbd 0b4a d4be
000001a0: 2f71 20bf 73d6 5abd c270 d83d cbfc 7dbe
000001b0: bea6 8fbd ea92 663e fa60 8f3e fc6d c9be
000001c0: bd6f bf3d ebb8 333e e0e9 50be a628 aa3d
000001d0: 7fa4 c3bd 1080 b23d 43a6 a73e 81ef 953e
000001e0: 48a8 b3bd 9483 b63e f79b 623c 2868 d33c
000001f0: c828 bc3d e15e f4bd f315 05be ca91 853d
00000200: bc94 fe3d 6277 973e 2d4a 383e b8e3 023e
00000210: 3535 c33c 1a87 0a3e cc78 f9bd 8c72 303e
00000220: e3a7 6d3e 7ceb a9bc 5b9c 49be b6c6 653c
00000230: 309c 083e 2c23 cb3b 461b c93d d7e7 f33d
00000240: ef37 14be 5ef9 a6bd c388 1a3d a616 a2bc
00000250: 78a1 febd 3288 c2bd c12f a9bd ad56 6fbe
00000260: 6b96 0b3d 904c 8c3e 7b53 a0be e7d8 5cbe
00000270: 970d 033e 376d 30bc 5a65 f03d e3ba 6b3e
00000280: 0225 ea3b 073d 46be cdd2 22be e7f7 c3bd
00000290: 1d62 0cbd 5849 66be 5af2 98bd 636e 82bd
000002a0: 2379 40be 3e4f 74be d5ff 96be efae f8bd
000002b0: d847 0a3e b74e 6c3d d086 10be aaa3 f8bc
000002c0: 1fe2 8a3d 99c9 89bd c834 1fbc 58b2 81be
000002d0: 3f24 6a3c afc6 a1bd 8730 ec3d bfaa 393b
000002e0: fe6b e6bd d54e 3d3e e81b 49be 7a1c 9d3d
000002f0: 75a8 abbd 7f95 513d 43ee 9d3d 1b7d a8bc
00000300: 65e0 2c3e 2f4b 63bd fa64 02be 752b 163e
00000310: 718a 8e3e d714 54be d06b 8bbd 8fde dfbd
00000320: 3315 d6bd 78ce d3bc 498c 01be 90d4 903e
00000330: 7697 913e 7da8 453e 2137 8a3d 9c8e 113e
00000340: e68f 60bd 4191 00be e6a6 c13d 9e40 203e
00000350: 25a2 d13c e9fa 41be f9e5 2c3d 1f96 843d
00000360: 69f8 373e b67d a93d 645f 353c ae07 39bd
00000370: 38a2 203e 13ff 633e 048a 163e 16d4 4f3e
00000380: d594 893e 732d 5cbd 66ab e0bd 048c ef3c
00000390: 1a20 203d 4139 ed3d 04b3 013e 019c 563e
000003a0: 6e4d 803e ae3a 8dbd 242f 1c3e e85e 763d
000003b0: dd13 08be 227b 07be 7c28 35be 52b2 89bd
000003c0: 7ad9 ac3c 8244 993d 148a 29be 27d9 de3d
000003d0: f8ed 2d3e bcbf a6bd ba65 9fbe d4e4 ba3b
000003e0: 034e 2abe 04ab 86bd c299 243e c05d 1b3d
000003f0: 7a29 1fbe f606 533e 5175 4bbc 3a44 48be
-0.034151264 0.06304081 -0.30483806 0.046574455 -0.2841188 0.20967257 -0.1101199 -0.14607178
0.08424962 -0.01432066 -0.010498802 -0.15408805 0.11251748 -0.02089163 -0.06645985 -0.072491385
0.03717342 0.22659215 0.04937297 0.119769916 0.21252647 -0.08141159 0.051601898 -0.12558512
-0.061678626 -0.19977973 -0.104864806 0.18470258 0.016074283 -0.016484104 -0.12004993 0.08191179
-0.33357412 0.22383854 -0.1778204 -0.19321345 -0.062096417 -0.022560425 -0.05748061 0.12820627
0.08126881 0.15645117 -0.1685982 0.18107557 0.22657165 0.069981486 0.1545159 -0.17587107
0.02489762 -0.15273608 -0.15185094 0.13702177 -0.10128725 -0.06887349 -0.012186699 -0.22157997
0.23515435 -0.13563241 -0.22055192 0.07970274 0.05137138 0.071716994 0.04661448 -0.11580909
0.19937709 0.001686484 -0.058038615 -0.13851655 -0.083117306 -0.05648121 -0.047384337 -0.3044718
0.140466 -1.1619865 0.052999858 0.2252855 0.020148378 -0.097725846 -0.069690086 -0.076399475
-0.034230426 -0.08402304 0.17644739 -0.2826022 0.04739762 0.12364897 -0.106742434 0.11126126
-0.057705734 0.02946431 0.054136567 0.01672313 -0.075437166 0.20177276 0.02981492 0.15687776
0.16642718 0.08814611 -0.1364208 -0.29978445 -0.35725495 -0.032518495 -0.057685714 -0.4146274
-0.62672704 -0.05342717 0.10568382 -0.24803464 -0.070142254 0.22516981 0.28003675 -0.39341724
0.09347484 0.1755101 -0.20401716 0.08308534 -0.095528595 0.08715832 0.32744035 0.2928429
-0.087723315 0.3564726 0.01383113 0.025806502 0.09187466 -0.11932159 -0.12996654 0.06521948
0.124307126 0.2958327 0.17997046 0.1278218 0.023829082 0.135281 -0.12181243 0.17231196
0.23208575 -0.02074217 -0.19688551 0.014024427 0.13340831 0.006199261 0.09819655 0.11909454
-0.14474462 -0.08153032 0.037728082 -0.01978619 -0.124331415 -0.094986334 -0.082610615 -0.23372908
0.034078997 0.27402163 -0.3131369 -0.21567117 0.12798153 -0.010768226 0.11738081 0.2302051
0.007145525 -0.19359218 -0.15900727 -0.09568768 -0.034273256 -0.22488916 -0.074681 -0.06368711
-0.1879621 -0.23858353 -0.2949206 -0.12142741 0.13503969 0.057692256 -0.14113927 -0.030351479
0.067814104 -0.06727905 -0.009717174 -0.25331378 0.014290868 -0.07899224 0.11532693 0.0028330532
-0.112510666 0.18487103 -0.19639552 0.07671447 -0.0838174 0.05116796 0.077114604 -0.020567467
0.16882475 -0.055491623 -0.12733832 0.14665015 0.27839997 -0.20711075 -0.06807673 -0.109311216
-0.10453262 -0.025855288 -0.12651171 0.28287172 0.28435868 0.19302554 0.06748796 0.14214557
-0.054824732 -0.1255541 0.094556615 0.1564965 0.025590012 -0.18943371 0.042211507 0.06473946
0.17965855 0.082759306 0.011070106 -0.04517334 0.15686882 0.22265272 0.14701086 0.20295748
0.26871362 -0.05375428 -0.10970192 0.02924157 0.039093114 0.11583186 0.12665945 0.20957948
0.25059074 -0.06895958 0.15252358 0.060149103 -0.13288827 -0.13230565 -0.17691225 -0.06723465
0.021099795 0.0748377 -0.16556579 0.10881262 0.16985309 -0.08142039 -0.311323 0.005703548
-0.16631322 -0.065755874 0.16074279 0.037931204 -0.15543166 0.20608124 -0.012418107 -0.19557276

hiden_layers.1.bias f4 [64]
00000000: 2833 d83a c0eb ccbc e07f e23c 92b5 483d
00000010: 3bef c4bd 3f51 b63d c9d5 91bc efe0 8fbd
00000020: 2bf7 d7bd dae3 2b3d 14a3 47bc 71ad 9abd
00000030: 3d0a 2cbe 247d 28bc 2a18 07be 0eaa b4bc
00000040: 104f a2bd 63d2 08bd c9ed 8d3d 1fb0 08be
00000050: efdb 8ebd 5751 b93d c411 153d 479c fabb
00000060: b832 cabc ba37 e13d 1632 0b3d 9da6 783d
00000070: 4dc3 9abd e408 6f3d 2a7f 71bb 82cf 133b
00000080: e5f2 adbd 952a 52be 19bc aa3c 42ae b0bd
00000090: e926 0a3b 93fb bebd ba6e 78bc e44b d6bd
000000a0: 26d4 863d fd74 b8bd 09f9 8dbd 0473 833c
000000b0: e003 ba3c faa4 17bc 1257 a1bd d498 85bd
000000c0: 9314 263d 6aa1 0d3c d688 9a3c e0a9 b53c
000000d0: 7b1a 02be 0f78 e3bd 9ac8 25bd 4492 66bd
000000e0: 461d c4bc 4c50 8abd 5f08 963b b691 833d
000000f0: 72c3 0cbd 9707 1ebe 11ec ab3b 8435 fdbc
0.0016494738 -0.025014758 0.027648866 0.049001284 -0.09615942 0.08902215 -0.017802136 -0.070253246
-0.105451904 0.041965343 -0.012184877 -0.075526126 -0.1680078 -0.010283742 -0.13192812 -0.022053745
-0.07925236 -0.033403765 0.069301195 -0.13348435 -0.06975543 0.090487175 0.036393896 -0.0076480242
-0.024682388 0.10996957 0.033983313 0.06070577 -0.07556782 0.058358088 -0.0036849477 0.0022554104
-0.08493594 -0.20524056 0.020841645 -0.08626987 0.0021080321 -0.09325328 -0.015163118 -0.10463694
0.06583433 -0.09006689 -0.06932265 0.016046055 0.022706926 -0.009255642 -0.078779355 -0.0652329
0.040546965 0.008644441 0.018864077 0.02217573 -0.12705414 -0.11106884 -0.04047451 -0.056291834
-0.02393974 -0.06753597 0.0045786346 0.064242765 -0.03436608 -0.15432583 0.005246647 -0.030909307

hiden_layers.2.weight f4 [64, 64]
00000000: 42fc 8c3d 88a1 39bd 5927 8fbd b37d 97be
00000010: 286a 853e 617b 7ebf cffc 01bd a49f f9bd
00000020: aabf 27be 4e8d 2abe 7722 aabd b2f5 453e
00000030: 24fc 033c 41a4 c23f f025 04be 706c 1b3e
00000040: a358 843e 0bd3 bfbd d775 65be 6f15 86be
00000050: f6e0 c53e 9be7 aabf 0809 fdbe 29bb 223d
00000060: 28b0 1c3f 47ad 93be 0c83 80be 5364 ddbd
00000070: 5082 193e b671 53be 2cb2 8c3e 8345 823e
00000080: f8e3 6bbb e68c 4f3e 4cd8 f1be 4e84 79be
00000090: 4fe2 683e 3ce2 f33e 23a3 be3e 12a9 ecbc
000000a0: d53a 5cbd 24fa 2dbd b7aa 773e 443f 913d
000000b0: 9a8c 533e be54 9eba ab1e d1bc 6ca1 2f3c
000000c0: 009a abbd 545a 513e cfe3 23bf 6d93 abbe
000000d0: b9f6 a2be 838f 943d ad48 d03e cf8e 7a3e
000000e0: d20c 3fbe 915d ce3e dca3 e03d 5350 47be
000000f0: 44fc cabe e066 6e3f 153c 523e de51 6e3e
00000100: 4520 533e c400 52bd 485f b43e 48ce 813c
00000110: ee21 79bd 1697 f73e b884 b63e 0e3a bf3e
00000120: e64a e53e b45a 96be f2fe 203f a8d7 0f3e
00000130: f199 0c3c 7357 a6be 5e75 92be 003f a33e
00000140: c9ec 54bf d659 28bd d316 7fbe 3cb5 20bf
00000150: ed4e 893e 264b 1e3e 0c82 9c3e 596c 883d
00000160: 0139 06be 5121 823d 58b9 963e d8e7 b73c
00000170: 0404 96be a238 0c3b db2c cdbd 9492 3ebf
00000180: 8273 24be ff33 853e 2477 f53d df2c 003e
00000190: 1de4 bd3e a51b 38bf 0910 2f3e 5346 60be
000001a0: 33f3 873e 230a a9bd bdda 803e ef6c 9e3e
000001b0: 1b09 bf3d ec00 9d3c deb7 90be e010 773e
000001c0: b1c4 12bf 5a3b 853e 7215 6f3e b228 d8be
000001d0: 9c87 67bd e878 d8bd 9dbf 36bf 5726 eabe
000001e0: 53a3 dc3e 896a 14be 1237 b9bd d25d 263f
000001f0: b3a6 993d 09f0 eb3d bae1 523e 2850 9abe
00000200: f560 c13d 8a4a e1bd 83c5 27be 3a4a 81bd
00000210: e17d ef3e 1ef0 6d3e bb13 e13d e830 2dbe
00000220: c84e d5be 2efc 053f 4b4d c5bd 4860 393e
00000230: a460 903e 44de 7cbd 02f5 c3bd 33ed b43d
00000240: 58e0 cfbd 3f85 41be ca28 853e aa90 83bc
00000250: 1d79 7dbe feec 863e c088 433e bb2e 93be
00000260: 6837 0ebe 6d73 8fbe 0ac5 d7bd f99d b63d
00000270: 77ee 843e 993d 893e 8e13 1cbd bdb1 593e
00000280: b033 4b3a 4e4f 9cbe 5e60 a83c a750 2c3e
00000290: e68b 943e a275 03be e6f7 0f3e e15f 2b3f
000002a0: 2f4e 903d 7303 1cbc 4674 a9bd 9c48 1b3d
000002b0: 39a3 893e a80f f53d 7016 30bc 9287 c0bd
000002c0: f4b2 f63d 3602 b2bc b0fd 10be 0da8 7f3e
000002d0: cb21 7ebe 91ff 813d 92bc a73e 387a 53bd
000002e0: 83bd a2be 1fdc 85bd 3afb 47be d1b1 39be
000002f0: e0c3 a33d 30b2 69be 395b b83d b71b fa3d
00000300: 27b1 bebd 1f05 24be 4adb 26bd f8a8 8a3e
00000310: a836 70be 96a9 a6bd faa3 6a3d b45e 38be
00000320: 05ea b2bd c424 8c3e a139 213e 17bc 89be
00000330: 947d 6b3d 6470 b03c bee0 66bd a619 8ebb
00000340: 4200 393e 540b c8be 18bb b8bd 2335 5d3d
00000350: 88e8 cebe cf21 123d 63dd 4a3e 26a9 63bd
00000360: b9a7 91bd 009b 163d 4882 c53d 5df2 303e
00000370: 376a e6bd b3f6 173e 1fd4 b6bd eb24 40be
00000380: d611 4abe a369 60be af9e 653e 658b 943e
00000390: 5a9e 6c3b 6164 333d e151 67bc 1f2c f5bd
000003a0: de15 533e e6b2 39be bf7f 0a3d 115a 803d
000003b0: 74a5 d23d c8c4 2cbd 50a4 9fbe 9db5 afbc
000003c0: 72de 983e 11eb 763d acd0 2a3e 6120 54be
000003d0: db43 09be 2ad9 49be efa0 9c3d ecaa d5bc
000003e0: 32e0 873e 7f9d 4fbe c248 debd 34a2 703e
000003f0: 2554 913d 9db9 5bbe e33b 823e 1a9a 513d
0.06884052 -0.045320064 -0.06989927 -0.29588088 0.26057553 -0.9940701 -0.031735238 -0.12188652
-0.16381708 -0.16655466 -0.08307355 0.19332007 0.0080557205 1.5206376 -0.12905097 0.15178084
0.25848874 -0.09366425 -0.22408234 -0.26188228 0.38648194 -1.335193 -0.49420953 0.03972927
0.61206293 -0.28843138 -0.2509998 -0.10810151 0.14991117 -0.20648846 0.27479684 0.25443658
-0.0035994034 0.20268592 -0.47235334 -0.24366876 0.2274258 0.4763354 0.37233838 -0.028889213
-0.053767044 -0.04247488 0.24186216 0.07092145 0.20659104 -0.0012079698 -0.025527319 0.010719638
-0.083789825 0.20444614 -0.64019483 -0.33510914 -0.3182886 0.07253935 0.40680447 0.2446854
-0.18657234 0.4030576 0.10968754 -0.19464235 -0.39645588 0.93125725 0.20530732 0.23273417
0.20617779 -0.05127026 0.35228944 0.015845433 -0.060823373 0.48357457 0.3564813 0.3734898
0.44783705 -0.29366076 0.62889016 0.1404711 0.008581624 -0.32488593 -0.2860517 0.31884003
-0.83173805 -0.0411013 -0.2491105 -0.6277654 0.26818028 0.15458354 0.30567968 0.06661291
-0.13107683 0.06354011 0.2943828 0.022449419 -0.2929994 0.002139606 -0.10018321 -0.7444241
-0.16059688 0.26016232 0.11985615 0.12517117 0.370881 -0.7191718 0.1709596 -0.21901827
0.26552734 -0.082538866 0.25166884 0.30942485 0.093279086 0.019165479 -0.2826528 0.24127531
-0.5733138 0.26021844 0.23348024 -0.42218548 -0.05652581 -0.10569936 -0.7138613 -0.45732376
0.43093356 -0.14493765 -0.09043707 0.6498691 0.075024985 0.115203924 0.2059392 -0.3013928
0.09442321 -0.11000545 -0.16383938 -0.06312986 0.46775725 0.23236129 0.109900914 -0.16913188
-0.41661668 0.5233792 -0.09633883 0.18103135 0.2819873 -0.061735407 -0.09568216 0.08834305
-0.10150212 -0.18898486 0.26007682 -0.016060192 -0.24753232 0.26352686 0.19095135 -0.2874659
-0.13888323 -0.2801775 -0.10535629 0.0891685 0.25963184 0.26804808 -0.038104586 0.21259208
0.00077515375 -0.30529255 0.020553764 0.16827641 0.29012984 -0.12837842 0.1405941 0.66943175
0.07046162 -0.009522307 -0.082741305 0.037911043 0.26882342 0.11965877 -0.010747537 -0.09400858
0.12045851 -0.02172957 -0.14159274 0.2496645 -0.24817578 0.063475735 0.32761055 -0.05163023
-0.3178521 -0.065361254 -0.19529429 -0.18134238 0.079963446 -0.2282188 0.09001774 0.122123174
-0.09311133 -0.16017579 -0.040736474 0.27082038 -0.2345835 -0.08137815 0.057285286 -0.18004876
-0.08736042 0.273718 0.1574464 -0.26901314 0.057492808 0.021537967 -0.056366675 -0.0043365536
0.18066505 -0.39071143 -0.0902006 0.054005753 -0.40411782 0.035676774 0.19811015 -0.055581234
-0.07112069 0.036768913 0.0964399 0.17279954 -0.112507276 0.14840202 -0.08927178 -0.18764083
-0.19733366 -0.21915297 0.22423814 0.290126 0.0036105127 0.0437969 -0.014118643 -0.11971306
0.2061381 -0.1813465 0.033813234 0.06267179 0.10285464 -0.042179853 -0.31180048 -0.021448905
0.29857212 0.06028277 0.16681165 -0.20715477 -0.13404791 -0.19711748 0.07647883 -0.026082478
0.26538235 -0.20274924 -0.10853721 0.23499376 0.070961274 -0.21457525 0.25436315 0.051172353

hiden_layers.2.bias f4 [64]
00000000: 5ea6 abbd 69c2 18bd 9659 a13e e064 7a3d
00000010: 2470 ab3c 5c72 34be ab64 4c3c e2c6 37bd
00000020: c819 833d 2a1f 1f3d 2524 5a3c 0953 a8bd
00000030: 546b 3f3d ca35 063c 814b 763d 60ea 3b3d
00000040: 810d de3c f873 cabd 63a5 ec3d f591 e9bc
00000050: 4175 b23c 0179 d1bd b423 1d3d 602e 6a3d
00000060: c485 3dbc b224 4abd 988d 593c a66d 3abe
00000070: 6d9d e9bd 0540 273d 7f9c df3d f99d 073d
00000080: fb1d f23d ad14 013d 30d5 56bd 39af cd3c
00000090: 5c7d 933d 63b4 673c bb29 f73d 0b37 bd3d
000000a0: b25b 273d cd95 f33c a949 173d a4f4 cabd
000000b0: 8e9d c43d ad43 173d 5b0e 6dbb 3d1a 99bb
000000c0: 993c 473c b5b2 5dbd d508 333c 69fa 9dbd
000000d0: 64f7 d13b 9ccc e1bb afdd a2bd c7c1 f0bc
000000e0: c9d6 4f3d a504 18bd 97a7 78be bb80 afbc
000000f0: 27c3 91bd f16f d9bc 4927 ebbc d729 a1bc
-0.083813414 -0.03729478 0.3151366 0.06113136 0.020927496 -0.1762175 0.012475173 -0.044867404
0.06401402 0.03884808 0.013314282 -0.08218963 0.046733215 0.008191535 0.0601306 0.045877814
0.027106049 -0.098854005 0.115549825 -0.02851198 0.021784427 -0.10228158 0.038364127 0.057173133
-0.011567537 -0.0493514 0.0132783875 -0.1820589 -0.1140698 0.04083254 0.10918521 0.03310964
0.118221246 0.03151386 -0.052449405 0.025107967 0.07201645 0.014142129 0.12068506 0.09239014
0.04085893 0.029734517 0.036935482 -0.09909943 0.09600364 0.036929775 -0.0036171887 -0.0046723173
0.012160444 -0.054125506 0.010927399 -0.077137776 0.006407665 -0.0068908464 -0.07952439 -0.029389275
0.050741944 -0.037113804 -0.2428268 -0.021423688 -0.071173005 -0.026542636 -0.028705256 -0.019673271

hiden_layers.3.weight f4 [64, 64]
00000000: 02e4 66bd d86e 3f3e 1bb9 8e3d b58f e03e
00000010: f23c c7bd 21a8 333e 03a7 2fbd 0fa6 c8be
00000020: 271c c23d 329b e63d b475 b43d 4621 c83c
00000030: 8199 1d3e 3b48 afbe 0f7c 883e 24e2 0cbe
00000040: 5cab 96be bdb6 c4bd dd2d 6e3d db22 03be
00000050: 9de1 5f3e 2a81 01be 7c2d 813e 6029 513e
00000060: df4b b03d 1b7f 4e3e 1a6d 6e3c 0dbc 783c
00000070: bc60 2c3e e674 fa3d d490 2cbd 570f 823e
00000080: 7b8a 353e 5e7e ac3d b472 b6bd 9ccc 133d
00000090: 4c8c d03c 8936 fc3d 1157 febd 8fba e8bb
000000a0: 88b0 9dbd b8e4 703d 04f4 f0bd 3268 b8bd
000000b0: 0733 303d 0376 2e3e 3d3a c0bc 1a64 b0bc
000000c0: 530d 9d3e 3076 2fbe c8ef 65be e1ec 04be
000000d0: 9300 773e ac38 6d3e 3161 8d3e 7b41 12be
000000e0: 9a15 bf3d ce8c dc3d 3928 a1bd 0b25 393e
000000f0: 295e 413e 433d 283e b76b 93bd a507 943e
00000100: bf77 debd b209 7fbd 8114 92bd ce57 3c3d
00000110: 07ac 1abd b073 053e 8920 b3be f7b1 fd3d
00000120: 6e00 04be db67 46be 804e c03e ab8d e13c
00000130: 9202 563e 9fd9 733d 5774 a6bd 876c 783d
00000140: b2df 003d 9d93 84bd 851d 533e ec13 f43d
00000150: f0e7 4d3e 2aeb cdbd 216b 0dbe bf27 443e
00000160: ad2f 3cbe 60cd f13c 43cf 893e 151f 47be
00000170: 8f11 4b3e f047 dabc 02ad 5abe 14aa eb3d
00000180: eed2 973e f16b e7bd ef2e 473e d0aa d83d
00000190: b95b 87bd 61fb 5fbe a5a3 5dbe 68cd b03d
000001a0: e6b4 763d 814b a33d f4f1 a73d 908f 023f
000001b0: 8f56 253c 91bb 953d 14d9 e53d 6f36 123d
000001c0: a0c0 233e 7211 7abe 717e 54bb deb5 403e
000001d0: db00 183e 9047 a8bd 94ab 33be 229d e83d
000001e0: 0731 f83d f78c f1bd 65da 493e 0a0a bb3d
000001f0: 6079 6d3d 004b 313e a263 57bc 9451 1f3e
00000200: 9976 6a3e 9bd6 873e 95f7 1dbf d654 8b3c
00000210: 6729 b3be 08a0 4e3e 1bdd 3bbc 844e 45be
00000220: 7763 813d 1f2f 4fbe 9be6 14be f181 0d3c
00000230: 8245 3cbe f6a6 133e 2154 7ebd 02de c03e
00000240: acd4 b3bd a07c 673e e890 67be 536a 0dbe
00000250: 4dcc b4bd 0adc 15bd 59bd c4bd 2122 b73e
00000260: d39f 083e cc1c a03d 1076 30be b4fd c33e
00000270: 7e88 233e 2f73 b5bd f7a9 813d 9f92 27be
00000280: f889 973d 04f0 d03c 8d1f 533e e785 75bd
00000290: 0c72 e1bc d657 eabb cad4 35bd f9e5 0b3e
000002a0: a848 d43d 9637 91be 6eaa 2fbd 3844 ecbd
000002b0: 6dc0 23be 5e49 72be 0e96 d53b 39b2 4abe
000002c0: 1f57 5abe 610b 92be 5d13 393e 4ad8 2c3e
000002d0: 141f fabd 9b59 cdbb 7bd9 37be 3f16 32be
000002e0: 714b d0be 3f8f 34bd 39fc 843e 468c 623e
000002f0: 87fb 0a3e 8f0b 18be fe1a 373e 29bd 963d
00000300: aa42 e33d eb39 9e3b 2ede 743c 985e a73d
00000310: c1cb 69be 1c67 69bd 96cc a4bd ff02 37be
00000320: 2bf6 e7bc c8ac 76be bafd 66be b0e1 5fbd
00000330: 6fe7 48be eb9f 6dbe 91e7 b43d 6c29 78bd
00000340: 5069 95be 15d0 143e b526 913d 6ea0 22be
00000350: 6f50 a23c d800 e0bc 9f0e 063b d712 0bbe
00000360: 65f6 673e 873e b63d 9b6e 203e 62e0 353e
00000370: 65e5 4c3e aa0a b2bd d7e9 013d 0597 9f3d
00000380: 6910 013e cc51 483e c32f a1bc 0505 9ebe
00000390: fb48 6ebe 2d4b 673c d1ae afbe 14a5 8fbd
000003a0: 6cab c13d 9047 15be e851 43be 552d 283e
000003b0: c17b 103e a19e 48be 5eb0 843d 6d54 513e
000003c0: b990 d5bd 8286 453e eb6a 85be bcd8 28be
000003d0: c404 093d a0d5 043e 92c5 f23a a8b7 513e
000003e0: 541e 573e 433a 3e3e b29b 113e ce26 613d
000003f0: 1fb3 173d 114d 79be 08d2 58be 1abb 9e3d
-0.05636979 0.18694627 0.069689 0.4385964 -0.09728421 0.17544605 -0.042883884 -0.39189193
0.09478026 0.1126007 0.088115126 0.024429929 0.15390588 -0.34234795 0.2665715 -0.13758141
-0.29427612 -0.09605167 0.058149207 -0.12806265 0.21863408 -0.12646928 0.25230014 0.2042594
0.08608221 0.20165674 0.014552379 0.015181554 0.16833776 0.12229328 -0.042130306 0.25402328
0.17728607 0.0842254 -0.08908597 0.036083803 0.025457524 0.12315089 -0.1241895 -0.0071023176
-0.07699686 0.058811873 -0.11765292 -0.09004249 0.043017413 0.17037205 -0.02346527 -0.021532107
0.30674228 -0.17134929 -0.2245475 -0.12980987 0.24121313 0.2316615 0.27613214 -0.14282791
0.09330292 0.10769044 -0.07869 0.18080537 0.18883575 0.1642962 -0.07198279 0.28912082
-0.108626835 -0.062265106 -0.07132817 0.045982175 -0.037761714 0.13032413 -0.3498576 0.1238746
-0.12890789 -0.19375555 0.3755989 0.027533373 0.20899418 0.05953371 -0.08127659 0.060650375
0.031463332 -0.064734675 0.2061673 0.11917862 0.20108008 -0.100546196 -0.13810398 0.19155787
-0.18377562 0.029516876 0.2691594 -0.1944545 0.19830917 -0.02664563 -0.2135506 0.11507049
0.29653114 -0.11299885 0.19451497 0.10579455 -0.066092916 -0.21873237 -0.21644457 0.08632928
0.060231112 0.079733856 0.08200446 0.5100031 0.010091438 0.07311166 0.11223045 0.035696443
0.1599145 -0.24420717 -0.0032423998 0.18819377 0.14844076 -0.082167745 -0.1754592 0.11358096
0.12118726 -0.11794465 0.19712217 0.09132774 0.05797708 0.17313766 -0.013146313 0.15558463
0.22896804 0.26530918 -0.61705905 0.017008226 -0.34992525 0.20178235 -0.01146629 -0.19268233
0.063177995 -0.20232819 -0.14541094 0.0086369375 -0.1838589 0.1441916 -0.06209195 0.3766938
-0.08780798 0.22606134 -0.22613871 -0.1381009 -0.0882803 -0.0365868 -0.09606428 0.35768226
0.13342218 0.078179926 -0.17232537 0.38279498 0.15970036 -0.0885986 0.06331246 -0.16364525
0.07399362 0.025505073 0.20617504 -0.059942152 -0.027520202 -0.007151584 -0.044392385 0.13661946
0.103654206 -0.2836272 -0.042887144 -0.11536449 -0.15991373 -0.236608 0.006518132 -0.19794549
-0.21322297 -0.28524306 0.18073793 0.16879383 -0.12212959 -0.0062667853 -0.17954056 -0.17391299
-0.40682557 -0.044081923 0.2597368 0.22123823 0.13572513 -0.14848159 0.1788139 0.07360298
0.110966995 0.0048286817 0.01494555 0.08172339 -0.22831632 -0.0569831 -0.08046834 -0.17872237
-0.028315624 -0.24089348 -0.22557727 -0.05465859 -0.19619535 -0.23205535 0.0883323 -0.060586378
-0.2918191 0.14532502 0.07087461 -0.15881512 0.019813744 -0.027344152 0.0020455492 -0.13581406
0.22652586 0.08898645 0.15667193 0.17761377 0.20009382 -0.0869344 0.031717148 0.077924766
0.12603916 0.19562453 -0.019676095 -0.30863205 -0.23270027 0.014117044 -0.34313062 -0.07013908
0.09456524 -0.1457808 -0.19074214 0.16423543 0.14109708 -0.19591762 0.06478952 0.20442362
-0.10427994 0.19289592 -0.26058134 -0.16488928 0.03345181 0.12972116 0.0018522015 0.20480216
0.21007663 0.18576913 0.1421955 0.054968648 0.037036058 -0.24345805 -0.2117387 0.077505305

hiden_layers.3.bias f4 [64]
00000000: b681 393b 5024 bb3c 98d9 61bc 3af1 09bd
00000010: 5d3c 833d 6949 9ebd 8504 ad3b b780 18bd
00000020: 64f4 313e cc8b a23d 0a82 553d 4482 2cbd
00000030: e641 95bd 1bf3 b2bb 71d7 a53d 8b36 99bd
00000040: 3e8e e33d 872d cebd 843e ed3d 4115 013b
00000050: 694c 0bbd ced7 963d 4d18 82bd cf91 7abc
00000060: 7c17 0bbd 5563 5c3d 6512 a93c b452 c7bd
00000070: d7fd 893c 06ee 81bd b677 56bc 0417 00be
00000080: 3576 26bc 6133 f8bc 94bb 13be 8b3a 39bd
00000090: 4bf0 013d 7388 7a3b 1ee8 abbc c2b6 3a3d
000000a0: f522 95bd 71b1 d8bc 2b60 943d edff 393e
000000b0: aa45 1bbd 2682 9d3d d651 f2bc 2a9b 98bc
000000c0: 8453 a3bd 0531 f23c d2f2 a63c f6c4 08be
000000d0: 9155 293c c217 b73d f88d cabd 6c3e 403d
000000e0: aa1c 053c 1b54 673d 705f 693d 936a b3bd
000000f0: 9d31 d43d 9912 193d e39a 57bd a42a 433d
0.0028306074 0.022844464 -0.013784789 -0.033677317 0.06407998 -0.077288456 0.00528008 -0.037232127
0.17378384 0.079368204 0.052125968 -0.04211642 -0.0728796 -0.0054611093 0.08097733 -0.07481106
0.11111115 -0.100672774 0.115841895 0.0019696506 -0.034008417 0.0736538 -0.06352291 -0.015293553
-0.033957943 0.053805668 0.020638654 -0.09732571 0.016844673 -0.063442275 -0.013090065 -0.1250878
-0.010160019 -0.030297937 -0.14427024 -0.045221847 0.0317233 0.0038228303 -0.020984706 0.045584448
-0.07282058 -0.026451798 0.07244905 0.18164034 -0.037908234 0.076908395 -0.029580038 -0.018628675
-0.07974914 0.02956439 0.020379458 -0.13356385 0.010335342 0.08940078 -0.0989036 0.04693453
0.00812451 0.056476694 0.056975782 -0.08760562 0.103610255 0.03737125 -0.052637946 0.047648087

hiden_layers.4.weight f4 [64, 64]
00000000: 830f 85be a148 ae3e f628 593e 8dd8 f3ba
00000010: 47be bcbe 60e2 cebd 63a4 e9bc 0f3c 9c3e
00000020: 6e3e b9bd 08c0 01bd 05a7 783d db7c b8bd
00000030: 367d 033e 4a28 11be f69c 0abe 41bd a13d
00000040: 9f3b ddbd a116 b9bc 3ea1 6a3e ef76 cf3e
00000050: 59bf 89be 5f01 b33d 839f aabe c099 ffbd
00000060: 8126 813e 4bfd f1bd 3ef5 873d 3113 213e
00000070: 4c52 4ebe 5301 87bd e810 89be f1c1 fb3c
00000080: 9135 ca3b faad d03d 4571 cc3e 024f 74be
00000090: 5741 403e d6b9 10be fef8 c6bc d1b8 20be
000000a0: 9b30 7cbe 79de fc3d dceb 313e 03eb 5abe
000000b0: 7daf c93b 0c7c e13d 2e18 4f3c dd89 c9bd
000000c0: c451 aabe 0247 4fbe fd10 e03e 9866 f83d
000000d0: ef84 a0be 1356 383e cb8d ae3e af2b a6bd
000000e0: bfa3 ba3d 7d7a 733d a353 5fbe 0566 1fbe
000000f0: 6d48 a73d b981 e9bd 9441 02be 24e0 6dbd
00000100: dbd4 77bd e8af 3dbe 3693 0fbe 90f8 533e
00000110: 0124 e83d 2116 ba3d 4b6a 8fbe 7789 07be
00000120: ee75 9bbe 6632 9abd d875 39be eb91 b43e
00000130: e1f9 a63c d5f5 613e 88c7 3ebe 085e 6e3e
00000140: cdba d2bd 6cab 27be 82b4 403e 3762 aa3d
00000150: 20e9 983e cde5 3d3e af7d 913e d23d 0d3e
00000160: 0f99 a1bd f7b4 52be 02cd f2bd 8295 f93d
00000170: 12bb bfbd 9576 693c 7a1b fbbd 18ec 11be
00000180: f10e 743e 547d f93c ee02 193e c485 edbd
00000190: a215 59be e0c2 f63c dc4d 4e3d 11da 8e3d
000001a0: fb0d 9c3d 43d4 6bbe 4b25 e93d cf1f 933e
000001b0: 8821 92bd a32d 183e e09d b9bd 3656 c8bd
000001c0: 085b 22be c458 8e3e 8ce3 a6bd af22 34be
000001d0: 6c91 903e 8b4a 25bd 1f61 f03d 535d 193e
000001e0: 80c4 863d 2fc3 94be 8043 1d3d 9695 d0bc
000001f0: d10c 923e cb4e 83bc eb54 e33d 38a1 743d
00000200: 0214 96be d4a0 afbd 0631 be3d 15e0 8fbe
00000210: 1ca0 7abd 401e 91be 369f 2b3d 5095 603e
00000220: f8c5 9d3b 4a33 5ebd b5bd 973d 3dcf 7cbe
00000230: 91ca 68bd 09ad d53d 39c6 833e d727 0dbe
00000240: bfdf 513d f219 aa3c 9398 043d c9a6 053e
00000250: c9e9 afbb c156 20be fe1a 12be 0e0d 883d
00000260: 0e35 42bd c89e 96be ca0a 3b3c b586 b53e
00000270: ab06 70be 2358 113e 95e9 3dbe 8417 e33e
00000280: f91f b0bd 98d3 70be 6198 d0bd b548 54bd
00000290: c8e0 b53c 34af 3fbc 53c7 bbbd ab57 853e
000002a0: 1ad7 973e 5a73 263e baf9 09bf 401d 9ebd
000002b0: 050f e1bc a02c 743d 1708 0d3e 0cf8 373e
000002c0: 524c 8b3e ac59 44bd 7612 013e a054 44bd
000002d0: 179b 23be 171b 4d3e 66ad 693d d930 d43d
000002e0: f664 58be 3b89 98bd 927e 993d 696f d73e
000002f0: 9be6 05bb 5bbd 5abd 8a50 dc3b dde2 183e
00000300: a731 d53d b0ab f3be ec45 babd b4b7 b13d
00000310: 2f5b c23d 9804 b5bd cf8c b43c 9681 f8bd
00000320: 287b 183e e3fd 053e 8997 423e 12a0 213e
00000330: 59c1 1f3e 769e 92bd 2215 2c3e 571b 6c3e
00000340: 0175 4a3d d062 833b b0a1 793d 4f04 8dbd
00000350: 198d 38be a3c7 24bd 4206 163f 8d83 803c
00000360: f8ff e33d 0d78 5abd 5123 683e 264b 16be
00000370: b229 98be bcc1 b0bb a67e a9bd 7900 e4bd
00000380: ad34 bbbd 68b6 a8bd 85a6 e8bd a8a7 05be
00000390: 6649 ce3d 48dd b5bc 0829 78bd 903a a53c
000003a0: cd74 cfbe 7942 093e c477 64be 7a3a 8f3e
000003b0: bcf2 953d bc06 0abe 4d9f 74bd f624 40be
000003c0: c091 47be 639a 503c 1d5f 10be 1e56 803e
000003d0: fd4d 66bd 75fa 883d a1cd 363d e556 873e
000003e0: 18a5 a9be 5d1d 083d c03d f13d 90e3 a33d
000003f0: f1d3 0f3e fb4b 1c3d 0708 a43e 0ffc d43d
-0.25988397 0.34039786 0.21207032 -0.0018603966 -0.3686392 -0.10101771 -0.028520769 0.3051457
-0.09045111 -0.031677276 0.060706157 -0.09008189 0.12840733 -0.14175525 -0.13536438 0.078974254
-0.108023874 -0.022593798 0.22913072 0.40520427 -0.269038 0.08740496 -0.33324823 -0.12480497
0.2522469 -0.1181589 0.06638573 0.15729977 -0.20148581 -0.065920494 -0.2677071 0.030732127
0.0061709364 0.101894334 0.39930168 -0.23858264 0.18774925 -0.14133391 -0.02428865 -0.15695502
-0.24627917 0.12347121 0.1737513 -0.21378712 0.006154953 0.11009988 0.012640042 -0.098407485
-0.33265507 -0.20241931 0.4376296 0.12128943 -0.3135142 0.18001585 0.34092554 -0.08113801
0.09113263 0.059442986 -0.21809249 -0.15566261 0.08168111 -0.11401696 -0.12720329 -0.058075085
-0.06050573 -0.18524134 -0.14021 0.20700288 0.11334992 0.09086252 -0.28010783 -0.13236032
-0.3036341 -0.07529144 -0.1811136 0.35267577 0.020382823 0.22066434 -0.18630803 0.23278058
-0.10289536 -0.16373986 0.18818858 0.08319514 0.2986536 0.18544693 0.284162 0.13793114
-0.07890522 -0.20576845 -0.118555084 0.121867195 -0.09361853 0.014249464 -0.122611 -0.14250219
0.23833825 0.030455269 0.14942524 -0.115977794 -0.21199659 0.03012222 0.05036722 0.069751866
0.07619854 -0.2303019 0.11384066 0.28735206 -0.07135302 0.14861159 -0.090633154 -0.097820684
-0.15855038 0.27802098 -0.0814887 -0.17591356 0.28235948 -0.040354293 0.117372744 0.14977007
0.06580448 -0.29055163 0.03839445 -0.025461953 0.28525403 -0.016028782 0.11100181 0.059724063
-0.2931214 -0.085755974 0.09286694 -0.2810065 -0.06118785 -0.2834339 0.041899882 0.21931958
0.0048148595 -0.05424813 0.074092306 -0.2468843 -0.056833807 0.104333945 0.2573717 -0.13784729
0.05123877 0.020764325 0.03237207 0.13051905 -0.0053684455 -0.15658094 -0.14268109 0.06643115
-0.04741388 -0.29418015 0.0114161465 0.35454336 -0.23440044 0.14193778 -0.18546136 0.44353878
-0.08599848 -0.23518217 -0.10185314 -0.05182715 0.02220191 -0.0116994865 -0.091688775 0.26043448
0.29656297 0.1625494 -0.5389668 -0.07720423 -0.027472982 0.05961287 0.13772617 0.17965716
0.27206665 -0.04793708 0.12604699 -0.047932267 -0.15977131 0.20029865 0.05705013 0.103608795
-0.21132264 -0.0744805 0.074948445 0.42077187 -0.002043164 -0.05340324 0.006723468 0.14930291
0.10409861 -0.47591925 -0.09095368 0.08677617 0.09490048 -0.08838767 0.022039799 -0.121340916
0.1489073 0.13085131 0.19003119 0.15783718 0.156011 -0.0715913 0.16804937 0.23057304
0.04942799 0.004009582 0.060945213 -0.068855874 -0.18022574 -0.04022945 0.586033 0.015687728
0.111328065 -0.053337146 0.22669722 -0.14677104 -0.2971931 -0.0053941887 -0.082761094 -0.11132903
-0.091409065 -0.08237916 -0.11359886 -0.13052237 0.100725934 -0.022200242 -0.060586005 0.020169526
-0.405188 0.13404264 -0.22311312 0.27974302 0.073216885 -0.13479131 -0.059722234 -0.187641
-0.19489193 0.012732121 -0.14098783 0.25065702 -0.05622672 0.06688396 0.044629697 0.26433483
-0.3313377 0.033231128 0.11779356 0.080023885 0.14045693 0.038158398 0.32037374 0.10399639

hiden_layers.4.bias f4 [64]
00000000: dff8 933c 7d11 c1bc 7fa1 9b3d 9420 5e3d
00000010: cb7c a83d f9cb aeba dcd8 2e3e e84a c0bd
00000020: 571a 67bd c0fd af3b 42d9 bb3c 7318 0f3d
00000030: 348c d43d 2a46 39be b6d7 0b3b 5558 0d3d
00000040: 1dfc 813c 02e4 8c3c 81d3 8f3d a805 dc3a
00000050: 76a2 54bd e1c4 92bd fecf 19be 562d 07bd
00000060: 51a0 9e3c 6300 1bbd fde3 04bc 000d 5f3d
00000070: 1027 10bd 75cb e63d c7fc e83c 6eeb 8a3d
00000080: a396 1f3d 0dba 02bc cc0b 0f3c 9e4f 9d3d
00000090: 60c5 12bd b91b 283d 67ae 30bd 2fb6 27bc
000000a0: 8d75 59bc 04da 0a3d 3645 e73d 68d0 2b3e
000000b0: 602f d83b 7279 3c3e d560 923d 2fe4 383d
000000c0: 6e25 1abd b16b 833a 22b7 7d3e 6ba4 323d
000000d0: d042 73bd 419a ae3d 652b 19bd c061 2e3c
000000e0: 8f9d 3f3d a475 813d 66d2 e8bc 33bd e0bd
000000f0: 9da5 7ebd 136d 723d 589f f2bd cf7c 0cbd
0.018063007 -0.02356791 0.07599162 0.054230288 0.08226927 -0.0013335935 0.17074913 -0.09389287
-0.056421604 0.0053708255 0.022930745 0.034935426 0.10378304 -0.18093172 0.002133829 0.034508068
0.015867287 0.017198566 0.07022763 0.0016786354 -0.051912747 -0.07166458 -0.15020749 -0.03300222
0.019363554 -0.037842166 -0.008110997 0.054455757 -0.035193503 0.11269275 0.028440846 0.06783186
0.038962018 -0.007978928 0.00873084 0.076812014 -0.035832763 0.041042063 -0.043135073 -0.010236307
-0.013272655 0.033899322 0.11292498 0.1677872 0.0065974444 0.18405703 0.071473755 0.045139488
-0.037633352 0.0010026601 0.24776891 0.043613832 -0.05938989 0.08525515 -0.0373949 0.010643423
0.04678112 0.06321266 -0.028420638 -0.10973587 -0.06216966 0.059186053 -0.11846799 -0.034298714
