results/6_model_3_case_2/epoch1100/model_weights.pth (torch, 484214 bytes, 88 tensors)

init_layer.0.weight f4 [64, 3]
00000000: cfbc a0be 77cd c1be 9a3f 753e b81f d33e
00000010: 9ce0 813e 17b7 92bc 080d 943c 04cb 40be
00000020: e682 81be 7a1f 883e a052 d33c 55a5 073e
00000030: ca8c 20be 7ac0 963e f111 983e 456c cabd
00000040: 9492 0fbe 2480 ac3e eb3b a33e 8cdb 83bd
00000050: 98e3 ec3e a0c8 b93e 267f 0f3e 3aef d43e
00000060: e525 3b3e 896c 8bbe 02b7 f93d 5c2c 1fbe
00000070: e3c1 25bd 87ea ab3e f042 95be 4c71 b13d
00000080: 80cc 993c 15ea ff3d bb16 ce3d cd3e acbe
00000090: e6a8 9dbd f6e9 7cbc bb1d 0cbe de1e babd
000000a0: b7f1 113d 5ed7 c83e ebde 863e 2355 25bf
000000b0: d6c3 bd3a 289f 423e 39f1 00be da7c 9ebe
000000c0: 095c 57bd 39b5 f1bc 1b53 c13e 60f4 913e
000000d0: b23a bd3e 0c13 88be a0b0 013e 6509 4b3d
000000e0: 8fa1 94be 34d2 90be 130f d13d bf9f bcbe
000000f0: 09eb dc3d 1e5c 92bd e221 58be bd93 db3d
00000100: ee7e 653d 0847 02be da29 7bbd b138 9ebd
00000110: fe1a 89be d355 a5bd 9878 9b3e fbda babd
00000120: cf3f 90bd 284f 09bd bc31 c13e 1cbc 903d
00000130: b5dd 173e d78d 43be 2908 bdbd 94d1 3b3e
00000140: 4514 c33e 9a87 1abe 2d31 31be 2805 423e
00000150: 8503 063e 52e2 ae3d 2a25 86be 6727 de3b
00000160: 48c4 81be cdd8 3b3e 1595 19bf 3b2b f0be
00000170: ab0d 20be 0f7b c9bd c99d 133d 0a05 c93e
00000180: 7546 b9bd 5707 b03d 51d5 a93e a11f 8ebe
00000190: 660f 3b3e 5112 29be be38 883d c082 55bd
000001a0: 5478 73be baee 47bd 0810 b4bd e18e 9dbe
000001b0: d2dd 7a3d f001 3fbc c45e eabe 6aa4 46be
000001c0: 03ec d4bb 0acb 7ebe 45e8 973e fbf5 193e
000001d0: 2ee9 ca3e 065e 2fbe 1464 633e ef63 9a3e
000001e0: 864d ec3d 23e8 33be b4dc b8be 6135 b33d
000001f0: f1cd ed3d 696c bebe aa9b 543e e444 5dbd
00000200: 90b9 a83e ba05 a9bd 6d57 18bd e278 8b3e
00000210: a467 ee3d 9d80 e8bd d6ad a2be 200f 2abd
00000220: 997b ccbc 78d8 943e 5667 39bc 84c4 28be
00000230: 78ab 0d3e f81b 1d3e f508 263e 5e00 fc3d
00000240: f32b 843e 868b 103f cafd 95bc 310f a73e
00000250: 2c87 87be ec4e 903e 3b07 163e f817 87be
00000260: 82ac 92be 848c b8be 4e31 cb3d ecb8 19be
00000270: d8cd 913e 785a 43be ea26 393e 4a08 08be
00000280: 99ed 54be 4812 c63d 2fd5 0c3e 7ed5 ecbd
00000290: b02b c5be d25d 9039 d38b 33bd 6449 b73e
000002a0: 7967 98bd 4323 5d3d 7fbd ca3e 2cf3 a53d
000002b0: 8dc6 24be 4da0 30bd 6017 9d3e 9cda 863e
000002c0: 0399 ea3d f122 863d 7bd7 d23d 7a68 9bbe
000002d0: 7646 4abe c0b0 a4be 5273 02be 373f 7dbe
000002e0: c86b 9b3d 3e96 cfbd c374 6c3e a39f f8bd
000002f0: c470 b7bc 2a3b 8d3e 1d65 53bd 15d9 a93e
-0.3139405 -0.3785207 0.23950043 0.41235137 0.25366676 -0.01790957 0.01807262 -0.18827444
-0.2529518 0.26586515 0.025796235 0.13246663 -0.15678707 0.29443723 0.29701188 -0.09883932
-0.14020759 0.33691514 0.3188165 -0.064383596 0.4626739 0.36285877 0.14013347 0.41588765
0.18276174 -0.27231243 0.12193109 -0.15544266 -0.040468108 0.33577368 -0.29152632 0.08664188
0.018774271 0.124958195 0.10062929 -0.33641663 -0.076982304 -0.01543664 -0.13683216 -0.09087919
0.035630908 0.39226812 0.26341948 -0.64583033 0.0014477919 0.19006026 -0.12592019 -0.3095463
-0.052578006 -0.029505359 0.37758717 0.28506756 0.36958843 -0.26577032 0.12665033 0.049569506
-0.2902951 -0.28285372 0.10207953 -0.36840627 0.10787017 -0.07146476 -0.21106675 0.10721538
0.056029253 -0.12722409 -0.06131921 -0.07725657 -0.26778406 -0.0807301 0.30365443 -0.091237985
-0.070434205 -0.033522755 0.37733257 0.07067129 0.14830668 -0.19097076 -0.09230072 0.18341666
0.38101402 -0.1509079 -0.17303915 0.1894728 0.1308728 0.08539261 -0.2620023 0.0067795995
-0.25345063 0.18344422 -0.59993106 -0.46907982 -0.15630214 -0.09837925 0.036039148 0.39261657
-0.09046642 0.0859515 0.3317056 -0.27758506 0.18267593 -0.16510893 0.06651448 -0.052126646
-0.2377637 -0.04881165 -0.0879212 -0.3077307 0.0612467 -0.011658177 -0.45775425 -0.19398656
-0.0064978614 -0.24882141 0.29669395 0.1503524 0.39631027 -0.17125711 0.22206146 0.30154368
0.11538224 -0.17569022 -0.36105883 0.087504156 0.11611546 -0.37192085 0.20762506 -0.054020777
0.32954073 -0.082530454 -0.03719275 0.27240664 0.11640862 -0.11352656 -0.3177325 -0.04151833
-0.02496128 0.29071403 -0.011316141 -0.16481215 0.13834941 0.153427 0.16214354 0.123047575
0.2581478 0.56462896 -0.018309493 0.32628778 -0.26470315 0.28185213 0.14651196 -0.26385474
-0.28647238 -0.36044705 0.099215135 -0.15011948 0.2847736 -0.1907748 0.18081251 -0.13284412
-0.20793761 0.096714556 0.13753198 -0.11564158 -0.38509893 0.00027535722 -0.04383452 0.3579818
-0.07441611 0.053988706 0.395977 0.08103022 -0.16091366 -0.043121625 0.30681896 0.2633866
0.11454966 0.06549633 0.10295006 -0.30353147 -0.19753441 -0.321661 -0.12739304 -0.24731146
0.07588917 -0.10136078 0.23091416 -0.12139823 -0.022392638 0.275842 -0.0516101 0.33173433

init_layer.0.bias f4 [64]
00000000: d57f 9c3e a41f 45bd a1f5 773c 78fd 97be
00000010: 7ed6 693c 8417 3d3d 97ef 573e ece2 993e
00000020: e13a 29be 2c35 6cbe 4956 af3e 5a25 7d3e
00000030: 58a2 323e 252b e93e f93e bfbd bafa 4d3e
00000040: 7aae b13e d36d 193e 3543 313e de5d 093e
00000050: e6d6 353e b0b3 173e 4809 813e 20e5 943d
00000060: 1a16 2e3e 0e36 2fbe f04f 093e b189 09be
00000070: b0a4 ddbe d351 913e d826 82bc 619b 15be
00000080: 5f78 e2bd 9d35 453e 7abc 3e3e 2d2d 983e
00000090: fe0b ebbe 20e4 47be d813 91be be1f d4bd
000000a0: f579 bcbe 4217 1ebd c1e8 83be 1727 1dbe
000000b0: cc71 c33d 1ab9 35bc b247 61be 55bc 5f3d
000000c0: deda febd da64 953e 7d3f 85be 2458 20be
000000d0: 766d 19be 57a6 2dbe a1b7 bf3d 1606 873e
000000e0: df38 a73e 56c1 013e e3c2 a13d 21d1 1bbe
000000f0: 9c9b 253d dab0 cdbd 961e 253e dffd a53d
0.30566278 -0.048125878 0.015134246 -0.2968557 0.01427233 0.046165004 0.2108749 0.3005594
-0.16526367 -0.23067158 0.34245518 0.2472128 0.17444742 0.4554073 -0.09338183 0.20115176
0.34703428 0.14983301 0.17310794 0.13414714 0.17757758 0.14814639 0.25202394 0.072702646
0.17000619 -0.17110464 0.134094 -0.13431431 -0.4328971 0.2838274 -0.015887663 -0.14610054
-0.11058115 0.19258733 0.18626586 0.29721966 -0.45907587 -0.19520617 -0.28335452 -0.10357617
-0.36811796 -0.0385964 -0.25763515 -0.15346943 0.095431894 -0.011091495 -0.22000006 0.054622967
-0.12444089 0.29178506 -0.26025 -0.15658623 -0.14983162 -0.16957985 0.09361196 0.2637183
0.32660577 0.12671408 0.078985 -0.15216495 0.040431604 -0.100434974 0.16124949 0.08105063

hiden_layers.0.weight f4 [64, 64]
00000000: f244 d4be 0213 183e 7bb9 103e ccaf 503e
00000010: c73c 6cbe 1f4c 9fbc 2e01 123d c019 36be
00000020: 7481 fb3d a6f5 9bbd 513a ccbd 06bb 413e
00000030: 0588 453d 4ec6 c33d d3a9 a93e 0d50 37bd
00000040: 5e91 62bd 66d0 81bd 5770 953d 7832 59be
00000050: a320 1c3c b431 423e 39a3 c43a 7f7a cbbe
00000060: 6922 9e3d d41c 84bd c908 1abe b567 35be
00000070: 8a06 a4bd 9843 a6bc 1510 8dbe 3b2a fbbd
00000080: 0f68 23be c4c0 0abe 066b 5c3e b93e 053b
00000090: 14f9 a13d c492 8a3d 4995 bf3e c77b abbd
000000a0: b87f 663e 01f7 afbd df0d 363e c9ce e0bd
000000b0: b3a2 873d df6f f8bd b492 a33d 3a8a 7ebe
000000c0: 0a75 d53e 1c35 3ebe bc51 00bd dbf8 333e
000000d0: 763e fa3d 0b07 f93c 268d 9a3e f292 333e
000000e0: 0c9a 49be 9e27 143d dd8a 3dbd 9235 1f3e
000000f0: a448 9abc bc40 d9bc c4a4 4cbd fee4 24be
00000100: 30e5 793d bea2 16be d36c 03be 2e47 ba3c
00000110: 5bdc 27be 46cc c6bd 5260 053e 63bf 32be
00000120: d26f 78be 1570 c0be 1de8 a93e b572 8c3d
00000130: ff4e c73e 134d f33d 9fe8 b2bc 7825 643e
00000140: 1800 693d 617b 883e 5543 ca3d 8b57 db3d
00000150: 7ef8 963d 35d1 1dbe 980f bb3e 2686 9d3e
00000160: 8779 dabc e62c a5bd b885 633e 9f62 5f3d
00000170: 8c4b 97bb a4f8 423e 5b70 7cbd 022c 84be
00000180: da9b afbd 9d90 833e 27c0 a83e 0fb3 d13e
00000190: 97e2 f93d 16ba 063c ab35 59be 7075 0f3e
000001a0: 5a96 22be e65d e73c 80c2 13bf d492 1dbe
000001b0: ae69 2a3e 1ff6 64be 3648 94bd e9b7 80be
000001c0: abeb 4fbe f183 83bd 3bcc eebd f413 20be
000001d0: a5c5 05be a121 82be 6075 5d3e 74d9 c03d
000001e0: 16d0 36be 2e84 2abe c125 7bbe 37db 70be
000001f0: 2365 a03e faf5 743e 94fd 263e 3728 09be
00000200: 9d8c 053e 32b8 99bd 7ac6 333e 27b9 6c3b
00000210: cc86 47be a610 343d 16ca b5bc 31b7 2bbe
00000220: aab8 8d3d 43ee 2f3a bb06 5dbc c635 943d
00000230: 916d d33d e46f 38be dcc7 e53d 99a0 20be
00000240: 86cb b0bd 001c a4be 61b9 493b baa3 f0bd
00000250: 6289 57bd 4a8d 71be c51d 38be 1685 cc3c
00000260: c7f6 203d 181e 3abe e223 9cbc 443b aa3e
00000270: 74af 81bd 9757 11be ec90 0d3e a1c3 813e
00000280: c4d9 1bbe cd7b 0ebe 337f 073e 4af1 2a3e
00000290: 3310 d7bd 209e 08be 15bb de3c ddcb 883d
000002a0: 09c2 4bbe ff22 d9bd 516f 6d3e 8357 963e
000002b0: 32f2 1e3e dcae b13d 907b 843d aeee 69bd
000002c0: 0889 2dbd 4d25 703d 1c1a ebbd edb6 a3bc
000002d0: 9b89 823d 118c eb3d eec7 24be d7b1 853d
000002e0: 6899 50be d51f 163e 96dd 60be 5e12 3cbe
000002f0: c711 453e dcf8 48be 1df7 5cbe a33c 443e
00000300: 2b59 ee3b 9c7a 39be 0494 fb3d d867 b4be
00000310: 4f65 19be 7fbb 14be db73 a2be 2802 b4be
00000320: cdb6 10be 8a87 aebe f3c3 303e c2df 643e
00000330: b16e 1bbd 422a fbbe 30ca 5e3e 4329 ab3d
00000340: e90b b5be 5ea1 ec3e 1dfd d53e a96e 7d3e
00000350: 99a8 c33e 4495 cd3d f87f 64bc 14dd 66be
00000360: 4e9e 42be 3384 3e3e a2ee 97be 25a5 8fbe
00000370: 6c01 0f3e 9b10 8cbe 7053 05be d1cb 5bbe
00000380: a27f c1be 8eb7 223e 4ce4 ba3c bef6 233e
00000390: e146 bb3e db7a c73c fb13 bbbe 1c40 95be
000003a0: ae44 413e 0e3b 873e bad6 3bbe 4bbe 833a
000003b0: 0f5f 933e f68c 6abe ce20 983c 58ff b03a
000003c0: 7c2a a23e 731c 67be 0808 1a3f 0f8e a63d
000003d0: 3a89 73be 3b42 b6bb 21d0 ee3e c5ac 2ebe
000003e0: c123 0bbf 28e7 dc3c b2aa a2bd 555d ff3e
000003f0: e634 b2bd 8542 993c ee36 243d 8dd3 cbbe
-0.4145885 0.14851001 0.14133255 0.20379561 -0.2307006 -0.019445477 0.035645656 -0.1778326
0.122805506 -0.07615213 -0.099720605 0.18919 0.04822542 0.09559308 0.33137378 -0.044754077
-0.055314414 -0.06338577 0.07296818 -0.21210659 0.009529266 0.18964273 0.0015002257 -0.39741895
0.07721407 -0.06450811 -0.15042414 -0.17715342 -0.0800906 -0.020295903 -0.27551332 -0.12263914
-0.15957664 -0.13550097 0.21525201 0.0020331575 0.07908836 0.067662746 0.37418583 -0.08373218
0.22509658 -0.08592034 0.17778729 -0.10976941 0.06622829 -0.12130713 0.07986966 -0.24857417
0.41690856 -0.18574947 -0.031327948 0.175754 0.12218945 0.030398866 0.30185813 0.17536524
-0.1968767 0.036170594 -0.04627501 0.15547779 -0.018833466 -0.026520126 -0.04996182 -0.16102979
0.061009586 -0.14710519 -0.12834482 0.02273902 -0.16392653 -0.09706931 0.13025025 -0.1745582
-0.24261406 -0.37585512 0.331849 0.06857816 0.38927457 0.11879935 -0.021839438 0.22279918
0.056884855 0.2665663 0.09876124 0.10710057 0.07371615 -0.15411837 0.36535335 0.3076641
-0.026669277 -0.08065204 0.22218978 0.05453741 -0.00461716 0.19040161 -0.061630588 -0.25814825
-0.08574648 0.2569627 0.329591 0.40956923 0.12201422 0.008223077 -0.21211879 0.14009643
-0.15877667 0.028243016 -0.5771866 -0.15388042 0.16641876 -0.22359513 -0.07240336 -0.25140312
-0.20304744 -0.0642165 -0.116600476 -0.15632612 -0.13063677 -0.25416282 0.21626806 0.09416476
-0.17852816 -0.16651985 -0.2452612 -0.23521124 0.3132716 0.23921958 0.1630767 -0.13394247
0.13041921 -0.075058356 0.17556182 0.0036121102 -0.19485015 0.04396119 -0.022191089 -0.167691
0.069199875 0.0006711224 -0.013490374 0.07236819 0.103236325 -0.18011433 0.11219761 -0.15686263
-0.08632569 -0.32052612 0.003078066 -0.11749978 -0.052621253 -0.23589054 -0.17980106 0.024965804
0.039297845 -0.18175542 -0.019060079 0.3324834 -0.06332293 -0.14193569 0.13824815 0.25344566
-0.1521979 -0.13914414 0.13232116 0.16693607 -0.10501137 -0.1334157 0.027188817 0.06679509
-0.19898237 -0.10602378 0.23186995 0.2936364 0.15522078 0.0867593 0.0646888 -0.05711239
-0.04236701 0.058629323 -0.11479589 -0.019984687 0.063739024 0.11501325 -0.16091892 0.06528061
-0.2037102 0.1466058 -0.21959528 -0.18366382 0.19245063 -0.19626182 -0.21578641 0.19163756
0.0072738132 -0.18113178 0.12284091 -0.35235476 -0.14980052 -0.14524649 -0.31729016 -0.35157895
-0.14132233 -0.34087783 0.17262249 0.22350982 -0.03794736 -0.49055678 0.21756816 0.083574794
-0.3536065 0.46216863 0.41794673 0.24749245 0.38214567 0.10038236 -0.013946526 -0.22545272
-0.19005701 0.18605117 -0.2967425 -0.28055683 0.13965386 -0.2735642 -0.1302011 -0.21464469
-0.3779269 0.15890333 0.022813939 0.16012093 0.36577514 0.024350574 -0.3653868 -0.29150474
0.18873855 0.26412243 -0.1834363 0.0010051219 0.2878346 -0.22905335 0.01857033 0.0013503833
0.31673038 -0.22569446 0.60168505 0.08132564 -0.23782817 -0.0055620945 0.46643165 -0.17058094
-0.5435143 0.026965693 -0.07942714 0.49875894 -0.08701496 0.018708477 0.040091448 -0.39809838

hiden_layers.0.bias f4 [64]
00000000: 78fc 62bd bd1c 373e 82c8 96bd 8c47 d7bd
00000010: 2c2c 873d 545a df3d cd1a 9d3e 2ddb 0cbd
00000020: 74d2 adbb 03d6 24be ec05 71be 1bbf 9a3b
00000030: 0be8 2b3e 34a5 89bd f5cb b43d a40e 473e
00000040: c3c7 c9bd 0c63 33bd aabd b73d 8c95 6ebe
00000050: 1382 2dbe 9121 043e 7c58 953c 3970 94bc
00000060: 1041 d43b 6fb2 893d 4cca f6bd a610 2dbf
00000070: b19c 653e e321 1cbd f2bd 383e de2d a53d
00000080: 15bf 813d 9d3c 13be f513 04be c5e4 c83d
00000090: ca56 11be 5789 733c b215 7abe 35a1 12be
000000a0: d5a2 9cbe 093b 32bd ace7 703e 9aeb 1dbe
000000b0: 541b c53d cb96 3a3e 4c12 bebb 5bc1 483c
000000c0: 1106 5e3e ff6a 06be ae95 3dbd dadd 443e
000000d0: 712a eebd 49cb f2bd e5e0 833c bd5d 13bc
000000e0: 4815 f4bd 971c 613d 3af6 7bbe 73ce 28be
000000f0: a1e9 6ebd 8972 ac3d c1f0 c6bd e063 83bc
-0.055416554 0.17882057 -0.073624626 -0.10511693 0.06600222 0.109059006 0.3068451 -0.03438871
-0.005304629 -0.16097264 -0.23537415 0.0047224886 0.16787736 -0.06720963 0.08827964 0.19439179
-0.09852555 -0.04379563 0.089717224 -0.23299235 -0.1694415 0.1290343 0.01823067 -0.018119918
0.0064774826 0.06723487 -0.12050304 -0.6760353 0.22423054 -0.038118254 0.18041208 0.08065389
0.06335274 -0.14378591 -0.12898238 0.09809259 -0.14193264 0.014864287 -0.24422339 -0.14319308
-0.3059298 -0.04351333 0.23525876 -0.15421906 0.09624353 0.18221585 -0.005800521 0.012253131
0.21682002 -0.13126753 -0.046285324 0.19225255 -0.11629189 -0.1185518 0.016098449 -0.008994517
-0.119181216 0.054958906 -0.24605647 -0.16485004 -0.058328275 0.08420283 -0.09713889 -0.016038835

hiden_layers.1.weight f4 [64, 64]
00000000: a885 c03d df39 153e 8532 13be 82c8 0b3f
00000010: be3b 843d 8554 cc3e 8eaf 40be d6ae 373e
00000020: 9dd6 debc 9387 f7bc 91ac b83c a1d7 1dbe
00000030: 69b3 e43d b1d9 e43c 799d cb3d 7e72 26bd
00000040: 36c4 133e 5f8f 853e f0a9 8c3d e8ad 843e
00000050: 1ff2 873e 38b6 81bc 7958 ae3d a76e 453e
00000060: b835 f5bd 37a9 9ebd 8c15 ccbd 0ff3 563e
00000070: 99a3 853d 900a 33be 8d09 4ebf d398 ab3e
00000080: 977d 753d 7cf4 1d3e 1910 7bbe 5fc9 63be
00000090: 00a7 d7bd 91aa 233e b560 02be 3275 473e
000000a0: bd27 273e 0d5c 123e 080f 0ebf d4c5 ab3d
000000b0: 6853 7f3e 54b2 973e c6ee 27bc bcc6 13bf
000000c0: 1a76 043d 5109 29be 7545 ae3d d8dc 2d3e
000000d0: 7069 05be dea8 ec3d d833 e03d af8e 99be
000000e0: 0c30 193f 24b5 dabc b64c 6ebe 2d2d 5a3e
000000f0: c3d5 c53d 91d0 553e bd9e af3d 645f 643d
00000100: fe1c f6bd 043f 6dbc a3b8 b8bc a7a3 b73d
00000110: 3bf4 71be b45f 70bd 25d3 45be 517f 5a3c
00000120: f3db 893e fafa c9bd f474 5a3e 2346 7a3e
00000130: 60e0 6a3d 8c5e a33d f783 7a3d 1973 463d
00000140: 5ac2 d03d 33b5 b7bd c1f4 003e 36a4 c13d
00000150: db8a 543d 67ba 133e 4108 90be 6c87 4b3e
00000160: c059 e6bd 980f 3a3e 2d79 343d 84eb 47bd
00000170: 64b0 89bd 9f7a 8c3d 057b febd c877 1d3e
00000180: 64d9 8f3e 1939 373e ce81 2bbe 892e 8fbe
00000190: f1fe d1bd a4bc 193d 5de6 bbbd 990c 94be
000001a0: 90ec 57be 2b9d 95be c527 afbb f420 04be
000001b0: 913b 3f3d ddbf c03d eedf a6bc 748d 8dbe
000001c0: efa5 213e d021 503e 1f73 5fbe 17e5 e8bd
000001d0: 944f b03d 682e 2f3d 766a 493e d618 8b3a
000001e0: 1f5e 983c 7292 803d d412 61bd d66e f63d
000001f0: 6d90 643d 4ca7 9d3c 5675 893c c19f 273e
00000200: 32a3 8e3d 04f7 6d3e aba5 6ebd 9456 213c
00000210: 21a4 9c3e 0912 183e b7d9 7ebe b14b 7ebe
00000220: 2594 503e b1dc 3dbe 42ad d4be 3828 b23e
00000230: b1b5 0d3e d3e1 e2bd a9f6 553e 70d1 913d
00000240: fe06 93be 2748 a43c 09bf 953e 5822 193e
00000250: 3d7f d03d 6ac5 81bd 07a8 95be c887 d1be
00000260: 495e 8b3e 4a5d fa3e 2c23 09be e98f 27be
00000270: ea30 903e 9bf9 313e 6e4c a83e d5e5 bb3e
00000280: bd48 d33c 7878 a5be 356a cdbe 8029 f3ba
00000290: e306 73bb 78ec 63be 86ca 4e3d 4a3b 8dbe
000002a0: 5c91 54be d2ce 0bbf b46e 7cbe 7fb3 83be
000002b0: 38b0 dfbc 1836 c13e 1a07 b03d 8238 583e
000002c0: 6185 e5bd 3da0 77bd 13bb ba3d d483 72be
000002d0: e1ae 2ebd a01d 44be 317c f63d 8410 103e
000002e0: d083 12be fb13 a13e 24de 34be 1829 5dba
000002f0: 82c2 b73d 11e4 4f3e 0225 8ebe 7f99 dd3e
00000300: bb37 313e 0613 eabc d988 cfbd 745b 473e
00000310: 3adc a13e cd7f 2dbe 6c31 0d3d 077b d7bd
00000320: 5071 8dbd 4830 dabd 0dd8 a0bb be97 883e
00000330: bc57 813e 816c 5c3e d04c 17bc 021a d03d
00000340: 013c 423d ccff 56be ee71 4e3d 45f8 c53d
00000350: 8d7b 1139 45e3 74be 032d 303c b1e9 3e3d
00000360: 7dbf 653e d467 233e d50b 0d3b 84f7 4bbd
00000370: befe 213e 387a 6e3e dccf 123e 56e8 943e
00000380: ba88 053d 59b1 67bd e56e d7bd b6ff 89bb
00000390: 9337 2a3e 4c4e fb3d 94b6 123e e9b9 f33d
000003a0: 67fd 073e 4851 9dbd f9d7 4c3e e381 643d
000003b0: 4825 3fbe 60b3 f7bd 18c0 a3be 1774 0dbe
000003c0: 1226 ca3a 27a4 633e 46bf 083d 18fb 853d
000003d0: a604 233e 660a 75bd 996b 67be df72 3f3c
000003e0: 14d2 19be 89a2 8ebd 833d 213e abbd 833d
000003f0: ad9e 1bbe 2a98 7c3e 9007 023d 577d 8cbe
0.09400493 0.14572857 -0.1437474 0.54602826 0.064567074 0.39908233 -0.18816969 0.17937788
-0.027201945 -0.030216014 0.022543224 -0.15414287 0.11167032 0.027935835 0.09942145 -0.040636532
0.14430317 0.26085946 0.068683505 0.2591393 0.2655191 -0.015833959 0.085129686 0.19280492
-0.11973137 -0.07747119 -0.09965047 0.20991157 0.065253444 -0.17484498 -0.80483323 0.33515033
0.059934225 0.15425295 -0.2451786 -0.22244786 -0.105298996 0.15983035 -0.12732203 0.194783
0.16323753 0.14292927 -0.55491686 0.08387342 0.2493416 0.2962824 -0.010249799 -0.5772512
0.032339193 -0.1650746 0.085093416 0.16978776 -0.13028502 0.11555646 0.109473884 -0.2999167
0.5983894 -0.026697703 -0.2327145 0.21306296 0.096599124 0.20880343 0.08575199 0.055755034
-0.120172486 -0.014480356 -0.02254898 0.08966761 -0.23628323 -0.05868502 -0.19318826 0.013336019
0.2692562 -0.09862323 0.21333677 0.24440818 0.057342887 0.07977018 0.061161008 0.04844961
0.101933196 -0.08970108 0.12593366 0.09455149 0.051890235 0.14426576 -0.28131297 0.19875878
-0.11247587 0.18170011 0.044060875 -0.04880859 -0.06723097 0.068593256 -0.12425808 0.15377724
0.28095543 0.17892875 -0.16748735 -0.2796519 -0.10253704 0.037533417 -0.09174798 -0.2891586
-0.21086335 -0.29221472 -0.005345317 -0.12903196 0.046687666 0.09411595 -0.02037045 -0.27646983
0.15785955 0.20325398 -0.21821259 -0.113718204 0.08608928 0.042768866 0.19669518 0.001061226
0.018599568 0.06277932 -0.054949597 0.12032859 0.055801798 0.019244812 0.016779583 0.16369535
0.06964721 0.2323876 -0.058263462 0.009847302 0.3059397 0.1485063 -0.24887739 -0.24833561
0.20369013 -0.18541218 -0.41538435 0.3479631 0.13838841 -0.11078229 0.20894875 0.07120025
-0.28716272 0.020053936 0.2924731 0.14954507 0.10180519 -0.06336482 -0.29229757 -0.40923905
0.2722037 0.488993 -0.13392323 -0.16363491 0.28162318 0.17380373 0.3287081 0.36698785
0.02579152 -0.32318473 -0.40120092 -0.0018551797 -0.0037082962 -0.22258174 0.05048611 -0.27584296
-0.20758575 -0.5461246 -0.24651605 -0.25722882 -0.027305707 0.37736583 0.085951045 0.21115306
-0.11207081 -0.06045555 0.09117713 -0.23683101 -0.042647246 -0.19151926 0.120354064 0.140688
-0.14308095 0.31460556 -0.17662865 -0.00084366044 0.08972646 0.20301844 -0.2776261 0.4328117
0.17306416 -0.028573524 -0.101335235 0.1946848 0.31613332 -0.16943283 0.03447096 -0.105215125
-0.06906378 -0.1065374 -0.0049085678 0.2667827 0.2526225 0.21525766 -0.009234622 0.101612106
0.047420505 -0.20996016 0.05040162 0.09666494 0.00013874304 -0.23914821 0.010752919 0.046609584
0.22436328 0.15957576 0.0021521945 -0.049796596 0.15819833 0.2328881 0.14337105 0.29083508
0.032601096 -0.056565616 -0.10519198 -0.0042113913 0.16622762 0.12270793 0.1432746 0.11900694
0.13280259 -0.07681519 0.20004262 0.055787932 -0.18666565 -0.1209476 -0.31982493 -0.13813816
0.0015422723 0.22230588 0.033385538 0.06542033 0.15919742 -0.05982437 -0.22599639 0.011685102
-0.15021545 -0.06964595 0.15746121 0.06432661 -0.15197249 0.24667421 0.031745493 -0.27439377

hiden_layers.1.bias f4 [64]
00000000: 650b 17bd da86 f03c e2da 123d 143f 753c
00000010: 5b0f 31bd 1b0e db3d c45c 8ebc e47b b3ba
00000020: b544 b9bb 7889 723d a9fb 92bd fa1d a3ba
00000030: 8d22 293e da84 fd3c d90a 38be 5c29 21bd
00000040: 61d9 bcbd beda 48bd a2e3 debc 30a5 cfbd
00000050: a61e 1fbd fb72 213e 9e75 de3c fcd9 53bc
00000060: d354 62be bcd1 ef3c 53f4 6b3d 2f7a 0b3e
00000070: 04e0 bbbd d9f6 19be e2b7 95bd 9f4a b4bd
00000080: 169c 37bd f177 8b3c a7d5 cb3b 5b4e 06be
00000090: 7227 e1bd 1e73 34be 0585 e3bd fee6 873e
000000a0: 4a73 083e d532 e3bd 8ef1 f73c b47b 9d3e
000000b0: 1152 cfbc 03af ae3e 15ce 09ba 21d7 8c3c
000000c0: 475a d73c 284e 99bd c32c 03bc 7640 473e
000000d0: 4610 1cbc 39e2 a2bc aed3 bb3d e5a7 93bd
000000e0: 5bab c03d fd2a 8dbc 02a9 db3c 8e7e 203e
000000f0: f837 613d 3f92 b8bc e6f8 ff3c 87f4 c5bd
-0.0368761 0.029361177 0.035853274 0.014968652 -0.043227535 0.1069605 -0.017378218 -0.0013693538
-0.0056539425 0.05921313 -0.071769066 -0.0012444847 0.16517086 0.030947138 -0.17972888 -0.039346084
-0.09221149 -0.049036734 -0.027208153 -0.10138929 -0.038847588 0.15766518 0.027155694 -0.0129303895
-0.2210267 0.029274814 0.057606053 0.13620828 -0.09173587 -0.15035571 -0.073104635 -0.08803295
-0.04482659 0.017024966 0.0062205377 -0.13115828 -0.10993852 -0.17622039 -0.11109356 0.2654342
0.1332523 -0.1109368 0.03026655 0.3075844 -0.025307687 0.34117898 -0.0005256844 0.017192425
0.026288165 -0.0748561 -0.0080062775 0.19458184 -0.009525364 -0.019883262 0.09171234 -0.07209758
0.094076835 -0.017232412 0.026813988 0.15673277 0.054985017 -0.022530673 0.031246614 -0.096657805

hiden_layers.2.weight f4 [64, 64]
00000000: fc83 1abe 52d3 463e 6a2c 153e eb28 15be
00000010: fd9e 573c 5b15 30be 0f46 27be cedf 7dbd
00000020: 0033 69be 407f 8dbd 085a b5bd ce78 dabc
00000030: 0198 4d3e bf1d ce3e e2e9 52be eeb0 1a3e
00000040: 83a9 8e3e bc9c 22bd 9840 653d 6537 34be
00000050: b369 8ebc 137b 203e e355 08be 3041 043e
00000060: d65f abbb 14eb 0fbe c720 a8bd 3bc2 1b3c
00000070: 1073 323d 87ff 2dbd bc3d 113e 6326 cebc
00000080: a211 71be 9f85 d33d 837b 0bbe b269 d0bd
00000090: a623 b23e 4abd 303d b3ec 473e 96f6 843e
000000a0: bda2 e7bd 123b d03b d4f7 16bd 877f 233e
000000b0: 5dfb 073e 97e4 4ebe c28c 093c d8c3 163e
000000c0: d73b e13d 93d1 a03b 6918 09be 8441 92be
000000d0: dcd7 06be 4133 3c3e 8bf2 4f3e 7bea 033e
000000e0: 2753 eabc 2e20 203d 4de0 063d d212 513e
000000f0: 2c06 76be dc55 843e c900 783e f34e b73e
00000100: c40b 5a3e dc81 e33c b919 b73c e11b a03c
00000110: 353a 4c3e 9a9f 263e 4b78 953e 75b7 c53d
00000120: 5f45 0c3e 5948 9d3e d481 903e 8561 7e3e
00000130: a600 e73c ab7b 47bd 2a7c 24bc 2c57 273e
00000140: f3e2 5bbe 00af 033d 7ddc 54be 95b1 32be
00000150: 9862 fe3d 1479 14be a5ef 583d 01e8 f7bd
00000160: 2088 c2bb ac54 793d 9b0c b73e 18f3 303e
00000170: d5b9 4abd 2ba4 1a3e 4ee8 f23d 47fa 58bd
00000180: aeae 7d3d c634 773e d61a 863b ae58 563e
00000190: 285b 063e fa83 ff3d 4229 0a3e 006e 96be
000001a0: 27f4 3ebd 2c30 80bd e046 f13d c15d b43e
000001b0: 5753 b73d 6f05 96bd cab9 70bd 943d 2f3e
000001c0: a27c ddbd 2fed 9e3e a207 efbd c990 9dbe
000001d0: e20f 9bbe 86c1 873e 803a aebc b2e2 5abe
000001e0: 078d 973e 58f3 1bbd dd9b 75bd 0fbf 2c3d
000001f0: ba7f 863d 7f32 813e 82bb f03d fd9c 18be
00000200: 9aeb 173e 1344 3bbe 3155 8fbd d7d5 0cbe
00000210: a48e 593e 275c 3b3d c660 003f d390 803d
00000220: c186 3fbe b0f6 803e c80d 063e 2939 563e
00000230: 8f01 04bf 34aa f43d ce25 a1be ad92 4f3e
00000240: db93 60be 2bfe 9fbe ade6 ea3d 9260 0cbe
00000250: 26f4 92bd 8462 643d 9c74 9e3d 132a 1b3e
00000260: 2d24 cabe 7e91 d2bc 0704 26be 9c05 2dbd
00000270: 927c 663d e982 a0bd 27b8 bb3e 12b8 933e
00000280: 81bf e3bd 00f9 3cbe 2a33 97bd 123c 303f
00000290: 78d9 333e 4392 25bc c862 c2be cc1a ec3e
000002a0: ce40 093d b767 60be d9b0 57be 24b8 f3be
000002b0: 1d9c 073e 12e5 32be 7f6c e6bd aba7 f6bd
000002c0: 89dd 113e ae21 bc3d 483b d4bd a2b7 943e
000002d0: 838a f1bd 3676 d93d 2fe1 cd3d 1193 173e
000002e0: 2e97 90be 988a b13d 90a7 15be d50c fabd
000002f0: 37f3 8b3e 8137 03bf e5c8 a83d c4e9 653c
00000300: df5d c3bd 4ac2 a2bd b115 c5bd db6c 3b3e
00000310: b699 e7bd 73bd ffbd 2820 a23e d129 5abe
00000320: 24dd 803e f3ef 653e 9f07 8e3e fac6 8cbe
00000330: 6b75 983d a026 883d f092 aa3d 14fe 153e
00000340: ad67 6f3d 65be 5ebe 5e80 8b3b eb97 b23d
00000350: 442d 913d 4bf3 aabd 7e6a ed3d 5939 76bd
00000360: abe3 1abf c859 db3c c0d9 8f3d 44e0 2c3d
00000370: 84f8 d9bd 6a8b 163e 3ee6 dbbd 676b 893e
00000380: 1f9d 50be eb25 2abe 43fe c53d 7bcd 503e
00000390: f395 8e3d 89a5 b6bb b118 a1bc 7c8d 6abe
000003a0: 3451 823e 67c4 d3be c8f3 593d 8879 083e
000003b0: b33d 263e 46e8 5fbf c54a 8dbd b51b 283c
000003c0: f508 20be c309 333e 3f8a 5f3e eaff 7ebe
000003d0: 5caf 47be 9dc0 20be d713 4b3e 0d35 b43d
000003e0: 9b65 4fbc d232 243e 8394 89bd d835 6f3e
000003f0: 716b 5d3e c9fb 50be 3ec3 433e ee56 23be
-0.1508941 0.1941655 0.14567724 -0.1456639 0.013160464 -0.17195646 -0.16335319 -0.061981015
-0.22773361 -0.06909037 -0.08855063 -0.026668932 0.20077516 0.4025707 -0.20597032 0.15106556
0.27863702 -0.039700255 0.055969805 -0.17599256 -0.017384386 0.15671949 -0.13314013 0.12915492
-0.0052299304 -0.14054519 -0.08209377 0.009506757 0.043566763 -0.042480018 0.14183706 -0.025164789
-0.23541883 0.103282206 -0.13621335 -0.1017641 0.34792823 0.04314927 0.19523887 0.2596938
-0.11310337 0.006354698 -0.03685744 0.15966617 0.13279481 -0.20204388 0.008395376 0.14723146
0.10997742 0.0049077957 -0.13388218 -0.2856561 -0.13168281 0.18378927 0.20307367 0.12882416
-0.028604103 0.03909319 0.032928754 0.20417336 -0.24025792 0.25846756 0.2421905 0.3580242
0.2129355 0.027771883 0.022351133 0.019544544 0.19944079 0.1627182 0.2919334 0.09654132
0.13698338 0.3071926 0.2822405 0.24841888 0.028198551 -0.048701923 -0.010039369 0.16341847
-0.21473293 0.032149315 -0.20787235 -0.17450555 0.12421149 -0.14499313 0.052962918 -0.12104798
-0.0059366375 0.060871765 0.35751805 0.17280233 -0.04949363 0.15101688 0.11860715 -0.052973058
0.061934166 0.24141225 0.0040925546 0.20932266 0.13120711 0.124763444 0.13492301 -0.29380798
-0.04661956 -0.06259188 0.117810965 0.3522778 0.08951443 -0.07325255 -0.058770932 0.17113334
-0.108147874 0.31040332 -0.11671378 -0.30774525 -0.30285555 0.26514834 -0.02126813 -0.2137554
0.29599783 -0.038073868 -0.059963096 0.042174395 0.06567331 0.25233838 0.11754514 -0.14903636
0.14835969 -0.18287687 -0.06998671 -0.13753448 0.2124582 0.04574218 0.50147665 0.06277623
-0.18703748 0.25188208 0.13091195 0.20920242 -0.5156488 0.11946526 -0.31474155 0.20270796
-0.21931402 -0.31248602 0.11469779 -0.13708714 -0.07175474 0.055758014 0.07737085 0.15152769
-0.39480725 -0.025704142 -0.16212474 -0.042241678 0.056271143 -0.07837469 0.36663935 0.28851372
-0.11120511 -0.18454361 -0.07382806 0.6884166 0.17563426 -0.010105672 -0.3796599 0.46114194
0.03350907 -0.21914564 -0.21063556 -0.47601426 0.13243146 -0.17470196 -0.11251163 -0.12043699
0.14244665 0.091861114 -0.103628695 0.2904635 -0.11793997 0.1061825 0.10052716 0.14802195
-0.2824034 0.08669013 -0.14614701 -0.12209479 0.27333996 -0.5125657 0.082414426 0.014032785
-0.09539389 -0.07947214 -0.09623278 0.18303244 -0.11308615 -0.124873064 0.31665158 -0.21305014
0.25168717 0.22454815 0.2774019 -0.27495557 0.07444271 0.06647992 0.08328807 0.14647704
0.058448482 -0.21752317 0.004257246 0.08720382 0.07088712 -0.08347186 0.115925774 -0.060113285
-0.60503644 0.02677621 0.070239544 0.042206064 -0.10643104 0.1470162 -0.107372746 0.26839754
-0.20372437 -0.16616027 0.09667637 0.20390885 0.06962194 -0.0055739325 -0.019665094 -0.22905535
0.25452578 -0.4136078 0.053211004 0.1332761 0.16234474 -0.87463796 -0.06899027 0.010260512
-0.15628417 0.17484193 0.2183008 -0.24902311 -0.19500488 -0.15698476 0.19831787 0.08799181
-0.012658502 0.16035011 -0.067177795 0.23360384 0.21623017 -0.20408548 0.19117448 -0.1595113

hiden_layers.2.bias f4 [64]
00000000: effe 6d3c 4392 ab3c e136 fdbd 141e b2bd
00000010: 5297 b2bc 81bb b9be 8fbe f93d 7b92 75bd
00000020: 6c8b 1c3d 082d 2ebd e41e debc 7e1e 9bbc
00000030: 2935 40bd e8e8 23bd f66a 8f3d cfa3 ad3d
00000040: 3891 4f38 d9c4 b63c df83 1f3d d36c 9cbb
00000050: 0ab4 88bd 5188 83bd 3a17 d43c b776 de3c
00000060: e6f6 213d 9572 97bd f2b0 e63c 6f56 9e3c
00000070: f111 18bd fec0 6d3d 1c8a 2a3d f6f4 d33c
00000080: 09a6 73bd c68e 87bd 7e8f 98bd 548d c8bc
00000090: 2108 243d 5465 a93d e337 86bd a585 9e3d
000000a0: fde0 dbbc 76f1 fdbc 5db0 afbd dbd9 46bc
000000b0: dac8 28bd 859f 19bd 5bdc 993b 7c37 49bd
000000c0: 481d d33b aab1 78be b778 cf3d ab00 e4bc
000000d0: cb31 f6bd 3028 813d 4946 34bc ca47 45bd
000000e0: 3b6e 613d 0903 e1bb 720e babd 25aa 89bd
000000f0: 514c 03bb 27eb 373e a373 a0bc 3e6d 803c
0.014526113 0.020943766 -0.12363983 -0.08697143 -0.02180067 -0.36275867 0.12194549 -0.059954148
0.0382189 -0.042523414 -0.02711434 -0.018935438 -0.046925697 -0.04001704 0.07002823 0.0847851
4.948789e-05 0.022310661 0.03894412 -0.004773715 -0.06674965 -0.06422485 0.025889982 0.027156217
0.0395421 -0.07394902 0.028160546 0.019328324 -0.037126485 0.05804538 0.041635618 0.025873642
-0.059484515 -0.06619029 -0.07449244 -0.024481453 0.040046815 0.0827128 -0.06553628 0.077403344
-0.026840681 -0.030998927 -0.085785605 -0.012136902 -0.041207172 -0.037505645 0.004695458 -0.04912518
0.0064426996 -0.24286523 0.101304464 -0.02783235 -0.12021216 0.06306493 -0.011003085 -0.048164167
0.055036765 -0.006866817 -0.090847865 -0.067219056 -0.0020034502 0.17960797 -0.01958639 0.01567709

hiden_layers.3.weight f4 [64, 64]
00000000: 0678 8fbd a672 ad3e 4844 aa3e d2d8 31be
00000010: 0342 27bd 396d 543e af77 5cbd 222b 96be
00000020: e743 38bd 8ffc c33d e745 093e a878 00be
00000030: 1409 2d3e 492b 2bbd efc5 2f3e b1cf d2bc
00000040: 1795 00be a6e2 89be 7211 013e a14d 16be
00000050: 2566 183e a8d9 2c3d 0d94 d63e c474 633e
00000060: 4f86 293e 3710 0d3d 65e4 12be 622b 54be
00000070: 9eab 8c3e 63a7 1d3e 23b7 d03c 826e 7b3d
00000080: 8633 f03e 4352 a73d 54a5 61be 1ed5 f33d
00000090: bd4c 793d 3c78 31bd bba3 c53e 6515 84bd
000000a0: bbde 9abd 665a fb3d 96c5 45be dd2a bcbd
000000b0: 63ce 12bd e2b0 e43d 14a2 72bd ad46 02be
000000c0: 4b46 713d b823 69be b3cc d7bc de30 113d
000000d0: 87cd b73e aae4 193e fea4 163e a209 0bbe
000000e0: 5fca 2e3e aec4 d53d d684 61be 6099 1c3e
000000f0: 29a4 e13d 98e9 aa3e 036c 4abd 001d a33e
00000100: b452 69be 3785 903d bee3 89be c668 2c3e
00000110: 8729 1e3e b557 8a3e f5a9 8abe 1563 1c3e
00000120: 3dfb 88be 19d6 81bd c6b8 ae3d 45bf 66bb
00000130: 0033 1c3d 6462 d53c 926a b3b9 db66 163e
00000140: 67d1 673d 7de6 f7bc 7b4c 933d e1b9 393d
00000150: 9185 2b3e b4fb 69be a517 67be 218a 803e
00000160: 9654 d23c e530 da3d 2649 4a3e e1e3 38be
00000170: 03d0 643e 20d5 2fbb a216 9dbe cbac 343d
00000180: e8f8 bdbd 39db 0cbe db02 ae3e d23a c13e
00000190: aafe 2f3c 9083 aabd 2df7 a4be ae5d 463e
000001a0: acb2 753d 71b7 46bd 6747 033d 0239 aa3e
000001b0: 462b 78bd f853 383e 72d3 11bd 1242 08bd
000001c0: 98e4 233e e176 20be 2209 7bbe 37c7 793d
000001d0: 72c1 073e e688 283d aa61 85bc 2be6 1e3e
000001e0: 0119 863d 795f 43be e9a3 8e3e 7383 74bd
000001f0: aa98 973e 78eb eb3d 26f3 823d 68c1 19bd
00000200: dc49 07be b57c 983e 559d 70be df74 fbbb
00000210: d0a3 a6bd 38c5 8e3e ee82 ce3e d8e6 25be
00000220: 31af 1c3e 7c99 e2bb 3991 09be ef62 023e
00000230: bcf5 85bd 8c8d ce3a bfdd da3d b40f e73c
00000240: ed2a 5c3e 2b95 aa3d 9908 f5be db39 f4bd
00000250: a976 01be 56c5 21be 58d1 a0bc 6ac9 9f3d
00000260: c2f1 bc3b d648 913e 6e3b a0be 4791 3ebc
00000270: a0d0 023e 3e88 80be 7ba7 c4bc df95 1dbe
00000280: f63c c0be 95a9 dcbd 0b44 0e3e 5b55 1a3d
00000290: 9017 a8bd a42c 0ebd b60b 3b3e 768e 383d
000002a0: e7b8 5d3e fb2c c4bd cec9 90bd 5e9a 633e
000002b0: 1f39 fbbd 1111 c0be 731e 73be c56d 83be
000002c0: f281 ebbc 9802 7d3d f34a 443e ed07 3a3e
000002d0: 98e9 83bc b952 46bd 841d bebe 308d d8be
000002e0: 3ada a8be 3cc7 34be 38a6 743d dd8a 983d
000002f0: ce18 1e3d 7141 003e 25c7 fb3d c144 153d
00000300: 27c5 303e 543c 84be f3d4 3f3e 53c8 5fbd
00000310: 0e3f a2be 7930 6bbd 23ee a53d 9151 0fbe
00000320: 7488 2f3e 099f 42be bb07 03be d5ec 4cbe
00000330: 71e7 11be 4c8c d9be 07b3 00be ce03 d13d
00000340: 07c2 cdbd 9e85 4a3e ab7d d03d f571 d2bd
00000350: 3df3 a03d 6b39 24bd ed79 233d 5482 a4bd
00000360: 2cf1 333e e566 ba3d bce1 a73c aba7 443d
00000370: 650d 45bd a24a 4abd 9d5f 013d 40d0 af3d
00000380: 3adb 9c3e 7f46 203e 0b72 293c acf5 8dbe
00000390: 263e 47be 305e c13c 6035 12be 53e4 31be
000003a0: 9e65 6dbb 704d 8cbe 85d9 cfbd da96 1f3c
000003b0: 2d8c 9b3e 3851 53be 2607 723e f3bd 223e
000003c0: 08bf 2fbc 2dd7 123e cfd2 08be 00e5 09bd
000003d0: 4244 c03d f2ac ed3d 5d10 82bc 1015 b93e
000003e0: dfb8 793e 4747 273e 9a87 533e 1f54 a2bd
000003f0: ed8a cf3d eca0 2dbe 49e9 cabd e6a4 0f3e
-0.070053145 0.33876532 0.3325522 -0.17367867 -0.040834438 0.2074479 -0.053825077 -0.29329783
-0.04498663 0.09569656 0.13405572 -0.12546027 0.16897994 -0.041789327 0.1716535 -0.0257338
-0.12556873 -0.26930732 0.12604311 -0.1467805 0.14882715 0.04219976 0.4190983 0.22212511
0.16555141 0.03443929 -0.14344938 -0.20719674 0.27474684 0.15395884 0.025477951 0.061384685
0.4691431 0.08169987 -0.22035724 0.11905883 0.0608642 -0.043327555 0.3860148 -0.06449393
-0.07562014 0.122731015 -0.19313654 -0.09187863 -0.035841357 0.1116655 -0.0592366 -0.12722273
0.058904927 -0.22767532 -0.026342725 0.035446994 0.35898992 0.15028635 0.14711377 -0.13577893
0.17069386 0.10437904 -0.22023329 0.15292883 0.11017639 0.33381343 -0.049419414 0.31858063
-0.22785455 0.07056659 -0.26931566 0.16836843 0.15445529 0.2702004 -0.27082792 0.15272172
-0.2675418 -0.06339664 0.085313365 -0.003520922 0.038134575 0.026047893 -0.00034220942 0.14687674
0.056596186 -0.030261273 0.07192322 0.045343284 0.1675017 -0.22849923 -0.22567613 0.25105384
0.0256751 0.10653857 0.19754466 -0.18055679 0.22344975 -0.0026829913 -0.3068133 0.0441101
-0.09275991 -0.13755502 0.33986554 0.3774019 0.010741869 -0.08325875 -0.3221983 0.19371673
0.059984848 -0.048514787 0.032050516 0.33246619 -0.060588144 0.18000782 -0.03560204 -0.033266135
0.1600517 -0.15670349 -0.24515203 0.060981 0.13257387 0.04114618 -0.016281921 0.1551749
0.06547738 -0.19079389 0.2785943 -0.059695672 0.2960866 0.115195215 0.06394033 -0.037537962
-0.13211769 0.29782644 -0.23497517 -0.007673844 -0.081367135 0.2788484 0.40334266 -0.16201341
0.15301205 -0.0069152694 -0.13434304 0.12733053 -0.06541011 0.0015758737 0.10686826 0.02820573
0.2150075 0.08329233 -0.47858122 -0.119250976 -0.12642922 -0.15797934 -0.019631073 0.078020886
0.0057661245 0.28375882 -0.3129534 -0.0116313165 0.12774897 -0.25103945 -0.024005642 -0.15389203
-0.3754651 -0.10774533 0.13893144 0.037679058 -0.08207619 -0.03471054 0.18266186 0.045057736
0.21652566 -0.09578892 -0.07069741 0.22226855 -0.12266754 -0.3751302 -0.23742084 -0.25669685
-0.028748486 0.06177005 0.19169216 0.18167086 -0.016102597 -0.048418734 -0.37131894 -0.42295218
-0.32978994 -0.17654127 0.05972883 0.07448361 0.038597874 0.12524964 0.12293843 0.036442522
0.17262708 -0.25827277 0.18733577 -0.054634403 -0.31688732 -0.057419274 0.081020616 -0.13995959
0.17141896 -0.1900598 -0.12795918 -0.20012219 -0.14248444 -0.4248985 -0.12568294 0.10205804
-0.100467734 0.19777533 0.10180219 -0.10275642 0.07858894 -0.04009382 0.0399112 -0.080326706
0.17572469 0.09101657 0.02049338 0.048011463 -0.048108477 -0.04938758 0.031585325 0.085846424
0.30636007 0.15651892 0.010342131 -0.27726495 -0.19457301 0.023604482 -0.14278173 -0.17372255
-0.0036223899 -0.2740283 -0.101489104 0.009740556 0.30380383 -0.20636451 0.2363554 0.15892772
-0.010726698 0.14339896 -0.13361667 -0.033665657 0.09388019 0.11605252 -0.015876943 0.36148882
0.24386929 0.16335784 0.20657197 -0.07926201 0.1013392 -0.16955918 -0.09907777 0.14027748

hiden_layers.3.bias f4 [64]
00000000: f0ef f1bd 6ea9 d7bc 6be0 c93c 0c88 63bd
00000010: a11f c13d ba31 56bc 24ba 003e 8d80 513b
00000020: 574a 873d 1552 a1bd 7d52 dcbc f2ee 87bd
00000030: 6051 7c3d 9629 0fbc 19d9 0e3e a05e f83d
00000040: 0cb2 813d a0a4 94bd 7ef1 8d3d 8d64 0dbd
00000050: 953c 7cbd dfe8 19be ea6e 5fbd bdac b13d
00000060: 5420 6cbe 7c43 d1ba cb67 c83c a186 933d
00000070: a95f e3bd 46c0 bfbd 4695 503d 2541 23bd
00000080: 6c94 c73a 72f5 a23d 6ef7 fbbd 479c 993c
00000090: 7e3a 08bd 3ef7 0d3e fd6b 51bd bb61 b5bd
000000a0: 0946 c8bd 2067 a4bd a78c 9abc 4bec d63c
000000b0: 2954 14bd ce64 cc3c 8a3e dbbc 0b0b 693c
000000c0: b181 ab3c bd11 37bc b709 653d 1f1b 20be
000000d0: f1b4 803c f5b7 29bd 24cb c73d 8ed3 913d
000000e0: 6f95 193e e128 ec3c 8281 d53c 7a60 a2bd
000000f0: 31fe a5bc a228 12bd ac1f 12bd de6e cf3c
-0.118133426 -0.026325908 0.024643144 -0.055549666 0.09429861 -0.013073379 0.12571007 0.0031967491
0.06605976 -0.07876984 -0.026894802 -0.06637372 0.061601043 -0.008737942 0.13950004 0.12127423
0.06332788 -0.07257962 0.069308266 -0.03451972 -0.061581213 -0.1503024 -0.054549135 0.08675525
-0.23059207 -0.0015965546 0.024463555 0.07203413 -0.1110223 -0.09362845 0.05092361 -0.03985705
0.0015226728 0.07956971 -0.12303053 0.018751277 -0.033258907 0.13863847 -0.051128376 -0.08856531
-0.09778983 -0.08027482 -0.018865896 0.02623572 -0.036213074 0.024950411 -0.02676322 0.014223824
0.020935865 -0.011173663 0.055917468 -0.15635346 0.01571128 -0.0414352 0.09755543 0.07120429
0.1499841 0.028828086 0.02606273 -0.07928558 -0.02026281 -0.03568328 -0.035674736 0.02532142

hiden_layers.4.weight f4 [64, 64]
00000000: b0a2 2ebe fd19 2a3e 8dee 103f 2c6f f6be
00000010: 7423 6dbd da97 46bd 3ef5 91bd 50bd 443c
00000020: d317 8e3e 0c40 39bf 8b27 b83d 1790 dcbd
00000030: c74b 173e 9f2e 633e 2e51 6dbe 4f32 9d3e
00000040: 554d 113d 2641 eabd 50e8 b63e 1a27 853e
00000050: d000 16bf b6d6 a43e 6e72 87be 9fad e93e
00000060: fca1 063d d48c 65be c19c d63e beba d93e
00000070: ab1f 81bf 7978 c9be 2d68 233e f813 87bd
00000080: ea65 443c 92e0 8cbc 5f94 2b3e 8ceb f1be
00000090: 6bef 98bd 6265 44bd 7e72 09bd 8263 5fbe
000000a0: 47cd a8be 45e5 2f3d 2192 d8bc ef46 b03e
000000b0: 72ed 063d afa5 e93c 8dcf 8c3e 38ca cabc
000000c0: 1b31 91be 8c3d febe 6910 0dbe a460 30bc
000000d0: f644 3cbe c9e7 57bf 8f82 773e f246 5c3e
000000e0: ed8c a33c e208 04bd c924 25be 0571 4fbf
000000f0: 999c a33d 13e3 d73e 2a22 f1ba 49b9 5ebe
00000100: db5d b53d b018 8abd b39a dfbe 5074 033f
00000110: 2fdc 02bd dfad 373d 8d85 563d ecd2 ffbc
00000120: 42b9 e3bc cfa8 e7be c4c5 79be 84e8 fb3d
00000130: 751e ad3d cf64 4ebe 3d71 37be 87a0 373e
00000140: e634 0bbe 14a9 12be 289e 9b3e cd5d 1f3d
00000150: 635e 903e 5181 853d 4f3f 193e cd4b 07bd
00000160: 3068 38be 4888 20be 1281 53be 5188 393c
00000170: 273b cf3d b263 c83d 35b3 eabd c519 7bbe
00000180: db0a 0e3e 1a3c dabd 6421 393e fa4c 43be
00000190: 94b6 99be 75a9 b53d 10b2 52bd e76d 2d3d
000001a0: fc58 b53d 134a 68be 462b ef3d 0bfe b73e
000001b0: 051c 9ebd 7012 5a3e 39c6 07be 58f1 11be
000001c0: 8e13 04be edc8 683e 75ac 0f3e b2a2 38bb
000001d0: eb9f b63e e9a5 86be 8529 67bc f0ac 103d
000001e0: ab63 af3c df15 f3be 8e55 8d3e cefc a7bd
000001f0: 6d68 303e 54a5 833e c464 9d3e 9eb5 1c3e
00000200: 8b90 87be 0cc3 933d 286f 5abe 931d 14be
00000210: 64f6 f1bd 34ca 9cbd 4c48 7e3d b2e9 143e
00000220: 7250 a6bd 44e7 05be 3c66 0ebb a73a d8bc
00000230: 6a14 2a3d af5d 87be 2bfb 50be d5da 86bd
00000240: fa35 073d 0fbd 2b3d c249 98bc 290c 073e
00000250: 7aa0 26bd 8fe6 4fbe 25d9 82be ccd5 a03e
00000260: 76f9 93bd c402 67be d074 d33c c728 583e
00000270: 6294 75be 4fb6 fa3d 20fd 56be d6c7 bc3e
00000280: 1a97 28be 5a90 d93c 63c0 4abd f20d 86bd
00000290: 7459 8ebe 708b 0b3d d60c f5bc 41e1 843e
000002a0: 0ff7 413e cd5f 5d3e e6b1 a5be caff 053c
000002b0: a9e4 493e c550 b83d 026f b33e d705 1cbe
000002c0: f027 433e b783 e63c bd6c 6a3e cdca 11be
000002d0: 5c7f ccbe 3533 f93c 1212 22be 6c03 77be
000002e0: 677d 80be 908b 9cbd ddc4 113e 4968 823e
000002f0: d47d 86bd 2377 b43e 9d8a 34bd 626c f2bc
00000300: fd77 b2bd c529 c7be 4cc0 bbbd 74af b33e
00000310: 783a b73c 9398 ba3d e020 033d 1a85 bdbe
00000320: 1cb2 93bb 2f2f 683e f6e5 f23d 5790 f3bd
00000330: 2cf6 4cbc f5f6 103e 7df0 df3d 9cf5 c03d
00000340: e260 5c3e 5d8b 073e a504 9bbe 0ea3 5ebe
00000350: 4748 c6bd 1039 473d fc0f 7c3e 1779 21be
00000360: 523d ac3d 7fd0 83be fb70 2b3e a22e b6bd
00000370: ab4f e5bc f31d 7cbd 021b 143e da3b 5ebe
00000380: b526 15be 41b3 f23d 42f4 3bbd 9bc1 3cbe
00000390: f31e bb3c 8207 efbd e777 683d d383 033d
000003a0: f1f7 d6bd 81eb 19be 2903 76be f468 1b3e
000003b0: a2ca 443e 6113 39be b1fc c9bc 9e0b 40be
000003c0: 75b6 6abd 28cd 243e 429e c9bd 1b95 db3d
000003d0: 60a5 e5bc cbe9 6b3d 7180 603e 1144 123e
000003e0: 30bd c1be 8ec6 0dbe c475 463e 5004 b2bd
000003f0: f901 643d 4702 f3bd c349 4f3e 105b 4d3e
-0.17054248 0.16611476 0.56614 -0.48131692 -0.05789514 -0.04848466 -0.07126854 0.012008026
0.2775255 -0.7236335 0.08991917 -0.107696705 0.14775 0.22185753 -0.23175499 0.30702445
0.03547414 -0.11438207 0.35724115 0.26006395 -0.5859499 0.3219506 -0.2645449 0.45640275
0.032869324 -0.22417003 0.4191647 0.42525285 -1.0087789 -0.39349726 0.15957709 -0.065956056
0.011987189 -0.017196927 0.16755818 -0.4725002 -0.0746754 -0.04794825 -0.033556454 -0.21815303
-0.32969114 0.042943258 -0.026436867 0.34429118 0.03294129 0.028521387 0.275021 -0.024754629
-0.28357777 -0.49656332 -0.13775791 -0.010765228 -0.18385682 -0.8433805 0.24170898 0.21511438
0.01996466 -0.032235034 -0.16127314 -0.8103183 0.07988853 0.4216543 -0.0018397023 -0.21750368
0.08855792 -0.0674299 -0.43672714 0.51349354 -0.031948265 0.04484355 0.052373458 -0.031228505
-0.027798299 -0.45245978 -0.24391848 0.12300208 0.08453075 -0.20155643 -0.1791429 0.1793233
-0.13594398 -0.1432231 0.303941 0.038907815 0.2819701 0.06518806 0.14965557 -0.033031274
-0.18008494 -0.15676987 -0.20654705 0.011324004 0.10118704 0.0978464 -0.11459962 -0.24521549
0.13871329 -0.10655995 0.18079144 -0.19072333 -0.3002211 0.08870212 -0.051439345 0.04234114
0.08854863 -0.22684507 0.11678176 0.35936007 -0.07720188 0.21296096 -0.1325921 -0.14252222
-0.12898085 0.22732897 0.14030631 -0.0028173146 0.35668883 -0.26298454 -0.01410902 0.035321176
0.02140983 -0.47477624 0.27604336 -0.082025155 0.17227335 0.25712073 0.3074094 0.15303656
-0.26477465 0.072149366 -0.21331465 -0.14464407 -0.118145734 -0.07655755 0.062080666 0.14542273
-0.081208125 -0.13076502 -0.0021728417 -0.026395155 0.041523375 -0.26438662 -0.20408313 -0.06584708
0.03301046 0.041928347 -0.018589858 0.13188232 -0.040680386 -0.20302795 -0.25556293 0.31413114
-0.07225315 -0.22559649 0.025812536 0.21109305 -0.23982385 0.12241804 -0.20994997 0.36871213
-0.1646389 0.02655809 -0.04949988 -0.065456286 -0.27802622 0.034068525 -0.029913347 0.25953105
0.18941902 0.21618576 -0.32362288 0.008178661 0.19716133 0.089997806 0.3504563 -0.15236603
0.19058204 0.028138978 0.22893043 -0.14237519 -0.39940917 0.030419925 -0.15827206 -0.24122399
-0.25095674 -0.07643807 0.14235254 0.25470188 -0.065669686 0.35247144 -0.044077504 -0.029592697
-0.08714292 -0.38899055 -0.09167537 0.35094798 0.022366747 0.091111325 0.032013774 -0.3701561
-0.0045073163 0.22674249 0.11860268 -0.11892765 -0.012509864 0.14156707 0.109345414 0.09421846
0.21521333 0.13236757 -0.3027698 -0.21741888 -0.096817546 0.048638403 0.24615473 -0.15768848
0.084101334 -0.25745007 0.16742317 -0.08895613 -0.02799209 -0.061552 0.14463428 -0.21702519
-0.14565547 0.11850596 -0.04588724 -0.1843323 0.022841906 -0.11671354 0.056754973 0.03210814
-0.1049651 -0.15031244 -0.24024643 0.15176755 0.19217923 -0.18073799 -0.024656625 -0.18754432
-0.05730291 0.16093886 -0.098446384 0.10721799 -0.028032959 0.05759601 0.21923997 0.14283778
-0.3783965 -0.13845274 0.19380862 -0.08692229 0.055665944 -0.11865669 0.20242982 0.20054269

hiden_layers.4.bias f4 [64]
00000000: 08e5 d13e 07e4 913d e6e1 ac3c b9aa 21bd
00000010: 20ec 3abd f42e b8bc 40e9 853b d39d b73c
00000020: fff9 27bc 502e 413d 82e2 d13d 4ebb 883d
00000030: 026f 9cbd a5f4 a7bd 9dde e83d b1e5 a83d
00000040: 0156 013d 0a90 04bc 8ce0 b83c 19d9 96be
00000050: e8de ce3d f97a 14be b256 9d3d cd01 e33d
00000060: 3cf2 83bd 79be efbc 3218 1ebd 98db c83d
00000070: 28d9 403d 3a1b 90bc db22 ce3c e532 893d
00000080: afe7 283d 9571 3dbc 1fb1 44bd 2d39 9a3d
00000090: 80e0 2c3c 03ce 243d ef22 aebc 357a 303e
000000a0: 5a1c 823e 7c85 ec3d 5d6c 093e e09d 02be
000000b0: 39c6 033d 2346 133d 7dd4 443e c402 41bd
000000c0: 122f 00bd aaeb 9a3d ad66 01be dde0 db3d
000000d0: 38c7 09be 6ec4 3b3d b500 dabd a435 ab3c
000000e0: 8542 f33d 53db ad3c d983 40bd fabb 31bd
000000f0: ff71 7b3d f62f 27bd 1ef4 ccbd 1ec1 efbd
0.4099505 0.07123571 0.02110381 -0.039469454 -0.045635343 -0.022483326 0.0040866435 0.022414124
-0.010252475 0.047163308 0.10248281 0.066763505 -0.076383606 -0.08200959 0.11370585 0.08246935
0.03157616 -0.008090982 0.02256801 -0.29462507 0.1010111 -0.14500035 0.076825514 0.11084328
-0.06442687 -0.02926563 -0.038597293 0.09807509 0.047082096 -0.017591108 0.025163105 0.066991605
0.041236576 -0.011562725 -0.04802048 0.07530437 0.010551572 0.04023553 -0.021256892 0.17234118
0.25412256 0.115488976 0.13420244 -0.12755537 0.03217146 0.03595556 0.19221683 -0.047121778
-0.03129489 0.075644806 -0.12636824 0.10736249 -0.13454902 0.045841627 -0.10644666 0.020899601
0.11877922 0.021222746 -0.04700074 -0.04339216 0.061388012 -0.040817223 -0.10007499 -0.11706756
