results/1_first_try/epoch300/model_weights.pth (torch, 484214 bytes, 88 tensors)

init_layer.0.weight f4 [64, 3]
0	0xbe849124	-0.25891984
1	0xbe84d018	-0.25940013
2	0x3ea81685	0.3282968
3	0x3ec85714	0.39128935
4	0xbc8a036e	-0.016847339
5	0x3e693e3f	0.22777651
6	0xbdcf7cf1	-0.101312526
7	0xbdb32e93	-0.08749118
8	0xbe973238	-0.295305
9	0x3e8212f3	0.25405082
10	0x3c536b85	0.012904053
11	0x3dd31e70	0.1030854
12	0xbe0a36f2	-0.13497522
13	0x3ea50821	0.32232764
14	0x3ec8080b	0.39068636
15	0xbe41c11d	-0.18921323
16	0xbeace8fc	-0.33771503
17	0x3e8d24e5	0.2756721
18	0x3ec43dd0	0.3832841
19	0x3b43d3f2	0.0029880968
20	0x3ed28908	0.41120172
21	0x3ed263e1	0.41091827
22	0x3d8cbd66	0.068720624
23	0x3f00a324	0.5024893
24	0x3e76542c	0.24055547
25	0xbed70bd7	-0.4200122
26	0x3df22bfe	0.11824797
27	0xbdc14572	-0.09437074
28	0xbd1b3fd5	-0.03790267
29	0x3ed36408	0.41287255
30	0xbee606d7	-0.44927093
31	0xbd978d37	-0.073999815
32	0x3d0dfae8	0.03466311
33	0x3da89235	0.08231012
34	0x3cc5bdc9	0.024138348
35	0xbeeb7d95	-0.4599425
36	0xbdecfe43	-0.11571934
37	0x3d08c743	0.033393156
38	0x3be08cf4	0.0068527404
39	0xbdceaa8b	-0.10091122
40	0x3d577bc7	0.052608278
41	0x3ef1a045	0.47192588
42	0x3e243159	0.1603445
43	0xbef68f82	-0.48156363
44	0xbdb2c713	-0.08729377
45	0x3e25f2e1	0.16205932
46	0xbe02e5f2	-0.1278303
47	0xbed19c9e	-0.40939802
48	0x3c8f9d20	0.017530978
49	0xbc413cdd	-0.011794296
50	0x3ecdfcde	0.40231985
51	0x3e16e6da	0.147365
52	0x3e2399ab	0.15976588
53	0xbe9b3367	-0.30312654
54	0x3dd109ad	0.10206924
55	0x3d69afc5	0.057052393
56	0xbef48bf0	-0.47763014
57	0xbedcca90	-0.43123293
58	0x3db41e6c	0.08794865
59	0xbea1b8d7	-0.31586334
60	0x3dc618fa	0.09672733
61	0xbe044f80	-0.12920952
62	0xbe8c8791	-0.2744718
63	0x3e52b40c	0.20576495
64	0xbd2e55e7	-0.04256239
65	0xbe051abd	-0.12998481
66	0x3dbab861	0.09117199
67	0xbdbbd93e	-0.09172295
68	0xbede0679	-0.43364313
69	0xbdbbf0d6	-0.09176795
70	0x3e11278b	0.1417524
71	0xbdf23a10	-0.11827481
72	0xbe17152f	-0.14754175
73	0xbd2540cb	-0.040344995
74	0x3edab221	0.42714027
75	0xbccd8c1f	-0.025091229
76	0x3df4d4a8	0.119546235
77	0xbe8de159	-0.2771099
78	0x3caacf77	0.02085088
79	0x3d112235	0.035433013
80	0x3f1a01a5	0.6015876
81	0xbe56d24c	-0.2097866
82	0xbe9c12c0	-0.30483055
83	0x3e81c13c	0.2534274
84	0x3dc56247	0.096378855
85	0x3ca882a6	0.02057011
86	0xbeeda805	-0.4641725
87	0x3cc7fad0	0.024411589
88	0xbe7f7658	-0.24947488
89	0x3e8b5868	0.27215886
90	0xbebc6fff	-0.36804196
91	0xbdefa458	-0.11701268
92	0xbe45acf9	-0.19304265
93	0xbe268ddc	-0.16265053
94	0x3cb93acf	0.02261105
95	0x3f14181c	0.5784929
96	0xbdbc2c1b	-0.091881
97	0x3cdec610	0.027194053
98	0x3efff531	0.49991754
99	0xbe996586	-0.2996027
100	0x3e6e2090	0.23254609
101	0xbded235f	-0.11579012
102	0x3d694247	0.056947973
103	0xbc402fd0	-0.011730149
104	0xbe96a501	-0.29422763
105	0xbe148a09	-0.14505781
106	0xbddbe9e1	-0.10737968
107	0xbe948a7b	-0.29011902
108	0x3da79a66	0.08183746
109	0xbc8f1026	-0.017463755
110	0xbf075cf4	-0.5287621
111	0xbe869d03	-0.26291665
112	0xbd8d7a38	-0.06908077
113	0xbd6c2002	-0.057647713
114	0x3eb0efc8	0.3455794
115	0xbd841ca5	-0.06450776
116	0x3ea00c72	0.31259495
117	0xbe9ccd1b	-0.30625233
118	0x3eb79c56	0.35861462
119	0x3ebe80f4	0.37207758
120	0x3e436ce6	0.1908451
121	0xbd47f1e8	-0.048814684
122	0xbefadc2b	-0.489961
123	0x3d6b2263	0.05740584
124	0xbc77db6b	-0.015127997
125	0xbef691ec	-0.48158205
126	0xbcd89ff4	-0.02644346
127	0xbd7f97a6	-0.062400483
128	0x3ef3681f	0.47540376
129	0xbe15b549	-0.14619936
130	0xbc950027	-0.01818855
131	0x3f216610	0.6304636
132	0x3da4911b	0.08035489
133	0xbdcf6275	-0.10126201
134	0xbec0a417	-0.3762519
135	0xbe967c8c	-0.29391897
136	0xbd13f1e1	-0.036119346
137	0x3ec260cb	0.37964472
138	0x3d0678a9	0.032829914
139	0xbdabe4c2	-0.083932415
140	0x3d98093a	0.07423635
141	0x3e115dbd	0.14195915
142	0x3e699bf7	0.22813402
143	0x3d24a75b	0.040198665
144	0x3eab85ef	0.3350062
145	0x3f189fbe	0.5961875
146	0x3c79b768	0.015241481
147	0x3e34a302	0.17640308
148	0xbe6ef6c3	-0.2333632
149	0x3eac8e45	0.33702293
150	0x3db2cf2f	0.087309234
151	0xbe37de8c	-0.17955989
152	0xbebd49f8	-0.36970496
153	0xbeccb0a9	-0.3997853
154	0xbe4661a5	-0.19373186
155	0xbe26e36b	-0.1629769
156	0x3eda2406	0.4260561
157	0xbed80321	-0.42189887
158	0x3e3f2008	0.18664563
159	0xbdfef543	-0.12449124
160	0xbe39468b	-0.18093316
161	0x3e287dd5	0.16454251
162	0x3d93db47	0.07219558
163	0xbce39d9d	-0.027785117
164	0xbef9f337	-0.4881837
165	0x3ea95c42	0.330782
166	0xbd1f6e49	-0.038923535
167	0x3eba56f3	0.36394462
168	0x3e51a32b	0.204724
169	0x3ce7ce48	0.028296605
170	0x3f09305a	0.53589404
171	0x3db68410	0.08911908
172	0xbe08354f	-0.13301586
173	0x3dd53485	0.10410408
174	0x3ea3b7f2	0.31976277
175	0x3ea31eb6	0.31859368
176	0x3e4094fa	0.1880683
177	0x3e0945d4	0.13405544
178	0x3cb352ca	0.021890063
179	0xbeabd17a	-0.33558255
180	0xbe93e8ce	-0.28888553
181	0xbd22700e	-0.039657645
182	0xbe865e6b	-0.2624391
183	0xbe87b3a3	-0.2650424
184	0x3d5501d5	0.0520037
185	0xbe0ef59d	-0.13960882
186	0x3e8b3ab4	0.27193224
187	0xbd7cfb5d	-0.061763156
188	0xbc0be77b	-0.008539076
189	0x3f0eec44	0.5582926
190	0xbcea7786	-0.028621446
191	0x3e967b9a	0.29391176

init_layer.0.bias f4 [64]
0	0x3ed1e35d	0.40993777
1	0xbc5c9daa	-0.013465324
2	0x3d0fefed	0.03514092
3	0xbe972105	-0.2951738
4	0x3d2309d6	0.039804302
5	0xbd0fe4bf	-0.03513026
6	0x3e1ff2a6	0.15619907
7	0x3e5551fe	0.20832059
8	0xbe4ad9bb	-0.1980962
9	0xbe8f4c33	-0.27987823
10	0x3ecb2bde	0.39681906
11	0x3ea964d8	0.3308475
12	0x3e90dc15	0.2829291
13	0x3eaa7dc8	0.33299088
14	0xbd274bdd	-0.040843833
15	0x3e61613f	0.22009753
16	0x3e813b4a	0.25240546
17	0x3e2ca944	0.16861445
18	0x3ebcd632	0.36882168
19	0x39f4b013	0.00046670492
20	0x3e5b4493	0.21412878
21	0xbb7c7c11	-0.0038526098
22	0x3e98b4b7	0.29825374
23	0x3e123ce2	0.14281037
24	0x3e2c6ba3	0.16837935
25	0xbe0cafa0	-0.1373887
26	0x3dd8a376	0.10578053
27	0xbce1fb69	-0.027585702
28	0xbed1fb51	-0.41012052
29	0x3e058fe8	0.13043177
30	0xbcc4d297	-0.024026198
31	0xbe32dd4d	-0.17467232
32	0xbe0532de	-0.13007686
33	0x3e7273f9	0.23677053
34	0x3e839a70	0.25703764
35	0x3ebd7700	0.37004852
36	0xbe84e8eb	-0.25958952
37	0xbdf0a236	-0.11749689
38	0xbe6f5c00	-0.23374939
39	0xbdfd3ace	-0.12364732
40	0xbe9d453d	-0.30716887
41	0xbe99b2cf	-0.30019233
42	0xbea4c435	-0.32180944
43	0xbdaefcf4	-0.08544341
44	0x3e0eac00	0.139328
45	0x3cb8e459	0.022569822
46	0xbea094fc	-0.31363666
47	0xbd9c22b7	-0.07623809
48	0xbe109ea5	-0.14123018
49	0x3e505db6	0.20348248
50	0xbe19d3b8	-0.1502217
51	0xbe2ec3ab	-0.17066829
52	0x3cd13cbb	0.025541654
53	0xbe38d6cc	-0.18050689
54	0x3e0057f9	0.12533559
55	0x3e4d2187	0.20032321
56	0x3e80c986	0.2515375
57	0xbe1e00db	-0.15430014
58	0x3d2c0834	0.04200001
59	0xbe68b2bf	-0.22724436
60	0x3ce95011	0.028480561
61	0xbe00e093	-0.12585668
62	0x3db9a6a9	0.09064991
63	0x3d829cca	0.063775614

hiden_layers.0.weight f4 [64, 64]
0	0xbeadd8a5	-0.3395435
1	0x3df2c8ba	0.11854692
2	0x3da2200f	0.07916271
3	0x3eaa70c3	0.33289155
4	0xbe449e67	-0.1920105
5	0x3bec7775	0.007216389
6	0x3e1644d8	0.146747
7	0xbe08fb6e	-0.13377163
8	0x3e2a16ea	0.16610304
9	0x3d4f9f3b	0.050688963
10	0xbe4798d4	-0.19491893
11	0x3d944ed1	0.072415955
12	0xbddfd38f	-0.109290235
13	0x3da45cfd	0.080255486
14	0x3e076e89	0.1322576
15	0xbe9006e5	-0.2813026
16	0xbd73c01c	-0.05950938
17	0xbe0ef3ec	-0.13960236
18	0xbe276255	-0.16346104
19	0xbe8099a7	-0.25117227
20	0xbe181e3f	-0.14855288
21	0x3e15e14e	0.14636728
22	0xbe00df9f	-0.12585305
23	0xbee44092	-0.44580513
24	0x3d922290	0.071354985
25	0x3d935b50	0.07195151
26	0xbe139c8b	-0.14415185
27	0xbe1d9833	-0.1539009
28	0x3c9749fc	0.018467896
29	0xbe014dac	-0.12627286
30	0xbe939ff0	-0.2883296
31	0x3d4a8c64	0.049450293
32	0x3c6aabf5	0.014323224
33	0xbe923f62	-0.28563982
34	0x3d2803ca	0.04101924
35	0xbe017df0	-0.12645698
36	0x3d8af8ee	0.06785761
37	0xbd3a5f4d	-0.045501042
38	0x3ee419b2	0.44550854
39	0x3e4ea504	0.20180136
40	0x3e444379	0.19166364
41	0x3bbce5e4	0.00576471
42	0x3e8844a1	0.2661486
43	0xbd259f5c	-0.04043518
44	0xbdfffb56	-0.124991104
45	0xbd91ac39	-0.07112927
46	0x3e2cc0ec	0.16870469
47	0xbe1df760	-0.15426397
48	0x3ea2b5af	0.3177924
49	0xbe37ec24	-0.17961174
50	0xbd68540f	-0.05672079
51	0x3b29a6a1	0.0025886672
52	0x3da07e14	0.078365475
53	0x3d0ce157	0.03439459
54	0x3dd7ce99	0.10537452
55	0x3e6ffcee	0.23436329
56	0xbe3f2361	-0.1866584
57	0x3e2f7a53	0.17136507
58	0xbde4e719	-0.11176891
59	0x3e5d63fe	0.21620175
60	0xbd45d442	-0.048298128
61	0xbe2f3809	-0.1711122
62	0x3d327b50	0.04357463
63	0xbd049549	-0.032368932
64	0xbe663bc2	-0.22483733
65	0xbf1628bb	-0.586559
66	0x3dc96b3f	0.09834909
67	0xbe99ead8	-0.30061984
68	0xbf254141	-0.64552695
69	0xbf252ff8	-0.6452632
70	0xbd3e4c96	-0.046459757
71	0xbeaf274f	-0.34209678
72	0xbe1419a5	-0.14462908
73	0xbfa377a4	-1.2770886
74	0x3f1c5949	0.6107374
75	0x3f80162e	1.0006769
76	0xbe090132	-0.13379362
77	0xbeb5ae72	-0.35484654
78	0x3ee1a3b0	0.44070196
79	0x3f72135c	0.9456079
80	0xbebc88fb	-0.36823258
81	0x3f297de4	0.6620772
82	0x3faacc41	1.3343583
83	0x3ebe2e13	0.37144527
84	0x3f2af319	0.6677719
85	0xbdc49210	-0.09598172
86	0x3f81b66d	1.0133797
87	0x3ee1ad70	0.44077635
88	0xbf1726bd	-0.59043485
89	0x3e9c1b86	0.3048975
90	0xbe53ab80	-0.20670891
91	0xbf00b9b1	-0.5028334
92	0x3ef0bbab	0.4701818
93	0xbd230c36	-0.039806567
94	0x3dfff579	0.12497992
95	0xbf9649c6	-1.1741264
96	0xbf2d5f78	-0.677238
97	0x3e9c2956	0.30500287
98	0x3fc16342	1.5108416
99	0x3f2b4869	0.66907364
100	0x3f290509	0.6602331
101	0x3cb7566c	0.022380076
102	0xbf2b8978	-0.67006636
103	0xbef8b092	-0.48572212
104	0x3eb0c24b	0.34523234
105	0x3ec95e52	0.39329773
106	0xbf883315	-1.0640589
107	0xbf68cef7	-0.90940803
108	0x3f5ad659	0.8548332
109	0xbeb6d83d	-0.35711852
110	0xbe504433	-0.20338516
111	0xbe9700f5	-0.29492918
112	0xbe64ff2a	-0.22362962
113	0xbeb35232	-0.35023648
114	0x3e048482	0.12941173
115	0xbbbf5b89	-0.0058397693
116	0xbe9f576f	-0.31121394
117	0xbf23b976	-0.63954866
118	0x3f7522e9	0.95756394
119	0xbe05eead	-0.13079329
120	0xbefd3458	-0.49453998
121	0xbea5704a	-0.32312232
122	0xbe98d47c	-0.29849613
123	0x3eab2160	0.334239
124	0x3f074b2e	0.5284909
125	0x3ec51aba	0.38496953
126	0x3e1e4bd9	0.15458621
127	0xbecb9338	-0.39760756
128	0x3dcab26b	0.09897312
129	0xbe07b3b7	-0.1325215
130	0x3e623646	0.22091016
131	0xbd842ebf	-0.064542286
132	0xbe8b1204	-0.27162182
133	0x3d5f3da9	0.054502163
134	0xbdc9a48b	-0.09845837
135	0xbe89c5e5	-0.26908794
136	0x3dfb7795	0.12278668
137	0xbcb3c165	-0.021942804
138	0xbc967e36	-0.018370729
139	0x3dd7d760	0.105391264
140	0x3e105b63	0.14097361
141	0xbe7735f2	-0.24141672
142	0x3eda7acd	0.42671815
143	0xbdf44f56	-0.11929195
144	0xbe183a96	-0.14866099
145	0xbe85a306	-0.2610094
146	0x3d1a2e31	0.037641708
147	0xbcb86be0	-0.022512376
148	0x3baa9087	0.0052052173
149	0xbe39f31f	-0.1815915
150	0xbe1907d6	-0.14944395
151	0xbd621f1d	-0.055205453
152	0xbc5c8f3b	-0.013461883
153	0xbe0afa66	-0.13572082
154	0xbd920939	-0.07130665
155	0x3e93c7e8	0.28863454
156	0x3ac854dc	0.0015284079
157	0xbe1345e6	-0.14382133
158	0x3eb33596	0.3500182
159	0x3e6d4c7e	0.2317371
160	0xbe3b3ecc	-0.18285674
161	0xbe0c94f6	-0.13728699
162	0x3e4b141e	0.19831893
163	0x3e6d3fe2	0.231689
164	0xbd21b594	-0.039479807
165	0x3c2cb8fc	0.010542151
166	0xbda6ade3	-0.08138635
167	0x3b7bc51c	0.0038417047
168	0xbe3e3b9c	-0.18577427
169	0xbb6da085	-0.0036259007
170	0x3e46655c	0.19374603
171	0x3e5155f6	0.20442948
172	0x3e55dcf5	0.2088507
173	0x3ddd56f7	0.10807603
174	0xbc12c5ac	-0.008958261
175	0xbdbc2e35	-0.09188501
176	0xbdf21dc2	-0.11822082
177	0x3d9ffb21	0.07811571
178	0xbc699fe5	-0.014259313
179	0x3df58453	0.119881295
180	0x3e09b854	0.13449222
181	0x3d9c262b	0.076244675
182	0xbe07bc6d	-0.13255472
183	0xbc43c087	-0.011947758
184	0xbe8d4293	-0.27589855
185	0x3e29ee2f	0.16594766
186	0xbea15d37	-0.3151643
187	0xbe0f8e39	-0.14019097
188	0x3e8c0f55	0.27355447
189	0xbdf0baa6	-0.1175435
190	0xbe5e7d0b	-0.21727388
191	0x3d17fc71	0.03710598
192	0xbee16661	-0.4402342
193	0xbe86905b	-0.2628201
194	0x3f11e085	0.56983215
195	0xbcc8efd2	-0.024528418
196	0xbef56524	-0.47928727
197	0xbe5b8723	-0.2143827
198	0xbebfeb5d	-0.37484255
199	0xbf155faf	-0.58349127
200	0xbe067e10	-0.13134027
201	0xbeeb8cfd	-0.46006003
202	0xbe2f37b2	-0.1711109
203	0x3eb1dd90	0.3473935
204	0xbe206e75	-0.15667136
205	0xbf7db559	-0.9910484
206	0x3e971cd3	0.2951418
207	0x3e377355	0.1791509
208	0xbf30f269	-0.6911989
209	0x3ed389bd	0.41316023
210	0x3eec23e7	0.4612114
211	0x3d5d8f1f	0.05409157
212	0x3f015c30	0.5053129
213	0x3de45587	0.111491255
214	0x3e092cb5	0.1339596
215	0x3d195ce8	0.037442118
216	0xbf2061c9	-0.6264921
217	0x3f200e83	0.62522143
218	0xbfacf07a	-1.3510888
219	0xbeae221f	-0.34010407
220	0x3f2a9123	0.6662771
221	0xbf4a3e79	-0.79001576
222	0x3d411361	0.04713762
223	0xbed3f28e	-0.41395992
224	0xbf0f0416	-0.5586561
225	0x3acbf266	0.0015559911
226	0x3e0a9a1a	0.13535348
227	0x3e7079fd	0.23484035
228	0x3f7ac282	0.97953045
229	0xbd7689fd	-0.06019019
230	0xbc97720f	-0.018487005
231	0xbe8b5726	-0.27214926
232	0x3f10c5f4	0.5655205
233	0x3f5b78b6	0.85731065
234	0xbe5f4871	-0.21804978
235	0xbed27f57	-0.41112778
236	0x3eda338a	0.42617446
237	0xbe7c50ec	-0.24640244
238	0xbcc52776	-0.024066668
239	0x39141274	0.00014121254
240	0x3e5ff441	0.21870519
241	0xbf1db5c3	-0.6160547
242	0x3f854175	1.0410601
243	0x3e453eca	0.19262233
244	0xbe54fc97	-0.2079948
245	0xbd138ee0	-0.036024928
246	0x3f20db6d	0.6283482
247	0xbe911d28	-0.28342557
248	0xbf424214	-0.7588208
249	0xbe6b1633	-0.22957687
250	0xbe9553cc	-0.29165494
251	0x3f57a00d	0.84228593
252	0x3e1e0e43	0.15435128
253	0x3d6e2f48	0.05815056
254	0xbd42a72e	-0.047522716
255	0xbe964ddb	-0.29356274

hiden_layers.0.bias f4 [64]
0	0xbe094847	-0.13406478
1	0x3d8bcdc7	0.06826358
2	0xbd55e81a	-0.052223302
3	0xbd546dc5	-0.051862497
4	0x3d546a20	0.05185902
5	0x3e121b30	0.14268184
6	0x3d875a39	0.066090055
7	0xbda78249	-0.08179147
8	0xbc93ccc9	-0.018041985
9	0x3a14161c	0.00056490465
10	0xbdb77a65	-0.08958892
11	0x3e3da312	0.18519238
12	0x3df7f0b4	0.12106457
13	0xbbfd04b1	-0.0077215065
14	0xbb38d112	-0.0028200787
15	0x3dd76e8e	0.105191335
16	0xbe8ed189	-0.27894238
17	0xbe00343a	-0.12519923
18	0x3ccc0eb7	0.02490936
19	0xbe905848	-0.28192353
20	0xbe9a4d8e	-0.30137295
21	0x3e392bfb	0.18083183
22	0x3cb501d2	0.022095595
23	0xbd1f11f3	-0.038835477
24	0xbd1f44f7	-0.03888413
25	0x3d4e171a	0.050315
26	0xbe7fe0d9	-0.24988116
27	0xbe63b4dc	-0.22236961
28	0x3e6bfb91	0.23045184
29	0xbd7f757e	-0.06236791
30	0x3e1542ad	0.14576216
31	0x3d7bd955	0.06148656
32	0x3cff32fa	0.031152237
33	0xbd85ba58	-0.06529683
34	0xbe421444	-0.18953043
35	0xbe230cda	-0.15922871
36	0xbdb45f27	-0.08807211
37	0x3d8623c5	0.06549791
38	0xbd83cad7	-0.06435173
39	0xbdfb07b2	-0.12257327
40	0xbe9f1119	-0.31067732
41	0xbda36621	-0.07978464
42	0x3de4ade6	0.11165981
43	0xbd865e7c	-0.0656099
44	0x3e179922	0.1480451
45	0x3e15d504	0.1463204
46	0xbd08af9f	-0.03337061
47	0xbe518445	-0.20460613
48	0x3e3eca37	0.18631826
49	0xbda56eb8	-0.080777586
50	0x3e537345	0.2064944
51	0x3e5b139d	0.213942
52	0xbc19c602	-0.009385588
53	0xbdad3c91	-0.08458818
54	0x3ddc1148	0.10745484
55	0x3e8aa6c3	0.27080354
56	0xbdd49293	-0.10379519
57	0xbbe8f57d	-0.0071093426
58	0xbe82a08e	-0.25513119
59	0xbe231228	-0.15924895
60	0xbef5ee16	-0.48033208
61	0x3dc0135c	0.093786925
62	0xbdbeb84a	-0.09312494
63	0xbaae2d6c	-0.0013288683

hiden_layers.1.weight f4 [64, 64]
0	0xbd841732	-0.06449737
1	0x3e74c4f0	0.2390325
2	0xbe897561	-0.26847365
3	0x3debf8d4	0.115220696
4	0xbea09ab5	-0.31368032
5	0x3e5cf60e	0.21578237
6	0xbdf4b10a	-0.1194783
7	0xbdd8ab4e	-0.10579549
8	0x3d93141e	0.071815714
9	0x3ddfeb8a	0.109335974
10	0xbcf4f2f4	-0.029901005
11	0xbe513aba	-0.20432559
12	0x3d4c93ef	0.049945768
13	0x3dd1d2f5	0.10245315
14	0x3d002f7c	0.031295285
15	0xbb4c843c	-0.0031206748
16	0x3cd0c976	0.025486689
17	0x3e8a4b4d	0.27010575
18	0xbca9fd5e	-0.020750698
19	0x3dd2ac22	0.10286738
20	0x3e6078af	0.21921037
21	0xbdf60436	-0.12012522
22	0x3d571f3b	0.052520018
23	0xbd93d10b	-0.07217606
24	0xbdcac202	-0.09900285
25	0xbde8647f	-0.11347293
26	0xbda1ad83	-0.07894423
27	0x3e5de68c	0.21669978
28	0xbca70b04	-0.020390995
29	0xbdd84a3a	-0.105610326
30	0xbe2a7357	-0.16645561
31	0x3daf85ac	0.08570418
32	0xbe7199d4	-0.23593837
33	0x3e78baad	0.24289961
34	0xbe24b749	-0.16085543
35	0xbe9dedc9	-0.30845478
36	0xbccf6bf5	-0.025320033
37	0xbcae1b68	-0.021253303
38	0xbc1f2680	-0.009713769
39	0x3db8c3a4	0.090216905
40	0x3d9009cf	0.07033121
41	0x3e0cbf84	0.13744932
42	0xbe58ca00	-0.21170807
43	0x3dfd4dff	0.12368392
44	0x3e5e7a70	0.21726394
45	0x3e03f04b	0.12884633
46	0x3da48dad	0.08034835
47	0xbe80a71c	-0.25127494
48	0x3d0d7f8c	0.034545466
49	0xbdf33b21	-0.11876512
50	0xbc9848bc	-0.01858937
51	0x3df101b4	0.11767903
52	0xbdacbd4a	-0.084345415
53	0xbd4598ca	-0.048241414
54	0x3b3799fa	0.0028015361
55	0xbe5b5c02	-0.21421817
56	0x3e80aeeb	0.25133452
57	0xbdfdb027	-0.12387114
58	0xbe425de8	-0.18981135
59	0x3ddaa6d4	0.10676351
60	0x3c264135	0.0101473825
61	0x3d93c5d4	0.07215467
62	0x3daa1949	0.08305604
63	0xbdd8b94f	-0.1058222
64	0x3d614b51	0.055003468
65	0x3e1bc1e7	0.15210687
66	0xbe2e01de	-0.169929
67	0x3da898ed	0.08232293
68	0xbe0600a9	-0.1308619
69	0xbd7e3130	-0.062058628
70	0xbe0ae5cc	-0.13564223
71	0xbda599ad	-0.08085952
72	0x3dec3a69	0.11534578
73	0xbe315f64	-0.17321545
74	0x3da4d3b0	0.08048189
75	0x3de118c6	0.10991053
76	0x3d7bf96a	0.061517157
77	0xbc1ead61	-0.009684891
78	0x3d8fbebb	0.07018801
79	0xbd06c663	-0.03290404
80	0x3da50e5b	0.08059379
81	0xbdb53247	-0.0884748
82	0x3de0ca47	0.10976081
83	0xbdf8104b	-0.12112483
84	0x3dbbe253	0.09174027
85	0x3e26a025	0.16272028
86	0xbe2f32b0	-0.1710918
87	0x3c955f53	0.01823393
88	0x3dbe3f45	0.092894115
89	0x3e3e1494	0.18562537
90	0x3d98197f	0.07426738
91	0xbbf8e78a	-0.007595961
92	0xbcc109d0	-0.02356425
93	0xbcbc5d3c	-0.022993676
94	0xbdf2d248	-0.11856514
95	0x3dfd44e7	0.12366658
96	0x3d3bd2e2	0.04585541
97	0x3e37efb3	0.17962532
98	0xbe7c4e83	-0.24639325
99	0xbe9974c8	-0.2997191
100	0xbe68c214	-0.22730285
101	0xbb34b7df	-0.0027575416
102	0xbe5189bc	-0.20462698
103	0xbe0b1912	-0.13583782
104	0xbebd5c1c	-0.36984336
105	0xbe344afe	-0.17606732
106	0x3d82b049	0.0638128
107	0xbe32da24	-0.17466027
108	0x3dd30242	0.10303165
109	0x3e015260	0.1262908
110	0xbd2889c3	-0.041147005
111	0xbe6ba297	-0.23011242
112	0x3e581e24	0.21105248
113	0x3ddf73b5	0.10910741
114	0xbe6ef680	-0.2333622
115	0xbe1b8b13	-0.15189771
116	0x3cc64b7d	0.024205917
117	0x3d948ed9	0.072538085
118	0x3e1e6d36	0.15471348
119	0x3d097d7e	0.033566944
120	0xbc91048d	-0.017702365
121	0x3d05472c	0.032538578
122	0xbd1ec95f	-0.03876626
123	0x3dc2652d	0.09491954
124	0x3df0423d	0.11731384
125	0x3cdba953	0.026814139
126	0x3d66d6f5	0.056357343
127	0x3e48be77	0.19603907
128	0xbce4bf1c	-0.02792316
129	0x3e30c0b6	0.17261013
130	0x3cb3953b	0.021921745
131	0x3dbd8416	0.09253709
132	0x3dde1156	0.1084315
133	0x3ea3871c	0.31939018
134	0xbe355c42	-0.17710975
135	0x3e48d956	0.19614157
136	0x3e7a1ea0	0.24425745
137	0xbd3d57ea	-0.04622642
138	0xbea78452	-0.3271814
139	0xbd4c2aff	-0.04984569
140	0xbce4b6be	-0.02791917
141	0xbd8a91f6	-0.06766121
142	0x3e4bdffb	0.1990966
143	0x3d095e60	0.03353727
144	0xbe4a3a55	-0.19748814
145	0xbdffc96e	-0.124895915
146	0x3d89ca96	0.06728093
147	0xbe53cb21	-0.20682956
148	0x3d5d8af6	0.0540876
149	0xbe645109	-0.22296537
150	0xbe6a08f5	-0.2285498
151	0xbe0824d4	-0.13295299
152	0xbc0ff703	-0.0087869195
153	0x3d8bd264	0.06827238
154	0xbe602117	-0.21887623
155	0xbd50e8df	-0.051003333
156	0x3e10d164	0.14142376
157	0x3d930cc6	0.07180171
158	0x3e19342d	0.1496131
159	0x3eb39597	0.35075065
160	0xbd679e92	-0.05654771
161	0xbe211bc2	-0.15733245
162	0xbdefc41b	-0.11707326
163	0xbe70a7c0	-0.23501492
164	0xbd002520	-0.031285405
165	0xbe5838d4	-0.21115428
166	0xbddbf382	-0.10739805
167	0xbe335229	-0.1751181
168	0xbedcda13	-0.43135127
169	0xbe2dd515	-0.16975816
170	0xbde55b89	-0.111990996
171	0xbe2626f3	-0.16225795
172	0x3df16a5e	0.11787866
173	0x3e1e9aeb	0.15488784
174	0xbd8591d1	-0.06521953
175	0xbabc7024	-0.0014376682
176	0xbbae21cf	-0.005314089
177	0x3c1e6882	0.009668471
178	0x3d0b453c	0.034001574
179	0xbe9a04a4	-0.30081666
180	0xb9f012fa	-0.00045790506
181	0xbe5b0a28	-0.21390593
182	0x3e320bae	0.17387268
183	0x3da122d1	0.07867969
184	0xbe1587d3	-0.14602594
185	0x3e0fd3c8	0.14045632
186	0xbd88dab1	-0.06682337
187	0xbd4df16c	-0.050279066
188	0xbd946041	-0.072449215
189	0x3e518a2e	0.20462868
190	0x3d44175e	0.047873847
191	0x3d760bef	0.060069975
192	0x3e4cf814	0.2001651
193	0x3a7a5a02	0.00095501554
194	0xbdf3bf4a	-0.1190172
195	0x3e50511e	0.20343444
196	0x3ea1b7aa	0.31585437
197	0xbe61892f	-0.22024988
198	0xbd2a30d6	-0.04155048
199	0xbe110613	-0.14162473
200	0xbd5b1857	-0.05349001
201	0x3adce219	0.001685205
202	0xbe085cfd	-0.13316722
203	0x3e8c909c	0.27454078
204	0x3e9109de	0.2832784
205	0x3e2011cc	0.15631789
206	0xbd304555	-0.04303487
207	0x3d96e9a4	0.07368782
208	0xbd98f06c	-0.07467732
209	0xbe5ce03c	-0.21569914
210	0x3e240a85	0.16019638
211	0x3e028b5d	0.12748475
212	0xbd0cf646	-0.034414552
213	0xbe3ecb03	-0.1863213
214	0x3d00b020	0.031417966
215	0x3cf7aef3	0.03023479
216	0x3e7c99e0	0.24668074
217	0x3db0b6ec	0.086286396
218	0xbd40fbee	-0.04711526
219	0xbda16400	-0.078804016
220	0x3e3848d5	0.17996533
221	0x3e7974cc	0.2436096
222	0x3e387b11	0.18015696
223	0x3e556770	0.2084024
224	0x3eb33625	0.35002246
225	0xbdb781a8	-0.08960277
226	0xbe0561a6	-0.13025531
227	0xbda3629f	-0.07977795
228	0x3d1845ee	0.037176065
229	0x3e0a3bdc	0.13499397
230	0x3e513946	0.20432004
231	0x3e316aab	0.17325847
232	0x3dafdcb4	0.08587018
233	0xbb36e536	-0.0027907616
234	0x3e5dc8fe	0.21658704
235	0x3d9b3ca2	0.07579924
236	0xbdd3150e	-0.1030675
237	0xbde1c3fa	-0.11023708
238	0xbe29c40f	-0.16578697
239	0xbdf1ba5f	-0.118031256
240	0x3cdbbaf5	0.026822546
241	0x3e1675d1	0.14693381
242	0x399f8fec	0.00030434073
243	0x3dd9b78e	0.106307134
244	0x3e0d96d5	0.13827069
245	0xbc211801	-0.009832383
246	0xbe7b8111	-0.24560954
247	0x3bbb2a8c	0.005711859
248	0xbe846759	-0.25860098
249	0xbdcf5f25	-0.10125569
250	0x3e02d112	0.12775066
251	0xb819ac5b	-3.663856e-05
252	0xbe488e0e	-0.1958544
253	0x3e419cd3	0.1890748
254	0xbd813abf	-0.06310033
255	0xbe5fa8b3	-0.21841697

hiden_layers.1.bias f4 [64]
0	0xbd6e2d49	-0.058148656
1	0x3d5acf4d	0.053420354
2	0x3be88441	0.007095844
3	0x3cd254e0	0.025675237
4	0xbba77b48	-0.005111132
5	0x3d7ead35	0.0621769
6	0x3c7c4c37	0.01539903
7	0xbdac188b	-0.08403119
8	0xbc64f1ce	-0.013973666
9	0x3d1bd5ce	0.038045697
10	0x3dba79a8	0.09105235
11	0xbdd93d95	-0.10607449
12	0xbda3d6bc	-0.07999942
13	0xbc8f4c06	-0.017492305
14	0x3caa5623	0.020793026
15	0xbd3702d8	-0.044680446
16	0xbdef97de	-0.11698888
17	0xbd9e02b9	-0.07715363
18	0xbd0df132	-0.03465385
19	0x3d1208af	0.035652813
20	0xbd8dd638	-0.069256246
21	0xbc61813c	-0.013763722
22	0x3ce84b5b	0.028356245
23	0x3e0b95d6	0.13631377
24	0xbceb734d	-0.028741503
25	0x3dbf8b27	0.09352713
26	0x3d2c9372	0.042132802
27	0x3e5d1035	0.21588214
28	0xbdaa7ea4	-0.08324936
29	0xbe5354a6	-0.2063776
30	0xbe28f3db	-0.16499273
31	0x3c1a5c68	0.009421445
32	0xbd419517	-0.047261324
33	0xbd7ece04	-0.06220819
34	0x3d832f32	0.06405486
35	0x3c229df6	0.009925356
36	0xbd9614e6	-0.07328205
37	0xbe93205f	-0.28735635
38	0xbdc97d0c	-0.09838304
39	0xbe199e09	-0.15001692
40	0x3db537c3	0.08848526
41	0xbdb9e28a	-0.09076412
42	0xbd96dacb	-0.0736595
43	0xbe7702ae	-0.24122116
44	0x3d161914	0.03664501
45	0xbcbb879e	-0.022891816
46	0xbd04f5c1	-0.03246093
47	0x3c04c225	0.008102928
48	0x3b3afc7d	0.0028531842
49	0xbd5127d9	-0.051063392
50	0x3d7dbffe	0.061950676
51	0x3e5707f9	0.20999135
52	0x3e390725	0.18069132
53	0x3d5f330b	0.054492038
54	0xbd176867	-0.0369648
55	0xbcbc39e6	-0.022976827
56	0x3cd5c5cc	0.026095293
57	0xbcfc0b22	-0.030767027
58	0xbd16717a	-0.036729313
59	0x3de908e7	0.11378651
60	0x3d970af8	0.07375139
61	0xbe5fa67a	-0.2184085
62	0x3d937a85	0.07201103
63	0xbd0f5180	-0.034989834

hiden_layers.2.weight f4 [64, 64]
0	0xbdca25e1	-0.09870506
1	0xbe8efb06	-0.2792589
2	0xbed6d185	-0.41956726
3	0x3dbf003e	0.09326218
4	0xbd9112f3	-0.070836924
5	0xbd595a1a	-0.053064443
6	0xbe996f66	-0.29967803
7	0xbec193ac	-0.37807977
8	0xbf179fa1	-0.5922795
9	0x3c95cb21	0.018285336
10	0xbedc2eb4	-0.43004382
11	0xbdd9fb7b	-0.10643669
12	0x3f0bf183	0.5466539
13	0x3f01e5d6	0.50741327
14	0xbec7ece9	-0.39047936
15	0x3e85fae1	0.26167968
16	0x3e5a4b4a	0.21317783
17	0xbdff22d1	-0.124578126
18	0x3ee26473	0.44217262
19	0xbf228caa	-0.63495886
20	0x3e670f17	0.2256435
21	0x3ea597e5	0.3234245
22	0xbec95870	-0.39325285
23	0x3e59fb81	0.21287347
24	0x3f1220c2	0.57081234
25	0x3e286fa5	0.16448839
26	0xbe1cca7c	-0.15311617
27	0xbe985230	-0.29750204
28	0x3cbe5d76	0.023237925
29	0xbe8334f8	-0.2562635
30	0x3dccb5a6	0.09995584
31	0x3db6fdec	0.089351505
32	0xbdfeaec8	-0.12435681
33	0x3e266a71	0.16251542
34	0xbe3f36c6	-0.18673238
35	0xbe3e8451	-0.18605162
36	0x3f167a2b	0.58780164
37	0xbe1898fc	-0.14902109
38	0x3ef6dc5c	0.48214996
39	0x3ed364fa	0.41287977
40	0x3d2f0448	0.042728692
41	0xbd8720ba	-0.06598039
42	0x3d173888	0.036919147
43	0x3ec1c4d1	0.37845472
44	0x3e7c4e00	0.2463913
45	0x3cab0624	0.020876952
46	0xbd1d6414	-0.03842552
47	0x3e47db87	0.19517337
48	0xbb635465	-0.0034687754
49	0x3e4f0877	0.20218073
50	0x3e0276cc	0.1274063
51	0xbda60bf2	-0.08107747
52	0x3da3ceef	0.07998454
53	0x3d775e1d	0.060392488
54	0x3eddec67	0.43344423
55	0x3f132265	0.57474357
56	0x3d01999e	0.03164064
57	0x3e416294	0.18885261
58	0x3d4d6d2b	0.05015294
59	0x3db02bcb	0.08602103
60	0x3d5a320e	0.053270392
61	0x3aff26df	0.001946654
62	0x3e24393f	0.16037463
63	0x3e4f4f81	0.20245172
64	0x3e1e3c8c	0.15452784
65	0x3ce25825	0.027629921
66	0x3e25e30b	0.16199891
67	0x3e1f964c	0.15584677
68	0x3e6a2d38	0.22868812
69	0x3e4081a3	0.18799452
70	0xbd46472d	-0.048407722
71	0x3ebdab66	0.3704483
72	0x3d6d2c26	0.05790343
73	0x3e05ae3b	0.13054745
74	0x3e1d0299	0.15333022
75	0x3e260278	0.16211879
76	0x3b83f7fb	0.0040273643
77	0xbe8c3fe6	-0.273925
78	0x3c69400c	0.014236461
79	0x3e5ea615	0.21743043
80	0xbe144d66	-0.1448265
81	0x3de9c7fd	0.11415098
82	0xbe1fab62	-0.15592721
83	0xbec62408	-0.38699365
84	0x3d86f5db	0.06589862
85	0xbdda1917	-0.10649317
86	0x3d6b338d	0.05742221
87	0xbe467418	-0.19380224
88	0x3b96cefd	0.0046023116
89	0x3e7b45f4	0.24538404
90	0x3db97afb	0.0905666
91	0x3d9dabca	0.07698782
92	0xbe905211	-0.28187612
93	0x3e464d2e	0.19365379
94	0xbd6452a6	-0.055742882
95	0xbddd6c0b	-0.10811623
96	0x3d75975e	0.059958808
97	0x3e679a86	0.2261754
98	0xbe096eb6	-0.13421139
99	0x3e2e0c78	0.16996944
100	0x3e17eef7	0.14837252
101	0x3ea6a1ca	0.3254531
102	0x3e56b31b	0.20966761
103	0xbe771f38	-0.24133003
104	0xbe85d5a2	-0.2613955
105	0xbe12434d	-0.14283486
106	0x3e4f1239	0.20221795
107	0xbde82eb1	-0.11337031
108	0x3e0c6ecf	0.13714145
109	0xbe57c014	-0.21069366
110	0xbd22d4bd	-0.039753664
111	0x3e032d72	0.12810305
112	0xbe3ac1fc	-0.18238062
113	0x3ea355d6	0.31901425
114	0xbe0609eb	-0.13089721
115	0xbe79a181	-0.24378015
116	0xbe8cc124	-0.27491105
117	0x3dd73eed	0.10510049
118	0xbdb1ed6e	-0.08687864
119	0xbea939d9	-0.33051947
120	0x3e2b81c9	0.16748728
121	0xbc9d3bf5	-0.019193629
122	0xbdf18ff0	-0.11795032
123	0x3df3d62e	0.11906086
124	0x3e1a6c36	0.15080342
125	0x3e9d4853	0.30719241
126	0x3dccff81	0.10009671
127	0xbe3b4ca1	-0.1829095
128	0x3e251d6d	0.16124506
129	0xbe898e8d	-0.2686657
130	0xbe8afc82	-0.27145773
131	0xbd65f0b8	-0.05613777
132	0xbd38628a	-0.04501585
133	0x3e0d4559	0.13795985
134	0x3e14b57d	0.14522357
135	0xbd7a2517	-0.061070528
136	0xbdbbbb6e	-0.09166609
137	0x3ebb2ea4	0.3655902
138	0xbe22922d	-0.15876074
139	0x3e33f109	0.17572416
140	0x3e3c3da4	0.18382889
141	0x3df55aa6	0.119801804
142	0xbe14b84e	-0.14523432
143	0x3e11d756	0.142423
144	0x3d4da0b5	0.05020209
145	0xbe91ea28	-0.2849896
146	0x3e20ef48	0.15716279
147	0xbf071d7c	-0.52779365
148	0xbe2d8a08	-0.16947186
149	0x3d1a1d1b	0.037625413
150	0x3d9bb62e	0.076031074
151	0xbd20e572	-0.039281316
152	0x3e96480d	0.29351845
153	0x3c45a382	0.012062909
154	0xbdbfe8dc	-0.09370586
155	0xbe4dc4b5	-0.20094569
156	0x3e17fabc	0.14841741
157	0xbe26f339	-0.1630372
158	0x3e16975b	0.14706175
159	0x3e029a8e	0.1275427
160	0xbdab67b3	-0.083693884
161	0xbe05581b	-0.13021891
162	0xbd91c83f	-0.07118272
163	0x3e807eb3	0.25096664
164	0x3e9ded84	0.30845273
165	0xbeb28ff6	-0.34875458
166	0xbe930857	-0.287173
167	0x3eafb60e	0.34318584
168	0x3e78687c	0.24258608
169	0x3bb3e821	0.0054903184
170	0xbd3b4300	-0.045718193
171	0xbec1e410	-0.3786931
172	0x3e22d11e	0.15900084
173	0x3d847398	0.0646736
174	0xbdb9f61a	-0.09080143
175	0xbe5b7b26	-0.21433696
176	0x3e4d1d1c	0.20030636
177	0x3d76d58a	0.06026224
178	0xbdd89d7c	-0.10576913
179	0x3ec67f57	0.38769028
180	0xbefaf333	-0.4901367
181	0x3e8ef5b7	0.2792184
182	0x3e72b620	0.23702288
183	0x3cfee90b	0.031116983
184	0xbe4e48c3	-0.20144944
185	0xbd68f70c	-0.056876227
186	0xbec1f8a0	-0.37884998
187	0xbd8d7213	-0.069065236
188	0xbd1404be	-0.036137335
189	0xbe75d379	-0.24006452
190	0x3e4c0394	0.1992324
191	0x3eb0651e	0.34452146
192	0xbd8fdac3	-0.07024147
193	0xbe2f4396	-0.17115626
194	0xbdb8e236	-0.09027521
195	0x3e9bba35	0.30415502
196	0xb9994958	-0.0002923708
197	0xbd552278	-0.052034825
198	0x3d4e386c	0.050346777
199	0xbe5ffd35	-0.21873935
200	0x3d3537e1	0.044242743
201	0x3e13b28d	0.1442358
202	0x3e69a591	0.22817065
203	0xbd80042f	-0.06250798
204	0xbd85fd8f	-0.06542503
205	0x3e1e02a3	0.15430693
206	0xbdc5b28a	-0.09653194
207	0x3ddffef8	0.10937303
208	0x3d2a7223	0.041612756
209	0xbe86a4c6	-0.26297587
210	0xbe2ce345	-0.16883571
211	0x3e04c036	0.12963948
212	0xbe26329e	-0.16230246
213	0xba95357e	-0.001138374
214	0x3de871cc	0.1134983
215	0xbd370032	-0.04467792
216	0xbd7ec840	-0.062202692
217	0x3d8c7f39	0.06860203
218	0x3dbc6dd8	0.092006385
219	0x3e2b59a8	0.1673342
220	0xbdc1d5c1	-0.094645984
221	0x3e0d14fa	0.13777533
222	0xbd15a804	-0.036537185
223	0xbeb07e85	-0.34471527
224	0xbc259e36	-0.010108521
225	0xbe15e36f	-0.1463754
226	0x3e89ab8f	0.268887
227	0x3e2beb32	0.16788939
228	0xbe3502e1	-0.1767688
229	0x3dd95b65	0.10613135
230	0xbc95b403	-0.018274313
231	0xbe16314e	-0.14667246
232	0x3e9e19e9	0.30879143
233	0xbe448818	-0.1919254
234	0x3e7ae675	0.24501975
235	0x3e9480ab	0.29004416
236	0x3e260845	0.16214092
237	0xbd1bc34f	-0.038028058
238	0xbd76ea9a	-0.060282327
239	0xbd64378c	-0.055717036
240	0xbe188395	-0.14893945
241	0x3df0df40	0.117613316
242	0x3e3cb8d5	0.18429883
243	0xbe30709f	-0.17230462
244	0xbc2417ca	-0.010015437
245	0xbe073a56	-0.13205847
246	0x3e36a2b6	0.17835507
247	0xbd251164	-0.040299788
248	0x3dafbfad	0.08581481
249	0xbe9035fa	-0.2816618
250	0xbbe26fae	-0.006910286
251	0x3db22e7b	0.08700272
252	0x3dcf9041	0.10134936
253	0xbe59fde0	-0.21288252
254	0x3e8a51d2	0.2701555
255	0x3d283b79	0.041072343

hiden_layers.2.bias f4 [64]
0	0x3a8a8f8a	0.0010571342
1	0xbdf75397	-0.1207649
2	0x3c6803e4	0.014161084
3	0x3d80aa37	0.06282466
4	0xbd182bab	-0.03715102
5	0xbc6055b4	-0.013692308
6	0x3c8f1d92	0.017470155
7	0xbd25e633	-0.04050274
8	0x3d9634f1	0.073343165
9	0xbabd4fe0	-0.001444336
10	0x3cb9dbde	0.022687849
11	0xbd0ca137	-0.034333434
12	0x3daeb81d	0.085312106
13	0x3c6ef80a	0.014585504
14	0x3e7ecdd2	0.24883202
15	0xbccc8414	-0.024965324
16	0xbb0031c8	-0.0019560922
17	0xbd331c39	-0.043728087
18	0x3d5592d5	0.052141983
19	0x3d16dd1a	0.036831953
20	0xbdb0998b	-0.08623036
21	0xbd806c75	-0.062706865
22	0x3dc68cfd	0.0969486
23	0x3cc2631a	0.023728896
24	0x3dca0566	0.09864311
25	0xbda04b20	-0.07826829
26	0x3d2b2d39	0.041791175
27	0x3e3f02c7	0.18653403
28	0xbe07c8e4	-0.13260227
29	0x3e31ddcb	0.17369764
30	0xbd5e52e3	-0.054278266
31	0xbd0502af	-0.032473262
32	0x3e6b7e15	0.22997315
33	0xbcd4aaef	-0.025960414
34	0x3cf04caa	0.029333431
35	0x3ce8efa1	0.028434576
36	0x3ad5e15c	0.0016317773
37	0x3d59fdc6	0.053220533
38	0x3d0325c0	0.032018423
39	0x3d6c2e0b	0.057661097
40	0x3d146cf7	0.03623673
41	0x3deb3b72	0.11485948
42	0xbd9f185e	-0.077683195
43	0x3c8d9315	0.017282048
44	0xbd9b2460	-0.07575297
45	0x3cc47a33	0.02398405
46	0xbdfd72c5	-0.12375406
47	0xbc9b40f8	-0.018951878
48	0xbce7c8ab	-0.028293928
49	0xbd44620d	-0.04794507
50	0x3db2a120	0.087221384
51	0xbe015528	-0.12630141
52	0x3e147225	0.14496668
53	0x3d6b286c	0.057411596
54	0xbd9f39cf	-0.07774698
55	0xbbc2e1f0	-0.005947344
56	0x3d5230fa	0.05131624
57	0xbd5e498d	-0.054269362
58	0xbd8708f2	-0.06593503
59	0xbd1da003	-0.038482677
60	0xbe4ccbf1	-0.19999672
61	0x3d7137d6	0.05889114
62	0xbca86f69	-0.020560937
63	0x3dc79b48	0.097464144

hiden_layers.3.weight f4 [64, 64]
0	0xbdbdec24	-0.09273556
1	0x3e17b4a8	0.14815009
2	0x3e0da50d	0.13832493
3	0xbdc2bb81	-0.0950842
4	0xbd59157f	-0.052999016
5	0x3e6904d3	0.22755747
6	0xbe4d5611	-0.20052363
7	0xbe814373	-0.25246772
8	0x3de4141b	0.11136647
9	0x3e143901	0.1447487
10	0x3e2ec466	0.17067108
11	0x3d2616a4	0.040548936
12	0x3e65d909	0.22446074
13	0xbe9a97ad	-0.30193844
14	0x3e6722eb	0.22571914
15	0xbe7ba6c6	-0.24575338
16	0xbcf8eb30	-0.030385584
17	0xbe085a33	-0.13315658
18	0xbe28eeb4	-0.16497308
19	0xbef2fb13	-0.4745718
20	0x3e8e4e6b	0.27794203
21	0xbe28f114	-0.16498214
22	0x3e746429	0.23866333
23	0x3eb8597b	0.36005768
24	0x3ea312cf	0.31850287
25	0x3d7078a5	0.058708806
26	0xbd8ec279	-0.069706865
27	0xbdd8436f	-0.10559737
28	0x3d16f244	0.036852136
29	0x3d9201c3	0.07129242
30	0xbd2ccacc	-0.04218559
31	0x3e7461a5	0.23865373
32	0x3dff4640	0.12464571
33	0x3dfffc2a	0.12499268
34	0xbcb796e4	-0.022410817
35	0x3d3daa7f	0.046305176
36	0x3c69987f	0.014257549
37	0xbdfd20a5	-0.12359742
38	0x3bf95147	0.007608566
39	0xbe175c6d	-0.14781351
40	0xbd2ff582	-0.042958744
41	0x3e05d5e6	0.13069877
42	0xbdf97e09	-0.121822424
43	0xbdf16abd	-0.11787937
44	0x3df7d4fa	0.12101169
45	0x3e63b24c	0.22235984
46	0xbc517720	-0.012784749
47	0xbd5af4b1	-0.053456012
48	0x3e78bc57	0.24290596
49	0xbe950a90	-0.2910962
50	0xbdd1db4e	-0.10246907
51	0x3d1a6ee7	0.03770342
52	0x3e097d2a	0.13426653
53	0x3e81cde3	0.25352392
54	0x3e87f942	0.26557356
55	0x3b961649	0.0045802933
56	0x3e3e7b45	0.18601711
57	0x3db977ff	0.090560906
58	0xbe45d706	-0.19320306
59	0x3e2e6d5a	0.17033902
60	0xbb4a8bbf	-0.003090605
61	0x3e2d4dc8	0.16924202
62	0xbe0ab4c5	-0.1354552
63	0x3e46906f	0.19391035
64	0xbdbff8e9	-0.09373648
65	0xbad29c66	-0.0016068339
66	0xbd1a4659	-0.037664745
67	0x3d4d0952	0.050057717
68	0x3d0be6dd	0.034155715
69	0x3de612f1	0.112340815
70	0xbe520a0d	-0.20511647
71	0x3dec2250	0.11529982
72	0xbe3b3143	-0.1828051
73	0xbe2c8d7c	-0.16850847
74	0x3e1803e9	0.14845242
75	0x3db0043e	0.08594559
76	0x3e7a8451	0.24464537
77	0xbda5b8f6	-0.08091919
78	0xbe2c7778	-0.16842449
79	0x3da66e33	0.081264876
80	0x3e4158d0	0.18881536
81	0xbd8a73bd	-0.067603566
82	0x3e703e48	0.23461258
83	0x3df58c40	0.11989641
84	0x3e17e027	0.14831601
85	0xbdf2b691	-0.11851228
86	0xbdcba813	-0.09944167
87	0x3e8d0c30	0.2754836
88	0xbe1860d3	-0.14880686
89	0xbbff6909	-0.0077945036
90	0x3e1abd91	0.15111376
91	0xbeb06132	-0.34449154
92	0x3e8a5405	0.27017227
93	0xbd2dec12	-0.042461462
94	0xbe431010	-0.19049096
95	0x3d9eb7b6	0.07749884
96	0x3ea28a81	0.31746295
97	0xbde8b526	-0.11362676
98	0x3e4c560d	0.19954701
99	0x3e0db3b2	0.1383808
100	0xbd9f5af4	-0.0778102
101	0xbe6202c9	-0.22071375
102	0xbe695e1d	-0.22789808
103	0x3db995ca	0.09061773
104	0x3d922605	0.07136158
105	0xbdbcb8fa	-0.09214969
106	0x3d88a5e8	0.06672269
107	0x3e27bcc8	0.16380608
108	0xbd23272c	-0.03983228
109	0x3d8ce101	0.068788536
110	0x3e45b15c	0.19305938
111	0xbbefe896	-0.0073214276
112	0x3e5c2c67	0.21501313
113	0xbdb78fbe	-0.089629635
114	0xbe4d52ba	-0.20051089
115	0x3e47b88b	0.19503991
116	0x3e7986dc	0.24367851
117	0xbbc39592	-0.005968758
118	0xbe2777cb	-0.16354291
119	0x3e41fd00	0.18944168
120	0x3e2d2944	0.16910273
121	0xbe131f22	-0.14367345
122	0x3e39c75f	0.1814246
123	0x3e02641f	0.12733506
124	0x3e1dad63	0.15398173
125	0x3d8e9e2d	0.069637634
126	0xbceddbb1	-0.029035421
127	0x3df64c04	0.120262176
128	0x3d5d967c	0.05409859
129	0x3e0b89c0	0.13626766
130	0xbe01eb3b	-0.1268739
131	0xbc9f0b49	-0.01941456
132	0xbe1874d2	-0.14888313
133	0x3ddbe907	0.10737806
134	0x3e86a977	0.26301166
135	0xbe4aa349	-0.19788851
136	0x3dca2447	0.098702006
137	0x3d84e9b9	0.064898916
138	0x3d089be1	0.033351783
139	0x3cd90857	0.026493235
140	0xbe2d9a2f	-0.16953348
141	0x3d5ee5e6	0.054418467
142	0x3e62de6b	0.22155158
143	0x3d937232	0.071995154
144	0x3c9ec660	0.019381702
145	0x3e53c477	0.20680414
146	0xbe8be3c8	-0.2732222
147	0xbe738fd7	-0.2378534
148	0xbbf85689	-0.007578675
149	0x3c70ac74	0.0146895535
150	0xbde3e977	-0.11128514
151	0x3e23cc59	0.15995921
152	0x3e50416d	0.20337458
153	0x3e392ad8	0.1808275
154	0xbe7ee60f	-0.24892448
155	0x3e4c658b	0.1996061
156	0x3dde96e4	0.10868624
157	0xbd160948	-0.036629945
158	0xbe0f246e	-0.1397874
159	0xbe31df91	-0.1737044
160	0xbe719026	-0.23590145
161	0xbd0166ff	-0.031592365
162	0x3e3ae9de	0.18253276
163	0x3dfd9f73	0.12383928
164	0xbab07ed5	-0.0013465533
165	0xbd4a7f08	-0.049437553
166	0x3e87d7da	0.2653187
167	0x3db1990f	0.08671772
168	0x3e5c818a	0.2153379
169	0xbe88fe1f	-0.2675638
170	0xbe1351aa	-0.14386621
171	0x3d81e0c7	0.06341701
172	0xbe29bec0	-0.16576672
173	0xbe45f3ce	-0.19331285
174	0x3dfeaedd	0.12435696
175	0xbdf36589	-0.11884601
176	0xbe09e0a9	-0.13464607
177	0xbe8c0930	-0.2735076
178	0x3e625d32	0.22105864
179	0x3e2c9fdc	0.16857857
180	0x3dd3bd58	0.10338849
181	0xbdee59c5	-0.11638216
182	0xbe89a8cd	-0.26886597
183	0xbe4ac3f6	-0.19801316
184	0xbe796fd4	-0.24359065
185	0xbe0e5340	-0.13898945
186	0xbcd98365	-0.026551912
187	0x3e12f557	0.14351402
188	0x3debd116	0.11514489
189	0x3cdbcd8e	0.026831415
190	0x3d84085a	0.064469054
191	0xbc6aca85	-0.014330511
192	0x3d80cd7b	0.06289192
193	0xbdf4a22e	-0.11944996
194	0x3c649c59	0.013953292
195	0xbbe36cae	-0.006940446
196	0xbe94d6da	-0.2907017
197	0xbde325f1	-0.11091221
198	0xbc62cc49	-0.013842651
199	0xbe4265c4	-0.18984133
200	0x3e10419f	0.14087532
201	0xbe198e50	-0.14995694
202	0xbee70e17	-0.45127937
203	0xbe194f16	-0.14971575
204	0xbe70b9fd	-0.23508449
205	0xbeb0d322	-0.34536082
206	0xbd97779d	-0.07395861
207	0xbccdb4d3	-0.025110638
208	0xbe453ef6	-0.19262299
209	0x3e33b114	0.17548019
210	0x3c9fa47d	0.019487614
211	0x3ccaa26d	0.024735654
212	0x3e1b806b	0.15185706
213	0xbb74fe8c	-0.0037383167
214	0xbdc74254	-0.09729448
215	0x3e11e724	0.1424833
216	0x3e746117	0.23865162
217	0xbd0fc82a	-0.035103
218	0x3d8f71f9	0.070041604
219	0x3daf346f	0.08554923
220	0x3dab5abe	0.08366917
221	0xbdc46f80	-0.095915794
222	0xbc79617c	-0.015220996
223	0x3e0ee0aa	0.1395289
224	0x3d31f31a	0.04344473
225	0x3d8902c3	0.0668998
226	0x3d262048	0.04055813
227	0xbe8520d3	-0.26001605
228	0xbe5b2918	-0.21402395
229	0xbd889429	-0.06668884
230	0xbe6537f5	-0.22384627
231	0xbd9fbcc9	-0.0779968
232	0x3d314ae5	0.043284316
233	0xbe6c8189	-0.23096289
234	0xbe88acea	-0.26694423
235	0x3bc309a2	0.005952076
236	0x3df81c45	0.12114767
237	0xbdd1a420	-0.102363825
238	0x3e178e73	0.14800434
239	0x3e077e25	0.13231714
240	0x3db60be9	0.088889904
241	0x3e01d865	0.12680204
242	0xbe0763ff	-0.13221739
243	0xbc39ba5b	-0.0113359345
244	0x3dc59665	0.09647826
245	0x3ebae4ef	0.36502787
246	0x3d8cfa4e	0.06883679
247	0x3e8db0cc	0.27673948
248	0x3dce3a0f	0.100696675
249	0x3eac1b18	0.3361442
250	0x3e8f33fc	0.27969348
251	0xbd8fbd4b	-0.07018527
252	0xbd87a0b6	-0.0662245
253	0xbe665da0	-0.22496653
254	0xbd9adea7	-0.07561999
255	0x3d25b4ce	0.040455632

hiden_layers.3.bias f4 [64]
0	0x3bf38f85	0.0074328803
1	0x3d2b4c8a	0.04182104
2	0xbc953818	-0.018215224
3	0xbc8dba49	-0.017300742
4	0x3cb245df	0.021761833
5	0xb9d44221	-0.0004048506
6	0x3c856fd4	0.016288675
7	0xbccae979	-0.024769532
8	0x3db13e51	0.08654464
9	0x3daeed23	0.08541324
10	0x3c892a24	0.016743727
11	0xbb5272b5	-0.0032111828
12	0xbe9a019b	-0.3007935
13	0x3ca00abf	0.019536374
14	0x3ded4451	0.11585296
15	0x3c92335f	0.017846761
16	0x3c81732d	0.01580199
17	0xbcee3da3	-0.029082125
18	0xbd9155a6	-0.07096414
19	0x3d8a7c4e	0.067619905
20	0xbccdbb99	-0.025113868
21	0xbdbc372a	-0.09190209
22	0xbd86db0b	-0.06584748
23	0x3cae589e	0.02128249
24	0xbde76f70	-0.11300552
25	0x3ceff064	0.029289432
26	0x3d4c8736	0.049933635
27	0x3d4b6222	0.049654134
28	0xbdea8945	-0.11451963
29	0xbe11cf2a	-0.14239183
30	0x3c6f7ff9	0.014617913
31	0x3d823129	0.06357033
32	0xbca79473	-0.020456528
33	0x3dcd1c4f	0.10015165
34	0x3d0322a2	0.03201545
35	0x3cd7ad9a	0.026327897
36	0xbde058d1	-0.109544404
37	0x3d9535b7	0.07285636
38	0x3d0ad2cc	0.033892438
39	0xbdf00a2f	-0.11720692
40	0xbdefba95	-0.117055096
41	0xbd4649e3	-0.048410308
42	0x3d9f3b4e	0.07774983
43	0xbda28618	-0.079357326
44	0xbd1c478a	-0.038154162
45	0xbd998fe0	-0.07498145
46	0x3d040ae6	0.032236956
47	0x3d4a6aea	0.049418367
48	0x3d27e504	0.04098989
49	0x3d7c8c1c	0.061657056
50	0xbe2bcec0	-0.16778088
51	0x3c275106	0.010212189
52	0xbbf2d3e3	-0.007410513
53	0x3d222b9c	0.03959237
54	0x3c8463ce	0.016160872
55	0xbc2f8239	-0.0107122
56	0x3d965c3a	0.073418096
57	0x3cf5746d	0.029962743
58	0x3dbbf44d	0.09177456
59	0xbd0ad0a1	-0.03389037
60	0xbe360861	-0.17776634
61	0x3c1b1525	0.0094654905
62	0x3dc85a91	0.09782899
63	0x3dab1ae2	0.08354737

hiden_layers.4.weight f4 [64, 64]
0	0xbe1ea0a8	-0.15490973
1	0xbe1a9cbf	-0.15098856
2	0x3e0a48e6	0.13504371
3	0xbd01ceff	-0.031691547
4	0x3ca019e5	0.019543597
5	0x3dcf0454	0.101082474
6	0xbe6c7139	-0.23090066
7	0x3ea9a465	0.33133236
8	0xbdc74c30	-0.097313285
9	0x3d9e7c7a	0.07738586
10	0x3df6bd59	0.12047834
11	0x3e383957	0.17990623
12	0x3e12ce1b	0.14336435
13	0xbde39237	-0.11111873
14	0xbe0b8b74	-0.13627416
15	0xbd82a24e	-0.063786134
16	0xbe87610d	-0.2644123
17	0xbd9df64c	-0.07712993
18	0x3e2f7631	0.1713493
19	0x3ed38a28	0.41316342
20	0xbe9c3ba9	-0.30514267
21	0x3ceed9b2	0.02915654
22	0xbe2ac4f2	-0.16676691
23	0x3d9a9a2f	0.075489394
24	0xbe727fbd	-0.23681541
25	0xbdb4cc50	-0.08828032
26	0x3dd52265	0.10406951
27	0x3e67ead7	0.22648178
28	0xbedd9469	-0.4327729
29	0xbeb54309	-0.35402706
30	0xbf04e87c	-0.51917243
31	0xbdc7b92d	-0.09752116
32	0xbbc13fbc	-0.0058974903
33	0x3dcc29f8	0.099689424
34	0x3ca34a2e	0.019932833
35	0xbe884b94	-0.26620162
36	0xbddbb2f3	-0.10727491
37	0x3dbb4c77	0.09145444
38	0xbe92cff0	-0.2867427
39	0x3dabd848	0.08390862
40	0xbdcee317	-0.10101908
41	0x3dc0017f	0.09375285
42	0x3e01eb10	0.12687325
43	0x3e13e46b	0.14442603
44	0xbd824ee9	-0.06362707
45	0x3e22eb4d	0.15910073
46	0x3e986217	0.29762337
47	0xbe14bacd	-0.14524384
48	0xbe210537	-0.15724646
49	0xbe4449d3	-0.19168787
50	0x3e0ac0f1	0.13550164
51	0x3dce42ea	0.100713566
52	0xbe6d5852	-0.23178223
53	0x3dfef08a	0.12448223
54	0x3e53e8e6	0.20694312
55	0x3c88066a	0.016604621
56	0xbc5622e8	-0.013069846
57	0x3e3f34b7	0.18672453
58	0xbed9eb49	-0.4256232
59	0xbdd69f17	-0.10479563
60	0xbede47cf	-0.4341416
61	0xbe403631	-0.18770672
62	0xbd1bf0f2	-0.03807158
63	0xbd149b62	-0.036280997
64	0xbd9cf44f	-0.07663786
65	0xbec8275c	-0.3909253
66	0xbde38cac	-0.111108154
67	0x3e0fed84	0.14055449
68	0x3d7c565b	0.061605792
69	0x3dbefc62	0.09325482
70	0xbe194d35	-0.14970858
71	0x3cdd80f5	0.02703903
72	0xbe133890	-0.14377046
73	0xbe541b9f	-0.20713662
74	0xbc9db7a5	-0.019252608
75	0x3e08d537	0.13362585
76	0x3e968068	0.2939484
77	0x3e00106d	0.12506266
78	0xbe693929	-0.22775711
79	0x3d5d03f5	0.05395885
80	0xbe6fddb5	-0.23424418
81	0xbda4b8fb	-0.08043095
82	0x3e3f488e	0.18680021
83	0xbd353bcd	-0.044246484
84	0x3e4a3d80	0.19750023
85	0x3e4352ed	0.19074602
86	0x3e41079d	0.1885056
87	0xbc0f60bf	-0.008751093
88	0xbe2388e4	-0.15970188
89	0xbe52c169	-0.20581593
90	0xbdfc66d6	-0.12324302
91	0x3df9dd1e	0.12200378
92	0x3e30dec3	0.17272477
93	0x3e03df09	0.1287805
94	0xbe7e7ff7	-0.24853502
95	0xbe2a98ba	-0.16659823
96	0x3e843424	0.2582103
97	0x3c2c58a4	0.01051918
98	0x3e37d915	0.17953904
99	0xbc2243f2	-0.009903895
100	0x3da60922	0.08107211
101	0xbd02c653	-0.031927418
102	0xbe15adba	-0.14617053
103	0xbcb0223f	-0.021500705
104	0x3ee2d2a8	0.44301343
105	0xbe6a2e28	-0.2286917
106	0x3db6d8dc	0.089280814
107	0x3e30ee8f	0.17278503
108	0xbd9f0fc6	-0.077666804
109	0x3e3b0641	0.18264104
110	0x3d0382c2	0.032107122
111	0x3d0629df	0.032754775
112	0xbdb05092	-0.086091176
113	0x3e2865c3	0.16445069
114	0xbe5bb6f1	-0.21456505
115	0xbdbd71a3	-0.0925019
116	0x3e0fc37d	0.14039417
117	0xbcd77000	-0.026298523
118	0x3e2faedf	0.17156552
119	0x3d9accfa	0.075586274
120	0xbbb1531e	-0.0054115197
121	0x3cd88973	0.026432728
122	0x3de16e3a	0.11007352
123	0xbe239953	-0.15976457
124	0x3e99741f	0.29971406
125	0x3da0d048	0.078522265
126	0x3dad7f95	0.084716
127	0x3e0907d5	0.13381894
128	0xbdf2e712	-0.118604794
129	0xbea7f2f1	-0.32802537
130	0xbd46209d	-0.048370946
131	0xbe8c2ea6	-0.2737934
132	0xbcebe415	-0.028795281
133	0xbd7acd1d	-0.061230768
134	0x3dbc0518	0.09180659
135	0x3d22fa6e	0.03978961
136	0xbdc4a545	-0.09601835
137	0xbe1497cb	-0.1451103
138	0x3eebc66e	0.46049827
139	0xbded4417	-0.11585253
140	0xbcb005d2	-0.02148715
141	0x3e896ddf	0.26841637
142	0x3dc66b4c	0.09688434
143	0xbdaac330	-0.0833801
144	0xbd351d05	-0.04421713
145	0x3ce0df68	0.027450278
146	0x3db59fdc	0.088683814
147	0x3d3f0929	0.046639595
148	0xbdb7971e	-0.0896437
149	0xbd75f032	-0.06004352
150	0xbb6081e4	-0.0034257108
151	0x3d5f2430	0.05447787
152	0xbf1b4c3d	-0.60663205
153	0xbecd8fd6	-0.401488
154	0xbd98c15e	-0.07458757
155	0xbd3a7875	-0.045525033
156	0xbe97ec14	-0.296723
157	0x3db4fe3a	0.08837552
158	0xbebae181	-0.3650017
159	0x3e6a68a7	0.22891484
160	0xbd0ec73b	-0.03485797
161	0xbe38b1ff	-0.1803665
162	0xbdda179d	-0.10649035
163	0x3dd7baa1	0.105336435
164	0x3edbe5b9	0.42948702
165	0x3db9d5cb	0.09073981
166	0xbcb35832	-0.02189264
167	0x3e4e1960	0.20126867
168	0x3e108957	0.14114891
169	0x3e4acd18	0.198048
170	0xbe9e5db6	-0.3093087
171	0x3d48c021	0.049011353
172	0x3db247fd	0.08705137
173	0x3de5ebfd	0.11226652
174	0x3dbcb36b	0.09213909
175	0x3d1a7653	0.0377105
176	0x3e0e9e48	0.13927567
177	0xbe1b7000	-0.15179443
178	0x3e7e7bf8	0.24851978
179	0xbeb90aa3	-0.36140928
180	0xbdf9efd5	-0.122039475
181	0x3dbca4f1	0.092111476
182	0x3d4a4121	0.049378518
183	0xbbe79f8b	-0.0070685796
184	0xbe95d749	-0.29265812
185	0x3e996f47	0.2996771
186	0x3e152535	0.14564975
187	0x3e139110	0.14410806
188	0xbe2c0c12	-0.1680148
189	0xbd563b61	-0.052302722
190	0xba6ba2f4	-0.00089888205
191	0x3ebcbb48	0.36861634
192	0x3db15762	0.08659245
193	0xbe0d9640	-0.13826847
194	0xbdebe473	-0.115181826
195	0x3e35a171	0.17737366
196	0xbccb6c0a	-0.02483179
197	0xbd8e9da9	-0.06963665
198	0x3dae24d7	0.085031204
199	0xbe775328	-0.24152815
200	0x3e0a3824	0.13497978
201	0x3eb12749	0.34600285
202	0x3d192f89	0.03739885
203	0xbdb08f55	-0.086210884
204	0x3c19c097	0.009384296
205	0xbe4ff735	-0.20309146
206	0x3e2a27b6	0.16616711
207	0x3e9f3278	0.31093192
208	0xbc442d53	-0.011973697
209	0x3d3a12c7	0.045428064
210	0xbe7e73ea	-0.24848905
211	0xbe890912	-0.26764733
212	0xbe774f2c	-0.24151295
213	0x3e4724b9	0.19447602
214	0x3ed5e2a5	0.4177448
215	0x3e66ea6f	0.22550367
216	0x3e8bf801	0.2733765
217	0xbdd20007	-0.102539115
218	0x3d167306	0.03673079
219	0xbe08c611	-0.13356806
220	0xbda8bbe2	-0.08238961
221	0xbc1ea2c9	-0.009682366
222	0xbe657d5c	-0.22411102
223	0xbe1c9c0d	-0.15293904
224	0x3dc47474	0.09592524
225	0x3dd39e7e	0.10332964
226	0xbe3b586f	-0.18295453
227	0xbe2724e6	-0.1632267
228	0x3e862e4b	0.26207194
229	0xbdb0536e	-0.08609663
230	0xbe06036d	-0.13087244
231	0x3e453ffa	0.19262686
232	0xbe561261	-0.20905448
233	0xbbd16ccd	-0.006391144
234	0xbe2c3803	-0.16818242
235	0x3e70422a	0.2346274
236	0x3e09f59f	0.13472603
237	0xbd26c7c7	-0.040717866
238	0xbca4264f	-0.020037798
239	0xbe429a78	-0.19004238
240	0xbdd08985	-0.1018248
241	0x3da52e2c	0.08065447
242	0xbe10fcf6	-0.14158997
243	0x3db3a7bc	0.08772227
244	0xbc956140	-0.018234849
245	0x3dc71425	0.09720639
246	0x3e3a7637	0.18209158
247	0x3e34a69b	0.1764168
248	0xbe59439a	-0.21217194
249	0xbcb6ee85	-0.022330532
250	0x3e213990	0.15744615
251	0x3cc8a61b	0.024493268
252	0x3ead9bad	0.33907834
253	0xbe181d40	-0.14854908
254	0x3e4d7a4b	0.20066182
255	0x3e1e9cdc	0.15489525

hiden_layers.4.bias f4 [64]
0	0xbcc8b8e6	-0.024502229
1	0xbd2ecb34	-0.04267426
2	0x3d747e09	0.05969051
3	0xbd6d7560	-0.057973266
4	0xbe7745c6	-0.2414771
5	0xbd4244ab	-0.047428768
6	0x3c8a381f	0.016872464
7	0x3de6cd73	0.11269655
8	0xbd48b2f9	-0.048998807
9	0x3d7094f8	0.058735818
10	0xbcfc8898	-0.030826852
11	0x3d0b0895	0.03394373
12	0xbd0acdba	-0.033887602
13	0x3b3d3528	0.0028870795
14	0x3d0f0d00	0.034924507
15	0xbca30036	-0.019897562
16	0xbde3d48d	-0.11124525
17	0xbe86f699	-0.26360014
18	0x3dbdc1db	0.092654906
19	0x3dbfdc48	0.09368187
20	0x3cda7335	0.026666263
21	0x3e8715ad	0.26383725
22	0xbd5c333b	-0.053759795
23	0x3daa20f7	0.08307069
24	0xbcaf99cf	-0.021435646
25	0xbd2dc13f	-0.042420622
26	0xbd06c67d	-0.032904137
27	0xbc8a62c8	-0.016892806
28	0xbd5ed830	-0.05440539
29	0x3cd0fc72	0.025511
30	0xbd286b75	-0.041118104
31	0xbdf6bbde	-0.120475516
32	0x3d3bebab	0.045879047
33	0x3d8369c4	0.064166576
34	0x3d916208	0.07098776
35	0xbd0380e4	-0.03210534
36	0x3d8f7d17	0.07006281
37	0x3c5b33bd	0.013379035
38	0xbd217d23	-0.03942598
39	0xbb68cc90	-0.003552232
40	0x3c8bdaa0	0.017072022
41	0x3c5f890d	0.013643515
42	0x3d6ed080	0.05830431
43	0xbe70b481	-0.23506357
44	0xbd8bbacc	-0.06822738
45	0x3d5a8d30	0.053357303
46	0x3d9db33c	0.07700202
47	0x3d3608ce	0.04444199
48	0x3dbdb54d	0.09263096
49	0x3d8549ec	0.0650824
50	0xbd82324e	-0.06357251
51	0x3dd6df74	0.10491839
52	0xbd9ac192	-0.07556452
53	0x3b00f013	0.0019674345
54	0xbd5710f0	-0.052506387
55	0xbbe42128	-0.0069619603
56	0x3db14a45	0.08656744
57	0xbd132465	-0.03592338
58	0xbcdc4e74	-0.026892878
59	0xbe458c2c	-0.19291753
60	0xbcdf19fa	-0.027234066
61	0xbd77ff8a	-0.060546435
62	0x3dbbbb50	0.091665864
63	0xbd383ff5	-0.04498287
