results/2_model_1_case_2/epoch350/model_weights.pth (torch, 484214 bytes, 88 tensors)

init_layer.0.weight f4 [64, 3]
000000 82 f1 d5 be dc ca 0c be 19 58 88 3e 59 4d 90 3e
       -0.41785818 -0.1374926 0.26629713 0.28184012
000010 dd 96 3e bd 61 82 05 3d 5d f4 ba bd 37 93 59 be
       -0.046530593 0.032595042 -0.0912864 -0.21247564
000020 e8 9f 46 be e1 87 f6 3e 57 52 5b 3d d6 10 d2 3d
       -0.19396937 0.48150542 0.053545322 0.102571175
000030 43 ac fd bd 1e 3e 21 3e c6 47 a7 3e b0 82 c5 bd
       -0.12386372 0.15746352 0.32671946 -0.09644067
000040 24 ac 58 be 24 64 8a 3e be 99 96 3e 15 76 87 bd
       -0.21159416 0.27029526 0.2941417 -0.06614319
000050 7a a6 9e 3e 09 f2 07 3f 8d c5 59 3e 3e 63 a9 3e
       0.30986387 0.5310369 0.21266766 0.33083528
000060 ab 33 83 3e 5b bd d1 be d2 6a be 3d 85 13 05 be
       0.25625357 -0.4096478 0.09297718 -0.12995727
000070 97 be 69 bd b9 ad 9f 3e a3 46 c5 be 22 45 2c 3d
       -0.057066526 0.31187227 -0.38530454 0.042058118
000080 56 88 a7 3d 26 70 af 3d 04 0d 16 3d b1 2c 96 be
       0.08180301 0.085663125 0.036633506 -0.29330972
000090 fe 74 b9 bd 4a a4 55 bd a0 d9 ae bd f3 19 9e bd
       -0.090555176 -0.05215863 -0.085376024 -0.07719793
0000a0 8e 6c 5e 3c b9 f0 df 3e 78 fc 14 3e 00 bc e4 be
       0.013575686 0.43738344 0.14549434 -0.44674683
0000b0 a9 16 9f bc 5c 9a 3e 3e 2e e7 97 be f5 0e 82 be
       -0.019419985 0.18613571 -0.29668564 -0.25402036
0000c0 18 ab c7 3d 39 86 b8 bc 83 20 9b 3e 92 74 4e 3e
       0.097494304 -0.02252494 0.30298242 0.20161656
0000d0 a5 4f 8f 3e 75 f5 66 be 1b 99 dc 3d 93 a4 61 bc
       0.2799045 -0.22554572 0.1077139 -0.013772148
0000e0 2d 5a 81 be f0 fe 89 be 82 db ff 3d e7 a5 1c be
       -0.2526411 -0.26952314 0.1249304 -0.15297662
0000f0 e8 5f fb 3d 27 e9 c8 bd 22 48 1d be 8f 46 22 3e
       0.12274152 -0.09810095 -0.15359548 0.15847228
000100 99 20 dc bc f0 2f bd bd 94 2a dd 3b e4 5c 46 bd
       -0.026871013 -0.09237659 0.0067494605 -0.04842843
000110 8f 39 89 be 48 31 c9 bd 01 b4 71 3e 2f 31 62 bd
       -0.26801726 -0.09823853 0.23603822 -0.055222686
000120 1a 1e a0 bd c8 92 83 bc fb 33 a9 3e c5 d3 6b bc
       -0.078182414 -0.016061202 0.3304747 -0.0143937515
000130 78 89 dc 3d f4 9b 40 be ab 1c 60 bd bc 2e 34 3e
       0.107684076 -0.18809491 -0.05471484 0.17595953
000140 bd 03 ba 3e a0 df 08 be 2e c4 20 be e3 7f 23 3e
       0.36330977 -0.13366556 -0.15699837 0.15966754
000150 dd 6a ef 3d d8 bd aa 3d 74 2a 9c be 32 ec 8a 3d
       0.116903044 0.08336991 -0.3050114 0.06783332
000160 2c 3d cb be 6f 92 06 3e 3b b7 8e be bd a2 a2 be
       -0.39695108 0.13141797 -0.2787417 -0.31764784
000170 1e a0 a6 bd 10 5f d6 bd 83 97 67 3c 80 28 b1 3e
       -0.08136009 -0.104673505 0.014135244 0.34601212
000180 8e 13 de bd b2 7e 03 3e 72 ba 97 3e f0 fb 92 be
       -0.108435735 0.12841299 0.29634434 -0.28707838
000190 d1 33 6d 3e 7f 72 04 be 69 41 33 3d 3d 6e b7 bc
       0.23164298 -0.12934302 0.04376355 -0.022391433
0001a0 d7 bd 43 be 27 69 8f bc 98 df 9c bd 40 d2 60 be
       -0.19115387 -0.017506195 -0.076598346 -0.21955204
0001b0 75 cf aa 3d f2 05 f3 3b 3c 1e c0 be 11 af 40 be
       0.083403505 0.00741648 -0.37523067 -0.18816783
0001c0 2d 62 9e bd ad 31 19 be 7c 88 8b 3e ce a4 be bd
       -0.07733569 -0.14960356 0.27252567 -0.09308778
0001d0 97 61 99 3e ee 86 02 bf 66 bd 8a 3e f5 17 79 3e
       0.29957268 -0.50987136 0.27097625 0.24325545
0001e0 0a ed 9a 3d c7 5b c9 bc bc 47 e3 be 7b 55 8e 3d
       0.07564743 -0.024579896 -0.44390666 0.06949898
0001f0 01 98 c7 3b 47 19 b0 be 6a 8f 88 3c cf 4a 87 bd
       0.0060911183 -0.34394285 0.016669948 -0.066060655
000200 e2 42 af 3e dd 6a 83 bd 33 1a fb bc 07 66 83 3e
       0.34230715 -0.06416867 -0.030652141 0.25663778
000210 24 82 03 3e 40 80 22 be 4e 6c 69 be 14 ca 33 be
       0.12842613 -0.15869236 -0.22795221 -0.17557555
000220 21 cc 37 be 21 96 71 3e cb 1d 8b 3c 2c 54 45 be
       -0.17948963 0.23592426 0.01698198 -0.1927039
000230 b4 09 b9 3d 55 31 d2 3d e6 25 8d 3e 44 64 20 3d
       0.09035054 0.102633156 0.27567977 0.03915812
000240 a4 d0 d6 3e 26 35 cb 3e 70 93 4f 3d 2a ba ed 3d
       0.41956055 0.39688987 0.050677717 0.116077736
000250 d3 46 45 be 06 fd 91 3e f2 47 c0 3d bf 86 81 be
       -0.19265299 0.28513354 0.093887225 -0.25298116
000260 68 9e 1d be 75 d5 fd be cc 41 c7 bc bf 54 0b be
       -0.15392458 -0.49576917 -0.024323367 -0.13606547
000270 b0 64 a7 3e e3 53 b7 be 87 a2 cf 3d 8e df fe bd
       0.32694006 -0.35806188 0.101384215 -0.124449834
000280 9f b3 7f be 7e f9 6a 3d 2b 96 cd 3d 52 9e 00 be
       -0.24970864 0.05736684 0.10038408 -0.12560394
000290 32 a4 98 be 28 fb e7 3e 75 bf 3b be 25 e7 9a 3e
       -0.2981277 0.45308805 -0.18334754 0.30254474
0002a0 83 2e 32 3e bf 44 a0 3c 15 1c ab 3e 90 ad 9c 3d
       0.17400555 0.01956403 0.33419862 0.07650292
0002b0 55 48 12 be 04 45 65 3d d7 9d 90 3e fe 88 56 3e
       -0.14285405 0.05597402 0.28245422 0.20950696
0002c0 40 87 db 3d 48 40 dd 3d 18 15 91 3d 0e 40 8a be
       0.10719156 0.10803276 0.070841014 -0.27001995
0002d0 fd c6 d4 be 19 fe a3 be 84 a4 18 be 61 bb c8 bd
       -0.41558066 -0.320298 -0.14906508 -0.09801365
0002e0 28 00 d1 bd 20 9d 95 bd 57 32 e7 3e e8 e3 60 bd
       -0.10205108 -0.0730536 0.45155594 -0.05490485
0002f0 9d 5c 08 3d aa 64 cd 3e 2b 35 94 3c 73 51 5f 3e
       0.033291448 0.40115863 0.018091759 0.21808414

init_layer.0.bias f4 [64]
000000 73 89 92 3e 53 53 b0 bb e8 3a e7 3c f5 18 8f be
       0.2862049 -0.005381027 0.02822633 -0.27948728
000010 7e 0f 34 3d e7 36 b1 ba 91 f6 e6 3d a4 e6 2d 3e
       0.043960087 -0.001352039 0.112774976 0.16982514
000020 fc 9d 29 be 92 f7 44 be 7c c7 a2 3e b3 49 44 3e
       -0.16564173 -0.19235066 0.3179282 0.19168739
000030 6f 2d 54 3e cc 59 db 3e 3c 35 21 bc 79 dd 53 3e
       0.20720457 0.42841947 -0.009839352 0.20689954
000040 b6 22 66 3e e1 ba b7 3d de b6 00 3e 38 39 73 3d
       0.22474179 0.08971191 0.12569758 0.05938074
000050 a8 64 29 3e 89 fa 08 3d 83 28 8a 3e ce 01 b2 3d
       0.16542304 0.033442054 0.26984033 0.086917505
000060 43 38 28 3e a0 a0 df bd 15 a7 89 3d ce 5a 97 bd
       0.16427712 -0.10919309 0.067213215 -0.073903665
000070 d6 91 b3 be b9 32 30 3e 65 eb 83 3b a2 04 f9 bd
       -0.35072201 0.17206849 0.004025864 -0.12159087
000080 42 a2 1a be 18 a3 3d 3e 5e cf 56 3e 4d cf 94 3e
       -0.15100959 0.18519247 0.20977542 0.29064408
000090 f3 d0 8c be e5 94 89 bd 7d 39 80 be b4 1b 16 bd
       -0.27503166 -0.067178525 -0.2504386 -0.036647514
0000a0 e1 77 b6 be df 9f 31 bd 19 7d 94 be 2f d5 2f be
       -0.35638335 -0.043365356 -0.29001692 -0.17171167
0000b0 54 d8 14 3e 61 d8 10 3c 9c 01 3d be 5c 31 aa bd
       0.14535648 0.008840651 -0.18457645 -0.08310196
0000c0 28 41 47 bd a5 f1 40 3e 91 09 f9 bd df 10 09 be
       -0.048646122 0.1884218 -0.12160028 -0.13385342
0000d0 fc 67 66 bd 65 3a 19 be 35 dd 3d 3d 83 c1 18 3e
       -0.05625151 -0.14963682 0.046353538 0.14917569
0000e0 d0 cf 6f 3e 55 4c ea bd 1e 03 0f 3d 36 3e 56 be
       0.23419118 -0.114403404 0.034915082 -0.20922169
0000f0 4c 75 0a 3d 97 ce 44 bd a7 be ef 3d 78 d0 2a 3d
       0.03380327 -0.048048582 0.11706286 0.041702718

hiden_layers.0.weight f4 [64, 64]
000000 f9 af a0 be 6d d4 cc 3b 96 c2 47 3e 25 b4 39 3e
       -0.31384256 0.006250909 0.19507822 0.18135126
000010 ca 99 8f be 56 1e 86 bd 65 23 18 3d e2 f7 6b be
       -0.2804702 -0.06548755 0.03714313 -0.23043779
000020 e7 42 b7 3d 7a 3f aa bd c6 70 d5 bd 41 8b 5c 3e
       0.089483075 -0.083128884 -0.104219005 0.21537496
000030 00 58 93 3d 01 32 6e 3b a7 4e 24 3e 48 09 19 be
       0.07194519 0.0036345723 0.16045628 -0.14944947
000040 4c 54 e3 bd 05 eb 94 bd 8a cd 18 3d 21 b0 16 be
       -0.11100063 -0.07271389 0.037305392 -0.14715625
000050 ae db 4f bd bb a2 bd 3d 16 c3 8a 3c 0c 53 88 be
       -0.050746612 0.09259554 0.016938727 -0.2662586
000060 75 e9 83 3a c7 81 6b 3d 6c a9 30 be 54 71 44 be
       0.0010064082 0.057496812 -0.1725213 -0.19183856
000070 08 e7 51 3c 47 e9 df bd 92 e5 18 be 61 b4 ec bd
       0.01281143 -0.10933166 -0.14931324 -0.11557842
000080 b3 15 1a be 4b bf ec bd 6c 12 60 3e cf 76 dc 3c
       -0.1504734 -0.11559924 0.21882027 0.026912121
000090 20 6e 13 3e ac 99 80 3d c0 14 94 3e 5b 77 ee 3c
       0.14397478 0.062793106 0.2892208 0.029109647
0000a0 09 61 89 3e 49 a3 b2 3c d3 07 1c 3e 58 47 0b be
       0.26831844 0.021806376 0.1523736 -0.13601434
0000b0 7e ef 52 3c d4 60 c3 bd 4b 9e 50 3d 4f 4f 69 be
       0.012874482 -0.09539953 0.05093221 -0.2278416
0000c0 43 4b 90 3e b5 92 27 be 97 e8 87 bc cd 72 de 3d
       0.2818242 -0.16364558 -0.0165904 0.1086174
0000d0 40 4f cb 3d 6d 9d a3 3c c8 c5 85 3e 9d 34 08 3e
       0.09927225 0.019972527 0.26127458 0.1330132
0000e0 bb 8a 80 be e7 20 da bd 25 49 1d be a0 9d 7e 3e
       -0.25105843 -0.10650807 -0.15359934 0.24864817
0000f0 8b 13 52 3d 39 56 2f bd 0f e2 b3 bd 41 e1 45 be
       0.05128817 -0.042806838 -0.08783352 -0.19324209
000100 20 2d 85 3b cc 19 6d be 9f ef 1e be 87 0c 37 3d
       0.004064217 -0.23154372 -0.15521096 0.04468968
000110 65 f4 88 be 9c ef 73 be 89 04 0b 3e 3f 6c 80 be
       -0.26748958 -0.23821872 0.13575949 -0.25082585
000120 30 b0 5d bd 25 0a fe be e5 e9 a0 3e 9a 2d 4f 3e
       -0.054123104 -0.49617115 0.31428447 0.2023224
000130 8b c2 11 3e 92 3b 05 3d 7f 03 d5 3c de ac 91 3e
       0.14234369 0.032527514 0.026002644 0.284522
000140 84 19 63 3c 1c af a5 3e 8a 56 82 3e a8 57 7b 3d
       0.013861064 0.3236016 0.2545665 0.061362892
000150 c6 b8 10 3e 34 19 22 be 1e 81 d5 3e c5 da 68 3e
       0.14132985 -0.15829927 0.4170007 0.22739704
000160 72 6a f3 bd 19 d2 81 bc aa 6d 41 3e 62 f3 e8 bc
       -0.11885537 -0.015847253 0.1888949 -0.028436366
000170 55 40 04 3e 36 86 b6 3d c7 69 02 be ed fc cd be
       0.12915166 0.089123175 -0.12735663 -0.4023203
000180 82 4a 49 be b2 f6 08 3e 09 b2 0e 3f 66 92 c9 3e
       -0.19657329 0.13375357 0.5574041 0.39369506
000190 ce e0 66 3e 97 42 01 bc ba 3d 6e be df 73 10 3e
       0.22546694 -0.007889411 -0.23265734 0.14106701
0001a0 36 b0 80 bd 3e fb 9d 3d c6 f5 05 bf 9a cd cf be
       -0.062836096 0.07713936 -0.52328146 -0.4058655
0001b0 85 7f 89 3e 4d 55 8e be d7 46 32 bd d1 6f 4b be
       0.26855102 -0.27799454 -0.04352459 -0.19866873
0001c0 7f bc 24 bd 76 07 c8 bd 27 f4 83 bd d9 12 0d bd
       -0.040218826 -0.09767048 -0.06443053 -0.034441803
0001d0 6d 21 cd 3c dd d4 86 be 73 9f 93 3e b7 67 b5 3d
       0.025040353 -0.26334277 0.28832588 0.08857673
0001e0 7a 63 4d be 33 3f 81 be bf 2b 47 be 17 88 dc bd
       -0.20057479 -0.2524353 -0.19450282 -0.107681446
0001f0 b4 e6 73 3e 57 18 62 3e 0e 5f 13 3e 04 e9 1f be
       0.23818475 0.22079597 0.14391729 -0.15616232
000200 0b 2e 30 3e 58 3f 07 be 1b 79 27 3e ed f4 8c bd
       0.17205064 -0.13207757 0.16354792 -0.068826534
000210 02 77 31 be 14 2a a3 3d 68 d7 4d bd 3e 5f 72 be
       -0.17330554 0.0796701 -0.050254256 -0.23669145
000220 8d db 07 3e e7 37 40 3c 38 11 f1 3c ca 20 9d 3d
       0.13267346 0.011732078 0.029427156 0.0767227
000230 a0 bf 03 3e 74 c8 25 be 0b 44 99 3e dc 6f e9 bd
       0.12866068 -0.16189748 0.29934725 -0.113982886
000240 31 c4 b1 bd 2d af 94 be 77 f5 75 3c a6 54 8c bd
       -0.08679999 -0.290399 0.015012137 -0.06852083
000250 e3 13 ea bc 8d 1c 62 be 3d 6a 2f be 69 c4 67 bd
       -0.028573936 -0.22081204 -0.1713037 -0.056583796
000260 58 ac 6e 3d 2b ee 49 be 20 e6 08 bc c6 69 a2 3e
       0.05826983 -0.1971976 -0.008355647 0.31721324
000270 33 51 ae bd 27 5d e5 bd 11 47 8d 3e 68 1f 82 3e
       -0.08511581 -0.11199408 0.27593282 0.25414586
000280 ee dc 22 be 0f ac 23 be ae 0b 21 3e c5 34 43 3e
       -0.1590459 -0.15983604 0.15727112 0.19063099
000290 d7 e5 fe bd 01 06 ce bd 38 c7 dc bc d5 5f b2 bb
       -0.12446182 -0.10059739 -0.026950464 -0.005443553
0002a0 29 db 6f be d2 87 ca bd 84 82 61 3e 49 5e 8a 3e
       -0.23423447 -0.09889187 0.22022444 0.2702506
0002b0 66 12 35 3e 8a d0 0d 3e 27 75 2a 3d da 2c 0f bd
       0.176828 0.13849083 0.04161563 -0.034954883
0002c0 17 38 db bd 41 75 d4 3d b2 1a de bd 79 ae 07 3d
       -0.10704058 0.10373927 -0.108449355 0.033125374
0002d0 e8 af 0c 3e 5a 25 64 3d 91 44 20 be 67 ac 83 3c
       0.13738978 0.055699684 -0.15651156 0.016073419
0002e0 17 f3 63 be bf 0c 3b 3e 10 b2 72 be d8 bd 57 be
       -0.222607 0.18266581 -0.23700738 -0.21068513
0002f0 0c c7 6d 3e 06 6c 48 be c6 04 19 be 84 6c 05 3e
       0.23220462 -0.19572458 -0.14943227 0.13029677
000300 cd e6 2a 3e d3 69 c8 bd 27 38 c0 3b 77 40 c2 bd
       0.16689606 -0.09785809 0.005866069 -0.09484952
000310 1e b4 e0 3d ca 13 05 3d 58 83 e5 3c de 8c 0d be
       0.109718546 0.032489575 0.028016731 -0.13823268
000320 a1 b1 61 be ee b6 7c be f5 2b ab 3d 0b 0a 02 3e
       -0.22040416 -0.24679157 0.083579935 0.12699144
000330 21 d3 ea bd 00 f6 35 be 2a c6 a4 3c b3 3c 97 bd
       -0.11466051 -0.17769623 0.020114023 -0.07384624
000340 d2 0f 62 bd 21 5e 6f 3e f7 f0 81 3e cc 86 dd bd
       -0.05519087 0.23375751 0.25379154 -0.10816726
000350 72 65 98 3e 97 42 82 bc 32 c1 18 be 05 2d ea bd
       0.29764897 -0.015900893 -0.14917448 -0.11434368
000360 94 24 f3 3d 93 4f 6f 3d 83 40 c5 bc ed e9 2b be
       0.11872211 0.058425497 -0.024078613 -0.16788454
000370 ca 30 34 bd 8c 44 14 be a2 66 3b be 54 ff cd bc
       -0.04399184 -0.14479274 -0.1830087 -0.025146164
000380 4a 42 26 be 44 0f d5 3d 12 1f b3 bd f6 4f 01 3d
       -0.16236225 0.10403302 -0.087461606 0.031570397
000390 0b e6 54 3d d1 a3 88 be d7 5b 13 3d 04 b0 3b bd
       0.0519772 -0.26687482 0.035976257 -0.04582216
0003a0 f3 1b e6 bd a5 88 f2 3c ca de 1c 3d 27 9d dc 3d
       -0.112358 0.029606173 0.038298406 0.10772162
0003b0 18 56 a9 3d f7 40 be bb db 1d c7 bb 82 c5 f2 3d
       0.08268374 -0.0058060843 -0.006076557 0.11854078
0003c0 7a 55 90 3d 81 77 c7 bd 4e 99 2f 3e 33 86 b2 bd
       0.07047553 -0.097395904 0.17148325 -0.08717003
0003d0 64 33 4b be 5e 56 43 3c 82 e6 6c 3e 76 55 e0 3d
       -0.19843823 0.011922447 0.23134807 0.109538004
0003e0 31 da 17 be 08 64 0a be d9 10 72 bd 49 ab 63 3e
       -0.14829327 -0.13514721 -0.0590981 0.22233309
0003f0 7a 07 98 bd 7a 5d 22 be 3a 18 5b bb 39 c8 6b bd
       -0.07423301 -0.15855971 -0.0033431188 -0.057563994

hiden_layers.0.bias f4 [64]
000000 66 d1 c4 bd 53 57 1b 3e 2d 0c 4a bd 0a ba bc bc
       -0.09610252 0.1517003 -0.049328018 -0.02303793
000010 b6 aa 14 3d 6e 60 d6 3c 89 98 8d 3d bd 0f 23 bd
       0.036295615 0.026169028 0.069138594 -0.03980993
000020 b9 fc 96 3c b7 83 24 bd d2 49 44 be 4e 2b af 3d
       0.018431054 -0.040164676 -0.19168785 0.085531816
000030 22 2e 2b 3e 62 09 b3 bc 50 e5 bc 3c 2f 58 a3 3d
       0.16716817 -0.02185506 0.023058563 0.07975804
000040 7e 60 a0 bd ab 6a 29 bd 71 d8 a2 3d 4a 1b d3 bd
       -0.078309044 -0.041361492 0.07951439 -0.10307939
000050 ad 1f 5e be 46 42 4f 3d 9d 07 3b bb 19 30 53 bc
       -0.21691771 0.050600313 -0.0028538473 -0.012889885
000060 fa 18 77 3d c1 4a 82 3d 63 e4 42 be 48 20 0e be
       0.060326554 0.063619144 -0.19032435 -0.13879502
000070 9a c4 e3 3d b1 3f 7c 3c 43 88 11 3d af a0 b8 3d
       0.11121483 0.015396045 0.03553034 0.09015023
000080 bf 30 47 3d 49 28 4b bd 45 d4 2b be 61 1e 43 bd
       0.048630472 -0.049598966 -0.16780193 -0.047636393
000090 03 e5 cc bd 4c a0 61 3d cc e8 23 be e3 24 73 be
       -0.10004618 0.05508451 -0.16006774 -0.2374454
0000a0 74 1b 4f be a7 b7 f0 bd 82 bb cd 3d 2f 67 d8 bd
       -0.20225316 -0.11753779 0.1004553 -0.10566556
0000b0 62 c6 89 3c f6 82 0a 3e ec 63 57 bd a5 9c 3a 3c
       0.01681823 0.1352652 -0.052585527 0.011389886
0000c0 29 e7 f1 3c 58 22 d6 bd 8a 45 c9 3d e7 c4 7d 3d
       0.029529171 -0.10455769 0.09827717 0.06195536
0000d0 6c 06 84 3c 8b 96 a1 bd 9b 87 48 3d 68 cb a7 3d
       0.016116343 -0.07890042 0.04895745 0.081930935
0000e0 cd f1 c0 bd 58 9b c8 be 2e 4e 4d be 43 af 58 be
       -0.0942112 -0.39181018 -0.20049354 -0.21160607
0000f0 ff 6e 2b bf 4b cc a8 3d e1 70 a2 bd 7e 0e 3a bc
       -0.6696624 0.08242091 -0.07931686 -0.011355994

hiden_layers.1.weight f4 [64, 64]
000000 f5 54 c0 bb b6 1a 1f 3d 84 03 67 be fb e3 58 3d
       -0.0058695027 0.038843833 -0.22559935 0.052951794
000010 cc e5 61 be 6b 03 63 3e 1d 91 e5 bd b9 8c bd bd
       -0.22060317 0.22169273 -0.11209319 -0.09255356
000020 2e fa aa 3c 15 7a a6 3d 4a 2d 41 3b 2f 00 1b be
       0.020871248 0.08128754 0.0029476457 -0.15136789
000030 b0 be cd 3d e4 51 37 3d 49 33 e6 ba b5 48 35 3b
       0.100461364 0.04475583 -0.0017562892 0.0027661745
000040 29 08 46 3d 63 aa 4b 3e 7c 02 09 3e 62 51 54 3e
       0.048347626 0.19889216 0.13379854 0.2073417
000050 3b 6a 8d 3e 83 1b e9 bd 4c 49 ea 3c dd bb ec bd
       0.2762011 -0.113822006 0.028599404 -0.115592696
000060 53 59 57 bd ec 70 5c be c9 92 b1 3b e0 1d 6b 3e
       -0.05257542 -0.21527451 0.0054191095 0.22960615
000070 72 2f 64 3d e6 ad 8a bd bf 47 fb bd 39 2f dd 3d
       0.05570931 -0.0677145 -0.12269544 0.10800023
000080 41 9a 42 be 8e fb 61 3e d6 b9 37 be 90 d9 25 be
       -0.19004156 0.22068617 -0.17941985 -0.16196275
000090 1d cd ca bd 62 6c 89 3d 57 bd 81 bd 36 6e 89 3d
       -0.099024035 0.067101255 -0.06334942 0.06710474
0000a0 ae ee 69 3e a4 b4 0a 3e a1 f6 52 be 01 e9 30 3e
       0.22844955 0.13545471 -0.20601894 0.17276384
0000b0 5d 2f 79 3e d4 01 4a bc e8 32 04 3e 5b 52 90 be
       0.24334474 -0.012329537 0.12910044 -0.28187832
0000c0 a9 5e 6d bd 1b ad 29 be 4d ba 13 bd 5e 76 29 3e
       -0.057951603 -0.16569941 -0.036066342 0.1654906
0000d0 1f ad c7 bd b6 79 21 bc d2 97 e2 bc 0e 8f 24 be
       -0.09749817 -0.009855678 -0.027660284 -0.16070196
0000e0 4a e5 5a 3e d4 bf 6a be a7 a2 5a be 6f 87 19 3e
       0.2137653 -0.22924739 -0.2135111 0.1499307
0000f0 46 13 2b 3d 73 7c 10 bc d9 64 36 3d 66 1b db bd
       0.041766427 -0.0088187335 0.04452977 -0.10698585
000100 0e ef 60 3d b8 99 a5 3e d8 41 74 be 12 6c 27 3e
       0.05491548 0.3234384 -0.23853242 0.1634982
000110 23 f8 73 bd e3 3a 21 3d a1 3b f6 bd cf da 60 bd
       -0.059562813 0.0393628 -0.12023092 -0.054896172
000120 4c a7 03 3e ad d9 38 be 7b f4 1e 3e 1c 02 2a 3e
       0.12856787 -0.18051787 0.1552295 0.16602367
000130 9d 28 a5 3e b6 6c 3d bd f4 b8 a2 bd 72 00 57 3d
       0.32257548 -0.046246253 -0.07945433 0.05249066
000140 a3 d9 9f 3c e8 78 9a bd 8b 62 0f 3e 9c 36 bb bb
       0.019512957 -0.07542592 0.14002435 -0.005713297
000150 c8 f7 8d be 19 03 7f 3e 92 1a 09 be 77 1f 9e 3d
       -0.27728105 0.24903525 -0.13389042 0.07720845
000160 79 53 63 3d 63 fd 0b 3e c3 88 24 bf c7 61 93 be
       0.055499528 0.13670878 -0.6427118 -0.28785536
000170 b4 27 89 3d 59 1d 0c bd 00 fa b4 bd 57 5d 12 3e
       0.06697026 -0.034207676 -0.08836746 0.14293419
000180 68 9a 27 3e cb a6 e6 3d 2b 55 fa be bd 56 48 be
       0.16367495 0.11262282 -0.48893103 -0.19564338
000190 fe 97 b2 be 4d f2 9f 3c 88 ff 89 be fe a5 73 be
       -0.34881586 0.019524718 -0.26952767 -0.2379379
0001a0 a5 53 a5 be 7b 02 91 be 66 bb 30 3d 17 3f 79 be
       -0.32290378 -0.28322205 0.043147467 -0.24340473
0001b0 a4 65 8d 3e ba 2a f9 3d 64 32 09 3d a6 00 9d bd
       0.27616608 0.121663526 0.033495322 -0.07666139
0001c0 5b 1f e7 3e cd 99 ab 3a 78 42 db bd 5a bd ff 3b
       0.4514111 0.0013092101 -0.10706037 0.007804555
0001d0 d2 58 de bb 86 d3 ba bc 1a af 3d 3e a7 15 94 bd
       -0.0067854906 -0.02280594 0.18523827 -0.07230692
0001e0 1e 64 19 bd 1d ca 1e 3e d8 b9 b1 be 09 80 09 3e
       -0.037448995 0.15506788 -0.347121 0.13427748
0001f0 d0 42 5b bb 58 d2 ff 3c 57 f7 aa 3c 94 24 17 3e
       -0.0033456571 0.03122823 0.020869894 0.14760047
000200 d1 41 1f 3d b2 f0 51 3e dc dd 49 bc 5e c3 d4 3c
       0.038881127 0.20501974 -0.012320962 0.025972065
000210 4a 9c 55 3e a6 2f 8c 3e 4d 67 1d be 1d d6 81 3e
       0.20860401 0.27380103 -0.15371437 0.25358668
000220 92 02 9f 3e ce 4b da 3b 5e c9 8c be e1 bc 78 bc
       0.31056648 0.0066618687 -0.2749738 -0.015181751
000230 0a f5 a1 3c ac 76 01 be fc eb 5e 3e 00 8a ff 3d
       0.019770164 -0.12642926 0.21769708 0.12477493
000240 9f df f5 bd 70 63 14 bd e1 0f 5a 3d dd bc 80 bd
       -0.12005543 -0.036227643 0.0532378 -0.06286023
000250 15 f1 e6 3c 9c 12 6b be 0e d4 53 be a1 3a d0 bd
       0.028191129 -0.22956318 -0.20686361 -0.101674326
000260 16 c0 7f bd ea 87 49 3e e6 14 85 be 1d 64 d6 bc
       -0.062439047 0.19680753 -0.25992507 -0.026170785
000270 52 f7 43 3e 42 c5 a8 3c d3 c6 0d 3e 4b ff 4b 3e
       0.19137314 0.020601872 0.13845377 0.19921605
000280 81 c8 21 bc 6a f0 38 be 4e 97 a6 bd 8e 0c ab bd
       -0.009874464 -0.1806046 -0.08134328 -0.08352004
000290 fb f7 dc 3c 63 45 87 be 42 06 5a bd f8 24 8d be
       0.026973715 -0.26420125 -0.053228624 -0.27567267
0002a0 0e 52 98 be ad 93 96 be a3 ea 53 be 85 98 5e bd
       -0.29750103 -0.29409543 -0.20694976 -0.054344673
0002b0 95 bd a5 3c fb ba 91 3d db 1c aa bd 8c 8b 4c 3d
       0.020232001 0.07115742 -0.08306285 0.04993777
0002c0 a3 ed 98 bc 81 55 02 3c 1a b8 18 bd 0b 6c a4 be
       -0.018668002 0.007954956 -0.037284948 -0.3211368
0002d0 d6 fa 90 bd 31 e1 77 be cd 57 40 3e 26 e6 d4 bc
       -0.07079093 -0.24206997 0.18783493 -0.02598865
0002e0 71 bb 20 be db 66 31 3e 33 c2 a4 bd 0f 47 a0 bd
       -0.15696503 0.17324392 -0.08044853 -0.07826053
0002f0 dd cc c0 bb 6a a2 4c 3e 8f e0 d1 3c 8e dd 59 3e
       -0.0058837966 0.19983831 0.025619773 0.21275923
000300 82 34 3b 3e 4a 0d a4 bb 44 7a 84 be 32 6e 59 3e
       0.18281749 -0.005006467 -0.2587453 0.21233442
000310 f0 b5 ba 3e eb e1 35 be bf 93 59 bd 90 40 5d be
       0.36466932 -0.17761962 -0.053119417 -0.2160666
000320 d1 fb 44 bd a3 8d 04 be b0 51 da bd 9f cc 3f 3e
       -0.048091713 -0.12944655 -0.10660112 0.187304
000330 18 0b 99 3e f6 a7 6c 3e f6 d7 7c bd 4c 02 18 3e
       0.29891276 0.23110947 -0.061729394 0.14844626
000340 ff 8b 03 3c 1c 84 da bd f8 d9 23 3e 83 0a 2d 3e
       0.008028983 -0.10669729 0.16001117 0.16898541
000350 3a a8 07 bd 72 45 3c be 0c 8a 91 3d d7 8e b6 3d
       -0.033119418 -0.18385866 0.071064085 0.08913963
000360 73 86 a4 3e 37 1f 71 3d 1c 30 24 bd 67 79 e6 bd
       0.32133827 0.05886766 -0.040084943 -0.112536244
000370 2e c6 6d 3e a6 0a 73 3e 8c 53 d9 3d c9 cd 23 3e
       0.23220131 0.23734531 0.106116384 0.1599647
000380 04 6c 67 3e 0d af a7 be 05 c7 2e be b0 1b 13 3c
       0.22599798 -0.3275074 -0.17068107 0.008978769
000390 c7 0b b2 3c 0b 2e 11 3e 71 3d f1 3d ee ca 0e 3e
       0.021734132 0.1417772 0.11779297 0.13944599
0003a0 48 b6 e7 3d 28 94 54 bd 7e 6b 1b 3e ed 6d a6 3d
       0.11314064 -0.051899105 0.15177724 0.081264354
0003b0 f7 22 d0 bd b1 77 08 be ca b7 95 be 6b d0 f8 bd
       -0.10162919 -0.13326909 -0.29241782 -0.121491276
0003c0 9a ce 25 3c d8 16 bc 3d 9f bb 72 3d 3e 9c 4b 3e
       0.010120058 0.091840446 0.05926096 0.1988382
0003d0 cd 5f 06 3e 71 a9 19 bc 93 0d 98 be ff 71 6e bd
       0.13122483 -0.009378777 -0.29697856 -0.058214184
0003e0 9d 13 5a be a3 02 02 be fe ab bd 3d db 2c 7b 3d
       -0.21296544 -0.12696318 0.092613205 0.061322074
0003f0 d4 70 93 be ec 3a 1f 3e ac 2f b3 3d 0a d4 54 be
       -0.2879702 0.1554982 0.08749327 -0.20784011

hiden_layers.1.bias f4 [64]
000000 2a 36 84 3a df 70 54 3d 56 b8 eb 3b f0 c2 b7 3d
       0.0010086943 0.051865455 0.0071936054 0.08972728
000010 e0 b1 31 bd 38 cf 8a 3d 58 fa e7 bc 73 4b 07 bd
       -0.043382525 0.06777805 -0.028317615 -0.03303094
000020 7f 41 b4 bc fc 36 32 3a 5d e5 b5 bc 62 17 b7 bd
       -0.022003887 0.00067983544 -0.022204095 -0.08940007
000030 73 ee 41 3d 05 2a 10 3d 48 8b f1 bc 42 91 59 bd
       0.047346544 0.035196323 -0.02948536 -0.053117044
000040 c6 f6 f6 bb 23 de 9a bd 47 cc b2 bb 89 9f bf bc
       -0.007536742 -0.075619005 -0.0054564807 -0.023391502
000050 dd 40 18 3b df 34 83 3e 70 1b 1e 3d ed 5f 0f 3d
       0.002323202 0.25626275 0.038600385 0.03500359
000060 e1 77 70 3b 9b 1f e9 bb 96 71 8e 3d 3c 4e d4 3c
       0.0036692547 -0.0071143634 0.069552585 0.025916211
000070 7f 3a 50 bd c1 ed 61 3c b0 95 d6 bd 76 11 27 be
       -0.050837036 0.013789595 -0.104777694 -0.16315255
000080 3c 31 8b bd b5 c2 9f bd 1c ea 5c 3d bd a6 29 bc
       -0.067965 -0.07800809 0.0539342 -0.010354695
000090 5c c4 e2 3d 4b 83 7d be 32 ef a7 bd 7a 33 42 3e
       0.11072609 -0.24757116 -0.0819992 0.18964949
0000a0 2c f5 ca 3d 7f fa 74 bd 34 3a b6 bb 14 f5 a9 bc
       0.09910044 -0.059809204 -0.0055611376 -0.020746745
0000b0 f2 10 bd 3d 26 cc fe bd ec 22 a2 bd 37 0d 54 3d
       0.09231748 -0.12441282 -0.07916817 0.051770415
0000c0 8c 5b 47 bd 5f b1 63 bd b9 eb 11 3b bf 54 ca 3d
       -0.04867129 -0.055589076 0.0022265746 0.09879445
0000d0 82 e5 aa bc f6 7b 0d bd 8a 17 0d be 92 20 f7 bc
       -0.020861391 -0.034542046 -0.1377851 -0.030166898
0000e0 96 a0 c4 3d 4a c0 1f be 7f 0d 5a bc d5 1f 46 3e
       0.09600942 -0.15600696 -0.013308882 0.1934808
0000f0 1e 7b 0d 3e 06 53 71 bd d1 ac 1d 3d 8e 39 c0 bd
       0.13816497 -0.058917068 0.03849489 -0.09385978

hiden_layers.2.weight f4 [64, 64]
000000 d6 0e c5 bd 72 a3 b9 be d0 fe f9 3c 60 2c ed bd
       -0.0962197 -0.3625751 0.030517012 -0.115807295
000010 75 fc b4 3d 29 ef d2 be f0 19 40 be cb 67 1b be
       0.08837215 -0.4119809 -0.18759894 -0.15176313
000020 69 9a e2 be d8 08 c1 bd 4b 1d 00 bc 4e ea b1 bd
       -0.4425843 -0.09425515 -0.007819484 -0.08687268
000030 49 d2 fc bd 3a 03 92 3e ca d9 04 be 3e 40 79 3d
       -0.12344796 0.28518087 -0.12973705 0.06085228
000040 90 8e b0 3d 3b 8a ad bd 53 43 c5 bb 5d 21 72 be
       0.08620942 -0.08473631 -0.0060199886 -0.2364554
000050 0d 27 d7 3c b6 66 c7 3d 4e 57 97 3c b6 3b 55 3c
       0.026263738 0.097363874 0.018474247 0.0130147245
000060 8d a8 3b bd 3d d6 71 be 93 b5 0a be 4d 18 5e 3d
       -0.04581504 -0.23616882 -0.13545828 0.054222394
000070 85 4c 73 3d 39 a2 9e bd 9d ab 16 3e 5f 7e 14 3e
       0.059399147 -0.07745785 0.14713903 0.14501332
000080 c0 0c 1f be 72 b3 6b 3e e2 9d 99 bd 0d 27 26 be
       -0.15532207 0.23017672 -0.07500817 -0.16225834
000090 a0 35 9c 3e ef a6 75 3e d7 dc a2 3e 94 f5 8d 3e
       0.30509663 0.23989461 0.31809112 0.27726424
0000a0 b4 22 96 be 79 c7 3e 3d ce 4d a0 3d e9 88 b8 bd
       -0.2932335 0.04657695 0.0782734 -0.090104885
0000b0 42 f4 a8 3d 6f ec 95 be e3 f0 2a bc 1d 28 ef 3d
       0.082497135 -0.29281947 -0.010433408 0.11677573
0000c0 53 c1 84 3c 40 64 e1 3c b6 83 df bd 9c 16 87 be
       0.016205465 0.027513623 -0.10913794 -0.26384437
0000d0 c2 f3 5c bd 0c 5b 47 3e 7c f7 94 3e 15 6f 55 3e
       -0.053943403 0.19468325 0.29095066 0.20843156
0000e0 ad f0 3e bd 39 a8 6d 3e 60 d2 73 bc 68 fb 9e bd
       -0.046616245 0.23208703 -0.0148817 -0.07762796
0000f0 aa 60 6b bd 4d 4c c7 3d ff 39 0d 3e 2b b0 c0 3e
       -0.057465233 0.0973135 0.13791655 0.37634405
000100 55 d6 36 3e 5b c8 ab 3d b2 58 e5 3d d2 80 de 3d
       0.17855199 0.08387824 0.11198558 0.10864414
000110 ce cc 64 3e c7 7d 60 3e 1e 55 a1 3d 9a 7c 9f 3e
       0.22343752 0.2192298 0.07877563 0.3114975
000120 8b 43 42 3e 28 40 85 3e c2 c2 9c 3e 9d 9e 05 3e
       0.18971078 0.2602551 0.30617338 0.13048787
000130 97 3a 90 bd 1c 01 ee bd 57 a0 47 bd 82 93 8d 3d
       -0.07042425 -0.11621305 -0.048736896 0.069129005
000140 78 52 1b be f6 69 56 3c 06 58 7f be 3e 27 0a be
       -0.15168178 0.0130867865 -0.24935922 -0.13491532
000150 68 dc 14 bd 57 8f 04 be af 62 83 3d cc bb 8c be
       -0.03634301 -0.12945305 0.06415307 -0.27487028
000160 a1 b5 be be 86 71 7c bb 5c 75 85 3e 03 8f 09 bd
       -0.37247947 -0.0038519814 0.260661 -0.033583652
000170 32 bb 56 be 42 66 99 3d 80 27 10 bc 0b cf d5 3c
       -0.20969847 0.07490207 -0.00879848 0.026099702
000180 3e 35 8f 3d c8 d2 06 3e ad 17 b2 bc de 7b c5 3d
       0.06992577 0.13166344 -0.021739805 0.096427664
000190 14 d5 9c 3e f0 4d c4 3d 29 38 28 bc 90 4a 6e be
       0.30631316 0.09585178 -0.010267296 -0.23270631
0001a0 54 41 b9 bd 31 68 26 be 93 9b 74 3d 7b 0e d4 3d
       -0.090456635 -0.16250683 0.05971868 0.103543244
0001b0 e9 88 bc 3d 62 18 8b be eb d5 33 be dc 1a 53 3e
       0.09205801 -0.2716704 -0.17562072 0.20615715
0001c0 32 b2 a4 bd f4 99 9f 3e d2 0a a1 bd 77 ff d4 bd
       -0.080418006 0.31172144 -0.07863392 -0.104002886
0001d0 07 31 34 be 0a df 0f 3e 04 da 53 bc bc 0c 9f be
       -0.17596827 0.14049926 -0.012930397 -0.31064403
0001e0 db f5 9d 3e 46 c0 61 bb b7 77 76 3d ed 93 f4 3d
       0.30851635 -0.003444688 0.060172763 0.11942277
0001f0 88 29 c9 3d 68 d9 6c 3e 6d d9 e3 3d 41 87 9f be
       0.098223746 0.23129809 0.11125455 -0.31157878
000200 c4 53 13 3e 03 3c 43 bf fd 1f ec be 80 b7 8b bd
       0.14387423 -0.76263446 -0.46118155 -0.06822109
000210 42 78 3a 3e e1 ab 7d be 54 36 60 3e 0f 25 11 be
       0.18209937 -0.24772598 0.21895725 -0.14174293
000220 a5 0d 2d 3e d0 b9 29 3e d3 02 40 bd 82 b9 21 3e
       0.16899736 0.16574788 -0.046877693 0.15793422
000230 c9 5d f2 be ea eb 6f 3e 14 6c 54 be 1b 83 88 3e
       -0.47337177 0.23429838 -0.20744354 0.26662526
000240 4c 16 ca bd 84 81 e5 bd 70 5b a9 3e 99 33 a7 be
       -0.09867534 -0.11206344 0.33077574 -0.32656553
000250 20 2b 7e bd 8a a2 26 be 4c dc c6 3d f6 ac bb be
       -0.062052846 -0.16272941 0.09709987 -0.36655396
000260 22 3d 72 be 79 6a 0b be 8a 01 28 3d 29 ab 36 be
       -0.23656133 -0.13614835 0.041017093 -0.1783873
000270 9c 1e ed 3d 60 de a2 3e 05 bb d4 3d fe ae 02 3f
       0.11578104 0.31810284 0.10387234 0.51048267
000280 33 3a 20 bd c2 72 70 3e 22 9e e8 bd 56 5b c3 3d
       -0.039118003 0.23481277 -0.113582864 0.09538905
000290 4e 9a f3 3e 63 e3 a1 3d fc 71 1a 3e a9 d1 c6 3e
       0.47578663 0.07904699 0.15082544 0.38831833
0002a0 20 75 53 3e 53 6a 80 3c 4a 85 08 be 1b 75 a5 be
       0.20650148 0.0156757 -0.13332096 -0.32315907
0002b0 43 4a cc 3d 15 69 0c 3e 88 06 88 bd db 22 ed bd
       0.09975102 0.1371196 -0.06641871 -0.11578914
0002c0 14 9f 5c 3e fe 6b aa bd 0c e3 04 bc 0b 0d b2 3d
       0.21545058 -0.08321379 -0.008110773 0.08693894
0002d0 b9 46 a7 be b4 1a f4 bc a6 fb 42 3f 63 d5 24 be
       -0.32671145 -0.02979789 0.76165235 -0.16097026
0002e0 c9 fa 39 be 3d 50 e4 3d 38 2f aa be cb e0 69 be
       -0.18162073 0.11148117 -0.3323915 -0.22839658
0002f0 15 b0 94 3c c4 f1 9f bd d8 c1 87 3e 84 58 2f 3f
       0.018150369 -0.07809785 0.2651508 0.6849444
000300 9f 3d 24 3d 25 f6 63 be d9 f7 05 be 1b ca 56 3e
       0.04009783 -0.22261865 -0.13082828 0.20975535
000310 03 69 61 be 8b fa 0b be f4 00 53 3d 9b 1d ba bd
       -0.22012715 -0.13669793 0.05151458 -0.09087678
000320 7f 10 cf 3d 4c bf 78 3e 4a de 52 3d 02 4b a0 bd
       0.10110568 0.24291724 0.051481523 -0.078268066
000330 39 69 08 bc c8 20 58 3d 81 f5 d9 bd 9d c8 75 bd
       -0.008325868 0.052765638 -0.10642529 -0.060005773
000340 28 98 43 3e 84 30 d5 bd 70 0a 40 bd 62 63 80 3d
       0.19101012 -0.10409644 -0.046884954 0.06268956
000350 6f b9 c2 be 10 18 27 be f3 ba 01 bc ed 0a c1 bd
       -0.380321 -0.16317773 -0.007918107 -0.09425912
000360 c8 7b 20 be c7 8f 65 bd c1 f5 68 3d 96 82 d0 bd
       -0.15672219 -0.05604532 0.056874994 -0.10181157
000370 27 d9 5f be e9 57 be 3e a3 21 f6 3d d1 e5 60 be
       -0.21860181 0.37176445 0.120181344 -0.21962668
000380 08 f2 3b be 04 d1 c3 bd bd 14 80 3e 85 f1 2d 3e
       -0.18354046 -0.09561351 0.25015822 0.16986664
000390 c0 95 2f bd af fa 4b 3e ca 8e 4c 3d aa 72 68 be
       -0.042867422 0.19919847 0.04994086 -0.22699991
0003a0 16 44 b5 3e c0 d8 d8 be 81 ba 0f 3e 05 35 be bc
       0.35403508 -0.42352867 0.1403599 -0.023218641
0003b0 3a 28 d5 3d 52 96 be bc 1d 09 20 be 1b be 20 3d
       0.10408063 -0.023265038 -0.15628476 0.0392438
0003c0 fe 91 aa bc 2c cf 06 3b 2f 5f 9c 3e dc d2 86 be
       -0.020821568 0.0020570261 0.3054137 -0.26332748
0003d0 47 d5 0a be fb f5 f0 be 5a 0c da 3d 25 43 96 bd
       -0.13557921 -0.47062668 0.10646887 -0.073370256
0003e0 d7 20 8a 3e 80 7c be bd 2c b3 74 bd 1b 07 53 3e
       0.2697818 -0.0930109 -0.059741184 0.2060818
0003f0 05 3d 5c 3e c3 9d 75 be 97 8c 37 3e f7 9a 2f bc
       0.21507652 -0.23985963 0.17924725 -0.010718099

hiden_layers.2.bias f4 [64]
000000 95 52 c9 bc 6a 9e 9b bd a1 5a 1c 3c 7d 45 f8 b8
       -0.024575511 -0.075985745 0.009543092 -0.00011838505
000010 fe f1 fc bc ce 1e 46 be 94 99 f9 3d 61 59 69 ba
       -0.03087711 -0.19347689 0.12187496 -0.0008901563
000020 0a 49 21 3c 1e 3e 09 be 5f a3 a6 bc a4 80 78 bd
       0.009844074 -0.13402602 -0.020341573 -0.060669556
000030 3a 21 de bb dd a6 68 3c 74 4b 2c 3d ed 7e e4 bc
       -0.0067788633 0.01419994 0.042064145 -0.027892554
000040 7e ba f3 bc 3c 71 32 be 45 a4 d4 3d eb d0 11 bd
       -0.029752012 -0.17426008 0.103828944 -0.03559963
000050 68 49 83 bd da 26 d1 bd e7 d5 1e 3d 4b 0f 4d 3d
       -0.064104855 -0.102124885 0.038778212 0.050063413
000060 48 72 1e 3d 77 e7 c6 bc 77 21 2f b8 c3 04 e6 3c
       0.038683206 -0.024280293 -4.1754418e-05 0.028078442
000070 4c 2c 91 bd 7d 4d 2b 3c 5a 6b 16 bd b5 c8 be bc
       -0.07088527 0.010455486 -0.036723472 -0.023289064
000080 75 56 7a bc cd db d5 bc 4a 2b 37 bd 53 0b 40 3c
       -0.015279402 -0.026105786 -0.044719018 0.01172145
000090 d3 24 2b 3d 58 fb 8a 3b a3 ad db 3c 63 5b d5 3d
       0.041783165 0.0042413883 0.026816195 0.10417821
0000a0 91 6b 91 3d 54 cf 3c bd c2 6b 8f 3d a8 68 35 3c
       0.07100595 -0.04609616 0.07002975 0.011072315
0000b0 02 1a 50 3d cc 70 8c 3c 47 68 b7 bd 6e b0 0b bd
       0.050806053 0.01714363 -0.08955436 -0.034103803
0000c0 f2 52 5b bd 0c ab 0a be 9f de 9f 3c bd 34 94 bd
       -0.0535459 -0.13541812 0.019515334 -0.072366215
0000d0 c6 a6 ba bc 60 eb 0c 3b f3 10 48 bc 2d bf 71 bd
       -0.022784602 0.00215026 -0.012211072 -0.05902021
0000e0 fb 76 02 bd 24 0a d2 bc a4 f1 33 3d 3a ba e8 bd
       -0.03185175 -0.025639601 0.04393162 -0.11363645
0000f0 34 f2 2d be 25 06 c4 3b 3e 1c 89 3c c5 95 3c 3c
       -0.16986924 0.005982178 0.0167371 0.011510317

hiden_layers.3.weight f4 [64, 64]
000000 28 df c6 bd 1e 30 80 3e 29 e0 52 3d f7 d2 72 be
       -0.097105324 0.2503671 0.051483307 -0.23713289
000010 0e db 09 be 27 86 3c 3e cc f5 81 be 5a 9d 4e be
       -0.13462469 0.1841055 -0.2538284 -0.20177212
000020 2f f8 89 3d 51 10 e8 3d d5 09 af 3c 62 e2 54 be
       0.067367904 0.11331237 0.021366993 -0.20789483
000030 7b 5c 1e 3e 88 39 1e be 30 44 c7 3e 4c 3d 30 3d
       0.15464966 -0.15451634 0.3891921 0.043027207
000040 92 cf f9 bd 29 19 db bd 9d 83 65 3e b1 7f c6 be
       -0.12197794 -0.10698158 0.22413488 -0.38769296
000050 01 c6 90 3e 4d bd d8 be 41 b3 0b 3e 84 c0 85 3e
       0.28276065 -0.42331925 0.13642599 0.2612344
000060 f0 b2 ed 3c 47 9d be 3d be f8 f7 bd 90 81 f5 be
       0.029015988 0.09307342 -0.12107991 -0.4795041
000070 25 f7 d4 3d 45 75 58 3e 19 eb ae 3d 04 d8 84 3e
       0.103987016 0.21138485 0.08540935 0.25946057
000080 ad b4 67 3e b3 50 78 3d 4b 8b b5 bd 30 0d fb 3d
       0.22627516 0.060623836 -0.08864459 0.12258375
000090 25 4f c9 3c 22 cb 70 3d f1 20 34 be 6f b2 0d be
       0.024573872 0.058787473 -0.17590691 -0.13837598
0000a0 f0 e3 d6 3c 43 68 50 3e f4 7d 70 be 9e d6 13 be
       0.026231736 0.20352273 -0.23485547 -0.14437339
0000b0 a4 e7 a5 bc bb 60 82 3e 3b 4c 0a 3c 46 ce e8 bc
       -0.020252056 0.25464424 0.008441026 -0.028418671
0000c0 7e 8f c9 3e 03 0a a9 be 75 0b 6d be 59 a8 be be
       0.39367288 -0.3301545 -0.23148902 -0.37237814
0000d0 cb f5 b9 3e 4d f8 4c 3e 87 de a6 3e a0 5e 30 be
       0.36320338 0.20016594 0.3259165 -0.17223597
0000e0 e3 68 b5 3d 79 30 86 3d 00 2e 49 bd f6 92 30 3e
       0.08857896 0.06552214 -0.049116135 0.17243561
0000f0 41 f7 6d 3d b4 dc 82 3e 3a 2c ef 3c 1c db 70 3e
       0.058097128 0.25559008 0.029195894 0.23521084
000100 a4 3b b8 be 7e 03 ff 3c 28 0f 9d bd e2 0e 84 3c
       -0.35983002 0.031129595 -0.076689065 0.016120378
000110 4c 2f 0b 3d ed 46 8f 3e a1 c4 6e be 4f 25 ad 3d
       0.033980653 0.279838 -0.23317195 0.08454382
000120 6d 59 94 be 35 8b 7d be 6e d0 57 3e c2 96 d2 3d
       -0.28974476 -0.24760135 0.21075603 0.10282661
000130 9c 14 57 bd 02 90 a6 bb e0 f5 61 3e 13 d9 8e 3e
       -0.05250989 -0.005083085 0.2206645 0.2789999
000140 21 cd f3 3d 7d 44 27 be c6 58 56 3e f9 bf 5f 3e
       0.119043596 -0.1633472 0.20932302 0.21850576
000150 01 83 89 3c 31 57 a0 3b 9e f5 03 be 00 b6 34 3e
       0.0167861 0.0048932065 -0.12886664 0.17647552
000160 79 43 43 be 44 f6 6c 3e fb df ba 3d 0a 6f 42 be
       -0.19068708 0.23140818 0.09124752 -0.1898767
000170 f1 5d c4 3d e9 3a 04 3f e1 d2 77 be 46 68 2d 3e
       0.095882304 0.5165239 -0.24201538 0.16934308
000180 1e 41 79 3e 60 45 5a bd 28 6f 6e 3e e4 f8 be bd
       0.24341246 -0.053288817 0.2328459 -0.09324816
000190 1a e4 cb bd 7d b8 49 be af a3 9f be 78 59 e6 3d
       -0.09955616 -0.19699283 -0.31179568 0.112475336
0001a0 20 b8 99 3c 06 80 61 be 75 a5 00 3e 03 ac e6 3d
       0.018764555 -0.22021493 0.12563117 0.112632774
0001b0 dd ef 5c bd 8a a4 95 3d 19 bd 70 3e e5 01 10 be
       -0.05393969 0.07306774 0.23509635 -0.14063223
0001c0 22 52 18 3d 84 8b d8 bd e5 42 7d be 2d d0 3f 3e
       0.037187703 -0.105734855 -0.2473255 0.18731757
0001d0 3b 29 19 bd f8 6c 6d bd cb 57 1f bd 72 c8 16 3e
       -0.037392836 -0.05796525 -0.038902085 0.14724901
0001e0 62 17 86 3e 1e 30 9f bb 6a a7 30 3e b0 0a 5a 3d
       0.26189715 -0.004858031 0.17251363 0.05323285
0001f0 ad 5c 58 3e 7b cc 97 3e d6 61 85 bd 05 6d cb 3d
       0.21129103 0.29648194 -0.06512801 0.09932903
000200 71 d5 01 be 2a 70 86 3e 96 4c 42 be 57 f4 7a bd
       -0.12679078 0.2625745 -0.18974528 -0.061268177
000210 83 e7 9c bd 80 2d 36 3e 8a ad 7c 3e d4 56 8a be
       -0.07661345 0.17790794 0.24675575 -0.2701937
000220 ae 00 93 3d 76 8c 06 be 80 ba 5c bc 0f 6b 43 3c
       0.07177864 -0.13139519 -0.013472199 0.01192738
000230 e2 11 dd bd 67 36 06 3d 17 3e 10 3e 1e f0 b2 3c
       -0.107944265 0.032766726 0.14086185 0.021843012
000240 bb 40 12 3e 38 f6 81 bd b6 ad 17 be cc b5 af bd
       0.14282505 -0.063457906 -0.14812359 -0.08579597
000250 46 f7 f1 bd cf 28 f2 39 33 ae 1e be 24 39 eb 3d
       -0.11814742 0.00046188242 -0.15496139 0.11485508
000260 fd 90 9c 3d 50 3c e3 3b 77 a4 a1 bd 7f ce 8e 3e
       0.07644842 0.00693468 -0.07892697 0.2789192
000270 9c cf 24 3e 67 41 21 be a5 94 23 be 91 6f 14 be
       0.16094822 -0.15747605 -0.15974672 -0.14495684
000280 a1 12 ad be 67 3f cf bc b7 83 40 3e b6 4d c8 3d
       -0.33803275 -0.025298787 0.18800245 0.09780447
000290 ca 6e 20 3d 6d 36 49 bd 39 af 9d 3d fc cb 63 3d
       0.039168157 -0.04912417 0.07699437 0.055614457
0002a0 6e 94 5d 3e c4 86 d0 be 05 ca bf bd 3c e6 3f 3d
       0.21638653 -0.40727818 -0.09364704 0.046850428
0002b0 4d 7b 24 3b 87 a5 0c be 44 a4 ab 3d dc 1f 54 be
       0.0025097907 -0.13735019 0.083809406 -0.20715278
0002c0 03 7f ea bd 46 e4 81 be 23 ab 96 3e bb 85 2c 3e
       -0.11450007 -0.2536947 0.29427442 0.16847889
0002d0 f5 6b 89 bd 03 04 b9 bd fd 88 50 be 22 44 98 be
       -0.06710044 -0.09033968 -0.20364757 -0.2973948
0002e0 ea d9 0d be 5c b8 6f be 20 72 39 3e eb 8e 20 3e
       -0.13852659 -0.23410171 0.18109941 0.15679519
0002f0 ca 66 20 3e 2f fa d4 bc 7f 24 ce 3c ab 8f 7c bd
       0.15664211 -0.025998203 0.025163887 -0.06166045
000300 be 5d 52 3e 44 66 03 be 50 2a 25 3d df b3 20 bd
       0.20543572 -0.1283198 0.040323555 -0.03923404
000310 37 5c 9d be 9d 1c 1f bd aa 85 47 3d 49 19 fe bd
       -0.30734417 -0.038845647 0.048711456 -0.124071665
000320 7c 92 c8 3a 44 b4 1e be 4a 4c 32 be 97 fc 38 be
       0.0015302445 -0.15498453 -0.17411914 -0.18065105
000330 85 43 0e be f2 ac 20 be 84 56 df bd 3c 1f 11 be
       -0.13892944 -0.15690973 -0.109051734 -0.14172071
000340 04 06 53 bd 64 4b e8 3d ba f6 e5 bc e6 ff 21 3e
       -0.05151941 0.113425046 -0.02807175 0.15820274
000350 eb 89 4f bd 06 81 ad bd 5f 38 59 bd 62 17 c9 bd
       -0.05066864 -0.08471875 -0.053032275 -0.09818913
000360 8c 6d 51 3e 54 ef 9c 3d c7 1c bb bc 36 99 7e bd
       0.20451945 0.07662836 -0.02284087 -0.062157832
000370 41 5f fb 3d 62 ed a9 be 53 dc 9c 3d 04 74 3b 3e
       0.122740276 -0.3318892 0.07659211 0.18305975
000380 fc b4 d0 3d 85 62 10 3e 3c 82 dc 3d dd a2 43 be
       0.1019077 0.14100082 0.10767028 -0.19105096
000390 df 8c 4e be 54 4a 24 bd 25 74 63 be 3c 8f 2a be
       -0.20170926 -0.040109947 -0.22212274 -0.16656202
0003a0 50 7a 66 3d 99 14 bc bd 20 4c 8b be d2 8b 25 bc
       0.05626899 -0.09183616 -0.27206516 -0.010104137
0003b0 fa ab d7 3d 61 40 8a bd a7 08 81 3e d4 58 25 3e
       0.10530849 -0.067505606 0.25201914 0.16147166
0003c0 99 21 79 be 13 b1 51 3e bc 98 68 bd 9f a5 cd bd
       -0.24329223 0.20477705 -0.056786284 -0.10041355
0003d0 37 2a 3f 3e 05 ed 22 3e 83 a0 2b 3e 9d c2 88 3e
       0.18668447 0.15910728 0.16760449 0.26710978
0003e0 8e f0 14 3e 1d 29 63 3e 71 49 7f 3e 2c 9d 1e be
       0.1454489 0.22183652 0.2493036 -0.15489644
0003f0 1d 1e 6d bc a9 02 9f be 9e 0c fe bd 97 00 44 3d
       -0.014472512 -0.31056717 -0.1240475 0.047852125

hiden_layers.3.bias f4 [64]
000000 fc d6 83 bd d2 aa 79 3c e9 23 94 3d 9c c3 fc bc
       -0.064374894 0.015238481 0.07233412 -0.030854993
000010 ee 9a 1c bc ee e7 b1 bd 1c 23 91 3d b9 a2 e6 3c
       -0.0095584225 -0.08686815 0.07086775 0.028153764
000020 81 63 94 3e 9a fc 95 bd cf cc d8 3d 7c 9b a2 bd
       0.28982165 -0.073235705 0.10585939 -0.079398125
000030 52 ea 52 bd 36 ee 13 be 74 3f e3 3d 75 9f 92 3c
       -0.051492997 -0.14446339 0.11096087 0.0178983
000040 22 69 78 3d 60 90 c2 bd b8 df 30 3e 5c 3e b3 3b
       0.060647137 -0.095001936 0.17272842 0.0054700803
000050 7a c0 b8 bc b6 53 4f bc 32 5d a3 3d f1 5f 60 3d
       -0.022552717 -0.012654236 0.0797676 0.054778997
000060 52 12 73 3d ed 56 1e 3c 3c 00 3c bc 05 cf c7 bd
       0.059343643 0.009664279 -0.011474665 -0.09756283
000070 dc 29 d7 3d 32 56 14 be e2 57 ec 3c 6b f1 9f bc
       0.10506031 -0.14486006 0.0288505 -0.019524297
000080 46 aa 1c 3e 3e 05 ec 3d 3a 89 fe 3c f9 16 83 bd
       0.15299329 0.11524437 0.031071294 -0.06400866
000090 83 5a e2 3b 0f b6 7b b9 5b 13 49 3d 15 50 ea 3c
       0.0069077625 -0.00024005047 0.049090724 0.02860264
0000a0 d7 56 fe bd 40 3d df bd 39 3b e3 3c 89 22 93 3d
       -0.12418907 -0.109003544 0.0277382 0.071843214
0000b0 6c a7 19 bd 15 5d bd bb fc ec ef 3d 26 d0 ba 3c
       -0.03751318 -0.0057789185 0.11715123 0.022804331
0000c0 97 e6 a3 bd a0 5e fa bc 74 cb be bd 6a 3e 94 bd
       -0.08002966 -0.030562699 -0.09316149 -0.07238467
0000d0 7b 48 f9 3c 2a 64 c1 3b cb 6e cd 3b a7 11 fa 3d
       0.03043007 0.005901833 0.006269311 0.12210398
0000e0 89 d6 bd 3d 76 21 e0 3c d1 b2 ba bc 19 67 c2 3c
       0.09269435 0.027359705 -0.022790344 0.023730801
0000f0 db 88 82 be 92 d9 15 3d 18 3c 5b bc 6f 4b 40 3c
       -0.25495037 0.036584444 -0.013381027 0.011736735

hiden_layers.4.weight f4 [64, 64]
000000 18 3a 81 be 8c 65 4d 3e 73 39 8a 3d da 31 b0 be
       -0.25239635 0.20058268 0.06749239 -0.34413034
000010 d4 94 45 bd 7c c1 d2 ba 17 98 90 bd 8a cf e4 3d
       -0.048237637 -0.0016079391 -0.07060259 0.111723974
000020 57 88 a4 bd 55 f7 ac bd 47 bb 0c 3d 89 9c c4 3d
       -0.08033817 -0.08445612 0.03435829 0.09600169
000030 a7 da 1b bd b2 d9 1f bb 12 24 cc bd 9b c5 3a be
       -0.03805032 -0.002439123 -0.09967817 -0.18239443
000040 41 dd 9a 3d 24 40 ba bd ba 42 a3 3d b1 5a 68 3e
       0.07561732 -0.09094265 0.079717115 0.22690846
000050 ec 1a 64 be f6 09 d7 3c 8c 8b 20 be f6 ef 72 be
       -0.22275895 0.026249867 -0.15678233 -0.2372435
000060 5f 8f 34 bb 14 18 1e be 19 e8 2e 3e dd da 51 3e
       -0.0027551276 -0.15438873 0.17080726 0.20493646
000070 d2 97 5d be 61 52 04 be 28 53 99 3c ab c9 83 bb
       -0.21639946 -0.1292205 0.01871641 -0.0040218434
000080 97 27 70 3e 70 ad 82 3c ca 56 75 3e 98 1b c4 3c
       0.23452602 0.015951842 0.23958889 0.023938939
000090 77 d9 80 3b 44 2d d9 bd 94 ce f1 bc 8d 1d 3b bd
       0.003932174 -0.10604337 -0.02951745 -0.04568248
0000a0 d0 1f 0b be 1c 9d 1e 3e 3f ee ac 3d 6e 2a 88 3d
       -0.13586354 0.1548962 0.08443879 0.06648718
0000b0 52 ec 07 3e cd 9e fb 3d 09 3b 0a 3e 66 51 16 be
       0.13273743 0.12286148 0.13499083 -0.14679489
0000c0 52 85 ff bd 0c 16 f7 bd 98 4f 04 3e 25 f9 07 bd
       -0.12476601 -0.12064752 0.12920988 -0.033196587
0000d0 72 96 7b be 60 e0 87 3e f3 ab f0 3d 8c cb 82 be
       -0.24569109 0.26538372 0.11751547 -0.2554592
0000e0 63 9d 29 3d 34 72 0f bc 02 ac a6 be 47 65 56 bd
       0.04140986 -0.0087552555 -0.32553107 -0.05234268
0000f0 52 7c 0e 3e 5b b9 98 be 64 0c 53 3b 78 ef 91 bc
       0.13914612 -0.29828915 0.003220343 -0.017814383
000100 c3 b8 f8 bc 0b e8 90 be f8 66 32 be c2 48 61 3e
       -0.030361539 -0.28302035 -0.17422092 0.22000411
000110 ed 00 04 3e 8b 24 c0 bc 35 90 82 be 14 bb e9 bd
       0.12890978 -0.023454925 -0.25500646 -0.114126354
000120 a8 f6 d7 bd a3 96 f9 39 8a 7d fa bd ce 54 6e 3e
       -0.10545093 0.00047605214 -0.12230976 0.23274538
000130 a4 48 8a 3e fd 33 ac 3e 8a 67 8a be f9 1a 8c 3e
       0.27008545 0.33633414 -0.2703212 0.27364329
000140 51 8b 2f be 42 9f 17 bd 23 29 4e 3e 21 5b e0 3c
       -0.17142989 -0.037017114 0.2013288 0.027387204
000150 58 e9 43 3e 6d 68 33 3e d8 bd f1 3d 36 58 a4 3e
       0.19131982 0.17520304 0.11803788 0.3209855
000160 a0 8b 22 be 6a 8c a5 bd 6c 14 fe bd 68 f0 04 3e
       -0.15873575 -0.080834225 -0.12406239 0.12982333
000170 71 b0 9d 3d 3e d5 c4 3d e5 69 f1 bd 3d d9 b5 bd
       0.07699669 0.09610985 -0.11787776 -0.088793255
000180 54 2c e2 3d 06 2f cc 3d 4f 0b ce 3d 16 67 a7 bd
       0.11043611 0.099699065 0.10060751 -0.08173959
000190 cb 03 8b be 16 36 0f 3d 96 e2 e6 3d 3b b3 e9 3c
       -0.2715133 0.03496369 0.112736866 0.028527847
0001a0 42 a4 bf 3d ea ac 7b be e6 3f c2 3d 5e e7 bd 3d
       0.093575016 -0.2457768 0.09484844 0.092726454
0001b0 7c 70 86 3c 52 86 07 3e a1 83 5c bd ba 94 b3 bd
       0.016411059 0.13234833 -0.05383647 -0.08768602
0001c0 97 be 2d bc 6f 69 b1 3d e8 f6 72 be c5 25 b1 bd
       -0.010604522 0.08662688 -0.23727 -0.08649782
0001d0 d7 f5 68 3e 8c 8c 35 be 44 6b 26 3e cc 76 43 3d
       0.2275003 -0.17729396 0.16251856 0.047720715
0001e0 6f db e6 3c 75 65 b6 be c7 6b 7b 3e 9c 39 d9 3c
       0.028180806 -0.3562428 0.24552833 0.026516728
0001f0 67 4b 87 3e 26 54 7d bc b6 b5 a4 3d b1 91 4f 3e
       0.26424715 -0.015461957 0.08042471 0.2027042
000200 cb 5e 5f be a6 45 0c be c2 d5 5c bd 6e c8 38 be
       -0.21813504 -0.13698444 -0.053914793 -0.18045208
000210 5e e1 57 bd 55 9e d1 bd 39 04 1e be b4 64 4e 3e
       -0.05270516 -0.102352776 -0.15431298 0.20155603
000220 6a 52 8a bd 0f f7 59 be ef ce 37 bd 0d 5c 35 be
       -0.067540005 -0.21285652 -0.04487508 -0.17710896
000230 24 bd 9b 3c 43 6c 6a 3e 3b 0f 38 3e c7 93 fe bd
       0.019011088 0.22892861 0.1797456 -0.1243053
000240 92 ba bc 3d 8b 4c 22 3d 8f 2f 06 be 8b d7 25 3e
       0.09215273 0.03962378 -0.1310408 0.16195504
000250 a6 d7 93 3d ec 32 de bd 25 ac a8 bd 52 25 23 be
       0.07218866 -0.10849556 -0.08235959 -0.15932205
000260 05 97 8c be a5 50 6e be 4f 0c 1c 3e 31 5e ce 3e
       -0.2745897 -0.23272951 0.1523907 0.40306237
000270 d3 e4 17 be 06 35 61 3e 1d 50 7f bd b0 2a 04 3e
       -0.14833383 0.21992883 -0.06233226 0.12906909
000280 b4 f4 03 be ef cf fb bd 20 10 65 be 8d 0d 1a 3e
       -0.12886316 -0.122955196 -0.22369432 0.15044232
000290 f2 f1 05 be e5 64 29 3d c0 7a 30 be 17 cf 4c 3e
       -0.13080576 0.041355986 -0.17234325 0.20000874
0002a0 ac d9 e7 ba 15 31 4c 3e 88 7a a7 bd 90 42 11 3d
       -0.0017688773 0.19940598 -0.08177668 0.03546387
0002b0 a0 65 c5 bd 86 d5 c6 3d 54 32 9b 3d ea e5 2c 3e
       -0.09638524 0.09708695 0.07577959 0.1688458
0002c0 eb 26 77 3d 8b 7b 25 3e df 6a 5d 3e e0 a2 7c be
       0.06033985 0.16160409 0.216228 -0.24671507
0002d0 1e bf 1b be db d1 1c 3e 74 b0 1d bd 0c f9 5c 3c
       -0.15209624 0.15314429 -0.038498357 0.013487112
0002e0 f2 8a 70 be 7c d2 9a 3c f2 8a 46 3e 8b e1 62 3e
       -0.23490503 0.018899195 0.19388941 0.2215635
0002f0 e9 85 3f bc 18 43 41 3c e1 e2 0f 3e 0a f0 6a 3e
       -0.0116896415 0.011795782 0.14051391 0.2294313
000300 ae 69 36 3d 6a a5 00 be 35 4f 97 be 0a e2 e9 3d
       0.044534378 -0.125631 -0.29552618 0.11420067
000310 77 53 4a 3e 93 79 75 3b d6 e8 d6 3d 06 de b4 be
       0.19758402 0.0037456497 0.10493629 -0.3532564
000320 18 4f e6 3d b5 2d 05 bd 44 21 ae 3e b0 44 92 3d
       0.11245555 -0.032514293 0.34009755 0.07142007
000330 1e aa da bd 6f 2d 38 bd 01 06 34 3e e9 10 20 3e
       -0.106769785 -0.044965204 0.17580415 0.1563145
000340 83 43 84 b9 37 b8 f0 3d d8 1b 7b bd 9c c5 90 be
       -0.00025227302 0.11753886 -0.06130585 -0.28275764
000350 48 df 00 bd ce fe b3 3d 6c 15 cb 3d 33 00 9f 3e
       -0.031462938 0.087888345 0.09916195 0.3105484
000360 cb f2 3c 3e e2 d6 80 bb 17 df 46 3d e6 4a fb bd
       0.18451993 -0.003931866 0.0485526 -0.12270145
000370 01 34 f5 bd 79 bf a0 3d 53 15 c3 bd ca 05 8c be
       -0.119728096 0.078490205 -0.09525552 -0.27348167
000380 83 f2 39 3d 1a d4 cf 3d 3d 5f 0a bd 0f e6 5d be
       0.045397293 0.10147877 -0.033782233 -0.21669792
000390 b2 45 2b 3e 46 a7 57 bd ea 80 d3 bd 1d 54 e2 3d
       0.16725805 -0.05264976 -0.10327323 0.110511996
0003a0 0c 6c 0d bc 3d da d7 bd 25 f5 14 be 15 a5 c5 3e
       -0.008631717 -0.105396725 -0.1454664 0.3860251
0003b0 52 07 d8 3d fc 57 68 bd 10 a1 89 bd f4 a6 9d be
       0.10548271 -0.056724533 -0.06720173 -0.30791438
0003c0 ae 0d 07 be c4 13 71 3d 02 26 83 bd 65 aa 96 3e
       -0.13188812 0.05885674 -0.06403734 0.29426876
0003d0 2b 4e 8b 3d 85 3f 83 3d 55 27 94 bc 79 de 83 3e
       0.06802019 0.064086 -0.018085161 0.2575567
0003e0 ca 03 67 be 9c dc 1f bd ea 12 13 3e cc 24 31 3d
       -0.22560039 -0.03902875 0.14362684 0.043247983
0003f0 bf 02 8e 3d 28 95 b2 3d 03 79 d2 3d f0 a7 07 3e
       0.069341175 0.087198555 0.102769874 0.13247657
