results/1_first_try/epoch350/model_weights.pth (torch, 484214 bytes, 88 tensors)

init_layer.0.weight f4 [64, 3]
-0.25725636 -0.27697358 0.3269364 0.40026844 -0.021981465 0.22258213 -0.09921389 -0.09229241
-0.295103 0.2571071 0.00988669 0.10151755 -0.13325238 0.30830204 0.3869767 -0.19650362
-0.32055116 0.27466357 0.39034924 0.0034394434 0.41313407 0.42360315 0.06181086 0.5067706
0.22935683 -0.41634527 0.11592032 -0.09899025 -0.026454834 0.4159496 -0.45150346 -0.07302
0.03695388 0.08574382 0.030967563 -0.46221876 -0.11984858 0.029839393 0.0077350633 -0.102982745
0.051586278 0.4720112 0.15925193 -0.47358635 -0.08559488 0.16066186 -0.13700205 -0.40920898
0.010129219 -0.0115574645 0.4023453 0.15014951 0.17320202 -0.30279145 0.107054904 0.050495606
-0.47814056 -0.43566597 0.101496115 -0.31505644 0.09757244 -0.12835847 -0.2733157 0.19529825
-0.042703986 -0.1292577 0.09952185 -0.09446104 -0.43420246 -0.091138706 0.14603914 -0.115764126
-0.14821596 -0.044893704 0.42648056 -0.01817203 0.123372324 -0.27776304 0.007894101 0.02905137
0.60560113 -0.20174655 -0.27539998 0.2519194 0.091896825 0.015529964 -0.46479297 0.024175076
-0.23735872 0.27286792 -0.36493582 -0.13117425 -0.19249828 -0.1651635 0.014021693 0.57892036
-0.098964475 0.035288468 0.5020707 -0.29927945 0.24476275 -0.113954976 0.061703544 -0.019703899
-0.2967914 -0.1603379 -0.10502857 -0.28896195 0.08578191 -0.012810783 -0.5283942 -0.25592497
-0.06968304 -0.055716958 0.3418422 -0.061375648 0.3105146 -0.3122018 0.36520013 0.37186992
0.17860721 -0.058048837 -0.49238408 0.061482623 -0.015650474 -0.48076028 -0.02697653 -0.07319479
0.47879967 -0.15169019 -0.030542376 0.62858886 0.08375784 -0.10374687 -0.3747594 -0.2797602
-0.035774514 0.37914193 0.035329964 -0.08488227 0.074916035 0.14325185 0.2205612 0.038558226
0.3515927 0.62929636 0.017034652 0.18198794 -0.23794329 0.33716115 0.092889935 -0.17737763
-0.36785114 -0.40552843 -0.20587565 -0.16293792 0.43251592 -0.42354068 0.18794009 -0.12841196
-0.19321185 0.16386233 0.071139365 -0.03463843 -0.48771128 0.34329468 -0.043753937 0.36477825
0.21479942 0.02876325 0.54123706 0.091984615 -0.13563304 0.10311174 0.3301277 0.31898466
0.18506593 0.12950642 0.022437654 -0.3357975 -0.29002178 -0.04522015 -0.26041144 -0.25610843
0.051801924 -0.13985206 0.27254814 -0.08057929 -0.009176115 0.59569746 -0.043548062 0.29207665
00000000: 1bb7 83be 7bcf 8dbe 3564 a73e fcef cc3e
00000010: 7912 b4bc 92ec 633e a730 cbbd ce03 bdbd
00000020: be17 97be 8ba3 833e c9fb 213c 6fe8 cf3d
00000030: 5073 08be c4d9 9d3e cf21 c63e 3f38 49be
00000040: 481f a4be b4a0 8c3e dbdb c73e 4968 613b
00000050: 4f86 d33e 83e2 d83e 622d 7d3d b8bb 013f
00000060: 84dc 6a3e 352b d5be a267 ed3d 66bb cabd
00000070: cfb7 d8bc 59f7 d43e 762b e7be 828b 95bd
00000080: f45c 173d 759a af3d b0af fd3c f0a7 ecbe
00000090: 2c73 f5bd be71 f43c 6a76 fd3b 9ee8 d2bd
000000a0: 224c 533d 74ab f13e f012 233e e979 f2be
000000b0: 5e4c afbd 8b84 243e 444a 0cbe d783 d1be
000000c0: 06f5 253c 855b 3dbc 3400 ce3e cbc0 193e
000000d0: df5b 313e 7b07 9bbe 9a3f db3d 7bd4 4e3d
000000e0: d7ce f4be 9c0f dfbe 32dd cf3d 144f a1be
000000f0: 0fd4 c73d 6770 03be 09f0 8bbe 44fc 473e
00000100: 60ea 2ebd 215c 04be 1dd2 cb3d ca74 c1bd
00000110: c94f debe eea6 babd 498b 153e be15 edbd
00000120: edc5 17be 76e2 37bd a95b da3e 82dd 94bc
00000130: a1aa fc3d f536 8ebe 4256 013c 24fd ed3c
00000140: ad08 1b3f a696 4ebe 3a01 8dbe 94fb 803e
00000150: 6734 bc3d 6471 7e3c 58f9 edbe cf0a c63c
00000160: 2a0e 73be 58b5 8b3e ded8 babe 8b52 06be
00000170: 451e 45be 9f20 29be 3ebb 653c 2034 143f
00000180: e3ad cabd a48a 103d b587 003f 283b 99be
00000190: 16a3 7a3e 3a61 e9bd dbbc 7c3d 126a a1bc
000001a0: 0bf5 97be 9e2f 24be 3819 d7bd d2f2 93be
000001b0: 6dae af3d 52e4 51bc d844 07bf 9908 83be
000001c0: fbb5 8ebd 7737 64bd f105 af3e 0865 7bbd
000001d0: c5fb 9e3e ead8 9fbe 83fb ba3e bc65 be3e
000001e0: cfe4 363e 9ec4 6dbd c419 fcbe 34d5 7b3d
000001f0: 6c35 80bc 3626 f6be e2fd dcbc 26e7 95bd
00000200: 3b25 f53e ac54 1bbe 0134 fabc 33eb 203f
00000210: 3b89 ab3d 3d79 d4bd 77e0 bfbe bb3c 8fbe
00000220: 4c88 12bd e41e c23e 27b6 103d c1d6 adbd
00000230: 946d 993d 9db0 123e ccda 613e 3bef 1d3d
00000240: f503 b43e 9119 213f 418c 8b3c 0c5b 3a3e
00000250: 68a7 73be 63a0 ac3e 143d be3d 7ba2 35be
00000260: fc56 bcbe 6ca1 cfbe 11d1 52be 33d9 26be
00000270: ba72 dd3e 53da d8be 5e73 403e 6d7e 03be
00000280: 54d9 45be 87cb 273e 84b1 913d 07e1 0dbd
00000290: 4bb5 f9be 52c4 af3e 5437 33bd 37c4 ba3e
000002a0: 61f4 5b3e e8a0 eb3c 838e 0a3f 6e62 bc3d
000002b0: 63e3 0abe 3f2c d33d 7f06 a93e f551 a33e
000002c0: ec81 3d3e 559d 043e 2ccf b73c a6ed abbe
000002d0: bc7d 94be c438 39bd a654 85be a520 83be
000002e0: 412e 543d 6135 0fbe 6e8b 8b3e c106 a5bd
000002f0: 6a57 16bc a17f 183f 745f 32bd 128b 953e

init_layer.0.bias f4 [64]
0.41597328 -0.013961314 0.037192576 -0.29593956 0.03952983 -0.036097713 0.1502458 0.20733301
-0.20140943 -0.28071755 0.4015166 0.33392495 0.28325203 0.33452618 -0.043109965 0.22182395
0.25532413 0.16949514 0.37221625 -0.0011897241 0.21542065 -0.000773255 0.30080336 0.1422585
0.16853608 -0.1370342 0.105084635 -0.025987355 -0.41248977 0.1292266 -0.023222815 -0.17744666
-0.13080233 0.23939022 0.2561625 0.37501946 -0.26549596 -0.120574966 -0.23860106 -0.11469135
-0.3083134 -0.30340558 -0.32180226 -0.089202546 0.14037277 0.014875857 -0.3140109 -0.074563995
-0.14474949 0.20456323 -0.1501672 -0.1732921 0.036050614 -0.18282859 0.12500186 0.19722137
0.24583776 -0.1543712 0.044439778 -0.2275988 0.03220362 -0.12645222 0.09151503 0.07988692
00000000: 73fa d43e ffbd 64bc 3e57 183d 6485 97be
00000010: 08ea 213d 32db 13bd 09da 193e 1b4f 543e
00000020: 463e 4ebe 36ba 8fbe 9593 cd3e 36f8 aa3e
00000030: 6906 913e 0447 ab3e 1394 30bd d125 633e
00000040: d8b9 823e 2290 2d3e 2193 be3e 84f0 9bba
00000050: 3b97 5c3e 44b4 4aba e602 9a3e 36ac 113e
00000060: b994 2c3e b152 0cbe 9d36 d73d 6fe3 d4bc
00000070: dc31 d3be fa53 043e c63d bebc 94b4 35be
00000080: 0cf1 05be b622 753e bb27 833e 8d02 c03e
00000090: 16ef 87be 02f0 f6bd d653 74be 4ce3 eabd
000000a0: 41db 9dbe fa57 9bbe 44c3 a4be d3af b6bd
000000b0: e1bd 0f3e deb9 733c 09c6 a0be 02b5 98bd
000000c0: 3639 14be 0679 513e 6ec5 19be 7c73 31be
000000d0: cfa9 133d 6b37 3bbe 7d00 003e 66f4 493e
000000e0: e5bc 7b3e 7c13 1ebe 7c06 363d a90f 69be
000000f0: f1e7 033d b17c 01be 3b6c bb3d c19b a33d

hiden_layers.0.weight f4 [64, 64]
-0.34011748 0.1192702 0.08558458 0.3221232 -0.20309703 0.006774591 0.14704853 -0.13520952
0.16257094 0.0536278 -0.18389158 0.06913867 -0.10523475 0.07809001 0.13425575 -0.28210068
-0.06006928 -0.14599101 -0.1683429 -0.25159866 -0.14493513 0.14712563 -0.12641513 -0.4587868
0.07293299 0.07041207 -0.14741285 -0.15112656 0.019801399 -0.12829146 -0.28570104 0.05634403
0.01676162 -0.2917705 0.043299735 -0.11831636 0.069822595 -0.04540627 0.4410229 0.19808133
0.19243836 0.0076703294 0.26833427 -0.035314232 -0.122850575 -0.060686547 0.1665051 -0.17078163
0.35421503 -0.18124273 -0.04987493 0.0073284083 0.07815652 0.04039497 0.10416509 0.2358168
-0.18896432 0.18412697 -0.11675276 0.21473132 -0.047234032 -0.17447908 0.046303097 -0.031481564
-0.21553129 -0.57542384 0.1170327 -0.31954247 -0.6301125 -0.630206 -0.022238066 -0.31708455
-0.14613828 -1.2558773 0.63747656 0.97953856 -0.1385977 -0.36522797 0.43265185 0.9418896
-0.38511077 0.6389431 1.3135372 0.35030442 0.6622187 -0.10538421 1.0026777 0.43749803
-0.59225774 0.31034073 -0.22222085 -0.48500878 0.4838779 -0.025628852 0.12968995 -1.1602094
-0.66660154 0.30674437 1.49177 0.6768584 0.6734908 0.026726818 -0.680043 -0.47565743
0.34550092 0.40856615 -1.0426327 -0.9005169 0.84505975 -0.33826137 -0.19036803 -0.3120547
-0.16747686 -0.33970442 0.12632173 -0.0029359893 -0.32117757 -0.62359256 0.9484465 -0.1090986
-0.48911422 -0.31963983 -0.30756673 0.33951086 0.5318337 0.37652385 0.15986924 -0.37780532
0.10065904 -0.12851775 0.21709849 -0.06325759 -0.26946792 0.054645345 -0.093575776 -0.26399198
0.121073216 -0.023077415 -0.019747468 0.10656271 0.1409556 -0.23976904 0.43400696 -0.118155725
-0.14584386 -0.25966364 0.038832694 -0.024883656 0.007114153 -0.17904316 -0.14814708 -0.05602534
-0.012362287 -0.13910648 -0.06784466 0.28834286 -0.0004255063 -0.13932267 0.34117225 0.23130739
-0.1825855 -0.13537487 0.19932055 0.23142588 -0.041774627 0.0050304234 -0.08022904 0.0053112814
-0.18690301 -0.0058155553 0.1931568 0.20455247 0.20947929 0.10789048 -0.009762949 -0.092486806
-0.12396754 0.08308371 -0.015671276 0.115914874 0.14028066 0.07440091 -0.13300097 -0.0077285245
-0.27104414 0.16653454 -0.3048529 -0.14120024 0.2665864 -0.12178345 -0.21351285 0.03686039
-0.457707 -0.2761343 0.5780664 -0.029912263 -0.49439445 -0.20952749 -0.3900886 -0.60156786
-0.10598433 -0.46841332 -0.1760702 0.355373 -0.15386014 -0.9947103 0.2926393 0.18469891
-0.69221234 0.41786897 0.46891382 0.06459849 0.51168644 0.11874718 0.14112869 0.033517558
-0.64241457 0.62396175 -1.4051222 -0.33928177 0.66651726 -0.7820674 0.055145126 -0.42480955
-0.5704389 -0.015057934 0.14329228 0.23907968 0.98767704 -0.06061957 -0.0234613 -0.26006633
0.5713756 0.860653 -0.2246854 -0.42467794 0.43566856 -0.2521649 -0.026811616 0.007913322
0.23729779 -0.6175266 1.0645084 0.20641044 -0.19530702 -0.038796242 0.64003414 -0.29247865
-0.7624859 -0.22646853 -0.2902859 0.8462935 0.16470693 0.06013738 -0.048375573 -0.3146179
00000000: e123 aebe ef43 f43d f846 af3d 55ed a43e
00000010: abf8 4fbe 63fd dd3b e493 163e 5d74 0abe
00000020: ff78 263e d3a8 5b3d 134e 3cbe 9398 8d3d
00000030: 5185 d7bd a8ed 9f3d 577a 093e 806f 90be
00000040: 350b 76bd ab7e 15be 1562 2cbe 8ad1 80be
00000050: e069 14be 1aa8 163e f872 01be 1ae6 eabe
00000060: e45d 953d 3434 903d 65f3 16be ecc0 1abe
00000070: 8b36 a23c d65e 03be 6847 92be ffc8 663d
00000080: aa4f 893c f162 95be 105b 313d d94f f2bd
00000090: 26ff 8e3d edfb 39bd c1cd e13e d5d5 4a3e
000000a0: 900e 453e 6357 fb3b 1c63 893e a8a5 10bd
000000b0: 1599 fbbd 7592 78bd 5080 2a3e 61e1 2ebe
000000c0: ac5b b53e b297 39be a849 4cbd 2523 f03b
000000d0: 8710 a03d 3275 253d 8254 d53d f679 713e
000000e0: dd7f 41be c88b 3c3e 121c efbd 87e2 5b3e
000000f0: 7978 41bd a5aa 32be 51a8 3d3d d0f2 00bd
00000100: 3cb4 5cbe fa4e 13bf d7ae ef3d 129b a3be
00000110: 0e4f 21bf 2e55 21bf 9b2c b6bc e858 a2be
00000120: 46a5 15be 96c0 a0bf aa31 233f 0ac3 7a3f
00000130: 8eec 0dbe 29ff babe 8b84 dd3e ad1f 713f
00000140: 3d2d c5be c691 233f fd21 a83f 1a5b b33e
00000150: 2a87 293f add3 d7bd be57 803f beff df3e
00000160: 349e 17bf fbe4 9e3e dd8d 63be 1253 f8be
00000170: d8be f73e 99f3 d1bc 71cd 043e be81 94bf
00000180: 66a6 2abf 990d 9d3e 52f2 be3f 9846 2d3f
00000190: e569 2c3f 33f2 da3c 4c17 2ebf 5f89 f3be
000001a0: 7fe5 b03e 952f d13e fd74 85bf 4788 66bf
000001b0: d655 583f 9830 adbe d6ef 42be a2c5 9fbe
000001c0: 0e7f 2bbe bded adbe 7c5a 013e ba69 40bb
000001d0: 6371 a4be c3a3 1fbf 64cd 723f 166f dfbd
000001e0: 2e6d fabe d5a7 a3be 6379 9dbe 5ed4 ad3e
000001f0: 4126 083f bcc7 c03e c3b4 233e b36f c1be
00000200: 5426 ce3d 289a 03be 114f 5e3e 328d 81bd
00000210: b3f7 89be ccd3 5f3d a8a4 bfbd f529 87be
00000220: 3cf5 f73d d90c bdbc 71c5 a1bc 8d3d da3d
00000230: aa56 103e 0486 75be 2936 de3e a1fb f1bd
00000240: 1858 15be a2f2 84be 080f 1f3d cfd8 cbbc
00000250: d71d e93b 1757 37be deb3 17be d47a 65bd
00000260: 318b 4abc ee71 0ebe 24f2 8abd ada1 933e
00000270: 7d16 dfb9 9aaa 0ebe 21ae ae3e d8db 6c3e
00000280: b1f7 3abe b69f 0abe b01a 4c3e e8fa 6c3e
00000290: df1b 2bbd 40d6 a43b 1f4f a4bd 420a ae3b
000002a0: 8163 3fbe 6a90 bebb e5ca 453e 3476 513e
000002b0: bd81 563e aff5 dc3d c7f4 1fbc b969 bdbd
000002c0: b2e2 fdbd cb27 aa3d 0c61 80bc c764 ed3d
000002d0: bca5 0f3e 815f 983d 6831 08be 903f fdbb
000002e0: 4cc6 8abe 0888 2a3e ae15 9cbe cc96 10be
000002f0: 037e 883e 9a69 f9bd 1da3 5abe ecfa 163d
00000300: 9258 eabe 7a61 8dbe 29fc 133f 900a f5bc
00000310: 4521 fdbe 608e 56be b1b9 c7be 5a00 1abf
00000320: 500e d9bd dfd3 efbe bf4b 34be 73f3 b53e
00000330: 838d 1dbe 56a5 7ebf d1d4 953e b621 3d3e
00000340: d434 31bf ecf2 d53e 7915 f03e 374c 843d
00000350: e2fd 023f b931 f33d 0a84 103e b549 093d
00000360: 4875 24bf f5bb 1f3f 0bdb b3bf 57b6 adbe
00000370: e0a0 2a3f 9235 48bf dbdf 613d a380 d9be
00000380: 4908 12bf 8eb5 76bc 36bb 123e 4ed1 743e
00000390: 67d8 7c3f 3a4c 78bd ea31 c0bc 6a27 85be
000003a0: ac45 123f c153 5c3f ee13 66be 636f d9be
000003b0: f30f df3e c21b 81be 09a4 dbbc e1a6 013c
000003c0: 31fe 723e 3916 1ebf d041 883f 425d 533e
000003d0: 90fe 47be cfe8 1ebd 47d9 233f c3bf 95be
000003e0: 4732 43bf 5ee7 67be 5aa0 94be b1a6 583f
000003f0: efa8 283e 9d52 763d 7725 46bd 9915 a1be

hiden_layers.0.bias f4 [64]
-0.12875527 0.050684925 -0.05096241 -0.047230747 0.053750977 0.1398723 0.06738698 -0.08146475
-0.018541183 -0.0016016096 -0.0863012 0.18798189 0.1254528 -0.009029495 -0.0022802048 0.098023415
-0.28606373 -0.1307919 0.025833352 -0.2887191 -0.30200115 0.18097018 0.023157088 -0.04213314
-0.031457867 0.0506168 -0.25175795 -0.22396383 0.23532458 -0.059389573 0.15045178 0.05952551
0.030633114 -0.06648153 -0.19181201 -0.1609308 -0.08580507 0.07065257 -0.062003385 -0.11967122
-0.3125285 -0.07834874 0.11959214 -0.066712834 0.1483688 0.1479887 -0.032326657 -0.20468925
0.18288127 -0.08196266 0.21024533 0.21441375 -0.0070949863 -0.08321719 0.10568061 0.27389386
-0.10347639 -0.0057912027 -0.25747228 -0.16154231 -0.4715302 0.09438226 -0.0947987 0.0019540552
00000000: 6cd8 03be ff9a 4f3d f6bd 50bd 0775 41bd
00000010: fc29 5c3d af3a 0f3e 2f02 8a3d fed6 a6bd
00000020: aee3 97bc 1aed d1ba afbe b0bd 537e 403e
00000030: b376 003e 72f0 13bc 7d6f 15bb 80c0 c83d
00000040: f276 92be 50ee 05be 77a0 d33c fdd2 93be
00000050: e59f 9abe 3f50 393e efb3 bd3c cd93 2cbd
00000060: f7d9 00bd 9053 4f3d 6be6 80be c656 65be
00000070: edf8 703e 7b42 73bd 0810 1a3e 05d1 733d
00000080: 4cf2 fa3c 7827 88bd 5e6a 44be 0bcb 24be
00000090: 92ba afbd 4bb2 903d 43f7 7dbd 2f16 f5bd
000000a0: bc03 a0be 4e75 a0bd b9ec f43d bda0 88bd
000000b0: feed 173e 5a8a 173e f568 04bd 0f9a 51be
000000c0: 3a45 3b3e 0adc a7bd 8d4a 573e 478f 5b3e
000000d0: 0f7d e8bb c66d aabd 136f d83d d13b 8c3e
000000e0: 6eeb d3bd 21c4 bdbb 68d3 83be 596b 25be
000000f0: 686c f1be 7d4b c13d d225 c2bd 9b0f 003b

hiden_layers.1.weight f4 [64, 64]
-0.064695776 0.24148002 -0.2801886 0.119161874 -0.30884722 0.21616842 -0.11810226 -0.10679802
0.06958169 0.111029916 -0.03093458 -0.20276904 0.05012144 0.10053079 0.033714782 -0.0026668631
0.022615653 0.268615 -0.018782737 0.100451596 0.21820334 -0.12028533 0.054428756 -0.070560366
-0.098965004 -0.115418896 -0.07908854 0.21582846 -0.019205553 -0.10603147 -0.16485296 0.08950336
-0.24241884 0.24014091 -0.16206993 -0.315346 -0.02719815 -0.022566678 -0.014327613 0.09003824
0.06633483 0.136751 -0.20775758 0.11861757 0.21884336 0.12882282 0.0756404 -0.2524389
0.034800455 -0.12035801 -0.018566603 0.11836156 -0.083195195 -0.05024965 0.0013026547 -0.21243897
0.2497917 -0.12051193 -0.19054027 0.106436744 0.010211195 0.0739134 0.082438424 -0.1045239
0.05273963 0.15350555 -0.16344354 0.08656329 -0.12231258 -0.060555965 -0.13841555 -0.079909734
0.11712758 -0.17459966 0.081208244 0.1081179 0.06266657 -0.007313174 0.072916105 -0.028491922
0.081922844 -0.091603614 0.11089624 -0.12041086 0.09643335 0.15669191 -0.17229818 0.020736322
0.091643505 0.19078608 0.08268913 -0.001051261 -0.024788875 -0.03366882 -0.120498106 0.1270543
0.05327277 0.18259978 -0.24484399 -0.3037797 -0.22155035 -0.00061600335 -0.20532627 -0.13721997
-0.3700558 -0.1827265 0.06273481 -0.18529017 0.10169892 0.1281717 -0.0437424 -0.2308011
0.21120003 0.11392558 -0.24403948 -0.15681747 0.020946944 0.07244097 0.1577733 0.031777076
-0.016483368 0.035723522 -0.037629098 0.09868977 0.12185175 0.032086235 0.05695184 0.19814822
-0.026740646 0.167095 0.031904716 0.10276258 0.11578162 0.32194576 -0.18392162 0.20096561
0.24714872 -0.053412866 -0.31953415 -0.05634469 -0.02747545 -0.06631885 0.19933733 0.025555365
-0.19849908 -0.13192707 0.072521545 -0.20895185 0.058091264 -0.22037438 -0.22800559 -0.12103659
-0.0105648665 0.06727943 -0.2286771 -0.05364858 0.1354664 0.08829739 0.1469316 0.34115925
-0.07216642 -0.16327013 -0.1105346 -0.22759405 -0.0303925 -0.20486197 -0.109881826 -0.17597336
-0.43723425 -0.17408898 -0.11099056 -0.16830982 0.1193586 0.15147302 -0.071890414 -0.0068942057
-0.0011510686 0.011962067 0.039324455 -0.30640197 -0.0014753974 -0.22527273 0.1848277 0.0723564
-0.14966275 0.1488122 -0.063754566 -0.049530186 -0.07561325 0.2313893 0.05039263 0.06380698
0.19754368 -0.007150217 -0.12578359 0.2092674 0.31421164 -0.21911585 -0.04171703 -0.14307591
-0.055671312 0.0019673528 -0.13656335 0.27350917 0.28450164 0.1572095 -0.0431767 0.072168216
-0.0745599 -0.22344224 0.16170831 0.12920718 -0.038024552 -0.18237117 0.026003074 0.027162055
0.24390581 0.087211184 -0.05035741 -0.082189016 0.18016005 0.23886687 0.18049192 0.21070005
0.3684812 -0.086837895 -0.12973218 -0.08257281 0.04107773 0.14054412 0.20143461 0.1734896
0.085150436 -0.0007906501 0.21562245 0.07385683 -0.105241016 -0.11132281 -0.16140331 -0.114901625
0.027767783 0.15461527 0.0031558042 0.10951423 0.13439098 -0.0069892635 -0.24856502 0.004219116
-0.2580975 -0.104526825 0.12469714 -0.0018941645 -0.18660623 0.18712036 -0.06230483 -0.22266793
00000000: 387f 84bd 8a46 773e e174 8fbe 240b f43d
00000010: 3921 9ebe 415b 5d3e 99df f1bd ecb8 dabd
00000020: d880 8e3d a763 e33d 846a fdbc b0a2 4fbe
00000030: 244c 4d3d 16e3 cd3d 8318 0a3d 8ac6 2ebb
00000040: 7644 b93c e887 893e 41de 99bc 91b9 cd3d
00000050: b270 5f3e 2858 f6bd b0f0 5e3d f481 90bd
00000060: 2aae cabd be60 ecbd 2cf9 a1bd 2302 5d3e
00000070: f754 9dbc 0727 d9bd 37cf 28be 8a4d b73d
00000080: a53c 78be 80e7 753e a9f5 25be 0875 a1be
00000090: a8ce debc c1dd b8bc 5dbe 6abc f865 b83d
000000a0: 8eda 873d 7408 0c3e 67be 54be c5ed f23d
000000b0: 7918 603e 21ea 033e 5be9 9a3d ac3f 81be
000000c0: ec8a 0e3d 437e f6bd fd18 98bc 8c67 f23d
000000d0: 3e62 aabd 94d2 4dbd d7bd aa3a 9a89 59be
000000e0: 65c9 7f3e f5ce f6bd fd1c 43be 82fb d93d
000000f0: db4c 273c e95f 973d 7ad5 a83d a010 d6bd
00000100: 8305 583d 8f30 1d3e be5d 27be 1848 b13d
00000110: 057f fabd 8809 78bd cebc 0dbe b7a7 a3bd
00000120: 96e0 ef3d 41ca 32be 8250 a63d eb6c dd3d
00000130: 5557 803d 5aa3 efbb 0a55 953d e467 e9bc
00000140: 2ac7 a73d ad9a bbbd 911d e33d f899 f6bd
00000150: d97e c53d d873 203e ef6e 30be 38df a93c
00000160: 97af bb3d 6d5d 433e eb58 a93d 77ca 89ba
00000170: 0a12 cbbc 51e8 09bd b6c7 f6bd 861a 023e
00000180: 8c34 5a3d 70fb 3a3e 62b8 7abe 0389 9bbe
00000190: 18de 62be 497b 21ba 0d41 52be 6483 0cbe
000001a0: f477 bdbe a81c 3bbe 1c7b 803d b5bc 3dbe
000001b0: 8647 d03d 713f 033e 3b2b 33bd 2057 6cbe
000001c0: d244 583e d151 e93d 7ce5 79be c294 20be
000001d0: ed98 ab3c ee5b 943d 538f 213e ae28 023d
000001e0: 2108 87bc d452 123d f820 1abd dd1d ca3d
000001f0: 698d f93d db6c 033d 5546 693d 5ee7 4a3e
00000200: 330f dbbc f41a 2b3e 85ae 023d 3075 d23d
00000210: ea1e ed3d 13d6 a43e f355 3cbe eec9 4d3e
00000220: 8e14 7d3e 73c7 5abd fb99 a3be b1c9 66bd
00000230: 3214 e1bc 2dd2 87bd 161f 4c3e 7c59 d13c
00000240: 5843 4bbe e417 07be 2d86 943d 79f7 55be
00000250: 1bf1 6d3d d2a9 61be 4c7a 69be 08e2 f7bd
00000260: 4318 2dbc ccc9 893d 542a 6abe 9dbe 5bbd
00000270: b4b7 0a3e 43d5 b43d 3d75 163e 6dac ae3e
00000280: fdcb 93bd 4930 27be f75f e2bd 6a0e 69be
00000290: b1f9 f8bc 56c7 51be b909 e1bd 5c32 34be
000002a0: 2bdd dfbe 6244 32be 054f e3bd 6959 2cbe
000002b0: 4872 f43d be1b 1b3e 483b 93bd cae8 e1bb
000002c0: 74df 96ba 8cfc 433c ae12 213d b8e0 9cbe
000002d0: 1f62 c1ba e5ad 66be 7943 3d3e 982f 943d
000002e0: 3141 19be 3a62 183e c191 82bd 2ae0 4abd
000002f0: 1fdb 9abd 51f1 6c3e 8168 4e3d 3cad 823d
00000300: e448 4a3e 5e4c eabb 6acd 00be 314a 563e
00000310: 59e0 a03e e85f 60be 7adf 2abd 7e82 12be
00000320: 9a07 64bd b4ee 003b 43d7 0bbe 6509 8c3e
00000330: 33aa 913e 87fb 203e 0dda 30bd eecc 933d
00000340: dcb2 98bd 0bce 64be dd96 253e e34e 043e
00000350: a2bf 1bbd 82bf 3abe 6604 d53c f582 de3c
00000360: 72c2 793e c79b b23d 9243 4ebd b752 a8bd
00000370: e07b 383e 8499 743e e0d2 383e c1c1 573e
00000380: 91a9 bc3e 11d8 b1bd 83d8 04be ef1b a9bd
00000390: 1f41 283d ccea 0f3e e044 4e3e 42a7 313e
000003a0: 5a63 ae3d a143 4fba 22cc 5c3e 4042 973d
000003b0: 9a88 d7bd 37fd e3bd e946 25be 8b51 ebbd
000003c0: 4379 e33c 7753 1e3e 9cd1 4e3b ff48 e03d
000003d0: ca9d 093e 3106 e5bb d487 7ebe 8340 8a3b
000003e0: 5b25 84be 2912 d6bd 3761 ff3d 9d45 f8ba
000003f0: b415 3fbe 7b9c 3f3e 5933 7fbd 1003 64be

hiden_layers.1.bias f4 [64]
-0.0576589 0.052175682 -7.767902e-06 0.027250929 -0.004885328 0.06087053 0.0164268 -0.0884865
-0.015880788 0.041850936 0.09260427 -0.10675809 -0.08190034 -0.01880449 0.016610762 -0.044130065
-0.11610986 -0.08052541 -0.033784144 0.032356497 -0.06975166 -0.013615298 0.017041156 0.13613172
-0.020816784 0.09352379 0.043087807 0.21757503 -0.084481984 -0.20368628 -0.1639915 0.010138997
-0.049338646 -0.062373623 0.06271776 0.007525771 -0.07103004 -0.2859696 -0.097609736 -0.15234512
0.09258557 -0.09230408 -0.07464253 -0.24405847 0.04800705 -0.018530404 -0.036315568 0.0075594806
0.005752844 -0.052245058 0.06184451 0.20959522 0.18070038 0.05484093 -0.03609773 -0.020871494
0.029255036 -0.03225373 -0.04037632 0.11129309 0.071485415 -0.21852675 0.07406301 -0.033967968
00000000: bd2b 6cbd 2bb6 553d e352 02b7 573d df3c
00000010: 1a15 a0bb 6053 793d 7f91 863c 6938 b5bd
00000020: 6d18 82bc e36b 2b3d 4fa7 bd3d fca3 dabd
00000030: 5ebb a7bd e00b 9abc 4b13 883c bac1 34bd
00000040: 02cb edbd 82ea a4bd 3e61 0abd 3f88 043d
00000050: f5d9 8ebd b312 5fbc e599 8b3c 1d66 0b3e
00000060: f687 aabc 6789 bf3d d77c 303d fdcb 5e3e
00000070: e404 adbd 2393 50be 63ed 27be 091e 263c
00000080: 5217 4abd 7c7b 7fbd 2b72 803d be9a f63b
00000090: 3378 91bd 9b6a 92be 9de7 c7bd 5c00 1cbe
000000a0: 819d bd3d ec09 bdbd 2fde 98bd 77ea 79be
000000b0: 0aa3 443d 13cd 97bc a2bf 14bd 85b5 f73b
000000c0: 5a82 bc3b eafe 55bd ab50 7d3d 21a0 563e
000000d0: 8509 393e e2a0 603d 37db 13bd b2fa aabc
000000e0: 42a8 ef3c 7d1c 04bd a461 25bd a2ed e33d
000000f0: f266 923d 7ac5 5fbe 59ae 973d ff21 0bbd

hiden_layers.2.weight f4 [64, 64]
-0.098076805 -0.30036783 -0.41000384 0.08517115 -0.08895405 -0.051897082 -0.29784292 -0.38298544
-0.60734546 0.014837899 -0.42863354 -0.10150563 0.5606207 0.51170087 -0.38297555 0.2648698
0.2164612 -0.12886317 0.4400724 -0.6369721 0.21974295 0.33348832 -0.4205564 0.21656036
0.5672509 0.16957565 -0.13733098 -0.2925924 0.024308462 -0.26269054 0.09597836 0.08778313
-0.123753496 0.17754894 -0.17730719 -0.19385745 0.5831044 -0.14489022 0.48167244 0.39908105
0.041034345 -0.065801576 0.031051783 0.37392378 0.24496628 0.039647777 -0.03492628 0.20354092
-0.007086066 0.21924274 0.13228911 -0.074425824 0.08034829 0.06470159 0.4318952 0.57761604
0.03512968 0.196953 0.042421788 0.08720761 0.07805177 -0.001060149 0.15864766 0.2011614
0.15492755 0.02197617 0.1619481 0.16470006 0.23127504 0.18878315 -0.046296142 0.37081257
0.056808818 0.13375342 0.15196939 0.16215917 0.008839303 -0.27576205 0.017375596 0.21437982
-0.14528333 0.110782996 -0.15859503 -0.39331052 0.065472856 -0.104975015 0.055716116 -0.1889969
0.0051927264 0.24677451 0.088982984 0.07461773 -0.2859666 0.1961745 -0.06244451 -0.11702588
0.06442581 0.22404838 -0.13886352 0.16683574 0.1449348 0.32167137 0.20854603 -0.23875475
-0.2605119 -0.14080629 0.20313834 -0.11353462 0.13970742 -0.2112633 -0.042390835 0.13854389
-0.17528468 0.32176912 -0.13108082 -0.24648784 -0.27673018 0.10442051 -0.08483192 -0.33200878
0.16726717 -0.024537861 -0.10876556 0.1206645 0.15146206 0.30966926 0.09254588 -0.18467753
0.16052148 -0.26758254 -0.27901235 -0.05458866 -0.05028006 0.14145982 0.13205281 -0.06258842
-0.08347316 0.36353108 -0.15384828 0.17509243 0.19128266 0.11322408 -0.1292239 0.14344935
0.042847015 -0.2884631 0.15332542 -0.5328774 -0.17182325 0.034210153 0.07720199 -0.04395476
0.2931643 0.0062051327 -0.088939935 -0.19940913 0.14943603 -0.16500565 0.15164647 0.12474035
-0.08677011 -0.13637798 -0.071952045 0.25232738 0.3098808 -0.36191764 -0.28970215 0.3414067
0.24661835 0.018598668 -0.042854235 -0.38011837 0.16433248 0.06634194 -0.09012638 -0.23008314
0.20037419 0.057454072 -0.11271772 0.38934684 -0.494596 0.2815919 0.24029736 0.0237791
-0.19759291 -0.05877016 -0.37778696 -0.07044495 -0.03869873 -0.24241035 0.20253547 0.35281143
-0.03672665 -0.17038159 -0.10291095 0.3127738 -0.0034527937 -0.05292719 0.05340323 -0.22320397
0.043516077 0.14464484 0.23393594 -0.060584802 -0.06700743 0.14768977 -0.0986072 0.11604121
0.034504153 -0.26600343 -0.17020938 0.12554055 -0.17209251 -0.00711272 0.11775589 -0.04849706
-0.063223585 0.07429712 0.09403241 0.17426124 -0.092822485 0.12924212 -0.031756643 -0.35902417
0.0025728971 -0.15685336 0.26034477 0.16223335 -0.17833775 0.10439153 -0.021955812 -0.14970401
0.3217642 -0.1879591 0.25388628 0.30077443 0.16206327 -0.035593707 -0.06380528 -0.06488935
-0.15491045 0.12099959 0.16532746 -0.16587782 -0.018769592 -0.12885372 0.18756019 -0.038646333
0.08902317 -0.29485378 0.0040730354 0.079806075 0.099390656 -0.21400778 0.2864003 0.044531032
00000000: 7edc c8bd d0c9 99be 06ec d1be 366e ae3d
00000010: 8a2d b6bd 0992 54bd de7e 98be ab16 c4be
00000020: fe7a 1bbf a91a 733c db75 dbbe 2fe2 cfbd
00000030: d784 0f3f d4fe 023f 5f15 c4be 049d 873e
00000040: 01a8 5d3e b5f4 03be 2b51 e13e 9b10 23bf
00000050: 4c04 613e fbbe aa3e 2b53 d7be 00c2 5d3e
00000060: 5b37 113f 3da5 2d3e 7ea0 0cbe acce 95be
00000070: 8a22 c73c 607f 86be 4d90 c43d a4c7 b33d
00000080: 7972 fdbd 64cf 353e 0490 35be 9182 46be
00000090: 5446 153f 1a5e 14be c59d f63e 5a54 cc3e
000000a0: a113 283d fac2 86bd 4f60 fe3c f072 bf3e
000000b0: 71d8 7a3e b565 223d dc0e 0fbd 086d 503e
000000c0: 3b32 e8bb 2b81 603e cc76 073e 916c 98bd
000000d0: a58d a43d 4482 843d 5e21 dd3e a5de 133f
000000e0: 24e4 0f3d 0cae 493e 78c2 2d3d e799 b23d
000000f0: 9bd9 9f3d b3f4 8aba 8874 223e 41fd 4d3e
00000100: 54a5 1e3e 5e07 b43c b9d5 253e 22a7 283e
00000110: 5dd3 6c3e 5f50 413e 06a1 3dbd 25db bd3e
00000120: 5db0 683d a8f6 083e dd9d 1b3e 0e0d 263e
00000130: b9d2 103c af30 8dbe 4457 8e3c 6286 5b3e
00000140: 27c5 14be 32e2 e23d bc66 22be ff5f c9be
00000150: a216 863d 24fd d6bd 9536 643d 6788 41be
00000160: bf27 aa3b 75b2 7c3e b63c b63d 2ed1 983d
00000170: 376a 92be f8e1 483e d1c5 7fbd 44ab efbd
00000180: aef1 833d f06c 653e 3d32 0ebe fdd6 2a3e
00000190: ca69 143e 1cb2 a43e 178d 553e 207c 74be
000001a0: d161 85be 862f 10be 7f03 503e d784 e8bd
000001b0: 760f 0f3e 6855 58be 03a2 2dbd 73de 0d3e
000001c0: d47d 33be ecbe a43e 0d3a 06be 4f67 7cbe
000001d0: 94af 8dbe 6cda d53d 5cbc adbd 0efd a9be
000001e0: 1648 2b3e a003 c9bc 7ac0 debd f31e f73d
000001f0: df18 1b3e f88c 9e3e b288 bd3d 1b1c 3dbe
00000200: be5f 243e 9400 89be b5da 8ebe 5c98 5fbd
00000210: 77f2 4dbd d8da 103e da38 073e 5c2e 80bd
00000220: faf3 aabd bf20 ba3e 678a 1dbe 6e4b 333e
00000230: 9adf 433e 07e2 e73d 4553 04be 63e4 123e
00000240: 5a80 2f3d 6fb1 93be 5701 1d3e a76a 08bf
00000250: 6ff2 2fbe f21f 0c3d 141c 9e3d e809 34bd
00000260: a219 963e 6d54 cb3b 2426 b6bd e831 4cbe
00000270: c205 193e 3ef7 28be 3649 1b3e de77 ff3d
00000280: 87b4 b1bd aba6 0bbe 985b 93bd 0e31 813e
00000290: b2a8 9e3e 454d b9be d753 94be dccc ae3e
000002a0: 8589 7c3e 3c5c 983c ec87 2fbd e09e c2be
000002b0: c646 283e 48de 873d 2e94 b8bd ea9a 6bbe
000002c0: e42e 4d3e f654 6b3d 8cd8 e6bd 7858 c73e
000002d0: b03b fdbe d02c 903e 8310 763e 63cc c23c
000002e0: cc55 4abe fbb8 70bd 4b6d c1be 7145 90bd
000002f0: 8f82 1ebd 6b3a 78be 7565 4f3e b3a3 b43e
00000300: af6e 16bd 8378 2ebe fac2 d2bd e323 a03e
00000310: 4448 62bb 2eca 58bd 58bd 5a3d 958f 64be
00000320: ea3d 323d c71d 143e e78c 6f3e c527 78bd
00000330: 313b 89bd fd3b 173e 92f2 c9bd 04a7 ed3d
00000340: 3a54 0d3d 9a31 88be 5e4b 2ebe b48d 003e
00000350: 0539 30be d211 e9bb 002a f13d daa4 46bd
00000360: 5e7b 81bd 1729 983d 1094 c03d 8a71 323e
00000370: b719 bebd 0c58 043e 4113 02bd 04d2 b7be
00000380: 0d9e 283b 2b9e 20be e94b 853e 8020 263e
00000390: 2c9e 36be 3acb d53d addc b3bc 024c 19be
000003a0: 47be a43e 5a78 40be 62fd 813e 1bff 993e
000003b0: eaf3 253e b5ca 11bd 58ac 82bd b5e4 84bd
000003c0: d8a0 1ebe a2ce f73d 9a4b 293e e0db 29be
000003d0: b0c2 99bc 3bf2 03be c70f 403e 9e4b 1ebd
000003e0: c851 b63d 13f7 96be 1977 853b 5e71 a33d
000003f0: 548d cb3d db24 5bbe 0fa3 923e 2c66 363d

hiden_layers.2.bias f4 [64]
0.0045800414 -0.12312005 0.014591867 0.06992888 -0.038007706 -0.01799332 0.017729916 -0.042370703
0.07338796 0.0007399249 0.021366796 -0.03614299 0.08662853 0.0137682 0.25051245 -0.025633726
-0.00050136534 -0.04329011 0.055294342 0.036392804 -0.08122718 -0.06410678 0.09820001 0.024966171
0.09928872 -0.07774408 0.042442977 0.18669665 -0.13507904 0.17403616 -0.055687513 -0.035363384
0.24399024 -0.022279011 0.027463961 0.027961636 0.0005800446 0.053544223 0.03238806 0.058423735
0.036899034 0.117452554 -0.08151136 0.019322949 -0.079735495 0.023400325 -0.12645033 -0.01710199
-0.030320719 -0.052863874 0.08694544 -0.12636764 0.1473872 0.058660313 -0.08566374 -0.0039745425
0.049695157 -0.054161116 -0.066854574 -0.037232507 -0.20960808 0.051810212 -0.018187659 0.097736396
00000000: 2c14 963b 5d26 fcbd ba12 6f3c df36 8f3d
00000010: f8ad 1bbd ba66 93bc 543e 913c e78c 2dbd
00000020: 6d4c 963d 85f7 413a 6b09 af3c ac0a 14bd
00000030: 4c6a b13d 0494 613c 2b43 803e d2fd d1bc
00000040: 0f6e 03ba f850 31bd 527c 623d 9f10 153d
00000050: 705a a6bd 6a4a 83bd 161d c93d db85 cc3c
00000060: e257 cb3d 4a38 9fbd b0d8 2d3d 682d 3f3e
00000070: 2952 0abe 8936 323e 9718 64bd 32d9 10bd
00000080: 94d8 793e 7982 b6bc 1afc e03c cd0f e53c
00000090: 220e 183a 3051 5b3d 58a9 043d ba4d 6f3d
000000a0: 7123 173d f78a f03d 6eef a6bd 294b 9e3c
000000b0: 5d4c a3bd 0ab2 bf3c 327c 01be 7919 8cbc
000000c0: 2863 f8bc ca87 58bd 7310 b23d 8566 01be
000000d0: acec 163e cc45 703d 7970 afbd e13c 82bb
000000e0: 268d 4b3d 0cd8 5dbd 0deb 88bd 1d81 18bd
000000f0: 80a3 56be f236 543d 49fe 94bc 052a c83d

hiden_layers.3.weight f4 [64, 64]
-0.09170014 0.16112675 0.12894216 -0.10405321 -0.07571576 0.2281387 -0.21770357 -0.25521475
0.11091809 0.1487349 0.16653278 0.050722376 0.23340984 -0.3123015 0.22475012 -0.2482816
-0.028926665 -0.13746531 -0.16895398 -0.4867634 0.2837469 -0.16363037 0.22857374 0.37197882
0.30602965 0.063061446 -0.07160693 -0.10727582 0.04148332 0.06588907 -0.048131224 0.23544484
0.12837222 0.12470883 -0.00094886654 0.055685267 0.014760011 -0.12675591 0.008147021 -0.1502199
-0.04862594 0.13114123 -0.111796185 -0.11362178 0.10981105 0.22565892 -0.016866118 -0.08392685
0.24513957 -0.29903898 -0.100306295 0.066041544 0.138817 0.24014574 0.27093554 -0.0020685864
0.19359562 0.08859307 -0.20502163 0.16631141 -0.0069340537 0.16593595 -0.15448432 0.19232129
-0.09464904 0.0012208459 -0.036984175 0.050287124 0.0461612 0.11212281 -0.20524186 0.1153489
-0.179283 -0.16710572 0.13341288 0.0857566 0.2480404 -0.09049396 -0.1703845 0.077435985
0.19056015 -0.06816723 0.23772837 0.12045077 0.14839906 -0.11885216 -0.10101141 0.27899206
-0.14920387 -0.01744245 0.1521932 -0.34506947 0.27014482 -0.04335457 -0.1878083 0.07180205
0.31947005 -0.11471066 0.19908017 0.14460318 -0.076798886 -0.22363843 -0.22835425 0.08846194
0.06955547 -0.09473984 0.06515408 0.1627778 -0.040514834 0.06843703 0.19375677 -0.015009205
0.21754725 -0.08767356 -0.20280856 0.2047625 0.24493952 -0.0037723728 -0.16580398 0.19054227
0.15929797 -0.1354485 0.18714039 0.13080963 0.15623564 0.06927687 -0.022437984 0.108037986
0.058741976 0.13042799 -0.12467728 -0.016621625 -0.14727549 0.10685284 0.2675123 -0.19199641
0.09548134 0.07009384 0.035501856 0.018521795 -0.16815417 0.058032393 0.22279325 0.06929924
0.011709881 0.20575395 -0.2733551 -0.24193025 0.004914997 0.016865512 -0.10947549 0.15967782
0.21103387 0.17987467 -0.24929804 0.20048606 0.1079224 -0.028584573 -0.14263037 -0.17369431
-0.2373925 -0.031057747 0.18521748 0.12884629 0.0009513577 -0.05196506 0.26735505 0.087659895
0.21289067 -0.2659998 -0.14448972 0.06890037 -0.16423856 -0.19527245 0.12630112 -0.12595163
-0.1339125 -0.28263417 0.21888086 0.17407134 0.09820345 -0.11678994 -0.27091864 -0.20156911
-0.2473793 -0.13405323 -0.033901762 0.13932297 0.117218584 0.028460119 0.06284648 -0.010415424
0.06305051 -0.10911962 0.019373883 -0.00673355 -0.29409298 -0.11192362 -0.012841363 -0.18968539
0.14021645 -0.15389775 -0.44649556 -0.15041287 -0.23581417 -0.34715405 -0.07146983 -0.020266492
-0.20114948 0.1771067 0.022411449 0.027267579 0.15858515 -0.002376349 -0.09585574 0.14185022
0.24286802 -0.03133297 0.06889219 0.08138954 0.07687361 -0.09407295 -0.021226874 0.14656606
0.04759687 0.06778229 0.034876265 -0.2633987 -0.21677586 -0.06266025 -0.22152016 -0.078214504
0.046618868 -0.22918716 -0.26783475 0.004333568 0.12152072 -0.0991308 0.14927591 0.15213937
0.09313499 0.1290345 -0.13481408 -0.005535966 0.10037996 0.37334073 0.070549645 0.27055904
0.08953843 0.33197343 0.28723887 -0.08197478 -0.057053264 -0.22559969 -0.068075225 0.02772333
00000000: 48cd bbbd 69fe 243e 6a09 043e d919 d5bd
00000010: dd10 9bbd 319d 693e afed 5ebe 82ab 82be
00000020: 0629 e33d f64d 183e 9287 2a3e 44c2 4f3d
00000030: fd02 6f3e fbe5 9fbe e524 663e 883d 7ebe
00000040: 9df7 ecbc b5c3 0cbe 4602 2dbe 0d39 f9be
00000050: 4647 913e b88e 27be 3c0f 6a3e 0274 be3e
00000060: ebaf 9c3e 5c26 813d a7a6 92bd 6db3 dbbd
00000070: 6aea 293d d9f0 863d 3f25 45bd 7418 713e
00000080: 0274 033e 5867 ff3d 5bbd 78ba 3c16 643d
00000090: f9d3 713c 4dcc 01be 157b 053c 3fd3 19be
000000a0: fe2b 47bd e349 063e 66f5 e4bd 89b2 e8bd
000000b0: 9ee4 e03d 2213 673e d02a 8abc d7e1 abbd
000000c0: de05 7b3e a31b 99be 636d cdbd ca40 873d
000000d0: 0b26 0e3e c4e8 753e 10b8 8a3e 1f91 07bb
000000e0: ee3d 463e 4970 b53d 31f1 51be 8a4d 2a3e
000000f0: 0f37 e3bb 1deb 293e 2331 1ebe dfef 443e
00000100: 5bd7 c1bd ca04 a03a b87c 17bd dff9 4d3d
00000110: 8713 3d3d a5a0 e53d ec2a 52be 0b3c ec3d
00000120: f695 37be c31d 2bbe 639d 083e 28a1 af3d
00000130: 4dfe 7d3e e654 b9bd 4679 2ebe c296 9e3d
00000140: 3322 433e 439b 8bbd 116f 733e e5ae f63d
00000150: ecf5 173e c368 f3bd 12df cebd 0cd8 8e3e
00000160: e6c8 18be 78e3 8ebc 89d8 1b3e f2ac b0be
00000170: 6c50 8a3e 9094 31bd d250 40be f40c 933d
00000180: 9491 a33e 6ced eabd acdb 4b3e db12 143e
00000190: bc48 9dbd 7901 65be b2d5 69be 892b b53d
000001a0: 1973 8e3d f606 c2bd 816f 853d 39af 263e
000001b0: e2f2 25bd b728 8c3d 2d68 463e 2be9 75bc
000001c0: b5c4 5e3e 328e b3bd 0cad 4fbe 43ad 513e
000001d0: 6dd1 7a3e ea39 77bb 85c8 29be 831d 433e
000001e0: 021f 233e 03b3 0abe bba1 3f3e f6f2 053e
000001f0: 3cfc 1f3e 08e1 8d3d ddcf b7bc 0543 dd3d
00000200: 6d9b 703d ea8e 053e cd56 ffbd 132a 88bc
00000210: 63cf 16be a9d5 da3d 5ff7 883e b59a 44be
00000220: b98b c33d 5c8d 8f3d 656a 113d 05bb 973c
00000230: 9b30 2cbe 60b3 6d3d ea23 643e c3ec 8d3d
00000240: cdda 3f3c 2ab1 523e 33f5 8bbe 90bc 77be
00000250: fc0d a13b 8b29 8a3c b034 e0bd 9582 233e
00000260: 4319 583e 1131 383e fc47 7fbe 384c 4d3e
00000270: 6b06 dd3d 322a eabc b20d 12be ecdc 31be
00000280: 0517 73be d16c febc a7a9 3d3e 48f0 033e
00000290: 8964 793a 51d9 54bd c3e2 883e 0887 b33d
000002a0: 0300 5a3e 2031 88be 1df5 13be a31b 8d3d
000002b0: 272e 28be 80f5 47be 1555 013e 77f9 00be
000002c0: 5c20 09be 6db5 90be 4e22 603e c23f 323e
000002d0: e41e c93d 902f efbd d9b5 8abe 2268 4ebe
000002e0: 0051 7dbe 4045 09be 93dc 0abd aeaa 0e3e
000002f0: 4c10 f03d 3225 e93c a8b5 803d 74a5 2abc
00000300: a020 813d 1b7a dfbd fab5 9e3c 1da5 dcbb
00000310: 5b93 96be 3638 e5bd 9564 52bc e33c 42be
00000320: e794 0f3e 5f97 1dbe 119b e4be d505 1abe
00000330: 4579 71be 2dbe b1be c65e 92bd ea05 a6bc
00000340: 21fa 4dbe 755b 353e 3798 b73c 4260 df3c
00000350: 2564 223e 85bc 1bbb 0450 c4bd 2f41 113e
00000360: 65b2 783e 0057 00bd 5917 8d3d 8faf a63d
00000370: e96f 9d3d 52a9 c0bd fbe3 adbc 6a15 163e
00000380: f0f4 423d 71d1 8a3d 6ada 0e3d 32dc 86be
00000390: 7efa 5dbe 0454 80bd 2ed6 62be ed2e a0bd
000003a0: 6df3 3e3d 0ab0 6abe a321 89be 9a00 8e3b
000003b0: dbdf f83d 1705 cbbd c9db 183e 6cca 1b3e
000003c0: 8fbd be3d 9f21 043e b40c 0abe 0c67 b5bb
000003d0: 0294 cd3d 8426 bf3e 557c 903d b786 8a3e
000003e0: ed5f b73d 6cf8 a93e f910 933e 65e2 a7bd
000003f0: afb0 69bd 9b03 67be 066b 8bbd 091c e33c

hiden_layers.3.bias f4 [64]
0.0045089927 0.041977264 -0.016515125 -0.020153467 0.02392632 -0.0012105376 0.014719635 -0.023384606
0.08850126 0.086997196 0.018182501 -0.0026764395 -0.31232896 0.01982915 0.12160783 0.017637888
0.01797335 -0.027095355 -0.07318383 0.0675198 -0.024427615 -0.089572035 -0.06439686 0.023011863
-0.10865301 0.025450286 0.052980248 0.050054263 -0.113046385 -0.14310688 0.016465684 0.06848543
-0.02132438 0.103237726 0.035281423 0.025079682 -0.11055996 0.081141815 0.03725237 -0.11684909
-0.11505716 -0.046632525 0.07630468 -0.08080297 -0.04057649 -0.074652575 0.028268209 0.051826734
0.040943295 0.06634614 -0.16695802 0.007413203 -0.0076921526 0.04179713 0.016016996 -0.011980528
0.076175705 0.03431934 0.09273981 -0.039822217 -0.18034916 0.008544536 0.10250039 0.08273142
00000000: 2cc0 933b 5af0 2b3d ba4a 87bc e218 a5bc
00000010: 2101 c43c e7aa 9eba a02a 713c 1391 bfbc
00000020: 2640 b53d 962b b23d 78f3 943c 3467 2fbb
00000030: 95e9 9fbe be70 a23c 870d f93d 557d 903c
00000040: d93c 933c 14f7 ddbc 67e1 95bd d247 8a3d
00000050: 6c1c c8bc 8b71 b7bd 80e2 83bd 6083 bc3c
00000060: 7885 debd 1e7d d03c d101 593d b305 4d3d
00000070: dd84 e7bd 9c8a 12be 0be3 863c 1742 8c3d
00000080: 77b0 aebc 4d6e d33d 4183 103d e873 cd3c
00000090: 436d e2bd ae2d a63d f195 183d 934e efbd
000000a0: 17a3 ebbd bf01 3fbd a145 9c3d 077c a5bd
000000b0: 8933 26bd 73e3 98bd bb92 e73c 4548 543d
000000c0: 28b4 273d 7ce0 873d 0bf7 2abe 74ea f23b
000000d0: 740e fcbb 7833 2b3d 1336 833c fa49 44bc
000000e0: 0202 9c3d 7092 0c3d 5fee bd3d 9f1c 23bd
000000f0: 73ad 38be 62fe 0b3c b9eb d13d 176f a93d

hiden_layers.4.weight f4 [64, 64]
-0.1501147 -0.15335236 0.12329999 -0.04237446 0.013734618 0.11520542 -0.2291717 0.33937004
-0.10497041 0.08975154 0.12060422 0.20048344 0.13975696 -0.11266893 -0.1379378 -0.06325394
-0.27248558 -0.071558416 0.17624514 0.42115244 -0.29158217 0.024916902 -0.16726632 0.094749585
-0.2297497 -0.09824563 0.11094011 0.2314224 -0.4188918 -0.36206597 -0.5225074 -0.1019854
-0.011841471 0.12184347 0.039076254 -0.26995307 -0.11725782 0.10596121 -0.30226284 0.10754029
-0.10622713 0.09400639 0.12578079 0.13739277 -0.061700404 0.14548804 0.29355827 -0.14173707
-0.16462193 -0.1876541 0.13528432 0.09616446 -0.22965232 0.1349074 0.22067413 0.02889728
-0.01656448 0.16865285 -0.42637044 -0.09762851 -0.46095315 -0.19078055 -0.03735225 -0.028516645
-0.06910442 -0.40178666 -0.11008735 0.1401846 0.06376907 0.09064189 -0.13597703 0.035090175
-0.14404292 -0.20942438 -0.02908649 0.13579798 0.29381514 0.124819584 -0.23110424 0.05176106
-0.23415887 -0.081699766 0.19602063 -0.053287145 0.19857801 0.19876115 0.18714792 -0.024702208
-0.1570581 -0.20642897 -0.12452454 0.12386732 0.15258886 0.12402193 -0.24877462 -0.16315356
0.25814614 0.007888809 0.17789653 -0.01276802 0.08059822 -0.036810406 -0.14538646 -0.030614713
0.4456457 -0.22915773 0.09105062 0.17438579 -0.07389567 0.18231282 0.034777362 0.03132795
-0.08978681 0.16218258 -0.22692338 -0.08864711 0.1385587 -0.028724175 0.16924848 0.07476262
-0.0069406945 0.0327407 0.11299335 -0.16233025 0.30147734 0.07991189 0.08495099 0.13359143
-0.12522693 -0.3279394 -0.06266371 -0.2675744 -0.028763933 -0.06510116 0.10419811 0.02942413
-0.09789865 -0.14781022 0.467041 -0.11115494 -0.018613832 0.29353574 0.097058825 -0.090076484
-0.047881193 0.02441885 0.10041868 0.042222973 -0.10838474 -0.055904683 -0.012830034 0.06214506
-0.6352597 -0.4043551 -0.07310063 -0.034749314 -0.31796637 0.095090285 -0.37508908 0.22433865
-0.037627455 -0.18806283 -0.10716534 0.09014811 0.43387952 0.102635995 -0.01649982 0.17428881
0.13937178 0.2007329 -0.30695873 0.054434694 0.08895822 0.119560495 0.08398263 0.0243306
0.1469087 -0.15764512 0.26096016 -0.36420065 -0.12149408 0.08719473 0.049804445 0.0013344869
-0.29200274 0.28557247 0.15714753 0.13620302 -0.17110354 -0.052041724 -0.0012419776 0.34864092
0.086868905 -0.1364989 -0.11972889 0.18998629 -0.03283422 -0.06741988 0.08312979 -0.24520016
0.1280632 0.35099614 0.03935831 -0.07939122 0.012612964 -0.20406955 0.16799903 0.31328925
-0.004077226 0.050619274 -0.2600552 -0.26179397 -0.2506799 0.19623956 0.4056432 0.20649455
0.26834565 -0.1020493 0.037064612 -0.13081662 -0.081198364 -0.006248682 -0.22722782 -0.1533415
0.106798194 0.10334855 -0.18130358 -0.16435248 0.2627227 -0.092376836 -0.12970594 0.2009748
-0.20865244 -0.0017817649 -0.16768236 0.235728 0.13413805 -0.03661545 -0.021497982 -0.18849851
-0.103082776 0.0695044 -0.14233817 0.083873495 -0.014073233 0.10160666 0.1853854 0.18380632
-0.21325201 -0.03110902 0.1343151 0.026282847 0.33492145 -0.15027474 0.20429191 0.15322934
00000000: abb7 19be 6708 1dbe b584 fc3d d790 2dbd
00000010: 2a07 613c d2f0 eb3d fcab 6abe e9c1 ad3e
00000020: bafa d6bd a8cf b73d 58ff f63d 884b 4d3e
00000030: 731c 0f3e f8be e6bd 913f 0dbe 488b 81bd
00000040: 3b83 8bbe 388d 92bd 9b79 343e 4ba1 d73e
00000050: 424a 95be 881e cc3c dd47 2bbe 120c c23d
00000060: 8143 6bbe 0135 c9bd 9234 e33d fef9 6c3e
00000070: fc78 d6be b660 b9be 0cc3 05bf b9dd d0bd
00000080: bb02 42bc 1289 f93d 6c0e 203d 4a37 8abe
00000090: de24 f0bd 3102 d93d 32c2 9abe 153e dc3d
000000a0: 9c8d d9bd 6c86 c03d aecc 003e b1b0 0c3e
000000b0: 90b9 7cbd d1fa 143e 454d 963e 8623 11be
000000c0: a792 28be 6528 40be f987 0a3e dff1 c43d
000000d0: fa29 6bbe 2a25 0a3e 66f8 613e fdb9 ec3c
000000e0: 3bb2 87bc 55b3 2c3e 3a4d dabe 75f1 c7bd
000000f0: 0d02 ecbe fa5b 43be acfe 18bd bd9b e9bc
00000100: 9e86 8dbd fbb6 cdbe 7a75 e1bd 8d8c 0f3e
00000110: 5c99 823d 75a2 b93d 903d 0bbe b7ba 0f3d
00000120: fd7f 13be 5873 56be ca46 eebc a00e 0b3e
00000130: f06e 963e 69a1 ff3d 97a6 6cbe 6803 543d
00000140: 58c7 6fbe 3552 a7bd a2b9 483e 9f43 5abd
00000150: 0958 4b3e 0b88 4b3e b4a3 3f3e 495c cabc
00000160: d7d3 20be 1e62 53be b906 ffbd 26ae fd3d
00000170: 4140 1c3e 36ff fd3d c6be 7ebe ba11 27be
00000180: bb2b 843e 1040 013c 822a 363e f530 51bc
00000190: ae10 a53d 82c6 16bd 30e0 14be b5cb fabc
000001a0: ac2b e43e 53a8 6abe bf78 ba3d 3092 323e
000001b0: 9d56 97bd 36b0 3a3e b572 0e3d bd51 003d
000001c0: 26e2 b7bd 3113 263e 9a5e 68be 9e8c b5bd
000001d0: 55e2 0d3e f64e ebbc 794f 2d3e 251d 993d
000001e0: c46e e3bb 1d1b 063d 0f69 e73d e739 26be
000001f0: 3d5b 9a3e d8a8 a33d c9fa ad3d 31cc 083e
00000200: 7d3b 00be ace7 a7be d555 80bd 83ff 88be
00000210: 57a2 ebbc c253 85bd d265 d53d e00a f13c
00000220: 167f c8bd 905b 17be ff1f ef3e 34a5 e3bd
00000230: 097c 98bc 514a 963e c7c6 c63d 057a b8bd
00000240: 121f 44bd 0a0a c83c 4fa8 cd3d fff1 2c3d
00000250: d2f8 ddbd 4ffc 64bd 1035 52bc d28b 7e3d
00000260: 61a0 22bf a207 cfbe c8b5 95bd 4c55 0ebd
00000270: 7dcc a2be b2be c23d ad0b c0be 08b9 653e
00000280: 3f1f 1abd 8b93 40be 8079 dbbd 939f b83d
00000290: 7525 de3e d232 d23d a12a 87bc c478 323e
000002a0: 7ab7 0e3e ed8c 4d3e b229 9dbe eaf6 5e3d
000002b0: ba2f b63d 22dc f43d 16ff ab3d f750 c73c
000002c0: 3c6f 163e b96d 21be 929c 853e 8278 babe
000002d0: e3d1 f8bd 2793 b23d bfff 4b3d f3e9 ae3a
000002e0: 6281 95be 8e36 923e 48eb 203e ce78 0b3e
000002f0: c435 2fbe b429 55bd dac9 a2ba 1081 b23e
00000300: 53e8 b13d 5ec6 0bbe 6c34 f5bd c48b 423e
00000310: 2d7d 06bd 6f13 8abd f43f aa3d c015 7bbe
00000320: 0023 033e c4b5 b33e 2e36 213d dd97 a2bd
00000330: 9ba6 4e3c 9cf7 50be f007 2c3e 7367 a03e
00000340: 409a 85bb 2856 4f3d f525 85be dc09 86be
00000350: 1e59 80be 06f3 483e 77b0 cf3e 4f73 533e
00000360: 9a64 893e 39ff d0bd 10d1 173d cbf4 05be
00000370: 544b a6bd bec1 ccbb 69ae 68be 8e05 1dbe
00000380: 03b9 da3d 68a8 d33d a5a7 39be 044c 28be
00000390: 9783 863e 1130 bdbd a2d1 04be 57cc 4d3e
000003a0: fca8 55be 1c8a e9ba edb4 2bbe ae62 713e
000003b0: 7c5b 093e 15fa 15bd 891c b0bc c105 41be
000003c0: 101d d3bd 5358 8e3d 19c1 11be dec5 ab3d
000003d0: 6b93 66bc 2717 d03d acd5 3d3e b937 3c3e
000003e0: bc5e 5abe 58d8 febc e689 093e 204f d73c
000003f0: d37a ab3e 9fe1 19be e631 513e 27e8 1c3e

hiden_layers.4.bias f4 [64]
-0.033118885 -0.039451398 0.055454 -0.0598927 -0.2428627 -0.048385482 0.022062501 0.11089086
-0.04475174 0.06278478 -0.027671115 0.033604752 -0.031115817 -7.860602e-05 0.03746148 -0.02372453
-0.11078851 -0.26213944 0.09275583 0.092799924 0.024644263 0.26255554 -0.05268949 0.08472589
-0.022831468 -0.043273646 -0.03436714 -0.018998606 -0.06143963 0.022210391 -0.039113417 -0.12623397
0.04657785 0.058958355 0.07026078 -0.036302954 0.07032222 0.01814579 -0.03999334 -0.010341741
0.029844075 0.013715861 0.060158804 -0.2414069 -0.068566345 0.05414528 0.08089516 0.047675706
0.09414817 0.06510026 -0.063429385 0.10487267 -0.07837176 0.0010232235 -0.058288183 0.0015868847
0.08289715 -0.03868306 -0.030637087 -0.19293039 -0.028451351 -0.06397622 0.095449574 -0.042511374
00000000: aba7 07bd ca97 21bd bc23 633d 0c52 75bd
00000010: 00b1 78be db2f 46bd 6bbc b43c bf1a e33d
00000020: 9a4d 37bd 4f95 803d 89ae e2bc 23a5 093d
00000030: 99e6 febc 49d9 a4b8 3571 193d f259 c2bc
00000040: 16e5 e2bd 2437 86be c5f6 bd3d e30d be3d
00000050: c4e2 c93c ae6d 863e efd0 57bd c484 ad3d
00000060: 0f09 bbbc b53f 31bd 8fc4 0cbd f7a2 9bbc
00000070: 1fa8 7bbd 91f2 b53c 6435 20bd 7a43 01be
00000080: 6ac8 3e3d 517e 713d e2e4 8f3d 68b2 14bd
00000090: 1905 903d 7ba6 943c 0ed0 23bd 6870 29bc
000000a0: 907b f43c 7eb8 603c 1469 763d 5f33 77be
000000b0: 836c 8cbd 71c7 5d3d 5dac a53d 9a47 433d
000000c0: c1d0 c03d 4953 853d 44e7 81bd 7bc7 d63d
000000d0: 6081 a0bd af1d 863a 97bf 6ebd 04ff cf3a
000000e0: fbc5 a93d 2172 1ebd a1fa fabc 8b8f 45be
000000f0: cf12 e9bc f705 83bd 117b c33d 6820 2ebd
