results/4_model_2_case_2/epoch150/model_weights.pth (torch, 484214 bytes, 88 tensors)

init_layer.0.weight f4 [64, 3]
0	0xbea7d71a	-0.32781297
1	0xbd26c891	-0.04071862
2	0x3daea0ed	0.08526788
3	0x3ec31f88	0.38109994
4	0x3c7c9d3e	0.015418349
5	0x3cbd6e0a	0.02312376
6	0xbdbaa8aa	-0.09114201
7	0xbe8a8eda	-0.27062112
8	0xbe3cc8cc	-0.18435973
9	0x3f0a28b4	0.5396836
10	0x3e887c02	0.2665711
11	0x3dd650d0	0.104646325
12	0xbcbff9d6	-0.02343456
13	0x3eb0b816	0.34515446
14	0x3e67da85	0.22641952
15	0xbde2677c	-0.11054894
16	0xbe9e81a2	-0.30958277
17	0x3e893526	0.26798362
18	0x3ea8ea7c	0.32991397
19	0x3dd2c31f	0.10291123
20	0x3ea666ca	0.32500297
21	0x3e8423e0	0.2580862
22	0x3e6ae652	0.22939423
23	0x3ea2245c	0.31668365
24	0x3ee8f232	0.4549728
25	0xbebdf5c2	-0.3710156
26	0x3dd18497	0.10230368
27	0xbdb0dc90	-0.08635819
28	0xbe2a8fb9	-0.16656388
29	0x3e99f1eb	0.3006738
30	0xbea5fc61	-0.32419112
31	0xbd106a6b	-0.035257738
32	0x3c853417	0.01626019
33	0x3dd46668	0.10371095
34	0x3e2c3509	0.16817106
35	0xbea2155d	-0.31656924
36	0xbd833f87	-0.06408601
37	0xbd08442f	-0.03326815
38	0xbdfbe476	-0.12299435
39	0xbcf14cb1	-0.029455515
40	0x3dd15e62	0.1022308
41	0x3ead7cc4	0.3388425
42	0x3e2dd2ad	0.16974898
43	0xbea9dbaa	-0.33175403
44	0xbd3e8645	-0.04651477
45	0x3e2e7fcc	0.17040938
46	0xbe3ec350	-0.18629193
47	0xbead1e68	-0.3381226
48	0x3e1733ed	0.14765902
49	0xbde1b616	-0.11021058
50	0x3e9de32c	0.3083738
51	0x3e7461f8	0.23865497
52	0x3e8ee793	0.27911052
53	0xbe58a237	-0.2115563
54	0x3e0cc66f	0.13747571
55	0x3c02d88a	0.007986197
56	0xbeb25ad7	-0.3483493
57	0xbe818ea3	-0.25304136
58	0x3e6691e7	0.22516595
59	0xbe60b8bd	-0.21945472
60	0x3e06cb96	0.131636
61	0xbe29ad2a	-0.16569963
62	0xbe054c44	-0.13017374
63	0x3ea4ff3b	0.32225975
64	0xbc8d5546	-0.017252576
65	0xbd9b91f2	-0.07596196
66	0x3b998dcd	0.0046860934
67	0xbd61d916	-0.05513867
68	0xbe9beba4	-0.30453217
69	0xbe0ef9cd	-0.13962479
70	0x3e6d0b48	0.23148835
71	0xbda6f270	-0.0815171
72	0xbd8b1353	-0.06790795
73	0xbd97e54e	-0.07416783
74	0x3e89fbf3	0.26950034
75	0xbdfd4afb	-0.12367817
76	0x3e6f8ccc	0.23393553
77	0xbe4fca33	-0.20291977
78	0x3db77a5d	0.08958886
79	0x3eb3c71a	0.3511284
80	0x3e919294	0.28432143
81	0xbe1cc208	-0.15308392
82	0xbe6ec582	-0.23317531
83	0x3e121fba	0.14269915
84	0x3da271e3	0.079318784
85	0x3e324b83	0.17411618
86	0xbe4e3a83	-0.20139508
87	0x3de0a4ff	0.109689705
88	0xbea65f7a	-0.32494718
89	0x3e1e89c5	0.15482242
90	0xbeba86ce	-0.36430973
91	0xbe4b936b	-0.19880454
92	0xbdfa88f2	-0.122331515
93	0xbdc172e5	-0.094457425
94	0x3d31e703	0.0434332
95	0x3eadede2	0.33970553
96	0xbd9d7bb9	-0.07689614
97	0x3e72760f	0.23677848
98	0x3e8ecb01	0.27889255
99	0xbeb70d49	-0.35752323
100	0x3ebfec0c	0.37484777
101	0xbd671d1e	-0.056424253
102	0xbbca52d0	-0.006174423
103	0xbc6db3f3	-0.014508235
104	0xbe58623e	-0.21131226
105	0xbd5e2f3f	-0.054244276
106	0xbe638249	-0.22217669
107	0xbe8051a2	-0.2506228
108	0x3cd2d8af	0.025738088
109	0xbd56e7ef	-0.052467283
110	0xbe75497d	-0.23953815
111	0xbe4e03e1	-0.20118667
112	0xbddb53c3	-0.10709336
113	0xbcaf4e5c	-0.02139967
114	0x3e9fc765	0.31206813
115	0xbd6f7d05	-0.058468837
116	0x3e4fdf52	0.20300034
117	0xbea4ff16	-0.32225865
118	0x3e9ede6f	0.31029078
119	0x3e707494	0.23481971
120	0x3e2b72f3	0.16743068
121	0x3dcdf692	0.10056795
122	0xbe98dd04	-0.29856122
123	0xbd294fc7	-0.041335847
124	0xbd681e10	-0.056669295
125	0xbe8f853f	-0.28031346
126	0x3cbec6fa	0.023288239
127	0xbd7c72ae	-0.061632805
128	0x3e8ebd1d	0.27878657
129	0xbd5419e1	-0.051782493
130	0x3c124a6a	0.0089288745
131	0x3e6f74db	0.2338442
132	0x3e046611	0.1292956
133	0xbe86d4b0	-0.26334143
134	0xbe8a47c2	-0.27007872
135	0xbeae4001	-0.34033206
136	0xbe8fe006	-0.28100604
137	0x3e4b3acb	0.19846646
138	0x3bdf645a	0.0068173828
139	0xbe16515e	-0.14679477
140	0x3e10e41a	0.14149514
141	0x3e1983cd	0.14991684
142	0x3e72c75b	0.2370886
143	0x3d9fc16d	0.07800565
144	0x3e9f07d9	0.31060675
145	0x3eaf8fc0	0.3428936
146	0x3cf3bc65	0.02975292
147	0x3e3362c5	0.17518146
148	0xbe8a7849	-0.27044895
149	0x3e916488	0.28397012
150	0xbcebfe53	-0.028807795
151	0xbeadc49e	-0.3393907
152	0xbe2c1d86	-0.16808137
153	0xbec8d2d7	-0.39223358
154	0xbe38bb88	-0.18040287
155	0xbde4db26	-0.11174612
156	0x3ec5b238	0.38612533
157	0xbeac2c48	-0.33627534
158	0x3e1ce27e	0.15320775
159	0xbdb0ed92	-0.08639063
160	0xbe8500bc	-0.25977123
161	0x3dab7c31	0.08373297
162	0x3e27a0d1	0.1636994
163	0xbe351628	-0.17684233
164	0xbe97a222	-0.29615885
165	0x3e767c72	0.2407091
166	0xbc34a25c	-0.011025038
167	0x3e8fa2ac	0.28053796
168	0x3e4fe2b1	0.2030132
169	0x3dd69ae3	0.10478761
170	0x3ea38285	0.31935516
171	0x3df1c4a1	0.11805082
172	0xbe01024a	-0.1259853
173	0x3d77bfa2	0.06048549
174	0x3e89aaec	0.26888216
175	0x3e9c95ff	0.30583188
176	0x3db8ad4f	0.09017431
177	0x3e2c7bf5	0.16844161
178	0x3e01e2a7	0.12684117
179	0xbe4ad4e5	-0.19807775
180	0xbe3a9b8d	-0.182234
181	0xbe6abd45	-0.22923763
182	0xbddcf1c3	-0.107883
183	0xbe468e96	-0.1939033
184	0x3d648078	0.05578658
185	0xbd96c8fa	-0.07362552
186	0x3e9aaa76	0.30208176
187	0xbd8c5822	-0.068527475
188	0x3d049d31	0.032376472
189	0x3e90d5ea	0.28288203
190	0x3db6985c	0.08915779
191	0x3e380339	0.1796998

init_layer.0.bias f4 [64]
0	0x3e75d688	0.24007618
1	0xbd741c29	-0.059597168
2	0xbdaf46b8	-0.085584104
3	0xbe288c1c	-0.16459697
4	0xbd8c7096	-0.068574116
5	0xbc00bc28	-0.00785736
6	0x3d750253	0.05981667
7	0x3e0e9264	0.13923031
8	0xbdb5d49c	-0.08878443
9	0xbdfda699	-0.123852916
10	0x3ea626aa	0.32451373
11	0x3dffd906	0.12492566
12	0x3e5c4884	0.21512038
13	0x3e9f1b4b	0.3107551
14	0xbc50418e	-0.012710942
15	0x3e4f2ad8	0.20231187
16	0x3e19f151	0.15033461
17	0x3db55f0a	0.08856018
18	0x3e320a81	0.1738682
19	0xbcc65ae2	-0.024213258
20	0x3ddc9b5d	0.10771821
21	0x3ce44543	0.027865058
22	0x3eaf3e15	0.34227052
23	0x3db8da14	0.0902597
24	0x3e438803	0.19094853
25	0xbdd621a1	-0.10455633
26	0x3dc7d1f9	0.09756846
27	0xbd21bb30	-0.039485157
28	0xbe799090	-0.24371552
29	0x3df53f14	0.11974922
30	0xbda5a09a	-0.08087273
31	0xbe3df861	-0.1855178
32	0xbe0ea474	-0.13929921
33	0x3d9c1314	0.07620826
34	0x3e6c21d2	0.23059776
35	0x3d85124f	0.06497633
36	0xbe04dc9a	-0.12974778
37	0xbd972b11	-0.07381261
38	0xbe72ff96	-0.23730311
39	0xbd0d09d3	-0.034433197
40	0xbe4b0ce2	-0.19829133
41	0xbe5d68e9	-0.21622051
42	0xbe866972	-0.26252323
43	0x3db51d2b	0.08843454
44	0x3e0567fd	0.1302795
45	0xbcbe768c	-0.023249887
46	0xbe32ba1e	-0.1745381
47	0xbda26e71	-0.07931221
48	0xbd8acc25	-0.06777219
49	0x3e11590c	0.14194125
50	0xbe28d033	-0.16485672
51	0xbdbc085f	-0.09181284
52	0x3bfedeb3	0.0077780127
53	0xbd3c7fee	-0.04602044
54	0x3dfee603	0.12446215
55	0x3dd8bc34	0.10582772
56	0x3de56d3c	0.112024754
57	0xbe0ef232	-0.13959578
58	0x3d01ec13	0.03171928
59	0xbe5767f2	-0.21035746
60	0xbd49d8c9	-0.049279008
61	0xbd390c13	-0.04517753
62	0x3dc74031	0.097290404
63	0x3d414656	0.04718622

hiden_layers.0.weight f4 [64, 64]
0	0xbe8aa9e1	-0.27082732
1	0x3e36ebc4	0.17863375
2	0x3dcaa7c8	0.09895283
3	0x3e7518e5	0.23935278
4	0xbe2290ef	-0.158756
5	0xbc68fa82	-0.014219882
6	0x3e15c1d8	0.14624727
7	0xbe0c115a	-0.13678494
8	0x3e5d9a2c	0.21640843
9	0xbcd1ecef	-0.025625674
10	0xbe00c98e	-0.12576887
11	0x3e1fbf08	0.15600216
12	0xbce5c75d	-0.028049165
13	0x3e1fcb7c	0.15604967
14	0x3e823b3c	0.25435817
15	0xbe41889d	-0.1889977
16	0x3c88cc38	0.016698942
17	0xbda395b6	-0.079875395
18	0xbd5b9562	-0.05360926
19	0xbe7babe3	-0.24577288
20	0xbcc226fe	-0.023700234
21	0x3e6e849c	0.23292774
22	0xbd32ddfb	-0.04366873
23	0xbebf9719	-0.37419966
24	0x3e0fecdf	0.14055203
25	0xbd66d042	-0.056350954
26	0xbde11c9a	-0.109917834
27	0xbe558e1a	-0.20854989
28	0xbd8c1df2	-0.06841649
29	0x3c79a0ac	0.015236061
30	0xbe9afe13	-0.30271968
31	0xbca8989c	-0.020580582
32	0xbd382b29	-0.044963036
33	0xbe7c5fe6	-0.24645957
34	0x3dfa4a90	0.12221253
35	0xbd041c25	-0.032253403
36	0xbbac2cca	-0.0052543627
37	0xbdede783	-0.11616423
38	0x3eb15bed	0.34640446
39	0x3d2616b6	0.040549003
40	0x3e0573b2	0.13032416
41	0xbdbc6b3c	-0.09200141
42	0x3e411e50	0.1885922
43	0xbd9ad0b2	-0.07559337
44	0xbd7f8bcf	-0.06238919
45	0xbdc416a1	-0.095746286
46	0x3d98ea89	0.07466609
47	0xbdf65d14	-0.12029472
48	0x3e98948e	0.29800838
49	0xbd79cf0e	-0.06098848
50	0xbe072298	-0.1319679
51	0xbd55ee34	-0.05222912
52	0x3e4e79ef	0.20163701
53	0xbde7e2fe	-0.11322592
54	0x3e365844	0.17807108
55	0x3e85a8d3	0.26105365
56	0xbe08edf8	-0.13372028
57	0x3dc2dfc9	0.0951534
58	0xbd4790b0	-0.04872197
59	0x3e212a97	0.15738903
60	0xbd18b350	-0.03728038
61	0xbe9c5be8	-0.3053887
62	0x3e250124	0.16113716
63	0xbd33e3ae	-0.043918304
64	0x3d15bc3c	0.036556467
65	0xbe71d7bb	-0.23617451
66	0xbe5840dd	-0.21118493
67	0x3db0e8b1	0.08638132
68	0xbe866a20	-0.26252842
69	0xbe3c2f72	-0.18377474
70	0x3e481836	0.19540486
71	0xbe0be0b3	-0.13659935
72	0xbd5c6118	-0.053803533
73	0xbef06cba	-0.46957952
74	0x3eb03aae	0.3441977
75	0x3e200e75	0.15630515
76	0x3e99bfef	0.30029246
77	0x3d9a8e93	0.07546725
78	0x3cee22ef	0.029069392
79	0x3ec2e9f6	0.38069123
80	0x3dbf221a	0.09332676
81	0x3e7a895a	0.24466458
82	0x3ec08145	0.37598625
83	0xbd2c48a6	-0.04206147
84	0x3dd2adcd	0.10287056
85	0xbe384448	-0.17994797
86	0x3f0629c7	0.524075
87	0x3e8d5b7d	0.27608863
88	0xbd67c16a	-0.05658094
89	0xbda6d4d4	-0.081460625
90	0x3e885631	0.2662826
91	0x3d6ce85a	0.057838775
92	0x3d99d429	0.075111695
93	0x3e10791e	0.14108703
94	0xbe1dbd01	-0.1540413
95	0xbefc08ae	-0.49225372
96	0xbe54b7ad	-0.20773192
97	0x3d9c51c6	0.076327845
98	0x3f13d52a	0.5774714
99	0x3e4a81bd	0.19776054
100	0x3e3465d5	0.17616971
101	0xbd6c4b15	-0.05768879
102	0xbe4cf556	-0.20015463
103	0x3dc4eb61	0.096152075
104	0xbdc9407d	-0.09826753
105	0xbdb8ab45	-0.09017042
106	0xbf010d13	-0.50410575
107	0xba28e4f1	-0.00064428063
108	0x3eafde4f	0.34349295
109	0xbe5020c7	-0.20325004
110	0xbeaa2dad	-0.33237973
111	0xbe82f86d	-0.2558016
112	0xbdcf0361	-0.10108066
113	0xbd20d5b3	-0.0392663
114	0xbe27713f	-0.16351794
115	0xbdf16a97	-0.117879085
116	0x3dbfd1b4	0.093661696
117	0xbe42e75c	-0.19033569
118	0x3eb2cc07	0.34921286
119	0x3e28cc9a	0.164843
120	0xbe05dbb0	-0.13072085
121	0xbe91e3fc	-0.2849425
122	0xbe3311d5	-0.17487271
123	0xbe82b869	-0.2553132
124	0x3e4d69a9	0.20059837
125	0x3e40ab31	0.18815304
126	0x3e4ec834	0.20193559
127	0xbd95c54a	-0.073130205
128	0x3df4e876	0.11958401
129	0xbdf5b5e8	-0.119975865
130	0x3e8696ac	0.2628683
131	0xbd818eda	-0.06326075
132	0xbe7b7ab3	-0.24558525
133	0x3bed4c9c	0.0072417986
134	0xbe01e78f	-0.12685989
135	0xbe907220	-0.2821207
136	0x3cc77286	0.024346601
137	0xbd440140	-0.047852755
138	0xbb6aa4b6	-0.0035803742
139	0x3e0728bc	0.13199133
140	0x3e0ebac2	0.1393843
141	0xbe775be0	-0.24156141
142	0x3e4f3c6c	0.20237893
143	0xbdfd3ecc	-0.12365493
144	0xbe3253e4	-0.17414814
145	0xbe704ccb	-0.23466794
146	0x3d7a5907	0.06112006
147	0xbbb9c9d8	-0.0056698136
148	0xbcac324a	-0.021020073
149	0xbe5d8d0d	-0.21635838
150	0xbe0f4b37	-0.13993536
151	0xbb751154	-0.0037394362
152	0xbc9ae80c	-0.018909477
153	0xbdcaa25f	-0.09894251
154	0xbdc830b4	-0.097749144
155	0x3e7eba03	0.24875645
156	0xbc06ccd9	-0.00822755
157	0xbe3c4eb3	-0.18389396
158	0x3eb59d12	0.35471398
159	0x3e538552	0.20656326
160	0xbe4b8092	-0.19873264
161	0xbd906f79	-0.07052512
162	0x3e54ffc0	0.20800686
163	0x3e80de76	0.25169724
164	0xbcf76716	-0.030200522
165	0x3b66b2e5	0.0035201844
166	0xbd98b080	-0.0745554
167	0x3d70471b	0.05866156
168	0xbe424b29	-0.18973984
169	0x3c5918d0	0.013250545
170	0x3e301e8e	0.17199156
171	0x3e384460	0.17994833
172	0x3e4c94b2	0.19978598
173	0x3dae9eb0	0.08526361
174	0xbc972f80	-0.018455267
175	0xbd48f178	-0.049058408
176	0xbd92a379	-0.07160086
177	0x3d158dcf	0.036512192
178	0xbc878899	-0.016544627
179	0x3dd1716c	0.10226712
180	0x3c5275be	0.012845455
181	0x3ca39434	0.01996813
182	0xbe074562	-0.13210061
183	0xbd41f6a6	-0.047354363
184	0xbea14bd0	-0.31503153
185	0x3e0204c6	0.12697133
186	0xbe8c4681	-0.2739754
187	0xbe1275af	-0.14302705
188	0x3e91aacc	0.2845062
189	0xbd3620f6	-0.044465028
190	0xbe843b97	-0.25826713
191	0x3d3916f1	0.045187894
192	0x3e1615a8	0.14656699
193	0xbe20a911	-0.15689494
194	0x3d123d47	0.03570297
195	0xbd9838b6	-0.07432692
196	0x3dff11f3	0.124545954
197	0x3dbb3dd2	0.09142651
198	0xbd49387d	-0.049126137
199	0xbe1d642d	-0.15370245
200	0xbe79e148	-0.24402344
201	0xbe50a4ca	-0.20375362
202	0x3d885f5a	0.06658812
203	0x3dc3f8cd	0.09568939
204	0xbdac311d	-0.08407805
205	0xbe0aca32	-0.13553694
206	0xbca2dc8e	-0.01988056
207	0xbde3a451	-0.11115325
208	0xbde4c666	-0.11170654
209	0x3e216bc8	0.15763772
210	0x3e4d40b1	0.20044209
211	0xbd872bd1	-0.06600154
212	0x3e629301	0.2212639
213	0xbe101977	-0.14072214
214	0xbe1287a7	-0.1430956
215	0xbd82fa21	-0.063953646
216	0x3e26e59a	0.16298524
217	0x3dd5c987	0.10438829
218	0xbd1b67d3	-0.03794081
219	0xbda4343c	-0.080177754
220	0xbdc1669e	-0.09443401
221	0xbe733d5f	-0.2375388
222	0xbde3dd95	-0.11126248
223	0xbc06baa9	-0.008223214
224	0xbe1b90d4	-0.15191966
225	0x3ddd7f04	0.10815242
226	0xbde67431	-0.112526305
227	0x3d1c0f4d	0.03810053
228	0x3c830cb2	0.015997265
229	0xbdd7fb1b	-0.105459414
230	0xbc9fbc7b	-0.019499054
231	0xbcc4c18f	-0.024018077
232	0xbe185cb8	-0.1487912
233	0x3b96238e	0.004581875
234	0x3c981f02	0.018569473
235	0x3e10406e	0.14087078
236	0x3d3ea25e	0.046541564
237	0x3da3b9c0	0.079944134
238	0x3ca0d820	0.019634306
239	0x3d401683	0.04689647
240	0x3d894f55	0.067045845
241	0xbe34d013	-0.17657499
242	0x3e2832bd	0.16425605
243	0xbd163a39	-0.03667662
244	0xbe60c892	-0.21951512
245	0x3ddcbdd4	0.10778394
246	0x3e523cfd	0.20531078
247	0x3d4818d8	0.048851818
248	0xbe57217a	-0.21008864
249	0xbe3df206	-0.18549356
250	0xbe03e941	-0.12881948
251	0x3e178a58	0.14798868
252	0xbd81da12	-0.06340422
253	0xba765655	-0.000939702
254	0xbdb00b0e	-0.085958585
255	0xbddd3100	-0.10800362

hiden_layers.0.bias f4 [64]
0	0xbd872d86	-0.0660048
1	0x3e7cbba8	0.2468096
2	0xbd5b14c1	-0.05348659
3	0xbcb8be9a	-0.022551823
4	0x3d6d821c	0.05798541
5	0x3c6d4700	0.01448226
6	0x3dc7717f	0.097384445
7	0xbd8ac0ee	-0.0677508
8	0x3ca2efd1	0.019889744
9	0xbc3dbdf5	-0.011580934
10	0xbe3854b8	-0.18001068
11	0x3d64e937	0.055886474
12	0x3dac05e7	0.08399563
13	0xbd9c0be4	-0.076194555
14	0xbd5d1ef0	-0.053984582
15	0x3d694aae	0.056955986
16	0xbdb38b93	-0.08766856
17	0xbd92bf38	-0.07165378
18	0x3d8461de	0.06463979
19	0xbe755c5b	-0.23961012
20	0xbe69065b	-0.2275633
21	0x3dc73443	0.09726765
22	0xbc70a248	-0.014687128
23	0xbcb892fa	-0.022531021
24	0xbd905b52	-0.07048668
25	0x3daa63c8	0.08319813
26	0xbd81e0ea	-0.06341727
27	0xbccef70d	-0.025264287
28	0x3d7aaea0	0.06120169
29	0x3c9bb85a	0.019008804
30	0x3d592538	0.05301401
31	0x3d968976	0.07350437
32	0x3d83f5b3	0.06443348
33	0xbd926dbe	-0.07149838
34	0xbdf3b99e	-0.11900638
35	0xbe0091df	-0.12555645
36	0xbd91cb24	-0.07118824
37	0x3d83c2df	0.06433653
38	0xbe3b0149	-0.18262209
39	0xbd88190e	-0.06645404
40	0xbe1b415f	-0.15161656
41	0xbd71fe1d	-0.059080232
42	0x3d9c610b	0.07635697
43	0xbdd89858	-0.10575932
44	0xbd893275	-0.06699077
45	0x3e78ec2b	0.24308841
46	0xbd9adf1a	-0.075620845
47	0xbe61a034	-0.22033769
48	0x3db14c44	0.08657125
49	0xbd8ab63f	-0.06773042
50	0x3e1e6742	0.15469077
51	0xbd387a39	-0.045038436
52	0x3ce07553	0.027399695
53	0xbd7eee37	-0.062238898
54	0x3e67cb20	0.2263608
55	0x3d53e8d0	0.0517357
56	0xbda1afe7	-0.07894879
57	0xbc4a5fdf	-0.012351959
58	0xbe2796d2	-0.16366127
59	0xbdb15b05	-0.08659939
60	0xbf6ccc0f	-0.9249887
61	0x3de5bff5	0.112182535
62	0xbd5f4436	-0.05450841
63	0xbc447aa1	-0.011992128

hiden_layers.1.weight f4 [64, 64]
0	0xbda99cd5	-0.082818665
1	0x3d9f2b87	0.07771974
2	0xbe49d9ac	-0.19711941
3	0x3dd9fc1d	0.1064379
4	0xbebc0dac	-0.3672918
5	0x3e693ed8	0.22777879
6	0xbdc98312	-0.09839453
7	0xbe08120d	-0.13288136
8	0x3d7bebd7	0.06150421
9	0x3e0cd38e	0.13752577
10	0xbccbdabb	-0.024884572
11	0xbe4254e0	-0.1897769
12	0x3d4cc9ac	0.049997017
13	0x3c801afa	0.015637863
14	0xbd35ff16	-0.044432722
15	0xbd359cd4	-0.044339016
16	0x3c82cfe9	0.01596828
17	0x3e8d2914	0.27570403
18	0xbd82a445	-0.06378988
19	0x3da65355	0.08121363
20	0x3e879c68	0.26486516
21	0xbd9156fc	-0.07096669
22	0x3dd108f0	0.10206783
23	0xbd3746cf	-0.044745263
24	0xbe18e48e	-0.14930937
25	0xbe84e4cb	-0.25955805
26	0xbdba5a93	-0.09099307
27	0x3e69d7df	0.22836255
28	0xbe1157e4	-0.14193684
29	0xbdb93e2f	-0.09045064
30	0xbe0dc468	-0.13844454
31	0x3d47e127	0.048798706
32	0xbe93e712	-0.2888723
33	0x3ec5a815	0.386048
34	0xbe262da5	-0.1622835
35	0xbe79b5ce	-0.24385759
36	0xbda078d1	-0.07835544
37	0xbc4ecc39	-0.012621933
38	0xbcff1d3d	-0.031141872
39	0x3dfc98d8	0.1233384
40	0x3df0ca5e	0.117573485
41	0x3e29f733	0.16598205
42	0xbe32a4da	-0.17445698
43	0x3e5b1522	0.2139478
44	0x3e84d2e5	0.2594215
45	0x3de5507e	0.11196993
46	0x3e697cb3	0.22801475
47	0xbe6179bc	-0.22019094
48	0x3d19f1a2	0.037583955
49	0xbe2adedc	-0.16686577
50	0xbc9d7782	-0.019222025
51	0x3dad164e	0.0845152
52	0xbe154759	-0.14577998
53	0x3df9a969	0.121905155
54	0x3c17c395	0.009262939
55	0xbe9b207c	-0.3029822
56	0x3e9c5542	0.30533797
57	0xbe29f8e7	-0.16598855
58	0xbe4ebb7f	-0.20188712
59	0x3dc5539b	0.09635087
60	0x3d8e65c0	0.06953001
61	0x3bb5b387	0.005545083
62	0x3dc799e1	0.09746147
63	0xbe27737f	-0.16352652
64	0x3d1ef9eb	0.03881256
65	0xbc522b74	-0.012827743
66	0xbe3466d2	-0.17617348
67	0x3d9cade4	0.076503545
68	0xbe09a290	-0.13440919
69	0x3ccf937e	0.025338884
70	0xbdd9a0a8	-0.10626346
71	0xbd27d26e	-0.040972166
72	0x3e0d2366	0.13783035
73	0xbde75dc1	-0.11297179
74	0x3e06a5bc	0.1314916
75	0x3e194ed9	0.14971484
76	0x3d9264b6	0.07148115
77	0xbda7c26d	-0.08191381
78	0x3d88df28	0.06683189
79	0x3de274fa	0.11057468
80	0x3d9310b4	0.0718092
81	0xbde86900	-0.11348152
82	0x3e065779	0.13119306
83	0xbe079153	-0.1323903
84	0x3cfcf00e	0.030876186
85	0x3e6463c2	0.2230368
86	0xbe1f6534	-0.1556595
87	0x3dc6c462	0.09705426
88	0xbc8a4fa9	-0.016883688
89	0x3e2ccf56	0.16875967
90	0x3ac4a326	0.0015002235
91	0xbda4b3be	-0.080420956
92	0xbd0e7708	-0.034781486
93	0x3da9df70	0.082945704
94	0xbce582de	-0.028016504
95	0x3e422e6a	0.18963018
96	0x3e859b16	0.26094884
97	0x3e2d82fd	0.169445
98	0xbe4b199b	-0.19833986
99	0xbe3420c3	-0.17590623
100	0xbe0cf7ab	-0.13766353
101	0xbc8fac1a	-0.01753812
102	0xbe2c781e	-0.16842696
103	0xbe894591	-0.26810887
104	0xbe9da5f1	-0.30790666
105	0xbe6f0665	-0.23342283
106	0x3df78a25	0.12086896
107	0xbe3f0938	-0.1865586
108	0x3ddde676	0.108349726
109	0x3e27dee5	0.16393621
110	0xbcfaa2dd	-0.030595237
111	0xbe8053f3	-0.25064048
112	0x3e1afba8	0.15135062
113	0x3de05773	0.109541796
114	0xbe6cbc25	-0.23118646
115	0xbdfaef85	-0.12252716
116	0x3d3bc95b	0.045846324
117	0xbd447d65	-0.047971148
118	0x3e567523	0.20943122
119	0xbd371d01	-0.044705395
120	0x3c7dac48	0.01548297
121	0x3dce8eec	0.10085854
122	0xbc8431c3	-0.01613701
123	0x3d4ebe5a	0.050474502
124	0x3ed4fa4e	0.41597217
125	0x3e01f2de	0.12690303
126	0x3d909706	0.070600554
127	0x3e2d7b84	0.16941649
128	0x3cb91c14	0.022596397
129	0x3e8c40a9	0.27393082
130	0x3d779baa	0.060451187
131	0x3dae7923	0.08519199
132	0x3df84929	0.12123329
133	0x3e805af1	0.25069383
134	0xbde82ecc	-0.11337051
135	0x3e6f46df	0.23366879
136	0x3e5c002f	0.21484445
137	0xbd23796b	-0.039910715
138	0xbe817fa4	-0.25292695
139	0xbcc6686c	-0.024219714
140	0x3dafc1fe	0.08581923
141	0x3d8e0e74	0.069363505
142	0x3e26220b	0.16223924
143	0x3db0f4ec	0.08640465
144	0xbdae3f8d	-0.08508215
145	0xbd9736a6	-0.0738347
146	0x3d51a0b7	0.05117866
147	0xbc335bdc	-0.010947194
148	0xbd812228	-0.06305343
149	0xbe73ff4a	-0.23827854
150	0xbe7529e3	-0.2394176
151	0xbe20bda2	-0.15697339
152	0xbd1a711e	-0.037705533
153	0x3e2223b5	0.15833934
154	0xbe27c3a3	-0.16383223
155	0xbe040ee2	-0.12896302
156	0x3e101073	0.14068775
157	0x3daf1ce3	0.085504316
158	0x3e62a1b4	0.22131997
159	0x3eb625a0	0.3557558
160	0x3e2fedf0	0.1718061
161	0xbe170bcc	-0.14750594
162	0xbde0dc61	-0.10979534
163	0xbe033e49	-0.12816729
164	0x3c515b27	0.01277808
165	0xbe5cfd26	-0.21580943
166	0xbd8b10ae	-0.06790291
167	0xbde7588c	-0.11296186
168	0xbe354162	-0.17700723
169	0xbe8fde6c	-0.28099382
170	0xbe16336c	-0.14668053
171	0xbe2fc6bc	-0.17165655
172	0x3db8756c	0.090067714
173	0x3e013ab0	0.12620044
174	0xbdd46326	-0.103704736
175	0xbc5f570a	-0.013631592
176	0xbbea1757	-0.0071438956
177	0x3cf9a43c	0.03047382
178	0x3d7fe2ef	0.06247228
179	0xbe70c3d3	-0.23512201
180	0x3cb518fb	0.022106638
181	0xbe463e7c	-0.19359773
182	0x3e676e5d	0.22600694
183	0x3b480fd0	0.0030527003
184	0xbdab3fa1	-0.083617456
185	0x3e5a4463	0.2131515
186	0xbdaadec7	-0.08343273
187	0xbc06fbae	-0.008238716
188	0xbd367a65	-0.04455032
189	0x3e0f3eb9	0.1398877
190	0x3d19a08c	0.037506625
191	0x3d5a6b9b	0.053325277
192	0x3e8a07e7	0.26959154
193	0xbccb5c4b	-0.024824282
194	0xbe1c198b	-0.15244119
195	0x3d887093	0.06662097
196	0x3eb810b9	0.35950258
197	0xbe953642	-0.29142958
198	0xbc87bda4	-0.01656992
199	0xbd69991e	-0.05703079
200	0xbd06b099	-0.03288326
201	0xbe09d682	-0.13460734
202	0xbe0ddf8c	-0.13854808
203	0x3ea54f23	0.3228694
204	0x3e75fc29	0.24021973
205	0x3e2be625	0.16787012
206	0x3d1af2ee	0.037829332
207	0x3e012d8a	0.12615028
208	0xbc4549e9	-0.012041547
209	0xbe6d1bd6	-0.2315515
210	0x3de733cb	0.112891756
211	0x3e193946	0.14963254
212	0xbcf0af3a	-0.02938043
213	0xbe90c2dc	-0.28273666
214	0x3d119c34	0.035549358
215	0x3d90426a	0.070439175
216	0x3e455355	0.1927007
217	0x3dc5e2f0	0.096624255
218	0xbe201233	-0.15631942
219	0xbde27ab8	-0.11058563
220	0x3e1c88ac	0.15286511
221	0x3ea3cb41	0.31991008
222	0x3e79039f	0.24317788
223	0x3e793b1e	0.24338958
224	0x3e72a562	0.23695901
225	0xbd6241ff	-0.05523872
226	0xbd85a5c3	-0.06525757
227	0x3d4fc2ef	0.050723013
228	0x3e45450f	0.19264625
229	0xbddc8c05	-0.10768894
230	0x3e38419b	0.17993777
231	0x3e6911d3	0.22760706
232	0x3d8162cf	0.06317674
233	0xbcfa5567	-0.030558301
234	0x3e77e5ec	0.24208802
235	0x3d3a7659	0.04552302
236	0xbe409679	-0.18807401
237	0xbe020bcb	-0.12699811
238	0xbe621067	-0.2207657
239	0xbd895343	-0.06705334
240	0x3bb1f660	0.0054309815
241	0x3e6be741	0.23037435
242	0xbc87c0db	-0.016571453
243	0x3dbe78da	0.09300394
244	0x3e567e63	0.2094665
245	0xbd38373c	-0.04497455
246	0xbe99c63c	-0.30034053
247	0x3d1259f3	0.035730314
248	0xbdf768b8	-0.120805204
249	0xbd315497	-0.04329356
250	0x3e60416e	0.2189996
251	0x3da8367c	0.08213517
252	0xbe37cc3c	-0.17949003
253	0x3e6c3ebe	0.23070809
254	0x3df00a5d	0.11720727
255	0xbe0fbc25	-0.14036615

hiden_layers.1.bias f4 [64]
0	0xbd54f10d	-0.051987696
1	0x3d26f604	0.040761963
2	0x3d435d96	0.047696672
3	0xbd084674	-0.033270314
4	0xbd038eb8	-0.03211853
5	0x3d67a898	0.056557268
6	0xbe273b05	-0.16331108
7	0xbd493396	-0.04912146
8	0xbd7d3574	-0.061818555
9	0x3d43a1e1	0.0477618
10	0xbc2f88c1	-0.010713757
11	0xbd67e866	-0.056618117
12	0x3ce9b084	0.028526552
13	0x3dd48ce3	0.103784345
14	0xbd87f5b5	-0.06638662
15	0xbda40f55	-0.08010737
16	0xbd6f6166	-0.058442496
17	0xbd7561b0	-0.059907615
18	0x3cf71091	0.030159267
19	0x3d935645	0.07194189
20	0xbd62feb0	-0.05541867
21	0x3db58166	0.088625714
22	0xbb1b86f5	-0.0023731564
23	0x3d14e6b8	0.036352843
24	0xbce15f49	-0.027511256
25	0x3bd09885	0.006365838
26	0x3d6551f2	0.055986352
27	0x3d151195	0.03639372
28	0xbd8b8289	-0.06812007
29	0xbdcb7bdf	-0.09935736
30	0xbd720eff	-0.059096333
31	0xbd0ff0d8	-0.035141796
32	0xbd559e47	-0.0521529
33	0xbd8825c2	-0.06647827
34	0x3d85b5fb	0.06528851
35	0x3d3443ba	0.0440099
36	0x3b3968e5	0.0028291282
37	0xbeb0d5c8	-0.34538102
38	0xbd3416ab	-0.04396693
39	0x3d6b793a	0.057488658
40	0x3d94e2d3	0.07269826
41	0xbd7f7be6	-0.062374018
42	0xbd9ac1e1	-0.07556511
43	0xbdff2aae	-0.124593124
44	0xbc49e3fa	-0.01232242
45	0xbd4f7ddb	-0.050657135
46	0xbd7a2e43	-0.061079275
47	0x3d81f31f	0.063452
48	0xbe0edc60	-0.13951254
49	0xbd20a2a0	-0.03921759
50	0x3dca439b	0.09876176
51	0x3d98e538	0.07465595
52	0xbcf84543	-0.030306464
53	0xbd533e18	-0.05157289
54	0x3c4228dc	0.011850562
55	0x3a18306b	0.00058055547
56	0x3cfea4fe	0.031084534
57	0x3d4cfbbd	0.050044764
58	0xbd3f2a6e	-0.046671323
59	0xbd4b2fe6	-0.049606226
60	0x3e25464b	0.16140096
61	0xbd84f025	-0.064911164
62	0xbae49c34	-0.0017441572
63	0xbcd0b48e	-0.02547672

hiden_layers.2.weight f4 [64, 64]
0	0xbde73087	-0.11288553
1	0xbcd777d9	-0.026302265
2	0x3c49c104	0.012314085
3	0xbc9818dd	-0.018566543
4	0xbdf91c13	-0.12163558
5	0xbd3b8441	-0.045780424
6	0xbdc89599	-0.097941585
7	0xbe85f1c4	-0.26161015
8	0xbec0e282	-0.37672812
9	0xbe449ad6	-0.1919969
10	0x3daae081	0.08343602
11	0xbdcbc39a	-0.099494174
12	0xbd74909e	-0.05970823
13	0x3de81053	0.113312386
14	0xbe92edca	-0.28697044
15	0x3e6cda5c	0.23130172
16	0x3e2b7061	0.16742088
17	0xbde0b5c0	-0.10972166
18	0x3e01e070	0.12683272
19	0xbee4cbdd	-0.44686785
20	0x3df0bf9d	0.11755297
21	0x3d1e9c64	0.038723364
22	0xbe580f29	-0.21099533
23	0x3e5989cc	0.21243972
24	0x3dac507e	0.0841379
25	0xbea6df81	-0.32592395
26	0xbe3eb8ef	-0.18625234
27	0xbcd5da43	-0.026105052
28	0xbcd05d22	-0.025435034
29	0xbe0ae57e	-0.13564107
30	0x3e41031a	0.1884884
31	0x3d9ce396	0.07660596
32	0xbe4c2067	-0.19934236
33	0x3d9e0c5e	0.077172026
34	0xbe557d9c	-0.20848697
35	0xbc91b166	-0.017784785
36	0x3ee47a96	0.44624776
37	0x3e420c41	0.18949987
38	0x3e13ffc4	0.14453036
39	0xbdbfd701	-0.093671806
40	0xbc87abe0	-0.016561449
41	0xbd26cfe3	-0.0407256
42	0x3c7d0b82	0.015444638
43	0x3ed8ede5	0.42369
44	0x3dfb9777	0.12284749
45	0xbc78c7e8	-0.01518438
46	0x3dae6f1c	0.08517286
47	0x3e085e5a	0.13317242
48	0x3d8dda2c	0.069263786
49	0x3d8db714	0.06919685
50	0xbecc59d4	-0.39912283
51	0xbeb4b7fb	-0.35296616
52	0xbe30a132	-0.17248991
53	0x3de3eae7	0.111287884
54	0x3e9206b9	0.28520754
55	0x3ea15769	0.31512
56	0xbd99343c	-0.07480666
57	0x3db16488	0.08661753
58	0x3dfe5460	0.12418437
59	0x3e17c5a4	0.14821488
60	0xbe4e749f	-0.20161675
61	0x3c81f849	0.015865462
62	0x3e2623ee	0.16224644
63	0x3e1868fd	0.148838
64	0x3e0292ac	0.12751263
65	0xbe934874	-0.28766215
66	0x3dd7a629	0.105297394
67	0x3d9db386	0.07700257
68	0x3e41d199	0.18927611
69	0x3e32d164	0.17462689
70	0x3eb90b1f	0.36141297
71	0x3e97d44b	0.29654154
72	0x3ca32a93	0.019917762
73	0x3e93882a	0.28814822
74	0x3e75f53c	0.2401933
75	0x3e365ace	0.17808077
76	0xbce60ba5	-0.028081724
77	0xbe95dac8	-0.2926848
78	0xbde00f40	-0.10940409
79	0x3e1d2914	0.15347701
80	0xbdcfc20e	-0.10144435
81	0x3d949160	0.072542906
82	0xbebf0255	-0.37306467
83	0xbe955084	-0.2916299
84	0x3ca62001	0.020278933
85	0xbd99c30d	-0.07507906
86	0x3d844112	0.06457724
87	0xbe332eb1	-0.1749828
88	0x3b322e5c	0.0027188277
89	0xbdbb81f9	-0.0915565
90	0x3e4bd797	0.1990646
91	0x3d95850f	0.073007695
92	0xbd74b07b	-0.059738617
93	0x3d8e79e7	0.06956845
94	0xbb426eeb	-0.0029668163
95	0xbc8c8564	-0.01715345
96	0x3db3670f	0.08759891
97	0x3e8278aa	0.25482684
98	0xbd844dca	-0.064601496
99	0x3e1963a2	0.14979413
100	0x3e17ba2d	0.14817114
101	0xbe009ea0	-0.1256051
102	0x3e0e32e1	0.13886596
103	0xbde4b637	-0.11167567
104	0xbe1038a2	-0.14084104
105	0xbd9b1fc2	-0.07574417
106	0x3da9ab71	0.08284653
107	0x3e1fa5f5	0.15590651
108	0x3da5c125	0.0809348
109	0xbe981459	-0.29703024
110	0xbdc441de	-0.09582876
111	0x3ed3f068	0.41394353
112	0xbd929f24	-0.0715926
113	0x3e8b8038	0.2724626
114	0xbeadc246	-0.3393728
115	0xbe2b7297	-0.16742931
116	0xbdefec25	-0.11714963
117	0x3e53d20a	0.20685592
118	0xbed1cfcb	-0.40978846
119	0xbe730f34	-0.23736268
120	0x3e3c158f	0.18367599
121	0xbd806f88	-0.06271273
122	0xbcf14107	-0.029449953
123	0x3e60cedd	0.21953912
124	0xbe57d370	-0.21076751
125	0x3f00694f	0.5016069
126	0x3d04389c	0.03228055
127	0xbead9c3e	-0.33908266
128	0x3eb1ab30	0.34700918
129	0xbea09649	-0.31364658
130	0xbf01d806	-0.5072025
131	0xbe2e4fd7	-0.17022644
132	0x3da64642	0.08118869
133	0x3df995c9	0.121867724
134	0x3e8a00f9	0.26953867
135	0xbd4501bd	-0.04809736
136	0xbe324320	-0.17408419
137	0x3e987519	0.29776838
138	0xbd01e391	-0.031711165
139	0x3e806765	0.25078884
140	0x3e02ca2e	0.12772438
141	0x3ee15e5f	0.44017312
142	0xbe0bbcb8	-0.13646209
143	0x3d623971	0.05523056
144	0x3db7c36d	0.089728214
145	0xbe79b615	-0.24385865
146	0x3ea9ec6d	0.3318819
147	0xbe67092e	-0.22562096
148	0xbe7eee02	-0.2489548
149	0x3c95619c	0.01823502
150	0x3df3a4cb	0.11896666
151	0xbe73be65	-0.23803098
152	0xbd712783	-0.058875572
153	0xbeb98d04	-0.362404
154	0xbb1d2471	-0.002397802
155	0xbe13ccd2	-0.14433601
156	0x3d2ccb77	0.042186227
157	0x3d3e2f31	0.046431724
158	0x3df89652	0.12138046
159	0x3ecd6d2f	0.40122363
160	0xbd6b039f	-0.0573765
161	0xbe651a2a	-0.22373262
162	0x3d635f92	0.055511065
163	0x3d5a8492	0.053349085
164	0x3f0a8f02	0.5412446
165	0xbe347271	-0.17621781
166	0xbe2e9cee	-0.17052051
167	0x3e1fdc90	0.15611482
168	0x3e5bfa3d	0.21482177
169	0xbc97aa9b	-0.018513968
170	0xbea3c65e	-0.3198728
171	0x3d2927cf	0.04129773
172	0x3e95e9a8	0.29279828
173	0x3d3fccde	0.046826236
174	0xbd9ebd0c	-0.077509016
175	0x3dd54d97	0.1041519
176	0x3e6788ee	0.22610828
177	0x3e0398f3	0.12851314
178	0xbebd1058	-0.36926532
179	0x3e743da2	0.23851636
180	0xbeb3c110	-0.35108232
181	0x3e324c29	0.17411865
182	0x3dc0347d	0.09385011
183	0xbce1b794	-0.027553357
184	0xbde39054	-0.11111513
185	0xbbf23e3d	-0.0073926733
186	0xbe6f5e3f	-0.23375796
187	0xbde56edd	-0.11202786
188	0x3c42e459	0.011895263
189	0xbe2c050e	-0.16798803
190	0x3df60b68	0.12013894
191	0x3e0bcc61	0.13652183
192	0xbdb3496b	-0.08754238
193	0xbdc961e8	-0.09833127
194	0xbcbfcef4	-0.023414113
195	0x3eb6047e	0.35550302
196	0xbd9febd6	-0.07808654
197	0xbe172208	-0.14759076
198	0xbcb8f367	-0.022577
199	0xbe6b17f9	-0.22958364
200	0x3e13a3cb	0.14417951
201	0x3dc8f5e2	0.098125234
202	0x3e3f94bb	0.1870908
203	0xbe171c9f	-0.14757012
204	0x3dc1f71c	0.094709605
205	0x3d742de3	0.059614073
206	0x3d0202e1	0.031741027
207	0x3ddf4248	0.10901314
208	0xbd9cf355	-0.076635994
209	0xbe41fdf1	-0.18944527
210	0xbe174c17	-0.1477512
211	0x3c4501ab	0.012024323
212	0xbe98c9f6	-0.29841584
213	0xbda5cb8a	-0.080954626
214	0x3e045fc1	0.12927152
215	0xbdd3a80a	-0.10334785
216	0xbdfd647b	-0.12372681
217	0x3d8055b4	0.062663466
218	0x3e4843d0	0.19557118
219	0x3e8b51a1	0.27210715
220	0xbd89b22b	-0.06723436
221	0x3e45ab47	0.19303618
222	0xbdabfd20	-0.08397889
223	0xbe9166bb	-0.2839869
224	0xbe6aa166	-0.22913131
225	0xbe19590f	-0.1497538
226	0x3e8e206d	0.27759114
227	0x3e3bc133	0.18335418
228	0xbd237b93	-0.03991277
229	0x3dc105c6	0.09424929
230	0xbd071297	-0.032976713
231	0xbe700f24	-0.23443276
232	0x3e09404d	0.13403435
233	0xbe1e4aa7	-0.15458165
234	0xbc39ee55	-0.011348327
235	0xbe1dc4b7	-0.15407072
236	0x3d250166	0.040284537
237	0xbd96534e	-0.07340108
238	0xbdff29c4	-0.12459138
239	0xbdd2d650	-0.10294783
240	0xbe3185e2	-0.17336228
241	0x3e054278	0.13013637
242	0x3e95b965	0.29243007
243	0xbe2cf46d	-0.16890116
244	0xbe079635	-0.13240893
245	0xbe18ee2d	-0.14934607
246	0x3e80e5ec	0.25175416
247	0xbd5034d3	-0.050831627
248	0x3e0ff602	0.14058688
249	0xbe0b09a5	-0.13577898
250	0xbdf60dee	-0.120143756
251	0x3e749d59	0.23888148
252	0x3df61558	0.1201579
253	0xbe7630e2	-0.24042085
254	0x3e9cd318	0.30629802
255	0x3d107687	0.035269286

hiden_layers.2.bias f4 [64]
0	0xbd41c2be	-0.04730486
1	0xbdac9792	-0.08427347
2	0x3d481ad0	0.048853695
3	0x3d4040e2	0.046936877
4	0x3c255896	0.010091921
5	0xbd167263	-0.03673018
6	0xbd5325bc	-0.05154966
7	0xbd9fad8f	-0.077967755
8	0x3c5bc849	0.013414451
9	0xbda7ca9b	-0.08192941
10	0x3c81c09c	0.015838914
11	0xbc45f95e	-0.01208338
12	0x3bd5091c	0.00650133
13	0x3dae900c	0.085235685
14	0x3d2ce749	0.04221276
15	0x3d0e899a	0.034799196
16	0xbaa3a068	-0.0012483718
17	0xbd6fc449	-0.0585368
18	0x3bc53295	0.0060179927
19	0x3bc9af71	0.0061549474
20	0xbe1e374b	-0.1545078
21	0xbd9b9632	-0.07597007
22	0x3c874837	0.016513927
23	0x3d5d2c30	0.05399722
24	0xbc39a381	-0.011330486
25	0xbcd761dd	-0.026291782
26	0x3d0f04bc	0.034916624
27	0xbd1b917b	-0.037980538
28	0x3c544617	0.012956164
29	0x3ca8d838	0.020610914
30	0xbdb69d21	-0.08916689
31	0x3d3bbe6a	0.04583589
32	0x3c52efe0	0.0128745735
33	0xbd9e7c57	-0.0773856
34	0xbd9971d1	-0.07492412
35	0x3d3ddad1	0.046351258
36	0x3d4fa87f	0.0506978
37	0x3da11c5e	0.07866739
38	0x3cb24ab4	0.021764137
39	0x3c3d9c82	0.011572959
40	0x3d0dda69	0.03463212
41	0xbc6b5a58	-0.014364801
42	0xbd4d1578	-0.050069302
43	0x3ca077c4	0.019588359
44	0x3cc5423e	0.024079438
45	0x3caa0fce	0.02075949
46	0xbd0e8ac9	-0.034800325
47	0xbdfde4c9	-0.12397153
48	0xbbc31cec	-0.0059543755
49	0x3dc6cc0d	0.09706888
50	0x3cf9e5ee	0.030505147
51	0xbe1a0622	-0.15041402
52	0xbd9a93f3	-0.0754775
53	0x3da0b598	0.07847136
54	0xbd44a2ba	-0.04800675
55	0x3c8e06af	0.017337171
56	0x3e01b4d3	0.12666635
57	0xbd33eb96	-0.043925844
58	0x3c13b2b3	0.009014773
59	0xbd6c6337	-0.057711806
60	0xbdae3b38	-0.08507389
61	0x3d9b68d8	0.07588357
62	0x3d16f00a	0.036850013
63	0x3e19fc73	0.15037708

hiden_layers.3.weight f4 [64, 64]
0	0xbd6f207d	-0.058380593
1	0x3e7c30f7	0.24628054
2	0x3e0ea81c	0.13931316
3	0xbcc8882a	-0.02447899
4	0xbe30d5c5	-0.17269047
5	0x3e23353e	0.15938279
6	0x3c08b4eb	0.008343915
7	0xbe6f1ef1	-0.23351647
8	0x3db0fc20	0.08641839
9	0x3d72e07a	0.05929611
10	0x3e7d87b2	0.24758795
11	0xbe114319	-0.14185752
12	0x3e9ab8e2	0.3021918
13	0xbe49659c	-0.19667667
14	0x3e3e0776	0.18557534
15	0xbd38ad8f	-0.045087393
16	0xbe57d12b	-0.21075885
17	0xbdec8114	-0.11548057
18	0x3dfd035c	0.123541564
19	0xbe8621c4	-0.26197636
20	0x3e554243	0.20826058
21	0xbe181b39	-0.14854135
22	0x3e90fde1	0.28318694
23	0x3e5477e4	0.2074886
24	0xbcf31cbf	-0.029676793
25	0x3c3537da	0.011060679
26	0xbe10a4c4	-0.14125353
27	0x3d980351	0.074225076
28	0x3e49092c	0.19632405
29	0x3d8457ac	0.064620346
30	0xbc964ec3	-0.018348103
31	0x3e749600	0.23885345
32	0x3da183c0	0.078864574
33	0x3d73e3f6	0.059543572
34	0xbd9950e4	-0.07486132
35	0x3d601c9f	0.054714795
36	0x3e8bbdc2	0.2729321
37	0x3d995fe7	0.07488995
38	0xbdb03163	-0.0860317
39	0xbd9db382	-0.07700254
40	0xbc531732	-0.012883948
41	0x3de1d9fe	0.11027907
42	0xbea9ddb6	-0.33176965
43	0xbdf240ac	-0.118287414
44	0x3e1239b5	0.14279826
45	0x3e802c3b	0.25033745
46	0x3bd23a87	0.0064156684
47	0xbd9ed062	-0.077545896
48	0x3e0f93e2	0.14021257
49	0xbe6a046b	-0.22853248
50	0xbdb91fb9	-0.09039254
51	0xbe0555e7	-0.1302105
52	0x3e604b7e	0.21903798
53	0x3e66dd05	0.2254525
54	0x3e327571	0.17427613
55	0xbe113b4c	-0.14182776
56	0x3d8abbab	0.06774076
57	0x3e41ad36	0.18913731
58	0xbe131e0f	-0.14366935
59	0x3e2dca55	0.16971715
60	0x3d318d5c	0.0433477
61	0x3e3db798	0.18527067
62	0xbdc1b872	-0.09459008
63	0x3e62e23e	0.22156617
64	0xbe6b3117	-0.22967945
65	0xbd11058c	-0.03540568
66	0xbde5d4d2	-0.11222233
67	0x3d2dabea	0.04240028
68	0xbc44a0c4	-0.01200122
69	0x3e52aafb	0.20573036
70	0xbe50b9a3	-0.20383315
71	0x3dbbed83	0.09176161
72	0xbe3235bc	-0.1740331
73	0xbe847140	-0.25867653
74	0x3e8656b5	0.26238027
75	0x3d9359e8	0.07194883
76	0x3d167c2e	0.03673952
77	0x3c8ece08	0.017432228
78	0x3dabc0a4	0.08386353
79	0x3e5dd765	0.21664198
80	0x3e26c969	0.1628777
81	0xbe8b25af	-0.27177188
82	0x3e3ecdc8	0.18633187
83	0x3e373243	0.17890267
84	0x3e91d549	0.28483036
85	0xbdaf022d	-0.08545337
86	0xbd7a7ffa	-0.061157204
87	0x3e8c46e6	0.2739784
88	0xbdc7b36d	-0.097510196
89	0x3e3f5745	0.18685634
90	0x3e955ea5	0.2917377
91	0xbe931489	-0.28726605
92	0x3ddcd56a	0.10782893
93	0x3da3a3e5	0.07990245
94	0xbe84a627	-0.25908014
95	0x3da4b0f8	0.080415666
96	0x3dabee0d	0.08395014
97	0xbe026c4c	-0.12736624
98	0x3e3b94af	0.18318437
99	0x3e07858b	0.13234536
100	0xbc83ffa6	-0.016113114
101	0xbe03bfd6	-0.12866148
102	0xbe0789e9	-0.13236202
103	0x3e308773	0.1723917
104	0x3dbc6709	0.0919934
105	0x3d8bc33e	0.06824349
106	0x3e00ca17	0.12577091
107	0x3eb6ed30	0.35727835
108	0x3cddb2e4	0.02706284
109	0x3daa5b62	0.08318211
110	0x3e02fa23	0.12790732
111	0x3e06a38e	0.13148329
112	0x3e4111b7	0.18854414
113	0xbec7f457	-0.39053604
114	0xbd6a2b59	-0.057170246
115	0x3e0eabcf	0.13932727
116	0x3e74d94f	0.23911022
117	0x3d331c81	0.043728355
118	0xbe39af5f	-0.18133305
119	0x3e0bfd60	0.13670874
120	0x3e449389	0.19196905
121	0xbe87d024	-0.26525986
122	0xbc03fb2b	-0.008055489
123	0x3e0c05b8	0.13674057
124	0x3e1a2eda	0.15056935
125	0x3dc375fb	0.09543987
126	0x3d1032a7	0.035204556
127	0x3eb1c69c	0.3472184
128	0xbdca43f8	-0.09876245
129	0x3e489f04	0.1959191
130	0xbe36237d	-0.17786975
131	0xbd6ddda1	-0.05807269
132	0xbda86e15	-0.082241215
133	0x3c6a75ba	0.014310295
134	0x3e66ea85	0.225504
135	0xbe35d975	-0.17758735
136	0x3e26b825	0.16281183
137	0x3e098e9c	0.13433307
138	0xbe78b3d2	-0.24287346
139	0xbc564d03	-0.013079884
140	0xbe5079f4	-0.20359021
141	0x3c25606d	0.0100937905
142	0x3d56c3a0	0.052432656
143	0xbd37c683	-0.04486705
144	0x3d7cf4bb	0.06175683
145	0x3dbc4ea3	0.09194686
146	0xbe0caf0b	-0.13738649
147	0xbdf2dda0	-0.11858678
148	0xbec4ace2	-0.3841315
149	0x3c31281a	0.010812784
150	0xbdc54bde	-0.09633611
151	0x3e0ec38c	0.13941783
152	0xbc499cb3	-0.012305426
153	0x3e5f9cb6	0.21837124
154	0xbdd23d04	-0.10265544
155	0x3e23394f	0.1593983
156	0x3e59fb1b	0.21287195
157	0x3dc358ef	0.09538447
158	0xbdb2f25d	-0.087376334
159	0xbdf5a9c3	-0.1199527
160	0xbe3136d5	-0.17306073
161	0xbd1e6d34	-0.038678363
162	0x3e225617	0.15853153
163	0xbc4f2ec6	-0.012645429
164	0xbe2d8929	-0.16946854
165	0xbdf736d2	-0.12071003
166	0x3e2a47a4	0.16628891
167	0x3de61e89	0.11236293
168	0x3e385517	0.18001209
169	0xbec5879e	-0.3858003
170	0xbde76d39	-0.113001294
171	0x3c86d131	0.016457172
172	0xbd2e5b64	-0.042567626
173	0xbe39eb71	-0.1815622
174	0x3e0d1b0c	0.13779849
175	0xbe5b564a	-0.21419635
176	0xbd31fcd3	-0.043454003
177	0xbf04dc71	-0.51898867
178	0x3e29959f	0.16560982
179	0x3e169c5a	0.14708081
180	0x3dae2d43	0.08504727
181	0xbd69913f	-0.057023283
182	0xbee25ecb	-0.44212946
183	0xbde904d8	-0.11377877
184	0xbe818fe1	-0.25305083
185	0xbe320c2a	-0.17387453
186	0x3d8d139a	0.06888504
187	0x3e3f0d5f	0.18657444
188	0x3e4573c6	0.19282445
189	0xbd8b6b0c	-0.06807527
190	0x3e88ab9c	0.26693428
191	0xbe2af7df	-0.16696118
192	0x3e663fde	0.22485301
193	0xbe130005	-0.14355476
194	0x3e2bb8c1	0.16769697
195	0xbce70331	-0.028199764
196	0xbe7beb1a	-0.24601403
197	0xbe300a95	-0.17191537
198	0x3dd684b3	0.10474529
199	0xbdf1de98	-0.118100345
200	0x3dfe2a85	0.12410454
201	0xbdfa0f9e	-0.1221001
202	0xbe34d637	-0.17659841
203	0xbe07a311	-0.13245799
204	0xbe737747	-0.2377597
205	0xbea9280f	-0.33038375
206	0xbcbe1622	-0.023203913
207	0xbcdf3fb3	-0.027252054
208	0xbdd995b5	-0.106242575
209	0x3ec3c432	0.38235623
210	0x3d796bf2	0.06089396
211	0xbd5a1abb	-0.05324815
212	0x3e1827b0	0.1485889
213	0xbc645e15	-0.0139384465
214	0xbde0fc25	-0.10985593
215	0xbc9534da	-0.018213678
216	0x3eaa2ab9	0.3323572
217	0x3c1307c1	0.008974017
218	0x3dc4cf4b	0.096098505
219	0x3dc8fe10	0.098140836
220	0x3e792a5f	0.2433257
221	0xbe3acfbf	-0.18243311
222	0xbbcb5655	-0.00620536
223	0x3ccff315	0.025384465
224	0x3e5d3426	0.21601924
225	0x3e5b89ff	0.2143936
226	0x3e321446	0.17390546
227	0xbe2f9ca6	-0.171496
228	0xbe19140c	-0.14949054
229	0xbda14c7c	-0.07875916
230	0xbe6f1767	-0.23348771
231	0xbdf1293b	-0.11775442
232	0x3bd8d86f	0.006617598
233	0xbe9d30ed	-0.3070139
234	0xbe5a3409	-0.21308912
235	0xbde8a0d6	-0.11358802
236	0xbcb874c7	-0.022516621
237	0xbe7e0f3e	-0.24810502
238	0x3e703b9d	0.2346024
239	0x3e34d371	0.17658783
240	0xbe424988	-0.18973362
241	0x3db73e78	0.08947462
242	0xbe8bd6cb	-0.27312312
243	0xbe084143	-0.13306145
244	0x3e1fda63	0.15610652
245	0x3e6aead0	0.22941136
246	0x3dc0a733	0.09406891
247	0x3e54c588	0.20778477
248	0x3e02d80f	0.12777732
249	0x3e62bf52	0.22143295
250	0x3e60a10c	0.21936435
251	0xbde46701	-0.11152459
252	0x3d38868d	0.045050193
253	0xbe8d2b09	-0.27571896
254	0xbe0406ac	-0.1289317
255	0xbd3f9649	-0.046774182

hiden_layers.3.bias f4 [64]
0	0xbd4c0a89	-0.049814735
1	0xbcde9867	-0.02717228
2	0xbda627e2	-0.08113076
3	0xbd261690	-0.04054886
4	0x3d4f3301	0.05058575
5	0xbd7462b2	-0.059664436
6	0x3de07877	0.10960477
7	0x3bd14802	0.006386758
8	0x3daaae3b	0.08334013
9	0xbd6cfb32	-0.057856746
10	0x3d9d73b7	0.076880865
11	0xbd46e3ed	-0.04855721
12	0xbb13a5d5	-0.0022529264
13	0x3d02b14b	0.03190736
14	0x3d4b11f2	0.04957766
15	0x3d21c478	0.039494008
16	0x3dbc15f9	0.091838785
17	0xbd66d37b	-0.056354027
18	0x3df8ed0c	0.12154588
19	0x3dfdbd87	0.12389665
20	0xbd59bb42	-0.0531571
21	0xbd8089c4	-0.06276277
22	0xbda8deb9	-0.08245606
23	0x3e262fb8	0.16229141
24	0xbd57073f	-0.052497145
25	0x3d5fd8a4	0.054649964
26	0xbbb671b7	-0.005567755
27	0xbd720725	-0.059088845
28	0x3ca09828	0.019603804
29	0xbda56788	-0.08076388
30	0xbd62208b	-0.055206817
31	0x3be95af9	0.0071214405
32	0xbcdc1215	-0.026864091
33	0x3e076f80	0.13226128
34	0x3ddef85c	0.108872145
35	0xbd9250da	-0.071443275
36	0xbc6c923c	-0.014439162
37	0xbd7b422d	-0.061342407
38	0x3d830e7b	0.06399246
39	0xbd2f0230	-0.042726696
40	0xbd001f9f	-0.031280156
41	0x3d58f63d	0.052969206
42	0x3d917a41	0.07103396
43	0x3de5b8d6	0.11216895
44	0xbd13ca17	-0.0360814
45	0xbd0b4ce6	-0.034008883
46	0xbdcaf6b5	-0.09910337
47	0xbd59da28	-0.053186566
48	0xbcb022dd	-0.021501
49	0x3cc17c2e	0.023618784
50	0xbc2731c4	-0.010204736
51	0xbdb01b6b	-0.085989796
52	0x3dc85a0f	0.09782802
53	0x3c7552a3	0.014973315
54	0xbc390708	-0.01129318
55	0xbca79a1f	-0.020459233
56	0x3d627b59	0.055293415
57	0x3d8da463	0.0691612
58	0x3c8a3045	0.01686872
59	0xbd5887d0	-0.052863896
60	0x3d59a54a	0.053136148
61	0x3d737c53	0.059444737
62	0xbd5f00f6	-0.054444276
63	0x3c8a5fef	0.016891448

hiden_layers.4.weight f4 [64, 64]
0	0xbe3d8052	-0.18505982
1	0x3de71af1	0.112844355
2	0x3dd8249e	0.10553859
3	0xbea0fa21	-0.31440833
4	0xbc581b60	-0.01319012
5	0xbd4bf03f	-0.049789663
6	0xbdc077eb	-0.093978725
7	0x3e21609a	0.15759507
8	0xbda83b92	-0.08214487
9	0xbcee8de9	-0.029120402
10	0xbccbef21	-0.024894299
11	0x3d8dc884	0.06923011
12	0x3c4212cd	0.011845303
13	0xbdfe7a67	-0.1242569
14	0xbdd7e31f	-0.10541367
15	0xbda7b70e	-0.08189212
16	0x3b5a8540	0.0033343583
17	0xbd857709	-0.06516845
18	0x3dd6d744	0.104902774
19	0x3e86e593	0.26347026
20	0xbd202f60	-0.03910768
21	0x3d8a1ba9	0.06743557
22	0xbe8a6bf4	-0.27035487
23	0xbda1c9cc	-0.07899818
24	0x3c4378d8	0.011930667
25	0xbe10443f	-0.14088534
26	0x3e2ade6a	0.16686407
27	0x3e317599	0.17330016
28	0xbe3121ef	-0.17298101
29	0xbe7b2ae6	-0.24528083
30	0xbe007b15	-0.12546952
31	0xbd40cbbc	-0.047069296
32	0x3e01b8c5	0.1266814
33	0x3d44ae52	0.048017807
34	0x3dbe429d	0.09290049
35	0xbe3b5b57	-0.18296562
36	0x3e58cd95	0.21172173
37	0xbe1e6cfc	-0.15471262
38	0xbdf687c8	-0.12037617
39	0x3c2d3c8b	0.010573517
40	0xbe704d1b	-0.23466913
41	0xbd3f9272	-0.04677052
42	0x3e31b8fd	0.17355724
43	0x3d117c02	0.035518654
44	0xbaa3d12b	-0.001249825
45	0x3da0a138	0.0784325
46	0x3e81ca5c	0.253497
47	0xbde06d21	-0.10958315
48	0xbe13be2d	-0.14428015
49	0xbe286178	-0.16443431
50	0x3dd83c68	0.105583966
51	0x3cbd225a	0.02308767
52	0xbe8c6b91	-0.27425817
53	0x3d58f663	0.052969348
54	0x3e422ab3	0.18961601
55	0xbe0a9be4	-0.1353603
56	0x3d8514d5	0.06498114
57	0x3cad2c57	0.021139307
58	0xbeb86091	-0.36011174
59	0xbe088ae7	-0.13334237
60	0x3e192d30	0.14958644
61	0xbd291eca	-0.04128913
62	0x3bf7c4df	0.0075613107
63	0xbdc901ac	-0.09814772
64	0xbd5e7fa8	-0.05432096
65	0xbe1a02ba	-0.15040103
66	0xbd4f4214	-0.050600126
67	0x3a935d06	0.0011242933
68	0xbbb83086	-0.005621019
69	0x3e16a17c	0.14710039
70	0xbeb065ef	-0.3445277
71	0xbd4df7a4	-0.050284997
72	0xbe79d187	-0.24396335
73	0xbdc4ff42	-0.09618999
74	0xbd03b79e	-0.032157533
75	0x3cb365eb	0.021899184
76	0x3e6c507b	0.23077576
77	0x3e2f55aa	0.17122522
78	0xbe4a8db8	-0.19780624
79	0x3daec22d	0.0853313
80	0xbeb2bb32	-0.34908444
81	0xbdac5076	-0.08413784
82	0x3e2d5330	0.16926265
83	0x3c8c459f	0.017123042
84	0x3e0bde14	0.13658935
85	0x3e33b411	0.17549159
86	0x3dcacc95	0.09902302
87	0xbe502784	-0.20327574
88	0x3e2aebc7	0.16691504
89	0xbe6af883	-0.22946362
90	0xbe0e7b94	-0.13914329
91	0x3e06b574	0.13155156
92	0x3e011eb8	0.12609375
93	0x3d44823a	0.047975756
94	0xbe5cb81e	-0.2155461
95	0xbe904626	-0.2817852
96	0x3e3aec1a	0.18254128
97	0x3d89964c	0.0671812
98	0x3e7c6b30	0.24650264
99	0x3cf29e64	0.029616542
100	0xbdeb63c3	-0.114936374
101	0xbbfcbc37	-0.0077128666
102	0x3d87e66b	0.066357456
103	0xbc43b230	-0.011944339
104	0x3ee35372	0.443996
105	0xbdbafd5f	-0.09130358
106	0x3df16ee5	0.117887296
107	0x3d697be8	0.05700293
108	0xbdc473a9	-0.09592373
109	0x3f1315bb	0.57455033
110	0x3db9a060	0.09063792
111	0x3d03587e	0.032066815
112	0xbd9f2de2	-0.07772423
113	0x3e56c2f4	0.20972806
114	0xbe3ed361	-0.18635322
115	0xbe04f60b	-0.12984483
116	0x3d8a5666	0.067547604
117	0xbacdc3b9	-0.0015698589
118	0x3e62190a	0.22079864
119	0xbd58d417	-0.05293664
120	0x3cfc851e	0.030825194
121	0xbdd56858	-0.104202926
122	0x3de4412f	0.11145245
123	0xbcd2f2a9	-0.025750475
124	0x3e439a37	0.19101797
125	0xbeab411a	-0.33448106
126	0x3d80eb6b	0.062949024
127	0x3daf65b7	0.085643224
128	0xbe1c5403	-0.15266423
129	0xbde7e26a	-0.11322482
130	0xbdda51fe	-0.1066017
131	0xbe57c0dd	-0.21069665
132	0xbddd7a69	-0.108143635
133	0xbd9bc8dc	-0.0760667
134	0x3c27ae4c	0.010234427
135	0x3dcb1b1b	0.09917279
136	0xbd9647e9	-0.073379345
137	0xbe66e807	-0.22549449
138	0x3dc0fc48	0.09423119
139	0xbd0635f7	-0.03276631
140	0xbcb627f7	-0.022235854
141	0x3e9f1d69	0.31077126
142	0x3de5ed3e	0.11226891
143	0xbe12e015	-0.14343293
144	0xbbcb3eaf	-0.006202541
145	0x3e2918f9	0.16513433
146	0xbdb7d99b	-0.08977052
147	0x3d5d31b6	0.054002486
148	0xbe1356cd	-0.1438858
149	0xbe50c203	-0.2038651
150	0xbe0585cd	-0.13039322
151	0x3dc29d14	0.095026165
152	0xbe37cc4c	-0.17949027
153	0xbe83edfd	-0.25767508
154	0xbe6455a5	-0.22298296
155	0x3dbf7a83	0.09349539
156	0xbe4a6e43	-0.19768624
157	0x3e6d8f22	0.23199132
158	0xbdf35813	-0.11882033
159	0x3e6b2f55	0.22967274
160	0xbd2feeab	-0.04295222
161	0x3bf7799d	0.007552339
162	0xbe52d7c1	-0.20590116
163	0x3e798225	0.24366052
164	0x3df41b1c	0.11919233
165	0xbd9098c5	-0.070603885
166	0xbdce27ff	-0.100662224
167	0x3e4e35ee	0.2013776
168	0x3eab2b6a	0.3343156
169	0x3dac0c98	0.084008396
170	0xbe6f9f03	-0.23400502
171	0xbdd8a41f	-0.105781786
172	0xbc315690	-0.010823861
173	0xbc931ce6	-0.017958116
174	0x3e56837e	0.20948598
175	0x3e140d61	0.14458229
176	0x3e50418a	0.20337501
177	0xbce1b436	-0.027551752
178	0x3e8af02f	0.2713637
179	0xbe481725	-0.19540079
180	0xbe22819b	-0.15869753
181	0x3e946227	0.28981134
182	0xbd073722	-0.033011563
183	0xbbe5a1de	-0.0070078215
184	0xbe07a181	-0.13245203
185	0x3eabd19f	0.33558366
186	0x3e7e3587	0.24825107
187	0x3e7e9425	0.248612
188	0x3e1054d1	0.14094855
189	0xbcf355cd	-0.029703999
190	0x3d7e77c5	0.06212594
191	0x3e53f755	0.20699818
192	0x3c82e2ac	0.015977226
193	0xbde8b411	-0.1136247
194	0xbd935dcf	-0.07195627
195	0x3e05ea1f	0.13077591
196	0x3e1aad39	0.15105142
197	0x3d9c9a8e	0.076466665
198	0xbc1a6041	-0.009422363
199	0xbd2a4629	-0.041570816
200	0x3e2b855b	0.1675009
201	0x3e006ff5	0.12542708
202	0x3e122425	0.142716
203	0xbe083347	-0.13300811
204	0xbdda56ff	-0.106611244
205	0xbdc09c11	-0.09404767
206	0x3e7c84fe	0.24660107
207	0x3e70647b	0.2347583
208	0x3c8ff7fd	0.017574305
209	0x3e0565ab	0.13027065
210	0xbe90baf3	-0.2826763
211	0xbee56efd	-0.4481124
212	0xbe7c701a	-0.24652138
213	0x3e12b530	0.1432693
214	0x3e8c44e7	0.27396318
215	0xbd8ad222	-0.06778361
216	0x3e34d8ff	0.17660902
217	0xbdbb9ec0	-0.091611385
218	0x3dcd281a	0.100174144
219	0xbd874531	-0.06604994
220	0x3c603405	0.013684277
221	0x3df9d5b2	0.12198962
222	0x3c633afb	0.0138690425
223	0xbe565bac	-0.20933408
224	0xbdd5765d	-0.10422967
225	0x3d6208a8	0.055184036
226	0xbde50523	-0.111826204
227	0xbdb67a93	-0.08910098
228	0x3e0109f6	0.12601456
229	0xbd4f5a84	-0.05062343
230	0xbdd30cff	-0.10305213
231	0x3e8012df	0.25014398
232	0xbda57a13	-0.080799244
233	0x3e675d10	0.22594094
234	0xbe442373	-0.19154148
235	0x3e1abd32	0.15111235
236	0x3e093bfc	0.13401788
237	0xbe0bb123	-0.13641791
238	0xbe06f78e	-0.13180372
239	0xbee43ebb	-0.4457911
240	0xbda63eb6	-0.0811743
241	0x3e619a21	0.22031452
242	0xbd1b7dce	-0.037961774
243	0x3e3a83aa	0.18214288
244	0xbdcb42ef	-0.09924876
245	0x3e2dac9e	0.1696038
246	0x3e0f1586	0.13973054
247	0x3e46b474	0.19404775
248	0xbe7a5abd	-0.24448676
249	0xbe927a0b	-0.28608736
250	0x3d892b59	0.06697721
251	0x3ddaa1da	0.10675402
252	0x3dd98693	0.10621371
253	0xbd88f98b	-0.066882215
254	0x3e27d3c1	0.16389371
255	0x3e77cd65	0.24199446

hiden_layers.4.bias f4 [64]
0	0xbbc1a7fe	-0.005909919
1	0x3d1c5a37	0.038171973
2	0x3d1f1048	0.038833886
3	0xbd8661a9	-0.06561596
4	0x3c1a0529	0.009400644
5	0x3d2ba4e4	0.0419053
6	0x3e66297e	0.22476766
7	0xbc5652ef	-0.013081296
8	0xbd21676d	-0.039405275
9	0x3da471bc	0.080295056
10	0x3da9b602	0.08286668
11	0x3dc086ef	0.094007365
12	0x3d3aefd3	0.04563887
13	0xbc75cd91	-0.015002624
14	0xbbb69734	-0.005572224
15	0x3dd6e28c	0.10492429
16	0x3c829bbf	0.015943406
17	0x3d1ce683	0.03830577
18	0x3d992ae7	0.07478886
19	0x3d17bac0	0.037043333
20	0x3da6103b	0.081085645
21	0xbda3f02e	-0.08004795
22	0xbd201287	-0.03908017
23	0x3c5ad769	0.013357022
24	0xbd851b31	-0.06499327
25	0xbd623db7	-0.055234637
26	0xbe1fa1f7	-0.15589128
27	0x3c16dd4d	0.009208036
28	0x3c96b9c6	0.01839913
29	0x3cfbcf2c	0.030738436
30	0xbc286b79	-0.01027953
31	0xbd465e93	-0.048430037
32	0xbd5e184e	-0.054222398
33	0x3d342a09	0.0439854
34	0x3a9d113f	0.0011983289
35	0xbdada0af	-0.084779136
36	0x3d213546	0.039357446
37	0x3d5c803a	0.053833224
38	0xbd870de8	-0.06594449
39	0xbd32ff51	-0.04370052
40	0x3d2d2ebc	0.042280897
41	0xbccd4099	-0.025055217
42	0x3b75a45a	0.0037481994
43	0xbccd2a6d	-0.025044644
44	0xbdb644dc	-0.08899853
45	0x3cebd8a7	0.028789831
46	0x3dcd593f	0.10026788
47	0x3d44849d	0.047978032
48	0x3d76c53f	0.060246702
49	0xbd749d09	-0.059720073
50	0xbc051b6f	-0.008124216
51	0x3d931e0a	0.07183464
52	0x3d4a8eb2	0.04945249
53	0x3cb68531	0.022280307
54	0x3ba2de17	0.004970323
55	0xbe1fcb1e	-0.15604827
56	0xbdc32757	-0.09528988
57	0xbd2503a8	-0.04028669
58	0xbd588dbe	-0.05286955
59	0xbce1c777	-0.027560933
60	0x3c972f27	0.018455101
61	0xbdd29f81	-0.10284329
62	0xbc254f7b	-0.01008975
63	0xbb45511d	-0.0030108162
