results/7_model_3_case_2_zoom/epoch800/model_weights.pth (torch, 484214 bytes, 88 tensors)

init_layer.0.weight f4 [64, 3]
-0.1102198 -0.07821493 0.34024003 0.1281642 0.035930518 0.30935255 0.032374956 -0.2503885
-0.19230482 0.2158344 -0.006660861 0.025732191 -0.055036742 0.064729 0.6300044 -0.1818648
-0.35299602 0.19549488 0.36693445 -0.005962979 0.3694303 0.25905284 0.22732364 0.2561442
0.44017532 -0.3555047 0.16623744 -0.124138914 -0.11316805 0.4293317 -0.09435534 0.009879522
-0.48143455 0.1255354 0.12792414 -0.86758727 -0.032518744 0.00024281244 0.6589345 0.004046321
0.012359767 1.1869638 0.12268506 -0.2935612 0.10813474 0.07772155 0.011420533 -1.0397984
0.12374496 -0.058332916 0.26082054 0.22278352 0.2771266 -0.2532591 0.019823076 -0.003195337
-0.3747177 -0.096493036 0.035210233 -0.45894483 0.06614227 -0.13321058 -0.60995954 0.1884724
-0.008908856 -0.19209895 0.14620443 -0.19897568 -0.4554073 -0.02813989 0.28841335 -0.05885313
-0.010428805 -0.005861364 0.9483247 -0.002642959 0.061749674 -0.27972317 -0.05306066 -0.0119450865
0.9415303 -0.16238211 -0.24304256 0.4016768 0.05813218 0.10481869 -0.56660146 -0.050388422
-0.24044763 0.19146784 -0.35990444 -0.11862476 -0.47480792 -0.053098314 0.071910545 0.44839272
-0.12508085 0.18778802 0.7046687 -0.52965206 0.21750931 -0.09800625 0.0028460093 -0.040065564
-0.33895746 -0.0023526202 -0.04488129 -0.70210147 0.01909759 -0.005497284 -0.39582422 -0.1376743
-0.029479675 -0.36226878 0.12175935 0.062048923 1.5791112 -0.20421273 0.32359192 0.18609886
0.15121587 0.06900152 -0.49052557 -0.003006244 0.0019368716 -0.9997062 0.14654642 -0.0074299076
0.25498742 -0.023199765 -0.055350654 0.7373845 0.11846344 -0.32096642 -0.31711206 -0.21165866
-0.17351243 0.20339833 -0.061088875 -0.06143071 0.3813965 0.13227108 0.23875338 -0.0017634727
0.27141693 0.2693222 0.21651746 0.06432312 -0.27355883 0.19660403 -0.11927803 -0.048217617
-0.5318251 -0.30391747 -0.30432075 -0.05631336 0.2595113 -0.2255229 0.41018942 -0.16217856
-0.21961087 0.57782197 0.16248287 -0.2172566 -0.3902822 0.18168719 0.017227964 0.7349225
0.11039369 0.032001995 0.2770664 0.033231832 -0.026543906 0.34116364 0.16668546 0.25560328
0.14478233 0.16658804 0.21615201 -0.4273694 -0.19390576 -0.170347 -0.24535254 -0.09168939
0.031426344 -0.25072202 0.19726725 -0.04044291 -0.121337585 0.16659449 0.02801742 0.24216563
00000000: ebba e1bd 262f a0bd f133 ae3e 7a3d 033e
00000010: e12b 133d 7563 9e3e 9a9b 043d ec32 80be
00000020: 8eeb 44be b103 5d3e 5a43 dabb 51cc d23c
00000030: 356e 61bd a390 843d f847 213f c43a 3abe
00000040: e5bb b4be cf2f 483e d5de bb3e 1865 c3bb
00000050: f825 bd3e 93a2 843e 87c7 683e 5525 833e
00000060: a95e e13e b604 b6be 263a 2a3e 8b3c febd
00000070: a7c4 e7bd 5dd1 db3e 5f3d c1bd b8dd 213c
00000080: 977e f6be 5a8c 003e 8cfe 023e 331a 5ebf
00000090: 6032 05bd 789b 7e39 eeaf 283f 0097 843b
000000a0: 9f80 4a3c 6eee 973f 4e42 fb3d a74d 96be
000000b0: bf75 dd3d 7a2c 9f3d 301d 3b3c 1d18 85bf
000000c0: ff6d fd3d 7fee 6ebd 458a 853e 5d21 643e
000000d0: 8ae3 8d3e 2dab 81be 0164 a23c dc68 51bb
000000e0: 00db bfbe 249e c5bd 9b38 103d d1fa eabe
000000f0: 9975 873d 5b68 08be 4f26 1cbf e9fe 403e
00000100: 73f6 11bc 96b5 44be 9db6 153e 48c0 4bbe
00000110: 252b e9be a085 e6bc eaaa 933e fb0f 71bd
00000120: 94dd 2abc af10 c0bb 68c5 723f 7e35 2dbb
00000130: 3aed 7c3d e037 8fbe 2256 59bd 53b5 43bc
00000140: 2108 713f 7f47 26be 26e0 78be 95a8 cd3e
00000150: 021c 6e3d 2eab d63d cb0c 11bf 1764 4ebd
00000160: e737 76be 2510 443e 6545 b8be 8af1 f2bd
00000170: 061a f3be 9e7d 59bd d645 933d bb93 e53e
00000180: 3215 00be 814b 403e 2b65 343f 4797 07bf
00000190: c3ba 5e3e 80b7 c8bd 1d84 3a3b ca1b 24bd
000001a0: d58b adbe 6b2e 1abb 72d5 37bd ecbc 33bf
000001b0: 8d72 9c3c 8f22 b4bb 79a9 cabe 7efa 0cbe
000001c0: 5c7f f1bc 4b7b b9be f75c f93d 0327 7e3d
000001d0: 5120 ca3f 241d 51be d7ad a53e b390 3e3e
000001e0: 55d8 1a3e ab50 8d3d 2b26 fbbe 6804 45bb
000001f0: a0de fd3a bfec 7fbf 4410 163e 9576 f3bb
00000200: b68d 823e 6f0d bebc 5eb7 62bd 3bc5 3c3f
00000210: f69c f23d b655 a4be 835c a2be 0cbd 58be
00000220: 3ead 31be a747 503e 5438 7abd c59e 7bbd
00000230: 6746 c33e 1272 073e c47b 743e 5324 e7ba
00000240: 29f7 8a3e 99e4 893e c1b6 5d3e d7bb 833d
00000250: e70f 8cbe 9152 493e 0a48 f4bd d67f 45bd
00000260: b125 08bf 129b 9bbe eecf 9bbe d6a8 66bd
00000270: aade 843e 7aef 66be 5904 d23e 2312 26be
00000280: ace1 60be 24ec 133f e961 263e 8478 5ebe
00000290: 12d3 c7be 350c 3a3e a921 8d3c e223 3c3f
000002a0: 1616 e23d 8614 033d a6db 8d3e 1a1e 083d
000002b0: 9b72 d9bc 00ad ae3e 98af 2a3e 6fde 823e
000002c0: d241 143e 0e96 2a3e f456 5d3e 29d0 dabe
000002d0: 3b8f 46be 726f 2ebe b23d 7bbe a6c7 bbbd
000002e0: e9b8 003d a35e 80be 6d00 4a3e 77a7 25bd
000002f0: d77f f8bd bf97 2a3e ca84 e53c 44fa 773e

init_layer.0.bias f4 [64]
-0.41073915 -0.11171434 -0.30682555 0.34929252 -0.32285574 -0.13969111 -0.06169321 -0.4208967
-0.116544165 -0.29014912 0.0762177 -0.92503834 0.6261857 1.5482843 0.09989663 -0.034521498
-0.34544674 0.15246588 0.423805 -0.0020519735 -0.17714648 0.09683211 -0.52968246 0.2277567
1.168569 0.16732685 0.24277051 0.33857068 0.10568551 0.027515544 -0.43670356 -0.41549504
-0.013307659 -0.20547944 0.34933728 -0.26117647 0.4214872 0.37506562 0.5627749 0.3098205
0.33808964 -1.1959205 -0.35246772 -0.022373857 0.10877713 -0.31572554 0.31504238 -0.28255066
-0.017929995 -0.22040644 -0.2889942 -0.12951398 0.40155366 0.48487246 0.25265285 0.2620105
-0.42292786 -0.34696272 -0.15189454 -0.28247234 -0.032150336 0.199016 0.2735598 -0.33459997
00000000: 674c d2be 7dca e4bd 3d18 9dbe 78d6 b23e
00000010: 594d a5be 300b 0fbe 05b2 7cbd c67f d7be
00000020: b5ae eebd 6d8e 94be 0718 9c3d 50cf 6cbf
00000030: b54d 203f 2e2e c63f 9b96 cc3d 6a66 0dbd
00000040: 65de b0be 0420 1c3e f8fc d83e 677a 06bb
00000050: e365 35be ea4f c63d 4599 07bf 0d39 693e
00000060: ab93 953f bb57 2b3e d598 783e 2359 ad3e
00000070: a571 d83d 4768 e13c 9c97 dfbe c4bb d4be
00000080: 5e08 5abc 3469 52be 56dc b23e ecb8 85be
00000090: 2ccd d73e 9a08 c03e 0412 103f cba0 9e3e
000000a0: 161a ad3e ec13 99bf a676 b4be 6149 b7bc
000000b0: 8bc6 de3d c7a6 a1be 3c4d a13e 7baa 90be
000000c0: ede1 92bc 3ab2 61be 0cf7 93be 509f 04be
000000d0: 7198 cd3e 3441 f83e b75b 813e 3e26 863e
000000e0: 008a d8be 19a5 b1be 3e8a 1bbe 37a0 90be
000000f0: 12b0 03bd daca 4b3e 0810 8c3e b050 abbe

hiden_layers.0.weight f4 [64, 64]
-0.13381669 0.0672345 -0.4932385 0.15445024 -0.13953948 0.06850525 0.057836376 -0.2798542
0.16734608 -0.008045068 -0.27770606 -0.8645676 2.0441015 1.3485627 0.29119113 -0.49311054
-0.15139402 -0.17639948 -0.0050252206 -0.39563277 -0.6138514 -0.03240542 -1.365598 0.049495872
1.1571581 -0.07133727 0.49963692 0.4995786 -0.30621317 0.1494446 -0.63379896 -0.08530058
0.11587635 -0.12684134 0.15109697 -0.60982585 0.052181575 0.039204054 0.9043935 0.6854251
-0.00017806228 -1.9894245 -0.03652511 0.28943914 -0.16456008 -0.07017979 1.0952057 -0.41651168
0.3187973 -0.22358201 -1.0105952 -0.03431258 0.437808 0.6369601 0.15566632 0.9225031
-0.27056667 -0.11685666 -0.10868429 -0.5456753 -0.3343914 -0.10061432 0.038222425 -0.23612045
-0.24487779 -0.19997367 -0.21541001 0.21384177 -0.32810912 -0.21910931 0.11258724 -0.26160863
-0.00018561468 -0.42517552 0.21916611 -0.16940293 0.058965575 0.05026417 0.100226894 0.18363678
-0.18500544 0.33238673 0.37978947 0.010777747 -0.09518325 -0.08410453 0.07088754 0.23039746
-0.027866552 0.03667103 0.251309 0.12584427 0.2453532 0.02829646 -0.15967461 -0.4967427
-0.104584716 0.04447231 0.5502627 0.1130766 0.86952215 0.07131354 -0.07070137 0.1480953
0.10162784 -0.09650267 -0.38297287 -0.014106961 0.27405122 -0.30749375 0.22218141 -0.19452204
-0.05267385 -0.19095746 -0.110005744 -0.1291467 0.17088349 -0.14606242 0.3782982 0.13416688
-0.37257633 -0.34247324 -0.20805232 -0.16135186 0.17588268 0.28776082 0.24080858 -0.17143366
0.08805025 -0.07369569 0.17978938 -0.0042974562 -0.19955458 -0.015905706 0.01446795 -0.15265082
0.08642943 -0.068175465 -0.021529356 0.17546186 0.10606664 -0.21227187 0.20372508 -0.12551466
-0.12385253 -0.15583642 0.06012827 -0.04186516 0.009156331 -0.109418586 -0.12731619 -0.010001974
-0.0104808565 -0.10062716 -0.031055516 0.16449793 -0.023551108 -0.17040513 0.22004268 0.22093695
-0.16059633 -0.13851114 0.19666648 0.19990973 -0.08444679 -0.13181613 -0.0021683646 0.009326899
-0.19326119 -0.01739191 0.17648128 0.20114206 0.19443956 0.020714592 -0.033071455 -0.012994167
-0.0036194683 0.055496424 -0.11046985 -0.047961056 0.043457147 -0.08782336 -0.14509287 0.046041526
-0.2294457 0.14525518 -0.16633986 -0.109153174 0.1945866 -0.15285337 -0.09645498 0.15608527
-0.7590012 -0.48251998 0.01638762 0.37880594 -0.47714296 -0.3700497 -0.70427257 -0.76649964
-0.52581555 -1.0700829 0.38350758 0.37094787 0.0012172632 -0.49852413 0.20321369 0.2536248
-1.0826223 0.65732634 1.8741541 0.2404106 0.31677917 0.36887866 -0.15510291 0.2520964
-0.20425938 0.52718055 -0.11119645 -0.30984908 0.92788213 -0.6289982 -0.0491768 -1.5682958
-0.8675924 -0.10638082 1.130555 0.21320851 1.8689011 0.46653712 -0.47091478 -0.22679724
0.72845334 0.07646369 -0.9241832 -0.5924001 0.8966861 -0.3015585 0.33517206 -0.30822268
-0.08319632 -0.6991252 0.29633057 0.09317538 0.06500329 -0.09295566 1.3007413 -0.07840925
-1.1341965 -1.4375122 -0.43456757 0.42864057 -0.10046035 0.7039771 0.53827024 -0.6936667
00000000: 3e07 09be 3eb2 893d c289 fcbe 3428 1e3e
00000010: 70e3 0ebe 7b4c 8c3d d6e5 6c3d 0d49 8fbe
00000020: c55c 2b3e 76cf 03bc 7d2f 8ebe 4d54 5dbf
00000030: 8fd2 0240 b49d ac3f 0117 953e fc78 fcbe
00000040: 0907 1bbe 11a2 34be 9baa a4bb 6190 cabe
00000050: 5e25 1dbf 8cbb 04bd eacb aebf 2fbc 4a3d
00000060: c21d 943f 4619 92bd 69d0 ff3e c4c8 ff3e
00000070: f9c7 9cbe 0108 193e a640 22bf 12b2 aebd
00000080: 9450 ed3d b2e2 01be 2ab9 1a3e 8c1d 1cbf
00000090: 59bc 553d 6e94 203d 5586 673f 0578 2f3f
000000a0: 3bb6 3ab9 76a5 febf 5b9b 15bd 5e31 943e
000000b0: 7082 28be 6cba 8fbd b32f 8c3f 0541 d5be
000000c0: 6639 a33e aff2 64be 2f5b 81bf 598b 0cbd
000000d0: 5f28 e03e d10f 233f fe66 1f3e 2a29 6c3f
000000e0: b787 8abe 8b52 efbd de95 debd 60b1 0bbf
000000f0: 5935 abbe e10e cebd 1e8f 1c3d 8fc9 71be
00000100: 3ec1 7abe e6c5 4cbe 7194 5cbe 56f9 5a3e
00000110: ebfd a7be 315e 60be 2494 e63d 91f1 85be
00000120: 90a1 42b9 9bb0 d9be 156d 603e f677 2dbe
00000130: e385 713d cde1 4d3d c243 cd3d 480b 3c3e
00000140: 1172 3dbe 982e aa3e c473 c23e 2695 303c
00000150: 70ef c2bd ff3e acbd 7d2d 913d 50ed 6b3e
00000160: 6548 e4bc 5d34 163d 93ab 803e 52dd 003e
00000170: df3d 7b3e facd e73c be81 23be 0f55 febe
00000180: 8330 d6bd 9928 363d 04de 0c3f b494 e73d
00000190: 0199 5e3f d50c 923d e1cb 90bd 4ba6 173e
000001a0: 4222 d03d 31a3 c5bd 0515 c4be e220 67bc
000001b0: 7150 8c3e d26f 9dbe 8683 633e c930 47be
000001c0: 89c0 57bd 5a8a 43be b14a e1bd 083f 04be
000001d0: 15fc 2e3e 6391 15be 4db0 c13e 0b63 093e
000001e0: 53c2 bebe a758 afbe ab0b 55be 6c39 25be
000001f0: 971a 343e 6355 933e 8696 763e 4e8c 2fbe
00000200: b153 b43d c4ed 96bd b51a 383e add1 8cbb
00000210: 0958 4cbe af4c 82bc fb0a 6d3c 7f50 1cbe
00000220: ea01 b13d 949f 8bbd 555e b0bc 46ac 333e
00000230: 7739 d93d cc5d 59be 4f9d 503e ea86 00be
00000240: 65a6 fdbd 9593 1fbe 1049 763d cd7a 2bbd
00000250: 7004 163c da16 e0bd 2d5f 02be 52df 23bc
00000260: e6b7 2bbc 9d15 cebd 2368 febc 2572 283e
00000270: 41ee c0bc af7e 2ebe de52 613e 4c3d 623e
00000280: 5d73 24be ddd5 0dbe f062 493e 23b5 4c3e
00000290: 70f2 acbd cffa 06be 1f1b 0ebb dacf 183c
000002a0: 43e6 45be 7b79 8ebc 82b7 343e 2ff8 4d3e
000002b0: 2a1b 473e a6b1 a93c ef75 07bd 7de5 54bc
000002c0: 9a34 6dbb 3850 633d 043e e2bd d072 44bd
000002d0: 1f00 323d bcdc b3bd 3a93 14be 0a96 3c3d
000002e0: d0f3 6abe c6bd 143e ff54 2abe b38b dfbd
000002f0: b641 473e 9885 1cbe 308a c5bd d1d4 1f3e
00000300: e74d 42bf dc0c f7be 543f 863c daf2 c13e
00000310: 154c f4be 2777 bdbe 354b 34bf 5239 44bf
00000320: d99b 06bf 7af8 88bf 1b5b c43e e1ec bd3e
00000330: 938c 9f3a 8e3e ffbe 4017 503e 1cdb 813e
00000340: 5e93 8abf 8a46 283f 48e4 ef3f 322e 763e
00000350: e130 a23e aadd bc3e 4cd3 1ebe c812 813e
00000360: 5f29 51be 4ef5 063f f7ba e3bd 8aa4 9ebe
00000370: af89 6d3f 0706 21bf 9d6d 49bd ebbd c8bf
00000380: 891a 5ebf 30de d9bd 07b6 903f 5553 5a3e
00000390: 2738 ef3f f4dd ee3e be1b f1be 893d 68be
000003a0: eb7b 3a3f ff98 9c3d 4597 6cbf 88a7 17bf
000003b0: 388d 653f e065 9abe ac9b ab3e 5dcf 9dbe
000003c0: d562 aabd def9 32bf a4b8 973e bcd2 be3d
000003d0: 7220 853d 895f bebd b17e a63f 0795 a0bd
000003e0: 5a2d 91bf 6600 b8bf a47f debe c776 db3e
000003f0: 28be cdbd d837 343f 14cc 093f 2494 31bf

hiden_layers.0.bias f4 [64]
0.39627072 0.29414967 -0.018033577 0.47243413 0.13846053 0.1490727 0.13265608 -0.072305866
-0.041122288 0.31652135 0.07299222 -0.19256271 -0.11431421 -0.0076632523 0.23587921 -0.17265564
-0.120413296 -0.090239674 0.08254749 0.06857332 0.07034287 -0.16162986 -0.031042166 -0.11655516
-0.037604015 0.013404884 0.07609464 0.031068629 0.2771693 0.023632681 -0.058498517 -0.14295037
0.040240336 0.009967962 -0.10305437 0.03126841 0.013711568 0.17790481 0.041738916 -0.08554336
0.026943492 0.192041 -0.101590514 -0.06561824 -0.111992456 -0.1370014 -0.044662956 -0.20018266
0.16681914 0.35240555 0.2177255 -0.11556239 0.22825398 -0.0087821605 0.089881666 -0.036570553
-0.123399556 0.10407894 -0.14859627 0.024300328 -0.18095616 -0.003874842 -0.04115603 -0.08418336
00000000: ffe3 ca3e c99a 963e 27bb 93bc e3e2 f13e
00000010: 99c8 0d3e 84a6 183e ffd6 073e 1915 94bd
00000020: d86f 28bd 160f a23e f27c 953d 292f 45be
00000030: 921d eabd 051c fbbb 528a 713e a4cc 30be
00000040: 3f9b f6bd 94cf b8bd a90e a93d 2b70 8c3d
00000050: ec0f 903d 4c82 25be 244c febc 79b4 eebd
00000060: ab06 1abd 29a0 5b3c 82d7 9b3d a383 fe3c
00000070: 22e9 8d3e 5399 c13c 249c 6fbd 9561 12be
00000080: 0dd3 243d aa50 233c 2b0e d3bd 4e13 003d
00000090: 7ca6 603c ae2c 363e 6df6 2a3d 5b31 afbd
000000a0: 99b8 dc3c 65a6 443e b00e d0bd db62 86bd
000000b0: 4d5c e5bd 184a 0cbe 81f0 36bd affc 4cbe
000000c0: a3d2 2a3e 806e b43e 6ff3 5e3e f9ab ecbd
000000d0: 69bb 693e 0de3 0fbc e113 b83d 01cb 15bd
000000e0: e8b8 fcbd 5727 d53d 9f29 18be 7b11 c73c
000000f0: 924c 39be 10f1 7dbb 3a93 28bd 5368 acbd

hiden_layers.1.weight f4 [64, 64]
-0.13829945 0.027311293 -0.18701106 0.18849619 -0.28456298 0.17402974 -0.12477408 -0.019272028
0.07195963 0.029304588 -0.032030057 -0.11431155 0.015407155 0.0043967306 0.009364862 -0.016467085
0.06056764 0.15893729 0.14557323 0.07583893 0.26439485 -0.06635942 0.03255866 -0.12283546
-0.044132743 -0.21057181 0.06948752 0.33026695 0.017497528 -0.06032181 -0.061192364 0.13246219
-0.3343024 0.21481566 -0.24238689 -0.16095003 -0.0961986 0.0052402695 0.0073906053 0.12821443
0.08941538 0.12825644 -0.10563755 0.2184466 0.17544946 0.050247785 0.14126022 -0.19872944
-0.06884155 -0.13541943 -0.088738486 0.090740524 0.038376536 -0.06228534 -0.028363653 -0.2573855
0.19602625 -0.10050795 -0.22394733 0.08726233 0.07285366 0.12509449 0.04982492 -0.13757288
0.17944883 0.12552817 -0.34510463 -0.164518 -0.14902638 0.8940712 -0.11566244 -0.15317021
0.032684065 -0.15556687 0.3436038 0.0016982935 0.05039075 -0.057979893 0.20840415 -0.08033194
0.059648227 -0.389441 0.19329524 0.20547135 0.019847408 0.23916529 -0.1687709 -0.119622916
0.33902577 -0.020006746 -0.49671167 -0.09513014 0.07165565 -0.14649577 -0.14797018 -0.06057741
0.045168545 -0.051989447 -0.21055621 0.1326843 -0.019351417 0.0255177 -0.6533814 -0.14333388
-0.17438583 -0.11043151 -0.6346068 -0.20297165 0.114062995 -0.100042716 0.007877468 -0.33184975
0.70661587 0.11007708 -0.0022574712 -0.096880525 0.092453025 0.078695156 -0.010850319 0.0129154315
-0.2609097 0.6025195 -0.25641248 0.06974977 -0.06937555 -0.10861532 0.021401318 0.030424425
0.062384915 0.40740287 0.01248406 0.2804415 0.1161049 0.23258281 -0.098584145 0.15874213
0.09419442 -0.082806624 -0.18582718 -0.03452013 0.018209998 0.046928227 0.26761493 0.07295901
-0.18707693 -0.063001625 0.07472783 0.027133271 -0.03333683 -0.19339475 -0.2756284 -0.23022968
0.045635108 0.2661085 -0.025987864 -0.12266051 0.081987366 0.15180163 0.14334399 0.20001638
0.16895753 -0.2302975 0.023156047 -0.18831564 0.08909504 -0.17966518 0.06281677 -0.13227002
-0.19902998 -0.21076465 -0.1446538 -0.20973004 0.006375374 0.13363339 -0.15213108 -0.008510044
-0.07976286 0.04307316 0.113723874 -0.19702987 0.026907964 -0.065278865 0.121673845 -0.025211714
-0.099565275 0.18004923 -0.14212959 0.087265484 0.011159442 0.057784747 0.02940469 -0.0024891244
0.08358342 -0.039447606 -0.1913497 0.29457805 0.19465607 -0.14162442 -0.07852947 -0.103517346
-0.04232991 0.18831602 -0.15120462 0.2205355 0.20315377 0.069561936 -0.113669254 0.11143323
-0.025344295 -0.08610306 0.070121504 0.12164628 0.052961055 -0.3714269 0.13727392 0.16869172
0.0535305 0.09684388 0.09219938 -0.057902653 0.0204951 0.16655317 0.12342293 0.12988977
0.10942178 -0.022135643 -0.26251465 0.05504063 0.0373676 -0.01832451 0.2366581 0.1790023
0.09524476 -0.05978966 0.09155358 0.10194765 -0.09416047 -0.03478735 -0.15321447 -0.13835841
0.062451042 0.20276219 -0.03972084 0.06373718 0.12689678 0.009786844 -0.20104721 -0.05401724
-0.07164708 -0.06872301 0.147113 -0.005924722 -0.16622308 0.26022795 0.023788933 -0.1876075
00000000: 5f9e 0dbe efbb df3c d47f 3fbe 2505 413e
00000010: 3db2 91be da34 323e 8e89 ffbd 5fe0 9dbc
00000020: 925f 933d 2d10 f03c f331 03bd 2d1c eabd
00000030: 4b6e 7c3c 7312 903b 146f 193c fbe5 86bc
00000040: c615 783d 75c0 223e 2611 153e 7151 9b3d
00000050: c35e 873e 73e7 87bd 3b5c 053d 2891 fbbd
00000060: 89c4 34bd 23a0 57be 794f 8e3d c018 a93e
00000070: fa56 8f3c 0114 77bd d8a4 7abd 2ba4 073e
00000080: af29 abbe a3f8 5b3e 4534 78be 16d0 24be
00000090: c603 c5bd 91b6 ab3b e42c f23b a54a 033e
000000a0: 691f b73d a855 033e 8058 d8bd 77b0 5f3e
000000b0: 06a9 333e 9fd0 4d3d 85a6 103e bb7f 4bbe
000000c0: ccfc 8cbd 64ab 0abe 86bc b5bd 2bd6 b93d
000000d0: b730 1d3d ea1e 7fbd e45a e8bc 08c8 83be
000000e0: 1bbb 483e 1dd7 cdbd 7352 65be 98b6 b23d
000000f0: 4d34 953d c518 003e 3715 4c3d e8df 0cbe
00000100: 6fc1 373e 758a 003e 8eb1 b0be 6877 28be
00000110: 5f9a 18be dae1 643f 6ee0 ecbd a7d8 1cbe
00000120: badf 053d ec4c 1fbe d6ec af3e 4699 de3a
00000130: 8866 4e3d 537c 6dbd e667 553e 1285 a4bd
00000140: b351 743d d064 c7be 30ef 453e 1567 523e
00000150: 0897 a23c bfe7 743e 47d2 2cbe dcfc f4bd
00000160: c994 ad3e 30e5 a3bc fe50 febe 97d3 c2bd
00000170: 33c0 923d fd02 16be 7f85 17be 0520 78bd
00000180: a702 393d e3f2 54bd 0c9c 57be 65de 073e
00000190: dd86 9ebc 7f0a d13c 0144 27bf 1ec6 12be
000001a0: 3392 32be ea29 e2bd 9775 22bf cdd7 4fbe
000001b0: dc99 e93d 32e3 ccbd 7f10 013c 36e8 a9be
000001c0: c7e4 343f 1870 e13d 15f2 13bb 4c69 c6bd
000001d0: 0358 bd3d ed2a a13d 89c5 31bc 3f9b 533c
000001e0: f595 85be b83e 1a3f 7f48 83be f8d8 8e3d
000001f0: c514 8ebd b571 debd d151 af3c a53c f93c
00000200: 5387 7f3d 1c97 d03e f189 4c3c 0796 8f3e
00000210: 68c8 ed3d 302a 6e3e 7ce6 c9bd 4c8d 223e
00000220: 01e9 c03d 8596 a9bd 7b49 3ebe fb64 0dbd
00000230: 222d 953c d037 403d d304 893e 896b 953d
00000240: 1891 3fbe ff06 81bd e80a 993d 9846 de3c
00000250: 338c 08bd 4609 46be 2a1f 8dbe 54c1 6bbe
00000260: e1eb 3a3d 603f 883e 80e4 d4bc 6f35 fbbd
00000270: fee8 a73d e371 1b3e c4c8 123e 18d1 4c3e
00000280: 3403 2d3e 1cd3 6bbe c0b1 bd3c d1d5 40be
00000290: 7677 b63d 26fa 37be 14a6 803d cb71 07be
000002a0: 84ce 4bbe b0d2 57be 2020 14be 79c3 56be
000002b0: 83e8 d03b 31d7 083e 40c8 1bbe b66d 0bbc
000002c0: b65a a3bd 7b6d 303d 10e8 e83d 33c2 49be
000002d0: 176e dc3c edb0 85bd 2330 f93d cc88 cebc
000002e0: e1e8 cbbd d35e 383e 6b8a 11be 3fb8 b23d
000002f0: 18d6 363c b3af 6c3d 1be2 f03c 9420 23bb
00000300: c92d ab3d d093 21bd 2df1 43be efd2 963e
00000310: ec53 473e fe05 11be 0fd4 a0bd e700 d4bd
00000320: 2162 2dbd ead5 403e 62d5 1abe 0fd4 613e
00000330: 8b07 503e 7d76 8e3d 6dcb e8bd 1b37 e43d
00000340: d79e cfbc cd56 b0bd dd9b 8f3d af21 f93d
00000350: b1ed 583d ab2b bebe 8991 0c3e 86bd 2c3e
00000360: cc42 5b3d 1656 c63d 07d3 bc3d 552b 6dbd
00000370: 57e5 a73c ea8c 2a3e 29c5 fc3d d301 053e
00000380: 8718 e03d cf55 b5bc 5268 86be 4972 613d
00000390: c50e 193d 481d 96bc 8056 723e 614c 373e
000003a0: af0f c33d 01e6 74bd 7180 bb3d eec9 d03d
000003b0: 34d7 c0bd 2e7d 0ebd 41e4 1cbe d4ad 0dbe
000003c0: aacc 7f3d e4a0 4f3e 52b2 22bd a388 823d
000003d0: 3bf1 013e 0059 203c 52df 4dbe 2e41 5dbd
000003e0: b4bb 92bd a6be 8cbd caa4 163e 2c24 c2bb
000003f0: 6236 2abe 993c 853e 02e1 c23c 2e1c 40be

hiden_layers.1.bias f4 [64]
-0.05145201 0.09537713 0.06789957 -0.012729859 -0.14813453 0.047613297 -0.01747409 0.15698533
0.039420445 0.07285084 0.044750232 -0.012215519 0.0051503954 0.022170821 -0.026021447 -0.018139554
-0.020488886 0.029405955 -0.077877395 -0.04365337 -0.08343304 0.055606116 -0.049564146 0.02527833
0.04170973 -0.027164984 0.0315972 -0.05636984 -0.24382016 -0.10335504 -0.096859545 -0.02284087
-0.038987175 0.0021370926 -0.06252295 0.06424528 -0.098977864 -0.24035375 0.011266667 0.049255453
0.06116207 -0.05752582 0.12724061 -0.05368459 -0.13428485 0.019931741 -0.02758721 -0.012375429
-0.07971484 -0.021234185 0.043914977 0.011995124 0.14880978 -0.108670786 -0.035913713 -0.035560094
-0.038280983 0.073764354 -0.1892063 0.007647168 -0.23132712 -0.026904244 -0.09093809 0.045252196
00000000: 58bf 52bd 1655 c33d ee0e 8b3d e690 50bc
00000010: 94b0 17be 2906 433d d325 8fbc c3c0 203e
00000020: 5577 213d d232 953d 054c 373d 9a23 48bc
00000030: a6c4 a83b 959f b53c ee2a d5bc 6799 94bc
00000040: 4fd8 a7bc c2e4 f03c 2f7e 9fbd e0cd 32bd
00000050: f1de aabd 3dc3 633d c603 4bbd 8014 cf3c
00000060: d2d7 2a3d 1a89 debc 116c 013d 10e4 66bd
00000070: feab 79be cfab d3bd 4c5e c6bd c71c bbbc
00000080: 04b1 1fbd 770e 0c3b 080c 80bd 0893 833d
00000090: e8b4 cabd 4b1f 76be d497 383c 16c0 493d
000000a0: 1485 7a3d 32a0 6bbd 5d4b 023e 5fe4 5bbd
000000b0: f881 09be e447 a33c 93fe e1bc 50c2 4abc
000000c0: 8941 a3bd 50f3 adbc 31e0 333d 3287 443c
000000d0: 9761 183e ca8e debd 421a 13bd 76a7 11bd
000000e0: 85cc 1cbd c411 973d 4cbf 41be 1895 fa3b
000000f0: 04e1 6cbe 4a66 dcbc c03d babd 5e5a 393d

hiden_layers.2.weight f4 [64, 64]
-0.29790667 0.14282344 -0.20518395 -0.25141165 -0.0151167605 -0.09997159 -1.4835411 -0.146492
-0.2225543 -0.029751308 0.19277021 -0.016921425 -0.5421214 0.15263179 -0.047242876 0.32174546
-0.24137072 -0.016040593 -0.08684929 -0.12584823 0.50026625 0.09033712 -0.08698141 0.10178675
0.006574093 -0.18903525 -0.12720993 -0.012896339 -0.0133936275 -0.27414745 0.14106487 0.41780603
-0.19068709 0.08192303 -0.14652604 -0.104021885 0.16547528 0.39591885 0.24581036 0.03916823
0.27929708 0.019154916 0.054458216 0.08665748 0.113569304 -0.08329086 0.13150649 0.19879228
0.21134956 -0.030661006 -0.14267343 -0.3622307 -0.08881369 0.09482352 0.0302747 0.22686721
-0.1949924 0.18583852 0.24178544 0.67200106 0.033749655 0.06721124 0.22217609 0.13509992
0.082968876 0.31477642 0.13827476 0.09828866 0.16273691 0.13144802 0.23169255 0.18320523
0.05350655 0.20273748 0.24643798 0.16283433 -0.2401274 -0.11031747 0.013261069 0.28706098
-0.23088613 0.16032411 -0.26907656 -0.060942095 0.084469356 -0.13273959 -0.11365308 -0.1843039
0.072855406 0.1299494 0.19062352 -0.008108817 -0.067512356 0.20642136 -0.003942596 -0.1001693
0.06328597 0.16533305 -0.11193665 0.18193085 0.20721684 -0.09723104 0.044358302 -0.17808202
-0.30843872 -0.101363316 -0.010079288 0.08207395 0.087215334 -0.18221767 -0.1897746 0.22366604
-0.14582324 0.4412695 -0.17253427 -0.1549509 -0.09890481 0.21064542 -0.03716119 -0.1948192
0.10110318 -0.03155171 -0.1469142 0.18956114 0.00025523978 0.21425332 0.07626392 -0.006037772
0.31092155 -0.10934817 -0.15409763 -0.09598823 0.13176572 0.08423879 0.19296534 0.020807143
-0.16611795 0.22533512 -0.078107774 0.1942418 0.2900226 0.17848404 -0.16553298 0.014274676
0.2086382 0.06900412 0.090806045 -0.30555248 -0.04901859 0.12098605 0.27470824 -0.1737539
-0.055879135 -0.048591312 -0.0914955 -0.15868898 0.09744293 0.013811006 0.03310192 0.44453347
0.037042085 -0.109714024 0.028677618 0.023301074 0.24492013 -0.021065343 -0.1818414 0.105675966
0.18683608 0.06615339 -0.05495405 -0.05226477 0.3022803 0.024689501 -0.04208026 -0.084660776
0.2940243 0.061148327 -0.36089516 0.26615226 -0.18418437 0.13214189 0.031441312 0.07896169
-0.0791966 0.093326315 -0.23083511 -0.30926573 0.04044367 -0.07962938 0.07801729 -0.024237892
0.06895536 -0.15861717 -0.054893218 0.17326976 -0.13805635 -0.15530358 0.021822305 -0.093485124
0.09552182 0.13679965 0.14010148 -0.19697602 0.30662265 -0.17606907 -0.083698 0.2255179
-0.0006040181 -0.27354568 -0.296779 0.043087903 -0.1167493 -0.04996934 0.3517749 -0.087011345
-0.33078048 -0.08894988 0.08632271 0.08919042 -0.035915583 0.27655032 0.1053743 -0.14589708
-0.32799166 -0.078072175 0.21101679 0.37922662 -0.031602994 0.21547788 -0.102229066 -0.24643835
0.30003196 -0.19178644 0.17304233 -0.20455939 0.06612802 -0.14431368 0.017821105 -0.17599046
-0.1134999 0.21065952 0.19397488 -0.21379933 -0.03739603 -0.09962514 0.61329347 -0.10345049
-0.537607 -0.06351179 -0.07131208 0.5531424 0.11213264 -0.28405383 0.24237216 0.01980014
00000000: 3987 98be 4f40 123e be1b 52be 07b9 80be
00000010: 4aac 77bc e8bd ccbd ade4 bdbf 0002 16be
00000020: 46e5 63be 04b9 f3bc 8e65 453e cd9e 8abc
00000030: 78c8 0abf 824b 1c3e bf81 41bd d2bb a43e
00000040: e329 77be 9067 83bc 0ade b1bd 5cde 00be
00000050: 7311 003f ab02 b93d 4f23 b2bd 9275 d03d
00000060: 7d6b d73b 7592 41be 5243 02be 2b4b 53bc
00000070: f270 5bbc 0e5d 8cbe 4f73 103e acea d53e
00000080: 7a43 43be 43c7 a73d ec0a 16be 6d09 d5bd
00000090: 5a72 293e e0b5 ca3e b6b5 7b3e de6e 203d
000000a0: 0700 8f3e c5ea 9c3c 940f 5f3d 7a79 b13d
000000b0: 0697 e83d 6694 aabd a3a9 063e 3490 4b3e
000000c0: 056c 583e ca2c fbbc fc18 12be 4d76 b9be
000000d0: f4e3 b5bd d532 c23d a602 f83c e14f 683e
000000e0: 16ac 47be 744c 3e3e 9a96 773e 4308 2c3f
000000f0: 143d 0a3d 0ca6 893d 2182 633e a257 0a3e
00000100: 96eb a93d 602a a13e e697 0d3e 914b c93d
00000110: 81a4 263e 4f9a 063e d040 6d3e 279a 3b3e
00000120: af29 5b3d 6a9a 4f3e 3d5a 7c3e 0bbe 263e
00000130: f5e3 75be 20ee e1bd f444 593c a8f9 923e
00000140: 6a6d 6cbe 012c 243e 67c4 89be 6b9e 79bd
00000150: 45fe ac3d e3ec 07be f2c2 e8bd 29ba 3cbe
00000160: 3735 953d 7511 053e d032 433e d8da 04bc
00000170: eb43 8abd 1f60 533e e430 81bb 9025 cdbd
00000180: 139c 813d 114d 293e 0b3f e5bd 154c 3a3e
00000190: a730 543e 1121 c7bd 0db1 353d 225b 36be
000001a0: aeeb 9dbe 9297 cfbd 9923 25bc 6316 a83d
000001b0: f49d b23d 4597 3abe 4654 42be b608 653e
000001c0: b052 15be 13ee e13e d3ac 30be 73ab 1ebe
000001d0: 9b8e cabd 6fb3 573e 5536 18bd af7e 47be
000001e0: 2f0f cf3d 5e3c 01bd ad70 16be 511c 423e
000001f0: b4d1 8539 3965 5b3e 4230 9c3d 81d8 c5bb
00000200: 1c31 9f3e eff1 dfbd c5cb 1dbe 7a95 c4bd
00000210: 98ed 063e 6385 ac3d b598 453e be73 aa3c
00000220: d31a 2abe 40be 663e f8f6 9fbd 53e7 463e
00000230: d87d 943e 85c4 363e 7a81 29be 55e0 693c
00000240: 41a5 553e 0852 8d3d 85f8 b93d 6071 9cbe
00000250: b8c7 48bd 89c7 f73d 8fa6 8c3e 8bec 31be
00000260: 85e1 64bd af07 47bd fe61 bbbd 5d7f 22be
00000270: 2990 c73d 8f47 623c e195 073d e499 e33e
00000280: 71b9 173d bfb1 e0bd 53ed ea3c e5e1 be3c
00000290: 58cc 7a3e 3a91 acbc a234 3abe a46c d83d
000002a0: f551 3f3e 6e7b 873d 7f17 61bd 9513 56bd
000002b0: 7cc4 9a3e a341 ca3c 5a5c 2cbd a162 adbd
000002c0: 5a8a 963e ab76 7a3d 40c7 b8be 1c45 883e
000002d0: d49a 3cbe 3450 073e 9bc8 003d abb6 a13d
000002e0: d431 a2bd de21 bf3d 0a60 6cbe 1458 9ebe
000002f0: 43a8 253d ba14 a3bd 87c7 9f3d 8b8e c6bc
00000300: 7838 8d3d 8a6c 22be b6d7 60bd a16d 313e
00000310: a55e 0dbe e707 1fbe b1c4 b23c 2175 bfbd
00000320: f2a0 c33d 3515 0c3e c376 0f3e 15b4 49be
00000330: a5fd 9c3e 734b 34be db69 abbd 2aee 663e
00000340: f856 1eba 2e0e 8cbe 6bf3 97be f17c 303d
00000350: 421a efbd a7ac 4cbd d71b b43e 0133 b2bd
00000360: 0f5c a9be 5b2b b6bd f6c9 b03d 78a9 b63d
00000370: 381c 13bd 0198 8d3e 7bce d73d 0b66 15be
00000380: 86ee a7be 4ee4 9fbd c914 583e fe29 c23e
00000390: 2472 01bd 3ca6 5c3e 795d d1bd 565a 7cbe
000003a0: ca9d 993e aa63 44be 0232 313e 0478 51be
000003b0: 216e 873d f7c6 13be 91fd 913c d836 34be
000003c0: a372 e8bd 21b7 573e 5aa1 463e 36ee 5abe
000003d0: 942c 19bd 4408 ccbd cd00 1d3f dadd d3bd
000003e0: 9da0 09bf 7812 82bd 110c 92bd be9a 0d3f
000003f0: cca5 e53d 816f 91be 6830 783e e733 a23c

hiden_layers.2.bias f4 [64]
0.063955285 -0.041951414 -0.06884717 0.022610746 -0.015658384 -0.07459981 -0.119989716 -0.11050133
-0.037697054 0.019000301 -0.025182331 0.0024642567 0.008702931 -0.0377452 -0.053793527 -0.021762524
-0.004457448 -0.046834745 -0.0027683536 -0.029358389 0.00073326787 0.0099739665 0.024991637 -0.04777307
0.08358089 0.054844987 0.15360762 -0.0407004 0.016076567 -0.037256505 0.107006334 -0.0049121524
-0.03106791 0.030784713 0.0018300015 0.019407397 -0.0019455123 -0.020410594 -0.15571387 0.03536174
-0.0024056172 0.0140402615 -0.061132457 -0.1591949 0.03617147 -0.050923638 -0.02447887 0.0005033717
0.09135523 -0.15225339 0.024561476 0.04162532 -0.060567185 -0.019114671 0.02311439 0.015261462
0.02313347 -0.0042663803 -0.04755809 -0.009334492 -0.13795462 -0.03392085 -0.050178852 0.08896887
00000000: fdfa 823d 3fd5 2bbd bfff 8cbd 2c3a b93c
00000010: 0346 80bc c9c7 98bd 2bbd f5bd 854e e2bd
00000020: 3a68 1abd 85a6 9b3c 2d4b cebc 5e7f 213b
00000030: bd96 0e3c b69a 1abd 9a56 5cbd 5247 b2bc
00000040: c90f 92bb cad5 3fbd 446d 35bb 0181 f0bc
00000050: c638 403a d969 233c 43bb cc3c b2ad 43bd
00000060: 752c ab3d 23a5 603d 514b 1d3e 76b5 26bd
00000070: 01b3 833c 479a 18bd 2326 db3d 1ff6 a0bb
00000080: 2182 febc 3930 fc3c a9dc ef3a 43fc 9e3c
00000090: 8f00 ffba 1e34 a7bc 7573 1fbe 79d7 103d
000000a0: 8fa7 1dbb 2009 663c 0766 7abd fd03 23be
000000b0: 8928 143d 4e95 50bd e987 c8bc b4f4 033a
000000c0: 7318 bb3d 50e8 1bbe 2635 c93c 507f 2a3d
000000d0: 4c15 78bd 5f96 9cbc 645a bd3c 360b 7a3c
000000e0: 6782 bd3c fecc 8bbb 46cc 42bd b2ef 18bc
000000f0: fa43 0dbe 97f0 0abd 5788 4dbd 5035 b63d

hiden_layers.3.weight f4 [64, 64]
-0.4121718 0.41727275 0.16393863 -0.20271546 -0.19197893 0.09373771 -0.12860273 -0.13240391
-0.24711184 0.20107271 0.12462326 0.04082515 -0.048322693 -0.23918119 0.1731463 -0.0271294
-0.09219515 -0.18452518 0.037956122 -0.127334 0.22387162 -0.13078511 0.10848751 0.12825343
0.0984102 0.16547109 -0.124750346 0.23603599 0.15915768 0.1325489 -0.22340931 0.09183362
-0.103783526 -0.09818839 0.029555567 0.16299462 0.043093115 -0.06538318 0.15199336 -0.16559248
0.1143718 0.27479643 -0.33372304 -0.30603155 0.009424247 0.1658549 0.19392556 -0.13879272
0.3626734 -0.15933841 -0.120959125 -0.22571129 0.3702338 0.12345287 0.14424096 -0.11144863
-0.004701017 0.12130444 -0.19365038 0.14320031 -0.049791265 0.22733667 -0.13512805 0.2204534
-0.102050476 -0.08796314 -0.0070721945 0.07898233 0.10594147 0.2160531 -0.15986401 0.14090198
-0.057280507 -0.2396644 0.13234805 0.06514189 0.17597328 -0.05716203 -0.04365253 0.19269651
0.2863298 0.09985373 0.09311467 0.10643313 0.2408056 -0.0069595682 0.00415866 0.17436437
-0.42013428 0.114009045 0.20109066 -0.16002272 0.16917567 -0.0707388 -0.004406051 0.17917532
0.107961826 -0.05426913 0.3874531 0.09218749 -0.01200826 -0.15559304 -0.16845451 0.17829008
0.029408773 -0.18667342 0.05319856 0.32002938 -0.069234684 0.021219432 0.07591286 0.23962381
-0.12442348 -0.13932674 -0.17748842 0.18449223 0.1266582 -0.033190247 0.23059778 0.2698181
0.23267053 -0.15264115 0.28276557 0.14297625 0.22735514 0.25577444 0.014998892 0.07701894
-0.05128595 0.10092814 -0.102165945 -0.09182212 -0.092094004 0.21996921 0.2548897 -0.240379
0.07861161 -0.08114881 -0.078976095 0.10794551 -0.11166983 0.015010306 0.18479024 0.032386824
0.22491784 0.27804074 -0.20008071 -0.24869299 0.06040367 0.11457863 -0.25372934 -0.026324674
-0.09533113 0.035317607 -0.24906264 0.41038054 0.116246745 -0.27234432 -0.10592082 -0.13050403
-0.31597778 -0.060557976 0.2831091 -0.09406766 0.12070932 -0.21119213 -0.06796563 0.0031528638
0.28990275 -0.26327783 -0.18778141 0.21745645 -0.09002851 -0.32690078 0.22751097 -0.104943745
-0.21764287 -0.1789916 0.2501266 0.15297754 0.17163873 -0.049698286 0.13775875 -0.31383485
-0.12732124 -0.031768452 0.03599968 0.10638364 0.3268229 -0.0259529 -0.10468293 0.0028091085
-0.16020934 -0.07879391 0.037561886 -0.15923837 -0.16228326 -0.027302269 -0.09861574 -0.12095179
-0.1475942 -0.117750145 -0.20843637 -0.09951803 -0.24367368 -0.18874337 -0.14653859 0.106710464
-0.118797265 0.078923024 0.07633643 0.15744653 0.079695985 -0.02736406 -0.17640586 -0.04037752
0.23112604 0.13730244 0.10167491 -0.18790112 0.13867833 -0.2577105 0.01946757 0.059019897
0.2855488 0.1633904 0.09710715 -0.0895311 -0.29035598 0.03396276 -0.13523565 -0.019448666
0.024241418 -0.026002603 -0.21176225 -0.05734946 0.113418736 -0.20151195 0.16608623 -0.0022402517
0.15044174 0.12542374 -0.06643801 -0.107032605 0.051026307 0.1365746 0.12831223 0.20514077
0.03617202 0.12336526 0.17103814 -0.08818317 -0.01600404 -0.23184204 -0.118227504 0.02655252
00000000: 2f08 d3be c6a4 d53e 87df 273e a494 4fbe
00000010: 2096 44be 8ef9 bf3d 6fb0 03be e494 07be
00000020: e30a 7dbe 01e6 4d3e 7b3a ff3d 4638 273d
00000030: 04ee 45bd eaeb 74be 434d 313e 7a3e debc
00000040: d0d0 bcbd 2bf4 3cbe e177 1b3d d863 02be
00000050: 9a3e 653e 88ec 05be b32e de3d de54 033e
00000060: 498b c93d 4171 293e 1c7d ffbd 6bb3 713e
00000070: 3bfa 223e e6ba 073e 69c5 64be 4413 bc3d
00000080: 758c d4bd ff16 c9bd 841e f23c 10e8 263e
00000090: 6882 303d 9ee7 85bd 26a4 1b3e 1391 29be
000000a0: c33b ea3d 1eb2 8c3e bfdd aabe 2bb0 9cbe
000000b0: 2868 1a3c ded5 293e 6c94 463e ae1f 0ebe
000000c0: 54b0 b93e 9c29 23be 6bb9 f7bd dc20 67be
000000d0: 498f bd3e dcd4 fc3d e7b3 133e 2e3f e4bd
000000e0: fd0a 9abb 766e f83d 494c 46be 1aa3 123e
000000f0: edf1 4bbd f2ca 683e 025f 0abe 89be 613e
00000100: d7ff d0bd 0526 b4bd debd e7bb 7dc1 a13d
00000110: d7f7 d83d 063d 5d3e 64b3 23be 9c48 103e
00000120: f79e 6abd 966a 75be 3f86 073e 1c69 853d
00000130: 5732 343e bc22 6abd ffcc 32bd 3c52 453e
00000140: d299 923e 1d80 cc3d e7b2 be3d 9df9 d93d
00000150: be95 763e 170d e4bb 5e45 883b 938c 323e
00000160: d71b d7be 937d e93d b6ea 4d3e ffdc 23be
00000170: 633c 2d3e 81df 90bd a260 90bb bc79 373e
00000180: 171b dd3d 4f49 5ebd 4160 c63e cbcc bc3d
00000190: 4bbe 44bc c853 1fbe 577f 2cbe ad91 363e
000001a0: abea f03c 5127 3fbe bce6 593d e4da a33e
000001b0: eaca 8dbd 60d4 ad3c 3478 9b3d f25f 753e
000001c0: bdd1 febd abab 0ebe 86bf 35be 88eb 3c3e
000001d0: b0b2 013e 7ff2 07bd d321 6c3e 9925 8a3e
000001e0: 2f41 6e3e f64d 1cbe a6c6 903e 5e68 123e
000001f0: c9cf 683e def4 823e eabd 753c 1bbc 9d3d
00000200: 3711 52bd 6ab3 ce3d 613c d1bd 3c0d bcbd
00000210: c89b bcbd 9c3f 613e e780 823e ea25 76be
00000220: 20ff a03d 5931 a6bd 38be a1bd 8912 dd3d
00000230: 27b3 e4bd c9ed 753c a739 3d3e 0ca8 043d
00000240: dd50 663e 5b5b 8e3e f5e1 4cbe 60a9 7ebe
00000250: d769 773d 33a8 ea3d d0e8 81be d8a6 d7bc
00000260: f83c c3bd 32a9 103d 470a 7fbe 661d d23e
00000270: c612 ee3d b770 8bbe 04ed d8bd d9a2 05be
00000280: d7c7 a1be a40b 78bd adf3 903e 8ca6 c0bd
00000290: 7336 f73d c042 58be 9031 8bbd 47a0 4e3b
000002a0: 226e 943e 5acc 86be c549 40be e7ac 5e3e
000002b0: de60 b8bd 8a5f a7be a3f8 683e bfec d6bd
000002c0: c6dd 5ebe 9349 37be 9810 803e 25a6 1c3e
000002d0: 10c2 2f3e 6e90 4bbd a110 0d3e f6ae a0be
000002e0: 8060 02be a31f 02bd 6774 133d aadf d93d
000002f0: 5555 a73e 2d9b d4bc 0164 d6bd 0519 383b
00000300: eb0d 24be b45e a1bd 7eda 193d 620f 23be
00000310: 952d 26be 02a9 dfbc 0df7 c9bd 92b5 f7bd
00000320: ef22 17be fd26 f1bd 5870 55be 1cd0 cbbd
00000330: 9885 79be f145 41be 360e 16be 048b da3d
00000340: fb4b f3bd 65a2 a13d 4656 9c3d aa39 213e
00000350: a637 a33d 982a e0bc bda3 34be e662 25bd
00000360: 4eac 6c3e 0399 0c3e ef3a d03d 2769 40be
00000370: b101 0e3e a1f2 83be 747a 9f3c d9be 713d
00000380: 7433 923e d04f 273e 1de0 c63d 155c b7bd
00000390: 8aa9 94be 891c 0b3d 377b 0abe cf52 9fbc
000003a0: f095 c63c 6903 d5bc 34d8 58be 44e7 6abd
000003b0: 1548 e83d 2659 4ebe 8212 2a3e 30d1 12bb
000003c0: 660d 1a3e 156f 003e a710 88bd e933 dbbd
000003d0: f600 513d 36da 0b3e 4864 033e 6c10 523e
000003e0: 1d29 143d eda6 fc3d 9f24 2f3e 6199 b4bd
000003f0: e81a 83bc 0068 6dbe 4321 f2bd ac84 d93c

hiden_layers.3.bias f4 [64]
-0.06649359 -0.12489829 -0.05062313 0.06016134 0.01758901 -0.057116516 0.009718723 0.023164665
-0.091638185 -0.11417485 0.047583178 0.01398871 -0.0036453546 0.09469769 0.051642645 -0.026509497
0.04166964 0.0004136854 0.012909682 -0.02452512 0.0041414322 -0.0533976 -0.041609157 0.07503124
-0.03575002 -0.025260467 0.024372403 -0.057567086 -0.03599841 -0.089715034 0.087614276 0.06751538
-0.0688797 0.14181432 0.045984022 -0.030705767 -0.039669797 0.0043183067 -0.03960141 0.10449155
-0.1978028 0.057588123 -0.03349941 -0.08488542 -0.030700535 0.0191221 -0.091884986 -0.14115463
-0.13140629 0.056440175 -0.059445962 0.029630508 -0.06842847 0.066373296 0.024239112 -0.02973537
0.02593628 -0.048930135 -0.0061533176 -0.041016515 0.08356151 0.042571586 0.017660694 -0.026966402
00000000: cb2d 88bd adca ffbd 335a 4fbd bd6b 763d
00000010: d416 903c 02f3 69bd 473b 1f3c d3c3 bd3c
00000020: cdac bbbd 81d4 e9bd 94e6 423d e730 653c
00000030: e7e6 6ebb ddf0 c13d 3d87 533d 722a d9bc
00000040: c9ad 2a3d eae3 d839 2183 533c e8e8 c8bc
00000050: dab4 873b 71b7 5abd 5d6e 2abd fba9 993d
00000060: 9d6e 12bd 0aef cebc a2a8 c73c 77cb 6bbd
00000070: 1273 13bd 84bc b7bd 1d6f b33d 8145 8a3d
00000080: cd10 8dbd c637 113e be59 3c3d a98a fbbc
00000090: cc7c 22bd 9580 8d3b 1735 22bd aaff d53d
000000a0: d18c 4abe 86e1 6b3d ad36 09bd 68d8 adbd
000000b0: b07f fbbc f3a5 9c3c 322e bcbd d78a 10be
000000c0: 5f8f 06be d02d 673d 9c7d 73bd aebb f23c
000000d0: 3a24 8cbd b9ee 873d 1a91 c63c 9797 f3bc
000000e0: 5278 d43c f76a 48bd c5a1 c9bb ef00 28bd
000000f0: 4c22 ab3d 8b5f 2e3d 29ad 903c a5e8 dcbc

hiden_layers.4.weight f4 [64, 64]
-0.3778093 0.35097444 0.08998585 -0.12826195 0.025680043 -0.06957753 -0.088511355 0.101121776
-0.19641575 -0.050367843 -0.22299036 0.1993933 0.046038833 -0.0759744 0.01918103 0.029614445
0.049046043 -0.0047785523 0.11587486 0.31137782 -0.15356472 0.18423446 -0.09195986 -0.03596086
-0.42528397 -0.15677406 0.22619635 0.21552138 -0.37399828 -0.21896878 -0.06444944 -0.06831066
0.33348396 -0.022536132 -0.06425625 -0.38338965 0.12870753 -0.019940129 -0.08787781 -0.0645671
-0.411704 -0.096421756 0.058274437 0.08300564 0.04829549 0.17346384 0.34178185 -0.1091608
-0.20557855 -0.012324962 -0.24541397 0.16725942 -0.5718943 0.1793389 0.39092168 -0.22564915
-0.042216297 -0.07070557 -0.3700278 -0.09661938 -0.04710108 -0.24169768 -0.19236208 -0.04264443
0.04615189 -0.41582528 -0.23619212 0.104731396 0.027057562 0.021964785 -0.16423668 0.11461182
-0.16114447 -0.054850463 0.090751305 0.124898724 0.18018362 0.53742146 -0.3384716 -0.013715323
-0.20501772 -0.08823324 0.07505025 0.050456017 0.27246302 -0.0053861625 0.19018233 0.12061299
-0.016980857 -0.2076559 -0.18849164 0.09059216 0.15164384 0.13768876 -0.1794094 -0.087744996
-0.06670027 -0.03454028 0.29562107 0.044018447 -0.2805738 0.107674524 0.12181089 0.1647235
0.48711827 0.08183571 0.1707327 0.099920265 -0.13425502 0.16548187 -0.16196455 -0.15601322
-0.20918298 0.015005325 -0.17499502 -0.056662098 0.24818294 -0.03313353 0.14509311 -0.02311326
0.051727504 -0.13921638 0.025610518 -0.0042757485 0.5281406 0.008715326 0.20966232 0.07969561
0.040095434 -0.12842645 -0.11493645 -0.13750646 0.10984613 0.040349554 -0.024094485 0.13961765
-0.041031953 -0.2403209 0.04094169 -0.05629055 -0.09826839 0.32803085 0.14722724 -0.030787569
0.057101246 0.116829425 -0.075475626 -0.08736445 -0.2330538 -0.14143038 -0.15239939 0.11603972
-0.26136678 -0.27049232 -0.21865241 0.10405392 -0.16223124 0.13975185 -0.06626182 0.10614569
-0.28700942 -0.026739884 -0.10328891 0.23978323 -0.09715671 0.109818146 -0.08118037 0.26721704
0.23529506 0.044095274 -0.26686797 -0.099888094 -0.22038391 -0.049872212 0.07845313 0.038927305
0.23044474 -0.09071535 0.29588747 -0.19724098 -0.101129204 0.22061823 0.036454156 0.10428332
0.057937026 0.10407606 0.3044425 0.24393103 0.14214164 -0.01233749 0.04788814 0.19719455
0.1538323 -0.2226277 -0.011028279 0.046475273 -0.21144585 -0.0923641 -0.051741626 -0.11638234
0.042922616 0.19087085 0.16513453 -0.07698335 -0.04105426 -0.107269645 -0.024437077 0.22187088
0.049855914 -0.015313868 -0.21410865 -0.24748664 -0.12545796 0.122164875 0.15795952 0.16350423
0.24402867 0.048209876 0.03475251 -0.19935153 -0.021273013 0.06740243 -0.0588379 -0.30266336
0.1398948 0.0023281134 -0.05863521 -0.11586441 0.28403154 -0.07065113 -0.22660182 0.120308734
-0.2994366 0.20504428 -0.097795926 0.10558534 0.09349918 -0.16517563 -0.09672574 -0.060442124
-0.089306355 0.16284227 -0.18261231 0.16120858 0.039196916 0.060451638 0.0068003833 0.20660242
-0.10118939 -0.119681865 0.26105952 0.09281834 0.15299599 -0.020921057 0.10036591 0.17773736
00000000: 3870 c1be ecb2 b33e 804a b83d 1a57 03be
00000010: f45e d23c aa7e 8ebd 7145 b5bd ef18 cf3d
00000020: 3621 49be 834e 4ebd 9657 64be c22d 4c3e
00000030: 3793 3c3d 7798 9bbd 8921 9d3c fe99 f23c
00000040: 81e4 483d 6795 9cbb cc4f ed3d ea6c 9f3e
00000050: 1240 1dbe f5a7 3c3e 7355 bcbd b24b 13bd
00000060: d2be d9be 6189 20be 04a0 673e a3b1 5c3e
00000070: b47c bfbe 5a39 60be 11fe 83bd 76e6 8bbd
00000080: 69be aa3e b29d b8bc c898 83bd a64b c4be
00000090: e8cb 033e 7b59 a3bc 48f9 b3bd c13b 84bd
000000a0: deca d2be c578 c5bd 2db1 6e3d dcfe a93d
000000b0: 7ed1 453d 81a0 313e 08fe ae3e b38f dfbd
000000c0: 2f83 52be a3ee 49bc cd4d 7bbe 0e46 2b3e
000000d0: aa67 12bf 9ea4 373e e326 c83e 9210 67be
000000e0: ffea 2cbd 15ce 90bd 4974 bdbe 62e0 c5bd
000000f0: 10ed 40bd 997f 77be 91fa 44be edab 2ebd
00000100: c409 3d3d 0de7 d4be 59dc 71be 6a7d d63d
00000110: d2a7 dd3c 7eef b33c a92d 28be 9ab9 ea3d
00000120: 0e03 25be e1aa 60bd d2db b93d e7ca ff3d
00000130: 0e82 383e 7494 093f 264c adbe 3cb6 60bc
00000140: 2af0 51be a1b3 b4bd f2b3 993d f8aa 4e3d
00000150: 4680 8b3e 687e b0bb 28bf 423e f103 f73d
00000160: 701b 8bbc c0a3 54be f403 41be 6288 b93d
00000170: 8648 1b3e 48fe 0c3e 19b7 37be a6b3 b3bd
00000180: 279a 88bd 1c7a 0dbd a55b 973e b04c 343d
00000190: 5ea7 8fbe 7684 dc3d fd77 f93d 47ad 283e
000001a0: 9167 f93e 7b99 a73d 8ed4 2e3e ffa2 cc3d
000001b0: 267a 09be 1474 293e 09da 25be eec1 1fbe
000001c0: 1034 56be e5d8 753c e531 33be 8416 68bd
000001d0: ab23 7e3e 06b7 07bd 4a93 143e 0558 bdbc
000001e0: 38e0 533d bd8e 0ebe 26cd d13c 941b 8cbb
000001f0: 3934 073f baca 0e3c b8b1 563e 7437 a33d
00000200: 1c3b 243d 3982 03be cd63 ebbd 7ece 0cbe
00000210: 02f7 e03d 9345 253d cc61 c5bc eef7 0e3e
00000220: 1f11 28bd af16 76be 79b2 273d eb90 66bd
00000230: f040 c9bd a9f3 a73e bdc2 163e 3636 fcbc
00000240: ffe2 693d 4444 ef3d f792 9abd 22ec b2bd
00000250: a8a5 6ebe 20d3 10be 960e 1cbe 3ca6 ed3d
00000260: ded1 85be f87d 8abe 6be6 5fbe 391a d53d
00000270: f21f 26be 1c1b 0f3e 47b4 87bd e962 d93d
00000280: e6f2 92be 9a0d dbbc 2389 d3bd bc89 753e
00000290: 19fa c6bd 56e8 e03d e541 a6bd acd0 883e
000002a0: 30f1 703e 3f9d 343d eba2 88be 2192 ccbd
000002b0: 52ac 61be ce46 4cbd 09ac a03d 3d72 1f3d
000002c0: b5f9 6b3e f8c8 b9bd 907e 973e 8af9 49be
000002d0: d41c cfbd bfe9 613e f450 153d 7e92 d53d
000002e0: 604f 6d3d d425 d53d e3df 9b3e 0ec9 793e
000002f0: 948d 113e 2f23 4abc 5b26 443d 5eed 493e
00000300: 3786 1d3e 84f8 63be f4af 34bc db5c 3e3d
00000310: 4385 58be 6429 bdbd 07ef 53bd dd59 eebd
00000320: a0cf 2f3d a673 433e 0719 293e 72a9 9dbd
00000330: 8328 28bd 30b0 dbbd 4430 c8bc 1f32 633e
00000340: b735 4c3d 05e7 7abc 4c3f 5bbe 236d 7dbe
00000350: 0d78 00be 9431 fa3d 24c0 213e a76d 273e
00000360: a7e2 793e b877 453d a658 0e3d cf22 4cbe
00000370: be44 aebc 490a 8a3d 0300 71bd b1f6 9abe
00000380: 9540 0f3e 4393 183b 792b 70bd 524a edbd
00000390: 956c 913e 8ab1 90bd 4f0a 68be 6d64 f63d
000003a0: c14f 99be 21f7 513e 3b49 c8bd 203d d83d
000003b0: 807c bf3d cd23 29be 2518 c6bd 2992 77bd
000003c0: 40e6 b6bd 20c0 263e b9fe 3abe dd13 253e
000003d0: f28c 203d 239c 773d c0d5 de3b 968f 533e
000003e0: 623c cfbd c41b f5bd 98a9 853e 8b17 be3d
000003f0: fbaa 1c3e a362 abbc a48c cd3d c800 363e

hiden_layers.4.bias f4 [64]
-0.08062899 -0.027304653 0.15602969 0.018799135 -0.10525997 -0.13942613 0.15890643 0.1354855
0.04215301 -0.17812555 -0.03690522 -0.0755301 0.043560114 -0.14918025 0.11635106 0.010265937
-0.044617858 0.053457625 0.11040034 -0.060974527 0.006107049 0.102007985 0.052248318 0.03868852
-0.061790053 0.021549601 -0.04560979 0.103147134 0.0581299 0.034281407 -0.00083965936 0.05189991
0.046162836 0.16959496 0.030155111 -0.05628085 -0.041377008 0.024016337 -0.059184246 -0.031386018
0.1797781 -0.0018040339 0.029612098 0.006310635 0.0027232736 0.022885416 0.034004875 -0.08082154
0.28225932 -0.033021033 0.11406436 0.04826933 -0.14790618 -0.046068996 -0.10365811 0.0740703
0.016424581 0.08242346 -0.036619924 0.0899719 0.010043962 0.019200016 0.0742733 0.02852881
00000000: d020 a5bd 02ae dfbc 3fc6 1f3e a500 9a3c
00000010: 8a92 d7bd b9c5 0ebe 5eb8 223e b6bc 0a3e
00000020: a2a8 2c3d 8b66 36be ee29 17bd 86af 9abd
00000030: 176c 323d b5c2 18be 7749 ee3d 7632 283c
00000040: 37c1 36bd 62f6 5a3d 9319 e23d 6dc0 79bd
00000050: a41d c83b 90e9 d03d 5502 563d db77 1e3d
00000060: 9117 7dbd ca88 b03c 55d1 3abd ce3e d33d
00000070: 9e19 6e3d a96a 0c3d 961c 5cba 0095 543d
00000080: 3e15 3d3d 4daa 2d3e da07 f73c c086 66bd
00000090: f07a 29bd e9bd c43c 2e6b 72bd a08e 00bd
000000a0: c017 383e 5575 ecba 1295 f23c 71c9 ce3b
000000b0: f378 323b 327a bb3c b248 0b3d c385 a5bd
000000c0: 4b84 903e 1041 07bd 939a e93d 10b6 453d
000000d0: b874 17be d8b2 3cbd b44a d4bd 2bb2 973d
000000e0: d88c 863c a2cd a83d c6fe 15bd 3043 b83d
000000f0: 6e8f 243c 5a49 9d3c 9a1c 983d 40b5 e93c
