results/2_model_1_case_2/epoch500/model_weights.pth (torch, 484214 bytes, 88 tensors)

init_layer.0.weight f4 [64, 3]
-0.40081716 -0.12810667 0.26951927 0.29372072 -0.08031177 0.028721048 -0.11209669 -0.21501967
-0.19232938 0.46836656 0.056769166 0.105384104 -0.12938331 0.17690995 0.32236332 -0.09230022
-0.20953803 0.26554143 0.30026007 -0.044680692 0.31440645 0.5464233 0.20859681 0.33382416
0.25357804 -0.3998923 0.099418215 -0.13194562 -0.06720754 0.314252 -0.3902045 0.05476182
0.09008491 0.08738224 0.05701414 -0.29546103 -0.10783396 -0.07723854 -0.088768445 -0.080662094
0.015113735 0.43472195 0.14465983 -0.48249897 -0.02326814 0.18122399 -0.28216028 -0.26214638
0.09626778 -0.018724395 0.30488524 0.21933632 0.28009787 -0.22362632 0.10269448 -0.02390453
-0.25278416 -0.24982074 0.16975062 -0.14866629 0.1261441 -0.109206975 -0.15409757 0.14405397
-0.04366559 -0.09234386 0.010117857 -0.045771852 -0.27355066 -0.10474288 0.19193585 -0.057698462
-0.081658065 -0.01798647 0.32839844 -0.012685571 0.129252 -0.1877151 -0.0566456 0.19105294
0.36815688 -0.12601705 -0.15567715 0.16171965 0.11541818 0.08953607 -0.30444 0.06554742
-0.36927176 0.13351141 -0.29705745 -0.39891052 -0.08369849 -0.118257396 0.024320194 0.34403026
-0.11445535 0.1532676 0.2950529 -0.27875724 0.23750302 -0.1293154 0.051026735 -0.033458747
-0.19587041 -0.01684075 -0.092280336 -0.22524576 0.088604935 0.011010841 -0.37279326 -0.19397146
-0.12759693 -0.15318252 0.2824717 -0.11064315 0.29273263 -0.55462265 0.26927835 0.24978463
0.07823971 -0.03902814 -0.44107404 0.07695431 0.009292479 -0.3402499 0.0064760786 -0.09251704
0.34666166 -0.07287935 -0.033205066 0.25937772 0.13185893 -0.16159454 -0.2268145 -0.17421617
-0.19734617 0.23487535 0.019259952 -0.19790138 0.09459156 0.10325265 0.27271798 0.04296548
0.41678107 0.44053304 0.045244645 0.12050245 -0.18848902 0.28499076 0.093396515 -0.20705064
-0.15582833 -0.51289314 -0.037630215 -0.13585624 0.3398516 -0.38165525 0.112665504 -0.12427535
-0.24516742 0.061868556 0.10215185 -0.12554476 -0.2967006 0.46614438 -0.22752394 0.30104232
0.18315148 0.0034575919 0.34056953 0.084263064 -0.15334494 0.056120526 0.2793608 0.20568375
0.10667295 0.106092036 0.08639311 -0.26877487 -0.43038592 -0.33439434 -0.16028033 -0.07144724
-0.10540317 -0.07515359 0.47018284 -0.09858128 0.031120839 0.42459434 0.0211089 0.22529195
00000000: e837 cdbe 652e 03be 6efe 893e 9062 963e
00000010: 7f7a a4bd 6748 eb3c f392 e5bd 1e2e 5cbe
00000020: fef1 44be becd ef3e c986 683d 9fd3 d73d
00000030: 0f7d 04be e227 353e ce0c a53e e607 bdbd
00000040: 2391 56be 0cf5 873e b0bb 993e 1a03 37bd
00000050: e2f9 a03e 66e2 0b3f 679a 553e 00eb aa3e
00000060: fbd4 813e afbe ccbe c79b cb3d c11c 07be
00000070: 1ba4 89bd a3e5 a03e e2c8 c7be ee4d 603d
00000080: 707e b83d 76f5 b23d a987 693d ab46 97be
00000090: 0dd8 dcbd 3d2f 9ebd 3bcc b5bd 2b32 a5bd
000000a0: 999f 773c e093 de3e b521 143e 1b0a f7be
000000b0: d49c bebc c892 393e 5077 90be 0d38 86be
000000c0: 0b28 c53d e763 99bc eb19 9c3e b399 603e
000000d0: fd68 8f3e 4cfe 64be 7c51 d23d 6fd3 c3bc
000000e0: ed6c 81be 02d1 7fbe 1bd3 2d3e fa3b 18be
000000f0: eb2b 013e e8a7 dfbd c1cb 1dbe e282 133e
00000100: b1da 32bd c71e bdbd 5ec5 253c 447b 3bbd
00000110: d50e 8cbe 6f83 d6bd d58a 443e 3955 6cbd
00000120: 583c a7bd 5d58 93bc d723 a83e 24d7 4fbc
00000130: a35a 043e 6338 40be 3705 68bd 62a3 433e
00000140: 0f7f bc3e 9d0a 01be d569 1fbe d699 253e
00000150: 5e60 ec3d b05e b73d 8fdf 9bbe ba3d 863d
00000160: 3011 bdbe 37b7 083e ea17 98be 003e ccbe
00000170: 1d6a abbd ef30 f2bd 253b c73c bc24 b03e
00000180: 9167 eabd 2ff2 1c3e 2c11 973e 45b9 8ebe
00000190: fe33 733e 426b 04be 6901 513d 0a0c 09bd
000001a0: 4192 48be 9df5 89bc 79fd bcbd d3a6 66be
000001b0: 8176 b53d d066 343c c2de bebe 74a0 46be
000001c0: c5a8 02be e1db 1cbe 21a0 903e e098 e2bd
000001d0: 0de1 953e c0fb 0dbf dade 893e 8bc7 7f3e
000001e0: 243c a03d f9db 1fbd 75d4 e1be 399a 9d3d
000001f0: 7b3f 183c 3c35 aebe 4935 d43b 9379 bdbd
00000200: a37d b13e c541 95bd 0902 08bd 28cd 843e
00000210: 0706 073e 0a79 25be 0f42 68be b965 32be
00000220: 1d15 4abe 2a83 703e 0cc7 9d3c a9a6 4abe
00000230: 38b9 c13d 2076 d33d b1a1 8b3e 92fc 2f3d
00000240: 5464 d53e 8c8d e13e 7352 393d fdc9 f63d
00000250: 4403 41be 4fea 913e ac46 bf3d 1505 54be
00000260: 7691 1fbe f74c 03bf 2422 1abd e61d 0bbe
00000270: 0701 ae3e 5168 c3be 2cbd e63d 1384 febd
00000280: 2b0d 7bbe e269 7d3d fd34 d13d ce8e 00be
00000290: 24e9 97be 7aaa ee3e 09fc 68be 3822 9a3e
000002a0: 108c 3b3e c498 623b 215f ae3e 1d92 ac3d
000002b0: 7506 1dbe a3de 653d 6108 8f3e c39e 523e
000002c0: 5977 da3d c846 d93d dfee b03d dc9c 89be
000002d0: 8b5b dcbe bc35 abbe 8720 24be ee52 92bd
000002e0: 9edd d7bd 20ea 99bd cebb f03e fbe4 c9bd
000002f0: 21f1 fe3c 6e64 d93e 92ec ac3c efb2 663e

init_layer.0.bias f4 [64]
0.29887488 0.0025391972 0.033573844 -0.29010853 0.03788427 0.00041025877 0.103851 0.1828903
-0.17888683 -0.2000421 0.33722576 0.19621792 0.21183307 0.4354182 -0.013256892 0.21129599
0.22512898 0.099643864 0.12749127 0.060746934 0.16967463 0.04275774 0.26910934 0.09395143
0.16830483 -0.11269343 0.06473798 -0.07909564 -0.35481808 0.18200381 0.02054812 -0.123796634
-0.1588762 0.19436763 0.21415155 0.2871677 -0.28151688 -0.065931484 -0.2669686 -0.048937824
-0.36274186 -0.046777863 -0.2880704 -0.17096305 0.14989567 0.00973854 -0.18985453 -0.08001495
-0.047331315 0.19521351 -0.12780534 -0.14898938 -0.050829917 -0.15616366 0.05037709 0.15498763
0.23267826 -0.116124004 0.03891653 -0.21111576 0.042660777 -0.04223016 0.12865208 0.03839871
00000000: 2106 993e a968 263b ba84 093d 1b89 94be
00000010: 892c 1b3d 0018 d739 d5af d43d 9847 3b3e
00000020: 1c2e 37be d6d7 4cbe dba8 ac3e 5aed 483e
00000030: c5ea 583e 22ef de3e 6f33 59bc fa5d 583e
00000040: 3688 663e 1512 cc3d 128d 023e c7d1 783d
00000050: 30bf 2d3e bd22 2f3d b3c8 893e 9b69 c03d
00000060: 1a58 2c3e d0cb e6bd 5995 843d e5fc a1bd
00000070: b7aa b5be 355f 3a3e 8854 a83c 1789 fdbd
00000080: 71b0 22be 4f08 473e 8b4a 5b3e a507 933e
00000090: fb22 90be 1607 87bd 1cb0 88be 0773 48bd
000000a0: 4db9 b9be 259a 3fbd f77d 93be f010 2fbe
000000b0: 407e 193e 668e 1f3c 3a69 42be e1de a3bd
000000c0: 7bde 41bd 0de6 473e 67df 02be ac90 18be
000000d0: 0833 50bd 5ee9 1fbe 3558 4e3d 14b5 1e3e
000000e0: 3643 6e3e 6cd2 edbd f066 1f3d bb2e 58be
000000f0: 11bd 2e3d 88f9 2cbd 5fbd 033e f747 1d3d

hiden_layers.0.weight f4 [64, 64]
-0.29921806 0.0024358707 0.1983168 0.15885724 -0.28397286 -0.054989383 0.031914312 -0.27061766
0.10973168 -0.07750722 -0.07423047 0.21050122 0.081885025 0.027085789 0.11893169 -0.14803907
-0.08391509 -0.078318655 0.03788735 -0.1538716 -0.039723963 0.09782847 0.02028761 -0.29423168
0.014955628 0.02778622 -0.17358996 -0.18024771 -0.009052321 -0.14316662 -0.15421982 -0.11403679
-0.15632673 -0.1240273 0.22299415 0.032217648 0.12617657 0.07735689 0.28425908 0.02750409
0.25035003 0.013031634 0.15969259 -0.13233463 0.020968819 -0.08588299 0.06748731 -0.20823377
0.28281838 -0.13563342 -0.0009980752 0.13898404 0.12659687 0.03165845 0.2651425 0.11689333
-0.23932424 -0.08448578 -0.17780215 0.23073268 0.07101893 -0.027848965 -0.10413199 -0.22291242
0.021536423 -0.23373397 -0.16068217 0.033240225 -0.25863814 -0.22601406 0.14271499 -0.24309091
-0.059635058 -0.52888936 0.34190473 0.24024138 0.1198347 0.028210424 0.05596619 0.28946307
0.013760372 0.30340067 0.28386506 0.071084745 0.14766735 -0.14472902 0.41702887 0.24213377
-0.12845239 -0.011164036 0.19564223 -0.044357333 0.13551636 0.10056535 -0.11741882 -0.4288706
-0.20076871 0.16856228 0.5640128 0.3868929 0.23241475 -0.02085206 -0.25492838 0.17964825
-0.059036925 0.089597076 -0.543724 -0.44416717 0.26963043 -0.27091214 -0.055840235 -0.23639476
-0.0455598 -0.09135906 -0.0768609 -0.03307635 0.023175364 -0.26607698 0.28703862 0.09540625
-0.19586693 -0.26656878 -0.18446694 -0.09839329 0.2367278 0.20620537 0.1372502 -0.15593556
0.18003802 -0.13133684 0.1595351 -0.07143088 -0.16183637 0.08304848 -0.043333195 -0.2338923
0.1221257 0.010810658 0.037430346 0.07817635 0.1333674 -0.15535931 0.2824008 -0.114494905
-0.08082105 -0.2897807 0.014434856 -0.06650418 -0.027028918 -0.22173573 -0.16908856 -0.04536041
0.06490313 -0.20384559 0.002637478 0.31631953 -0.092095666 -0.102146834 0.27545124 0.25614417
-0.15656365 -0.15262476 0.15983905 0.19337343 -0.1314065 -0.1019835 -0.029519988 -0.0033131097
-0.2409769 -0.103842966 0.21712407 0.2686692 0.17486173 0.1446991 0.033908613 -0.0336645
-0.112230174 0.11252899 -0.12472899 0.022148147 0.13227893 0.04724049 -0.1622748 0.025611915
-0.21684958 0.17448612 -0.23710439 -0.21771248 0.2359968 -0.20166712 -0.13542736 0.13486353
0.15822524 -0.08773472 0.008316177 -0.082266495 0.105310895 0.026275434 0.04187096 -0.1325845
-0.22248194 -0.2501754 0.08208478 0.12760451 -0.1269012 -0.18424366 0.03564357 -0.06295369
-0.05289967 0.24508701 0.25695017 -0.11503487 0.30314183 -0.006126748 -0.15337011 -0.12302675
0.113181636 0.061152518 -0.027511565 -0.17871878 -0.03322777 -0.12819071 -0.15595673 -0.026677692
-0.16573885 0.10512535 -0.08865203 0.02660074 0.058191482 -0.28549165 0.036113754 -0.04000697
-0.1074842 0.031991173 0.045498747 0.10755833 0.08834325 -0.01835943 -0.0025464487 0.10227259
0.057401694 -0.093776755 0.1775817 -0.101657785 -0.19638944 0.0064647705 0.2344856 0.11283567
-0.14113337 -0.12406845 -0.048182506 0.23256697 -0.072704464 -0.17637478 0.0016612918 -0.04050599
00000000: 1c33 99be 21a3 1f3b 8f13 4b3e 79ab 223e
00000010: e464 91be 8c3c 61bd 95b8 023d 668e 8abe
00000020: 01bb e03d 1bbc 9ebd 2506 98bd a28d 573e
00000030: 56b3 a73d 04e3 dd3c 7592 f33d 8e97 17be
00000040: addb abbd 8865 a0bd c42f 1b3d 8490 1dbe
00000050: 98b5 22bd 4b5a c83d 3432 a63c 89a5 96be
00000060: 7308 753c ed9f e33c 91c1 31be db92 38be
00000070: 3050 14bc 459a 12be cdeb 1dbe 1f8c e9bd
00000080: 1d14 20be 0602 febd 9458 643e a7f6 033d
00000090: 6e34 013e 4a6d 9e3d 688a 913e 4250 e13c
000000a0: e12d 803e a282 553c 7486 233e bb82 07be
000000b0: cdc6 ab3c 6ce3 afbd c936 8a3d 3c3b 55be
000000c0: 92cd 903e 7de3 0abe d9d1 82ba d551 0e3e
000000d0: 9ca2 013e 4aac 013d c2c0 873e c565 ef3d
000000e0: 6a11 75be e106 adbd c411 36be 3045 6c3e
000000f0: 5f72 913d 8323 e4bc 2743 d5bd 2743 64be
00000100: 276d b03c f557 6fbe de89 24be e726 083d
00000110: 386c 84be 3b70 67be e123 123e d3ec 78be
00000120: e443 74bd 4b65 07bf 230e af3e d601 763e
00000130: e56b f53d 8c19 e73c ce3c 653d 8134 943e
00000140: 2f73 613c 5557 9b3e c356 913e e194 913d
00000150: 1c36 173e d833 14be cf84 d53e eaf1 773e
00000160: 0689 03be 5ce9 36bc 7056 483e 09b0 35bd
00000170: cdc4 0a3e 35f5 cd3d 4779 f0bd ed94 dbbe
00000180: 5096 4dbe 979b 2c3e 2563 103f d416 c63e
00000190: 22fe 6d3e f0d1 aabc f985 82be b6f5 373e
000001a0: b4d0 71bd ac7e b73d 7f31 0bbf e169 e3be
000001b0: 000d 8a3e ffb4 8abe bbb8 64bd 7811 72be
000001c0: ea9c 3abd 751a bbbd 3f69 9dbd 117b 07bd
000001d0: 43da bd3c 3e3b 88be baf6 923e 5a64 c33d
000001e0: 5791 48be b47b 88be e7e4 3cbe 6c82 c9bd
000001f0: c668 723e 8027 533e 518b 0c3e 92ad 1fbe
00000200: e35b 383e 2a7d 06be 2b5d 233e 5a4a 92bd
00000210: 6fb8 25be 5215 aa3d 267e 31bd 7781 6fbe
00000220: 0a1d fa3d 301f 313c 9050 193d ec1a a03d
00000230: 7791 083e 8316 1fbe d696 903e 4e7c eabd
00000240: 8285 a5bd 235e 94be 2d80 6c3c 5833 88bd
00000250: c06b ddbc b10e 63be 8d25 2dbe d6cb 39bd
00000260: efeb 843d e6bc 50be 8ad9 2c3b a2f4 a13e
00000270: a79c bcbd 5c32 d1bd f207 8d3e 5425 833e
00000280: 3952 20be aa49 1cbe d9ac 233e af03 463e
00000290: 6d8f 06be badc d0bd e7d3 f1bc c220 59bb
000002a0: a6c2 76be 9fab d4bd c655 5e3e 028f 893e
000002b0: f40e 333e 002c 143e c2e3 0a3d c9e3 09bd
000002c0: efd8 e5bd 9975 e63d ea71 ffbd 0870 b53c
000002d0: 2174 073e 3e7f 413d 5d2b 26be 14d0 d13c
000002e0: d10d 5ebe 7dac 323e 7ecb 72be 05f0 5ebe
000002f0: 25a9 713e d381 4ebe 78ad 0abe aa19 0a3e
00000300: cc05 223e 43ae b3bd 9340 083c 567b a8bd
00000310: 3dad d73d 943f d73c e280 2b3d 3bc4 07be
00000320: 4ed2 63be fd16 80be 111c a83d c2aa 023e
00000330: 63f2 01be 5faa 3cbe fefe 113d dded 80bd
00000340: 53ad 58bd 17f8 7a3e f98e 833e 6797 ebbd
00000350: 6835 9b3e e3c2 c8bb 0e0d 1dbe 73f5 fbbd
00000360: c6cb e73d 107b 7a3d ef5f e1bc 0e02 37be
00000370: d819 08bd 6d44 03be 1fb3 1fbe 2d8b dabc
00000380: 72b7 29be f64b d73d 328f b5bd cce9 d93c
00000390: 315a 6e3d f62b 92be 04ec 133d 59de 23bd
000003a0: ad20 dcbd 2d09 033d e55c 3a3d 8b47 dc3d
000003b0: 4eed b43d 8466 96bc 52e2 26bb 4b74 d13d
000003c0: 0a1e 6b3d 070e c0bd fad7 353e f531 d0bd
000003d0: 501a 49be 6dd6 d33b fe1c 703e 6316 e73d
000003e0: 4485 10be 9917 febd 055b 45bd 0926 6e3e
000003f0: 14e6 94bd 979b 34be b4bf d93a 9ce9 25bd

hiden_layers.0.bias f4 [64]
-0.08469406 0.14778951 -0.04437265 -0.030396609 0.043053668 0.019699402 0.070644416 -0.05075159
0.0073537645 -0.045819115 -0.19297816 0.08506884 0.16700485 -0.018665342 0.023341358 0.06589277
-0.088392645 -0.044560302 0.08618106 -0.09572457 -0.21460432 0.0436471 0.0006502655 -0.025720147
0.060562864 0.060229793 -0.19402583 -0.13768211 0.11418629 0.024304967 0.034885254 0.08858552
0.048945438 -0.05161411 -0.16918322 -0.04130945 -0.10810609 0.0638604 -0.1446356 -0.23525693
-0.20609152 -0.11632696 0.10163278 -0.10155592 0.0077129425 0.1380754 -0.050346483 0.026854899
0.025002817 -0.12346533 0.101057045 0.07153716 0.02262365 -0.07891532 0.03934635 0.08224094
-0.091386385 -0.39370504 -0.203713 -0.21558608 -0.67004883 0.091869794 -0.084894955 -0.0023721482
00000000: 1474 adbd 2256 173e 19c0 35bd 4f02 f9bc
00000010: 0b59 303d a460 a13c 05ae 903d e6e0 4fbd
00000020: d9f7 f03b d3ac 3bbd 119c 45be 9238 ae3d
00000030: 5203 2b3e 0fe8 98bc 6036 bf3c caf2 863d
00000040: 3407 b5bd dd84 36bd b27f b03d 3e0b c4bd
00000050: 3cc1 5bbe 4dc7 323d 9476 2a3a 0fb3 d2bc
00000060: c410 783d 84b3 763d b5ae 46be 8afc 0cbe
00000070: 80da e93d 361b c73c d7e3 0e3d 536c b53d
00000080: 037b 483d 5169 53bd 5e3e 2dbe 1934 29bd
00000090: ba66 ddbd 3ec9 823d 5b1b 14be 31e7 70be
000000a0: a809 53be d43c eebd d924 d03d 8dfc cfbd
000000b0: dabc fc3b a363 0d3e 1d38 4ebd cefe db3c
000000c0: b5d2 cc3c 64db fcbd fff6 ce3d 1382 923d
000000d0: 3c55 b93c 5b9e a1bd a329 213d f06d a83d
000000e0: c928 bbbd b593 c9be 249a 50be 99c2 5cbe
000000f0: 5288 2bbf 3b26 bc3d 68dd adbd 0b76 1bbb

hiden_layers.1.weight f4 [64, 64]
-0.0070038983 0.042220596 -0.21418321 0.05712563 -0.21347126 0.22828563 -0.11034944 -0.075202234
0.019094817 0.08618986 0.008117995 -0.15003991 0.10222654 0.051949553 -0.003996005 0.020187456
0.040082328 0.18900932 0.1417566 0.23076846 0.2784681 -0.11124748 0.022630885 -0.119367786
-0.068453 -0.21919295 0.0066953725 0.22966325 0.044639025 -0.08505273 -0.12130494 0.11098907
-0.18274319 0.2188687 -0.18367156 -0.16804938 -0.10503619 0.071402304 -0.066074274 0.059589062
0.23236105 0.13867013 -0.21362165 0.17238991 0.24788083 -0.02275646 0.15798683 -0.280827
-0.057216734 -0.17342581 -0.04113393 0.16648021 -0.08957049 -0.008026721 -0.017341727 -0.15821393
0.22144799 -0.23719181 -0.22105648 0.15150137 0.036000572 -0.013394311 0.049569454 -0.11022746
0.05615213 0.33000797 -0.24047013 0.16831498 -0.03118477 0.034191597 -0.110957325 -0.055692654
0.16135018 -0.17072658 0.1639885 0.15760677 0.3180291 -0.029745609 -0.087514274 0.05279671
0.0062568556 -0.060855962 0.14153658 -0.013449759 -0.29536662 0.25917345 -0.12691289 0.08375717
0.04031061 0.12941727 -0.672537 -0.28634375 0.06387625 -0.03248737 -0.09209049 0.14279369
0.19121827 0.11782646 -0.4911537 -0.20122793 -0.36407468 0.022274323 -0.2684968 -0.22350286
-0.31394428 -0.29993442 0.034816064 -0.2272949 0.27021182 0.12071034 0.05042934 -0.06877816
0.46093228 -0.016345428 -0.11369642 6.0801096e-05 -0.00039959335 -0.016423475 0.18081404 -0.092648044
-0.03160751 0.16385631 -0.35073945 0.14312743 -0.002315034 0.053331107 0.02690869 0.15978912
0.04004553 0.19298905 -0.04159609 0.07269099 0.2465395 0.29382604 -0.15657614 0.24097583
0.39302996 -0.02857838 -0.27671266 -0.009983222 0.0146119585 -0.12615849 0.24402605 0.13293833
-0.11647325 0.015491491 0.07820516 -0.09334977 0.043635614 -0.24097054 -0.20221838 -0.07389442
-0.045433883 0.22341327 -0.25164726 -0.04411817 0.26118058 0.026022818 0.1554162 0.24960113
0.0041203024 -0.19039418 -0.08259594 -0.06524692 0.022048514 -0.26208296 -0.06898098 -0.28359446
-0.2854396 -0.40507612 -0.20674418 -0.076848894 0.065400355 0.05248226 0.072200626 0.051399
-0.019064387 0.01050775 0.0011355206 -0.3519809 -0.0863574 -0.2701675 0.16210426 -0.02797176
-0.17239892 0.14681166 -0.0831968 -0.07645795 -0.0055682734 0.16442528 0.0042640027 0.3151075
0.17937762 -0.0050665787 -0.29314873 0.20241214 0.3604133 -0.17266236 -0.050779525 -0.2637909
-0.06982099 -0.11188423 -0.116092056 0.19612233 0.30635545 0.24749406 -0.06098861 0.14728543
0.0069250925 -0.081188865 0.14898913 0.17418896 -0.03588347 -0.17869264 0.08652694 0.10324859
0.29745096 0.058783967 -0.03879347 -0.11185142 0.23088361 0.23957516 0.09806357 0.12286334
0.23960984 -0.3153858 -0.17546302 -0.00294525 0.03745906 0.20010152 0.12562075 0.123405464
0.109075084 -0.0469733 0.15697591 0.08873014 -0.11282236 -0.12648687 -0.30633685 -0.11424626
0.01692909 0.09902416 0.066884905 0.21654537 0.11787706 -0.01413626 -0.28787747 -0.05091003
-0.21289796 -0.12696095 0.09143592 0.05269918 -0.29303756 0.14303514 0.08365275 -0.22073054
00000000: f580 e5bb 81ef 2c3d d852 5bbe 91fc 693d
00000010: 3698 5abe b5c3 693e e3fe e1bd a103 9abd
00000020: bc6c 9c3c 4f84 b03d 5701 053c 10a4 19be
00000030: 265c d13d 0ec9 543d ebf0 82bb 2a60 a53c
00000040: 5e2d 243d a98b 413e a428 113e 914e 6c3e
00000050: 5f93 8e3e b8d5 e3bd 6864 b93c 1977 f4bd
00000060: 1631 8cbd 1e74 60be db64 db3b d82c 6b3e
00000070: 69d7 363d 2030 aebd b96e f8bd 3d4e e33d
00000080: 0821 3bbe 1e1f 603e 6614 3cbe 2315 2cbe
00000090: 371d d7bd 5f3b 923d f351 87bd a913 743d
000000a0: 0ef0 6d3e 8bff 0d3e a2bf 5abe fb86 303e
000000b0: 79d4 7d3e c16b babc 4dc7 213e 8ec8 8fbe
000000c0: 185c 6abd 8996 31be 0d7c 28bd ca79 2a3e
000000d0: bc70 b7bd 8282 03bc 3d10 8ebc d502 22be
000000e0: 43c3 623e 69e2 72be a15c 62be 2d23 1b3e
000000f0: 5675 133d d073 5bbc 5709 4b3d efbe e1bd
00000100: c7ff 653d cef6 a83e cd3d 76be c35a 2c3e
00000110: 3477 ffbc 7d0c 0c3d 983d e3bd fb1d 64bd
00000120: fb38 253e f3d2 2ebe 9aec 273e ab63 213e
00000130: b6d4 a23e 10ad f3bc af3a b3bd 5d41 583d
00000140: 4f06 cd3b 1a44 79bd f7ee 103e 615c 5cbc
00000150: 4b3a 97be 62b2 843e 74f5 01be e188 ab3d
00000160: bd1c 253d f685 043e 632b 2cbf a69b 92be
00000170: 8dd1 823d 7a11 05bd f099 bcbd 8238 123e
00000180: b9ce 433e 004f f13d 7f78 fbbe b20e 4ebe
00000190: ff67 babe a478 b63c 6a78 89be efdd 64be
000001a0: 4ebd a0be 0191 99be 4a9b 0e3d ffbf 68be
000001b0: 3459 8a3e fc36 f73d ff8e 4e3d 90db 8cbd
000001c0: 51ff eb3e d9e6 85bc abd9 e8bd ae04 7f38
000001d0: 8380 d1b9 868a 86bc 5127 393e 42be bdbd
000001e0: e076 01bd f3c9 273e 1f94 b3be ff8f 123e
000001f0: d3b7 17bb b871 5a3d 9d6f dc3c c29f 233e
00000200: c806 243d ec9e 453e a960 2abd 04df 943d
00000210: da74 7c3e 5e70 963e 7f55 20be 5ec2 763e
00000220: 393b c93e 351d eabc 48ad 8dbe ab90 23bc
00000230: ff66 6f3c b12f 01be f7e1 793e fc20 083e
00000240: 8789 eebd 06d0 7d3c 072a a03d 2a2e bfbd
00000250: 42bb 323d fbc0 76be 5612 4fbe f555 97bd
00000260: e118 3abd 73c6 643e e9d7 80be 41b5 34bd
00000270: 76b9 853e ce2d d53c 6d25 1f3e 7097 7f3e
00000280: 9a03 873b b1f6 42be 0f28 a9bd 2da0 85bd
00000290: 169f b43c bd2f 86be e645 8dbd 4b33 91be
000002a0: 2425 92be 2366 cfbe bfb4 53be f462 9dbd
000002b0: 9ff0 853d a3f7 563d ecdd 933d c287 523d
000002c0: eb2c 9cbc b328 2c3c c0d5 943a d736 b4be
000002d0: 26dc b0bd 6553 8abe a9fe 253e 0825 e5bc
000002e0: 5889 30be cc55 163e 1563 aabd fc95 9cbd
000002f0: 1076 b6bb 1a5f 283e 0cb9 8b3b c555 a13e
00000300: c4ae 373e 8b05 a6bb 9717 96be 2145 4f3e
00000310: 1888 b83e 67ce 30be 31fe 4fbd 9a0f 87be
00000320: 4ffe 8ebd 8f23 e5bd acc1 edbd 4bd4 483e
00000330: 9fda 9c3e 156f 7d3e 31cf 79bd fed1 163e
00000340: e3eb e23b 5946 a6bd 9b90 183e 975e 323e
00000350: 8cfa 12bd 34fb 36be 0935 b13d ff73 d33d
00000360: 7e4b 983e 75c7 703d e7e5 1ebd 5b12 e5bd
00000370: c16c 6c3e 3153 753e 8ed5 c83d c69f fb3d
00000380: 485c 753e 3f7a a1be 94ac 33be 1805 41bb
00000390: ac6e 193d 6ae7 4c3e baa2 003e 01bc fc3d
000003a0: c262 df3d 1367 40bd 4bbe 203e 26b8 b53d
000003b0: 690f e7bd c685 01be 2fd8 9cbe f1f9 e9bd
000003c0: e0ae 8a3c 2ecd ca3d f4fa 883d 12be 5d3e
000003d0: 8769 f13d c69b 67bc ad64 93be 0987 50bd
000003e0: ec01 5abe 0d02 02be c142 bb3d 18db 573d
000003f0: 0509 96be ce77 123e 2252 ab3d 3007 62be

hiden_layers.1.bias f4 [64]
0.006813455 0.042846717 -0.0052081905 0.10311796 -0.040890187 0.06955749 0.0012822902 -0.031406973
-0.025409373 0.010315472 -0.028395064 -0.0897797 0.06970456 0.03440562 -0.026159309 -0.05571146
0.0013323553 -0.07633663 0.0010887085 -0.025295531 0.0066842013 0.25024885 0.013290266 0.037619542
0.005513753 -0.026808994 0.078622 0.021406924 -0.045839258 0.01747439 -0.15851222 -0.16926767
-0.07593602 -0.06440298 0.05540434 -0.012878653 0.1163375 -0.2453035 -0.07658095 0.19456095
0.096299864 -0.09110588 -0.0018927288 -0.0091691585 0.09913482 -0.1136242 -0.082520515 0.056733612
-0.04353613 -0.056246687 0.005242719 0.0911732 -0.01786863 -0.030839393 -0.13844478 -0.024769945
0.109537505 -0.16823289 -0.0095193675 0.18843777 0.13338347 -0.054537203 0.049837504 -0.09744699
00000000: 6743 df3b 0a80 2f3d 78a9 aabb 822f d33d
00000010: 787c 27bd 2874 8e3d 8512 a83a 99a4 00bd
00000020: 5127 d0bc 3a02 293c c49c e8bc 6bde b7bd
00000030: 44c1 8e3d e8ec 0c3d 0c4c d6bc b331 64bd
00000040: 6da2 ae3a 6156 9cbd ffb2 8e3a 9338 cfbc
00000050: 2507 db3b 9e20 803e 6abf 593c f316 1a3d
00000060: b6ac b43b 899e dbbc 9204 a13d 935d af3c
00000070: f2c1 3bbd 7426 8f3c 0751 22be 8154 2dbe
00000080: 5884 9bbd b6e5 83bd a9ef 623d fc00 53bc
00000090: 5b42 ee3d d730 7bbe 79d6 9cbd fc3a 473e
000000a0: dd38 c53d b895 babd 7115 f8ba 3d3a 16bc
000000b0: 3207 cb3d ceb3 e8bd 8400 a9bd 8161 683d
000000c0: f152 32bd ed62 66bd 1dcb ab3b 04b9 ba3d
000000d0: 3c61 92bc e5a2 fcbc 78c4 0dbe 57ea cabc
000000e0: 3355 e03d 3e45 2cbe 1ff7 1bbc d5f5 403e
000000f0: ad95 083e 6762 5fbd 6922 4c3d 4a92 c7bd

hiden_layers.2.weight f4 [64, 64]
-0.09856276 -0.35584915 0.019722197 -0.14236458 0.10098418 -0.4006199 -0.18766819 -0.17396446
-0.44026893 -0.08438818 -0.016588882 -0.07316189 -0.11290137 0.28511667 -0.111250855 0.033771634
0.0898278 -0.084635004 0.019016419 -0.24600963 0.010910624 0.102826715 0.010379835 0.056178056
-0.045312468 -0.23956785 -0.133305 0.054346893 0.058979996 -0.19322325 0.14784683 0.14264323
-0.12888856 0.25714907 -0.047217753 -0.16647227 0.31154987 0.24247216 0.31077465 0.2934665
-0.3109792 0.010755545 0.08765865 -0.09017559 0.09793136 -0.305191 -0.015327099 0.11786363
-0.03903311 0.0323569 -0.12764286 -0.27300492 -0.061719462 0.22304054 0.29651308 0.19602665
-0.054157387 0.23632105 -0.025936104 -0.09225953 -0.057376232 0.09811189 0.11764945 0.37510127
0.17743462 0.08349864 0.11975563 0.11604723 0.205829 0.2206991 0.086734466 0.31544527
0.20807336 0.23591587 0.30991286 0.118267514 -0.048414443 -0.11696795 -0.05811096 0.07497727
-0.15814482 0.014279818 -0.2440577 -0.1513524 0.0029209836 -0.120347425 0.056474216 -0.25904632
-0.4148854 -0.0036747106 0.258348 -0.042775676 -0.2197522 0.077593386 -0.018127766 0.02501991
0.064977035 0.13442549 -0.022180932 0.09836096 0.31958863 0.093914144 -0.012649623 -0.22116652
-0.07640341 -0.17254971 0.06499685 0.095879264 0.099678636 -0.26789445 -0.17321779 0.2047051
-0.078853734 0.30915138 -0.07932454 -0.10251159 -0.18030155 0.13343321 -0.012677886 -0.3052821
0.31548914 -0.008831897 0.049146857 0.13386919 0.10588531 0.23381522 0.093253896 -0.32428545
0.13167048 -0.7532531 -0.46435064 -0.04637759 0.16745158 -0.23965137 0.21122266 -0.15625472
0.21862853 0.1615164 -0.047273144 0.10907964 -0.51024413 0.23134957 -0.20212689 0.28165758
-0.12407448 -0.115118094 0.30090302 -0.3437341 -0.061772723 -0.16027747 0.0676972 -0.38777837
-0.26703954 -0.14084579 0.0521569 -0.17503323 0.11837369 0.23549485 0.094883 0.50775814
-0.033282023 0.30267572 -0.12235159 0.09967218 0.45113733 0.07606381 0.160744 0.3888604
0.17841199 0.020347092 -0.13051882 -0.3309653 0.12423977 0.10489414 -0.03730183 -0.12293308
0.21428663 -0.07855321 -0.0038831844 0.06877457 -0.36077037 0.0077269836 0.7933548 -0.16417521
-0.19002034 0.10698365 -0.35014775 -0.22788125 0.021045761 -0.0814703 0.2892461 0.7145665
0.018801263 -0.23784575 -0.13209085 0.20544682 -0.21280777 -0.14383559 0.06089187 -0.10318853
0.104363106 0.23267488 0.027140168 -0.04525899 -0.049017664 0.047987368 -0.106941395 -0.067650914
0.20513421 -0.0824113 -0.044990428 0.0624699 -0.36189932 -0.16118653 0.0034509858 -0.09701065
-0.1595219 -0.05628542 0.06606833 -0.11054267 -0.2182487 0.3513736 0.12754127 -0.23394717
-0.19772673 -0.08835578 0.2698262 0.18588147 -0.038044266 0.18010686 0.032543957 -0.23873556
0.33338115 -0.45441997 0.13038488 -0.018407537 0.098587506 -0.016123557 -0.17847553 0.0348972
-0.038111165 0.015074145 0.29728675 -0.26973695 -0.13699505 -0.53553 0.08903072 -0.06456295
0.25513875 -0.09687466 -0.06924999 0.20522822 0.23514397 -0.23347577 0.14851014 -0.0057410332
00000000: 46db c9bd dc31 b6be 7290 a13c 05c8 11be
00000010: cbd0 ce3d 0d1e cdbe 172c 40be bd23 32be
00000020: ee6a e1be b6d3 acbd 68e5 87bc e7d5 95bd
00000030: d538 e7bd d0fa 913e 7dd7 e3bd 2054 0a3d
00000040: a3f7 b73d 1e55 adbd 52c8 9b3c f3e9 7bbe
00000050: 79c2 323c d096 d23d 2f10 2a3c f61a 663d
00000060: 9199 39bd 4651 75be 1b81 08be d99a 5e3d
00000070: 0295 713d 51dc 45be 2965 173e 1111 123e
00000080: 5dfb 03be 0ba9 833e 6767 41bd b577 2abe
00000090: 7783 9f3e 9f4a 783e db1d 9f3e 3e41 963e
000000a0: aa38 9fbe 0738 303c 6186 b33d fbad b8bd
000000b0: 3d90 c83d ff41 9cbe 831e 7bbc 7d62 f13d
000000c0: 2fe1 1fbd ab88 043d cfb4 02be 4dc7 8bbe
000000d0: 8ccd 7cbd bd64 643e 90d0 973e 36bb 483e
000000e0: 23d4 5dbd 25fe 713e f477 d4bc 91f2 bcbd
000000f0: 5703 6bbd e3ee c83d 32f2 f03d 460d c03e
00000100: 6cb1 353e 5601 ab3d 7142 f53d 2caa ed3d
00000110: d6c4 523e f2fe 613e d7a1 b13d 0b82 a13e
00000120: 2f11 553e ee93 713e e6ac 9e3e 3d36 f23d
00000130: 394e 46bd e48c efbd c205 6ebd af8d 993d
00000140: b7f0 21be e6f5 693c 43ea 79be 20fc 1abe
00000150: f96d 3f3b b678 f6bd 8251 673d b8a1 84be
00000160: dc6b d4be 6ad3 70bb 3046 843e 8c35 2fbd
00000170: b906 61be 48e9 9e3d ae80 94bc 8ef6 cc3c
00000180: ae12 853d d6a6 093e c9b4 b5bc 7971 c93d
00000190: 1fa1 a33e 0f56 c03d 5d40 4fbc 7a79 62be
000001a0: 6479 9cbd dfb0 30be 121d 853d 595c c43d
000001b0: 5024 cc3d 7629 89be 0160 31be 379e 513e
000001c0: 117e a1bd 1749 9e3e e874 a2bd 99f1 d1bd
000001d0: f8a0 38be b7a2 083e e8b6 4fbc ef4d 9cbe
000001e0: cb87 a13e a9b3 10bc 374e 493d 0115 093e
000001f0: 66da d83d 426d 6f3e e6fb be3d be08 a6be
00000200: a0d4 063e 32d5 40bf 5ebf edbe 6ef6 3dbd
00000210: 6d78 2b3e 2b67 75be c14a 583e 3d01 20be
00000220: 28e0 5f3e 8e64 253e 7ca1 41bd 2565 df3d
00000230: 5c9f 02bf e7e6 6c3e 5afa 4ebe 6c35 903e
00000240: c31a febd 09c3 ebbd f60f 9a3e eafd afbe
00000250: 6505 7dbd c71f 24be d4a4 8a3d e38a c6be
00000260: 68b9 88be e139 10be 79a2 553d e93b 33be
00000270: e86d f23d 9025 713e 0552 c23d 70fc 013f
00000280: bb52 08bd 50f8 9a3e 7893 fabd ee20 cc3d
00000290: 79fb e63e 58c7 9b3d 139a 243e b618 c73e
000002a0: a2b1 363e f2ae a63c baa6 05be 4974 a9be
000002b0: 6c71 fe3d bdd2 d63d cec9 18bd 57c4 fbbd
000002c0: f46d 5b3e 81e0 a0bd 067d 7ebb afd9 8c3d
000002d0: e5b6 b8be a332 fd3b 4d19 4b3f 8c1d 28be
000002e0: b194 42be 3e1a db3d 9146 b3be b459 69be
000002f0: 2968 ac3c e7d9 a6bd 1118 943e d5ed 363f
00000300: 1b05 9a3c d68d 73be d342 07be a760 523e
00000310: 48ea 59be a349 13be c169 793d 8254 d3bd
00000320: 53bc d53d 5342 6e3e 0f55 de3c 7e61 39bd
00000330: bfc6 48bd 678e 443d 1704 dbbd 908c 8abd
00000340: b40e 523e 41c7 a8bd e247 38bd 70e0 7f3d
00000350: de4a b9be 150e 25be ef29 623b 85ad c6bd
00000360: b559 23be 8a8b 66bd d54e 873d 3264 e2bd
00000370: 967c 5fbe 3ee7 b33e 2e9a 023e d98f 6fbe
00000380: e078 4abe e0f3 b4bd a926 8a3e b657 3e3e
00000390: 4ed4 1bbd ef6d 383e d04c 053d 1877 74be
000003a0: efb0 aa3e bca9 e8be 9d83 053e 67cb 96bc
000003b0: 3fe8 c93d 8d15 84bc 4ac2 36be 5ef0 0e3d
000003c0: 741a 1cbd 8cf9 763c f835 983e f61a 8abe
000003d0: 6e48 0cbe 7e18 09bf bd55 b63d 9439 84bd
000003e0: 8ca1 823e 3966 c6bd f0d2 8dbd 5927 523e
000003f0: 95c9 703e 4614 6fbe 0b13 183e 471f bcbb

hiden_layers.2.bias f4 [64]
-0.023894059 -0.07228692 0.012447208 0.018828258 -0.032870915 -0.20546421 0.13829535 0.0069319117
0.021170596 -0.13286561 -0.025223918 -0.056797627 -0.015240369 0.0066149747 0.042584006 -0.036169954
-0.029353337 -0.17075872 0.11495609 -0.040753067 -0.055431522 -0.10802751 0.03204978 0.04306707
0.043614335 -0.035178855 0.0029831291 0.031360406 -0.06935671 0.01096297 -0.042394713 -0.037978787
-0.0136771435 0.0017737354 -0.04843475 0.009665062 0.042342722 0.006876316 0.018400166 0.1137457
0.060704462 -0.04823837 0.0626573 0.0057108416 0.02552834 0.017474342 -0.08880207 -0.029373972
-0.07284443 -0.14152692 0.01397977 -0.10405096 -0.024487253 0.012130166 -0.038395554 -0.05676706
-0.029030727 -0.026774514 0.054563157 -0.104208484 -0.17084295 0.0013178458 0.035091493 0.00764841
00000000: 79bd c3bc 2a0b 94bd 60ef 4b3c b83d 9a3c
00000010: a7a3 06bd 3665 52be 4c9d 0d3e 1725 e33b
00000020: f56d ad3c ec0d 08be 64a2 cebc a1a4 68bd
00000030: beb2 79bc 6ec2 d83b 916c 2e3d f226 14bd
00000040: 6976 f0bc 60db 2ebe 196e eb3d b0ec 26bd
00000050: 2a0c 63bd 873d ddbd a146 033d 1967 303d
00000060: f2a4 323d b417 10bd 9a80 433b c573 003d
00000070: e40a 8ebd 079e 333c 14a6 2dbd a58f 1bbd
00000080: 1916 60bc af7c e83a 8463 46bd 355a 1e3c
00000090: 906f 2d3d b852 e13b f2bb 963c 81f3 e83d
000000a0: 3ea5 783d 9995 45bd 7852 803d 0322 bb3b
000000b0: cf20 d13c 5a26 8f3c dcdd b5bd afa1 f0bc
000000c0: 762f 95bd 6fec 10be 680b 653c ab18 d5bd
000000d0: 7e99 c8bc 9bbd 463c a844 1dbd 9484 68bd
000000e0: d9d1 edbc 3a56 dbbc 9e7d 5f3d 426b d5bd
000000f0: 74f1 2ebe 91bb ac3a 19bc 0f3d 839f fa3b

hiden_layers.3.weight f4 [64, 64]
-0.100808814 0.23992099 0.049568173 -0.2603711 -0.123677626 0.18561056 -0.29308066 -0.19415985
0.06607742 0.10514761 -0.0052033574 -0.2250692 0.15363927 -0.1504997 0.3859703 0.08980234
-0.14108878 -0.10921829 0.2121976 -0.3853452 0.2794 -0.45291993 0.11219144 0.294352
0.056015704 0.09449011 -0.08282547 -0.50326955 0.08949062 0.20850971 0.08756264 0.26330596
0.22950785 0.05780023 -0.12834208 0.13009273 0.015162885 0.058770772 -0.1824809 -0.16598509
0.0059972587 0.22871277 -0.23105343 -0.1489608 -0.034475785 0.25173807 0.007832533 -0.014932241
0.42563456 -0.30730084 -0.27146673 -0.41605976 0.38594028 0.19926234 0.30867296 -0.14746483
0.088781014 0.05609652 -0.059737492 0.16030926 0.073222145 0.258307 0.06765388 0.23195015
-0.35041875 0.0072439206 -0.07196238 -0.005909629 0.030906748 0.2851192 -0.23460087 0.07258005
-0.29314643 -0.26362684 0.21088147 0.10831482 -0.06381826 0.00044515412 0.23827064 0.28035605
0.1767417 -0.1798801 0.20502655 0.22530895 -0.04028886 0.0029472606 -0.113956675 0.18534128
-0.1681949 0.22407909 0.09914477 -0.16910142 0.060019784 0.5092533 -0.24724811 0.19988693
0.26052856 -0.036650438 0.26089355 -0.12300396 -0.12569354 -0.22388397 -0.35783592 0.12999246
0.025988994 -0.23115574 0.13823695 0.10822467 -0.060094442 0.10633097 0.23035339 -0.13803717
0.053344555 -0.043011505 -0.26502365 0.20129031 -0.07446806 -0.08556951 -0.018745704 0.110451005
0.28714433 0.02759127 0.15326115 0.05548717 0.23199299 0.3279335 -0.10047083 0.11774803
-0.12527655 0.26251087 -0.16841993 -0.07274497 -0.05910271 0.18750024 0.25061062 -0.27625674
0.0932193 -0.13580029 -0.0051196474 0.039239194 -0.1136218 0.049414117 0.15138121 0.02266261
0.18843427 -0.06565671 -0.15044764 -0.089942515 -0.102930464 -0.0023142768 -0.14699773 0.124931484
0.05950158 0.004195128 -0.068422355 0.26832196 0.16518788 -0.16805746 -0.15341432 -0.13269038
-0.3487133 -0.02541322 0.19241948 0.106293105 0.053836647 -0.057384986 0.081384666 0.06716408
0.23376672 -0.4092476 -0.08958967 0.03843356 0.013662345 -0.10760074 0.089257896 -0.19897571
-0.105547525 -0.25197965 0.30461055 0.19153622 -0.07704569 -0.0653748 -0.19110085 -0.3156166
-0.12084371 -0.25754187 0.19886063 0.1480866 0.15617979 -0.015731482 0.016172932 -0.0634249
0.21443675 -0.1258551 0.028578136 -0.057800762 -0.32422215 -0.01756309 0.04268153 -0.12183726
0.0031402523 -0.15975775 -0.1685998 -0.1808432 -0.13979332 -0.17372185 -0.0971675 -0.14531335
-0.05057896 0.10939433 -0.032272115 0.16928959 -0.02734147 -0.09316394 -0.028153732 -0.106575206
0.23730771 0.06930433 -0.0026832512 -0.09159154 0.12704767 -0.33571747 0.08317619 0.18749125
0.0898095 0.15050024 0.0925583 -0.19029222 -0.207979 -0.03650718 -0.23285352 -0.15758106
0.0497285 -0.10190244 -0.263166 -0.0077627995 0.111867234 -0.06347102 0.2478579 0.12984076
-0.24303253 0.19060962 -0.06525687 -0.08373165 0.2026689 0.16260926 0.15940022 0.25123897
0.13601092 0.2242472 0.2718525 -0.16352795 -0.0009071909 -0.29448983 -0.12098666 0.03820154
00000000: da74 cebd d9ad 753e ff07 4b3d 5c4f 85be
00000010: b24a fdbd b210 3e3e ab0e 96be d7d1 46be
00000020: 9953 873d a157 d73d ed80 aabb 8a78 66be
00000030: 9d53 1d3e 981c 1abe e69d c53e 4aea b73d
00000040: 9479 10be d7ad dfbd 544a 593e f74b c5be
00000050: 840d 8f3e 1fe5 e7be a0c4 e53d 4eb5 963e
00000060: b970 653d 0884 c13d 66a0 a9bd 46d6 00bf
00000070: dc46 b73d 9283 553e 0b54 b33d 0ad0 863e
00000080: 1b04 6b3e efbf 6c3d 1b6c 03be 0737 053e
00000090: c06d 783c 9fb9 703d 46dc 3abe fff7 29be
000000a0: a784 c43b ae33 6a3e 4599 6cbe 2e89 18be
000000b0: 7b36 0dbd d0e3 803e 0654 003c 5ca6 74bc
000000c0: c6ec d93e 8956 9dbe b0fd 8abe c905 d5be
000000d0: f799 c53e 6d0b 4c3e 620a 9e3e 0501 17be
000000e0: d2d2 b53d 77c5 653d 4daf 74bd 1c28 243e
000000f0: 7ef5 953d d140 843e 1e8e 8a3d 5784 6d3e
00000100: 166a b3be 695e ed3b 0361 93bd 90a5 c1bb
00000110: 2630 fd3c 25fb 913e 363b 70be d9a4 943d
00000120: 4a17 96be 19fa 86be 50f1 573e 29d4 dd3d
00000130: 26b3 82bd 9363 e939 38fd 733e d48a 8f3e
00000140: c7fb 343e 7d32 38be 7bf2 513e 64b7 663e
00000150: ef05 25bd d426 413b 1e62 e9bd 1bca 3d3e
00000160: 493b 2cbe fd74 653e 6a0c cb3d ec28 2dbe
00000170: 4ed7 753d 6d5e 023f 9c2e 7dbe 29af 4c3e
00000180: 0064 853e c51e 16bd d793 853e 80e9 fbbd
00000190: cfb5 00be d741 65be 4536 b7be be1c 053e
000001a0: dfe6 d43c 17b4 6cbe fd8d 0d3e e5a4 dd3d
000001b0: 9725 76bd 0dc4 d93d c2e1 6b3e 9e59 0dbe
000001c0: d27f 5a3d d52c 30bd 2eb1 87be 0c1f 4e3e
000001d0: b682 98bd 113f afbd 9790 99bc 2334 e23d
000001e0: 9504 933e 1607 e23c 7ef0 1c3e 8446 633d
000001f0: 928f 6d3e e6e6 a73e a7c3 cdbd e125 f13d
00000200: 7f48 00be d367 863e 4676 2cbe 51fb 94bd
00000210: af15 72bd 1000 403e 0950 803e 8671 8dbe
00000220: c3e9 be3d 3b0f 0bbe b7c2 a7bb 47b9 203d
00000230: 8cb2 e8bd 7566 4a3d ad03 1b3e f0a6 b93c
00000240: eaf4 403e 0677 86bd f20e 1abe c833 b8bd
00000250: 35cd d2bd 1fab 17bb 9386 16be 14dc ff3d
00000260: eeb7 733d 4977 893b 0521 8cbd 7f61 893e
00000270: 0327 293e 4117 2cbe a518 1dbe fddf 07be
00000280: 8d8a b2be 632f d0bc 9d09 453e 33b0 d93d
00000290: d183 5c3d 850c 6bbd 01ad a63d 528d 893d
000002a0: 8b60 6f3e e788 d1be ca7a b7bd 826c 1d3d
000002b0: 07d8 5f3c c75d dcbd d8cc b63d 4ac0 4bbe
000002c0: 4d29 d8bd 7a03 81be eaf5 9b3e 1222 443e
000002d0: 21ca 9dbd 39e3 85bd f1af 43be 8098 a1be
000002e0: e87c f7bd 87dc 83be 1fa2 4b3e 03a4 173e
000002f0: 98ed 1f3e 4fdf 80bc 197d 843c eae4 81bd
00000300: 4f95 5b3e 29e0 00be b21c ea3c 7ec0 6cbd
00000310: 7200 a6be 78e0 8fbc d4d2 2e3d d085 f9bd
00000320: b1cc 4d3b 8997 23be 6da5 2cbe f62e 39be
00000330: fb25 0fbe 24e4 31be c1ff c6bd 06cd 14be
00000340: e22b 4fbd 220a e03d c42f 04bd 405a 2d3e
00000350: 38fb dfbc bccc bebd a8a2 e6bc 1a44 dabd
00000360: cb00 733e 6eef 8d3d 7cd9 2fbb 5894 bbbd
00000370: c918 023e 29e3 abbe 4758 aa3d b5fd 3f3e
00000380: 0bee b73d bc1c 1a3e 358f bd3d f7db 42be
00000390: 72f8 54be 8e88 15bd 2771 6ebe ee5c 21be
000003a0: 1db0 4b3d 3ab2 d0bd b2bd 86be 155f febb
000003b0: a61a e53d 18fd 81bd 76ce 7d3e faf4 043e
000003c0: 85dd 78be 2b2f 433e 65a5 85bd 807b abbd
000003d0: 7088 4f3e 0b83 263e d039 233e 65a2 803e
000003e0: 7246 0b3e 0fa1 653e 4030 8b3e df73 27be
000003f0: 8dd0 6dba 5fc7 96be dbc7 f7bd 3879 1c3d

hiden_layers.3.bias f4 [64]
-0.057026528 -0.0071000564 0.080856144 -0.026604332 -0.013164045 -0.066101655 0.11305659 0.010895106
0.28990394 -0.08640952 0.09728387 -0.085814565 -0.04836385 -0.15028617 0.14143072 0.019973697
0.074538045 -0.075955406 0.16745785 -0.0039768764 -0.0136158075 -0.0073261736 0.080966175 0.03810488
0.064624764 -0.0067622964 -0.0036381753 -0.098534554 0.086499326 -0.14485176 0.024123533 0.016385723
0.16729282 0.11372895 0.045395445 -0.05998171 0.013984186 0.002930751 0.0702898 0.027823271
-0.1412138 -0.1176606 9.001755e-05 0.05873504 -0.048162904 -0.0036645397 0.11056026 0.026938524
-0.07090907 -0.031877093 -0.09750395 -0.07057759 0.033518348 -0.0019459716 0.005572004 0.12066729
0.09804249 0.023479963 -0.044543505 0.025398072 -0.255214 0.039843954 -0.0050793006 0.014421031
00000000: a694 69bd 97a7 e8bb e897 a53d 54f1 d9bc
00000010: 02ae 57bc 4e60 87bd 378a e73d 6381 323c
00000020: 4a6e 943e 79f7 b0bd c43c c73d 8cbf afbd
00000030: 2c19 46bd 9ee4 19be 37d3 103e e19f a33c
00000040: 67a7 983d 828e 9bbd 127a 2b3e 7550 82bb
00000050: d614 5fbc 6610 f0bb 98d1 a53d dd13 1c3d
00000060: fd59 843d 4196 ddbb 746e 6ebb 7ccc c9bd
00000070: 8f26 b13d 0554 14be b79e c53c 5a3b 863c
00000080: cf4e 2b3e b9ea e83d 93f0 393d 62af 75bd
00000090: ed1d 653c d811 403b 19f4 8f3d a1ed e33c
000000a0: 5a9a 10be 0af8 f0bd cec7 bc38 2794 703d
000000b0: 7746 45bd c628 70bb 6b6d e23d 2eae dc3c
000000c0: c638 91bd 8e91 02bd 27b0 c7bd fc8a 90bd
000000d0: 894a 093d f90f ffba 5b95 b63b 6a20 f73d
000000e0: 80ca c83d 0d59 c03c 4073 36bd 9e0f d03c
000000f0: 69ab 82be 6a33 233d 4370 a6bb 3046 6c3c

hiden_layers.4.weight f4 [64, 64]
-0.2530657 0.18557973 0.06287195 -0.3587369 -0.03332438 -0.013972106 -0.05133652 0.10995801
-0.069603354 -0.08950989 0.042633165 0.06381228 -0.040042628 -9.7278855e-05 -0.09495819 -0.18293028
0.083049156 -0.1255046 0.06159493 0.22767483 -0.25467464 0.054636277 -0.15636358 -0.24360782
-0.022001633 -0.17835638 0.18031558 0.20180808 -0.2262307 -0.11627487 0.015328404 0.025267161
0.2506955 0.010095476 0.26334277 0.039792344 -0.004556623 -0.10523591 -0.029677551 -0.060336195
-0.14092992 0.17785096 0.096274704 0.120190784 0.13670881 0.12373975 0.121950835 -0.13211915
-0.1281283 -0.12248026 0.12725772 -0.01697967 -0.22467235 0.27154887 0.109875344 -0.27229106
0.04948205 -0.004893409 -0.31164065 -0.03344264 0.15509675 -0.33164883 0.0090137115 0.0392231
-0.02766194 -0.2854773 -0.16453356 0.23836064 0.15368938 -0.019917319 -0.26275674 -0.09523991
-0.108609065 -0.01181231 -0.15800145 0.24032763 0.2794358 0.35832396 -0.30817607 0.2750987
-0.1842807 -0.056755234 0.20838486 0.057420842 0.20546556 0.15951236 0.11690082 0.3549624
-0.1350929 -0.065564595 -0.100125685 0.1330777 0.079294756 0.11852149 -0.098791026 -0.067645825
0.07945974 0.08599619 0.08287443 -0.061834615 -0.28634343 0.031663977 0.10466205 0.03408498
0.1088916 -0.2550878 0.08881708 0.09609831 0.01720206 0.14842471 -0.01496888 -0.11049325
-0.02667084 0.099069044 -0.23889177 -0.052660447 0.20968325 -0.1777016 0.15578073 0.07217234
0.025367314 -0.36057884 0.2740725 0.009888236 0.25241145 -0.0018960055 0.08605883 0.18684128
-0.21189305 -0.14767933 -0.062440887 -0.17281197 -0.03980783 -0.07903569 -0.1472937 0.20090273
-0.08142494 -0.19117145 -0.07764039 -0.21327133 0.0045746583 0.2559642 0.17140694 -0.12277985
0.10051017 0.037548855 -0.091083504 0.18240933 0.072226845 -0.099530235 -0.060108937 -0.15857136
-0.30031046 -0.24175963 0.18482815 0.4213801 -0.15006454 0.26794833 -0.0905301 0.14765514
-0.12267397 -0.12121786 -0.21933663 0.15615861 -0.1544125 0.0055780387 -0.17663006 0.19710869
-0.056713264 0.1943794 -0.026588527 0.060462307 -0.094983146 0.103835255 0.047915254 0.1717434
0.09260793 0.16756795 0.22190285 -0.25080928 -0.15044406 0.14722586 -0.08008741 -0.017169988
-0.28193474 0.028187066 0.17398438 0.2648523 -0.027508963 -3.7695984e-06 0.15582022 0.23616713
0.049232613 -0.1525017 -0.29984516 0.14226294 0.19946043 0.022318745 0.12067628 -0.37550068
0.11565638 -0.056212615 0.36857846 0.06769901 -0.10049783 -0.017728765 0.15528244 0.14037956
0.0006506878 0.14077985 -0.052064724 -0.29379687 -0.07336336 0.10497604 0.05444259 0.32651937
0.16979975 0.012221758 0.023666844 -0.12876861 -0.09223182 0.08684132 -0.07554169 -0.28363276
0.031543117 0.08552973 -0.0060372353 -0.22591624 0.18983404 -0.048180938 -0.10551402 0.120368555
-0.025246741 -0.10423391 -0.11821164 0.45004058 0.12212619 -0.06698859 -0.030931193 -0.3145672
-0.13317046 0.056771472 -0.052730773 0.28679773 0.062953606 0.08444638 -0.033922374 0.2517312
-0.24415399 -0.026140906 0.16239789 0.058258474 0.062151764 0.0829986 0.08426124 0.13438445
00000000: d491 81be 9d08 3e3e 02c3 803d 5dac b7be
00000010: 257f 08bd 43eb 64bc 3e46 52bd aa31 e13d
00000020: 348c 8ebd f650 b7bd 1da0 2e3d 03b0 823d
00000030: bd03 24bd 3002 ccb8 7179 c2bd 1352 3bbe
00000040: ad15 aa3d 4784 00be f74a 7c3d 9723 693e
00000050: b764 82be 4aca 5f3d c61d 20be 5474 79be
00000060: c53c b4bc 0ea3 36be a6a4 383e c7a6 4e3e
00000070: 05a9 67be 8521 eebd fc23 7b3c 14fd ce3c
00000080: 295b 803e 7f67 253c ddd4 863e 4cfd 223d
00000090: b94f 95bb ed85 d7bd 561e f3bc 1623 77bd
000000a0: ef4f 10be 901e 363e ac2b c53d 9626 f63d
000000b0: 65fd 0b3e 446b fd3d 5cc1 f93d 3e4a 07be
000000c0: 1134 03be eed6 fabd d94f 023e f318 8bbc
000000d0: 8210 66be 7408 8b3e 5306 e13d bc69 8bbe
000000e0: b1ad 4a3d e458 a0bb 5d8f 9fbe 26fb 08bd
000000f0: afd1 1e3e e0cd a9be 3fae 133c 67a8 203d
00000100: 4b9b e2bc 152a 92be 7c7b 28be d014 743e
00000110: c060 1d3e a529 a3bc 0d88 86be 240d c3bd
00000120: 6e6e debd 6b88 41bc 22cb 21be 7218 763e
00000130: 3612 8f3e 3d76 b73e 41c9 9dbe bdd9 8c3e
00000140: 14b4 3cbe 2d78 68bd d762 553e 1e32 6b3d
00000150: 9065 523e 3557 233e b269 ef3d a2bd b53e
00000160: cb55 0abe bb46 86bd b20e cdbd 8545 083e
00000170: 4a65 a23d 65bb f23d f352 cabd e589 8abd
00000180: cabb a23d c51e b03d 12ba a93d 4b46 7dbd
00000190: 9b9b 92be 16b2 013d 0f59 d63d b19c 0b3d
000001a0: 8f02 df3d de9a 82be bbe5 b53d 31cf c43d
000001b0: 56eb 8c3c a6fc 173e 0940 75bc 494a e2bd
000001c0: ce7c dabc b6e4 ca3d 0ba0 74be 7bb2 57bd
000001d0: 35b7 563e 69f7 35be fc84 1f3e 17cf 933d
000001e0: 1dcf cf3c ca9d b8be 3b53 8c3e 4502 223c
000001f0: 133c 813e 6383 f8ba 9d3f b03d 5253 3f3e
00000200: 7efa 58be 4039 17be 04c2 7fbd 9ff5 30be
00000210: 890d 23bd 77dd a1bd 29d4 16be 72b9 4d3e
00000220: 1ec2 a6bd 73c2 43be ed01 9fbd cd63 5abe
00000230: 04e7 953b bd0d 833e 4d85 2f3e 0174 fbbd
00000240: 47d8 cd3d d4cc 193d fd89 babd 83c9 3a3e
00000250: abeb 933d 82d6 cbbd ca34 76bd 8860 22be
00000260: 4bc2 99be d68f 77be 9743 3d3e 22bf d73e
00000270: 85aa 19be 8630 893e d867 b9bd e932 173e
00000280: 7e3c fbbd 1241 f8bd c899 60be 0be8 1f3e
00000290: 4f1e 1ebe fbc7 b63b 83de 34be dcd6 493e
000002a0: 2b4c 68bd 650b 473e 2fd0 d9bc 53a7 773d
000002b0: 8686 c2bd 94a7 d43d c942 443d 80dd 2f3e
000002c0: 3aa9 bd3d ef96 2b3e 803a 633e 136a 80be
000002d0: 020e 1abe 60c2 163e de04 a4bd 13a8 8cbc
000002e0: c059 90be 90e8 e63c f628 323e b89a 873e
000002f0: 7a5a e1bc 35f9 7cb6 568f 1f3e ccd5 713e
00000300: 23a8 493d 6829 1cbe 4e85 99be 60ad 113e
00000310: 5b3f 4c3e cdd5 b63c 2025 f73d a041 c0be
00000320: 41dd ec3d 333f 66bd 51b6 bc3e c7a5 8a3d
00000330: ced1 cdbd ea3b 91bc 5c02 1f3e a9bf 0f3e
00000340: eb92 2a3a 9828 103e d241 55bd 8b6c 96be
00000350: 873f 96bd aefd d63d 31ff 5e3d 8c2d a73e
00000360: fcdf 2d3e c53d 483c f8e0 c13c ebdb 03be
00000370: 09e4 bcbd ddd9 b13d 9ab5 9abd 5038 91be
00000380: 5b33 013d 362a af3d 00d4 c5bb 9656 67be
00000390: db63 423e 6059 45bd bc17 d8bd ca83 f63d
000003a0: 41d2 cebc 9778 d5bd f218 f2bd b86b e63e
000003b0: 4c1d fa3d 5031 89bd 6a63 fdbc f40e a1be
000003c0: d65d 08be 3489 683d 39fc 57bd 27d7 923e
000003d0: d2ed 803d 39f2 ac3d 30f2 0abd e9e2 803e
000003e0: 8103 7abe 7425 d6bc a24b 263e 70a0 6e3d
000003f0: d992 7e3d 2cfb a93d 2891 ac3d 149c 093e

hiden_layers.4.bias f4 [64]
-0.043774884 0.018853199 -0.068060525 -0.12211912 -0.028748631 -0.1682306 0.04530599 0.015983654
0.07039687 0.024771066 -0.0514284 0.015921323 0.049569156 0.025662534 -0.04068751 -0.0118969325
-0.0013209108 -0.008231458 -0.113891326 0.03036508 0.18193837 0.010116606 -0.046926092 0.10913767
0.04333364 -0.038271215 -0.08857009 0.076993965 -0.07165978 -0.09708701 -0.08062326 -0.021942066
-0.011998038 -0.04080385 -0.014859964 0.05999444 -0.08775536 -0.016004551 0.011570408 -0.13202064
0.115866765 0.0024149457 -0.041351505 -0.051195126 -0.29210728 0.023645334 0.18561709 0.06126674
0.038582288 0.019353937 -0.030625876 0.15846658 -0.05932765 0.0842573 0.06941485 -0.1128189
0.07013641 -0.114215545 -0.15410878 -0.022343285 0.07648525 -0.14510143 -0.13266765 -0.12728538
00000000: 4b4d 33bd 0672 9a3c 5163 8bbd 9719 fabd
00000010: 4082 ebbc a444 2cbe c692 393d 27f0 823c
00000020: 3c2c 903d b1ec ca3c 96a6 52bd 6f6d 823c
00000030: 0709 4b3d 3c3a d23c f2a7 26bd 5aeb 42bc
00000040: 6922 adba 3ddd 06bc db3f e9bd 30c0 f83c
00000050: 0d4e 3a3e 1fc0 253c 9335 40bd 9283 df3d
00000060: 9d7e 313d 47c2 1cbd 3c64 b5bd 03af 9d3d
00000070: 5dc2 92bd 8ed5 c6bd cf1d a5bd d9bf b3bc
00000080: 6b93 44bc f021 27bd 3577 73bc bbbc 753d
00000090: 15b9 b3bd fa1b 83bc cf91 3d3c 6b30 07be
000000a0: 8e4b ed3d 1144 1e3b 3260 29bd fbb1 51bd
000000b0: 168f 95be dcb3 c13c 6812 3e3e d5f2 7a3d
000000c0: 7608 1e3d 268c 9e3c 1ee3 fabc 1045 223e
000000d0: 8d01 73bd 178f ac3d 5f29 8e3d 980d e7bd
000000e0: aea3 8f3d d7e9 e9bd b1ce 1dbe 4409 b7bc
000000f0: 4ca4 9c3d 7895 14be 07da 07be 1957 02be
