results/2_model_1_case_2/epoch600/model_weights.pth (torch, 484214 bytes, 88 tensors)

init_layer.0.weight f4 [64, 3]
-0.39076906 -0.11282254 0.27038127 0.30239272 -0.09116221 0.023634257 -0.120036885 -0.21362334
-0.19416735 0.4671873 0.06518648 0.1082154 -0.12861319 0.1824368 0.3209949 -0.08862732
-0.20417872 0.2634576 0.30448875 -0.030841775 0.3181804 0.55454105 0.2066804 0.33623534
0.2550089 -0.40317473 0.101467595 -0.13467142 -0.08078233 0.31484923 -0.39271072 0.055177364
0.09485406 0.08898001 0.070461884 -0.29554155 -0.117592946 -0.08892772 -0.09002727 -0.08528087
0.018778633 0.43362966 0.14067468 -0.49865708 -0.024730096 0.18076484 -0.27980953 -0.2659688
0.09609152 -0.023968574 0.30596733 0.22737661 0.2737234 -0.22238524 0.100788474 -0.029703023
-0.2526775 -0.2339547 0.17384246 -0.1468685 0.12680338 -0.11695984 -0.15413797 0.13908225
-0.048454512 -0.092906326 0.012876086 -0.048903007 -0.2754615 -0.10790035 0.17789878 -0.0586376
-0.084413745 -0.020318126 0.32740828 -0.013476871 0.141601 -0.18766546 -0.053823374 0.19672905
0.37173364 -0.12329251 -0.15750751 0.16216189 0.115750566 0.09988483 -0.30440962 0.064282715
-0.36702436 0.13538772 -0.3040411 -0.43298078 -0.08249725 -0.12357784 0.025821116 0.34315768
-0.11571436 0.16448304 0.29446667 -0.2744442 0.23324972 -0.12934595 0.054802734 -0.036910072
-0.19855346 -0.017227523 -0.10101264 -0.22738844 0.092631824 0.013395238 -0.3715329 -0.19750276
-0.1461124 -0.15644015 0.28757706 -0.12872432 0.2896877 -0.58094394 0.28109738 0.25590137
0.081907116 -0.05390662 -0.43930104 0.08125059 0.009807585 -0.3381494 0.0021257226 -0.104416296
0.3484945 -0.07733219 -0.033512454 0.2611189 0.13267225 -0.16304012 -0.22626892 -0.17424901
-0.20454101 0.23476419 0.02039795 -0.20113868 0.09706758 0.104767956 0.26369447 0.04582428
0.41898033 0.47643277 0.040111303 0.12337707 -0.19154987 0.28467005 0.09262381 -0.1955165
-0.15736502 -0.5205582 -0.04289161 -0.13589601 0.3529785 -0.40249154 0.11942773 -0.1228883
-0.24088852 0.06363051 0.1035266 -0.12654285 -0.296026 0.47327125 -0.24755532 0.299478
0.19016515 -0.0065785404 0.3444342 0.08720091 -0.1587441 0.056005497 0.27496237 0.20457275
0.10669948 0.10647692 0.091002405 -0.26797512 -0.43030265 -0.3480845 -0.16009633 -0.06596857
-0.11211514 -0.07549229 0.47805336 -0.108345024 0.029005177 0.43661463 0.026653383 0.23132968
00000000: e212 c8be 810f e7bd 6a6f 8a3e 38d3 9a3e
00000010: 41b3 babd a19c c13c e6d5 f5bd 14c0 5abe
00000020: ced3 46be 2c33 ef3e 7d80 853d 09a0 dd3d
00000030: 2db3 03be b6d0 3a3e 7259 a43e 3e82 b5bd
00000040: 3a14 51be eae3 863e f3e5 9b3e e4a7 fcbc
00000050: 8be8 a23e 67f6 0d3f 07a4 533e 0a27 ac3e
00000060: 8790 823e eb6c cebe 3ece cf3d 4ee7 09be
00000070: 3571 a5bd eb33 a13e 6111 c9be a901 623d
00000080: d842 c23d 273b b63d 524e 903d 3951 97be
00000090: 92d4 f0bd bd1f b6bd 3860 b8bd bda7 aebd
000000a0: a6d5 993c b504 de3e 060d 103e fb4f ffbe
000000b0: c596 cabc 6b1a 393e 3243 8fbe 102d 88be
000000c0: a1cb c43d be59 c4bc c0a7 9c3e 6ad5 683e
000000d0: 7925 8c3e f5b8 63be 306a ce3d c153 f3bc
000000e0: f25e 81be d291 6fbe c203 323e b264 16be
000000f0: bfd8 013e a488 efbd 58d6 1dbe 946b 0e3e
00000100: 3d78 46bd ac45 bebd 38f6 523c 854e 48bd
00000110: 4a09 8dbe dcfa dcbd 192b 363e fb2d 70bd
00000120: 1de1 acbd 3372 a6bc 0fa2 a73e 18ce 5cbc
00000130: daff 103e 602b 40be e675 5cbd 5773 493e
00000140: df53 be3e c980 fcbd a649 21be c40d 263e
00000150: a20e ed3d 6b90 cc3d 94db 9bbe a8a6 833d
00000160: 9eea bbbe 14a3 0a3e 46ab 9bbe a8af ddbe
00000170: 51f4 a8bd 6116 fdbd ce86 d33c 5db2 af3e
00000180: a6fb ecbd 3e6e 283e 56c4 963e f383 8cbe
00000190: 04d9 6e3e 4473 04be d578 603d 042f 17bd
000001a0: 9951 4bbe bc20 8dbc b7df cebd 84d8 68be
000001b0: c1b5 bd3d b377 5b3c 8f39 bebe 2a3e 4abe
000001c0: 7d9e 15be d931 20be 4d3d 933e 4fd0 03be
000001d0: f251 943e beb8 14bf ffeb 8f3e 8105 833e
000001e0: ebbe a73d 30cd 5cbd 11ec e0be b666 a63d
000001f0: feaf 203c eb21 adbe b54f 0b3b 36d8 d5bd
00000200: df6d b23e 5760 9ebd 5b44 09bd 60b1 853e
00000210: 3cdb 073e fdf3 26be 0ab3 67be 556e 32be
00000220: 3373 51be 0666 703e 9a19 a73c 4cf7 4dbe
00000230: 5ecb c63d 9590 d63d f602 873e 3db2 3b3d
00000240: 9784 d63e ffee f33e c04b 243d 1ead fc3d
00000250: a625 44be 46c0 913e 8db1 bd3d 7a35 48be
00000260: 4c24 21be 4d43 05bf 1daf 2fbd 5328 0bbe
00000270: 99b9 b43e 5f13 cebe 8796 f43d dcac fbbd
00000280: 7bab 76be b650 823d c105 d43d 7394 01be
00000290: b890 97be 9c50 f23e 247f 7dbe 2e55 993e
000002a0: a7ba 423e cc90 d7bb ae59 b03e 6496 b23d
000002b0: d08d 22be 0566 653d dec7 8c3e 857b 513e
000002c0: 4285 da3d 9210 da3d 785f ba3d 0934 89be
000002d0: a150 dcbe 2238 b2be 4bf0 23be 881a 87bd
000002e0: 9f9c e5bd b49b 9abd 69c3 f43e ffe3 ddbd
000002f0: 449c ed3c f48b df3e 3258 da3c b0e1 6c3e

init_layer.0.bias f4 [64]
0.3068285 0.0066425405 0.0353787 -0.29671687 0.038445916 0.0015157565 0.09937837 0.19431199
-0.18421207 -0.20306657 0.349291 0.19863372 0.21266983 0.4381371 -0.012607489 0.2134181
0.22454953 0.104179524 0.12714055 0.06202501 0.17094518 0.046707593 0.26859638 0.098096885
0.16943899 -0.11483215 0.06538298 -0.08225318 -0.35636544 0.18624103 0.02578861 -0.12511419
-0.16104865 0.19964974 0.21535613 0.28404012 -0.2839537 -0.06592145 -0.27509397 -0.052393373
-0.36538115 -0.047057964 -0.28738043 -0.1714235 0.15099931 0.010664575 -0.1927365 -0.07796888
-0.04687324 0.19819814 -0.13053206 -0.1598068 -0.0467986 -0.16006812 0.051601924 0.15989591
0.23145145 -0.118465535 0.040246062 -0.21222572 0.042359047 -0.040147714 0.13544632 0.03884166
00000000: a018 9d3e aba9 d93b 41e9 103d 46eb 97be
00000010: 7779 1d3d 59ac c63a e386 cb3d b9f9 463e
00000020: 17a2 3cbe aff0 4fbe 45d6 b23e a366 4b3e
00000030: 1fc6 593e 8253 e03e a48f 4ebc 468a 5a3e
00000040: 50f0 653e 135c d53d 2231 023e f00d 7e3d
00000050: 410c 2f3e 7650 3f3d 7785 893e 05e7 c83d
00000060: 6a81 2d3e 1e2d ebbd 83e7 853d 5b74 a8bd
00000070: 8875 b6be f8b5 3e3e a342 d33c ef1d 00be
00000080: f0e9 24be fb70 4c3e 5186 5c3e b56d 913e
00000090: 6162 91be d301 87bd 1ed9 8cbe 6f9a 56bd
000000a0: 3d13 bbbe dabf 40bd 8723 93be a489 2fbe
000000b0: 909f 1a3e 78ba 2e3c b85c 45be 26ae 9fbd
000000c0: 28fe 3fbd 74f4 4a3e 32aa 05be 65a4 23be
000000d0: e4af 3fbd e6e8 23be 8a5c 533d c1bb 233e
000000e0: 9c01 6d3e 0f9e f2bd 0ed9 243d b351 59be
000000f0: ae80 2d3d ee71 24bd 71b2 0a3e 6f18 1f3d

hiden_layers.0.weight f4 [64, 64]
-0.2967663 0.0026314715 0.19790252 0.15089622 -0.28638747 -0.053446066 0.025018482 -0.29296452
0.11700292 -0.07499141 -0.06806798 0.2078647 0.08290919 0.031833008 0.09831318 -0.14874075
-0.073613115 -0.07774227 0.038972195 -0.160375 -0.035086766 0.10211354 0.021092553 -0.30700973
0.018125048 0.019687884 -0.17455834 -0.17718026 -0.008027238 -0.16659614 -0.16206603 -0.1143113
-0.1585655 -0.12915695 0.22471291 0.03313555 0.122590095 0.08610851 0.28318155 0.026619986
0.24670821 0.010674787 0.16452499 -0.13090503 0.024067154 -0.08571185 0.075121045 -0.19113079
0.2853958 -0.12694322 0.007774411 0.15413545 0.13534433 0.035017096 0.26733604 0.10773658
-0.23691103 -0.0733343 -0.18759093 0.22899477 0.0810685 -0.0228702 -0.11104009 -0.23874931
0.025289338 -0.23754467 -0.16339192 0.02979997 -0.25394398 -0.22258206 0.14764677 -0.2384313
-0.06314535 -0.5460857 0.35750043 0.25905252 0.10580466 0.02556574 0.07228292 0.28821403
0.015204642 0.29523137 0.2965332 0.078259066 0.14818232 -0.1380644 0.41493848 0.2488144
-0.13409661 -0.008829644 0.19787614 -0.054288324 0.13996199 0.104081735 -0.10590412 -0.44074765
-0.19919045 0.189226 0.56646377 0.38247865 0.23675567 -0.031169068 -0.26815328 0.2037539
-0.057117056 0.09657507 -0.54898894 -0.46257144 0.26684928 -0.26879656 -0.05723853 -0.2561674
-0.049576737 -0.090428956 -0.081218444 -0.033535004 0.024361022 -0.26578417 0.28599504 0.09804954
-0.1908775 -0.27064335 -0.17644255 -0.09238391 0.23456341 0.19725186 0.13169932 -0.15429786
0.18337494 -0.12865382 0.16076146 -0.07091177 -0.15815617 0.08547225 -0.038796727 -0.23085487
0.11622245 0.010574215 0.04074402 0.07864192 0.1351901 -0.15506588 0.26918846 -0.11534103
-0.07969009 -0.29222232 0.014662055 -0.067653686 -0.025918439 -0.21951744 -0.16837472 -0.044282395
0.06572051 -0.20744516 0.005266032 0.3179523 -0.09375213 -0.09716341 0.2782594 0.25652826
-0.15581651 -0.15069059 0.16084032 0.19426715 -0.13217998 -0.099682905 -0.028687662 0.0042389007
-0.24123664 -0.10424094 0.21635911 0.268068 0.1744562 0.14854039 0.033269357 -0.035957858
-0.11581822 0.11741147 -0.1286927 0.014872942 0.12775011 0.048978165 -0.16342266 0.0323879
-0.21521391 0.17367601 -0.23940758 -0.21947317 0.2382766 -0.19995864 -0.12812032 0.13951974
0.15198047 -0.08281574 0.009862421 -0.076434486 0.102264166 0.019391272 0.046943065 -0.13621303
-0.23162444 -0.2539058 0.08098102 0.12923881 -0.13419235 -0.1869142 0.04580642 -0.055492114
-0.04974276 0.25803697 0.25953874 -0.11472446 0.30765963 0.0011640433 -0.15491243 -0.12472761
0.11017529 0.06343419 -0.030106008 -0.18975146 -0.026667805 -0.12018605 -0.12825815 -0.028390987
-0.16890721 0.11123832 -0.088003695 0.025222909 0.06131983 -0.29971042 0.035327073 -0.033077564
-0.10589187 0.033515535 0.04943651 0.10612251 0.09270188 -0.029692572 -0.004917961 0.094790824
0.03936952 -0.09483556 0.18019193 -0.10636737 -0.20117946 -0.0046370206 0.23677678 0.107449286
-0.1357137 -0.121291354 -0.037308514 0.23925301 -0.06843456 -0.19095679 0.0010668724 -0.034104645
00000000: c1f1 97be c474 2c3b f5a6 4a3e 8a84 1a3e
00000010: 61a1 92be 43ea 5abd 8ff3 cc3c 72ff 95be
00000020: 3a9f ef3d 1995 99bd 3a67 8bbd 7cda 543e
00000030: 4bcc a93d 5463 023d 6c58 c93d 7f4f 18be
00000040: 79c2 96bd 5737 9fbd 4fa1 1f3d 5839 24be
00000050: 24b7 0fbd e720 d13d 4aca ac3c 6130 9dbe
00000060: fb7a 943c 7c48 a13c 6cbf 32be be6e 35be
00000070: ad84 03bc 2e98 2abe a3f4 25be 0b1c eabd
00000080: ff5e 22be b841 04be 241b 663e 24b9 073d
00000090: 8410 fb3d a959 b03d 2cfd 903e 2812 da3c
000000a0: 14a1 7c3e 4de5 2e3c 3d79 283e f80b 06be
000000b0: 7b28 c53c b289 afbd 10d9 993d cab7 43be
000000c0: 661f 923e 67fd 01be 7cc0 fe3b afd5 1d3e
000000d0: b497 0a3e 166e 0f3d 45e0 883e ffa4 dc3d
000000e0: ce98 72be 4b30 96bd d617 40be 9b7d 6a3e
000000f0: 3e07 a63d 495a bbbc fd68 e3bd b37a 74be
00000100: 962b cf3c e93e 73be 3650 27be 111f f43c
00000110: f204 82be 8dec 63be b730 173e 5627 74be
00000120: 5952 81bd 46cc 0bbf 4c0a b73e 88a2 843e
00000130: 1db0 d83d 3e6f d13c 1109 943d ca90 933e
00000140: e41c 793c 9128 973e 33d3 973e 4a46 a03d
00000150: 1bbd 173e c160 0dbe d172 d43e 34c9 7e3e
00000160: 9f50 09be 36aa 10bc 0ba0 4a3e 6f5d 5ebd
00000170: 3252 0f3e ce28 d53d 42e4 d8bd ada9 e1be
00000180: 95f8 4bbe 76c4 413e c503 113f 3ed4 c33e
00000190: 1470 723e 4656 ffbc 634b 89be dda4 503e
000001a0: 93f3 69bd 26c9 c53d 8a8a 0cbf 2ad6 ecbe
000001b0: 78a0 883e b49f 89be f372 6abd 6028 83be
000001c0: fa10 4bbd d132 b9bd db55 a6bd 005c 09bd
000001d0: c490 c73c dd14 88be f16d 923e 32ce c83d
000001e0: 6475 43be c491 8abe 5bad 34be c733 bdbd
000001f0: 6431 703e 64fc 493e 30dc 063e 4200 1ebe
00000200: a4c6 3b3e d4bd 03be a79e 243e 313a 91bd
00000210: b1f3 21be 130c af3d 51e9 1ebd 3865 6cbe
00000220: 0906 ee3d 793f 2d3c 34e3 263d 040f a13d
00000230: 466f 0a3e 97c9 1ebe 12d3 893e eb37 ecbd
00000240: 8f34 a3bd 2a9e 95be 1e39 703c 048e 8abd
00000250: e852 d4bc 2ec9 60be 6c6a 2cbe 7561 35bd
00000260: 7a98 863d 816c 54be ae8e ac3b a5ca a23e
00000270: 1e01 c0bd 9cfd c6bd 0478 8e3e ac57 833e
00000280: 5d8e 1fbe a24e 1abe 53b3 243e f8ed 463e
00000290: 305a 07be 8d26 ccbd 6302 ebbc 7ae6 8a3b
000002a0: bd06 77be 467c d5bd 3e8d 5d3e 3540 893e
000002b0: a5a4 323e f91a 183e 7345 083d 8c48 13bd
000002c0: 1a32 edbd 6d75 f03d 05c8 03be a4ad 733c
000002d0: edd0 023e 549d 483d 4558 27be 2da9 043d
000002e0: 0961 5cbe 20d8 313e 4327 75be 93bd 60be
000002f0: c8fe 733e f5c1 4cbe f931 03be 43de 0e3e
00000300: c5a0 1b3e 4c9b a9bd fe95 213c af89 9cbd
00000310: e06f d13d 72da 9e3c 5f47 403d 6e7b 0bbe
00000320: f52e 6dbe f1ff 81be 61d9 a53d 2e57 043e
00000330: b869 09be 7066 3fbe 839f 3b3d b34b 63bd
00000340: 10bf 4bbd 6c1d 843e 43e2 843e a8f4 eabd
00000350: 9085 9d3e d092 983a 5da1 1ebe 3071 ffbd
00000360: 95a3 e13d c9e9 813d e0a0 f6bc 354e 42be
00000370: 7176 dabc 1b24 f6bd 1b56 03be 3794 e8bc
00000380: 03f6 2cbe ebd0 e33d 483b b4bd 46a0 ce3c
00000390: 812a 7b3d a573 99be 1fb3 103d 577c 07bd
000003a0: d6dd d8bd 9647 093d f07d 4a3d c256 d93d
000003b0: 7cda bd3d d63d f3bc d926 a1bb b121 c23d
000003c0: ef41 213d 2539 c2bd 3c84 383e 23d7 d9bd
000003d0: fd01 4ebe 26f2 97bb 9d75 723e 5f0e dc3d
000003e0: 88f8 0abe 9a67 f8bd d0d0 18bd befe 743e
000003f0: 6b27 8cbd 2d8a 43be 4cd6 8b3a 50b1 0bbd

hiden_layers.0.bias f4 [64]
-0.081748866 0.14553548 -0.04328199 -0.032370873 0.047199067 0.01906892 0.072222084 -0.053997234
0.0017906481 -0.049007393 -0.19231153 0.08404822 0.16644792 -0.017928258 0.024263257 0.058759935
-0.092340946 -0.04482689 0.08913021 -0.09152043 -0.21515037 0.042399295 0.0017115445 -0.029300492
0.059972133 0.059053358 -0.19815359 -0.13599515 0.11376053 0.025547843 0.035955135 0.087348975
0.048802994 -0.051815964 -0.16886388 -0.03890891 -0.109520085 0.06738774 -0.14326558 -0.23405345
-0.2108835 -0.11964075 0.09785779 -0.09805463 0.006904314 0.13765585 -0.05317599 0.033629697
0.023912936 -0.13340472 0.100774616 0.07540706 0.025068829 -0.07997568 0.035756152 0.08236618
-0.08992197 -0.39205632 -0.20508157 -0.21683776 -0.66769964 0.09572226 -0.08797651 0.0020280571
00000000: f36b a7bd 4107 153e 7548 31bd 5297 04bd
00000010: cf53 413d 6c36 9c3c 2ce9 933d 342c 5dbd
00000020: 2eb4 ea3a fabb 48bd 50ed 44be 7921 ac3d
00000030: 5371 2a3e 48de 92bc bdc3 c63c 42ae 703d
00000040: 401d bdbd 679c 37bd e689 b63d 106f bbbd
00000050: 6150 5cbe e2aa 2d3d e755 e03a 9607 f0bc
00000060: 57a5 753d efe1 713d c6e8 4abe 5042 0bbe
00000070: 48fb e83d b649 d13c b145 133d 05e4 b23d
00000080: a6e5 473d fa3c 54bd a7ea 2cbe f35e 1fbd
00000090: 114c e0bd 9502 8a3d 36b4 12be b5ab 6fbe
000000a0: d8f1 57be 3606 f5bd aa69 c83d ded0 c8bd
000000b0: 953d e23b a8f5 0c3e 11cf 59bd 4bbf 093d
000000c0: 10e5 c33c 3f9b 08be ec62 ce3d 046f 9a3d
000000d0: 255d cd3c 4aca a3bd 0b75 123d 9aaf a83d
000000e0: 0329 b8bd 9bbb c8be e700 52be b80a 5ebe
000000f0: 5dee 2abf 080a c43d 072d b4bd 27e9 043b

hiden_layers.1.weight f4 [64, 64]
-0.007811298 0.038728606 -0.20939028 0.0651942 -0.20624305 0.22989291 -0.108100325 -0.06777747
0.009553384 0.08982048 0.011487988 -0.15011688 0.10128643 0.06296909 -0.0059653576 0.029868074
0.030016389 0.18423147 0.14536685 0.2448089 0.28388453 -0.110313304 0.019188322 -0.11915787
-0.07518784 -0.22133473 0.011597834 0.23246084 0.037209738 -0.09468226 -0.123099096 0.11033413
-0.17448212 0.2158562 -0.18416415 -0.16879034 -0.111211024 0.07892434 -0.06399744 0.056877982
0.23907167 0.14235099 -0.22105214 0.17518777 0.24930368 -0.027772944 0.16175435 -0.28566775
-0.059775524 -0.18183506 -0.04733615 0.1644966 -0.085807264 -0.005019284 -0.011825879 -0.15732935
0.22828521 -0.24084416 -0.22212483 0.15258506 0.03429738 -0.020452088 0.05479349 -0.11399037
0.055764616 0.3285106 -0.2323286 0.17104916 -0.014222149 0.029376887 -0.10932243 -0.05929432
0.18041107 -0.16567165 0.16862282 0.15296364 0.3123592 -0.019164896 -0.08945263 0.056838807
0.0034947994 -0.05042427 0.14137353 -0.018271508 -0.29750237 0.26245564 -0.12539856 0.084907226
0.031590275 0.12664859 -0.68360275 -0.2826254 0.061227966 -0.0356262 -0.092897564 0.1454136
0.2012712 0.11919859 -0.49236885 -0.20074579 -0.3663575 0.021497719 -0.27073666 -0.21313977
-0.3091966 -0.3096677 0.030606838 -0.21229765 0.26860723 0.121441446 0.055351153 -0.065582
0.4656547 -0.021106439 -0.1263414 -0.006300443 0.0022993519 -0.013739511 0.17798011 -0.10395522
-0.028949993 0.16857994 -0.35224125 0.14775051 -0.001435678 0.0625806 0.029317986 0.16236302
0.040431622 0.19224145 -0.055300433 0.10081375 0.2700547 0.31102452 -0.15704855 0.2397175
0.4290803 -0.045564864 -0.27760217 -0.0061442824 0.0113381 -0.106599204 0.26394886 0.14988808
-0.11580969 0.044262554 0.08507258 -0.10520126 0.04904801 -0.24798751 -0.2000281 -0.06566942
-0.03613238 0.23691955 -0.25194484 -0.054419197 0.30280754 0.036610782 0.1636901 0.2861816
0.03448751 -0.20239817 -0.07740013 -0.05406783 0.023030953 -0.25721285 -0.07324767 -0.2698637
-0.277991 -0.43341815 -0.2125823 -0.07940105 0.08789681 0.05729752 0.18547763 0.04203892
-0.026251815 0.013062936 0.025576958 -0.37166706 -0.09290402 -0.28617105 0.14913587 -0.0213827
-0.18068992 0.13415298 -0.08029959 -0.07536162 -0.0045420015 0.14430854 -0.0033632945 0.3635944
0.17506807 -0.008182802 -0.3060104 0.20402108 0.36278206 -0.1733166 -0.047488455 -0.26836854
-0.082346104 -0.10177906 -0.12210909 0.20009875 0.30679962 0.26756278 -0.06174361 0.14865527
0.002794725 -0.068042465 0.13950905 0.18086787 -0.031757064 -0.17480971 0.0902867 0.110372424
0.28551695 0.05774804 -0.034036912 -0.10861766 0.22382283 0.23656462 0.095216714 0.10956153
0.26217815 -0.30437732 -0.17483123 -0.0059695295 0.041280285 0.23995043 0.13165823 0.119508035
0.106152974 -0.039635874 0.15804353 0.09426012 -0.11514853 -0.12380313 -0.31913948 -0.10880446
0.025442569 0.100261636 0.06514243 0.22227444 0.11275703 -0.015430133 -0.28320995 -0.046520315
-0.21231398 -0.124622084 0.09301826 0.048265975 -0.29309574 0.13393793 0.08327106 -0.23016137
00000000: ebf5 ffbb e3a1 1e3d 686a 56be 8984 853d
00000010: 6131 53be 0c69 6b3e b463 ddbd eace 8abd
00000020: cc85 1c3c cdf3 b73d 1d38 3c3c 3db8 19be
00000030: 436f cf3d f0f5 803d 0c79 c3bb e4ad f43c
00000040: eee4 f53c 2da7 3c3e 0cdb 143e 2faf 7a3e
00000050: 5059 913e f1eb e1bd d430 9d3c 0b09 f4bd
00000060: 15fc 99bd 92a5 62be d704 3e3c 370a 6e3e
00000070: 3d69 183d c6e8 c1bd 611b fcbd dcf6 e13d
00000080: 71ab 32be 6809 5d3e 8795 3cbe 60d7 2cbe
00000090: 9bc2 e3bd 16a3 a13d 1711 83bd e3f8 683d
000000a0: 34cf 743e 75c4 113e 7e5b 62be 6c64 333e
000000b0: 7749 7f3e 1684 e3bc efa2 253e 0b43 92be
000000c0: 2ed7 74bd f832 3abe 8de3 41bd cc71 283e
000000d0: b8bb afbd ce78 a4bb 55c1 41bc f21a 21be
000000e0: 99c3 693e da9f 76be b174 63be 423f 1c3e
000000f0: 697b 0c3d 238b a7bc 236f 603d c873 e9bd
00000100: 7069 643d 8b32 a83e 8ce7 6dbe 8327 2f3e
00000110: 0404 69bc cca7 f03c 70e4 dfbd 9ade 72bd
00000120: aebd 383e d4a5 29be 76ab 2c3e 80a2 1c3e
00000130: 8ced 9f3e b3ff 9cbc f132 b7bd cfcf 683d
00000140: 0109 653b ae89 4ebd 39c4 103e 21ae 95bc
00000150: 3b52 98be 9660 863e 7b68 00be d7e3 ad3d
00000160: ce64 013d 2bb0 013e 9700 2fbf 47b4 90be
00000170: 2dca 7a3d c7ec 11bd 1441 bebd 4ee7 143e
00000180: 0a1a 4e3e 641e f43d c517 fcbe 4e90 4dbe
00000190: 3693 bbbe fc1b b03c ff9d 8abe 5041 5abe
000001a0: 044f 9ebe c48c 9ebe 31bb fa3c 8e64 59be
000001b0: e386 893e 4bb6 f83d e4b7 623d db4f 86bd
000001c0: 4b6a ee3e 69e7 acbc a45f 01be f273 cebb
000001d0: b9b0 163b b01b 61bc 6b40 363e 79e6 d4bd
000001e0: 8928 edbc 38a0 2c3e f758 b4be e94b 173e
000001f0: 5c2d bcba 422a 803d 462c f03c 7e42 263e
00000200: a19b 253d f1da 443e b582 62bd 7077 ce3d
00000210: 9c44 8a3e 9b3e 9f3e 56d1 20be 8178 753e
00000220: 6ab0 db3e 39a2 3abd df21 8ebe fa55 c9bb
00000230: 70c3 393c af50 dabd 4e24 873e 437c 193e
00000240: a12d edbd a74c 353d 883a ae3d c273 d7bd
00000250: 91e6 483d 70f0 7dbe 2bd4 4cbe b07d 86bd
00000260: 8cff 13bd 0a9b 723e eafe 80be aae6 5ebd
00000270: 9709 9b3e 30f5 153d 619e 273e 6586 923e
00000280: c642 0d3d 7741 4fbe f683 9ebd 3b76 5dbd
00000290: 69ab bc3c 67b1 83be e002 96bd 932b 8abe
000002a0: d654 8ebe fce8 ddbe 2daf 59be 059d a2bd
000002b0: 3e03 b43d ceb0 6a3d d9ed 3d3e 0131 2c3d
000002c0: 0c0e d7bc ed05 563c c586 d13c 254b bebe
000002d0: 7644 bebd 0385 92be 13b7 183e c62a afbc
000002e0: c706 39be 665f 093e 1d74 a4bd 3157 9abd
000002f0: 12d5 94bb 9ec5 133e b86a 5cbb 0c29 ba3e
00000300: 0b45 333e 2911 06bc 65ad 9cbe e7ea 503e
00000310: 92be b93e e879 31be 4183 42bd 9a67 89be
00000320: 13a5 a8bd 8a71 d0bd 5514 fabd b0e6 4c3e
00000330: d714 9d3e fdfd 883e dee6 7cbd 1639 183e
00000340: b427 373b d959 8bbd 76db 0e3e 6d35 393e
00000350: b213 02bd 5101 33be 3ce8 b83d f00a e23d
00000360: 472f 923e 3589 6c3d 4a6a 0bbd f072 debd
00000370: d031 653e ff3d 723e fb00 c33d cc61 e03d
00000380: 373c 863e 58d7 9bbe f506 33be 0b9c c3bb
00000390: 8415 293d 91b5 753e 6ad1 063e a1c0 f43d
000003a0: bb66 d93d 3a59 22bd 2ad6 213e 730b c13d
000003b0: fed2 ebbd 7f8c fdbd 4066 a3be dfd4 debd
000003c0: ef6c d03c f955 cd3d 6569 853d e99b 633e
000003d0: 28ed e63d abce 7cbc e500 91be 168c 3ebd
000003e0: d668 59be dd39 ffbd 5c80 be3d 8bb2 453d
000003f0: a510 96be 0627 093e 048a aa3d 6caf 6bbe

hiden_layers.1.bias f4 [64]
0.008827503 0.038071953 -0.011699385 0.1069667 -0.03887002 0.07099749 0.011487051 -0.031224735
-0.027171405 0.014256531 -0.03320862 -0.08875249 0.07889925 0.03498238 -0.024487557 -0.055714965
0.0044903434 -0.07764384 0.004740344 -0.026021875 0.0084460145 0.24742977 0.0054246625 0.040341813
0.0074171512 -0.03090207 0.082038715 0.019825805 -0.04196564 0.020129502 -0.17775099 -0.16944888
-0.07925039 -0.057332143 0.05422727 -0.014011581 0.11758379 -0.24331358 -0.07494485 0.1963812
0.0971835 -0.10508273 0.0010340573 -0.0015172118 0.09996672 -0.10946164 -0.08070603 0.057824463
-0.03931591 -0.05779896 0.008584942 0.08842982 -0.014269239 -0.029077489 -0.14206673 -0.022211744
0.112027414 -0.17348 -0.011146811 0.18653256 0.13056278 -0.052054368 0.05686561 -0.10270754
00000000: 3ba1 103c 56f1 1b3d c7ae 3fbc 5b11 db3d
00000010: 2c36 1fbd 2267 913d 2f34 3c3c 04cb ffbc
00000020: 9196 debc 3a94 693c c305 08bd dec3 b5bd
00000030: ee95 a13d af49 0f3d 219a c8bc 6035 64bd
00000040: bb23 933b bc03 9fbd e354 9b3b d42b d5bc
00000050: 2761 0a3c 3b5e 7d3e 5ec1 b13b 753d 253d
00000060: 930b f33b 5726 fdbc ea03 a83d ba69 a23c
00000070: 2ae4 2bbd a0e6 a43c 5b04 36be 0284 2dbe
00000080: 074e a2bd 1cd5 6abd 6a1d 5e3d d590 65bc
00000090: c5cf f03d 3227 79be af7c 99bd 2718 493e
000000a0: 2508 c73d 9d35 d7bd 3589 873a 2edd c6ba
000000b0: 5abb cc3d 6d2d e0bd 3449 a5bd 58d9 6c3d
000000c0: b809 21bd 9abe 6cbd dba7 0c3c b21a b53d
000000d0: 87c9 69bc ea33 eebc f179 11be 67f5 b5bc
000000e0: a16e e53d bea4 31be 1da1 36bc 6402 3f3e
000000f0: 40b2 053e f636 55bd eaeb 683d 5558 d2bd

hiden_layers.2.weight f4 [64, 64]
-0.105642885 -0.3509999 0.007526462 -0.14928502 0.109656006 -0.39553708 -0.18657121 -0.17977583
-0.4393999 -0.08454897 -0.017726112 -0.058663543 -0.10338259 0.28593895 -0.110735916 0.030325344
0.08334395 -0.08387749 0.019884724 -0.25467885 0.009050352 0.09929531 0.0062020584 0.08180269
-0.044240262 -0.24100606 -0.13342693 0.053568643 0.059154734 -0.21910961 0.14718525 0.14272527
-0.117182784 0.27806732 -0.044412512 -0.16870184 0.3158282 0.24366722 0.31127724 0.30199286
-0.3135385 -0.014837269 0.092133254 -0.08939939 0.1071214 -0.31006315 -0.015811017 0.11884274
-0.049944162 0.032734968 -0.12146489 -0.27078825 -0.060396988 0.24129571 0.29833442 0.19114994
-0.050530154 0.24344063 -0.026720122 -0.10599074 -0.05819495 0.099117436 0.105137914 0.38669658
0.176103 0.08541999 0.12453489 0.11781305 0.19593638 0.22384502 0.09122075 0.31557697
0.21640359 0.21940076 0.313497 0.10743088 -0.056882903 -0.11815365 -0.06118107 0.07757337
-0.1576873 0.015340946 -0.24452114 -0.15980454 0.013262108 -0.11735882 0.055982795 -0.25624356
-0.43064097 -0.0030101745 0.25322607 -0.04537178 -0.22609267 0.07892418 -0.02071408 0.024700137
0.064952046 0.13340187 -0.017501479 0.101903796 0.3236414 0.09376582 -0.012812132 -0.2153614
-0.07312075 -0.16838746 0.067789786 0.09033642 0.102471605 -0.2651985 -0.17323542 0.20245564
-0.08173064 0.30353627 -0.078729734 -0.102714576 -0.17859264 0.1291083 -0.011609974 -0.29914743
0.31602514 -0.0110279815 0.043992016 0.14060862 0.10994205 0.23429012 0.07469198 -0.3307242
0.12893097 -0.74783355 -0.46741262 -0.041059908 0.15261048 -0.2379119 0.20290984 -0.16217718
0.24094741 0.16591354 -0.048517868 0.08163842 -0.5206873 0.23028141 -0.19790637 0.29146525
-0.12936471 -0.11604551 0.2891038 -0.34215966 -0.07421011 -0.15910268 0.055090196 -0.40030023
-0.27989727 -0.14768024 0.05675985 -0.17386305 0.118148595 0.20710063 0.09500402 0.50704557
-0.02629811 0.3323139 -0.1273024 0.099654004 0.44231668 0.07496448 0.16303216 0.38954142
0.15217166 0.0049191187 -0.12052689 -0.33475602 0.12541978 0.08761321 -0.04087281 -0.12293929
0.20362397 -0.07736821 0.009521603 0.053126637 -0.3810637 0.025064398 0.8047649 -0.17157817
-0.20577186 0.10734531 -0.36255795 -0.22921771 0.02206973 -0.08370454 0.29942957 0.716947
0.00042388157 -0.2426214 -0.13675794 0.20351383 -0.20884344 -0.14565267 0.0658066 -0.11822525
0.1084567 0.21460675 0.01869643 -0.03231307 -0.045818526 0.039809655 -0.105783395 -0.06364224
0.20752208 -0.079828955 -0.05055578 0.06241799 -0.340387 -0.16244823 0.0028948234 -0.10679696
-0.15897268 -0.05629221 0.06850518 -0.10904012 -0.21757363 0.3377732 0.121373504 -0.24171712
-0.20033826 -0.089773424 0.2742271 0.19199727 -0.03786823 0.1692802 0.024336725 -0.24271776
0.32432494 -0.46096155 0.12870948 -0.013767131 0.09899249 -0.009519026 -0.17902549 0.03491268
-0.042941406 0.026805524 0.30362412 -0.2758598 -0.1358477 -0.548111 0.08419216 -0.063335136
0.26075444 -0.10183003 -0.06673165 0.20830311 0.24338871 -0.22934186 0.13231878 -0.0068773213
00000000: 4c5b d8bd 42b6 b3be 8aa0 f63b 2cde 18be
00000010: 5493 e03d d683 cabe 860c 3fbe 2817 38be
00000020: 06f9 e0be 0328 adbd 5a36 91bc 2f49 70bd
00000030: 40ba d3bd 9766 923e 83c9 e2bd db6c f83c
00000040: 3cb0 aa3d f6c7 abbd 4ae5 a23c 4465 82be
00000050: ed47 143c 575b cb3d a33a cb3b 2b88 a73d
00000060: 4735 35bd 4bca 76be 12a1 08be cb6a 5b3d
00000070: 3c4c 723d 455e 60be bbb7 163e 9326 123e
00000080: 87fd efbd d75e 8e3e e5e9 35bd 2dc0 2cbe
00000090: 3cb4 a13e e683 793e bb5f 9f3e cf9e 9a3e
000000a0: 1e88 a0be 0418 73bc 5cb0 bc3d 0717 b7bd
000000b0: 7762 db3d 99c0 9ebe 1b86 81bc d363 f33d
000000c0: 4092 4cbd 1a15 063d 96c2 f8bd c2a4 8abe
000000d0: d562 77bd 3916 773e 4abf 983e cfbc 433e
000000e0: b5f8 4ebd 8048 793e 28e4 dabc ac11 d9bd
000000f0: d45d 6ebd 15fe ca3d 8c52 d73d 18fd c53e
00000100: 5854 343e adf0 ae3d 260c ff3d f847 f13d
00000110: 8ca3 483e a137 653e f2d1 ba3d 4e93 a13e
00000120: e798 5d3e 98aa 603e ae82 a03e b904 dc3d
00000130: 0cfe 68bd 8afa f1bd 0099 7abd c9de 9e3d
00000140: c878 21be 9758 7b3c c063 7abe cda3 23be
00000150: 5049 593c d259 f0bd 374e 653d 5b32 83be
00000160: f97c dcbe 5946 45bb d9a6 813e c2d7 39bd
00000170: d684 67be 00a3 a13d 93b0 a9bc f157 ca3c
00000180: 9405 853d 809a 083e 435f 8fbc f0b2 d03d
00000190: 53b4 a53e 4b08 c03d fae9 51bc b387 5cbe
000001a0: 55c0 95bd c36d 2cbe 5fd5 8a3d 4d02 b93d
000001b0: a2dc d13d 19c8 87be a064 31be 8850 4f3e
000001c0: 6562 a7bd 1b69 9b3e 0e3d a1bd 055c d2bd
000001d0: fde0 36be f734 043e c337 3ebc da29 99be
000001e0: 0cce a13e b5ae 34bc f930 343d b5fb 0f3e
000001f0: 4c29 e13d c0e9 6f3e 1cf8 983d af54 a9be
00000200: 7b06 043e 0572 3fbf b550 efbe 6f2e 28bd
00000210: ec45 1c3e 2d9f 73be 99c7 4f3e c611 26be
00000220: ebba 763e 3de5 293e acba 46bd 0b32 a73d
00000230: c34b 05bf e4ce 6b3e f8a7 4abe ef3a 953e
00000240: 2f78 04be 45a9 edbd 6a05 943e 8d2f afbe
00000250: 78fb 97bd d0eb 22be 42a6 613d 27f4 ccbe
00000260: b24e 8fbe 7d39 17be 047d 683d 2809 32be
00000270: e4f7 f13d 3012 543e 7891 c23d bdcd 013f
00000280: 226f d7bc 0c25 aa3e 8f5b 02be 6617 cc3d
00000290: 5577 e23e fa86 993d e7f1 263e f971 c73e
000002a0: e3d2 1b3e 8f30 a13b cdd6 f6bd 2465 abbe
000002b0: 0b6e 003e 8e6e b33d 3f6a 27bd 98c7 fbbd
000002c0: cd82 503e 3973 9ebd 7f00 1c3c 519b 593d
000002d0: c81a c3be da53 cd3c 1305 4e3f 30b2 2fbe
000002e0: dcb5 52be dcd7 db3d 32a1 b9be 0cb8 6abe
000002f0: 94cb b43c 496d abbd d54e 993e d789 373f
00000300: 6c3c de39 bf71 78be 460a 0cbe ee65 503e
00000310: 0edb 55be f925 15be 9cc5 863d 1420 f2bd
00000320: 8c1e de3d dfc1 5b3e 4129 993c b65a 04bd
00000330: 35ac 3bbd 730f 233d f7a4 d8bd dd56 82bd
00000340: ab80 543e 5d7d a3bd 9413 4fbd 02aa 7f3d
00000350: 3447 aebe d458 26be 14b7 3d3b 5db8 dabd
00000360: bcc9 22be a992 66bd 724c 8c3d 6d50 dfbd
00000370: 9fcb 5ebe 9cf0 ac3e ac92 f83d b184 77be
00000380: 7925 4dbe 21db b7bd 7f67 8c3e ef9a 443e
00000390: b81b 1bbd ca57 2d3e d05d c73c 018b 78be
000003a0: eb0d a63e 2703 ecbe 6bcc 033e 888f 61bc
000003b0: 93bc ca3d b0f5 1bbc 7552 37be 9900 0f3d
000003c0: 54e3 2fbd 4297 db3c 9f74 9b3e 7f3d 8dbe
000003d0: a91b 0bbe 0151 0cbf f06c ac3d dab5 81bd
000003e0: 9b81 853e 438c d0bd 9aaa 88bd 694d 553e
000003f0: e43a 793e 98d8 6abe 937e 073e 275b e1bb

hiden_layers.2.bias f4 [64]
-0.024550995 -0.0703809 0.013474338 0.027688524 -0.033628732 -0.21457802 0.14634393 0.0075018797
0.026766958 -0.13226487 -0.027828515 -0.052652728 -0.017506858 0.0036178457 0.043144487 -0.042442534
-0.029561792 -0.16836718 0.11785139 -0.042926356 -0.050310794 -0.11032747 0.029842177 0.037456177
0.047756072 -0.04057793 0.0029414508 0.032916106 -0.069814734 0.010845046 -0.0428563 -0.043982293
-0.01286454 0.01412644 -0.05069143 0.009094784 0.03897809 0.0050478927 0.017349172 0.11954682
0.052050218 -0.049590107 0.059455317 0.0040639355 0.010769939 0.017670395 -0.08682484 -0.026989982
-0.079042986 -0.14697774 0.01029516 -0.11981167 -0.025425363 0.018509485 -0.04857093 -0.056538783
-0.019469446 -0.027922854 0.056947447 -0.1039148 -0.17061053 0.0010972064 0.040490914 0.0047408636
00000000: 2b1f c9bc dc23 90bd 78c3 5c3c 0bd3 e23c
00000010: 48be 09bd 57ba 5bbe 2fdb 153e 54d2 f53b
00000020: 6146 db3c 7170 07be a0f8 e3bc 63aa 57bd
00000030: 8b6a 8fbc 6119 6d3b 46b8 303d 39d8 2dbd
00000040: 922b f2bc 7268 2cbe 125c f13d 8cd3 2fbd
00000050: b112 4ebd 5ef3 e1bd 9577 f43c a66b 193d
00000060: df9b 433d 0b35 26bd 5bc5 403b 0ad3 063d
00000070: 07fb 8ebd 6baf 313c 168a 2fbd c726 34bd
00000080: cbc5 52bc 9572 673c d1a1 4fbd 4a02 153c
00000090: 7da7 1f3d cb68 a53b da1f 8e3c f7d4 f43d
000000a0: 9c32 553d ff1e 4bbd 6b87 733d c32a 853b
000000b0: 6674 303c 81c1 903c 39d1 b1bd 181a ddbc
000000c0: 4ae1 a1bd 5581 16be 08ad 283c d25f f5bd
000000d0: da48 d0bc 34a1 973c 50f2 46bd 3695 67bd
000000e0: 637e 9fbc 78be e4bc ba41 693d 48d1 d4bd
000000f0: 87b4 2ebe 23d0 8f3a cdd9 253d 3f59 9b3b

hiden_layers.3.weight f4 [64, 64]
-0.103382155 0.22517341 0.045297235 -0.26712433 -0.115444615 0.17045066 -0.30183536 -0.19220068
0.06911042 0.10109744 -0.0030731119 -0.21903296 0.15299149 -0.13157935 0.3857445 0.1024611
-0.15256807 -0.110017054 0.21082072 -0.38332552 0.26653486 -0.4619202 0.0890699 0.30908036
0.07793867 0.09551016 -0.06812261 -0.5224156 0.0761415 0.20822714 0.086122744 0.26033044
0.23104502 0.061446756 -0.14363615 0.13408855 0.011358155 0.057362724 -0.1855624 -0.17409945
-0.0006419051 0.24491946 -0.22679445 -0.14980213 -0.056323618 0.2379893 0.0025298249 -0.013664519
0.43611166 -0.29623222 -0.2853692 -0.4285664 0.40058923 0.19751145 0.2995996 -0.12848252
0.08185792 0.04821774 -0.06335405 0.14824177 0.08945934 0.27519295 0.07785824 0.23081547
-0.35333946 -0.0008615378 -0.067327395 -0.00787038 0.03656461 0.27409014 -0.23059121 0.06638653
-0.29745623 -0.26886094 0.20947227 0.10565915 -0.06121519 0.012108773 0.24651721 0.27948314
0.21683747 -0.18790255 0.20430131 0.22217467 -0.067334265 0.0027121028 -0.11353105 0.18442515
-0.15988515 0.22648247 0.109606475 -0.16002136 0.04497879 0.49849832 -0.24801606 0.21310717
0.26989567 -0.029235259 0.2763456 -0.13325858 -0.13011396 -0.23475885 -0.3692917 0.14357042
0.028658215 -0.23595533 0.14914457 0.10529671 -0.057854448 0.10888521 0.23025122 -0.12501247
0.05894326 -0.014262422 -0.27438846 0.21133009 -0.0741109 -0.09460562 -0.0017207802 0.08326861
0.29686597 0.035041712 0.14659774 0.05805342 0.23435146 0.3430402 -0.1078664 0.12354067
-0.12569016 0.25745124 -0.16211662 -0.08348651 -0.05219588 0.18438077 0.25363424 -0.27783424
0.1047637 -0.1391622 -0.0048501436 0.050301205 -0.1177932 0.048882127 0.14901003 0.020371376
0.2075627 -0.0672205 -0.14634652 -0.094247855 -0.096052624 -0.00023179971 -0.13889614 0.13627279
0.05551732 0.00688242 -0.0705804 0.26341695 0.16803429 -0.17911176 -0.15230137 -0.12338559
-0.3525446 -0.02573358 0.18915883 0.10406938 0.05957679 -0.052713946 0.096987896 0.0733034
0.24219257 -0.4123473 -0.090359785 0.027795957 0.019720536 -0.09613255 0.095660344 -0.188987
-0.10154482 -0.2507098 0.3113099 0.18933427 -0.06602967 -0.05685835 -0.18628454 -0.32086897
-0.11575148 -0.26221317 0.1988673 0.14457485 0.15900166 -0.01162306 0.011168632 -0.057007473
0.21623127 -0.12816589 0.021449659 -0.06733201 -0.33149368 -0.0063313236 0.039404206 -0.12311043
0.0028880897 -0.16281632 -0.1632337 -0.17744228 -0.1383074 -0.17766006 -0.094126195 -0.1453361
-0.044156555 0.109308735 -0.036273766 0.17127013 -0.019646503 -0.09845666 -0.019439897 -0.11045957
0.2466481 0.06604428 0.007628584 -0.10229874 0.13121381 -0.3370438 0.084637955 0.19120999
0.08577048 0.15153211 0.088473685 -0.19028786 -0.21372515 -0.03595756 -0.23815039 -0.14385805
0.048895117 -0.10511157 -0.25906092 -0.009228482 0.117572606 -0.052546 0.24879289 0.12412106
-0.24208578 0.18206657 -0.064045556 -0.07942392 0.21426727 0.16409275 0.15759647 0.24526583
0.13249768 0.21962073 0.27460182 -0.16987018 0.0047042733 -0.28812218 -0.115094624 0.035263922
00000000: 06ba d3bd dc93 663e 9889 393d 85c4 88be
00000010: 3a6e ecbd 9e8a 2e3e 2a8a 9abe 41d0 44be
00000020: c489 8d3d 2d0c cf3d 4366 49bb 2d4a 60be
00000030: cda9 1c3e bdbc 06be 4e80 c53e 20d7 d13d
00000040: ce3a 1cbe 9f50 e1bd 63e1 573e 3e43 c4be
00000050: 4277 883e ce80 ecbe 486a b63d c83f 9e3e
00000060: 4f9e 9f3d d59a c33d de83 8bbd 07bd 05bf
00000070: 13f0 9b3d 7f39 553e 1f61 b03d 084a 853e
00000080: 1197 6c3e 98af 7b3d 5b15 13be 824e 093e
00000090: 8e17 3a3c 2df5 6a3d 1204 3ebe 2047 32be
000000a0: 8645 28ba 2bcc 7a3e ce3c 68be bb65 19be
000000b0: 98b3 66bd 78b3 733e 6bcb 253b 26e1 5fbc
000000c0: 074a df3e c0ab 97be e91b 92be 0e6d dbbe
000000d0: 081a cd3e 7140 4a3e 1e65 993e ec90 03be
000000e0: 20a5 a73d f77f 453d c5bf 81bd b1cc 173e
000000f0: 7536 b73d 17e6 8c3e 2474 9f3d e45a 6c3e
00000100: e9e8 b4be d3d8 61ba f2e2 89bd c4f2 00bc
00000110: c6c4 153d 8b55 8c3e 1a20 6cbe a9f5 873d
00000120: 2f4c 98be 24a8 89be e67f 563e d363 d83d
00000130: c7bc 7abd e063 463c 026f 7c3e 6a18 8f3e
00000140: a40a 5e3e 8769 40be 5d34 513e c281 633e
00000150: 8ce6 89bd 89bd 313b f882 e8bd f2d9 3c3e
00000160: efb8 23be 05eb 673e 5c79 e03d a4dc 23be
00000170: ae3b 383d 2c3b ff3e ecf7 7dbe c438 5a3e
00000180: c42f 8a3e c87e efbc 2c7d 8d3e f074 08be
00000190: 983c 05be a064 70be cd13 bdbe 2004 133e
000001a0: a2c4 ea3c 469e 71be 5bb9 183e cda5 d73d
000001b0: c9f8 6cbd 35ff de3d fac6 6b3e 4503 00be
000001c0: 7d6e 713d efac 69bc a57c 8cbe ea66 583e
000001d0: 75c7 97bd 97c0 c1bd cd8b e1ba bc88 aa3d
000001e0: d1fe 973e e687 0f3d b81d 163e 6cc9 6d3d
000001f0: d4f9 6f3e f7a2 af3e 0fe9 dcbd e402 fd3d
00000200: ecb4 00be a6d0 833e e601 26be fafa aabd
00000210: 59cb 55bd 50ce 3c3e 59dc 813e 4a40 8ebe
00000220: 5a8e d63d 8980 0ebe f4ed 9ebb a308 4e3d
00000230: 903d f1bd a038 483d 1696 183e dfe1 a63c
00000240: 518b 543e e7aa 89bd dddb 15be 0505 c1bd
00000250: 3db7 c4bd 430f 73b9 ca3a 0ebe 188b 0b3e
00000260: 2166 633d ec85 e13b 758c 90bd 96de 863e
00000270: 2e11 2c3e 1369 37be e4f4 1bbe 96b1 fcbd
00000280: ba80 b4be 3bcf d2bc dab2 413e 5422 d53d
00000290: cb06 743d 94ea 57bd 97a1 c63d 1820 963d
000002a0: 5401 783e 2f1f d3be 8d0e b9bd 59b4 e33c
000002b0: f68c a13c 24e1 c4bd 92e9 c33d cf85 41be
000002c0: bbf6 cfbd 095d 80be 0364 9f3e d8e0 413e
000002d0: 903a 87bd 4de4 68bd 60c1 3ebe f048 a4be
000002e0: 1d0f edbd ce40 86be dfa3 4b3e 6e0b 143e
000002f0: 55d1 223e a66e 3ebc a3fc 363c ab80 69bd
00000300: bb6b 5d3e eb3d 03be 32b7 af3c 5de5 89bd
00000310: 8ab9 a9be fe76 cfbb 4e66 213d 5221 fcbd
00000320: 1b46 3d3b 52b9 26be bc26 27be 6eb3 35be
00000330: 74a0 0dbe 85ec 35be 3cc5 c0bd fdd2 14be
00000340: 81dd 34bd 42dd df3d cd93 14bd 7061 2f3e
00000350: b4f1 a0bc a5a3 c9bd 6b40 9fbc a138 e2bd
00000360: 5291 7c3e 3942 873d 33f9 f93b 0082 d1bd
00000370: ea5c 063e 0191 acbe aa56 ad3d 8dcc 433e
00000380: 6fa8 af3d 3c2b 1b3e b131 b53d d2da 42be
00000390: c4da 5abe 3c48 13bd b2dd 73be 864f 13be
000003a0: 3f46 483d bc44 d7bd a2a3 84be 0f33 17bc
000003b0: e8c9 f03d 793a 57bd 90c3 7e3e 2f33 fe3d
000003c0: 56e5 77be a96f 3a3e 512a 83bd 02a9 a2bd
000003d0: e168 5b3e ee07 283e f860 213e f726 7b3e
000003e0: 79ad 073e 42e4 603e 9c98 8c3e 73f2 2dbe
000003f0: 4e26 9a3b c084 93be bbb6 ebbd e770 103d

hiden_layers.3.bias f4 [64]
-0.05532975 -0.011771871 0.08363256 -0.023717182 -0.015164935 -0.054814693 0.1307166 0.00089358515
0.29199967 -0.09133797 0.08903765 -0.08793013 -0.04712282 -0.15280668 0.1574467 0.019683804
0.07961712 -0.062778376 0.1673236 -0.01216304 -0.009888212 -0.0028565004 0.07731949 0.029253839
0.067598976 -0.016143734 -0.0032535358 -0.10038435 0.07324161 -0.14318438 0.019796088 0.02766908
0.17288293 0.11362 0.05074475 -0.054255918 0.017673418 0.0051886146 0.080396 0.025367726
-0.15119417 -0.122062474 -0.014087681 0.055155784 -0.05188607 -0.006479871 0.10672116 0.030395104
-0.06574529 -0.03267844 -0.095677204 -0.067971304 0.033726078 -0.008548271 0.0022091817 0.119879745
0.104663536 0.022079838 -0.056037165 0.024448806 -0.24957976 0.04138759 0.0008132959 0.017283617
00000000: 73a1 62bd cede 40bc 8c47 ab3d 894a c2bc
00000010: 5976 78bc 5f85 60bd 93da 053e 7c3f 6a3a
00000020: fb80 953e 670f bbbd 5f59 b63d b614 b4bd
00000030: dc03 41bd 5b79 1cbe b539 213e ee3f a13c
00000040: 4d0e a33d f391 80bd e156 2b3e 7d47 47bc
00000050: 2b02 22bc 2034 3bbb ae59 9e3d bfa5 ef3c
00000060: 5571 8a3d dd3f 84bc 4639 55bb 4f96 cdbd
00000070: b2ff 953d ed9e 12be 682b a23c 44aa e23c
00000080: 3908 313e 9ab1 e83d bad9 4f3d 743b 5ebd
00000090: d8c7 903c 4105 aa3b a8a6 a43d facf cf3c
000000a0: a5d2 1abe e4fb f9bd 04d0 66bc 08eb 613d
000000b0: 7d86 54bd 1955 d4bb a090 da3d 27ff f83c
000000c0: 77a5 86bd d4d9 05bd 69f2 c3bd 8a34 8bbd
000000d0: 5b24 0a3d 0c0e 0cbc ebc7 103b 8383 f53d
000000e0: d659 d63d c7e0 b43c 3a87 65bd dd48 c83c
000000f0: d691 7fbe 0986 293d 5d33 553a 5f96 8d3c

hiden_layers.4.weight f4 [64, 64]
-0.24570933 0.17525409 0.067608856 -0.3702254 -0.029833192 -0.016540961 -0.042661365 0.11021933
-0.06577699 -0.085109666 0.038822446 0.047724154 -0.043755956 0.017624103 -0.08948019 -0.18361144
0.088675365 -0.14097172 0.047415055 0.22660053 -0.27190834 0.07093298 -0.16332194 -0.23595954
-0.032036617 -0.19870527 0.18228008 0.20483793 -0.23524731 -0.11577235 0.011593263 0.036867794
0.2553513 0.006887147 0.26761445 0.044820305 -0.004373081 -0.106533304 -0.032378588 -0.06551176
-0.14150384 0.18458034 0.09840495 0.14769684 0.13468271 0.12995487 0.11920669 -0.118761145
-0.13158488 -0.117831916 0.12758993 -0.005722862 -0.21148445 0.27805915 0.11270918 -0.28156027
0.054832965 0.001042922 -0.3056952 -0.03330891 0.16021408 -0.34296152 0.016172586 0.062755555
-0.02831419 -0.28353626 -0.15382643 0.24072732 0.16301848 -0.014822154 -0.2598672 -0.0885662
-0.110623404 -0.03249812 -0.17896569 0.2420969 0.28167564 0.38006848 -0.32133818 0.26968634
-0.19296493 -0.063288115 0.21288213 0.076100804 0.20387162 0.14853834 0.11736001 0.37796763
-0.12910675 -0.05487512 -0.078011915 0.13273342 0.066058144 0.13166533 -0.08229709 -0.055256013
0.06826907 0.07763684 0.07382577 -0.053250395 -0.29171294 0.025196036 0.10467567 0.04021093
0.122237325 -0.26616803 0.08256883 0.099398196 0.015757462 0.16158779 -0.010919984 -0.12578446
-0.048850384 0.09956534 -0.24319279 -0.036041338 0.19855954 -0.17492902 0.15296963 0.08706856
0.02460505 -0.3602453 0.28941157 -0.0076978095 0.24410945 -0.003474056 0.08549474 0.15367967
-0.20635094 -0.1473013 -0.06284095 -0.15930763 -0.033028748 -0.06309417 -0.13882506 0.19852147
-0.0964235 -0.19509445 -0.0855392 -0.22641383 -0.0030232281 0.2645477 0.16040131 -0.12138955
0.09642522 0.040177934 -0.058543503 0.19309436 0.08026313 -0.08852448 -0.049200136 -0.16211863
-0.31819957 -0.24726436 0.19976696 0.44427344 -0.15599753 0.28650832 -0.103525765 0.154349
-0.11549201 -0.12587884 -0.22191934 0.15777099 -0.16933893 -0.017180415 -0.17354994 0.20520096
-0.088712424 0.18884078 -0.02018238 0.072089694 -0.094400585 0.10790719 0.039544985 0.15695177
0.09665651 0.1662307 0.21775904 -0.25241753 -0.15088359 0.14900164 -0.08297638 -0.03737812
-0.29792437 0.04254649 0.16660406 0.27365074 -0.029179739 -0.0024750924 0.15960234 0.23668262
0.044716265 -0.1614911 -0.2941707 0.13912138 0.18731351 0.033826686 0.12462145 -0.37592652
0.113724835 -0.06831763 0.3899226 0.06390099 -0.09786355 -0.0025365138 0.14804347 0.133946
0.005697763 0.14636908 -0.049541295 -0.2937505 -0.089017585 0.10696474 0.04074847 0.32290766
0.16704875 0.0134072555 0.0127480645 -0.13152766 -0.07393749 0.0991352 -0.06751077 -0.2909704
0.026409155 0.07720775 0.0038132928 -0.23305696 0.2048383 -0.04352665 -0.11208574 0.12534283
-0.038709212 -0.10104504 -0.10462792 0.48195362 0.12842087 -0.07421234 -0.0017256612 -0.31973535
-0.1218123 0.053463634 -0.03939771 0.28406397 0.054595903 0.096240185 -0.038959835 0.24576984
-0.253401 -0.028343614 0.16553316 0.05396794 0.051316038 0.08168677 0.07602374 0.11819261
00000000: 3a9b 7bbe cf75 333e 8376 8a3d 2f8e bdbe
00000010: bd64 f4bc e980 87bc afbd 2ebd acba e13d
00000020: 16b6 86bd fa4d aebd 4904 1f3d 677a 433d
00000030: 7239 33bd 6c60 903c 6441 b7bd a304 3cbe
00000040: 6e9b b53d e45a 10be 4a36 423d f809 683e
00000050: 9237 8bbe 4f45 913d de3d 27be 619f 71be
00000060: d438 03bd 6579 4bbe a1a7 3a3e 09c1 513e
00000070: ace4 70be 0e1a edbd abf1 3d3c af02 173d
00000080: 68bd 823e 94ad e13b c304 893e 7f95 373d
00000090: 104c 8fbb 222e dabd 699f 04bd 082b 86bd
000000a0: 62e6 10be a102 3d3e 8988 c93d d73d 173e
000000b0: 44ea 093e e412 053e a322 f43d 0b39 f3bd
000000c0: 30be 06be dc51 f1bd efa6 023e d986 bbbb
000000d0: 618f 58be c55d 8e3e 12d4 e63d ab28 90be
000000e0: 8898 603d a8b2 883a 1584 9cbe ec6e 08bd
000000f0: 290f 243e a798 afbe 5f7c 843c fc85 803d
00000100: 29f3 e7bc aa2b 91be ad84 1dbe 3981 763e
00000110: 51ee 263e 9fd8 72bc 500d 85be 3262 b5bd
00000120: 868e e2bd c01c 05bd c842 37be 40e8 773e
00000130: ca37 903e 5698 c23e 7086 a4be 5414 8a3e
00000140: 9998 45be 339d 81bd c6fd 593e bdda 9b3d
00000150: b9c3 503e 6f1a 183e 725a f03d f984 c13e
00000160: 8f34 04be bcc4 60bd b6c4 9fbd 45eb 073e
00000170: 7e49 873d 47d3 063e 608b a8bd 2154 62bd
00000180: a7d0 8b3d 1000 9f3d f731 973d 161d 5abd
00000190: 665b 95be eb67 ce3c 3360 d63d 37b4 243d
000001a0: 9057 fa3d 2d47 88be d919 a93d 4891 cb3d
000001b0: cb15 813c 4577 253e bce9 32bc a4cd 00be
000001c0: 5717 48bd eae8 cb3d 8807 79be 15a0 13bd
000001d0: 3153 4b3e 9820 33be 12a4 1c3e 0051 b23d
000001e0: 8890 c93c 1272 b8be c12d 943e e83d fcbb
000001f0: d4f7 793e fdac 63bb de17 af3d 345e 1d3e
00000200: a94d 53be 27d6 16be c2b2 80bd 8a21 23be
00000210: 2749 07bd 8437 81bd 2828 0ebe 3649 4b3e
00000220: af79 c5bd d7c6 47be 2d2f afbd 07d9 67be
00000230: 5a21 46bb cc72 873e 3e40 243e 169b f8bd
00000240: 967a c53d 9e91 243d 50cb 6fbd 87ba 453e
00000250: ff60 a43d 534c b5bd 1586 49bd 6d02 26be
00000260: 0eeb a2be de32 7dbe b68f 4c3e cf77 e33e
00000270: d1bd 1fbe 38b1 923e 5105 d4bd aa0d 1e3e
00000280: 1387 ecbd 62e6 00be d33e 63be b88e 213e
00000290: 2f67 2dbe f1bd 8cbc 13b7 31be 3320 523e
000002a0: dcae b5bd 7a5f 413e 8555 a5bc c3a3 933d
000002b0: 1855 c1bd 72fe dc3d ecf9 213d f7b7 203e
000002c0: d9f3 c53d 6138 2a3e 3afc 5e3e df3c 81be
000002d0: 3a81 1abe e393 183e 85ef a9bd cd19 19bd
000002e0: 8b89 98be 3a45 2e3d 419a 2a3e f31b 8c3e
000002f0: 590a efbc 2935 22bb cc6e 233e ee5c 723e
00000300: 6728 373d ec5d 25be 8b9d 96be d675 0e3e
00000310: 1dcf 3f3e da8d 0a3d 8839 ff3d 7179 c0be
00000320: 91e8 e83d 1dea 8bbd efa3 c73e 86de 823d
00000330: af6c c8bd a43b 26bb b598 173e 2429 093e
00000340: 4db4 ba3b c7e1 153e d0eb 4abd 7766 96be
00000350: da4e b6bd 5410 db3d dee7 263d 2754 a53e
00000360: d40e 2b3e 1baa 5b3c 42dd 503c 30af 06be
00000370: 8a6c 97bd 6507 cb3d 1643 8abd 13fa 94be
00000380: 0358 d83c 191f 9e3d 70e8 793b 7ca6 6ebe
00000390: 22c1 513e 0049 32bd 358d e5bd df59 003e
000003a0: 8d8d 1ebd b4f0 cebd 2a47 d6bd a0c2 f63e
000003b0: c380 033e a4fc 97bd 952f e2ba 5ab4 a3be
000003c0: ba78 f9bd affc 5a3d 7e5f 21bd d570 913e
000003d0: f49f 5f3d 9319 c53d 5994 1fbd 17ab 7b3e
000003e0: c7bd 81be de30 e8bc 8681 293e 7d0d 5d3d
000003f0: c430 523d 654b a73d 56b2 9b3d f80e f23d

hiden_layers.4.bias f4 [64]
-0.05053294 0.01412653 -0.072651416 -0.13025142 -0.030082943 -0.17953877 0.04761976 0.027254418
0.062297333 0.031927537 -0.050067835 0.014989206 0.047221355 0.028556723 -0.054218024 -0.008173089
-0.01144462 -0.012428072 -0.1252072 0.019829536 0.18323147 0.0030076294 -0.049870864 0.13350965
0.037161972 -0.04526221 -0.09159489 0.073948294 -0.07067463 -0.09050038 -0.08809683 -0.0034661521
-0.00015720246 -0.04203845 -0.00955193 0.06436413 -0.09747974 -0.010058608 0.0127110295 -0.13266562
0.124063276 0.0064701037 -0.04974501 -0.052657872 -0.29131517 0.024797069 0.18639608 0.041146647
0.035014316 0.029038893 -0.030492935 0.17436747 -0.06299806 0.09076203 0.07068753 -0.10427958
0.068143435 -0.11243015 -0.1730207 -0.020912511 0.07941058 -0.14515263 -0.13265488 -0.13223898
00000000: a1fb 4ebd f672 673c 44ca 94bd a160 05be
00000010: 8170 f6bc 03d9 37be f00c 433d a844 df3c
00000020: 7d2b 7f3d 73c6 023d ee13 4dbd 4995 753c
00000030: 2e6b 413d caef e93c b813 5ebd 6be8 05bc
00000040: 3782 3bbc 1d9f 4bbc 5136 00be 8d71 a23c
00000050: 08a1 3b3e a61b 453b 6445 4cbd c1b6 083e
00000060: 2737 183d de64 39bd 1a96 bbbd 3472 973d
00000070: dcbd 90bd 4358 b9bd 1c6c b4bd 6228 63bb
00000080: b7d6 24b9 8230 2cbd b37f 1cbc 57d1 833d
00000090: 75a3 c7bd dccc 24bc ec41 503c 7fd9 07be
000000a0: e314 fe3d 2a03 d43b 6cc1 4bbd c8af 57bd
000000b0: 4327 95be 3923 cb3c 9dde 3e3e 6389 283d
000000c0: 2c6b 0f3d f9e2 ed3c 52cc f9bc 638d 323e
000000d0: 2005 81bd 71e1 b93d a0c4 903d 8890 d5bd
000000e0: c98e 8b3d c741 e6bd 572c 31be b750 abbc
000000f0: 04a2 a23d e4a2 14be aed6 07be a869 07be
