results/5_model_3_case_1/epoch100/model_weights.pth (torch, 484214 bytes, 88 tensors)

init_layer.0.weight f4 [64, 3]
000000 4d 5c 47 be 94 5c 41 bd 22 09 9d 3e 6e 93 29 3f
       -0.19468804 -0.04720743 0.3067103 0.66240585
000010 3d 2d 28 3c 6e 2a 8c bd 67 07 5c be 86 3a 5a be
       0.010264692 -0.0684403 -0.21487199 -0.21311387
000020 71 52 1a be 7e e3 9f 3e 14 84 5f 3d 81 56 9a 3d
       -0.15070511 0.3122825 0.05456932 0.075360306
000030 38 64 c5 bd 3e 4f 9b 3e 27 65 8a 3e 2c 3b 4e be
       -0.09638256 0.30333894 0.27030298 -0.2013976
000040 7b e8 82 be 44 3c 69 3e 63 95 9b 3e 50 51 76 3c
       -0.25567994 0.22776896 0.3038741 0.015034035
000050 20 bd a8 3e 9d c9 c3 3e 23 a6 f5 3d 95 7a 7c 3e
       0.3295679 0.38239756 0.11994579 0.24656136
000060 72 44 90 3e 2f f2 6e be 86 13 eb 3d c9 4d fb bd
       0.2817722 -0.23334573 0.11478333 -0.12270696
000070 8e a8 c2 bd 72 9f 84 3e 0d 51 ad be 81 33 1b 3c
       -0.095048055 0.25902897 -0.338509 0.009472729
000080 4b f6 0f 3d 93 e5 ed 3d 7b 11 c5 3d 25 ee 86 be
       0.035146993 0.116160534 0.09622475 -0.26353565
000090 44 98 21 be d8 9f 57 3b b9 b2 e1 bc a7 b0 9c bd
       -0.15780741 0.003290167 -0.027551042 -0.07650881
0000a0 e9 f2 23 3d 7f 8c ae 3e 52 ef 2c 3e 4b 6c a2 be
       0.04002658 0.34091565 0.16888168 -0.31723246
0000b0 24 f8 76 bd 95 c9 29 3e db 33 c1 bd ac 98 99 be
       -0.06029524 0.16580804 -0.09433719 -0.29999292
0000c0 14 f2 f1 ba 3d 4a 97 bd 5b af af 3e 37 49 7e 3e
       -0.0018458986 -0.07387207 0.34313473 0.24832617
0000d0 d1 2f 16 3e 6e 06 66 be 13 fb 4e 3e c1 f3 af bb
       0.14666678 -0.2246339 0.20212965 -0.005369634
0000e0 c9 5d 8e be 8a 84 d4 be 86 02 c6 3c 86 df 79 be
       -0.27805927 -0.4150737 0.024171125 -0.24401674
0000f0 b3 86 ef 3d 67 bb 5c bd 25 63 24 be f6 cb 48 3e
       0.11695614 -0.05388966 -0.16053446 0.19609055
000100 bc 1f 82 bd 3f 11 ff bd ec 48 47 bc a1 c5 15 be
       -0.06353709 -0.12454461 -0.012163382 -0.1462617
000110 af 71 56 be da 7c ec bd 23 94 6b 3e 88 b2 16 bd
       -0.20941804 -0.11547251 0.23005728 -0.036791354
000120 2c 83 92 bd 2f 80 b1 3c 71 93 85 3e 88 f1 5f bd
       -0.07153925 0.021667568 0.2608905 -0.0546737
000130 02 51 3e 3e d3 d5 1e be b4 06 2f bc ce 53 6a 3e
       0.1858559 -0.15511255 -0.0106827505 0.22883531
000140 ce bd a1 3e f2 7c 1c be 84 c5 32 be ff ba 20 3e
       0.31590122 -0.15282038 -0.17458159 0.15696333
000150 e8 50 b6 3d 5b 0e 17 3b ba 6f 9b be ad fb 38 b8
       0.089021504 0.0023049328 -0.30358678 -4.410341e-05
000160 27 0f 52 be 1c 2b 38 3e 19 c3 b1 be 2e f7 0e be
       -0.20513593 0.17985195 -0.3471916 -0.13961479
000170 fe dd 04 be 18 6b d5 bd df 78 57 3d 75 76 bf 3e
       -0.12975308 -0.10420817 0.052605506 0.37395063
000180 d5 3e 46 bd 5d ec ca 3d 32 8a 9c 3e 82 63 95 be
       -0.048399765 0.09908364 0.30574185 -0.2917748
000190 53 dc 4b 3e 62 46 f2 bd 7c 94 8b 3c c2 24 12 bc
       0.19908266 -0.11829831 0.017038576 -0.008919897
0001a0 e6 ec 20 be b2 7f 59 bd 25 2c 91 bd 84 cb 85 be
       -0.1571537 -0.053100295 -0.07088498 -0.26131833
0001b0 29 7d c1 3d a7 ca 2c bb 7e d6 a4 be 23 ce 4a be
       0.094477005 -0.0026365907 -0.32194895 -0.19805197
0001c0 1c e4 d1 bd 64 bb c9 bd c7 24 b0 3e 2a 4a 7f bd
       -0.102485865 -0.09850195 0.3440306 -0.062326588
0001d0 15 38 90 3e e2 e2 9e be 8d e0 8d 3e 96 f6 aa 3e
       0.28167787 -0.31032473 0.2771038 0.33391255
0001e0 07 e1 41 3e 52 51 8c 3d 8f 4f c4 be 0f 05 e4 3c
       0.18933497 0.06851448 -0.38341948 0.027834443
0001f0 9a 56 96 3c 54 c0 8a be d5 34 ba 3c e0 f4 fd bc
       0.018351842 -0.2709986 0.02273027 -0.031000555
000200 a4 75 94 3e 7b e8 a6 bd 9e dd c1 bc b2 f6 77 3e
       0.28996003 -0.08149811 -0.023665246 0.242152
000210 f0 06 09 3e 97 4e 10 be 67 4a 7e be e4 5c 42 be
       0.13381553 -0.1409248 -0.2483307 -0.18980747
000220 70 84 1b be db 59 76 3e d7 70 0b 3c 92 fd 28 be
       -0.1518724 0.24057715 0.00851079 -0.1650298
000230 95 95 b1 3d 25 ef 52 3e de e2 40 3e 91 a0 31 3d
       0.08671109 0.20599039 0.18836543 0.04336602
000240 cc b8 a4 3e cc 94 9b 3e dd 38 12 3d 06 5d 54 3e
       0.3217224 0.3038696 0.03569876 0.2073861
000250 40 0d a8 be f7 16 8c 3e e3 d9 9b 3d ec 11 80 be
       -0.3282261 0.2736127 0.07609918 -0.25013673
000260 16 0e 70 be 22 5f b4 be b5 ed e7 bd 29 3b e2 bd
       -0.23442873 -0.3522883 -0.11324636 -0.1104644
000270 f6 e2 8d 3e de 84 83 be 4f e0 b8 3d 9c 7c df bd
       0.2771222 -0.25687307 0.090271585 -0.10912439
000280 0e 7a 4d be 68 ce 94 3d b7 16 45 3e 3a 81 01 be
       -0.20066091 0.07265931 0.19246946 -0.12646952
000290 88 ad ac be f3 1d a8 3e 45 38 d2 bd e3 f3 84 3e
       -0.33726144 0.3283535 -0.10264639 0.2596732
0002a0 99 ba 47 3d b9 f8 e1 3b 99 48 94 3e 85 d6 be bd
       0.048761938 0.006896105 0.28961638 -0.0931826
0002b0 42 d4 0f bd 06 b7 32 3e c4 20 8a 3e d7 0c 94 3e
       -0.035114534 0.1745263 0.26978123 0.28916046
0002c0 6b 68 e2 3d 19 7a 3d 3e 3b f6 16 3e e5 b2 3c be
       0.110550724 0.18503608 0.14742367 -0.18427618
0002d0 76 c9 8e be 51 fc 50 be b9 e5 38 be c3 b9 96 be
       -0.27888077 -0.20408751 -0.18056382 -0.294386
0002e0 e4 a1 33 3d 94 85 bc bd 25 76 a3 3e 5b 4f 96 bd
       0.043855563 -0.092051655 0.31926075 -0.073393546
0002f0 d9 95 52 3d 39 2a da 3e 26 3a b6 3c b3 3a 54 3e
       0.051412437 0.42610338 0.022244524 0.20725517

init_layer.0.bias f4 [64]
000000 fc b5 80 3e ec b8 dc bc 2d 47 92 3d a1 28 60 be
       0.25138843 -0.026943646 0.07142482 -0.21890499
000010 86 23 68 bb d7 51 f0 bb 19 54 10 3e ab 5d 28 3e
       -0.0035421564 -0.007333975 0.1409458 0.16441981
000020 33 67 e6 bd 48 0a 1d be 2a 25 77 3e 8a f4 ff 3d
       -0.112501524 -0.15335953 0.2413527 0.12497814
000030 4e 29 36 3e ce 8e 8b 3e 9e c4 8a bd c5 68 5f 3e
       0.17789194 0.2725739 -0.06775783 0.2181731
000040 29 20 83 3e 31 3d ec 3d 1e 2a 8e 3c 76 02 b1 3d
       0.25610474 0.11535109 0.017354067 0.086430475
000050 46 8d 0b 3e 70 37 26 bc 75 86 64 3e 4a a4 b0 3d
       0.1362811 -0.010145053 0.22316916 0.08625086
000060 f0 d8 d7 3d bb 3c 0a be 51 ad ee 3d 6a 1d 4f bd
       0.105394244 -0.1349973 0.11654151 -0.05056516
000070 13 24 8b be 9e 78 45 3e 94 4d f2 bd 26 64 cd bd
       -0.2717596 0.19284293 -0.11831203 -0.100288674
000080 5f 30 f5 bd 0b 1d 07 3e 21 be 19 3e ab ea 6e 3e
       -0.11972117 0.13194673 0.15013935 0.23331706
000090 11 08 41 be 7a 5e 02 be 40 a0 6e be c6 c1 2f bd
       -0.18850733 -0.12731352 -0.23303318 -0.042909406
0000a0 bf 3a 93 be 60 e4 d8 3c ef 32 46 be 38 53 91 bd
       -0.28755757 0.026476085 -0.19355367 -0.07095951
0000b0 fe 15 e6 3d 46 d5 0b 3d 8b c2 13 be 3a 98 48 bd
       0.112346634 0.03413894 -0.14429681 -0.0489733
0000c0 03 9e aa bd a9 9e 3f 3e ec 7b 1b be 7f 44 e0 bd
       -0.083309196 0.18712868 -0.15183991 -0.109505646
0000d0 70 80 e1 bd b7 2e 09 be 9c 6c 8f 3d 6e 0a d6 3d
       -0.11010826 -0.13396727 0.070031375 0.10451208
0000e0 6b a3 31 3e 67 20 02 3d 3c 0b 0f 3d 70 4b 4e be
       0.17347495 0.031769183 0.034922823 -0.20145965
0000f0 46 6a 42 3d ea df 46 bd 17 ec db 3d 10 92 e8 3c
       0.04746463 -0.048553385 0.1073839 0.02838996

hiden_layers.0.weight f4 [64, 64]
000000 e4 c4 79 be af cb 0e bc 69 2b 98 bd 94 c0 c3 3e
       -0.24391514 -0.008715554 -0.07430155 0.38232863
000010 61 ab a7 bd a7 cd 09 3b 97 51 fc 3d be cf 2e be
       -0.08186985 0.002102712 0.123202495 -0.17071435
000020 14 11 4d 3e 78 a0 7c 3d 2a 94 33 be 6b 40 9f 3d
       0.20026046 0.061676472 -0.17536989 0.077759586
000030 f1 20 6b be 52 32 09 3e 09 a6 0f 3e 05 54 b1 be
       -0.22961785 0.13398102 0.14028181 -0.34634414
000040 c6 a4 37 bd 6a 09 30 be 6a 1d d5 bd 18 e1 b1 be
       -0.044834875 -0.17191091 -0.10406001 -0.34742045
000050 7d 93 6b be d9 16 f4 3d 97 53 85 be 9e 00 ce be
       -0.23005481 0.1191842 -0.26040336 -0.40234846
000060 cf ed 14 3e 4c aa 55 3d 78 e6 ae bd 07 95 11 be
       0.14543842 0.05216436 -0.08540052 -0.14217006
000070 fd ae 36 bd 58 ed e4 bd 07 d1 4d be 93 46 8c 3d
       -0.044600476 -0.11178082 -0.20099269 0.068493985
000080 0e 2d 80 3d 1f 5b 8d be ca 3b 50 bd 7d cd 87 be
       0.062585935 -0.27608582 -0.05083827 -0.26523963
000090 47 2f f2 bb 6f 0b 0a bd 5d 5a 18 3f 7b 12 66 3e
       -0.00739089 -0.03370231 0.59512883 0.22467987
0000a0 1a e9 12 3e aa 05 3a be 65 16 a7 3e fd 25 3b 3d
       0.14346734 -0.18166223 0.32634273 0.045690525
0000b0 6c 75 3f be 4e 43 7a bd e8 68 5a 3e 6b 75 b5 bc
       -0.18697137 -0.061099343 0.21329081 -0.022150716
0000c0 c7 92 ab 3e fd 6e 28 be 35 91 0e be 65 f6 d9 3c
       0.3351042 -0.16448589 -0.1392258 0.026606748
0000d0 0f 74 49 3e b9 82 8b 3d f7 1b 87 3d 7a 52 88 3e
       0.19673179 0.06812043 0.06597131 0.26625425
0000e0 c1 3f 14 be 4a 9f 92 bc 74 e7 d4 bd 15 28 48 3e
       -0.14477445 -0.01789822 -0.10395709 0.1954654
0000f0 92 8d ff bd 2c 96 5e be db 84 7c 3c 22 d6 29 bd
       -0.12478174 -0.21736974 0.015412535 -0.04146398
000100 9d 50 f6 bc b5 76 54 be a8 ec d3 bd 31 79 db bc
       -0.030067736 -0.20748408 -0.10347873 -0.026791187
000110 ea 08 84 be 5f a6 51 be 30 f0 17 3e dc a5 48 be
       -0.2578805 -0.20473622 0.14837718 -0.1959452
000120 7f f5 c8 bd b0 cc f1 be 6d 6e b6 3e 94 3d 0f 3e
       -0.0981245 -0.47226477 0.35631123 0.13988334
000130 6f 4b 63 3e f0 27 89 3d 9a b7 cf 3c a0 b3 ba 3e
       0.22196744 0.066970706 0.025356103 0.36465168
000140 f1 90 23 3d f5 11 aa 3e 97 74 2c 3e 2d b5 c9 3d
       0.03993315 0.33216825 0.1684135 0.0984901
000150 8f 17 a0 3e 09 d1 ea bd e7 15 bd 3e b2 b4 80 3e
       0.31267974 -0.114656515 0.36930773 0.2513786
000160 89 60 f4 bd 81 65 81 bd 81 d1 5f 3e 62 a6 15 bd
       -0.11932475 -0.063181885 0.21857263 -0.03653563
000170 86 a1 e7 3d 16 99 09 3e 8c cb 1d be a7 0c ae be
       0.11310105 0.13437304 -0.15409678 -0.33994028
000180 90 73 36 be 0c c4 14 3e 71 99 2b 3f 2f fb f2 3e
       -0.17817521 0.14527911 0.6703101 0.47457263
000190 19 df 52 3e 5f 50 bf bd 80 08 9b be a4 df e7 3c
       0.20592918 -0.093415014 -0.30279922 0.028304882
0001a0 03 f6 a6 bd fd 26 f9 3d cd fa 05 bf 79 11 90 be
       -0.08152392 0.121656395 -0.52335817 -0.2813833
0001b0 8b 83 8a 3e e4 3e 8e be 0b 1c 00 be e4 0c 66 be
       0.27053484 -0.27782357 -0.12510698 -0.22465855
0001c0 58 88 0f be 30 b9 c0 bd e3 4b ec bd 65 eb a2 bd
       -0.14016855 -0.09410322 -0.11537912 -0.07955054
0001d0 34 16 a2 bc 02 8c b1 be 1f 44 90 3e 6f 4f c6 3d
       -0.019785978 -0.3467713 0.28176972 0.096831195
0001e0 2f 26 47 be 1f 52 46 be 41 74 32 be d0 99 25 be
       -0.1944816 -0.19367264 -0.1742716 -0.16171956
0001f0 60 8d 94 3e b4 a8 35 3e 70 7d 77 3e 66 d0 11 be
       0.2901411 0.17740136 0.24168944 -0.14239654
000200 54 2b e3 3d f4 c8 f4 bd 2b 20 53 3e 35 03 00 bd
       0.110922486 -0.11952391 0.2061774 -0.03125306
000210 8f 27 64 be 47 21 42 3d ae 7a 74 bd 03 25 66 be
       -0.22280715 0.047395017 -0.05968731 -0.22475056
000220 0f 48 b3 3d d4 be 06 bd e2 4c 78 bc ab 80 e4 3d
       0.087539785 -0.03289683 -0.015155049 0.11157354
000230 b8 79 0e 3e bd ea 5d be 01 eb 81 3e 34 1d 04 be
       0.1391362 -0.21671577 0.25374606 -0.12901765
000240 b3 76 01 be 84 68 7b be e2 8c 36 3d 53 40 67 bd
       -0.12642936 -0.24551588 0.04456795 -0.05645783
000250 f1 3b 25 bc be d4 2a be c6 cc 1d be 2d b8 84 bd
       -0.010085092 -0.16682717 -0.15410146 -0.06480441
000260 f4 87 23 3c f8 8e 27 be ea 17 44 bd c0 5f 91 3e
       0.009981144 -0.16363132 -0.04787437 0.28393364
000270 1f ad b8 bc ed 10 0c be a9 0d 99 3e e7 b2 6b 3e
       -0.022543488 -0.13678332 0.29893234 0.23017465
000280 2c b6 2f be f5 18 0a be 5d c6 38 3e 1e 17 49 3e
       -0.17159337 -0.13486083 0.1804442 0.19637725
000290 cc f8 92 bd 3c 58 9e bd 25 10 fa bc e7 50 21 3d
       -0.071763605 -0.07731673 -0.030525276 0.039383795
0002a0 8a 70 46 be ac 7c 61 bd 00 6f 49 3e 5c 5b 78 3e
       -0.19378868 -0.055050537 0.1967125 0.24253601
0002b0 2d 69 3f 3e 2c f3 b6 3d bc 26 4e 3c 54 0e 72 bd
       0.18692465 0.089331 0.012582477 -0.059095696
0002c0 6b de 8b bd 62 c8 ae 3d ce 5c 86 bd c6 97 1e 3d
       -0.06829532 0.08534314 -0.0656067 0.03871896
0002d0 61 df b4 3d 9e f0 53 3d cc a9 0f be 37 b9 d2 3c
       0.08831669 0.051743142 -0.14029616 0.025723083
0002e0 26 70 7d be c5 be 50 3e c5 1a 86 be ae 9f 33 be
       -0.24749812 0.20385273 -0.261923 -0.17541382
0002f0 e0 b1 61 3e 4e cc 0d be d5 e6 03 be db 43 04 3e
       0.2204051 -0.13847467 -0.12881024 0.1291651
000300 e9 dd f5 bd 7c 2a c8 bd bd d6 2d 3d 90 44 b3 3b
       -0.12005217 -0.09773728 0.04244112 0.00547082
000310 96 db 2e 3d bb 42 9e 3c 51 8d 16 be 16 37 90 be
       0.042689882 0.019318929 -0.14702345 -0.28167027
000320 26 b6 0d be 4f 1c 53 be 4a a8 7c bd 0c a5 ce 3d
       -0.13839015 -0.20616268 -0.06168393 0.10090074
000330 b6 78 84 be 47 d4 e5 be df c4 89 3e b6 c4 c2 bd
       -0.25873345 -0.44888517 0.26908013 -0.09510176
000340 bc 4c a4 be 2c 27 51 3e 5f 13 87 3e 65 97 6e bd
       -0.32089794 0.20425099 0.26381966 -0.05824985
000350 28 53 7a 3e 3e 6a f5 3c c5 3d 29 be 85 b7 7a be
       0.24445784 0.029957887 -0.1652747 -0.2448407
000360 28 ee b7 bb 62 d4 33 3e b7 51 48 be e6 d1 eb bd
       -0.0056131072 0.17561486 -0.19562422 -0.11514644
000370 29 64 7a 3e b0 e8 c3 be da 10 c4 bc cb 3f 0f bd
       0.2445227 -0.38263464 -0.023933817 -0.034972947
000380 c8 48 2f be 4d 95 c2 3c 2b 03 0a be e6 0f 0d 3b
       -0.17117608 0.023752833 -0.13477771 0.0021524369
000390 53 f4 63 3e 0a da 9b bc c8 45 fc 3c 5a 94 f6 bd
       0.22261171 -0.019024868 0.030794993 -0.120400146
0003a0 11 6e c4 3d 93 ea 81 3d d7 c9 43 3d 4b 00 f9 3d
       0.09591306 0.063435696 0.04779991 0.12158259
0003b0 7e 78 b8 3d 32 73 37 bd 43 23 e5 3d 7b 54 ea 3d
       0.09007357 -0.044787593 0.11188366 0.114418946
0003c0 5e 1b 30 3e 0e 0e 5c be aa 36 e4 3e 3a 69 24 3d
       0.1719794 -0.21489736 0.44572955 0.040139414
0003d0 fc c0 c8 bd 7d 27 2d 3e f9 61 83 3e 6b 0c d5 bc
       -0.09802434 0.16909595 0.25660685 -0.026006898
0003e0 b8 63 bd be 00 7c 89 be b9 94 07 be 4c 39 e6 3e
       -0.36990142 -0.26852417 -0.13240327 0.4496559
0003f0 f7 85 8e bd 9c d4 d4 bc 3b d6 90 bd 48 0c 31 be
       -0.069591455 -0.025980286 -0.07072111 -0.17289841

hiden_layers.0.bias f4 [64]
000000 e3 ad 2c be 7e 41 88 3e 45 22 31 bd 95 df 3d be
       -0.16863208 0.26612467 -0.043245573 -0.18542321
000010 f9 87 05 3d 2c 48 bf 3a 89 61 c4 3d 6b 3a 50 bd
       0.032600377 0.0014593652 0.09588916 -0.05083696
000020 c5 0f 20 3c eb c9 0c be 93 73 09 be 61 82 04 3e
       0.009769385 -0.137489 -0.13422994 0.1294036
000030 8c f0 a3 3d 80 26 bf bc 0e 55 68 bc 4c f0 d8 3d
       0.08004865 -0.023333788 -0.014180435 0.10592708
000040 bd 88 5e bd 69 a0 98 3c bc dd 9a 3d 72 16 59 be
       -0.054329623 0.018631177 0.07561824 -0.21199968
000050 ff 1b 58 be ca 97 90 3d 0a 96 d3 bc 16 b5 0f 3d
       -0.2110443 0.070602015 -0.02582838 0.035084806
000060 f1 cc ea 3d bd 72 91 3d 8b f3 7a bd 31 13 85 bd
       0.11464871 0.07101963 -0.061267417 -0.06497801
000070 a9 f9 e0 3d 95 0d d6 bc d1 5f 76 bd a7 67 72 3d
       0.10985119 -0.026129523 -0.06014997 0.05918088
000080 8c 0c 21 3d 37 f3 31 bd f3 20 01 be ca 56 9e bc
       0.039318606 -0.04344484 -0.12610225 -0.019328494
000090 53 cb 83 bd 21 68 1c 3d bd 95 24 be c5 a9 a3 bd
       -0.064352654 0.038185243 -0.16072746 -0.07991365
0000a0 cc 2c 85 be 9a 81 0d be 21 e5 cd 3d 91 43 df bd
       -0.2601074 -0.1381897 0.100534685 -0.10901559
0000b0 8b ca 70 3c 34 2d e2 3d 50 ca 67 3b a2 9b f2 3b
       0.0146967275 0.11043778 0.003536839 0.007403807
0000c0 c3 08 cc 3d 71 c9 6c bd a0 fc 77 3e 05 7a ba 3d
       0.09962609 -0.057809297 0.24217463 0.09105305
0000d0 b9 26 2e bd e9 3c a1 bd a9 5d 0f 3c 9d 2e 19 3d
       -0.042517398 -0.07872946 0.008750358 0.03739797
0000e0 35 76 ec bd 2e f0 65 3c ab 3d b9 bd dc 57 ba bd
       -0.11545984 0.014034314 -0.09044965 -0.09098789
0000f0 7d 41 65 be c5 7e 8f 3d bb 01 db bd f7 f6 0f 3d
       -0.22388263 0.07006601 -0.106936894 0.035147633

hiden_layers.1.weight f4 [64, 64]
000000 d8 ad 03 bd bb 71 7d 3d 8c 20 88 be 54 fd 4f 3d
       -0.032148212 0.06187604 -0.2658733 0.050778702
000010 81 4a 96 be c5 cf 4d 3e 07 9d c7 bd 5b 82 19 be
       -0.29353717 0.20098789 -0.097467475 -0.14991133
000020 3b 70 0d 3d ae 7d ad 3c 53 7a 9e bc 4f ef 0d be
       0.03453086 0.021178093 -0.019345438 -0.1386082
000030 e1 38 dc 3d a9 67 58 3b 5f a9 aa bd 2a 7d 9e bd
       0.10753036 0.003302077 -0.08333086 -0.07738717
000040 4d bd 5a bb 6b 52 5a 3e 5b d9 1a 3d eb 2f e2 3d
       -0.0033376992 0.21320502 0.037804943 0.11044296
000050 c2 5d 5e 3e f7 1d b1 bd 0f 27 be 3d d2 56 d7 bd
       0.21715453 -0.086482935 0.092847936 -0.105146065
000060 1d 88 92 bd 5e cc 65 be 65 d3 cc bd 12 88 49 3e
       -0.07154868 -0.22441241 -0.10001258 0.19680813
000070 d5 53 47 3c 18 cd 0a bd 54 73 ee bd ba 26 60 3d
       0.012165983 -0.033887 -0.11643091 0.054724433
000080 30 5b a6 be 11 05 76 3e 6d bb 31 be d1 9a 48 be
       -0.32491446 0.2402537 -0.17356654 -0.19590308
000090 a5 99 9f bd e0 09 c5 ba f5 03 16 bd bd 48 03 3e
       -0.07792977 -0.001503285 -0.036624867 0.12820716
0000a0 fa 4e ad 3d 05 90 3a 3e af 50 23 be 1a 82 3a 3e
       0.08462329 0.18219002 -0.15948747 0.18213692
0000b0 91 97 72 3e cd 00 72 3d b6 0d 29 3e aa 0f 3b be
       0.2369063 0.059082795 0.16509137 -0.18267694
0000c0 fb 81 a8 3c 7b d0 27 be d3 d6 04 be b6 84 00 3e
       0.020569792 -0.16388123 -0.12972574 0.12550625
0000d0 01 bb df bd 3e 8b 3c 3c 41 4d 54 3a 90 20 6b be
       -0.1092434 0.011507807 0.000809867 -0.2296164
0000e0 7a c9 64 3e da a6 0c be 67 a3 5c be 9f 11 c2 3d
       0.22342482 -0.13735524 -0.21546708 0.09476017
0000f0 f0 9f 51 3d 08 61 69 3d 45 d8 82 3d c6 43 29 be
       0.05117792 0.0569773 0.063889064 -0.1652976
000100 75 bb 51 3e b0 b2 8e 3b f5 7b 16 be 91 40 cb bd
       0.20481665 0.0043547973 -0.14695723 -0.099244244
000110 e8 25 fd bd 29 00 c5 bd d2 0d a2 bd b0 f3 80 be
       -0.12360746 -0.09619171 -0.07912792 -0.2518592
000120 e7 84 07 3e a2 eb be be 73 e4 a5 3d 03 52 52 3e
       0.13234292 -0.3728915 0.08100214 0.20539097
000130 bf f8 59 3c eb 72 ff bc f7 bf c0 bd 54 e9 75 bd
       0.013303935 -0.031182727 -0.094116144 -0.060036972
000140 d2 33 3d 3d 89 18 1f be e8 da 42 3e 6d 9d 80 be
       0.046191998 -0.15536703 0.19028819 -0.25120106
000150 f2 5f 2a 3d 6c 67 a5 3d 9f 7b 5b be 0f 4e c6 3d
       0.041595407 0.08076367 -0.21433876 0.09682857
000160 f1 b8 99 bd 50 9d 99 3d 29 bf 13 3d f3 de 8e bc
       -0.07505978 0.07500708 0.036070976 -0.017440295
000170 b3 d7 8f bd 9c d1 2b 3e 52 1e 95 3c 25 56 ea 3d
       -0.07023563 0.16779178 0.018202934 0.11442212
000180 46 3a 3a 3e fb 35 39 3e f3 e8 10 be 21 80 7c be
       0.18186292 0.18086998 -0.14151363 -0.24658252
000190 34 fd ae be 64 cd 22 bd ba 4d 7d bd be 09 9c be
       -0.34177554 -0.039746657 -0.061841704 -0.30476183
0001a0 9c 6b 16 bf e6 d5 b6 bd b8 8d 84 3d 33 35 60 be
       -0.5875795 -0.08927517 0.06472343 -0.21895294
0001b0 c9 bc 13 bd 48 42 0d 3e 70 c2 20 3e 1d b0 bc be
       -0.03606871 0.13794816 0.15699172 -0.36853114
0001c0 78 19 d6 3d c2 c5 52 3e 48 6f 3e be 3a 26 66 3c
       0.104540765 0.20583251 -0.18597138 0.0140472
0001d0 bf e5 6f bd 28 15 fa 3d 25 bb 8f 3e 8f 1e 46 3e
       -0.058568712 0.122110665 0.28072467 0.19347595
0001e0 be 9d 12 bd f8 98 81 3e 72 78 49 3c e6 88 e1 3d
       -0.035794966 0.25312018 0.012296783 0.110124394
0001f0 d9 e2 b7 3d 6b bd d5 bd a3 e2 4e bd 4a cb 65 3d
       0.08978815 -0.10436519 -0.050509106 0.056102075
000200 33 31 c0 3d e3 16 a3 3e be 88 36 3d b1 df b8 3d
       0.09384384 0.318534 0.044564 0.09027041
000210 9b e7 50 3d 53 37 44 3e 10 4a 04 be 62 2a 2e 3e
       0.051002126 0.1916173 -0.12918878 0.17008355
000220 78 06 41 3e ab bf 0b bd 4e 93 51 be a9 42 fa bb
       0.18850124 -0.034118336 -0.20466349 -0.007637341
000230 d7 b9 07 3e 94 df 4b bd 5a 11 2d 3e f5 cf a7 3d
       0.13254486 -0.049773768 0.1690115 0.081939615
000240 bf 5e 50 be 3c 8d 1e bd c9 9b 25 3d 7c 43 aa bc
       -0.20348643 -0.03870891 0.04043177 -0.020784132
000250 35 9e 01 be ca 47 0a be 3f d6 c2 bd 39 29 60 be
       -0.12658007 -0.13503948 -0.095135204 -0.21890725
000260 e7 54 2d 3d 85 df 34 3e c2 05 a9 be d7 8a 2c be
       0.042317297 0.17663391 -0.33012205 -0.16849838
000270 c4 f6 2f 3e 8b 11 c7 3c 46 6b 35 3e a8 57 44 3e
       0.17183977 0.024300357 0.17716703 0.19174063
000280 a3 5a 8d 3d 54 85 49 be 93 51 2a be 92 2d eb bd
       0.06902053 -0.19679767 -0.1663268 -0.11483301
000290 74 70 87 bd 6c 33 78 be 91 91 a4 bd 0b ee c9 bd
       -0.066132456 -0.24238366 -0.08035577 -0.09859856
0002a0 6d 35 3e be 94 69 61 be c0 8f 4e be 34 31 d5 bd
       -0.18575068 -0.22012931 -0.20172024 -0.104097754
0002b0 74 ae d0 3d 2a 04 a6 3d 6b 8a eb bd b1 45 10 bb
       0.10189524 0.08106263 -0.115010105 -0.0022014196
0002c0 b1 92 80 3d f8 7a 9e bd ce 39 2c bc ff b3 65 be
       0.06277979 -0.07738298 -0.010511829 -0.22431944
0002d0 6f a3 9b 3b b0 73 0f be c5 99 c2 3d 34 c4 e5 ba
       0.0047497074 -0.14008975 0.095019855 -0.0017529787
0002e0 54 c6 f8 bd b2 47 41 3e 53 51 51 be 1f ed 48 3d
       -0.12147203 0.18875006 -0.20441179 0.04905426
0002f0 d6 98 d5 bd e0 be 90 3d ca 50 4b 3c e2 2f 19 3c
       -0.10429542 0.070676565 0.012409398 0.009349795
000300 33 92 31 3e 4b cb 29 bd 75 91 1f be 8d aa 1e 3e
       0.17340927 -0.04145364 -0.15582831 0.15494747
000310 04 a2 9d 3e 82 ea 62 be f6 67 81 bd c4 4b dc bd
       0.3078767 -0.2215977 -0.06318657 -0.10756639
000320 9e d4 73 bd 9d 00 74 ba df b4 f9 bd a0 a4 90 3e
       -0.05952894 -0.0009307953 -0.121927015 0.282506
000330 a0 d3 91 3e 9d 13 25 3e 0f 72 1f 3d 06 98 0d 3e
       0.2848177 0.16120763 0.038927134 0.13827524
000340 51 67 3c bd 6e 3a 14 be 9e 52 b8 3d 71 dd 23 3e
       -0.045996968 -0.14475414 0.09000133 0.16002442
000350 85 c7 f4 3b 01 fe 3c be 00 4e c4 3d 9b db 81 3d
       0.0074700736 -0.1845627 0.0958519 0.063407145
000360 ee 30 4d 3e d5 9f c7 3d 52 55 38 bc 74 dd 88 bd
       0.20038196 0.097472824 -0.011250811 -0.06682864
000370 8e 28 23 3e 22 06 71 3e 5f 15 19 3e 22 c3 4a 3e
       0.15933439 0.23537496 0.14949559 0.19801
000380 f5 38 88 3e 93 bb 86 bd dd 86 f2 bd 30 99 68 3d
       0.26605955 -0.06578746 -0.118421294 0.056786716
000390 64 3b 4b 3d 26 cf 07 3d 3d a2 06 3e 93 ea 5d 3e
       0.049617186 0.033156537 0.13147826 0.21671514
0003a0 75 2d 3f 3e e1 03 50 bd cc fe 3b 3e 4d bd 8d 3d
       0.18669684 -0.05078495 0.18358916 0.06920872
0003b0 34 ef 0a be 2f 06 f8 bd ed 2a 48 be ad 37 8e bd
       -0.13567811 -0.121105544 -0.19547625 -0.06944213
0003c0 64 4e 0f 3d df 36 92 3d 29 b1 20 be c4 09 d0 3d
       0.03498687 0.07139372 -0.15692581 0.10158113
0003d0 c8 72 35 3e da c6 92 bd ed f7 a5 be 8c a2 3b bc
       0.17719567 -0.07166834 -0.32415715 -0.011452328
0003e0 cf d4 25 be 9f 77 91 bd 39 4b 0f 3e 2c e3 ea 3c
       -0.16194461 -0.07102894 0.13993539 0.028672777
0003f0 91 e6 2e be 2d d5 49 3e 33 45 17 3d 2a 4d 3d be
       -0.17080142 0.19710226 0.036931228 -0.18486467

hiden_layers.1.bias f4 [64]
000000 03 41 2c bc 5d e6 da bc 89 d4 05 3d ae 9f 30 3d
       -0.010513547 -0.026721174 0.032673392 0.043121032
000010 cb e7 8f bd b2 a0 af 3d ee bb de bc a5 86 71 bd
       -0.07026633 0.08575572 -0.027189221 -0.058966298
000020 58 88 b8 bd ca 85 81 bc e7 34 8a bc c8 01 60 bd
       -0.090103805 -0.015810866 -0.016870929 -0.0546892
000030 44 b6 06 be 96 c0 15 bc a4 53 ae bc 3f 22 f0 bc
       -0.13155466 -0.009140154 -0.021280117 -0.029313205
000040 e9 42 81 bd 3b 93 63 bc d9 f2 15 3d a6 f1 b6 bd
       -0.0631159 -0.013890083 0.03660855 -0.089328095
000050 99 58 51 bd 29 2d bd 3d a1 37 c1 3d 95 de 07 bd
       -0.051109884 0.09237129 0.094344385 -0.033171255
000060 5c bc 9e bd 19 38 b2 3d f0 10 93 3d 93 b1 49 3d
       -0.077507704 0.08702106 0.07180965 0.049241614
000070 2c 64 31 bd a6 05 72 3d fd ea cc bc ab 0e d1 3a
       -0.043308422 0.059087418 -0.025014395 0.0015949806
000080 6e 24 5f bd 24 10 1f be db 9d 52 3d af 72 d1 bb
       -0.0544781 -0.15533501 0.051420074 -0.006391845
000090 35 7b 6e bc d9 b5 08 be 60 d6 91 bd 2a dd dd bd
       -0.014555742 -0.1335062 -0.07120967 -0.10833199
0000a0 d7 6e 1a 3d 28 fc 90 bd 96 3a 94 bd 4d e6 3f bb
       0.03770336 -0.07079345 -0.07237737 -0.0029281557
0000b0 01 36 d8 3a e3 7d 9f bd d7 f0 40 bd 62 f6 74 bc
       0.0016495587 -0.07787683 -0.047104683 -0.01495132
0000c0 2a 6c 12 3d 6e fe ac bc 3d aa f6 3c 8c ed fe 3c
       0.035747685 -0.021117415 0.030110473 0.03111913
0000d0 14 ed f5 bd 50 e3 c4 bc 04 92 88 bd 49 78 86 bd
       -0.1200811 -0.024034172 -0.06668475 -0.06565911
0000e0 2e a7 58 bc ef 59 14 be ec 5e 70 3d 9f 47 5d 3d
       -0.0132234525 -0.14487432 0.058684275 0.05402338
0000f0 f3 9f 15 3d 58 15 12 be 69 b2 a3 bb d9 ad 23 bd
       0.036529493 -0.14265954 -0.0049956334 -0.039960716

hiden_layers.2.weight f4 [64, 64]
000000 79 0a a6 bc 69 99 76 bd bc 0e 2e be d2 d2 4c be
       -0.020268666 -0.060204897 -0.16997808 -0.20002297
000010 92 67 7b 3e ff fa 5c bf 48 97 00 bd 91 78 89 bd
       0.24551228 -0.8632049 -0.031394273 -0.06712449
000020 5d d7 df bd 7d b6 39 be bd 1b 8e bd 25 33 50 3e
       -0.10929749 -0.1813602 -0.069388844 0.2033201
000030 a1 c2 bd 3c ba e1 a5 3f e9 dd 20 be b6 c0 3f 3e
       0.023164095 1.2959511 -0.15709652 0.18725857
000040 07 1c 9d 3e 2b 74 09 3c 44 81 07 be d1 cd 8d be
       0.30685446 0.008389513 -0.13232905 -0.27696088
000050 00 24 72 3e cf 0f 14 bf 54 23 f1 be ef 92 1c 3e
       0.23646545 -0.5783662 -0.47097266 0.15290426
000060 a5 09 0c 3f 17 59 9b be b8 3d 88 be 59 a0 e7 bd
       0.54702216 -0.30341408 -0.26609588 -0.11309881
000070 11 de be 3d 98 28 80 be 20 ca af 3e 2f ee f2 3e
       0.093196996 -0.2503097 0.34333897 0.47447345
000080 4c d3 b3 bd a2 01 5f 3e f3 c5 d2 be ef bd 82 be
       -0.08780536 0.21777967 -0.41166648 -0.25535533
000090 26 c3 77 3e e8 50 ed 3e 94 4b 9e 3e 53 89 79 bc
       0.24195537 0.4635079 0.30917037 -0.015230495
0000a0 b6 45 99 bd 17 05 0b 3d 86 29 64 3e b2 10 9a bd
       -0.074839994 0.0339404 0.22281465 -0.07522716
0000b0 a2 35 3b 3d 37 cf 7b bd 7a 26 2f 3d 1b 4b 47 3e
       0.045705445 -0.061476912 0.042761303 0.19462244
0000c0 33 f0 f4 3d 2d ed ed 3d 73 69 02 be 57 1d 9e be
       0.11959877 0.11617503 -0.12735538 -0.3088176
0000d0 6a 3d 9b be 08 13 2f 3e c4 9c c8 3e cc d5 6a 3e
       -0.30320293 0.17097104 0.39182103 0.2293312
0000e0 69 5f 11 be ec 48 bc 3e bb e6 c6 3d 76 f5 39 be
       -0.14196552 0.36774385 0.09711977 -0.18160042
0000f0 76 cf 4d be 82 c6 42 3f 79 7c 1b 3e 45 2d 39 3e
       -0.20098671 0.7608415 0.15184201 0.18083675
000100 6c 27 30 3e 00 9d 35 bd 49 5a 9c 3e 64 c7 93 3e
       0.17202538 -0.04433918 0.30537632 0.2886306
000110 62 dd bc be d8 0a e1 3e ea 56 91 3e 45 e5 b1 3e
       -0.36887652 0.43953586 0.28386623 0.3474523
000120 b3 62 74 3e 92 5e 62 be 98 4e 12 3f 96 b1 33 3b
       0.23865776 -0.22106388 0.57151175 0.0027419082
000130 07 8d 30 3a da 96 96 be 67 24 9e be e1 bf 49 3e
       0.0006734882 -0.29411966 -0.30887148 0.19702102
000140 b3 cc 0d bf 95 08 2d bd 92 86 39 be 8f e7 1d bf
       -0.5539047 -0.042244513 -0.18117741 -0.61681455
000150 8e 16 4f 3e 61 46 f5 3d f4 bf 51 3e 4e 06 9f bd
       0.20223448 0.11976314 0.2048338 -0.077648744
000160 9c d9 f1 bd 5c 53 90 3d 12 da 9a 3e 75 88 36 bd
       -0.11809084 0.070471495 0.302445 -0.04456373
000170 9d 36 97 bd d5 e4 8d 3d d7 b1 d9 bd 2c 46 09 bf
       -0.073834635 0.06928412 -0.106296234 -0.536227
000180 51 68 e2 bd 9c f4 80 3e 3e ac 91 3d 03 54 95 3d
       -0.11055053 0.25186622 0.07112931 0.072914146
000190 0a 4b b4 3e c6 3b 19 bf b6 97 b3 3e db 49 66 be
       0.352135 -0.5985683 0.35076684 -0.22489111
0001a0 0a 83 7f 3e c5 0c 40 be 70 4f dd 3d a3 1b f0 bc
       0.24952331 -0.18754871 0.10806167 -0.029310053
0001b0 af f2 6e bc 8a 5a 71 3d fb 32 91 be 22 70 c2 3e
       -0.014584227 0.058924235 -0.28359208 0.37976176
0001c0 80 80 cb be 8e b1 92 3e f3 e8 20 3c 3e ff b6 be
       -0.39746475 0.28651088 0.009821164 -0.3574161
0001d0 86 6e 76 bd 52 23 e6 3d ae 5b 3e bf 12 98 c1 be
       -0.060163997 0.112372056 -0.7435864 -0.37811333
0001e0 08 51 2d 3e 58 82 83 bd d8 28 53 be 4d 9c f5 3e
       0.16925442 -0.064213455 -0.2062105 0.4797081
0001f0 b4 9e 06 bd a0 69 22 3e e0 98 be 3e d7 49 32 be
       -0.032866195 0.15860605 0.3722601 -0.1741098
000200 cf 72 13 3e 25 fe e5 bd 61 59 3c be 15 d7 12 be
       0.14399265 -0.11230115 -0.1839347 -0.1433986
000210 ba 1e a6 3e e5 a0 52 3e 8f 1f 02 3e d4 ea 24 be
       0.32445318 0.20569189 0.12707351 -0.16105205
000220 c9 20 c9 be 90 3a f8 3e 17 6f 89 bd 62 da 4a 3e
       -0.39282826 0.4848218 -0.06710642 0.19809869
000230 04 e5 89 3e b8 6f 35 bd 7a 03 c8 bd 9f fe e7 3d
       0.26932538 -0.044295996 -0.09766288 0.11327862
000240 57 71 23 bd 5c 18 7b be 77 64 86 3e 51 fb fd 3b
       -0.03990301 -0.24521011 0.26248524 0.0077509065
000250 d6 66 86 be eb df 77 3e f4 d5 28 3e 6d 4e 80 be
       -0.26250333 0.24206512 0.16487867 -0.25059834
000260 a3 e2 17 be f9 1e 8b be e6 69 d9 bd 01 dd d8 3d
       -0.14832549 -0.27172068 -0.10615902 0.10589028
000270 1a 09 5c 3e 82 b8 96 3e e1 66 41 3d 2d be 30 3e
       0.21487847 0.29437643 0.047217254 0.17260046
000280 a4 2a f9 bc 62 77 a0 be 42 5c b1 3a 33 69 32 3e
       -0.03041584 -0.31341082 0.0013531523 0.17422943
000290 79 67 82 3e a4 1c 10 be e9 a2 91 3d bd 31 22 3f
       0.25469568 -0.14073426 0.07111151 0.63357145
0002a0 59 8b 8f 3d 5a c6 56 3b 31 4b b0 bd a6 9d 01 3e
       0.07009 0.0032772035 -0.086080916 0.12657794
0002b0 79 11 9f 3e c8 02 25 3e 47 62 31 bb 3a 2e 17 be
       0.31068018 0.16114342 -0.0027066635 -0.14763728
0002c0 aa f7 33 3e f7 bd c7 3c 10 cf 36 be 13 28 85 3e
       0.17574945 0.024382574 -0.17852426 0.26007137
0002d0 29 56 7f be 11 b5 00 3d 08 f7 51 3e c8 a1 66 bd
       -0.24935211 0.03142268 0.20504391 -0.05630663
0002e0 6c 24 a4 be 9e de 43 bd 83 eb 43 be 2f 5c 20 be
       -0.32059038 -0.047819726 -0.1913281 -0.15660165
0002f0 d1 fb 01 3d c6 ab 48 be 56 8b fb 3d 78 2e 29 3e
       0.03173429 -0.19596776 0.122824356 0.16521633
000300 b0 f5 58 bd 45 76 47 be b2 5b 05 bd 71 4a 90 3e
       -0.05296868 -0.1947871 -0.03255815 0.28181794
000310 1a 98 6c be 3f 0e 95 bd e2 d5 a9 3c 36 d5 51 be
       -0.23104897 -0.07278108 0.02073187 -0.2049149
000320 4b 93 c3 bc 6b cb 8b 3e f2 8f 2f 3e e7 6d a7 be
       -0.023873946 0.27303633 0.17144755 -0.32701036
000330 8a 60 26 3d de 21 e3 3c 83 41 76 bd a7 78 4d 3d
       0.04061941 0.02772611 -0.06012107 0.05016389
000340 c7 0e 89 3d 2f 83 b6 be fe 49 a9 bd 87 96 11 3d
       0.06692272 -0.3564696 -0.08266066 0.035543945
000350 ce 4e ab be 02 d4 af 3c f6 d7 34 3e 7c 86 42 bd
       -0.3345856 0.021463398 0.17660508 -0.047491536
000360 1e e6 7a bd 44 8d 39 3d 9b 73 0a 3e 7d 84 3b 3e
       -0.061254613 0.045300737 0.13520662 0.18312259
000370 4b 7c 8f bd 6e 1c 46 3e f3 79 9e bd d8 9b 60 be
       -0.07006129 0.19346783 -0.07738104 -0.2193445
000380 21 53 82 be 80 66 3f be e5 ad 87 3e ca 73 82 3e
       -0.25454047 -0.18691444 0.26499858 0.25478965
000390 b9 d6 52 3c 3d bd 2c 3d 09 05 0c ba df 0d cf bd
       0.012868577 0.04217266 -0.00053413265 -0.101100676
0003a0 75 95 4f 3e 2e 16 97 be d2 64 1f bc de 15 90 3d
       0.20271857 -0.2950911 -0.009728627 0.07035421
0003b0 02 15 d3 3d 79 bf 4a bd ad 70 3f be 73 eb 6b bd
       0.10306741 -0.04949901 -0.18695326 -0.05759759
0003c0 c9 03 19 3e 17 a2 09 3d 30 6e 4b 3e 58 82 41 be
       0.1494285 0.033601847 0.19866252 -0.18897378
0003d0 4d b5 bb bd e9 42 58 be 56 b8 43 3d 15 ba c0 bc
       -0.0916544 -0.21119274 0.04778322 -0.02352623
0003e0 43 51 5e 3e 55 a5 36 be 03 cb f5 bd 6a 73 7e 3e
       0.21710686 -0.17836507 -0.12001612 0.24848714
0003f0 d6 93 ac 3d 64 ca 50 be 4b a8 8a 3e 65 a2 b2 3c
       0.08426635 -0.20389706 0.27081522 0.021805951

hiden_layers.2.bias f4 [64]
000000 4a 18 ca bd cd c5 ee bc 01 9d 7d 3e 20 e0 35 3d
       -0.09867914 -0.029147053 0.24766923 0.044403195
000010 43 73 c0 3b 22 0d c8 bd 31 7a 3d bb f5 3c 13 bc
       0.0058731153 -0.0976813 -0.0028911943 -0.008986701
000020 5c bc 43 3d ce ad f9 bc ea 27 ae 3c 40 b0 60 bd
       0.047787055 -0.030478384 0.021259267 -0.054855585
000030 db 9c c5 3c 6a a1 57 3c 56 e4 0e 3d 6a 23 bc 3c
       0.024122646 0.013161043 0.034885727 0.022966105
000040 70 dd 2d 3c a8 4e cf bd c1 ad a4 3d 3b 7b 13 bc
       0.010611877 -0.10122424 0.080409534 -0.009001548
000050 55 a3 3e 3c cb f9 15 bd b6 e2 06 3d ae af 0e 3d
       0.011635621 -0.036615174 0.032931052 0.03483551
000060 58 bb 47 bc c4 cd ae bd d7 d3 0d 3d 46 59 bf bd
       -0.012190662 -0.085353404 0.034625854 -0.093431994
000070 10 d2 b4 bd 72 bc 53 3d ff 25 74 3d ee 52 d1 3c
       -0.08829129 0.051693387 0.05960655 0.02555224
000080 20 23 01 3e 80 c4 02 39 fb 03 3c bd ff fa 7a 3c
       0.12611055 0.00012470968 -0.045902234 0.015318631
000090 32 d1 2d 3d e8 1a a0 3c 39 e8 11 3e 74 e4 97 3d
       0.042435832 0.01954408 0.14248742 0.07416621
0000a0 ef fa 95 3d be d8 ec 3c 46 48 01 3d c5 31 38 bd
       0.073232524 0.028911944 0.031563066 -0.04496934
0000b0 c7 c1 de 3d cd 7f fa 3c d2 45 24 bc a1 bd ec bc
       0.10876804 0.030578518 -0.010026412 -0.028899016
0000c0 1f 54 81 3b 04 46 4e bd 78 9a c9 3b bd b7 b8 bd
       0.0039467956 -0.05035974 0.0061524473 -0.0901942
0000d0 7f b4 9b 3c ab b1 8e 38 34 0b 85 bd 09 0d ee bc
       0.019006966 6.804181e-05 -0.064962775 -0.02905895
0000e0 1f 34 17 3d 9c 0b e0 bc 41 75 76 be e6 83 33 bd
       0.03691494 -0.027349286 -0.24068166 -0.04382696
0000f0 ce 8a 68 bd 97 1c 9f bc 2f c5 26 bd 8e 7f 27 3d
       -0.056773 -0.019422812 -0.040715393 0.04089313

hiden_layers.3.weight f4 [64, 64]
000000 d0 94 77 bd ac 5b 5b 3e 51 4e 54 3c da 1d 4a 3e
       -0.060444653 0.21421689 0.012958125 0.1973795
000010 5f ef 29 b9 17 65 43 3e 22 a0 d4 bc 45 36 ce be
       -0.00016206269 0.19081531 -0.025955264 -0.4027578
000020 ce 74 a5 3d 46 05 db 3d cd 34 c2 3d 9d e7 7d bc
       0.08078919 0.10694365 0.09482727 -0.015497115
000030 e4 ca bc 3d 4c fe 99 be 2b be 9c 3e 67 cc a7 bd
       0.09218386 -0.30076826 0.30613837 -0.081932835
000040 27 c6 58 be 37 85 d8 bd 06 7b 43 3d fd d1 d1 bd
       -0.21169339 -0.10572284 0.047724746 -0.1024513
000050 55 df 59 3e 7a 10 1b be d2 ed c3 3e d4 cb 38 3e
       0.212766 -0.15143004 0.3826738 0.18046504
000060 c4 f9 11 3e be 2f 31 3e 01 a8 20 3d 37 23 71 3d
       0.14255434 0.17303368 0.03922272 0.058871474
000070 d6 7d 27 3e e1 7e 1d 3e fd 16 bc bd cd 25 a1 3e
       0.16356596 0.15380432 -0.09184072 0.31474152
000080 b1 eb 10 3e 19 09 08 3d a3 8a be bd bc 13 63 3c
       0.14152409 0.0332118 -0.093037866 0.0138596855
000090 ce 3d 89 3d 9b e7 fd 3d 98 a0 bc bd a5 06 de bc
       0.067012414 0.12397691 -0.09210318 -0.027102778
0000a0 b9 73 99 3b e5 cf 01 3d 63 61 36 be 78 72 12 be
       0.0046829847 0.031692404 -0.17810588 -0.14301479
0000b0 7f 50 a3 3d bb 92 3f 3e c0 d5 56 bd b1 c4 98 bd
       0.07974338 0.18708317 -0.05244994 -0.07459391
0000c0 43 ad 54 3e 6a 36 2a be d1 b8 5b be 1e 84 2f be
       0.20769219 -0.1662232 -0.2145722 -0.17140242
0000d0 ed 7d 48 3e 4f 7c 57 3e 34 75 7c 3e e8 fe 24 be
       0.19579287 0.21043514 0.24654084 -0.16112864
0000e0 3d 83 26 3e 54 76 2e 3e 1f e8 76 bd 91 31 10 3e
       0.16261001 0.17037326 -0.06027996 0.14081408
0000f0 17 12 3d 3e 62 0d 1d 3e 0b 7e 68 bd 23 bd 8a 3e
       0.18463932 0.15337136 -0.05676083 0.27097425
000100 bb 6a e2 bd 27 36 50 bd de 44 43 bd df c0 8f 3d
       -0.110555135 -0.050832894 -0.0476731 0.07019209
000110 48 14 18 3c cd a9 0b 3e e6 d5 ad be 84 2e 02 3e
       0.009282179 0.13638993 -0.33952254 0.12713057
000120 5f 6d 32 be d0 a5 59 be de c2 b9 3e ed 6b 34 3d
       -0.17424534 -0.21254659 0.36281484 0.04404824
000130 ba ee 38 3e fd 37 28 3d ae d4 74 bd 73 36 29 3e
       0.18059817 0.04106902 -0.05977314 0.16524677
000140 33 d9 26 3e 7a e0 6e bd 3a 3b 51 3e fe a8 4a 3e
       0.16293792 -0.058319546 0.2043275 0.19791028
000150 e9 3e 4e 3e 64 f7 9d bd 8c 0b dc bd cc 37 7e 3e
       0.20141186 -0.07713202 -0.1074439 0.24825972
000160 bf 52 34 be 14 20 a0 3d a6 95 73 3e 59 84 37 be
       -0.1760969 0.078186184 0.23787555 -0.1792158
000170 50 9a 32 3e 10 38 0a bd 2e 27 36 be 25 89 bc 3d
       0.17441678 -0.03374487 -0.17788383 0.09205846
000180 68 47 8b 3e 2c 23 0e be 7d 29 4f 3e 9e 0d 0f 3e
       0.27202916 -0.13880605 0.2023067 0.13970038
000190 68 9f 5b bd 4b dd 35 be 31 19 25 be b8 97 d1 3d
       -0.05361882 -0.17760198 -0.16122891 0.10234016
0001a0 22 b8 7c 3d 5d 72 00 3d 23 2a 1f 3d 39 94 db 3e
       0.06169904 0.031359065 0.038858544 0.42886522
0001b0 26 36 d6 3b 9a fc 87 3d 84 03 f0 3d 72 b6 f0 bc
       0.0065372167 0.06639977 0.117194206 -0.029383872
0001c0 ab 81 22 3e 44 5b 61 be 8d d0 28 bd 8c dc 2e 3e
       0.15869777 -0.22007471 -0.041214515 0.1707632
0001d0 ea 29 14 3e f8 46 c7 bd 7a 20 19 be 19 8a 10 3e
       0.14469114 -0.09730333 -0.14953795 0.1411518
0001e0 43 4d e2 3d 3b ed fd bd 31 b2 31 3e 46 e5 b3 3d
       0.11049893 -0.12398764 0.17353131 0.08783965
0001f0 75 bc 38 3d af dd 28 3e 3b ba 84 3c a5 2e 06 3e
       0.0451016 0.16490816 0.016202083 0.13103731
000200 f3 6e 85 3e 9c e4 86 3e 68 99 03 bf 79 ba 1e bd
       0.2606121 0.2634629 -0.51405954 -0.038752053
000210 e9 4b 92 be df 22 21 3e 09 a4 d6 3c 11 bd 16 be
       -0.2857354 0.15735959 0.026201265 -0.1472056
000220 2c ea c7 3c ef d9 db bd fc 75 02 be f9 6f c1 3b
       0.024403654 -0.10734927 -0.1274032 0.0059032408
000230 a6 69 2d be 39 34 0f 3e b7 1b 5f 3d f7 2e 93 3e
       -0.16934833 0.13984765 0.05446979 0.2874677
000240 a7 84 60 bc 16 81 70 3e a1 94 71 be f9 3e fd bd
       -0.013703502 0.23486742 -0.23591854 -0.12365527
000250 da ca 8f bd 43 f7 db bc d3 bc 23 be 8e 89 af 3e
       -0.07021113 -0.026851302 -0.1599 0.34284633
000260 12 cd 04 3d 30 ae 57 3d ae 27 2e be fe b2 9e 3e
       0.032422133 0.052656353 -0.17007324 0.30995935
000270 b0 b4 12 3e 22 c0 27 be 81 64 70 bc b5 2d e9 bd
       0.1432674 -0.16381887 -0.0146723995 -0.11385671
000280 d5 45 0a be e9 c8 47 bd ab de 64 3e 3b c4 30 3d
       -0.13503201 -0.048775587 0.22350566 0.04315589
000290 ce 39 26 bd 12 12 11 3c 34 70 86 bd 9c 01 02 3e
       -0.04058247 0.008854406 -0.0656437 0.12695926
0002a0 be e1 09 3e 32 2c 84 be 7a a7 e6 bd b4 12 07 bd
       0.1346502 -0.25814968 -0.11262412 -0.03297682
0002b0 8a e1 06 be ee 6e 3e be 7a b7 f9 bb cc 89 3f be
       -0.13171974 -0.18597004 -0.007620749 -0.18704909
0002c0 14 eb 53 be 71 61 90 be 3b 2c 0c 3e bd 84 18 3e
       -0.20695144 -0.28199342 0.13688748 0.14894386
0002d0 da 79 11 bd fe 49 2f bd 8f be 60 be 8b d8 33 be
       -0.035516597 -0.042795174 -0.21947692 -0.17563073
0002e0 15 e6 b4 be 34 22 70 bd e4 c7 91 3e 9a 34 6b 3e
       -0.3533179 -0.05862637 0.28472817 0.22969285
0002f0 13 54 10 3e ea e1 06 be 5c 61 2e 3e 2e 3a 97 3d
       0.14094572 -0.13172117 0.17029327 0.07384144
000300 82 13 bb 3d 25 45 e8 bc b1 81 e0 3c 11 34 32 3d
       0.0913458 -0.028353283 0.027405592 0.043506686
000310 44 c8 86 be c7 25 f0 bc d6 bd d1 bd be 65 f5 bd
       -0.26324666 -0.029314889 -0.102412865 -0.119822964
000320 94 8c 97 3d 15 7c 75 be 58 cb 82 be 88 ed 17 be
       0.0739986 -0.23973115 -0.25545764 -0.14836705
000330 6a 2c 91 be f3 bb 99 be 10 c5 ca bc e2 3d 35 bc
       -0.28354198 -0.30026206 -0.02475217 -0.011062117
000340 07 1a 83 be ab fd f9 3d b0 98 eb 3d 39 9f 50 bd
       -0.25605795 0.122065865 0.11503732 -0.050933097
000350 73 c1 96 3a 8e e9 15 bd bd ef 15 bd f2 42 ff bd
       0.0011501744 -0.03659969 -0.036605585 -0.12463941
000360 69 99 61 3e c9 a7 2a 3d a3 6e 27 3e 5b 71 21 3e
       0.22031178 0.04166392 0.16350798 0.15765898
000370 18 0b 12 3e 11 10 a6 bd 40 fd 80 3c c7 c6 85 3d
       0.14262044 -0.08108533 0.015745759 0.065320544
000380 0a 6b c3 3d 36 b4 51 3e 98 a4 52 3c da dd 81 be
       0.095419005 0.20478901 0.012856625 -0.25364572
000390 6f 2e 5c be 47 53 86 3c 87 3e 9b be 15 04 62 bd
       -0.21502088 0.016397132 -0.30321142 -0.055179674
0003a0 64 7a 91 3d 36 d0 28 be bd 35 84 be 3c 95 04 bd
       0.07103422 -0.16485676 -0.2582225 -0.032368883
0003b0 2b ba 1a 3e d7 f3 6c be b4 33 92 3d ab 5e 37 3e
       0.1511008 -0.23139893 0.07138768 0.17907207
0003c0 70 8f 92 bd 8f 2d 3e 3e 15 12 8e be 88 82 3a bd
       -0.07156265 0.18572067 -0.2774817 -0.04553464
0003d0 f6 3e 06 3d 35 db 6c 3e ad 1b e2 3d 81 3d 5c 3e
       0.032774888 0.23130496 0.11040435 0.21507837
0003e0 4a 53 47 3e 99 94 4a 3e f5 78 f5 3d 19 2f 6f 3d
       0.19465366 0.19783248 0.11985961 0.058394525
0003f0 7f b1 a8 3c 46 89 48 be af 36 71 be 91 1a 98 3d
       0.02059245 -0.19583616 -0.23556016 0.07426942

hiden_layers.3.bias f4 [64]
000000 59 8c 4b 3c 81 26 24 3d 77 81 73 bc 01 e7 2d 3c
       0.012423598 0.040075783 -0.01486241 0.010614158
000010 1b 62 1f 3d 79 25 8a bd 8b 14 2f bc 9e 8c 34 3c
       0.03891192 -0.067454286 -0.01068605 0.011019854
000020 eb 95 1d 3e 90 b6 04 3e 92 dd f5 3c e2 39 b6 bc
       0.1538922 0.12960267 0.03001288 -0.022244398
000030 b7 80 4f bd f7 37 2b bb bd 87 7b 3d 7d c8 9d bd
       -0.05065986 -0.0026125887 0.061408747 -0.07704256
000040 94 8f 86 3d 70 59 cc bd 7b 26 d8 3d d9 db 3e 3c
       0.06570354 -0.09977996 0.105542146 0.011649095
000050 02 05 dc bc 06 1c 1b 3d be 11 40 bd 8d 1d dc bb
       -0.026857857 0.037868522 -0.04689192 -0.00671739
000060 53 94 4f bc 4d 2c df 3c 21 49 be 3c 00 19 7e bd
       -0.012669641 0.027242804 0.02322823 -0.06203556
000070 e7 46 06 3d ca dd dc bc 86 7f 20 bc 6b ff e4 bd
       0.03278246 -0.026961226 -0.009796029 -0.111815296
000080 ef f1 dc bb 67 8b f9 bc 9c 5d fd bd 80 6c 14 bd
       -0.006742708 -0.03046198 -0.1237137 -0.036236286
000090 fa e4 37 bb 44 91 a0 bb 07 ca 2f bd 8b d1 82 3d
       -0.0028060065 -0.0049001295 -0.042917278 0.063876234
0000a0 f2 66 4e bd d7 ad f3 bc b9 4b 3a 3d 78 b3 19 3e
       -0.050391145 -0.02974598 0.04548237 0.15009868
0000b0 8c f2 06 bd aa 8a 11 3d 1e af db bc 75 5f 9d bc
       -0.032946154 0.03553263 -0.0268169 -0.019210557
0000c0 15 17 b8 bd 98 e7 73 3c 5c 36 d1 3c d1 6b c8 bd
       -0.089887775 0.014886759 0.025538616 -0.09786189
0000d0 84 ff 9e bb 90 10 d8 3d 14 16 c8 bd 67 1b 6a 3d
       -0.004852237 0.10550034 -0.09769836 0.05715504
0000e0 25 95 a7 3c c6 77 4f 3d b2 d7 aa 3d ea 70 c6 bd
       0.02045686 0.050651334 0.08341922 -0.096895054
0000f0 89 40 b7 3d 53 ba d4 bc 51 21 87 bd 5c 78 b5 3c
       0.08947856 -0.025967753 -0.065981515 0.022152118

hiden_layers.4.weight f4 [64, 64]
000000 d0 34 4f be bf 8f 2a 3e ea 60 30 3e 22 a1 75 be
       -0.2023499 0.16656397 0.1722447 -0.23987249
000010 aa e0 9c be 41 fc 87 bd a3 33 b2 bc c0 a8 45 3e
       -0.30640155 -0.066399105 -0.021753138 0.19302654
000020 d9 7c a1 3c d9 34 88 3b 18 53 4d 3d 9e 4b 4b bd
       0.019712852 0.0041566906 0.050128073 -0.04963266
000030 29 e6 16 3e e5 40 c6 bd 8d 32 2b be 15 6e 2a bb
       0.14736237 -0.096803464 -0.16718502 -0.0026005555
000040 be 3e b7 bd 14 1a c7 bd c1 87 6e 3e 11 99 81 3e
       -0.08947514 -0.09721771 0.23293974 0.25312093
000050 27 ba 9e be 21 c2 45 3d 47 69 d0 be b8 ea 93 bd
       -0.31001398 0.04828084 -0.4070532 -0.072225034
000060 5b 3f 25 3e c7 ae ca bd fa d0 35 3e 49 bb 3e 3e
       0.1613745 -0.098966174 0.177555 0.18626131
000070 c5 f4 a2 bd d1 f3 f6 bd a1 6a 4a be cf 08 47 bd
       -0.07956842 -0.12058223 -0.19767238 -0.048592385
000080 63 88 69 3e ab 97 04 3d 87 ec 39 3e 3e 97 66 be
       0.22805934 0.032371204 0.18156634 -0.22518632
000090 a9 3e 56 3e db e4 1d bc 14 e4 f6 bd 27 4c 19 bd
       0.2092234 -0.009637083 -0.12055221 -0.03742614
0000a0 a8 1e a6 be 26 b4 a2 3d b6 bf 28 3e 30 a3 3e 3d
       -0.32445264 0.07944517 0.16479382 0.046542346
0000b0 fa f2 41 bc 91 d4 58 3e 6a 00 db 3d cd 2f 13 be
       -0.011837715 0.21174838 0.10693438 -0.14373703
0000c0 30 d3 7d be a6 55 81 be 6c b2 57 3e 2e 4a 11 3e
       -0.24787593 -0.25260657 0.21064156 0.14188454
0000d0 27 1b 92 be e4 2e b8 3d 00 b7 7e 3e 1a 58 31 be
       -0.2853634 0.08993319 0.24874496 -0.17318764
0000e0 e3 41 bc 3d a1 03 17 3d 9e 4b 67 be 43 be 25 be
       0.091922544 0.036868695 -0.2258744 -0.1618586
0000f0 aa f0 1a 3e ee 92 42 be 12 7b 3e bd d7 f1 b4 bd
       0.15130869 -0.19001362 -0.046504088 -0.0883519
000100 2a 7e 92 bd a1 72 7e be 4b 8a 74 be fa 71 17 3e
       -0.0715297 -0.24848415 -0.2388088 0.14789572
000110 01 dd 1a 3e af f0 fd 3d 28 04 30 be b7 d7 86 bd
       0.15123369 0.123994224 -0.17189085 -0.06584113
000120 c8 0d 66 be 9d 56 97 bd c4 13 5e be 51 7f ac 3e
       -0.22466195 -0.07389567 -0.21687227 0.33690885
000130 9d 35 48 bc 58 ac 8a 3e bb dc 26 be 01 43 28 3e
       -0.012219814 0.27084613 -0.1629514 0.1643181
000140 ba 7d 12 be 38 53 d5 bd b4 62 55 3e 9d e1 3b bd
       -0.14305773 -0.10416263 0.20838434 -0.04586946
000150 20 03 a0 3e f3 5f 21 3e 07 25 7b 3e 57 22 e4 3d
       0.31252384 0.15759258 0.24525844 0.11139362
000160 f8 26 4e be bb e7 5a be 4f e2 0f be 0f d1 07 3e
       -0.20132053 -0.2137746 -0.14051174 0.13263343
000170 4f 11 a0 bd 08 72 f2 bc 51 c8 23 be e3 9a 04 be
       -0.07815801 -0.02959539 -0.15994383 -0.1294971
000180 3d 6e 38 3e bd 1f f6 3d c8 96 06 3e 48 fb 0e be
       0.18010803 0.12017772 0.13143456 -0.13963044
000190 70 78 88 be b7 ae 7e 3d aa 7d e4 3c bd 12 cb 3d
       -0.26654387 0.06217834 0.027891953 0.099156834
0001a0 71 32 9d 3d e9 0e 82 be 06 31 df 3d ca ba 6b 3e
       0.076756366 -0.25402 0.10898022 0.23020473
0001b0 94 4e bc bd 35 93 10 3e 00 30 d9 bc 4a a9 b3 bd
       -0.09194675 0.14118655 -0.026512146 -0.08772524
0001c0 90 9d a4 bd ba 75 98 3e 46 65 1b be 18 82 f7 bd
       -0.08037865 0.29777318 -0.15175352 -0.1208536
0001d0 f7 a9 23 3e 52 9b 93 bd 90 06 2b 3e 46 8b be 3d
       0.15982805 -0.072073594 0.16701722 0.09303908
0001e0 07 6f 4c 3d ad a3 7b be af bf 1f 3e 96 70 6e bc
       0.04991057 -0.24574156 0.15600465 -0.01455321
0001f0 07 64 9f 3e 7b fc d5 3d e7 17 e7 3d 4d 47 df 3d
       0.31131002 0.104485475 0.11283856 0.109022714
000200 b3 c3 8e be 5b 89 88 bd 57 db c7 3d 54 f7 89 be
       -0.27883682 -0.066668235 0.09758633 -0.2694651
000210 f3 c7 06 bd 94 c3 63 be 24 31 c2 3c 8d 29 0b 3e
       -0.03290553 -0.22242576 0.023705073 0.13590069
000220 af bc 7b bd e4 32 b6 bd 9a 4f a0 3d 42 96 f5 bd
       -0.06145924 -0.08896425 0.07827683 -0.1199155
000230 f8 d2 68 bd 1c cd b7 3d ff f0 78 3e f6 2c 3b be
       -0.05684182 0.089746684 0.24310683 -0.1827887
000240 1b a6 c7 3c f6 94 a9 3d 61 8b 9f 3d f3 6b ff 3d
       0.024371197 0.08280365 0.07790256 0.124717616
000250 7a cb d0 bd 17 f4 25 be a5 8b 2a be 20 32 c7 3d
       -0.1019506 -0.16206394 -0.16654833 0.097263575
000260 84 1b 3e be e8 60 a2 be 0a 8e 9e 3c 23 21 90 3e
       -0.18565184 -0.3171456 0.019354839 0.2815028
000270 c3 89 6b be 70 38 0e 3e 7b 5f 2b be 97 e7 a8 3e
       -0.2300177 0.13888717 -0.16735642 0.3298919
000280 b5 cc 92 bd 82 ac 3e bd 27 70 e7 bd 15 f6 1e 3c
       -0.07167951 -0.046551235 -0.11300688 0.009702225
000290 2d 4f 74 3b 3f a2 98 3d 8a 33 3f bd 5b 96 6e 3e
       0.0037278638 0.07452821 -0.04668001 0.23299544
0002a0 76 ea e1 3e 11 05 08 3e 95 7c ce be a8 26 2b be
       0.44124192 0.13283183 -0.40329424 -0.16713965
0002b0 fb d6 89 bd 8a e4 59 3d 11 48 2a 3e be 63 18 3e
       -0.067304574 0.053196467 0.16629054 0.14881799
0002c0 9f 7f 1b 3e c2 65 c7 bc d7 02 2a 3e d8 46 21 be
       0.15185402 -0.024340514 0.16602646 -0.15749681
0002d0 a5 3d 0d be 00 fe 50 3e f0 39 f8 bc 05 64 d2 3d
       -0.13793047 0.20409393 -0.030301064 0.102729835
0002e0 b0 68 18 be 1a de 8a bc 11 3a 01 3e 7f b3 d0 3e
       -0.14883685 -0.01695161 0.12619807 0.40761945
0002f0 e5 16 42 3c 53 5f 40 bd 17 bc 52 3c a8 43 74 3e
       0.011846279 -0.04696591 0.012862227 0.23853934
000300 f5 b5 e5 3d 29 27 4c be 5f d1 f7 bc e7 90 20 3e
       0.11216346 -0.19936813 -0.030251203 0.15680276
000310 77 4e 21 3e fc 21 a9 bd 51 bd f0 bc 97 02 28 be
       0.15752588 -0.08258435 -0.029387148 -0.16407238
000320 39 75 58 3e 9c a5 f4 3d 10 48 12 3e d1 28 cd 3c
       0.21138467 0.1194565 0.14285302 0.025043877
000330 fd 0e 45 3e db 70 03 be fd 2b 71 3e 31 7e 81 3e
       0.19243999 -0.1283602 0.23551936 0.2529159
000340 1b 27 85 3d 81 8d 3e 3d c8 9d e8 bd e6 ef 90 be
       0.065015994 0.046521667 -0.113582194 -0.28308028
000350 0d 44 84 be 8b fa ff 3c cf 47 c2 3e 3f 27 fa 3d
       -0.2583317 0.031247398 0.3794541 0.12214517
000360 4d ff 2e 3e af 89 37 bd 84 6c 02 3e 97 04 e8 bd
       0.17089577 -0.04480904 0.12736708 -0.113290004
000370 32 ed 24 be 79 f6 18 3d 24 fd bb 3c b5 7b 27 be
       -0.16106108 0.03734443 0.022947855 -0.16355784
000380 19 d1 1a be 06 7d 3b 3d 36 83 a8 bd bf 71 01 be
       -0.15118827 0.04577353 -0.082281515 -0.12641047
000390 ec b7 91 3d d0 b2 58 bd 83 ff 13 bd ba 0d 24 3e
       0.071151584 -0.052904904 -0.036132347 0.16020861
0003a0 71 b0 81 be 76 75 92 3d a2 62 0c be ed b9 80 3e
       -0.25329927 0.0715131 -0.137095 0.2514185
0003b0 f4 b7 d1 3d 80 87 18 be 65 49 a5 bc 4a d2 34 be
       0.102401644 -0.14895439 -0.020176599 -0.17658344
0003c0 e9 fd d0 bd fb 2b 31 3e ac c8 ca bd b9 b0 42 3e
       -0.102046795 0.17301933 -0.099015564 0.19012727
0003d0 70 ed 21 bc f6 a8 33 3d 97 1b d0 3d 21 8c 49 3e
       -0.00988327 0.043862306 0.10161512 0.19682361
0003e0 72 16 94 be 73 d0 98 3d af 93 9c 3d 49 6c 89 3d
       -0.28923374 0.074616335 0.07645356 0.06710107
0003f0 9d 0f 1d 3e be 8c 72 3c 16 49 5b 3e f6 3f 3e 3e
       0.15337987 0.014804063 0.21414599 0.18579087
