results/7_model_3_case_2_zoom/epoch50/model_weights.pth (torch, 484214 bytes, 88 tensors)

init_layer.0.weight f4 [64, 3]
-0.18236674 -0.11661859 0.27160564 0.17656069 0.06927481 0.17502119 -0.08261758 -0.21624227
-0.075207956 0.2653012 0.055176232 -0.11446515 0.017676435 0.20441775 0.38900042 -0.15953012
-0.284585 0.16911948 0.3259682 0.096249186 0.2743979 0.30022094 0.27444115 0.31118968
0.3376938 -0.38256907 0.16158706 -0.13302793 -0.19867058 0.30824223 -0.19633278 -0.013000444
-0.14507921 0.102543324 0.18453397 -0.31334943 -0.08749041 -0.041787516 0.025709849 -0.006623207
0.07838328 0.4071154 0.14241186 -0.2736884 -0.004413098 0.2050585 -0.18611455 -0.3590584
0.12541999 -0.06961314 0.2359411 0.24978083 0.2307434 -0.24319698 0.114680015 -0.0028284239
-0.34293365 -0.15390164 0.15183342 -0.20295115 0.12447016 -0.11032518 -0.11015636 0.23102626
-0.039048754 -0.10452278 0.023005972 -0.2444456 -0.089186735 -0.04295211 0.17730008 -0.07009734
-0.06601178 -0.10242189 0.25995988 -0.073195055 0.16369167 -0.1786148 0.04299454 0.25980425
0.32450867 -0.13292953 -0.19994758 0.16685946 0.048287533 0.1421663 -0.3264612 0.010664823
-0.26625422 0.15769841 -0.25289315 -0.14524783 -0.13056922 -0.08845406 0.100599185 0.35092828
-0.07231922 0.21530734 0.3162375 -0.29946458 0.32884586 -0.08733758 0.0077479184 -0.05518638
-0.25559524 -0.061883546 -0.18713248 -0.27355963 0.03417479 -0.0022576994 -0.33916906 -0.1657302
-0.11268945 -0.2488351 0.22413537 -0.15249765 0.48409626 -0.24083717 0.19309007 0.150789
0.20974897 0.017109308 -0.33587104 -0.049154744 -0.055450924 -0.26513425 0.15081003 -0.08758235
0.245634 -0.026650308 -0.024557495 0.28388575 0.10980057 -0.22313917 -0.27734613 -0.27616414
-0.26927435 0.17796679 -0.009491165 -0.15178211 0.051003184 0.1520594 0.14954047 0.13052161
0.22431101 0.2992505 0.12417024 0.08447191 -0.27343565 0.24151173 -0.13313042 -0.20028552
-0.19026165 -0.3475032 -0.19524267 -0.058973707 0.25569254 -0.31920162 0.14764887 -0.1399787
-0.18090278 0.13498195 0.13273916 -0.23455024 -0.33321258 0.19300838 0.0394658 0.20955616
0.15430123 0.083445296 0.29440242 0.04686905 -0.051051904 0.2154025 0.22587971 0.25357187
0.18581258 0.103847705 0.13156316 -0.1981439 -0.16199121 -0.22508518 -0.10056733 -0.11251076
0.07749107 -0.18987349 0.24628556 -0.00026468444 -0.104064174 0.23029512 0.093766704 0.22953154
00000000: 59be 3abe bad5 eebd e50f 8b3e 53cc 343e
00000010: f4df 8d3d c138 333e 6833 a9bd 9d6e 5dbe
00000020: a106 9abd 8fd5 873e 7900 623d b46c eabd
00000030: 2cce 903c e352 513e 102b c73e dd5b 23be
00000040: 20b5 91be a82d 2d3e 4ee5 a63e 4b1e c53d
00000050: e27d 8c3e 8fb6 993e 8d83 8c3e 4154 9f3e
00000060: 34e6 ac3e 18e0 c3be 1477 253e 7938 08be
00000070: 4d70 4bbe edd1 9d3e 760b 49be d0ff 54bc
00000080: a58f 14be 3c02 d23d 79f6 3c3e 566f a0be
00000090: 2c2e b3bd 6329 2bbd 769d d23c 7d07 d9bb
000000a0: 6a87 a03d 6e71 d03e 6ad4 113e e320 8cbe
000000b0: c09b 90bb dbfa 513e d094 3ebe 81d6 b7be
000000c0: 196e 003e 5591 8ebd 8b9a 713e 8cc6 7f3e
000000d0: ff47 6c3e a108 79be 5bdd ea3d 145d 39bb
000000e0: 0095 afbe 6498 1dbe 387a 1b3e 6dd2 4fbe
000000f0: 36ea fe3d 2bf2 e1bd a899 e1bd 2692 6c3e
00000100: 96f1 1fbd 0a10 d6bd 0577 bc3c f34f 7abe
00000110: 89a7 b6bd 8dee 2fbd 278e 353e 328f 8fbd
00000120: 2f31 87bd 91c2 d1bd 7619 853e 4ae7 95bd
00000130: ca9e 273e cce6 36be 0b1b 303d 1005 853e
00000140: 0026 a63e ae1e 08be 0fbf 4cbe 35dd 2a3e
00000150: 26c9 453d 0b94 113e ec25 a7be 83bb 2e3c
00000160: 7952 88be b17b 213e 367b 81be d9bb 14be
00000170: f0b3 05be 6727 b5bd f206 ce3d dfac b33e
00000180: 191c 94bd 8779 5c3e e2e9 a13e 6c53 99be
00000190: 7c5e a83e 0cde b2bd 40e2 fd3b 1d0b 62bd
000001a0: 61dd 82be 9a79 7dbd a89f 3fbe 0210 8cbe
000001b0: ddfa 0b3d e9f5 13bb 91a7 adbe 2db5 29be
000001c0: bac9 e6bd a1ce 7ebe be83 653e 5828 1cbe
000001d0: 77db f73e 059e 76be 67b9 453e 6e68 1a3e
000001e0: 6fc8 563e d228 8c3c 4af7 abbe 7c56 49bd
000001f0: 8220 63bd adbf 87be f26d 1a3e 605e b3bd
00000200: 7b87 7b3e bf51 dabc cd2c c9bc 7959 913e
00000210: 1fdf e03d 987e 64be 5000 8ebe 6365 8dbe
00000220: 54de 89be ed3c 363e d580 1bbc c56c 1bbe
00000230: b7e8 503d 76b5 1b3e 2321 193e 75a7 053e
00000240: c9b1 653e 5d37 993e f74c fe3d 9cff ac3d
00000250: c2ff 8bbe da4e 773e 5753 08be a617 4dbe
00000260: f3d3 42be f0eb b1be b2ed 47be 6a8e 71bd
00000270: 22ea 823e 656e a3be 4431 173e 9456 0fbe
00000280: 943e 39be b538 0a3e c6ec 073e f02d 70be
00000290: d79a aabe fda3 453e e4a6 213d e495 563e
000002a0: 2401 1e3e 5ee5 aa3d eabb 963e c3f9 3f3d
000002b0: cd1b 51bd 7992 5c3e 034d 673e 2cd4 813e
000002c0: a745 3e3e 1bae d43d 7eb8 063e 3ce6 4abe
000002d0: 06e1 25be bb7c 66be 3ff6 cdbd 0b6c e6bd
000002e0: a3b3 9e3d 326e 42be 4832 7c3e 58c5 8ab9
000002f0: 991f d5bd 7cd2 6b3e c208 c03d 510a 6b3e

init_layer.0.bias f4 [64]
-0.22697474 -0.08454225 -0.1606757 0.20976816 -0.20535566 -0.1409872 -0.20520262 -0.31187287
-0.15581058 -0.2589765 0.07251093 -0.15186225 0.11055796 0.14550905 0.052360952 -0.0011792084
-0.25640112 0.16185084 0.3460164 0.01973381 -0.07912046 0.06713574 -0.15420316 0.13773744
0.115272306 0.070447594 0.1812181 0.1524329 0.18134299 -0.06357147 -0.13451369 -0.32076356
-0.089794174 -0.1432581 0.21124403 -0.113146774 0.3429075 0.21673627 -0.0013377997 0.12980887
0.22845623 -0.27020553 -0.2955711 0.0070322347 0.14482607 -0.25869006 0.215417 -0.14137904
-0.06321014 -0.16315366 -0.12400156 -0.098681234 0.203974 0.09402863 0.25636786 0.14165905
-0.28661588 -0.2096334 -0.13376364 -0.1579355 -0.08469613 0.13765486 0.2508991 -0.21621877
00000000: 116c 68be 7d24 adbd 2c88 24be 77cd 563e
00000010: c148 52be f35e 10be a320 52be cdad 9fbe
00000020: cf8c 1fbe 9198 84be 9c80 943d c781 1bbe
00000030: 366c e23d 5300 153e 7078 563d ab8f 9aba
00000040: 0247 83be 3abc 253e 1029 b13e cda8 a13c
00000050: e809 a2bd 767e 893d 6fe7 1dbe 0b0b 0d3e
00000060: e313 ec3d d446 903d 3d91 393e 5f17 1c3e
00000070: fab1 393e c231 82bd f5bd 09be 1f3b a4be
00000080: 02e6 b7bd 40b2 12be 5b50 583e 7fb9 e7bd
00000090: 9291 af3e 1df0 5d3e 1c59 afba 9eec 043e
000000a0: 6ef0 693e 6158 8abe 1855 97be a96e e63b
000000b0: 494d 143e 0673 84be 4696 5c3e abc5 10be
000000c0: 5174 81bd c111 27be 88f4 fdbd 6319 cabd
000000d0: 8fde 503e 1592 c03d a642 833e 120f 113e
000000e0: 51bf 92be 23aa 56be 56f9 08be d8b9 21be
000000f0: 2a75 adbd 65f5 0c3e d975 803e 7468 5dbe

hiden_layers.0.weight f4 [64, 64]
-0.17858164 -0.008743899 0.13259311 0.08374593 -0.23652148 -0.025759263 0.05385042 -0.19807576
-0.03456885 -0.081351735 0.025567347 0.14319201 0.07544261 0.22763008 0.17814447 -0.17364666
-0.0759473 -0.08743068 0.019360887 -0.1392979 -0.099225886 0.081964515 0.0014093854 -0.20247391
0.20918168 0.01760422 -0.10406882 -0.15273415 -0.097185954 -0.018483894 -0.19624284 -0.119556956
-0.1195044 -0.047768172 0.20629299 -0.0077558896 0.056816395 0.028158905 0.21013993 0.08475898
0.08595893 -0.124152094 0.05015451 -0.031041272 0.0029978603 -0.07427037 0.066176906 -0.2416196
0.2030433 -0.11697634 -0.14393069 0.05053028 0.052248854 -0.01681086 0.24417396 0.20483024
-0.2123684 -0.14197478 -0.13810709 0.0636813 0.040506434 -0.06581081 0.006878666 -0.17625806
-0.14969626 -0.2000804 -0.23013431 0.21579939 -0.32154536 -0.20358108 0.112697735 -0.2641528
-0.015172722 -0.36836147 0.21839915 -0.14292842 0.03356482 0.0270238 0.074342735 0.21150604
-0.15879987 0.28710234 0.26923993 0.017860688 -0.06972534 -0.15972339 0.09100176 0.26168868
-0.05416509 0.016390724 0.23635069 0.13174295 0.24237202 0.05255745 -0.15271842 -0.45161098
-0.119989894 0.0058401325 0.5062758 0.12565191 0.7990551 0.051864926 -0.09032587 0.15389833
0.03875297 -0.07715267 -0.3612125 -0.022956114 0.23410186 -0.29626048 0.21383229 -0.22789052
-0.05165562 -0.2133053 -0.10093773 -0.11033913 0.14585495 -0.16307494 0.33536455 0.114062086
-0.33213177 -0.2947204 -0.20259836 -0.16801922 0.17429276 0.27701423 0.2229694 -0.16398971
0.12167149 -0.053022534 0.17563449 -0.014875166 -0.18544048 -0.003445834 -0.027588803 -0.14731768
0.05100677 -0.032228563 -0.027349334 0.1388837 0.124514386 -0.2103822 0.16129476 -0.13377221
-0.095572464 -0.19563821 0.02938688 -0.06885167 -0.0238757 -0.14064822 -0.16301121 -0.011594518
0.01454557 -0.1441332 -0.035531063 0.20563355 -0.05555177 -0.17248482 0.22251844 0.24781431
-0.16124906 -0.094436266 0.16083576 0.21300144 -0.11507046 -0.16203032 -0.032746233 0.04903609
-0.22263594 -0.03286712 0.20613006 0.2382368 0.16654153 0.04222478 -0.035138488 0.016067741
-0.00079134497 0.075578235 -0.1046932 -0.04435376 0.031285983 -0.032078423 -0.16476882 0.029321566
-0.20094493 0.1843679 -0.15153678 -0.15786436 0.17632513 -0.19053599 -0.11359879 0.17983405
-0.6017576 -0.45909092 0.016637307 0.2937158 -0.6178787 -0.24279419 -0.51615685 -0.67117584
-0.4741057 -0.9605219 0.3328197 0.38651347 -0.050027788 -0.511157 0.16191332 0.35605252
-0.9653845 0.57977855 1.5936407 0.23877074 0.3798864 0.26921558 -0.12899965 0.23462565
-0.22409955 0.50343674 -0.22918104 -0.2111824 0.9225192 -0.4729416 -0.08408778 -1.3583668
-0.7481353 0.005042707 1.2204859 0.27572048 1.6973999 0.45948952 -0.46237838 -0.19237742
0.68569946 0.14361471 -0.8097329 -0.5870553 0.72205025 -0.27133304 0.21005909 -0.3029949
-0.07257396 -0.64969784 0.30253494 -0.030347649 -0.08952139 -0.049516592 1.0734175 -0.10066121
-1.042857 -1.4187342 -0.39626098 0.37011868 -0.026965028 0.6111258 0.39586323 -0.60192907
00000000: 1bde 36be 9242 0fbc 7dc6 073e fc82 ab3d
00000010: b032 72be 1705 d3bc 4292 5c3d 5fd4 4abe
00000020: 1198 0dbd bd9b a6bd 9d72 d13c eda0 123e
00000030: a881 9a3d dc17 693e 816b 363e 6ed0 31be
00000040: 428a 9bbd db0e b3bd b99a 9e3c 1ca4 0ebe
00000050: f136 cbbd 03dd a73d 20bb b83a 5255 4fbe
00000060: b933 563e ba36 903c 0922 d5bd 5766 1cbe
00000070: 6e09 c7bd 896b 97bc e2f3 48be 47da f4bd
00000080: b9be f4bd 8fa8 43bd 783e 533e 1e25 febb
00000090: 4fb8 683d 81ad e63c ec2e 573e 1e96 ad3d
000000a0: 3c0b b03d 7443 febd d16e 4d3d 444a febc
000000b0: c077 443b 101b 98bd c287 873d 216b 77be
000000c0: 95ea 4f3e 4b91 efbd 9162 13be d7f8 4e3d
000000d0: e502 563d eeb6 89bc bd08 7a3e 05bf 513e
000000e0: 1a77 59be d661 11be f26b 0dbe 576b 823d
000000f0: 13ea 253d d1c7 86bd 6f66 e13b fe7c 34be
00000100: fa49 19be e0e1 4cbe 54a8 6bbe 84fa 5c3e
00000110: 98a1 a4be 8f77 50be 12ce e63d 093f 87be
00000120: 0297 78bc e099 bcbe 07a4 5f3e d45b 12be
00000130: 447b 093d 0461 dd3c 0141 983d 0a95 583e
00000140: 6f9c 22be 14ff 923e d1d9 893e 9450 923c
00000150: 29cc 8ebd 878e 23be 215f ba3d 0ffc 853e
00000160: 37dc 5dbd d745 863c ea05 723e a0e7 063e
00000170: 5f30 783e 7b46 573d 3862 1cbe 8e39 e7be
00000180: 43bd f5bd 955e bf3b 4a9b 013f e5aa 003e
00000190: e08e 4c3f 5170 543d c5fc b8bd 8697 1d3e
000001a0: 6fbb 1e3d 3802 9ebd d8f0 b8be 760e bcbc
000001b0: 66b8 6f3e 74af 97be daf6 5a3e 225c 69be
000001c0: d894 53bd b46c 5abe 71b8 cebd 7bf9 e1bd
000001d0: 005b 153e 1efd 26be e7b4 ab3e 6299 e93d
000001e0: 2d0d aabe 98e5 96be f275 4fbe 3b0d 2cbe
000001f0: cd79 323e cfd4 8d3e 1752 643e ebec 27be
00000200: e72e f93d 282e 59bd 87d9 333e f8b6 73bc
00000210: 1ce4 3dbe 80d3 61bb ea01 e2bc 72da 16be
00000220: 7aec 503d 1902 04bd b60b e0bc 8737 0e3e
00000230: 6601 ff3d 6e6e 57be 742a 253e 95fb 08be
00000240: 7fbb c3bd 6255 48be c1bc f03c 1b02 8dbd
00000250: f996 c3bc 1606 10be 69ec 26be eff6 3dbc
00000260: 8b50 6e3c a797 13be 0589 11bd 9a91 523e
00000270: 418a 63bd dc9f 30be e0db 633e 09c3 7d3e
00000280: 791e 25be cd67 c1bd 21b2 243e 0d1d 5a3e
00000290: 10aa ebbd 47eb 25be ea20 06bd 11da 483d
000002a0: adfa 63be ac9f 06bd c213 533e 59f4 733e
000002b0: dd89 2a3e e4f3 2c3d 60ed 0fbd 7fa0 833c
000002c0: 4372 4fba c3c8 9a3d 6369 d6bd 4aac 35bd
000002d0: bb25 003d aa64 03bd 28b9 28be c833 f03c
000002e0: 82c4 4dbe f0ca 3c3e 752c 1bbe 32a7 21be
000002f0: 938e 343e de1b 43be 7ba6 e8bd 6b26 383e
00000300: c90c 1abf f70d ebbe f64a 883c eb61 963e
00000310: 4c2d 1ebf 0a9f 78be db22 04bf 2ed2 2bbf
00000320: fbbd f2be c3e4 75bf 5867 aa3e 18e5 c53e
00000330: f0e9 4cbd 2fdb 02bf 9bcc 253e 844c b63e
00000340: 7023 77bf 5e6c 143f 6bfc cb3f 5180 743e
00000350: 7880 c23e a0d6 893e 7c18 04be b541 703e
00000360: 5a7a 65be 3be1 003f 6fae 6abe 3340 58be
00000370: 382a 6c3f 6725 f2be 3736 acbd f7de adbf
00000380: cc85 3fbf 4b3d a53b e238 9c3f 3c2b 8d3e
00000390: 6644 d93f 3642 eb3e dcbc ecbe 96fe 44be
000003a0: 008a 2f3f bc0f 133e a84a 4fbf 4249 16bf
000003b0: 49d8 383f 2aec 8abe bb19 573e 2622 9bbe
000003c0: a8a1 94bd 9952 26bf dce5 9a3e a29b f8bc
000003d0: fe56 b7bd e9d1 4abd bf65 893f 7727 cebd
000003e0: 577c 85bf 1599 b5bf b8e2 cabe 3280 bd3e
000003f0: c3e5 dcbc be72 1c3f 96ae ca3e 0618 1abf

hiden_layers.0.bias f4 [64]
0.13144855 0.26813078 -0.04151899 0.3048425 0.12521638 0.19973935 0.14245978 -0.06502258
-0.04884134 0.15102433 0.0606558 -0.13895376 -0.09939022 -0.03672226 0.21972083 -0.22133568
-0.089255676 -0.102336444 0.08225724 0.040993985 0.038325492 0.018830376 -0.064710654 -0.06900327
-0.047735546 -0.01365366 -0.014643052 0.018409263 0.27150822 0.016739009 -0.023493428 -0.11300576
0.012884077 0.013323134 0.106122665 0.04284743 0.022382747 0.1393182 -0.051757418 -0.07444255
0.07013438 0.08785546 0.046093307 -0.10311143 -0.08347254 -0.17084639 -0.062226232 -0.20216146
0.03177726 0.123203464 0.21090423 -0.10806932 0.1106912 0.0047049974 0.10009208 0.061660256
0.053237937 0.048901383 -0.116752446 -0.01100967 -0.18402345 -0.012293341 -0.061016034 -0.09525171
00000000: 739a 063e 7048 893e d10f 2abd 5114 9c3e
00000010: b938 003e 7988 4c3e fae0 113e 8f2a 85bd
00000020: db0d 48bd 1fa6 1a3e 3772 783d e549 0ebe
00000030: 1a8d cbbd 156a 16bd 7ffe 603e d2a5 62be
00000040: aecb b6bd c595 d1bd 7c76 a83d 4fe9 273d
00000050: 31fb 1c3d 2942 9a3c 0587 84bd 9651 8dbd
00000060: 5986 43bd 9ab3 5fbc 69e9 6fbc 06cf 963c
00000070: 2003 8b3e 3f20 893c 4a75 c0bc 906f e7bd
00000080: bc17 533c 4649 5a3c d756 d93d c980 2f3d
00000090: 065c b73c 6ea9 0e3e 96ff 53bd 5675 98bd
000000a0: 9da2 8f3d 90ed b33d 56cc 3c3d 162c d3bd
000000b0: a7f3 aabd 5bf2 2ebe efe0 7ebd 6a03 4fbe
000000c0: df28 023d 1952 fc3d 47f7 573e 7353 ddbd
000000d0: 11b2 e23d 612c 9a3b 14fd cc3d 778f 7c3d
000000e0: 0610 5a3d d14c 483d e81b efbd e761 34bc
000000f0: a570 3cbe 026a 49bc f3eb 79bd 5413 c3bd

hiden_layers.1.weight f4 [64, 64]
-0.06405086 0.013849252 -0.1524893 0.07748411 -0.25901112 0.17462207 -0.13260771 -0.079764664
0.022722287 0.08058588 -0.02873505 -0.09651964 0.06629372 0.10134671 0.00563433 -0.042933904
0.07547999 0.19915308 0.08591643 0.070512876 0.2998595 -0.090755805 0.043871827 -0.100690424
-0.08674591 -0.23426056 -0.06992856 0.33777696 0.0069780974 -0.028455716 -0.07753222 0.15468179
-0.21460786 0.23982929 -0.16280489 -0.18968056 -0.0084070405 -0.0006571634 -0.0022510148 0.13096114
0.0949155 0.15464145 -0.13321684 0.25630066 0.18786983 0.066731624 0.120761186 -0.17962797
-0.030782208 -0.107796885 -0.105474874 0.07252147 -0.06457265 -0.052489176 -0.019095179 -0.22661309
0.25916284 -0.14126492 -0.20705442 0.11682777 0.07782901 0.031870164 0.054079115 -0.13795273
0.09659338 0.03406537 -0.18557568 0.018177975 -0.13431554 -0.019560395 -0.19208232 -0.07793757
0.08264342 -0.14740184 0.21279103 0.12650976 0.08681555 -0.0012052373 0.14221415 0.021031635
0.10762102 -0.102612734 0.12979718 0.008134265 0.057504196 0.15219799 -0.23669372 0.02713427
0.013282543 0.13956317 -0.008329582 -0.08827128 -0.020314611 0.04160678 -0.09669501 0.17262383
0.20252979 0.15520646 -0.21797246 -0.11453697 -0.18939932 0.0055426066 -0.13820095 -0.19623853
-0.21787347 -0.2022365 0.06271777 -0.12578642 0.08455029 0.078725606 -0.033500325 -0.2125635
0.16052607 0.12291221 -0.152178 -0.057209823 0.055794567 0.0012841317 0.13606486 -0.02921225
-0.054640397 0.05324231 -0.07671576 0.18665898 0.092275165 0.00079884374 0.04412439 0.19774681
0.11051775 0.40524545 0.012522493 0.27430385 0.09119109 0.23789136 -0.15345341 0.1594793
0.19425902 -0.007643609 -0.14677761 -0.032146964 0.0036256586 0.07494583 0.36113274 0.056115594
-0.09346601 -0.08926767 0.028929135 0.0024133513 0.046731345 -0.26092768 -0.22076875 -0.19160105
-0.068195194 0.1622153 -0.16310273 -0.07993 0.1827843 0.09369863 0.15912096 0.17765896
0.14501181 -0.12917745 -0.021219648 -0.12226274 0.036985345 -0.21392098 0.0428474 -0.16208585
-0.13272668 -0.17313012 -0.13586795 -0.11283617 -0.00175767 0.020224493 -0.16258265 -0.012900346
-0.07405642 0.08167168 0.15419106 -0.25884724 0.065141514 -0.20576824 0.16528305 0.065876454
-0.106451 0.20957477 -0.094709314 0.09098164 -0.0437656 0.09480143 0.047589526 0.015876604
0.17186236 -0.021354195 -0.19153796 0.18738903 0.24014032 -0.17067881 -0.061168414 -0.14239366
0.009656762 0.024415871 -0.12139888 0.20912574 0.20584208 0.09708537 -0.069178864 0.10075053
-0.038044017 -0.11170075 0.037744544 0.13220906 -0.012134432 -0.21686052 0.0927979 0.16002348
0.14699419 0.11796475 -0.047400597 -0.0653361 0.054108378 0.18595053 0.12410919 0.13916372
0.17080434 -0.0070547652 -0.1442271 0.048529048 0.065154545 -0.04263818 0.13589284 0.16347823
0.09442516 -0.015629303 0.121196486 0.08098126 -0.11575571 -0.06472265 -0.19552304 -0.14658013
0.020159353 0.11503774 -0.026540361 0.055783343 0.1510246 -0.00059453223 -0.21208762 -0.08004364
-0.12410048 -0.068248324 0.14263472 -0.002096722 -0.17659955 0.20395595 0.052670587 -0.2025346
00000000: 192d 83bd f9e7 623c 2826 1cbe fdaf 9e3d
00000010: 1b9d 84be 21d0 323e 51ca 07be a85b a3bd
00000020: 1724 ba3c 360a a53d c465 ebbc 17ac c5bd
00000030: 00c5 873d dd8e cf3d 30a0 b83b 76db 2fbd
00000040: 4195 9a3d c9ee 4b3e f4f4 af3d 0e69 903d
00000050: 2f87 993e 2ede b9bd f2b2 333d c836 cebd
00000060: d7a7 b1bd 00e2 6fbe b436 8fbd 1af1 ac3e
00000070: 86a8 e43b f61b e9bc 36c9 9ebd e764 1e3e
00000080: 2ac2 5bbe cf95 753e 53b6 26be 9f3b 42be
00000090: afbd 09bc 7d45 2cba c385 13bb ad1a 063e
000000a0: 0f63 c23d 545a 1e3e ff69 08be d739 833e
000000b0: f360 403e 97aa 883d a451 f73d 65f0 37be
000000c0: f82a fcbc 9dc4 dcbd 3603 d8bd 2386 943d
000000d0: aa3e 84bd e4fe 56bd 7e6d 9cbc 430d 68be
000000e0: feb0 843e c0a7 10be 1306 54be 6643 ef3d
000000f0: d164 9f3d 4a8a 023d 1082 5d3d 7b43 0dbe
00000100: c0d2 c53d 2188 0b3d 8d07 3ebe fae9 943c
00000110: 038a 09be 1f3d a0bc 3ab1 44be bc9d 9fbd
00000120: f440 a93d 82f0 16be e4e5 593e c68b 013e
00000130: 5acc b13d 0ef9 9dba 96a0 113e 894a ac3c
00000140: 6968 dc3d a026 d2bd 8de9 043e 9545 053c
00000150: 8589 6b3d cad9 1b3e d75f 72be b048 de3c
00000160: 069f 593c a6e9 0e3e cd78 08bc 93c7 b4bd
00000170: d46a a6bc df6b 2a3d 0908 c6bd 4dc4 303e
00000180: f863 4f3e 71ee 1e3e 2c34 5fbe 5c92 eabd
00000190: e5f1 41be c19e b53b 8d84 0dbe c1f2 48be
000001a0: 391a 5fbe 1617 4fbe 2d72 803d 28ce 00be
000001b0: b428 ad3d e43a a13d a337 09bd 3faa 59be
000001c0: f260 243e 66b9 fb3d 8dd4 1bbe d954 6abd
000001d0: d888 643d 4f50 a83a 9654 0b3e 874e efbc
000001e0: 9cce 5fbd 9c14 5a3d 271d 9dbd 8823 3f3e
000001f0: c3fa bc3d 7f69 513a c7bb 343d 247e 4a3e
00000200: 2157 e23d 557c cf3e 242b 4d3c 8e71 8c3e
00000210: 65c2 ba3d cb99 733e e422 1dbe 8b4e 233e
00000220: d6eb 463e 3d77 fabb df4c 16be 89ac 03bd
00000230: 759c 6d3b 337d 993d 64e6 b83e 77d9 653d
00000240: 1c6b bfbd f8d1 b6bd cbfc ec3c 5129 1e3b
00000250: 5e69 3f3d 5098 85be 3411 62be 1133 44be
00000260: eca9 8bbd c51b 263e 6704 27be 57b2 a3bd
00000270: cf2b 3b3e 11e5 bf3d 9bf0 223e 3bec 353e
00000280: fa7d 143e 1847 04be d4d4 adbc e364 fabd
00000290: f27d 173d 1a0e 5bbe c180 2f3d d5f9 25be
000002a0: 81e9 07be 0649 31be f820 0bbe a616 e7bd
000002b0: 9e61 e6ba d6ad a53c 117c 26be f95b 53bc
000002c0: e4aa 97bd 7b43 a73d 43e4 1d3e a087 84be
000002d0: ea68 853d e9b4 52be f63f 293e 3cea 863d
000002e0: fb02 dabd c59a 563e f5f6 c1bd 9554 ba3d
000002f0: 8f43 33bd 4127 c23d 3ced 423d a70f 823c
00000300: b0fc 2f3e feee aebc 8722 44be e9e2 3f3e
00000310: 58e7 753e 6dc6 2ebe bb8b 7abd a5cf 11be
00000320: 6537 1e3c cb03 c83c fa9f f8bd 0f25 563e
00000330: 44c8 523e b2d4 c63d a6ad 8dbd 4b56 ce3d
00000340: 0bd4 1bbd 5dc3 e4bd 069a 1a3d d061 073e
00000350: 7fcf 46bc af10 5ebe d30c be3d 32dd 233e
00000360: a585 163e 8197 f13d 2127 42bd efce 85bd
00000370: bfa0 5d3d d169 3e3e f62c fe3d ef80 0e3e
00000380: 55e7 2e3e a92b e7bb 45b0 13be 65c6 463d
00000390: bf6f 853d 5fa5 2ebd 7e27 0b3e d666 273e
000003a0: fa61 c13d 0609 80bc dd35 f83d 81d9 a53d
000003b0: 5411 edbd 4f8d 84bd 3137 48be 1a19 16be
000003c0: 3a25 a53c e898 eb3d 2c6b d9bc 137d 643d
000003d0: 31a6 1a3e 62da 1bba 7f2d 59be eced a3bd
000003e0: 6428 febd c7c5 8bbd d60e 123e 2869 09bb
000003f0: 83d6 34be d4d9 503e 1dbd 573d 3b65 4fbe

hiden_layers.1.bias f4 [64]
-0.05905727 0.0036958975 0.053654388 -0.012689612 -0.17257217 0.06930697 -0.0329936 0.115792476
0.045165982 0.0021544572 0.053921722 -0.03953939 -0.022850664 0.05790129 -0.086928144 -0.07007037
-0.026875777 -0.03878248 -0.05503673 -0.034155726 0.013874056 0.05649492 -0.088998385 0.047800645
0.03811389 -0.09759556 0.05705343 -0.020987121 -0.1676327 -0.054181177 -0.09591219 -0.040198177
-0.09403023 0.018401911 -0.020661496 0.07024959 -0.10868253 -0.26568052 -0.017645305 0.06695952
-0.008220746 -0.049922477 0.070978634 -0.07608507 -0.062331323 -0.067061104 -0.038869806 0.048264164
-0.044343155 0.013182417 0.08994227 0.0028996614 0.15384164 -0.07751964 0.028288005 -0.030723825
-0.030144457 0.14038563 -0.18369503 0.004533469 -0.22715965 0.030439263 -0.07758402 0.07335621
00000000: 09e6 71bd df36 723b b4c4 5b3d 17e8 4fbc
00000010: c2b6 30be d0f0 8d3d 4c24 07bd 9b24 ed3d
00000020: f7ff 383d cb31 0d3b 06dd 5c3d 0ef4 21bd
00000030: 5131 bbbc e729 6d3d 6207 b2bd 0e81 8fbd
00000040: 972a dcbc 61da 1ebd 326e 61bd e0e6 0bbd
00000050: 0250 633c 3867 673d c944 b6bd 9cca 433d
00000060: 4f1d 1c3d 2ee0 c7bd dbb0 693d 2fed abbc
00000070: e8a7 2bbe 15ed 5dbd 9c6d c4bd d8a6 24bd
00000080: ec92 c0bd 9bbf 963c 4c42 a9bc 04df 8f3d
00000090: f294 debd 4707 88be e38c 90bc 1322 893d
000000a0: 4fb0 06bc 837b 4cbd 3f5d 913d 7dd2 9bbd
000000b0: 214f 7fbd 5557 89bd f235 1fbd a5b0 453d
000000c0: 2ba1 35bd 10fb 573c a733 b83d 3f08 3e3b
000000d0: aa88 1d3e 9ec2 9ebd 3fbc e73c 88b0 fbbc
000000e0: 82f1 f6bc 40c1 0f3e 8d1a 3cbe 7f8d 943b
000000f0: 8a9c 68be c35b f93c 5fe4 9ebd c83b 963d

hiden_layers.2.weight f4 [64, 64]
-0.16637963 0.13264702 0.027111856 -0.13357837 -0.03600158 -0.077198096 -0.31225392 -0.12334902
-0.19511597 -0.046141215 0.062396515 -0.10305212 -0.112722084 0.17815033 -0.06881269 0.17630866
0.12271617 -0.061723884 -0.051926672 -0.16256088 0.12137205 0.14501657 -0.10276548 0.13431592
-0.05933425 -0.19831453 -0.16715878 0.08672858 -0.022532491 -0.16877823 0.14118753 0.091401264
-0.18455902 0.10981546 -0.16631441 -0.09319613 0.2020193 0.31218264 0.05469496 -0.025503248
0.052445468 0.05145791 0.023990015 0.122999854 0.073947914 -0.098445445 0.01760705 0.19327009
0.08331041 0.008901787 -0.13358793 -0.21961597 -0.063080065 0.0759513 0.06456081 0.16931899
-0.06889793 0.20985104 0.22395705 0.14999424 0.009529831 0.058753274 0.1377083 0.12785132
0.14519055 0.012256974 0.13528939 0.08348231 0.2279881 0.12810627 0.1896706 0.16940571
0.033100512 0.23183632 0.22236225 0.17562664 -0.12825303 -0.13399577 -0.014927679 0.18119226
-0.100442216 0.09146309 -0.22273156 -0.14519022 0.123142734 -0.07438016 -0.021660598 -0.22910918
-0.030144593 0.118618876 0.18227601 0.053723283 -0.06185912 0.07890708 -0.011362686 -0.011890271
0.060095694 0.15747125 -0.0937191 0.13555706 0.1665723 0.017753128 -0.002774206 -0.23660254
-0.2428595 -0.09631563 0.041395202 0.055123784 -0.00732996 -0.21494193 -0.10731314 0.1970995
-0.2057343 0.28568125 -0.112634905 -0.18244228 -0.1270457 0.18301436 -0.13415144 -0.23498142
0.2056568 -0.0609974 -0.081912465 0.16393948 0.042994678 0.1117987 0.06891576 -0.17097563
0.21267185 -0.20239113 -0.106113635 -0.103072114 0.113068126 0.069606826 0.20332444 0.017914325
-0.15537943 0.20607147 -0.037798647 0.2138531 0.07326944 0.13455848 -0.16494833 0.15028316
0.06040141 -0.1772017 0.13042347 -0.24988449 -0.1515128 0.07475632 0.2717527 -0.16558799
-0.085981965 -0.05917948 -0.072057225 -0.10500146 0.1174647 0.08147487 0.07847858 0.21689397
-0.05830414 -0.15401287 -0.010548653 0.078881934 0.2108632 -0.034021825 -0.16394344 0.19074307
0.2540854 0.04947498 -0.15562057 -0.069181025 0.20970525 0.06517655 -0.01465823 -0.031994358
0.28337243 0.04429175 -0.33832285 0.22278945 -0.19527753 0.17529252 0.11625688 -0.050300144
-0.17721163 0.10846521 -0.22646473 -0.1227551 0.053251702 0.09050418 0.15686171 0.15488848
0.04576407 -0.19762549 -0.040046565 0.1879331 -0.1534416 -0.15363981 0.06262729 -0.091706425
0.09623715 0.13033845 0.16463155 -0.16606669 0.07586906 0.06528905 -0.039130528 0.036486324
0.17262265 -0.20201588 -0.20121899 0.03070179 -0.14313066 0.016414743 0.16287254 -0.072587006
-0.029612074 -0.054758042 0.14587317 0.029147785 -0.03794536 0.15353025 0.13326888 -0.15995412
-0.16385385 -0.09174807 0.18890327 0.18926522 -0.05442495 0.20257057 -0.06907921 -0.17489913
0.3107805 -0.20637745 0.10035008 -0.0038128593 0.014764381 -0.12397033 -0.032013115 -0.01801273
-0.117569886 0.12993231 0.20679274 -0.18388188 -0.035400912 -0.07991268 0.12183525 -0.108067684
0.08670895 -0.04901987 -0.07622881 0.1918617 0.10513088 -0.20267177 0.18220316 -0.031191368
00000000: 6c5f 2abe 9fd4 073e af19 de3c c5c8 08be
00000010: 6576 13bd 091a 9ebd bfdf 9fbe 699e fcbd
00000020: 7bcc 47be 92fe 3cbd 7d93 7f3d fd0c d3bd
00000030: d6da e6bd 0a6d 363e abed 8cbd 428a 343e
00000040: 9e52 fb3d 2fd2 7cbd 10b1 54bd 5c76 26be
00000050: e991 f83d 397f 143e b576 d2bd 1d8a 093e
00000060: 7808 73bd f712 4bbe ac2b 2bbe c19e b13d
00000070: 0f96 b8bc 33d4 2cbe 7793 103e 9630 bb3d
00000080: 0afd 3cbe eee6 e03d 534e 2abe 9ddd bebd
00000090: 26de 4e3e 67d6 9f3e d307 603d 30ec d0bc
000000a0: 0fd1 563d 88c5 523d b586 c43c 59e7 fb3d
000000b0: 0172 973d c49d c9bd a93c 903c 98e8 453e
000000c0: a69e aa3d cdd8 113c 46cb 08be 02e3 60be
000000d0: 1f30 81bd 5b8c 9b3d 7538 843d f561 2d3e
000000e0: 5c1a 8dbd 31e3 563e ff54 653e 1798 193e
000000f0: 0223 1c3c 46a7 703d 6803 0d3e 75eb 023e
00000100: d5ac 143e 7ad1 483c 4d89 0a3e c6f8 aa3d
00000110: b675 693e 4a2e 033e 0339 423e b178 2d3e
00000120: 6794 073d 8066 6d3e eeb2 633e 78d7 333e
00000130: c354 03be 3036 09be 3993 74bc 778a 393e
00000140: a6b4 cdbd 0051 bb3d be13 64be bfac 14be
00000150: 4232 fc3d a054 98bd 9171 b1bc 999b 6abe
00000160: cbf1 f6bc 74ee f23d 90a6 3a3e f20c 5c3d
00000170: fd5f 7dbd 099a a13d 8f2a 3abc 69cf 42bc
00000180: e726 763d 2540 213e cdef bfbd 78cf 0a3e
00000190: ee91 2a3e 026f 913c 74cf 35bb f047 72be
000001a0: 29b0 78be 2141 c5bd 048e 293d 7ac9 613d
000001b0: 2930 f0bb bd19 5cbe fec6 dbbd 74d4 493e
000001c0: 03ac 52be d044 923e 21ad e6bd 26d2 3abe
000001d0: 4518 02be 1e68 3b3e ff5e 09be f89e 70be
000001e0: b297 523e 69d8 79bd b9c1 a7bd c0df 273e
000001f0: 301b 303d b8f6 e43d b523 8d3d 3c14 2fbe
00000200: a6c6 593e 9f3f 4fbe 1b52 d9bd 7917 d3bd
00000210: 4390 e73d 068e 8e3d 4834 503e 10c1 923c
00000220: c91b 1fbe 6604 533e c1d2 1abd 4ffc 5a3e
00000230: 4a0e 963d b3c9 093e 37e8 28be d4e3 193e
00000240: 7867 773d 5d74 35be bb8d 053e b8e1 7fbe
00000250: 2c26 1bbe d719 993d 2b23 8b3e e68f 29be
00000260: 5017 b0bd 2f66 72bd bd92 93bd 010b d7bd
00000270: 5591 f03d 4cdc a63d 61b9 a03d 7419 5e3e
00000280: 52d0 6ebd 8db5 1dbe 42d4 2cbc da8c a13d
00000290: 86ec 573e 785a 0bbd cae0 27be 2752 433e
000002a0: 7b17 823e 47a6 4a3d 005b 1fbe c8ae 8dbd
000002b0: f9bc 563e 487b 853d 1329 70bc 840c 03bd
000002c0: 3116 913e 446b 353d a738 adbe eb22 643e
000002d0: d5f6 47be e27f 333e 1618 ee3d 8607 4ebd
000002e0: f776 35be 0223 de3d 5fe6 67be 0767 fbbd
000002f0: 751e 5a3d 415a b93d 5ba0 203e 169b 1e3e
00000300: 1b73 3b3d 565e 4abe de07 24bd 8971 403e
00000310: cb1f 1dbe c153 1dbe bd42 803d 94d0 bbbd
00000320: fc17 c53d 7177 053e 2c95 283e 630d 2abe
00000330: 3d61 9b3d 44b6 853d 5547 20bd af72 153d
00000340: fec3 303e 40dd 4ebe 5a0c 4ebe 5282 fb3c
00000350: d890 12be 3678 863c 0fc8 263e 7fa8 94bd
00000360: 0595 f2bc f849 60bd c75f 153e 56c7 ee3c
00000370: 986c 1bbd 0937 1d3e a377 083e 03cb 23be
00000380: 4ec9 27be 6ae6 bbbd dc6f 413e bece 413e
00000390: b2ec 5ebd a96e 4f3e 6779 8dbd c218 33be
000003a0: 9f1e 9f3e 9c54 53be 5884 cd3d 2ae1 79bb
000003b0: 4de6 713c 28e4 fdbd 2f20 03bd 6f8f 93bc
000003c0: 7bc8 f0bd fa0c 053e 7ac1 533e 884b 3cbe
000003d0: 8c00 11bd 42a9 a3bd c284 f93d 9752 ddbd
000003e0: 7694 b13d 0fc9 48bd da1d 9cbd 6577 443e
000003f0: dc4e d73d 3089 4fbe 7793 3a3e 0a85 ffbc

hiden_layers.2.bias f4 [64]
0.080620855 -0.015178377 -0.05566945 0.023578 0.023577385 -0.019761134 -0.074982174 -0.097013965
-0.029705618 0.007418736 0.0119285695 0.012520508 0.01420409 0.0024817989 -0.0136417635 0.02982742
0.010630109 -0.043106947 -0.005381989 -0.031995274 0.017054502 -0.014130698 0.036946844 -0.022050362
0.092635624 0.07434221 0.081390284 -0.035516623 -0.029931538 0.018278288 0.098975115 0.030708153
-0.046726767 0.00888909 -0.007956845 0.039844554 0.021561323 0.038257144 -0.18250406 0.043283325
-0.0015273481 0.030705187 -0.04175293 -0.10303098 0.09241843 -0.023378497 -0.045975994 0.030292543
0.07424264 -0.14119595 0.015704691 0.03417818 -0.08201739 -0.03942171 0.030529954 0.03310601
0.009217838 -0.051214475 -0.04210861 0.015068863 -0.020890526 -0.0013963144 -0.005867222 0.051092185
00000000: 8c1c a53d baae 78bc a605 64bd a626 c13c
00000010: 5c25 c13c 1ae2 a1bc 4190 99bd 42af c6bd
00000020: 3259 f3bc de18 f33b 0c70 433c d122 4d3c
00000030: 46b8 683c ada5 223b b481 5fbc a258 f43c
00000040: e929 2e3c e990 30bd 655b b0bb 7a0d 03bd
00000050: e2b5 8b3c 7184 67bc 9355 173d f6a2 b4bc
00000060: bfb7 bd3d bb40 983d f3af a63d e179 11bd
00000070: fc32 f5bc 59bc 953c 77b3 ca3d aa8f fb3c
00000080: 9164 3fbd 8ca3 113c 6d5d 02bc 0b34 233d
00000090: 5fa1 b03c 86b3 1c3d 58e2 3abe db49 313d
000000a0: 4c31 c8ba 7289 fb3c 1f05 2bbd e801 d3bd
000000b0: e045 bd3d 4384 bfbc 5351 3cbd 1128 f83c
000000c0: 860c 983d ac95 10be 20a7 803c 6bfe 0b3d
000000d0: bcf8 a7bd a978 21bd f419 fa3c 2b9a 073d
000000e0: 6a06 173c 45c6 51bd 147a 2cbd 64e3 763c
000000f0: 9c22 abbc 8904 b7ba d341 c0bb 0a46 513d

hiden_layers.3.weight f4 [64, 64]
-0.20092247 0.23100567 0.17856194 -0.058419727 -0.08169033 0.12942731 -0.045940425 -0.18275112
-0.02246675 0.026691135 0.17400944 -0.03245394 0.12322769 -0.1921428 0.20848463 -0.10094993
-0.17807896 -0.16799583 0.040331654 -0.122290626 0.2063926 -0.20902696 0.21271254 0.22308837
0.05130979 0.13501921 -0.07835346 -0.030191123 0.1470962 0.1561269 -0.12438006 0.19590402
0.0032848904 0.0328226 -0.03397233 0.12785456 0.08563316 0.035729118 0.08663529 -0.064968616
0.05283565 0.23491508 -0.236979 -0.14075361 -0.0057642087 0.19368044 0.086074345 -0.1025792
0.15858707 -0.2015604 -0.16339102 -0.19584571 0.37677553 0.20835018 0.18500619 -0.10997394
0.105472974 0.07982194 -0.20924486 0.11605523 -0.009995357 0.21206096 -0.100912035 0.18075754
-0.21507919 -0.052630287 -0.008031496 -0.0021391471 0.06406398 0.20967469 -0.14558311 0.11172407
-0.18224987 -0.1869461 0.1340868 0.09463377 0.12643145 -0.02803638 -0.019460639 0.19328219
0.2686101 0.012945737 0.12361077 0.10841167 0.25025377 -0.054269724 -0.13475592 0.18958358
-0.33595958 0.14657608 0.19644006 -0.07248236 0.17230698 -0.04715947 -0.2268478 0.111390814
0.117450684 -0.16594207 0.38970268 0.12065306 -0.027053168 -0.22709458 -0.11246398 0.12929554
0.059509516 -0.082402036 0.08477189 0.24590003 -0.0041885376 0.031019915 0.15194118 0.2524754
0.04695031 -0.13349897 -0.16798429 0.21649875 0.050272137 -0.06187459 0.11645046 0.2040598
0.22827747 -0.14639358 0.13566941 0.017771956 0.12364197 0.17347956 0.023299478 0.05362343
-0.10185217 0.15325731 -0.13671733 -0.0973907 -0.10172215 0.16263041 0.21309027 -0.23792046
0.076297015 -0.072864056 -0.039618652 0.064841196 -0.15551826 -0.0056818244 0.13951625 0.0012048559
0.108317606 0.21270807 -0.20634866 -0.21249636 0.037728768 0.049618166 -0.13574454 0.026473068
-0.027414978 0.081564285 -0.18954487 0.22453934 0.13833879 -0.20866232 -0.17320266 -0.121051244
-0.29199836 -0.084018625 0.24228211 -0.03992027 -0.05441296 -0.114730276 -0.0028893377 0.10728616
0.24140646 -0.2713316 -0.1646412 0.081900895 -0.06568674 -0.19888127 0.20885155 -0.14616297
-0.20036042 -0.21804523 0.2586712 0.1338967 0.16209012 -0.03380147 -0.0085732695 -0.2882542
-0.14942457 -0.10502696 0.029846724 0.11591061 0.14866076 -0.0442802 -0.051389318 0.007472154
0.045381967 -0.17586243 0.08249042 -0.06265486 -0.21772605 -0.12200733 0.039723676 -0.1188176
0.082982816 -0.18300928 -0.18298167 -0.13281687 -0.21674687 -0.21200903 -0.11299341 -0.018257607
-0.17263685 0.052558217 0.01257653 0.107541196 0.10282494 -0.004270657 -0.15653154 -0.0052308342
0.22074568 0.09431575 0.09055022 0.04178847 0.1713005 -0.2170647 0.056171015 0.06945554
0.18865116 0.17851825 0.1075809 -0.12204115 -0.26495993 -0.048444346 -0.12285955 -0.039505173
0.0052544577 -0.116799384 -0.18355525 -0.010969833 0.11364353 -0.1187498 0.19697714 0.04764704
-0.065213755 0.13418947 -0.062295415 -0.14526461 0.052494105 0.16477618 0.062149208 0.15338364
0.13100967 0.12122487 0.16516277 -0.08673875 -0.04919785 -0.23497769 -0.14980713 0.027501998
00000000: 9fbe 4dbe c08c 6c3e f1d8 363e 8649 6fbd
00000010: 424d a7bd 9888 043e 072c 3cbd 1c23 3bbe
00000020: 310c b8bc 5ea7 da3c 882f 323e 6cee 04bd
00000030: cd5e fc3d 15c1 44be ff7c 553e d6be cebd
00000040: 555a 36be 1907 2cbe ce32 253d 8273 fabd
00000050: 9558 533e 2a0b 56be 51d1 593e 4771 643e
00000060: 372a 523d 7a42 0a3e c777 a0bd 6053 f7bc
00000070: 63a0 163e bbdf 1f3e f9ba febd 109b 483e
00000080: 5147 573b fe70 063d 9226 0bbd 4eec 023e
00000090: 7060 af3d b258 123d d86d b13d 440e 85bd
000000a0: 326a 583d 948d 703e 9faa 72be b721 10be
000000b0: b0e1 bcbb 2a54 463e bf47 b03d 0b15 d2bd
000000c0: a664 223e d965 4ebe fa4f 27be c78b 48be
000000d0: b9e8 c03e c059 553e 4372 3d3e 043a e1bd
000000e0: 3702 d83d af79 a33d 4944 56be 5dae ed3d
000000f0: 91c3 23bc 8226 593e f8aa cebd 8118 393e
00000100: b83d 5cbe db92 57bd 8996 03bc ef30 0cbb
00000110: fa33 833d f6b4 563e bd13 15be 97cf e43d
00000120: b69f 3abe cc6e 3fbe 0d4e 093e 5acf c13d
00000130: 3f77 013e 8dac e5bc eb6b 9fbc c4eb 453e
00000140: 4387 893e 5b1a 543c a527 fd3d f006 de3d
00000150: 4321 803e ee49 5ebd 75fd 09be 3322 423e
00000160: e502 acbe 0a18 163e 9527 493e a271 94bd
00000170: 3e71 303e 4a2a 41bd ca4a 68be de20 e43d
00000180: fc89 f03d b8ec 29be 1c87 c73e f418 f73d
00000190: 9b9e ddbc 7b8b 68be 8453 e6bd 0d66 043e
000001a0: 40c0 733d 66c2 a8bd e29c ad3d 38cd 7b3e
000001b0: 0040 89bb 7a1d fe3c 7896 1b3e 7544 813e
000001c0: f84e 403d f4b3 08be 1304 2cbe d9b1 5d3e
000001d0: 28ea 4d3d 3670 7dbd 947d ee3d 0df5 503e
000001e0: 92c1 693e 33e8 15be ecec 0a3e 7e96 913c
000001f0: 0038 fd3d a0a4 313e 8cde be3c 3ea4 5b3d
00000200: df97 d0bd 7cef 1c3e a1ff 0bbe c674 c7bd
00000210: b453 d0bd 9688 263e 5634 5a3e 6ca1 73be
00000220: 9c41 9c3d c039 95bd 2b47 22bd 76cb 843d
00000230: 2e40 1fbe 992e babb 59dd 0e3e 41ec 9d3a
00000240: 9fd5 dd3d 25d0 593e 104d 53be a598 59be
00000250: 7b89 1a3d 6b3c 4b3d 9e00 0bbe 0cde d83c
00000260: 6095 e0bc 2d0b a73d 0d18 42be a4ed 653e
00000270: afa8 0d3e 93ab 55be 0a5c 31be b7e9 f7bd
00000280: cf80 95be f511 acbd cd18 783e 7083 23bd
00000290: 20e0 5ebd b5f7 eabd 0b5b 3dbb d9b8 db3d
000002a0: 4133 773e faeb 8abe b497 28be a8bb a73d
000002b0: c586 86bd 88a7 4bbe 2edd 553e bfab 15be
000002c0: 482b 4dbe 4047 5fbe 8d70 843e 371c 093e
000002d0: f4fa 253e 6973 0abd e676 0cbc 0e96 93be
000002e0: c102 19be 6018 d7bd 1e81 f43c 8b62 ed3d
000002f0: 873a 183e 285f 35bd 9b7d 52bd f9d8 f43b
00000300: 71e2 393d 4815 34be bdf0 a83d 3151 80bd
00000310: 94f3 5ebe fbde f9bd 4bb5 223d a456 f3bd
00000320: e5f2 a93d c966 3bbe 8c5f 3bbe 2501 08be
00000330: e4f2 5dbe e518 59be 1769 e7bd fa90 95bc
00000340: b7c7 30be 4947 573d ca0d 4e3c 8f3e dc3d
00000350: e295 d23d def0 8bbb ce49 20be 6b67 abbb
00000360: 280b 623e 9e28 c13d 6572 b93d 632a 2b3d
00000370: 6669 2f3e 3546 5ebe 9413 663d b53e 8e3d
00000380: c52d 413e 7dcd 363e 6053 dc3d b6f0 f9bd
00000390: d4a8 87be 946d 46bd ca9d fbbd 2dd0 21bd
000003a0: 962d ac3b 8434 efbd e8f5 3bbe d0ba 33bc
000003b0: f0bd e83d 1833 f3bd 60b4 493e 8b29 433d
000003c0: ca8e 85bd f768 093e 7a29 7fbd 3fc0 14be
000003d0: 0f04 573d 16bb 283e 2b90 7e3d 9a10 1d3e
000003e0: 6627 063e bf44 f83d 6e20 293e 16a4 b1bd
000003f0: af83 49bd fe9d 70be 0a67 19be df4b e13c

hiden_layers.3.bias f4 [64]
-0.04521746 -0.092999816 -0.023562064 -0.011878003 0.021282984 -0.029122764 0.0730212 0.03170733
0.012070387 -0.0049493574 0.02982268 -0.024957526 0.034810543 0.11572439 0.064917795 -0.043059602
0.0001024832 -0.0035549277 -0.032807205 -0.0008067865 0.02207884 -0.050839275 0.005019987 0.04351251
-0.05806445 0.033962816 0.01645166 -0.10075798 -0.021178603 -0.018085169 0.029417634 0.06273505
-0.051985003 0.08097657 0.013477369 0.010528845 -0.03324387 0.019231893 0.013132558 0.063780285
-0.19775559 0.05186437 0.009216112 -0.013437841 -0.0571144 0.0495079 -0.037227385 -0.0303745
-0.07642947 0.039856486 -0.044543773 0.047481276 -0.043310806 0.014077233 0.021802098 -0.086786814
-0.023911087 0.03809751 0.002489015 -0.027202519 -0.0002929736 0.04878605 0.012557424 0.021969073
00000000: f135 39bd b076 bebd 3b05 c1bc f59b 42bc
00000010: a759 ae3c dd92 eebc 248c 953d 8cdf 013d
00000020: dfc2 453c 382e a2bb b14e f43c ba73 ccbc
00000030: 8095 0e3d e900 ed3d 9ff3 843d 445f 30bd
00000040: 40ec d638 caf9 68bb d960 06bd 877e 53ba
00000050: afde b43c d83c 50bd b47e a43b 2c3a 323d
00000060: fdd4 6dbd 981c 0b3d a2c5 863c 335a cebd
00000070: c07e adbc 5927 94bc 40fd f03c 3c7b 803d
00000080: 3aee 54bd 0bd7 a53d 2fd0 5c3c 2d81 2c3c
00000090: b92a 08bd 348c 9d3c f129 573c 3d9f 823d
000000a0: 7180 4abe bc6f 543d 2dff 163c 642a 5cbc
000000b0: caf0 69bd ccc8 4a3d be7b 18bd f2d3 f8bc
000000c0: 0e87 9cbd 8e40 233d 8873 36bd ba7b 423d
000000d0: ac66 31bd 32a4 663c 509a b23c 49bd b1bd
000000e0: 2fe1 c3bc 220c 1c3d be1e 233b d1d7 debc
000000f0: 409a 99b9 e2d3 473d a7bd 4d3c 7cf8 b33c

hiden_layers.4.weight f4 [64, 64]
-0.26611298 0.14614163 0.068547405 -0.21422285 -0.015338584 -0.049179412 -0.07267799 0.1286503
-0.07602265 -0.0001463619 -0.035110418 0.09684223 0.06498566 -0.1020559 -0.08171468 -0.022325154
0.0030279802 -0.00018102965 0.13710558 0.2675135 -0.11167688 0.046223443 -0.18479727 -0.060063165
-0.14026172 -0.13324103 0.25305673 0.20397632 -0.2715616 -0.16061217 -0.11898931 -0.024754955
0.18615158 0.017951844 0.037240565 -0.25764564 0.1351459 -0.100617275 -0.034560464 -0.018534226
-0.30080613 0.048093524 0.1225001 0.0973512 0.04228821 0.15160531 0.2530088 -0.14736068
-0.20086147 -0.0581089 0.07281026 0.118359976 -0.25603563 0.16567993 0.3076656 -0.15980253
-0.030111358 0.047707945 -0.30540043 -0.16244021 -0.036487784 -0.12708229 0.09913085 -0.05813559
0.01924322 -0.29957196 -0.21448259 0.063996874 0.09624859 0.03827011 -0.18739122 0.0062080976
-0.15057835 -0.10659182 -0.061834168 0.096971996 0.17187679 0.25297433 -0.20121147 0.0107959425
-0.21574867 -0.06902995 0.17032048 0.023403522 0.23482566 0.13517042 0.13181053 0.06953545
-0.08052918 -0.20239188 -0.25332996 0.12576024 0.13831915 0.09746205 -0.17795871 -0.17560004
0.07209124 0.018589549 0.25953728 -0.012484061 -0.22814061 0.030462055 0.06807772 0.06347672
0.42570752 -0.13201964 0.11927645 0.056582883 -0.1132564 0.19823436 -0.0242739 -0.06290224
-0.14204732 0.110155486 -0.16597144 -0.029538825 0.1700209 -0.05393824 0.17814668 0.066512235
0.08820664 -0.1592506 0.056355283 -0.024890615 0.52728856 0.05986331 0.13119075 0.093523555
-0.13604115 -0.15275595 -0.122935176 -0.17681447 -0.03120276 -0.06349767 -0.020849336 0.15602939
-0.055300977 -0.18519266 0.107058845 -0.07447541 -0.05023923 0.2362864 0.09707545 -0.24598454
0.00025876015 0.23225433 -0.083892405 0.06345195 -0.09061193 -0.11392418 -0.10425059 0.017835543
-0.19834308 -0.25361505 -0.0968528 0.19748822 -0.17184915 0.11126176 -0.09374048 0.13689952
-0.13531451 -0.039349504 -0.16355227 0.13742843 -0.033332724 0.052081935 -0.12230583 0.22864081
0.21504347 0.082293615 -0.22666928 -0.1254635 -0.14071165 -0.029906515 0.12401075 0.11907231
0.18354587 0.019373165 0.23173827 -0.13429037 -0.16330855 0.17832124 0.003132956 0.09880213
-0.076526865 0.17009854 0.18834746 0.24766614 0.07963194 -0.0066910586 -0.0018771092 0.20090513
0.1020469 -0.1356903 -0.058534183 0.10027735 0.027458753 0.0019078531 0.013753976 -0.10705849
0.15326977 0.09095504 0.16729969 -0.074890986 -0.10131635 -0.16459396 0.17909408 0.22687274
0.025922114 0.026809365 -0.22506514 -0.2110011 -0.14544906 0.11971465 0.11415625 0.12787478
0.1960647 -0.05746137 0.041257404 -0.12586664 -0.061057575 0.066100456 -0.040547464 -0.26078746
-0.012030917 0.042604074 -0.12095163 -0.08913093 0.21690863 -0.017028293 -0.14194514 0.06422804
-0.1619174 0.07480953 -0.14704907 0.20447692 0.12374645 -0.19436282 -0.0760321 -0.16467522
-0.089796774 0.12262208 -0.100137606 0.21610162 -0.01794816 0.11876727 0.13926974 0.21072663
-0.13853589 -0.042754825 0.21416688 0.106098406 0.22796896 -0.08068948 0.10998709 0.20798708
00000000: f63f 88be 27a6 153e 9562 8c3d 3c5d 5bbe
00000010: af4e 7bbc 5a70 49bd 33d8 94bd e7bc 033e
00000020: c3b1 9bbd b978 19b9 f1cf 0fbd 3855 c63d
00000030: 3417 853d af02 d1bd 075a a7bd 3ee3 b6bc
00000040: 1471 463b c7d2 3db9 6865 0c3e 88f7 883e
00000050: d9b6 e4bd cb54 3d3d 7f3b 3dbe cb04 76bd
00000060: c5a0 0fbe 5670 08be a790 813e 2bdf 503e
00000070: 1f0a 8bbe 8477 24be abb0 f3bd e7ca cabc
00000080: 859e 3e3e bf0f 933c 9089 183d 21ea 83be
00000090: b063 0a3e 6e10 cebd 468f 0dbd 17d5 97bc
000000a0: 4303 9abe b7fd 443d 55e1 fa3d 1160 c73d
000000b0: 6736 2d3d 6c3e 1b3e 5f8a 813e b8e5 16be
000000c0: a1ae 4dbe 9903 6ebd 8c1d 953d b766 f23d
000000d0: 1a17 83be 00a8 293e 5886 9d3e 46a3 23be
000000e0: 18ac f6bc 6869 433d 725d 9cbe ba56 26be
000000f0: 3774 15bd dc21 02be 1d05 cb3d 961f 6ebd
00000100: f5a3 9d3c 7f61 99be 53a1 5bbe cb10 833d
00000110: fb1d c53d 1ec1 1c3d 7ce3 3fbe 4c6d cb3b
00000120: 3631 1abe d04c dabd d345 7dbd 4199 c63d
00000130: 7800 303e da85 813e 610a 4ebe 77e1 303c
00000140: 38ed 5cbe 935f 8dbd 7e68 2e3e beb8 bf3c
00000150: 2376 703e 1d6a 0a3e 57f9 063e 9a68 8e3d
00000160: 7cec a4bd d13f 4fbe 77b4 81be 4bc7 003e
00000170: 89a3 0d3e 2f9a c73d cf3a 36be 7fd0 33be
00000180: 92a4 933d 1c49 983c 12e2 843e f289 4cbc
00000190: b19d 69be 8f8b f93c 556c 8b3d 1500 823d
000001a0: 56f6 d93e 2830 07be 3647 f43d 74c3 673d
000001b0: f9f2 e7bd f3fd 4a3e 0fda c6bc e4d2 80bd
000001c0: da74 11be 3399 e13d 6bf4 29be 68fb f1bc
000001d0: f519 2e3e 58ee 5cbd 156c 363e 9137 883d
000001e0: afa5 b43d 9712 23be ccd4 663d 67e7 cbbc
000001f0: 62fc 063f 3b33 753d de56 063e 4789 bf3d
00000200: 5f4e 0bbe 0e6c 1cbe 70c5 fbbd da0e 35be
00000210: ee9c ffbc 110b 82bd 3acc aabc 2bc6 1f3e
00000220: 4783 62bd 25a3 3dbe ab41 db3d 9086 98bd
00000230: a7c7 4dbd 10f5 713e 7ecf c63d 5fe3 7bbe
00000240: 33aa 8739 14d4 6d3e c8cf abbd 19f3 813d
00000250: bf92 b9bd 1551 e9bd 5581 d5bd d81b 923c
00000260: 731a 4bbe d5d9 81be c35a c6bd 5a3a 4a3e
00000270: 39f9 2fbe 35dd e33d 02fb bfbd 632f 0c3e
00000280: e38f 0abe f22c 21bd 3f7a 27be 0aba 0c3e
00000290: e587 08bd de53 553d 7b7b fabd d120 6a3e
000002a0: 5b34 5c3e 8e89 a83d fe1b 68be 8179 00be
000002b0: b716 10be 82fe f4bc 59f9 fd3d 2fdc f33d
000002c0: 73f3 3b3e 79b4 9e3c cc4c 6d3e 6a83 09be
000002d0: 5b3a 27be d899 363e 4852 4d3b c558 ca3d
000002e0: 1eba 9cbd 502e 2e3e 28de 403e 319c 7d3e
000002f0: 1216 a33d ab40 dbbb 5509 f6ba 13ba 4d3e
00000300: f7fd d03d 66f2 0abe 8ac1 6fbd 365e cd3d
00000310: 2ef1 e03c ed10 fa3a 5b58 613c 7b41 dbbd
00000320: c0f2 1c3e a346 ba3d 9c50 2b3e 7260 99bd
00000330: f27e cfbd 528b 28be 7064 373e 5451 683e
00000340: 9d5a d43c 509f db3c 7a77 66be ac10 58be
00000350: 99f0 14be f42c f53d c1ca e93d 9bf1 023e
00000360: 2fc5 483e 9d5c 6bbd 86fd 283d 2fe3 00be
00000370: 8217 7abd ad5f 873d 1915 26bd ef85 85be
00000380: 531d 45bc 9c81 2e3d 7db5 f7bd 478a b6bd
00000390: 4c1d 5e3e eb7e 8bbc 115a 11be fe89 833d
000003a0: adcd 25be bd35 993d 0894 16be 6662 513e
000003b0: c76e fd3d 0c07 47be b8b6 9bbd 9fa0 28be
000003c0: 5fe7 b7bd 4921 fb3d f214 cdbd be49 5d3e
000003d0: 0508 93bc 413c f33d ba9c 0e3e b9c8 573e
000003e0: 5adc 0dbe af1f 2fbd 904e 5b3e 1f4a d93d
000003f0: b270 693e 8740 a5bd e940 e13d 91fa 543e

hiden_layers.4.bias f4 [64]
-0.08324186 -0.043948323 0.04010201 -0.041597918 -0.026365882 -0.018639784 0.08158109 0.05493093
0.046590377 -0.032242507 -0.08080857 0.06316109 0.059696358 -0.035698123 0.075576276 -0.00989644
-0.022290148 0.03189561 0.015865533 -0.039746713 0.041907005 -0.0063315644 -0.019106952 0.020070456
-0.07569003 -0.037363037 0.015291264 0.043052096 -0.014722277 0.034110997 0.02277652 0.05670498
0.031094484 0.10120603 0.039341994 -0.03929197 -0.010184945 -0.03395335 -0.049753156 -0.0524063
0.13125217 0.047156926 -0.025554985 -0.0016516949 -0.0004336695 0.00019363538 0.026127297 -0.061001122
0.06645325 -0.03641515 0.07377886 0.024060234 -0.08375643 0.013444555 -0.05646903 0.11243224
-0.021450395 0.05120457 -0.022584239 0.03567422 0.0068223425 -0.05411983 0.0146471085 0.015020863
00000000: b57a aabd 2803 34bd 0142 243d 9462 2abd
00000010: 43fd d7bc 76b2 98bc fd13 a73d 41ff 603d
00000020: 8dd5 3e3d b810 04bd f77e a5bd 9a5a 813d
00000030: 2b84 743d 3238 12bd bcc7 9a3d ae24 22bc
00000040: d499 b6bc f9a4 023d 6ff8 813c 73cd 22bd
00000050: aea6 2b3d 0379 cfbb 2f86 9cbc cc6a a43c
00000060: 6003 9bbd fc09 19bd 3688 7a3c 6557 303d
00000070: b535 71bc f9b7 0b3d d395 ba3c 7b43 683d
00000080: dcb9 fe3c 1b45 cf3d 1225 213d 9ef0 20bd
00000090: c1de 26bc ab12 0bbd f7c9 4bbd fda7 56bd
000000a0: f866 063e 9f27 413d b058 d1bc af7d d8ba
000000b0: 235e e3b9 9a0a 4b39 ea08 d63c 50dc 79bd
000000c0: a418 883d 0d28 15bd 5f19 973d f819 c53c
000000d0: 7e88 abbd 8d46 5c3c 124c 67bd e042 e63d
000000e0: bdb8 afbc e2bb 513d 9502 b9bc 221f 123d
000000f0: f58d df3b c1ac 5dbd 6dfa 6f3c 111a 763c
