results/6_model_3_case_2/model_weights.pth (torch, 484214 bytes, 88 tensors)

init_layer.0.weight f4 [64, 3]
00000000: 5266 8cbe a276 cabe 4e64 5d3e 2f69 bd3e
00000010: a0d0 9a3e e4eb 94bc e5c5 1cbc 1094 43be
00000020: 37b6 86be 07a0 703e 5cb6 d83c a2ec 123e
00000030: 8566 1cbe 0820 a73e c96d 963e 3871 a8bd
00000040: 20df 04be 4b0b be3e 483b 833e ed3c 6abd
00000050: d72e ee3e 11ad 9e3e e57f 113e 7cf4 d33e
00000060: a456 3e3e 4068 8cbe e1d2 eb3d 48f6 16be
00000070: 306b 07bd 5d3b b13e ce82 88be d563 ab3d
00000080: 1b88 683c 13da ed3d 3271 bf3d 3ccc b0be
00000090: c1c7 a1bd 6375 4cbc 7dab 14be 3a2c 9dbd
000000a0: 3ad2 203d b286 ca3e a0ba 7f3e 79e2 42bf
000000b0: 3a8c 2abb bf37 533e ca66 02be a722 a3be
000000c0: 439c 20bd 2501 babc ef8b c43e 8409 883e
000000d0: 8fcd c33e e90b 86be de51 f33d b536 2d3d
000000e0: 45af 9abe f997 64be 17e8 dc3d c011 c3be
000000f0: d847 c83d 9af8 9ebd f687 5cbe c96e 823d
00000100: 57e9 3c3d 9952 09be c02c 86bd d9de 8ebd
00000110: 0d88 8dbe 3ac1 c0bd 85ea 953e f49b b5bd
00000120: c242 32bd 5f94 f3bc 0e18 c73e 582d b13d
00000130: e26a 0e3e 934c 4fbe 3265 9abd c74b 3a3e
00000140: fe5c c03e 9d09 18be 6b20 30be ed89 473e
00000150: fd35 033e b00f af3d a26a 87be e2ac 8d3b
00000160: 8274 7fbe fda9 3f3e 7e41 03bf adb0 0cbf
00000170: 176e 0bbe 2db3 a6bd 551e 093d 0952 cd3e
00000180: 4b07 8abd f55f ae3d 9b9a ae3e 2133 7dbe
00000190: d9f2 443e f92b 31be aa98 693d c9ec 4cbd
000001a0: acc5 7abe c032 67bd bb00 a6bd 4b7b a1be
000001b0: 33ce 493d 9144 1cbc 853b ecbe c0ad 38be
000001c0: ba20 bdbb f70d 82be 4990 823e 918e 273e
000001d0: 805f d13e d7ea 24be 744c 793e 0d81 993e
000001e0: c12f cd3d a69e 33be c874 babe e99a c43d
000001f0: c30a d93d 0aea c4be 247b 323e 766e 52bd
00000200: 5e9d ad3e 5c84 8bbd 14db 18bd d237 903e
00000210: 88cc c23d 1971 f0bd 4097 a5be e571 213c
00000220: 4370 85bc 06e8 9e3e 8c21 6dbb 0726 24be
00000230: 0478 0f3e 1ba6 f13d 05df 373e 76e2 003e
00000240: adcd 5f3e 72c2 453f 3845 b6bc c14c 8d3e
00000250: be59 94be 5383 983e 6bff 043e ca13 94be
00000260: e0ed 8ebe b909 9cbe b787 ae3d 86c2 1fbe
00000270: 0536 8c3e a6d0 4abe 41e8 413e a414 ffbd
00000280: 7eae 5dbe 46c4 cb3d 106b 093e 79af ebbd
00000290: fb38 c7be 581b 583c e33a d2bc 8989 bb3e
000002a0: 5080 65bd b0f3 763d e01e cd3e c629 8c3d
000002b0: 6e94 31be d649 33bd d292 8f3e a756 913e
000002c0: cc16 ff3d efaa 203d ebcb bf3d 5925 a1be
000002d0: 4058 45be 6744 b4be ebbc efbd 7c42 6dbe
000002e0: 9ac9 b13d 274b d4bd 60a9 5f3e a453 08be
000002f0: 9506 c8bc e031 553e d7a0 47bd ee65 af3e
-0.27421814 -0.39543635 0.21620294 0.3699431 0.30237293 -0.018178888 -0.009568666 -0.1909945
-0.26310894 0.23498546 0.026454143 0.14348081 -0.15273483 0.32641625 0.29380634 -0.0822472
-0.1297574 0.3711799 0.25631166 -0.05718701 0.4652011 0.30991414 0.14208944 0.41397464
0.18587738 -0.27423286 0.11514831 -0.14742386 -0.033061206 0.34615603 -0.26662296 0.08368651
0.014192606 0.1161386 0.09347762 -0.34530818 -0.07899428 -0.012479159 -0.14518543 -0.07674451
0.039262988 0.3955589 0.24973536 -0.7612682 -0.0026023523 0.20626734 -0.12734523 -0.31862375
-0.039211523 -0.022705624 0.3838801 0.2656976 0.38242766 -0.26180962 0.11880849 0.0422885
-0.30211845 -0.22323598 0.10786455 -0.3809948 0.09779328 -0.07762261 -0.2153624 0.06368787
0.046120968 -0.13410415 -0.06551504 -0.069760986 -0.2764286 -0.09411855 0.29280487 -0.08867636
-0.043520696 -0.029733835 0.3888554 0.08651227 0.1390796 -0.20244054 -0.07538833 0.1819297
0.37570947 -0.14847417 -0.17199866 0.19486208 0.12813564 0.08547914 -0.26448542 0.0043235878
-0.24946788 0.18717189 -0.5127181 -0.54957086 -0.13616215 -0.08139644 0.033476193 0.4010165
-0.06739672 0.08514396 0.3410233 -0.24726535 0.19233264 -0.1730193 0.057030357 -0.050030503
-0.24489468 -0.056444883 -0.08105608 -0.31539378 0.049268913 -0.009537832 -0.4613916 -0.1803503
-0.0057717236 -0.2540128 0.25500706 0.16362979 0.40893173 -0.1610521 0.24345571 0.2998127
0.10018874 -0.17540988 -0.36417222 0.09599859 0.10597756 -0.38459808 0.17429787 -0.051374875
0.33909124 -0.06812355 -0.037318304 0.28167588 0.095116675 -0.11740322 -0.32341957 0.009853815
-0.016288882 0.31036395 -0.0036183326 -0.16030131 0.14010626 0.1179926 0.17956169 0.12586388
0.21855803 0.77249825 -0.022249803 0.2759762 -0.28974718 0.29787692 0.12988059 -0.28921348
-0.2791586 -0.30476168 0.08521979 -0.15601549 0.27384964 -0.19806156 0.18936254 -0.12455109
-0.21648595 0.099495456 0.13419747 -0.11508078 -0.3891066 0.013190113 -0.025662845 0.36628368
-0.05603057 0.060290992 0.40062618 0.06843905 -0.17341778 -0.043771587 0.28041703 0.28386423
0.1245552 0.039225515 0.09365066 -0.31473807 -0.19271946 -0.35208437 -0.11705955 -0.23169893
0.086810306 -0.10365897 0.21841955 -0.13313156 -0.024417201 0.20819807 -0.048737373 0.34257454

init_layer.0.bias f4 [64]
00000000: b9ca 9a3e 57e6 a1bd 1d4e bb3c f1cb 9abe
00000010: 51de 593c 66df 4d3d 675a 6f3e 14cf ab3e
00000020: 6b04 1fbe b34f 6bbe 2d01 b33e c439 7a3e
00000030: 2489 323e ab39 ee3e 9cd4 97bd 894b 543e
00000040: a4a0 b33e 3936 203e ffa1 303e d905 073e
00000050: 0598 3a3e 9016 193e ecfb 803e 4d33 953d
00000060: 7fb3 303e 0ce0 35be a4ee 0e3e 781f 06be
00000070: 3645 e1be 0101 9b3e fac6 b13c de19 17be
00000080: 3204 e8bd 96db 443e 57e4 3e3e b418 983e
00000090: b7f0 eebe fb84 54be 53be 8cbe 43f8 e4bd
000000a0: 880e c1be 5e91 47bd b617 84be 1e68 1bbe
000000b0: c693 cb3d d735 69bc d37d 65be 0e78 843d
000000c0: 1d42 02be cbc1 913e 2913 84be 2e7c 29be
000000d0: 4e5c 10be af69 30be 5f2d c53d 033f 883e
000000e0: 2e28 aa3e fde2 073e dd76 d13d db1f 1fbe
000000f0: ddb2 ea3c 67ec eabd 30e9 2d3e d1dc c73d
0.3023279 -0.07905262 0.022864396 -0.3023372 0.013297633 0.050261877 0.2337433 0.33556426
-0.15529029 -0.22979622 0.34961835 0.24436098 0.17435127 0.46528372 -0.07413599 0.2073194
0.35083497 0.15645684 0.17249297 0.13185824 0.18222053 0.14950013 0.251922 0.072851755
0.17255972 -0.17761248 0.13958222 -0.13097942 -0.43998116 0.30274203 0.021701325 -0.14755961
-0.11328925 0.1922439 0.18641792 0.29706347 -0.46668026 -0.20753853 -0.27488956 -0.11180165
-0.377064 -0.048722617 -0.2579934 -0.15176436 0.09940295 -0.014234028 -0.2241128 0.06468211
-0.12720533 0.28468165 -0.25795868 -0.16551277 -0.14097711 -0.17227815 0.096277945 0.26610574
0.3323378 0.13270183 0.102277495 -0.15539496 0.028649742 -0.114708714 0.16983485 0.09758914

hiden_layers.0.weight f4 [64, 64]
00000000: 92cb d3be df63 143e 64ab 053e 92d7 613e
00000010: 4c46 6abe 40e2 dfbc 4629 f43c 785d 41be
00000020: fe7a 093e 8cf2 a1bd 1dc3 f9bd 3a15 443e
00000030: ef22 263d 05d0 973d a808 b63e cf38 45bd
00000040: f89e 93bd 8ecc 86bd 8bd2 9c3d b8ee 61be
00000050: c687 ef3b 74c8 463e 69d6 13bc da8d cfbe
00000060: 3584 8c3d c9d1 53bd fb4c 15be efed 38be
00000070: b428 83bd 9268 dcbc 858c 8abe 80d7 f4bd
00000080: 0d99 1dbe ce4a 17be 8bff 583e e7f7 17bc
00000090: 0454 cc3d 0c07 8f3d 4f4f c93e 8a80 9bbd
000000a0: 7fb2 783e d0e2 a1bd e8b4 413e 2597 e4bd
000000b0: 8e86 763d c725 fabd d59f a83d eaca 74be
000000c0: c26f d03e 2c4e 2cbe 427c 8dbc f8bb 243e
000000d0: 0fa6 083e 29e8 ff3c 194b 973e ee05 283e
000000e0: 7b7c 58be 7a3e 013d 09ea 35bd 344b 293e
000000f0: 990b d9bc c0ef 2fbd a662 1abd d438 21be
00000100: 5ac4 833d e3db 16be 0538 0fbe 7843 653d
00000110: 980a 1dbe bcd2 e5bd 8d89 163e 3ed7 24be
00000120: 7005 83be 003d d6be 8086 a53e 9176 cf3d
00000130: 6fce ae3e 9b93 f93d 369e 5fbd d760 7a3e
00000140: 7d3a 6d3d 2828 873e f97b 0c3e 4d5f b53d
00000150: 27ff bd3d 257e fdbd 2250 b33e 6809 a73e
00000160: 176d edbc 94d9 85bd 56b2 683e b568 153d
00000170: 828c ebb9 6472 3b3e 33b0 74bd ed52 8abe
00000180: 3683 babd 427f 7d3e 716b b03e 3c62 cb3e
00000190: a0d3 f23d dbcb 8fbb ad00 4cbe 99e2 0f3e
000001a0: 20c5 27be c508 273d 50dd 0ebf 7d9c 3cbe
000001b0: de3e 2f3e b848 6abe 3379 b5bd 0318 75be
000001c0: c13a 5cbe 31d0 44bd 5e23 00be 131a 3bbe
000001d0: e311 f1bd 7755 89be ebf4 643e df9e c43d
000001e0: 211d 34be a95f 35be 2037 75be a5aa 69be
000001f0: 8e6c 9b3e 2c4a 593e 927d 423e b6b2 f0bd
00000200: 3598 e73d 59f9 f0bc c052 403e a501 173d
00000210: eb22 5dbe c474 203d d197 fbbc 338b 2fbe
00000220: 6217 c03d 453e 543b fe14 1bbd c90b 813d
00000230: 49b6 a53d 6543 44be c901 ec3d 904b 1cbe
00000240: 75ff c6bd c9ed a5be a0c1 ccba 30b1 0ebe
00000250: 271b 5cbd f55e 7dbe 1c02 46be e8b6 e03b
00000260: 471d 023d 468e 2cbe 0e45 24bd 8059 ae3e
00000270: d5ff 4cbd 48fa 20be ffad 163d 207d 803e
00000280: ce7c 21be 02dc 29be 9d5d 033e a197 1e3e
00000290: 2181 c1bd 092d 02be e35b 763d 53ed 623d
000002a0: 14e5 36be 0034 d1bd 3d4a 863e a209 9a3e
000002b0: 0ac9 273e 77bd b53d cf8e bf3d ece1 6ebd
000002c0: 0c45 7cbd d26c 313d b3dd adbd c581 55bc
000002d0: 267d af3d 20c5 053e 2cb6 19be bef4 623d
000002e0: a326 5cbe b1c4 133e d34f 4bbe 9353 32be
000002f0: afc3 443e 2626 45be 3fa9 5fbe d032 453e
00000300: ec0c 2e3c a321 48be d6b8 033e 0a50 bcbe
00000310: f42b 1fbe cb00 10be f1c8 9cbe 2541 babe
00000320: c6ee 0ebe f7a5 adbe 859d 3f3e dc8f 613e
00000330: 6be0 97bc cd89 fabe 625d 873e 5e20 b23d
00000340: 78d1 b5be fa5d df3e 62cf d43e 882b 813e
00000350: 1894 c33e 3c7c c83d e030 1dbb 210a 6fbe
00000360: 5532 47be 3e6c 393e c638 99be 65d3 88be
00000370: 9419 0b3e 683d 8bbe d53a c9bd 0e59 5ebe
00000380: d771 c2be 02e2 283e bf61 c63c 53ee 2d3e
00000390: 40d2 bb3e 0b36 d13c c2b1 bbbe 33f4 96be
000003a0: 5978 3f3e 87e7 843e d4e5 52be f7f9 fc38
000003b0: d0f7 933e bee1 77be 430e b43c bf3a 2dbc
000003c0: c551 a23e 2e85 5abe 9ace 1a3f a58d 863d
000003d0: c3eb 76be 0663 0f3c 7d2d ef3e b4d3 33be
000003e0: 8827 0bbf 842a e43c e145 ccbd 1da7 fe3e
000003f0: b401 9ebd 1b18 423c ae50 3b3d d4b1 c9be
-0.4136625 0.14491223 0.13053662 0.2205489 -0.22878379 -0.027329564 0.029804837 -0.18883312
0.13425824 -0.0790759 -0.12195418 0.19148722 0.04056066 0.074127235 0.3555348 -0.04814988
-0.07208055 -0.065819845 0.076573454 -0.2206372 0.0073098866 0.19412404 -0.009023287 -0.40537912
0.06861154 -0.05171374 -0.14580147 -0.18059514 -0.06404248 -0.026905332 -0.27060333 -0.11955166
-0.15390415 -0.1477463 0.21191232 -0.009275413 0.09976962 0.06983766 0.3931832 -0.07592876
0.24286841 -0.07904589 0.18916667 -0.11161641 0.060186915 -0.12214237 0.082336105 -0.2390553
0.40710264 -0.16826695 -0.017271165 0.1608733 0.13344596 0.031238632 0.29549482 0.16408512
-0.21141236 0.031553723 -0.044412646 0.16532594 -0.026494788 -0.042953253 -0.037691735 -0.15744334
0.064339355 -0.14732318 -0.13986214 0.055972546 -0.15336072 -0.11221835 0.14700909 -0.16097733
-0.25590086 -0.41843414 0.32329178 0.101300366 0.3414187 0.12186357 -0.05459424 0.24451004
0.057917107 0.26397824 0.13719167 0.08856068 0.09277182 -0.12377576 0.35022074 0.32624364
-0.028982682 -0.0653564 0.2272428 0.03647681 -0.0004492738 0.18305355 -0.05973835 -0.27016392
-0.09107058 0.24755576 0.3445697 0.39723384 0.118567705 -0.004388315 -0.19922133 0.14051284
-0.16383791 0.040779848 -0.55806446 -0.1841907 0.17113826 -0.22879303 -0.088610075 -0.23934941
-0.21506788 -0.04805011 -0.12513492 -0.18271665 -0.1177099 -0.26823017 0.22359054 0.09600615
-0.17589237 -0.17712273 -0.2394681 -0.22819002 0.30356258 0.212197 0.18993214 -0.117528364
0.11308328 -0.029415773 0.18781567 0.036866803 -0.21595351 0.039173856 -0.03071204 -0.17142944
0.0937946 0.0032385748 -0.037861817 0.06301076 0.08091409 -0.19166334 0.11523778 -0.152632
-0.09716693 -0.32407978 -0.001562167 -0.13934779 -0.053736832 -0.24743254 -0.19336742 0.0068577416
0.031766202 -0.16851148 -0.04010492 0.34052658 -0.050048668 -0.15720475 0.03678703 0.25095463
-0.15770265 -0.16587833 0.1282868 0.1548753 -0.094484575 -0.12712492 0.060146224 0.05540211
-0.17860824 -0.10214996 0.26228514 0.30085474 0.16385284 0.08874028 0.093534105 -0.058320925
-0.061589286 0.04331667 -0.084895514 -0.013031428 0.08568792 0.13063478 -0.150109 0.055409186
-0.21499114 0.144305 -0.1985467 -0.17414694 0.19215272 -0.19252834 -0.21841906 0.19257665
0.010623198 -0.19544081 0.12863478 -0.36779815 -0.1554411 -0.14062802 -0.30622056 -0.36377826
-0.13958272 -0.33915684 0.18712433 0.22027534 -0.018539628 -0.4893326 0.26438433 0.0869758
-0.35511374 0.43626386 0.4156447 0.25228524 0.38198924 0.09789321 -0.002398543 -0.23343708
-0.19452794 0.18107697 -0.29926127 -0.2672378 0.13583976 -0.27195287 -0.098256744 -0.21713659
-0.37977478 0.16492465 0.02421653 0.16985445 0.36683846 0.025538465 -0.36659056 -0.29483184
0.18698253 0.2595789 -0.20595485 0.00012062856 0.28900003 -0.24207208 0.021979457 -0.010573088
0.3170301 -0.21339867 0.604715 0.06569985 -0.24113373 0.008751636 0.46714392 -0.17561227
-0.54357195 0.027852304 -0.09974266 0.49736872 -0.077151686 0.0118465675 0.04573124 -0.39393485

hiden_layers.0.bias f4 [64]
00000000: 2f2c 6fbd ed7f 3b3e 723a babd 2a2f d4bd
00000010: 1954 7a3d c8c0 ca3d f05b a23e 1453 cabc
00000020: 8404 61bc 0d97 2abe 73c9 7cbe c7f2 3c3c
00000030: 40a6 283e 152e 26bd 1a51 c83d 1887 463e
00000040: 78e5 ccbd 82ec f7bc e04a bd3d ba40 72be
00000050: 88bf 1fbe cf61 fb3d b8f3 793c 2f86 02bd
00000060: c673 c13b 2919 9b3d 6617 00be f61e 5fbf
00000070: d29b 6a3e 4092 0abd 7927 463e 2876 ac3d
00000080: 8be5 903d 354d 0fbe 7db5 f2bd 7f61 a43d
00000090: 05f5 12be e2d0 213c 5fbe 7dbe c360 15be
000000a0: d8bd 9fbe 5f7d 4dbd 2d17 763e 2dd1 28be
000000b0: c010 c23d e496 2b3e 3dd4 fabb 54aa 1a3c
000000c0: 92ec 5e3e ac7c 12be dbc4 9abc 21b7 453e
000000d0: 9046 f1bd ee8c 03be 1468 923c fc7b 22bc
000000e0: bfae e2bd 0dde 723d 1325 81be dbb2 30be
000000f0: 6c44 52bd c561 aa3d a8ea babd 97ca 4dbc
-0.058391746 0.18310519 -0.09093179 -0.10360558 0.061115358 0.09900051 0.31710768 -0.024697818
-0.013733987 -0.16659184 -0.24686222 0.011532492 0.1646967 -0.04057129 0.09781094 0.19387472
-0.10004705 -0.030264143 0.09242797 -0.23657504 -0.15600407 0.12274515 0.015255861 -0.03186625
0.005903694 0.07573158 -0.12508926 -0.8715662 0.22911003 -0.03383088 0.19350995 0.08420974
0.07075032 -0.13994296 -0.118510224 0.080264084 -0.1435128 0.009876462 -0.24779652 -0.14587693
-0.31199527 -0.05016839 0.24032278 -0.16486044 0.09475851 0.16756779 -0.0076546953 0.009440023
0.21769932 -0.14305371 -0.018892696 0.1930814 -0.11781037 -0.12846729 0.017871894 -0.0099172555
-0.110684864 0.059293795 -0.25223598 -0.17255728 -0.051334783 0.08319429 -0.091267884 -0.012560508

hiden_layers.1.weight f4 [64, 64]
00000000: 1ce4 803d a5a4 163e d2f6 1fbe c040 193f
00000010: ec84 bd3d 1db4 cb3e acbb 41be 0c38 373e
00000020: 2fe4 b9bc 1ad3 3abd c8b6 be3c 5338 7abe
00000030: 9378 f63d 88e1 4c3d 089c df3d 3045 12bd
00000040: a1b4 1b3e 847a 863e e5db 6b3d 910e 8a3e
00000050: b013 873e d326 473b 23fc a93d 5678 5d3e
00000060: 54ce f2bd b874 a1bd 9107 cfbd 6739 5c3e
00000070: 7425 873d 8f35 3fbe 001e 6ebf 8cf6 b13e
00000080: 9305 823d 6fbf 213e 0a69 61be 46e3 43be
00000090: cdae f6bd 3ea8 3b3e 0054 03be d924 403e
000000a0: 1f46 273e 86bc 3f3e f787 13bf 9751 9d3d
000000b0: d192 843e 9829 8f3e 4f43 dfbc 2110 29bf
000000c0: b44c 133d 87a7 38be eb31 063e 16a7 303e
000000d0: afa8 07be 8524 193e 46c9 de3d 45f3 a0be
000000e0: 8f36 2c3f 75e7 45bc 108d 71be 61c1 623e
000000f0: 4225 bb3d b9b7 593e 9414 cb3d adeb 893d
00000100: 0217 aebd 5c50 24bc bb70 f6bc ecd8 9f3d
00000110: dea8 64be eea2 5ebd 08a7 36be b763 ab3c
00000120: d0b9 603e 4340 b0bd 7fb2 633e 5fcd 3d3e
00000130: 665d 7e3d edc6 c13d 4ed8 a03d ca12 4e3d
00000140: 579f 9e3d 7028 e8bd cf9e 163e 4a07 cc3d
00000150: db9e 183d 63cd 133e bc64 8fbe 5d83 813e
00000160: 41d7 23be a175 0d3e 7077 103d f722 86bd
00000170: ce82 4ebd c4c1 663d 2e96 f4bd 1d35 fa3d
00000180: fb01 983e ac56 2b3e e546 20be ae48 7ebe
00000190: e255 f8bd 301a 1a3c 1e39 bbbd 2f84 88be
000001a0: f3f1 57be 7f39 91be df3f 55bb 6e01 ebbd
000001b0: 39b8 763d d166 e23d 65ab dfbc dd7b 8abe
000001c0: eeca 2b3e dcb4 2e3e 471e 6ebe a6eb e6bd
000001d0: f884 a23d 005c 163d a25c 5d3e b81a 2fbc
000001e0: 0ea2 6b3b 316c 6b3d 46af 81bd 9083 f03d
000001f0: 4945 913d 5965 db3c 2511 e13a 5b20 e73d
00000200: 8fb7 423d 4351 5a3e 26b7 58bd c348 203c
00000210: 72d7 993e 593b f23d 1c29 6dbe 466c a1be
00000220: 6e7b 2b3e 6eb1 3ebe 8c65 d6be e453 e13e
00000230: c332 d53d 2d26 01be 385c 623e 5959 813d
00000240: b2a3 89be 5fc1 833b 3d67 ae3e a9ed 353e
00000250: 9039 be3d 9c57 46bd 7157 91be 012b d0be
00000260: b799 853e 80ba f13e 5d6b 1bbe 47c5 45be
00000270: e956 933e 11b2 673e 690d a23e ac5e a13e
00000280: b7fd 043d 73d3 b4be 0d37 d9be 10de 363c
00000290: 28d7 6f3b 55ac 0cbe 436e 7c3d c3ee abbe
000002a0: 9984 67be 0532 03bf 19b1 87be 8142 57be
000002b0: a52f 44bd e7fa c53e e6aa 173e 93da 533e
000002c0: 6239 fabd 7f29 80bd fd50 b53d 55ca 5fbe
000002d0: ad12 76bd 4c0b 59be 7576 c03d 04c2 203e
000002e0: 578a 05be aaff ac3e 5108 3cbe 5cef 72bc
000002f0: f4d8 c43d b9da 3c3e 7d2f 91be df59 d63e
00000300: ed8e 5e3e 51a0 ccbc 6213 1abe 4b6e 403e
00000310: 3c81 963e 218b 33be a559 2c3d 5b30 04be
00000320: 96bd fdbd 20db a8bd c43b 04bb 12f2 983e
00000330: d265 7c3e f8aa 363e f100 91bc d5fc cb3d
00000340: ccc0 283d 734a 5abe 0a88 3d3d 9c40 d93d
00000350: 2b06 c73a f931 80be 64db e03c 6b56 ec3d
00000360: a145 413e c228 283e 262e a43c c950 80bd
00000370: 4894 2e3e 57d7 693e 00ae 163e 8f83 8c3e
00000380: 12b9 553d 9057 98bd 8091 d1bd aa63 c3ba
00000390: 28e9 0c3e 83b4 c33d c7af 163e 4878 fb3d
000003a0: f19f 093e 3688 acbd 43ec 433e 3449 ab3d
000003b0: fec1 45be 7244 15be c21b 9ebe 38b3 0dbe
000003c0: 6707 e1bb 5da7 5c3e c780 173d d27c 673d
000003d0: c344 203e 67e4 8abd 29f3 5ebe b43b 233c
000003e0: b1ed 15be 09e5 91bd baf0 233e 6d7c 983d
000003f0: 74f1 05be 8574 803e 89df 5c3d f027 8cbe
0.062935084 0.14711244 -0.15621498 0.59864426 0.092538685 0.39785853 -0.18919247 0.17892474
-0.022691814 -0.04561148 0.023280516 -0.24435548 0.120347165 0.05001977 0.109184325 -0.035710514
0.15205623 0.26265347 0.057582755 0.26964238 0.26382208 0.0030388131 0.083000444 0.21627936
-0.1185576 -0.078835905 -0.10108865 0.21506272 0.065989405 -0.18672775 -0.93014526 0.34758413
0.063487194 0.15795682 -0.22012725 -0.19129667 -0.12045059 0.18325898 -0.12825012 0.18764056
0.16335343 0.1872426 -0.5762934 0.07681578 0.25893262 0.2796142 -0.027253775 -0.66040236
0.03596182 -0.18032657 0.1310498 0.17251238 -0.13247941 0.14955337 0.108782336 -0.314356
0.6727075 -0.012079109 -0.23588967 0.2214408 0.09137966 0.21261491 0.09916034 0.06734405
-0.08500482 -0.010028925 -0.030083051 0.078050464 -0.22330043 -0.0543546 -0.17837155 0.020921571
0.21945882 -0.08606007 0.2223606 0.18535374 0.06210079 0.0946177 0.07853757 0.050310887
0.077452354 -0.11335838 0.14709018 0.09962328 0.03726087 0.14433818 -0.28006542 0.25295535
-0.16000082 0.13814403 0.035270154 -0.06549638 -0.050417714 0.056337133 -0.11942707 0.12217162
0.2968901 0.16732281 -0.15652044 -0.24832413 -0.12125756 0.009405658 -0.091417536 -0.26663348
-0.2108839 -0.2836418 -0.003253929 -0.11474882 0.060234282 0.11054767 -0.027303407 -0.27047625
0.1677663 0.1706118 -0.23253737 -0.11275415 0.07935518 0.03670883 0.21617368 -0.010687523
0.0035954746 0.057476226 -0.06332259 0.117438436 0.07093293 0.026781725 0.0017171247 0.11285468
0.047538336 0.21320061 -0.05290904 0.009782973 0.30047184 0.11827726 -0.23160213 -0.3152792
0.16746303 -0.18622372 -0.4187435 0.44009316 0.10410073 -0.12612219 0.22105491 0.0631587
-0.26882702 0.0040208544 0.3406314 0.17766441 0.09288323 -0.048423395 -0.28387025 -0.4065781
0.26093838 0.472126 -0.15177675 -0.19313537 0.28777245 0.2262652 0.31650856 0.3151754
0.032468524 -0.35317573 -0.42424813 0.011161342 0.003659675 -0.13737614 0.06162859 -0.33580598
-0.22609176 -0.512482 -0.26502302 -0.21021463 -0.047897 0.38667986 0.14811286 0.20688848
-0.12217976 -0.06257915 0.08853338 -0.21854527 -0.060076404 -0.21195716 0.09397594 0.15699011
-0.13041054 0.33788806 -0.18362547 -0.014827576 0.09611693 0.18442811 -0.28356543 0.4186544
0.2173421 -0.024978789 -0.15046456 0.18792073 0.29395473 -0.17533542 0.04207768 -0.12909071
-0.12389676 -0.0824492 -0.0020177225 0.29872185 0.24648216 0.17838657 -0.017700644 0.09960333
0.04119949 -0.21317463 0.046272315 0.106080264 0.0015184333 -0.25038126 0.027448364 0.115399204
0.18874218 0.16421798 0.020041537 -0.062654085 0.17048752 0.22836052 0.14714813 0.2744412
0.05217845 -0.07438576 -0.1023283 -0.0014907022 0.13760817 0.09555914 0.14715491 0.12278801
0.13439919 -0.08424418 0.19133095 0.08363572 -0.19312283 -0.14576891 -0.30880553 -0.13837898
-0.0068673375 0.21548219 0.036988046 0.056515522 0.1565123 -0.067818455 -0.21772446 0.009962965
-0.14641453 -0.07123763 0.16009799 0.07445607 -0.13080388 0.25088897 0.053924117 -0.2737422

hiden_layers.1.bias f4 [64]
00000000: dd89 12bd 2160 433d 617f 443d 232c e23c
00000010: f40c 43bd fb21 db3d e7ab 8bbc 0b78 05bc
00000020: ac9c 203c 9ff5 663d c173 a6bd e557 c4bb
00000030: 812a 213e b15b 103d d5cc 35be 54d6 30bd
00000040: a19d d1bd ed7a 47bd 1348 93bc 2bfe d0bd
00000050: 970d 18bd caa4 253e 0ee7 1e3d b5fa d2ba
00000060: 7558 61be 44a1 f03c ee1e 8c3d 9251 0e3e
00000070: dbbf cfbd 42fb 19be d101 88bd be5e c9bd
00000080: 6de4 66bd 49c4 713c bec8 983b fcb4 10be
00000090: a2f9 c4bd 3baa 3ebe d4d6 d4bd c6cf 893e
000000a0: aac0 053e 53b4 e8bd b640 c43c 4f84 9d3e
000000b0: b8cf bebc 9bc9 ad3e cecf ffbb 6664 bf3c
000000c0: 87b3 993b 0584 a5bd 35e3 08bc 4de4 4c3e
000000d0: 237b 3bbc 054f 61bc fae3 a83d 3129 7dbd
000000e0: 5341 ba3d 4990 ebbc f2e0 d43c 8e08 183e
000000f0: 8ef8 3d3d 570f 10bc 18f1 343d 4db6 a8bd
-0.035776008 0.047699098 0.04797304 0.027608937 -0.047619775 0.10699841 -0.017049743 -0.008146296
0.0098029785 0.056386586 -0.08127547 -0.005991923 0.1573887 0.035243694 -0.17753918 -0.04317315
-0.102351435 -0.048701216 -0.017978704 -0.10204729 -0.037122335 0.16176143 0.03879457 -0.0016096445
-0.220064 0.029373772 0.06841837 0.13898304 -0.101440154 -0.15037253 -0.066409715 -0.09832524
-0.056370188 0.014756271 0.004662602 -0.1413154 -0.09617926 -0.18619625 -0.10392538 0.2691633
0.13061777 -0.11362519 0.023956638 0.30765006 -0.023292407 0.33942875 -0.0078067547 0.023363303
0.004690591 -0.08081821 -0.008354952 0.20008965 -0.011442932 -0.01375175 0.08246608 -0.06180686
0.09094491 -0.028755324 0.025986169 0.14847013 0.04637962 -0.00879272 0.044175237 -0.08237896

hiden_layers.2.weight f4 [64, 64]
00000000: b59a 17be 9497 173e 6166 1f3e 5664 35be
00000010: 3ae7 833b c45c 33be 171d 07be c50a b7bd
00000020: 7989 73be 8df5 abbd 5557 f2bd 617e 34bd
00000030: ad91 5d3e ad17 cf3e 2f94 27be 0a0c 3b3e
00000040: ad18 6f3e 7b96 29bd 30d6 773d 10c9 32be
00000050: 2729 a2bc aa99 133e 97b6 0abe 94bc 003e
00000060: 501e 29bb ee8d 1abe 1d85 aebd 52d0 223c
00000070: d54d 433c 05bd 3fbd 5def 193e fe0d 53bc
00000080: ad2e 83be 875f d83d 9f9a 16be 4126 1dbe
00000090: d3c7 c33e 98b7 993d da25 3a3e 6ee1 983e
000000a0: a88a 96bd d49c 833b 0710 2cbd e562 ff3d
000000b0: ab83 e73d b8e0 56be 8c93 3fbc ed02 103e
000000c0: 8ada 183e a728 9b3b 61fa f1bd efd2 98be
000000d0: 0b80 01be dc0f 303e 39b4 5c3e 2513 0f3e
000000e0: 37c3 64bc c034 803d 2138 cd3c 21c1 703e
000000f0: 362a 86be a7ca 833e 2853 713e 9eb3 ba3e
00000100: 6256 5b3e 0563 0b3d 7713 9f3c f642 033d
00000110: 534b 623e 1fe0 193e b7f5 9f3e 7971 b73d
00000120: 3899 233e 3f59 9d3e 17ac 883e 4b07 703e
00000130: cd02 ba3c ebf8 48bd b218 15bd 19d6 203e
00000140: e7e8 7bbe f84a 733d 0aca 5dbe 0e1d 2fbe
00000150: 6d52 c53d f6ee 10be 848f 403d 9aa0 0bbe
00000160: 1628 10bc 03c2 643d 6898 ae3e dd56 2e3e
00000170: 3674 8cbc 70fe 223e 4de7 e63d 6ad0 cbbc
00000180: 4649 a23d 8bb8 763e d007 89bd 9a01 6c3e
00000190: 3231 053e 83bb e13d efa5 1c3e 3e95 8ebe
000001a0: 067b 46bd f194 a5bd e9ef 213e e901 b23e
000001b0: 376d 8f3d b4c6 9dbd 5d06 bebc 6969 493e
000001c0: 45c1 f7bd 6877 973e e4a2 afbd e51c 9cbe
000001d0: ce16 9ebe 79a1 883e 491b dfbc 99d4 56be
000001e0: 9807 953e 2b3d 64bb f792 6dbd 2829 783d
000001f0: fa41 8f3d 5121 7e3e ddc5 223e 1f59 1fbe
00000200: 9331 143e f673 20be 45c9 71bd 9a1c f1bd
00000210: fcc7 533e 6bcb 5d3d 8a9d fb3e aed1 bd3d
00000220: e116 31be 5dac 813e 2556 043e 7301 4c3e
00000230: 124b 04bf 31c4 0c3e 7bd0 8fbe bb10 4f3e
00000240: d7ca 5dbe ba3d a0be 672a e23d de16 08be
00000250: bb23 8abd 12c9 8c3d 6b8f a53d c07d 133e
00000260: 64dd ccbe 3960 70bc 560c 24be 0e3a 36bd
00000270: b8b5 853d 3984 c1bd 29cb b93e ee98 893e
00000280: ab72 e7bd 4f76 41be 6c27 3cbd 53a5 323f
00000290: c313 2b3e c35f 9cba b982 c9be 353a ee3e
000002a0: cf92 e43b 3284 5dbe 26de 5ebe 1fc7 efbe
000002b0: b51b f43d ac87 31be d43c f2bd f383 a7bd
000002c0: 8e63 ff3d 77f0 953d b8a1 08be 3533 993e
000002d0: 0d93 c2bd 07f4 d63d 2e47 943d 56e9 083e
000002e0: d9e4 8fbe 68ce 833d dcd8 19be b3b5 febd
000002f0: 364c 8e3e cc4b 0dbf cd05 d63d 8dd2 093c
00000300: 560d 13be 63ba 17be 6a30 b4bd f156 203e
00000310: d57d debd 3e5c f5bd 1f8a 873e 62b9 80be
00000320: 3ee6 8b3e 5081 743e 3a88 953e aea7 86be
00000330: ac66 793d 4816 1f3d 80dc c83d ba77 1e3e
00000340: 568f e93c 3695 68be 6fee 65bc 5cc9 513d
00000350: a0bd a03d fe5a 9fbd 96fc ee3d 8366 2ebd
00000360: 419a 22bf b928 4e3d fce3 783d 3c1e 883d
00000370: 3a42 e8bd 146b 153e 8ff2 e8bd 086a 943e
00000380: ed70 6cbe 4d42 1bbe fa02 ad3d 0988 443e
00000390: 47a2 873d 8051 80bc 0c48 b2bc fa60 66be
000003a0: 68d2 733e 12a5 d8be a01a 0e3d fcd4 123e
000003b0: 4796 2b3e 08c2 5bbf 539f b9bd 926b 703c
000003c0: 9a2e eebd 5b00 813e 0e5d 453e f18a 7abe
000003d0: 2a2a 3cbe 09fe 17be 2e68 313e 1793 c23d
000003e0: 0a91 84bb fd9a 1d3e f79a 79bd fda1 773e
000003f0: e1b2 453e 0a20 57be ea55 153e 5027 15be
-0.1480511 0.14803916 0.15566398 -0.17714056 0.004025367 -0.17515856 -0.1319469 -0.08937601
-0.2378291 -0.083964445 -0.118330635 -0.044065837 0.21637602 0.4044775 -0.16365121 0.18266311
0.23349257 -0.041403275 0.060507 -0.17459512 -0.019795014 0.14414087 -0.13546215 0.12571937
-0.0025805421 -0.15093204 -0.08521483 0.009937363 0.011920412 -0.046811122 0.15032716 -0.012881754
-0.25621548 0.105650954 -0.14707421 -0.15346624 0.3823839 0.07505721 0.18178502 0.2985949
-0.07350665 0.004016498 -0.042007472 0.124700345 0.113044105 -0.20984161 -0.011692893 0.14063616
0.14927116 0.0047350707 -0.11815334 -0.2984843 -0.12646501 0.1719355 0.21553124 0.13972147
-0.0139625585 0.06260061 0.025051178 0.23511173 -0.2620408 0.2574055 0.23566878 0.36465162
0.21419671 0.03402998 0.019418461 0.03204628 0.22099046 0.15026902 0.31242153 0.0895719
0.15976417 0.30732152 0.26693794 0.23440282 0.022706414 -0.04906551 -0.036400504 0.15706672
-0.24600564 0.059397668 -0.21659103 -0.17100927 0.09634862 -0.14153656 0.047011867 -0.13635483
-0.00879862 0.055849086 0.34100652 0.17025323 -0.017145257 0.15917373 0.11274586 -0.024879653
0.07924132 0.24093835 -0.06690943 0.23047486 0.13007048 0.11022093 0.15297674 -0.27848238
-0.048457168 -0.08085049 0.15814175 0.34767082 0.07003253 -0.07703915 -0.023196394 0.19669117
-0.1209741 0.29583287 -0.08575991 -0.30490795 -0.30876774 0.26685694 -0.02723469 -0.20979537
0.29107356 -0.0034826498 -0.058001485 0.060586125 0.06995006 0.24817397 0.15895791 -0.15561341
0.14472036 -0.15669236 -0.059029836 -0.117730334 0.20681757 0.054149073 0.4914363 0.09268509
-0.17293884 0.25326815 0.12923487 0.19922428 -0.5167705 0.13746716 -0.28088745 0.20221226
-0.21659409 -0.31297094 0.11043244 -0.13289973 -0.06745096 0.068742886 0.080839954 0.14403439
-0.40012658 -0.014671379 -0.16020331 -0.04448896 0.06528801 -0.094490476 0.3628781 0.2687449
-0.11301168 -0.18892787 -0.045936033 0.69783515 0.16706757 -0.0011930395 -0.39357546 0.46528783
0.0069755088 -0.2163246 -0.2176443 -0.46831605 0.11919347 -0.17336911 -0.11828008 -0.08179464
0.124701604 0.07321256 -0.13342941 0.2992188 -0.09500704 0.10495763 0.07240139 0.1337026
-0.28104284 0.06435853 -0.15024132 -0.12437 0.2779252 -0.5519378 0.10450325 0.008412016
-0.14360556 -0.14817195 -0.08798297 0.15658166 -0.10863844 -0.119804844 0.26472566 -0.25141436
0.27324098 0.23877454 0.29205495 -0.26299804 0.06088893 0.03883961 0.09807682 0.1547536
0.02851073 -0.2271317 -0.014033898 0.051217422 0.07848668 -0.07781027 0.11669271 -0.04257823
-0.6351662 0.050331805 0.060764298 0.06646392 -0.11340757 0.14591628 -0.113743894 0.28987145
-0.23089953 -0.1516201 0.08447833 0.19192518 0.06622749 -0.015663862 -0.02176287 -0.22497931
0.23810732 -0.4231344 0.03469336 0.1433906 0.16756545 -0.85842943 -0.09063592 0.014674084
-0.11629982 0.25195584 0.19273779 -0.24467064 -0.1837546 -0.14843 0.17324898 0.095007114
-0.0040456103 0.15391155 -0.0609388 0.24182887 0.19306518 -0.21008316 0.14583555 -0.14565778

hiden_layers.2.bias f4 [64]
00000000: 7962 a13c af07 fc3c b4de f4bd 8623 a5bd
00000010: 239e d4bc 9e2a bcbe 14c8 f73d 2d23 5bbd
00000020: 1ab8 313d 1271 3ebd 9f6e aebc a710 24bd
00000030: 19e8 1bbd 0db4 31bd 74a8 903d 2fab 973d
00000040: a0e7 cf3b c47b f53c 3010 563d a0bc 86bb
00000050: 00e8 7bbd 6ee0 71bd 4061 d93c 7f9b 0e3d
00000060: eb47 103d c068 92bd 53a5 123c 3834 fe3c
00000070: 8bb0 8fbc 7bcf 833d 7d36 a03c c0b2 ae3c
00000080: 5d9f 84bd 10c8 98bd d503 9dbd 8582 0abd
00000090: 2f7c 1e3d bfdc b83d 5bbc 5cbd cf60 a03d
000000a0: cef8 e8bc e984 7abd 4b56 cbbd 6ad0 b63c
000000b0: 2b16 26bd d536 12bd 816a 493c 97dc 7dbd
000000c0: 43fc 84ba 8745 81be 2c10 e03d 2efb 22bd
000000d0: 63e9 02be 39ac 823d d860 26bc afb3 36bd
000000e0: 9387 6a3d f90e d13b 219a b4bd 05c0 9abd
000000f0: 8cd6 c13b 8d66 343e fa93 9ebc b9e1 7d3c
0.019700276 0.030765383 -0.1195654 -0.08063416 -0.025954312 -0.36751264 0.12098709 -0.053500343
0.043388464 -0.04649455 -0.021292983 -0.040054943 -0.038063142 -0.0433846 0.0706338 0.074056976
0.0063447505 0.029966243 0.05226153 -0.0041118413 -0.06150055 -0.059051923 0.02653563 0.03481626
0.035224836 -0.07148886 0.008950549 0.03103076 -0.017540237 0.06436058 0.019557232 0.021325469
-0.06475709 -0.07460034 -0.076667465 -0.03381588 0.03869265 0.09026479 -0.053890567 0.07830965
-0.028438952 -0.06116191 -0.099285685 0.022316176 -0.040548485 -0.035696823 0.012293459 -0.06197795
-0.0010145981 -0.25248358 0.109405845 -0.039790325 -0.12784342 0.06380505 -0.010154925 -0.044604953
0.0572582 0.0063799587 -0.0881846 -0.07556156 0.0059154686 0.17617245 -0.01935767 0.015495711

hiden_layers.3.weight f4 [64, 64]
00000000: ebed 2ebd f770 b93e 5b86 ab3e 094e 3cbe
00000010: 70a2 1bbd cc55 433e 4893 5dbc e8ec 97be
00000020: 9fe3 3abd a1d0 be3d 3061 d93d e918 02be
00000030: 72ae 3b3e e2f9 a2bd 3473 213e 41cf f3bc
00000040: 41cd 09be e009 8fbe 52dd 273e af7c 4abe
00000050: e160 323e 1d8e a93d 561d e03e 8514 353e
00000060: 5ae2 6e3e 3132 eb39 2e5a f6bd 2b80 4dbe
00000070: 221e 8c3e e699 343e a589 8dbc 6e99 a13d
00000080: 8a0f ea3e ca6a a73d ea66 4dbe 0ae2 d43d
00000090: 507c b63d 817b 1fbd 061b b63e af26 a8bd
000000a0: 537a 1c3d c78d c23d 13cc 4abe 3063 99bd
000000b0: 526d 47bd 6abc 203e 8759 a5bd b592 f9bd
000000c0: a44b bf3d 3b3b 5bbe a622 a6bc dd07 713d
000000d0: 6bad b93e 7e81 353e f310 223e d784 01be
000000e0: 0a6a f93d 1c4f a13d fb30 57be e4dc e23d
000000f0: db0a d23d 66af b73e 0bc5 0cbd 4173 a83e
00000100: c342 3dbe 959c a53d 2abe 93be 8300 2d3e
00000110: a8ba 0d3e 7273 823e c587 72be b871 2b3e
00000120: 6ab4 7bbe 2aeb 3bbd b4cf c73d 4f1c 623c
00000130: ea38 413d 5f8b 68bc 1e70 cbbb fcbb 183e
00000140: 1bca 653d 5bb0 a1bc 12eb c03d 80ac 2e3d
00000150: 6d84 413e dc41 40be 073d 4fbe 0d55 623e
00000160: 0274 913a 3175 8c3d 3b65 513e 5ba7 23be
00000170: 57f9 243e 6e1e c8bb 99db a3be 9587 4e3d
00000180: 14d6 03bd 07e3 0abe abd0 af3e 8d74 ae3e
00000190: 3c89 fb39 e477 adbd 55fb aabe d405 483e
000001a0: 8bbc 1c3e 2600 60bd f2d7 e03b 7379 ad3e
000001b0: 86cc 5dbd 53a5 1f3e a99b 46bd d908 31bd
000001c0: 4883 243e 327d 04be 26a8 74be ada2 893c
000001d0: 6ac3 0a3e f950 893c e80d 9fbc 5ce8 2a3e
000001e0: 2a2e 983d 09bc 1fbe 38c8 943e 2037 71bc
000001f0: 7bc5 963e fb63 e03d bbd3 a73d 07e7 23bd
00000200: ab58 b5bd c977 9c3e 0347 2ebe 4bb4 a53c
00000210: 7e70 3ebd ccf1 7a3e b1ed b43e 8fb2 0dbe
00000220: ac9f 3f3e f7ce 8cbd bb57 1fbe 4471 f03d
00000230: 1d48 86bd d3f3 5a3d b638 8e3d 4796 0fbd
00000240: e339 3d3e 3438 c83d f74e d0be 36fe 8bbd
00000250: ef17 17bd efa9 28be 1dd8 ecbc 8a36 423d
00000260: 1536 b5bb 740b 943e 6b1d a0be 4fcb ad3c
00000270: d30b 3f3d 339e 81be fd46 1bbd ef63 04be
00000280: 39c4 bdbe b149 f0bd ce14 603e 1917 28bd
00000290: edc0 94bd c0cf 84bd 4773 123e 95b9 353d
000002a0: 357b 133e 7ae2 e5bd b4fe a0bd 50e7 4d3e
000002b0: 7f99 03be effc adbe 0759 7bbe 6a99 9dbe
000002c0: 930c 7bbd 19fc 973c 63a7 333e 71e1 703e
000002d0: 0196 803b 6b48 11bc d9db d9be f75e e9be
000002e0: 8f08 a8be 728f 6bbe 2452 b53d fdfc 5a3c
000002f0: 04c7 4e3d 9e79 0e3e 69a5 953d bb93 693d
00000300: ba91 1a3e 56f9 89be 0f4e 3e3e 60d7 81bd
00000310: 2864 a0be d802 0cbd 6b48 383d 640c dabd
00000320: 1985 2b3e 7d2c 4cbe 373c 04be e7ed 4bbe
00000330: d4d1 e6bd 72dd d6be f827 0bbe 751b dd3d
00000340: 28c5 b0bd 621a 503e f024 cb3d cf4f d1bd
00000350: 2339 c23d 661f 5fbd 6b34 7c3d 1ed7 63bd
00000360: 572b 613e f310 a63d 0266 5f3d dd40 183d
00000370: c887 04bd 8584 50bd 7e43 613c d697 ab3d
00000380: 7a8e 7a3e 2a4b 293e fdd4 3a3c 29fe 82be
00000390: 3274 5bbe 7f68 313d 0e9a 12be c4f8 50be
000003a0: 052b de3d 9673 8abe 8bbe b1bc 8f0c 20bb
000003b0: 32b5 a83e 852f 67be 28d1 883e 2080 113e
000003c0: 0a94 77bb 3fa3 ce3d b9d1 d8bd 248e a5bb
000003d0: 1428 fe3d 0333 e23d 6594 13bc b60e bc3e
000003e0: 5d9b 543e 0431 2a3e 5e39 2a3e f7f8 4fbd
000003f0: 4e04 ca3d f188 22be 7fd5 f6bd 26e1 013e
-0.042707365 0.36218998 0.33500943 -0.18389143 -0.03799671 0.19075698 -0.013523884 -0.29672933
-0.045627233 0.093171366 0.1061424 -0.12704815 0.18328264 -0.079578176 0.15766603 -0.029761912
-0.13457204 -0.27937222 0.16393021 -0.19774126 0.17419769 0.08279059 0.43772382 0.17683609
0.23328534 0.00044860088 -0.12028919 -0.20068423 0.2736674 0.17636833 -0.017277548 0.078905925
0.4571498 0.08174665 -0.2005879 0.10394676 0.089104295 -0.038936142 0.35567492 -0.08210503
0.038202595 0.09499698 -0.1980441 -0.07489622 -0.04868824 0.15696874 -0.080737166 -0.12186185
0.09340599 -0.21409313 -0.020280194 0.05884539 0.3626512 0.17725179 0.15826778 -0.1264833
0.121784285 0.07876417 -0.21014778 0.11077288 0.10255977 0.35876006 -0.034367602 0.32900432
-0.18482499 0.08086506 -0.2885602 0.16894726 0.13840735 0.25478703 -0.23684604 0.16742599
-0.24580541 -0.045878567 0.09756413 0.013800695 0.047173418 -0.014193385 -0.006208434 0.1491546
0.056100946 -0.019737413 0.09419836 0.042644978 0.18898173 -0.18775123 -0.20238124 0.22102757
0.0011097195 0.0685829 0.20448773 -0.1598181 0.1611074 -0.006107143 -0.32003477 0.05042227
-0.032186583 -0.13563167 0.3433889 0.34073296 0.00047976698 -0.08470133 -0.33394876 0.19533473
0.15306298 -0.05468764 0.00686168 0.3388172 -0.054150127 0.1559041 -0.048488293 -0.04322133
0.16065705 -0.12938383 -0.23892269 0.016801203 0.13551107 0.016762244 -0.01941581 0.166902
0.0743068 -0.15599073 0.29059005 -0.0147226155 0.2944754 0.1095657 0.08194681 -0.040015247
-0.08854803 0.3056014 -0.17019276 0.020227572 -0.046494 0.245063 0.35337594 -0.13837646
0.18713254 -0.06875413 -0.1556081 0.11740354 -0.06556723 0.053455185 0.069444105 -0.035055425
0.18479113 0.09776345 -0.40685245 -0.06835596 -0.03688806 -0.16471075 -0.028911645 0.047415294
-0.0055301287 0.28914988 -0.31272444 0.02121511 0.046642136 -0.2531601 -0.037909497 -0.12928747
-0.37063769 -0.117328055 0.21882936 -0.041037653 -0.0726336 -0.06484938 0.14301787 0.044366438
0.14402469 -0.112248376 -0.07861081 0.2010777 -0.12851523 -0.33982036 -0.2454568 -0.30781108
-0.06129129 0.018552827 0.17544322 0.23523499 0.003924132 -0.008867363 -0.42550543 -0.45580265
-0.3281903 -0.23003939 0.08853558 0.013365981 0.050482765 0.13913581 0.0730694 0.057025652
0.15094653 -0.2694804 0.18584464 -0.06339908 -0.31326413 -0.0341824 0.04499094 -0.106468946
0.16749991 -0.19938846 -0.12913595 -0.19914971 -0.1127049 -0.41965824 -0.13589466 0.10796253
-0.086313546 0.20322564 0.09919155 -0.102203004 0.09483554 -0.054473303 0.061573427 -0.055625074
0.21989189 0.081087016 0.05454064 0.037171233 -0.032356054 -0.05090763 0.013749002 0.0837857
0.24468413 0.16532579 0.011403319 -0.25584534 -0.21431044 0.043312546 -0.1431658 -0.20407397
0.10848049 -0.2704131 -0.021697303 -0.0024421548 0.3295074 -0.22576721 0.26722074 0.14209032
-0.0037777447 0.100897305 -0.105868764 -0.005052345 0.12409988 0.11044886 -0.009007548 0.36729974
0.20762391 0.1662026 0.16623446 -0.05077454 0.09864102 -0.15872552 -0.1205244 0.12683544

hiden_layers.3.bias f4 [64]
00000000: 8f6b d9bd 7ea1 13bd 52c6 d83b 2e18 83bd
00000010: ca0f eb3d 7db0 1a3c c672 fc3d daf3 a1bc
00000020: 08d5 9b3d dc3b b7bd e3fa 16bd 82bb 82bd
00000030: 9230 933d 42ec 3ebc 7c09 e93d 42c0 083e
00000040: f27b 3b3d 417b c2bd 831f a63d 912b 1dbd
00000050: 7eea 78bd 1486 19be 3451 f8bc 3ecf c43d
00000060: fe50 75be f36e 6d3d b5e9 863c 8d16 aa3d
00000070: d0d2 eebd a6b8 d0bd 3ad8 0a3d aed2 abbc
00000080: 20ed 9e3c 48b9 bc3d df57 02be 8205 053d
00000090: a4d4 02bd b14f 113e 97a8 3dbd b9d5 f0bd
000000a0: cefe f6bd 80b9 c2bd b464 f7bc aa0f 263d
000000b0: a5d4 6ebd 46c9 b03c fabc 0fbd 17e6 163c
000000c0: 7ee1 e23c 3526 18bc 2fa8 4b3d 8e0a 23be
000000d0: a728 8d3c 53d3 26bd 16ff cc3d 36d0 a43d
000000e0: 9e37 283e 038f dc3c 433b bc3c a888 9ebd
000000f0: df47 28bd af8d 40bd f7f8 b9bd f3da 8a3c
-0.10616218 -0.036042683 0.0066154385 -0.06401096 0.11477621 0.009441492 0.12326579 -0.019769598
0.07608992 -0.08946964 -0.036860358 -0.063834205 0.071869984 -0.011653008 0.11378762 0.1335459
0.0457725 -0.09496165 0.08111479 -0.038371626 -0.060770504 -0.14992553 -0.030312158 0.09609841
-0.23956677 0.057967138 0.016468862 0.083050825 -0.11661303 -0.10191469 0.033897616 -0.020974483
0.01940018 0.09215027 -0.12728833 0.032475956 -0.03194107 0.14190556 -0.046303358 -0.11759514
-0.12060319 -0.095080376 -0.030199386 0.040542282 -0.058308262 0.02158035 -0.03509233 0.009210131
0.027695414 -0.009286453 0.04972094 -0.15921995 0.017231299 -0.04072888 0.10009591 0.080475256
0.16427466 0.026923662 0.022977477 -0.07740909 -0.041084167 -0.04701012 -0.090806894 0.016950106

hiden_layers.4.weight f4 [64, 64]
00000000: 3e78 3ebe aeaa a43d 4968 eb3e ee07 ddbe
00000010: 53ef 3a3e 678a ac3c d8a7 f3bd 79e7 88bc
00000020: 75a8 b13e d562 0cbf 55e1 3a3d e377 89bc
00000030: e4b0 0e3e 4ac9 f73d 086d 83be 2264 ab3e
00000040: d0ea 293d 801c b2bd 763b c13e dad8 6a3e
00000050: 7856 06bf bf9b 863e bed3 59be f9e1 a43e
00000060: 2edc 333c 8e2f 5dbe 166e ca3e 8c10 e23e
00000070: 8a36 86bf 87c2 e9be 4623 fc3d d283 a4bd
00000080: 1be8 0dbc e259 8a3d 52b0 2f3e caa3 14bf
00000090: ce8a 61bd a7dc 27be 9d77 cebd 34b0 4bbe
000000a0: 31eb b5be 3489 973d 750f 993c a335 b73e
000000b0: 7133 563e bce7 ac3c d3f3 753e bcfd 40bd
000000c0: d6ca 83be 32e1 06bf 57e6 c9bd f1c6 acbd
000000d0: b9c2 4dbe a8cc 59bf d292 813e 9f85 3f3e
000000e0: 34c1 683c acf1 e5bc 5b08 1dbe d286 52bf
000000f0: e9c0 183d 9879 eb3e 7d2c 60bc 9eae 8bbe
00000100: b090 a63d d1df c9bd ae27 06bf b1b9 0a3f
00000110: 6c2d 98bd 5e61 663d 3020 2a3d d7f8 1fbd
00000120: f006 9dbd 4c85 ccbe 2d6a 68be 76a5 353e
00000130: 9601 903d 095c 58be cdfc 47be f453 763e
00000140: 51d0 0ebe b003 18be 2123 c93e 5993 7e3d
00000150: f61f ab3e f2d1 ac3d 7a0d c73d c8c0 9cbd
00000160: 52bd dcbd 9519 56be 54e9 75be 5308 a53d
00000170: 4e69 a83d 0a9e 9cbc c156 91bd ec8d 42be
00000180: 8328 f53d b540 dcbd 345e 143e dce4 57be
00000190: 3f9c 8ebe 9806 703d 9cc1 c5bd bdd9 3c3d
000001a0: 8d43 873d ca1c 4ebe b660 ec3d 031a c33e
000001b0: dad0 14be b09f 453e 8dc0 f9bd c27b d0bd
000001c0: 1029 d2bd 1cbf 5d3e 448b 243e 6d77 85bb
000001d0: 4be7 ab3e 4279 3ebe ca77 e33d a225 8a3a
000001e0: ab75 ad3c f168 c5be 848f 6b3e e341 08bd
000001f0: bf67 413e 7bd4 433e 4ac8 4c3e 349d 173e
00000200: 2c25 8bbe b30b 443d a9cb 39be 1272 dfbd
00000210: 5d14 42be 283f a4bd 3667 473d fffa 323e
00000220: 7f98 dabd 26e8 68bd fa3b 3ebc 9776 9cbd
00000230: a825 353d e1e1 86be 30d0 33be 9733 c3bd
00000240: 4c57 083d 0fec 3f3d f6ed 073c 8edc c83d
00000250: 45d4 423c 05ca 5abe b2ce 8cbe 15fb b13e
00000260: 3713 e1bd 002f 87be 32ff 813c 1532 163e
00000270: 8b3f 61be 2f92 d43d 68ea 4dbe 363c ca3e
00000280: cc16 b7bd 3ee3 13bd 85cb 52bd ed5c cbbc
00000290: f9fd 65be d648 053d 823f 09bd 1f29 903e
000002a0: a64f 0d3e 20a9 3f3e 56e2 aabe 86ab c93c
000002b0: 6ec0 3b3e cd3b 143e d0f3 b53e 28af 99bd
000002c0: 0437 3b3e 6cd1 fe3c 3f6f 423e 32f8 d9bd
000002d0: 5ca0 c8be b629 953d 087e f4bd 52ed 60be
000002e0: daba 9abe b693 013d dd0b cf3d 96b0 313e
000002f0: 0242 32bc 9406 b83e 0987 61bd 1b36 af3c
00000300: 3c5e 87bd 3680 a9be 9e83 92bd a990 be3e
00000310: 16e8 383d 68c6 af3d 3c61 c63c 03e1 c1be
00000320: 067d 5fbd ebca 823e 3571 f13d 5f3e 5fbd
00000330: 3b15 0b3c 60c8 c73d 1ab6 bb3d e196 b43d
00000340: 2b01 653e be9f e83d 86f4 8abe 9c26 88be
00000350: ab75 fbbd 8020 733d 3bee 5f3e 2499 44be
00000360: c908 503d b140 80be b853 093e f7f9 afbd
00000370: f5f0 bf3a 435f 0bbd ce9d f13d 7406 54be
00000380: 3694 f3bd 1795 f93d 5434 713c 854e 39be
00000390: e0e0 f03c 9c67 c4bd a725 463d 15ef 113d
000003a0: 7d3b a5bd 1f75 38be 2d02 7fbe 743f 0f3e
000003b0: 6eca 133e 7ec0 34be 3804 55bc 2195 4ebe
000003c0: 67e2 02bd bba5 2e3e 7189 a0bd 8fef d43d
000003d0: 474a 02bd ed69 c73c 9bc9 363e 1ec0 053e
000003e0: 0ca5 c9be 534c 03be eb6e 283e e4f4 a1bd
000003f0: 1b2a 683d d7b9 acbd b272 463e be84 4e3e
-0.18600556 0.08040367 0.45978 -0.43170112 0.18255357 0.02106209 -0.11897248 -0.016711937
0.34698835 -0.54838306 0.04562505 -0.0167808 0.13934666 0.1209894 -0.25669122 0.33474833
0.0414837 -0.08696842 0.37740678 0.22934285 -0.5247569 0.262907 -0.2127218 0.32203653
0.010977788 -0.21600172 0.39537114 0.4415325 -1.0485394 -0.45656225 0.123114154 -0.08032955
-0.008661295 0.06755425 0.17157105 -0.5806242 -0.055064015 -0.16392766 -0.10081408 -0.19891435
-0.35531 0.07399216 0.018684128 0.3578311 0.20918061 0.021106593 0.24018793 -0.04711698
-0.2574069 -0.5268737 -0.09858387 -0.084363826 -0.20093812 -0.85077906 0.25307328 0.18703316
0.014206219 -0.02806934 -0.15335219 -0.8223697 0.03729335 0.45991206 -0.013682482 -0.2728166
0.08133066 -0.09857143 -0.52404296 0.5418959 -0.074305385 0.0562452 0.041534603 -0.03905567
-0.07667339 -0.39945447 -0.22696753 0.177389 0.070315525 -0.21128859 -0.1953003 0.24055463
-0.13946654 -0.14845157 0.39284614 0.06215224 0.33422822 0.084384814 0.09719367 -0.076539576
-0.107782975 -0.20908196 -0.24014789 0.08058228 0.0822321 -0.019118328 -0.07096625 -0.18999451
0.119706176 -0.107545294 0.1448906 -0.21083397 -0.2785358 0.05860004 -0.09656069 0.04610609
0.06604681 -0.2012817 0.11541884 0.38105783 -0.14532796 0.19299197 -0.12194929 -0.10179855
-0.10261738 0.21654934 0.1606875 -0.0040730746 0.335749 -0.18600944 0.11106832 0.001053978
0.021174273 -0.38556626 0.23003966 -0.03326596 0.18887232 0.19124024 0.19998279 0.14806062
-0.27176797 0.04786272 -0.18144096 -0.10910429 -0.1895308 -0.080198586 0.048682414 0.1747856
-0.106736176 -0.05686202 -0.011610979 -0.07639807 0.044225365 -0.26344207 -0.17559886 -0.09531324
0.033286378 0.046855982 0.00829648 0.098076925 0.011891429 -0.21366127 -0.27501446 0.34761873
-0.10989993 -0.26403046 0.015868757 0.14667542 -0.21996896 0.10379445 -0.2010895 0.39499062
-0.08939895 -0.036105387 -0.051463623 -0.024824584 -0.22460164 0.032540165 -0.03350783 0.28156373
0.13799915 0.1871686 -0.33375806 0.024617922 0.18335125 0.14475937 0.35537577 -0.075041115
0.18282706 0.03110572 0.1898775 -0.106430426 -0.39184844 0.07283346 -0.11938101 -0.2196553
-0.3022068 0.03163501 0.101096846 0.17352518 -0.010879995 0.3594252 -0.05506042 0.021388104
-0.06609771 -0.3310563 -0.0715401 0.37219742 0.04514321 0.08582765 0.024216287 -0.37866983
-0.05456259 0.2554544 0.11789171 -0.05450284 0.008488948 0.097550154 0.091655925 0.0881784
0.22363727 0.113585934 -0.27139682 -0.26591957 -0.12278303 0.059357166 0.21868221 -0.19199044
0.05078963 -0.25049356 0.13410842 -0.08592599 0.0014643954 -0.034026396 0.11797677 -0.20705587
-0.11893503 0.1218664 0.014721949 -0.18096359 0.029404104 -0.095900744 0.04837575 0.035628397
-0.08067987 -0.18013428 -0.24903174 0.13989049 0.1443269 -0.17651555 -0.013001494 -0.20174076
-0.031954195 0.17055409 -0.07838715 0.10397255 -0.031809118 0.024342502 0.17850344 0.13061568
-0.39383733 -0.12822084 0.16448562 -0.07908037 0.05668078 -0.08433884 0.1937969 0.20167825

hiden_layers.4.bias f4 [64]
00000000: 6db6 df3e ce29 c03d 5d91 263c b023 80bd
00000010: fb8d e4bc e5c9 08bd e801 b93b d620 2ebb
00000020: 09c2 a9bc b0c8 833d 359f 0c3e 837e 803d
00000030: fed9 60bd 03e2 c4bd 07e2 103e 7ea6 a83d
00000040: b649 1f3d 32b1 ec3b 3357 cf3c b6b7 9abe
00000050: 3e79 dd3d a59a 18be 5a2b 9d3d fe69 c53d
00000060: 4014 89bd 58ce 0cbd 55a0 86bc 306f b13d
00000070: b65b 933d 5d0b 41bd 1343 943c 0ac8 423d
00000080: 2d98 3b3d f9dd 113d e908 66bd 91e9 c93d
00000090: b35c f53a 2609 fd3c 6361 cebb d57a 583e
000000a0: d0bd 553e 1a34 f53d 5a68 253e f5c9 09be
000000b0: e993 173d 66ca ceba 6b7b 653e 7c07 5ebd
000000c0: 00ef 08bd ea93 b63d 460e febd 0800 fc3d
000000d0: e7ed 4bbe 0dd6 4f3d 6f24 d7bd d7a4 213c
000000e0: b2d9 fc3d a9ae b83c 27a4 3ebd 1384 01bd
000000f0: a919 bf3d 453c 36bd dfd2 eebd dff7 15be
0.43693867 0.093829736 0.010166493 -0.06256807 -0.027899733 -0.033395667 0.005645979 -0.0026569865
-0.020722406 0.064347625 0.13732608 0.0627413 -0.054895394 -0.09613421 0.14148723 0.08234881
0.038888656 0.0072232718 0.025310135 -0.30218285 0.10814141 -0.14902742 0.07674284 0.09639357
-0.066933155 -0.034376472 -0.016433874 0.086637855 0.07195227 -0.047129977 0.01809839 0.047554053
0.045799423 0.03561208 -0.05616084 0.098590024 0.0018719643 0.030888151 -0.0062982305 0.21140607
0.20873189 0.11972828 0.16153088 -0.13455947 0.037006292 -0.0015776872 0.22410361 -0.054206356
-0.033431053 0.08914931 -0.12405066 0.123046935 -0.19914971 0.050741244 -0.10504996 0.009865961
0.123462096 0.022544222 -0.046543267 -0.031620096 0.09331066 -0.04449107 -0.11661314 -0.14645337
