results/3_model_2_case_1/epoch50/model_weights.pth (torch, 484214 bytes, 88 tensors)

init_layer.0.weight f4 [64, 3]
00000000: e6c8 96be 2ff0 a1bd 8dab 343e fc1d 8b3e
00000010: 987b 133d ac7f 90bc 5044 cbbd e8ce 68be
00000020: ea41 05be 5ef8 963e e24f ae3d bf72 1a3d
00000030: e80c d7bb d708 973e 2802 383e 465e 27be
00000040: 9d66 9fbe 9be6 193e ec17 a33e 2f8f 913d
00000050: 49cf 613e cc75 8e3e 4e63 5d3e 4fcc 563e
00000060: 0237 893e 5905 abbe 7a73 823d d280 0abe
00000070: 0ca1 58be 09f8 513e 0bd5 89be e5d0 9b3c
00000080: f8b0 113d e1c2 e43d 7a34 563e b52a 78be
00000090: 5254 89bd df14 b2bd 2915 9fbc c1b3 0dbd
000000a0: b69c 1b3d 23f1 6f3e 49d1 0b3e 5466 93be
000000b0: ab0c 00bd b75a 583e f8aa 68be 4a21 6ebe
000000c0: 5c3b 253e 9c10 e7bd 23da 613e 9835 873e
000000d0: 178d 7a3e f381 2cbe e0f9 113e a22b e8bb
000000e0: 8b8b 6dbe 268d 71be 3958 3a3e 9eea 4abe
000000f0: 091b fc3d 5259 0cbe 8fa2 98bd 5411 8f3e
00000100: 65b6 dfbb b6e1 8fbd c03e 8d3c 4a71 85be
00000110: 829d 3ebe 7ebd b5bd 864e 613e c694 08bd
00000120: e429 8abd b915 12be 285c 3a3e 8952 ddbd
00000130: 51f4 583e 38e6 e1bd fc02 843d fd98 8e3e
00000140: 253e 653e 56ff 26be 9159 79be 9733 d53d
00000150: 90b9 143d b15c 0a3e 4de2 59be 8208 9b3d
00000160: da77 95be 2dcc ce3d d5e6 9dbe 1428 26be
00000170: dc6e adbd 8189 d6bd b011 1c3e be1a 7e3e
00000180: 46b3 68bd 96e6 783e 9cb9 7d3e e59c 91be
00000190: c726 a13e 4e6b 96bd 3d1c 02ba 0d88 a8bd
000001a0: e4d1 d1bd 42f9 8abd 1e3c 6fbe ebd4 e4bd
000001b0: 4940 e33a c0a0 ebbc 9ef5 50be 6cd6 36be
000001c0: 9201 f1bd 1261 60bc 1126 4c3e e0d5 25be
000001d0: a712 5b3e d7f6 8cbe 6c5e 4a3e a996 623e
000001e0: 7857 593e e6c0 783c 41b2 8cbe 14bb acbd
000001f0: ec90 ffbc dea8 3cbe 23ae 0c3e f85d dcbd
00000200: 5a9f 883e fba7 1dbc 29f0 abbc 6c63 0b3e
00000210: 9fa6 093e 5636 71be d349 4bbe 342d abbe
00000220: e7aa 7bbe 5e34 153e 8f90 8dbc a733 30be
00000230: 83d9 8f3d 8b3b 023e b388 503e 5ac4 803d
00000240: 5ff4 803e 11d1 9d3e d7fe 003d c38b ee3d
00000250: 1e24 9abe b5c0 6f3e 9c3d 8fbd 42d4 89be
00000260: 8355 eabd 5ccd b3be 52cd 1ebe e37c c0bd
00000270: 584f 863e c291 9ebe 6942 c13d d1d0 13be
00000280: f835 4abe cd93 523c a6c2 283e 6d5f 70be
00000290: 46c6 7cbe e463 673e 0432 7b3c 77ba 483e
000002a0: 9f4b 3f3e 9e63 ae3d 51d7 663e f285 953d
000002b0: 327b 8dbd d77e 143c a347 6b3e e972 8d3e
000002c0: 39ca 903d c422 193e 3411 2a3e e511 fcbd
000002d0: 3570 2ebe 3d82 5ebe 0a74 a0bd 73a2 1ebe
000002e0: a361 b23d bf01 21bd 1226 8c3e 701e 03bd
000002f0: 7973 263d 67eb 883e 8543 753d 52e5 273e
-0.29450148 -0.079071395 0.17643566 0.27171314 0.03600654 -0.017639004 -0.09925139 -0.22735178
-0.13013425 0.29486364 0.0851133 0.037707087 -0.006562818 0.29498932 0.17969573 -0.16344556
-0.31132975 0.15029375 0.31854188 0.07107388 0.2205173 0.27824247 0.21619913 0.20976375
0.2679978 -0.33402517 0.06369682 -0.13525704 -0.21155185 0.20504774 -0.2692035 0.019020507
0.03556916 0.11169983 0.20918456 -0.24235041 -0.06705536 -0.08695387 -0.01941927 -0.034595255
0.037991248 0.2343183 0.13654055 -0.28789008 -0.03126208 0.21128355 -0.2272147 -0.23254886
0.16135925 -0.11282465 0.22055869 0.26408076 0.24467884 -0.16846447 0.14255476 -0.0070852796
-0.23197763 -0.23589 0.18197717 -0.19816062 0.12309844 -0.13705948 -0.074528806 0.27942908
-0.006827163 -0.07025473 0.017241836 -0.26062995 -0.18614772 -0.088740334 0.2200261 -0.033345006
-0.06746271 -0.14266099 0.18199217 -0.10806758 0.2118695 -0.11030239 0.06445882 0.27851096
0.22386988 -0.1630834 -0.24350573 0.104102306 0.03630978 0.13511921 -0.21277733 0.07569982
-0.29193002 0.10097537 -0.30840173 -0.16226226 -0.084684104 -0.104754455 0.15241122 0.24814889
-0.056811593 0.24306712 0.24777836 -0.28440014 0.31474897 -0.073446855 -0.0004963314 -0.082290746
-0.102451116 -0.067858234 -0.23362777 -0.111734234 0.0017337884 -0.028763175 -0.20406196 -0.17855233
-0.11767878 -0.013695018 0.19936396 -0.16194868 0.21393834 -0.27532074 0.19762582 0.22127785
0.21224773 0.015182709 -0.27479747 -0.0843412 -0.031197034 -0.18423793 0.13738303 -0.107601106
0.26684076 -0.009622569 -0.02098854 0.13612145 0.13442467 -0.23555884 -0.1985238 -0.33432925
-0.24576913 0.14570758 -0.017280845 -0.17207204 0.07023909 0.12718026 0.20364647 0.06287451
0.2518644 0.30823568 0.031493034 0.11647751 -0.3010568 0.23413356 -0.06994173 -0.26919752
-0.11442091 -0.35117614 -0.15508011 -0.0939882 0.2623241 -0.3097058 0.09436495 -0.14435126
-0.1974715 0.012852621 0.16480502 -0.23473902 -0.2468501 0.22596699 0.015331749 0.1960238
0.18681191 0.08515094 0.22543074 0.07300939 -0.06908263 0.009063444 0.22976546 0.27626732
0.07069821 0.14954668 0.16608125 -0.123081006 -0.17034991 -0.2172937 -0.07834633 -0.15491657
0.08710029 -0.039308306 0.27372795 -0.03201145 0.040637467 0.26742098 0.059878845 0.16396073

init_layer.0.bias f4 [64]
00000000: 0b8a bf3d 47a6 59bc c872 1ebd c474 44bd
00000010: 3f1c 58bd 9c12 09bd 11a5 1c3d 092b 963d
00000020: 80c9 4ebd 82aa adbd cf1d a43d 786c 633d
00000030: 8577 873d dd33 c83d 3bdf a13c b54c c93d
00000040: e572 b53d c89e 8b3d 8e2d 9f3d 1476 0bbd
00000050: 5f61 963d 5720 383d a34c 973d 476f 983c
00000060: f81d a43d fae4 78bd c837 863d 6326 48bd
00000070: 87bd c7bd 20ec 803d a15a 61bd 66b4 9bbd
00000080: d038 a2bd 04c5 ca3c c69b 793d f8ba 7e3c
00000090: 0cab 9bbd b9ac 72bd 378e 6dbd 6914 86bd
000000a0: 5660 d0bd 1476 c1bd 96a8 c0bd 1734 553d
000000b0: 322e 9d3d c5c8 45bd 2a63 92bd 7ee0 babc
000000c0: a30e febc 244a a23d ea0e 94bd 1860 8dbd
000000d0: 84c5 d53b caa9 edbb eaa9 923d dce3 7d3d
000000e0: 7287 833d 2dc0 d9bc 6bea 493d 9f17 8abd
000000f0: 7713 22bd 86a5 29bd f84e 983d 5dba 573d
0.093525015 -0.0132842725 -0.038683683 -0.04796292 -0.052761313 -0.033465013 0.038243357 0.07332427
-0.050485134 -0.084797874 0.08013498 0.055523366 0.066145934 0.09775517 0.019759765 0.09829084
0.08859805 0.068173945 0.07772361 -0.034048155 0.07342791 0.044952717 0.07387664 0.018607749
0.080135286 -0.060765244 0.06553608 -0.048864733 -0.09752946 0.06295037 -0.05501807 -0.07602768
-0.079209924 0.024752147 0.060939573 0.0155475065 -0.07600984 -0.059246752 -0.057996955 -0.06546862
-0.101746246 -0.0944635 -0.09407155 0.05205163 0.07674827 -0.048287172 -0.0714782 -0.022812124
-0.031012839 0.079242975 -0.07229407 -0.06903094 0.00652379 -0.0072529064 0.07161315 0.06198488
0.064223185 -0.026580894 0.049295824 -0.067427866 -0.039569344 -0.04141762 0.07436937 0.052667964

hiden_layers.0.weight f4 [64, 64]
00000000: 4aa5 4ebe b93d 003d b471 233e ff5e c93d
00000010: 28ff 51be 7e28 99bc 20c4 893d 5d8e 40be
00000020: 21a4 053d 2a88 6bbd 2619 b2bc 5076 443e
00000030: f83c e23c 17e6 1a3e 61b8 3f3e 0082 24be
00000040: 3ee9 ecbc f435 b6bd 1052 a7bc 4a78 1ebe
00000050: 93fa 4dbd 852b fe3d a5e1 133b 8acd 85be
00000060: 7f31 0e3e b6f4 153c 3a37 12be b15d 37be
00000070: 581e a1bd 40bd ecbc 2363 3bbe d7dc 6dbd
00000080: c239 b2bd a27a abbd be47 203e 8e9b 6e3c
00000090: 7db3 293c 0cb4 f63b 38b4 6f3e fe9b 683d
000000a0: b658 ea3d beb8 65bd e62b 033e 147d b6bd
000000b0: ff1f 0dbd 3133 8abd 5c9a c83c 53af 60be
000000c0: 2b2b 523e 8f85 e3bd 706a dbbd a61e 823d
000000d0: 7459 763d b900 2cbd b6df 4b3e 006c 3d3e
000000e0: f359 40be 623a 50bd 2dad 12be 92b3 ef3d
000000f0: fc98 803d b151 07be c8b8 593c 52f9 26be
00000100: 8038 3bbd 22b1 3abe 3f18 49be 7e5c 1e3e
00000110: b837 4dbe 678d 06be 2468 1b3e 96fa 3fbe
00000120: 01b0 08bc c024 7fbe f128 633e b0fa aabd
00000130: f90b df3c b122 0e3d e152 553d cb98 5c3e
00000140: a0b5 a83c 6ae7 6d3e 876d 873d 106a 0ebc
00000150: ef7f 573c 3656 19be dd0b 193e ee4f 243e
00000160: 416a 68bd b1f5 77bd cb21 633e 336f b73d
00000170: 5dfe d83d 7f27 f93d 2ecc 1fbe 1925 49be
00000180: 1caf 63bd e546 3e3d 2e7d 4b3e 8deb 143e
00000190: 92bc 3d3e edb0 94bd ba9f d4bd 869e e33d
000001a0: 6f54 86bd fb09 5fbd 17e7 7bbe 47ed 043d
000001b0: 8d31 1c3e 834c 6ebe 7402 c63d 4700 3dbe
000001c0: 750a 67bd cad6 bcbd 1bd7 d0bd cf38 e3bd
000001d0: 98d4 b83d f398 35be e5a0 4e3e 9307 f53d
000001e0: 1e04 39be 2176 fabd da37 27be 3ec7 28be
000001f0: 3cd7 443e f925 343e 6b8a 463e baad b7bd
00000200: 640f c53d ca7d 82bd 6928 373e 819a 87bc
00000210: c4ec 52be 8821 64bc 75f9 0bbd 388a 36be
00000220: 379d 8b3d 168c 68bd 7108 e4bc 627e 0b3e
00000230: 9c45 f63d 8868 56be e9a2 423e d2d9 01be
00000240: 6e8f 02be 9c27 47be bdd7 6d3d db07 74bd
00000250: a340 95bc bad5 1bbe b6b0 25be 45a1 d3bc
00000260: f57e 25bc 908a f5bd 6f55 d5bc 5156 593e
00000270: 6e7a 67bc df41 3cbe bdd1 6f3e 75ee 613e
00000280: 9b80 31be 3460 f1bd e829 3e3e e47e 503e
00000290: b5a9 81bd a106 06be a6e6 b8bc b6dc 2a3d
000002a0: a7b2 46be 8c9a 0bbd 5837 493e bd03 4d3e
000002b0: d0c2 3d3e e038 243d 469a 82bc 27c4 59bb
000002c0: 1df5 86bc 9860 583d 91f0 babd d7c4 cfbc
000002d0: 607f 6d3d 1ef0 eebc 529a 0dbe 8e98 073d
000002e0: 4757 6dbe eec6 263e 561e 3bbe d989 0cbe
000002f0: c682 3d3e c0e5 23be 5658 01be abd8 1f3e
00000300: a9ab e13d 0e0b d1bd 19e6 8f3c b161 d7bc
00000310: bb5b 193e e84c cb3d c580 5bbc 152a 04be
00000320: 1010 55be bc95 39be faa4 d63c f58b 8d3d
00000330: 784f 0abe 1f61 ffbd 709e 72bb ca2c f1bd
00000340: 42a7 a4bd 3d04 323e b64c 333e 249e cbbd
00000350: 74c1 423e 4b32 acbd 847e 3abe fac0 d1bd
00000360: 811d 3a3e 738e 7c3d 301b 0abd 0213 96bd
00000370: 027a cebd 33cd 4fbe a4f0 2dbe ed62 913c
00000380: 9f05 02be f832 9f3d 0901 29be 3f50 463b
00000390: afb8 ddbb 8294 3ebe bb36 c83c 9ea5 82bd
000003a0: 7c6e 16be 085a 9bbc 8051 803d 507f 313e
000003b0: d948 e33c cce1 1f3d b2d0 7c3d 3912 d13d
000003c0: da74 013e 7ee2 10be e77c 2e3e e57b bdbd
000003d0: b821 3dbe 7f5e e33d cae5 493e a156 b23d
000003e0: ca20 37be 4563 10be 5cee a0bd 5d2d 1e3e
000003f0: 8420 d9bd f959 63bd 254e a7bc e1c1 7fbd
-0.2018024 0.031308863 0.15961343 0.09832572 -0.2050749 -0.018696066 0.06726861 -0.18804307
0.03262723 -0.057502903 -0.021740507 0.19185758 0.027616963 0.15126835 0.18722679 -0.16065216
-0.028919812 -0.088970095 -0.020424873 -0.15475574 -0.050287794 0.124106444 0.0022564915 -0.26133376
0.13886069 0.009152582 -0.1427888 -0.17906834 -0.07867116 -0.028898835 -0.18299536 -0.058071937
-0.08702423 -0.08373 0.15652367 0.014563454 0.010357735 0.0075287875 0.23408592 0.05678939
0.114427015 -0.056084387 0.12809715 -0.089105755 -0.034454342 -0.06748045 0.024487667 -0.21941881
0.2052428 -0.11109459 -0.10713661 0.06353502 0.060143903 -0.041992877 0.19909558 0.1849823
-0.18784313 -0.05083693 -0.14323874 0.11704172 0.062791795 -0.13214757 0.013288684 -0.16306046
-0.04570818 -0.18231633 -0.19638155 0.1546497 -0.20040786 -0.13139878 0.15176445 -0.18747935
-0.008342744 -0.24916363 0.22183587 -0.08348596 0.027227389 0.034701053 0.052080993 0.21542661
0.020594418 0.23232809 0.066126876 -0.008692279 0.01315306 -0.14974293 0.14945932 0.16046116
-0.056741957 -0.060537044 0.2218086 0.089567564 0.10595391 0.121657364 -0.15605232 -0.19643058
-0.05558692 0.04645433 0.19871971 0.1454298 0.18528965 -0.072603084 -0.10382028 0.1111422
-0.06559073 -0.054452877 -0.24599873 0.032452848 0.15253277 -0.23271374 0.09668437 -0.18457137
-0.056406457 -0.09220655 -0.10197278 -0.1109482 0.09024924 -0.17734127 0.20178564 0.11964335
-0.18067977 -0.122295626 -0.163299 -0.16482255 0.1922273 0.1759261 0.1938874 -0.089686826
0.09622076 -0.063716486 0.17886509 -0.016553165 -0.20598131 -0.01392401 -0.034173448 -0.17826164
0.06817096 -0.05677422 -0.027836056 0.1362243 0.12024996 -0.20938313 0.19007458 -0.12680748
-0.12750027 -0.19448704 0.058067072 -0.059577804 -0.018219298 -0.15218249 -0.16180691 -0.025833735
-0.01010107 -0.11989319 -0.026041714 0.21224333 -0.014128311 -0.18384503 0.23419853 0.2206362
-0.17334215 -0.117859274 0.18570673 0.20360905 -0.06331197 -0.13088466 -0.02257092 0.041714393
-0.19404088 -0.034082934 0.19650018 0.20020957 0.18531346 0.040093303 -0.015942704 -0.0033228488
-0.016474301 0.052826494 -0.09127916 -0.025362415 0.057982802 -0.029167231 -0.138284 0.03310447
-0.23177825 0.16286823 -0.18273291 -0.1372446 0.18506917 -0.16005611 -0.12631354 0.15609996
0.1101907 -0.10207187 0.017565774 -0.0262917 0.14976399 0.09926778 -0.0133974 -0.12906678
-0.20806909 -0.18123525 0.026201714 0.0691146 -0.13506877 -0.12469696 -0.0037020706 -0.11776121
-0.080397144 0.1738443 0.17509732 -0.09942272 0.19019109 -0.0840803 -0.18212324 -0.102418855
0.18175317 0.061659288 -0.033717334 -0.07327844 -0.10081865 -0.20293121 -0.16986328 0.017747367
-0.12697457 0.077733934 -0.16504301 0.0030260233 -0.0067664008 -0.18611339 0.02444016 -0.06379245
-0.14690584 -0.018963829 0.06265545 0.17333722 0.027744697 0.039033696 0.061722465 0.10208554
0.12642232 -0.141489 0.17039834 -0.09252147 -0.18469894 0.11102008 0.19716564 0.087079294
-0.17883602 -0.14100368 -0.078579634 0.15446992 -0.10601905 -0.055505726 -0.020423004 -0.062440757

hiden_layers.0.bias f4 [64]
00000000: c023 49bd 4b7b ca3d 1818 48bd 015e 4dbd
00000010: ab26 523d 5325 02bd edf6 853d bc8e 5cbd
00000020: b6fc 76ba d181 23bc 5043 8fbd 13e6 643d
00000030: 5c21 423d 03fd 67bd 5a91 a2bb d402 c93c
00000040: 9399 84bd da5f 18bd 570a 693d 3cce 6ebd
00000050: 8db5 4ebd 33f6 763d 1813 03bc 6a17 48bd
00000060: 43ad 8d3c 9bab 373d b050 3bbc 80bc 53bd
00000070: 57b6 653d 27dc d73c 4f3e ff3c b0c7 693d
00000080: 0988 323d 4102 5dbd 3574 4cbd 2cef bdbb
00000090: 5c23 55bd 3e7b 643d 1809 d4bd 3eb9 c8bc
000000a0: 37e5 c5bd a34c 52bd 8521 653d 3f2f 85bd
000000b0: 5517 0bbd 6231 633d 572e 1dbd 9462 86bd
000000c0: 0c99 4b3d ef4c 68bd e207 6b3d 2d9f e9bc
000000d0: a746 203d efb1 1abd 2b58 4a3d dddf 413d
000000e0: 3163 75bd 35b2 60bc d7e7 6abd 438b 4dbd
000000f0: 5ad4 77be dacb 4e3d c393 49bd d7fa 41bd
-0.04910636 0.098867975 -0.048851103 -0.050138477 0.051306408 -0.031773876 0.06541238 -0.05384706
-0.0009421812 -0.009979681 -0.06995261 0.05588348 0.047395095 -0.056637775 -0.004961175 0.024537481
-0.064746045 -0.037200786 0.056894626 -0.05830215 -0.05046611 0.060293388 -0.008000158 -0.048850454
0.017294532 0.04484139 -0.011432812 -0.05169344 0.056082096 0.026350094 0.03115764 0.057075202
0.043586764 -0.053957228 -0.04991551 -0.005796334 -0.052035674 0.055781595 -0.10353297 -0.024502393
-0.0966286 -0.051342618 0.05594017 -0.06503152 -0.033957798 0.055467017 -0.03837427 -0.06561771
0.049706504 -0.056713995 0.057380565 -0.028518284 0.03912988 -0.037767347 0.04940049 0.047332633
-0.05990905 -0.013714363 -0.057350006 -0.05018164 -0.242021 0.050487377 -0.049213182 -0.04735836

hiden_layers.1.weight f4 [64, 64]
00000000: c4f4 3bbd b9c3 533d 0d48 57be 6716 723d
00000010: c870 83be 6eb4 453e 4e41 e8bd 6d9f 0abe
00000020: 9207 9238 1f12 953d daf1 29bc 40ea 10be
00000030: 6807 863d 3159 383d 9713 30bc 8bc8 73bd
00000040: c2e6 d53c a483 4a3e 4474 9b3d dfe0 cd3d
00000050: 100d 823e 3f11 dabd c933 713d 3e16 e1bd
00000060: 43e4 afbd d771 75be dac5 38bd 8dcc 733e
00000070: 0f80 e1bb fe11 62bd 12e4 e4bd 3038 c63d
00000080: b672 77be 5ffc 7a3e 6031 29be bb04 32be
00000090: fd27 7bbd 4b82 f93c 46b3 cabc 79d6 153e
000000a0: fc23 ef3d b736 3c3e c541 18be 5993 513e
000000b0: a673 753e df5f ac3d e6a2 203e 25a2 4abe
000000c0: 8dea 063c 12e3 1cbe 63a0 24bd 49af de3d
000000d0: cedc dbbd 38cd a23b 69f6 12bd ae45 3fbe
000000e0: 6bcb 613e 4827 22be 0952 49be 0452 d53d
000000f0: b8a4 c33d b96e 913c 80f9 1e3d 24c4 37be
00000100: 0d94 883d de60 ab3c 8e29 4cbe 42d3 d03d
00000110: 8900 f6bd 4417 8abb 05e6 e4bd e475 b0bd
00000120: 5e32 c53d 0f34 f9bd 4336 043e 3d6d 153e
00000130: fb38 b73d 51df 28bd 24ec 073c cd8d a5bb
00000140: bba1 6f3d 4c28 e1bd 3832 1b3e 0ad8 9ebd
00000150: db8f 6c3d 37e8 4a3e edcf 51be db9a 7a3d
00000160: fcba 7b3b 59df 283e 1511 a8bb e08f abbd
00000170: c82e f9bb 4752 ce3c 448d 8ebd b9eb 403e
00000180: d890 4d3e ab3a 0f3e 1e29 68be a934 fabd
00000190: 40bc 4fbe 35e8 d23c 3457 19be a3ed 6bbe
000001a0: cc53 8bbe 0275 42be ac10 863d eb26 11be
000001b0: 5fc4 023e 1ccf f93d db4f 043c e678 6dbe
000001c0: e9a8 3e3e 291b eb3d 35fe 34be 49de 79bd
000001d0: e3ce 873d 57f3 1cbd e327 203e 3436 29bc
000001e0: 093c fbbc 5006 7b3d 7470 adbd 568c 983d
000001f0: f045 ca3d be82 05bd 18bb a33c 612b 343e
00000200: 548d 8c3d c278 703e bd97 12bc 12d1 283d
00000210: 9694 2c3e 1edf 423e 4a2b cbbd 2384 213e
00000220: 9d3c 3a3e 2c83 bcbd 5eaf 65be aa59 023d
00000230: 9c60 b93d 9463 4a3c 4d6c 4e3e 7d85 143d
00000240: c3b9 0bbe c4fe 14be b59d ef3d 410c 18bd
00000250: a8b8 a4bc 3176 72be 6855 55be 786b 44be
00000260: 5ff0 c03b ad98 1b3e 57d1 40be 86cb c9bd
00000270: f937 4e3e 3377 c73d bc6c 833e 5e7a 903e
00000280: cf45 3d3e 4338 52be 1588 f5bd 336a f4bd
00000290: f760 93bc dcba 13be bf55 d0bc 388a 16be
000002a0: 53fd 36be 08bf 3cbe 004e f5bd 8e94 39be
000002b0: b94f e93c 5100 c83d 54a3 00be 9553 683d
000002c0: ebfb 1dbd 0f55 923a 0925 533d bdcc 65be
000002d0: 0cb6 d33c 4f04 64be b28b 063e 046c 873d
000002e0: ffba 26be 3b50 3c3e a7a5 c3bd 0b49 ffbb
000002f0: 1512 dcbc 4c9b 1d3e e8cb b8bc 1ef7 6d3d
00000300: 4042 483e 1df8 12bd f9d3 25be a12e 0e3e
00000310: d4ed 953e 99fe 6cbe 3848 9ebd 1e86 f1bd
00000320: 2787 e437 45d5 00bd 9ce9 d7bd 7bf8 813e
00000330: b69b 603e 2d84 1d3e 69ce babc b5d4 f73d
00000340: f0a4 e5bb 929e 23be c15f 2c3d 6684 0e3e
00000350: 5717 48bc 74cc 74be 054b a93d 1f0d e23d
00000360: b2df 293e cba7 b93d 90ba a3bc 1c31 40bd
00000370: ccb5 0c3e 10e2 6d3e b475 1f3e 02a4 3e3e
00000380: a91a 433e b60e 26bd 2f47 cbbd 3964 f93c
00000390: 7db0 d03d b7a6 00bd b44a 233e 3fec 4a3e
000003a0: 20ab ee3d 2c00 e9bc 495f 433e 469c c63d
000003b0: 157d 1ebe 526d eabd 9787 55be 1a64 fabd
000003c0: 53fa 56ba a958 123e c25e 08bd 1a4a 793d
000003d0: 8220 423e 75f2 1abd 288c 84be 6b3f 11bd
000003e0: 9fcf 29be 8a2e 99bd 5d57 313e b099 083d
000003f0: 8448 2dbe 04b6 623e be13 893d cf83 49be
-0.045887724 0.051700328 -0.21023579 0.059103396 -0.25671983 0.1930711 -0.11340581 -0.13537379
6.9632326e-05 0.07278847 -0.010372603 -0.1415186 0.065443814 0.045006935 -0.010746858 -0.059517425
0.02611101 0.1977678 0.07590535 0.100526564 0.2540059 -0.10647821 0.058887277 -0.109905705
-0.08588459 -0.23969208 -0.04511056 0.23808499 -0.006881721 -0.05519294 -0.111763135 0.09678686
-0.24164852 0.24510334 -0.16522741 -0.17384617 -0.061317433 0.030457636 -0.024743687 0.14632596
0.11676785 0.18380247 -0.14868839 0.20466365 0.23969898 0.084167235 0.15687141 -0.19788416
0.008234632 -0.15320995 -0.04019202 0.10873277 -0.107354745 0.0049683116 -0.035879526 -0.18678924
0.22050254 -0.15835297 -0.196602 0.10416034 0.09552902 0.017752992 0.03881216 -0.17945915
0.066688634 0.020920213 -0.19937727 0.10196544 -0.12011821 -0.0042141993 -0.11176685 -0.08616236
0.096287474 -0.121681325 0.12911324 0.14592452 0.08946415 -0.041228596 0.008296046 -0.0050523044
0.058503848 -0.10994014 0.15155876 -0.0775605 0.05775438 0.19815145 -0.20489474 0.061182838
0.0038411012 0.1649145 -0.0051289895 -0.08377051 -0.0076044537 0.025185717 -0.06960538 0.18839921
0.20074785 0.13987224 -0.22671935 -0.122170754 -0.20286655 0.02574549 -0.14974672 -0.2303987
-0.2721237 -0.18989947 0.06546149 -0.14175002 0.12770222 0.12197706 0.00807568 -0.2319065
0.18619122 0.1147979 -0.17675097 -0.061003003 0.066312574 -0.038318004 0.15640216 -0.010327864
-0.030668275 0.061285317 -0.08468714 0.07448642 0.09876621 -0.03259539 0.019986674 0.17594673
0.06862894 0.23483565 -0.00894731 0.04121501 0.16853556 0.19030425 -0.09920366 0.15773062
0.18187185 -0.092047065 -0.22430179 0.03182379 0.0905163 0.012352843 0.20158501 0.036260117
-0.13645081 -0.1455031 0.11700002 -0.03712106 -0.020107582 -0.23677899 -0.20833361 -0.19181621
0.0058880295 0.1519496 -0.18829857 -0.09853272 0.2013854 0.09739532 0.25668895 0.2821836
0.18483661 -0.20529275 -0.11988846 -0.119343184 -0.017990572 -0.1442675 -0.025431512 -0.14701164
-0.17870073 -0.18432248 -0.11977768 -0.18123075 0.028480398 0.09765685 -0.12562305 0.056720335
-0.038570326 0.0011164265 0.05154899 -0.22441383 0.025843643 -0.22267269 0.13139227 0.06612399
-0.16282271 0.1838998 -0.0955308 -0.00779069 -0.026864091 0.15391272 -0.022558168 0.058096997
0.19556522 -0.03588115 -0.16194142 0.13884975 0.2928301 -0.23143996 -0.077286184 -0.11793159
2.7242653e-05 -0.03145339 -0.10542604 0.25384888 0.21934399 0.15382452 -0.022803502 0.121011175
-0.0070081875 -0.15978459 0.042083506 0.13917693 -0.012212596 -0.23906118 0.08266262 0.11037659
0.16589239 0.09065207 -0.01998642 -0.046921834 0.13741225 0.23230767 0.15572244 0.18617252
0.19053139 -0.040541373 -0.099256866 0.030443298 0.101899125 -0.03140899 0.15946466 0.19816683
0.11653733 -0.028442465 0.19079317 0.096977755 -0.15477403 -0.114466324 -0.20852505 -0.12226124
-0.00082007534 0.14291634 -0.033293493 0.060861684 0.18957713 -0.03782888 -0.2588818 -0.03546087
-0.16583107 -0.0747958 0.17318483 0.033349693 -0.16922194 0.22139746 0.06693219 -0.19679187

hiden_layers.1.bias f4 [64]
00000000: 8812 1dbd 50fb 583d adc6 853d ab4a 083c
00000010: 78be 6fbd ee75 053d 0c02 6ebd 2f7b 46bd
00000020: 36f6 49bd 8f99 bb3c da60 013c 7271 3ebd
00000030: b5ec afbc aabe e93c 3a36 68bd 1de6 51bd
00000040: a442 4fbd c6ab 39bd 303c c6bc 1a53 c03c
00000050: 7890 38bd bf0e 273d 475d 27bb 1bb9 173d
00000060: 1663 36bd 99b5 09bc e6bd 503d c18e 4a3d
00000070: a827 3dbd 0fde 48bd a64a 4dbd f743 3fbd
00000080: ef98 38bd 08c8 52bd 7907 543d 0c44 123d
00000090: 1771 81bd f639 8dbd d899 3bbd 8574 233d
000000a0: 2cbc 5f3d d4b8 4dbd c91c 6bbd 4f85 2bbd
000000b0: 51b3 51bd 68be b9bd 60c7 40bd 1be2 433d
000000c0: 0289 82bd 619e 4cbd e5ee 283d f1bd 873d
000000d0: a545 c8bc 019a 28bd 00cf 88bc e0fb babd
000000e0: d91f 2f3d 61e2 733b 5d01 6e3c 1cc2 7a3d
000000f0: bbef 6a3d 6061 92bd fd19 9d3b d21b e5bc
-0.03834775 0.052974045 0.06532035 0.0083185835 -0.058531255 0.03258317 -0.05810742 -0.04845732
-0.04930707 0.02290037 0.007896626 -0.04649491 -0.021475175 0.028533299 -0.05669234 -0.051244844
-0.050600663 -0.04532983 -0.024198622 0.023477126 -0.04505965 0.040785547 -0.0025537775 0.037041765
-0.04452809 -0.008405113 0.05096235 0.049452547 -0.046180397 -0.049039897 -0.05012002 -0.046695676
-0.045067724 -0.051460296 0.05176494 0.035709426 -0.06320398 -0.06895821 -0.045801014 0.039906044
0.054622814 -0.050225094 -0.0574005 -0.04187518 -0.0511964 -0.0906952 -0.04706514 0.047823053
-0.063737884 -0.04995573 0.041243453 0.06628025 -0.024447272 -0.041162495 -0.016700268 -0.091300726
0.04275498 0.003721379 0.014526692 0.061220273 0.05735753 -0.07147479 0.004794358 -0.027967367

hiden_layers.2.weight f4 [64, 64]
00000000: 975b 22be 43a2 f33d f42c 1f3d 4343 07bd
00000010: dad1 a2bd a6d1 a9bd 4de7 f2bd a9a8 1cbe
00000020: 2301 6bbe 225e 87bd b78f de3c cb2b b5bd
00000030: 2015 14bd 188b 703e a35c 16be 2bae 333e
00000040: d414 1d3e 9c6f bcbd f715 8d3c c614 4fbe
00000050: 7bc2 ec3d 6f8f ff3d bd2e 45be 0462 2f3e
00000060: fa18 403d 660a 49be bddc 40be 0d04 b43c
00000070: af1e 2abc efa5 d4bd bc9f 223e a1ea 0a3d
00000080: 5570 5bbe 922e ea3d 7607 44be 41be b2bd
00000090: 8119 853e 27f3 9a3d 0092 d63d 8dd8 afbc
000000a0: aa2a 3abd b6fe bdba dae7 363c cd87 0b3e
000000b0: 5925 163e 0092 75bd f20e e53c b241 163e
000000c0: 6ca8 c33d 3ffe dabc 380c 16be 035e 6bbe
000000d0: dcb8 dcbd 4bba d13d a44a fc3d 9843 5e3e
000000e0: 7046 8ebd 8574 183e c3c6 d43d 7f31 b23d
000000f0: f1c7 8ebd 0595 6f3d 5908 223e 9729 203e
00000100: 83c2 d33d 5d86 ddbb 15cc e83d 41fd 063e
00000110: 4c41 7c3e c035 383e 5951 ec3d 12a7 6d3e
00000120: b90f 8f3d 4596 5a3e cd96 5d3e 2c46 143e
00000130: 9cb5 32bd 18db cbbd 901b 873b b6b6 063e
00000140: cdc3 27be 095b 3d3d 923f 7ebe 6c36 43be
00000150: 26c5 db3b 0e36 0abe 7bb3 323d a01c 55be
00000160: 603d e6bd 56af b23d cb23 873e 5b25 2b3e
00000170: 3944 9fbd 12dc b43d 1fe1 0dbd 0983 8bbd
00000180: 0b53 0d3d 3f05 6b3e f7d4 17bd e59e 003e
00000190: 7b7b 283e afde bc3d 5489 483d 01e7 93be
000001a0: 6604 f9bd 7ce9 adbd b393 62bb c37c 1e3d
000001b0: 5e31 eb3c dde2 4dbe 3bc8 cfbd 3ae3 683e
000001c0: 51f2 2abe 9c3d 773e b6a5 8ebd 4461 03be
000001d0: df50 4bbe 8e1a 233e f62a c3bd 3438 50be
000001e0: 2930 733e cf54 84bd aa6e cfbd 41dd 423e
000001f0: 2f62 713d 9998 673e 83ec 073e ca32 74be
00000200: 04f0 8f3e 53b1 6fbe 4c5a 61be 6246 03be
00000210: fb17 3f3e 8ee8 3b3d 371b 523e 94c7 193d
00000220: 350e 0cbe 57dd 773e e716 583c bbdc 813e
00000230: f932 453d 1fa3 4c3e 26a9 0dbe fe6e 1d3e
00000240: 33c3 903d e366 26be a51f 123e 7e58 7bbe
00000250: 1e7d 5dbe 65c3 7d3d fb3d 343e e96a 13be
00000260: 0243 33bd 65a6 5bbe 96f7 b9bd 9f65 07be
00000270: 61c9 f43d 0c39 613d 4095 f63d f407 753e
00000280: 0308 6abd cd06 06be 2bec b0bc a031 1f3d
00000290: 06c4 4c3e 6cb1 063d c80f 36be 2d63 3f3e
000002a0: 1e2e 413e ba85 00bc 06e2 48bd 8c97 79bd
000002b0: 3058 5e3e 1068 793d 3f2d 46bd c5d6 c7bb
000002c0: 07eb 6f3e 257a 213e 40cf 82be c38b 1e3e
000002d0: 4264 3cbe 7b64 363e bdaa 083e 6b38 8cbd
000002e0: d553 3abe b370 ec3d 8d89 66be b4d3 05be
000002f0: 0bad 943c c68c c03d 9ad5 0c3e 6597 2f3e
00000300: 3c26 47bc 59a1 28be 2682 d0bc b7c8 823e
00000310: 4677 24be 1bcf d2bd 5175 3f3c dbe3 1ebe
00000320: 6a96 7f3d d7d9 1d3e b491 333e 571c 59be
00000330: 2d87 b43d 5ac7 743d 3b1a e1bc 4701 133d
00000340: 1bdf 8e3d 9c3c 79be 06a9 21be 20be 013a
00000350: d3a4 58be 9631 3fbd cb2a f63d ff41 69bd
00000360: abee 41bd 6959 893b d341 173e bdff df3d
00000370: a650 75bd 106b 383e 0b74 693d 890f 4fbe
00000380: 2f6f 72be 70d7 dcbd 4a30 763e 7c1c 4f3e
00000390: 6597 54bd 284c ac3d 6280 dfbc ba0a 1fbe
000003a0: f56d 5f3e 3d45 7cbe 12b1 f93c b2f5 e6bb
000003b0: ad9e 4a3d c83f b5bd 1732 41bd 6d84 8cbd
000003c0: c8c3 d2bd a3dd 7e3d a074 4a3e ee74 3ebe
000003d0: 4040 a1bd 3707 03be 3310 163e 66d7 63bd
000003e0: 04df 063e 4854 e0bd 1227 cdbd 9e91 763e
000003f0: 5c32 b13d 9d77 38be b604 853e 774a 18bc
-0.15855251 0.11896183 0.03886123 -0.03302313 -0.07950182 -0.082919404 -0.118605234 -0.15298714
-0.22949652 -0.06609751 0.027168138 -0.088462435 -0.03615296 0.2349056 -0.14683776 0.17546909
0.15339977 -0.09200975 0.017222388 -0.20222768 0.11560532 0.1247853 -0.1925611 0.17127234
0.04689882 -0.19632873 -0.18834205 0.021974588 -0.010383292 -0.10383212 0.15881246 0.033915166
-0.2142957 0.11434664 -0.19143471 -0.08727694 0.2599602 0.07565909 0.10477066 -0.021465564
-0.045450844 -0.0014495465 0.011163676 0.13626023 0.14662685 -0.05995369 0.027961228 0.14673498
0.09553608 -0.026732562 -0.14653099 -0.22985081 -0.10777447 0.10240611 0.12318924 0.21705472
-0.06947029 0.14888199 0.10389473 0.08700847 -0.069717295 0.058491725 0.15823497 0.15640865
0.103398345 -0.006760402 0.113670506 0.13182546 0.24634284 0.17989254 0.11538953 0.23208264
0.06985421 0.21346386 0.21639557 0.14479893 -0.043630227 -0.09953898 0.0041231588 0.13155636
-0.16383286 0.046229396 -0.24828938 -0.19063729 0.0067068515 -0.13497183 0.043628197 -0.20811701
-0.11242175 0.08724849 0.26394495 0.16713469 -0.07776684 0.088310376 -0.03463852 -0.06812102
0.034503024 0.2295122 -0.037068333 0.12560613 0.16453354 0.09222161 0.04895909 -0.2888718
-0.12159042 -0.08491799 -0.00345729 0.0386932 0.028710064 -0.20106073 -0.10145613 0.2274293
-0.16693999 0.24144596 -0.069652006 -0.12830073 -0.19855069 0.15928099 -0.095296785 -0.2033394
0.2374884 -0.064614885 -0.10128529 0.19029714 0.058931526 0.22616805 0.13273816 -0.238475
0.28112805 -0.23407488 -0.22007102 -0.12819818 0.18661492 0.04587608 0.20518194 0.03754385
-0.13677295 0.24205528 0.013189054 0.25363716 0.048144314 0.19984101 -0.13834056 0.15374371
0.07068481 -0.16250186 0.14269884 -0.24545476 -0.2162976 0.06195392 0.17601769 -0.14396252
-0.043765076 -0.21450193 -0.090804264 -0.13222359 0.119524725 0.054986045 0.12040186 0.23928815
-0.057136547 -0.13088532 -0.021596989 0.038865685 0.19996652 0.032884046 -0.17779458 0.18690176
0.18865249 -0.007844383 -0.049043678 -0.060935542 0.21713328 0.060890257 -0.048382994 -0.0060986006
0.234295 0.1576925 -0.25548744 0.15483002 -0.1839762 0.17811768 0.13346381 -0.068466984
-0.18196042 0.11544933 -0.22513409 -0.1306904 0.01814892 0.094018504 0.13753358 0.17147596
-0.012155112 -0.16467799 -0.025452685 0.25543758 -0.16061124 -0.102934085 0.011685685 -0.15516607
0.062399305 0.1541513 0.1753605 -0.21202217 0.08814845 0.05976043 -0.027478328 0.03588989
0.06976148 -0.24339527 -0.15787134 0.00049492903 -0.21156625 -0.04667815 0.12019881 -0.056947704
-0.047346752 0.0041915667 0.14771204 0.1093745 -0.059891365 0.18009591 0.056995433 -0.2022077
-0.23675226 -0.10783279 0.24041858 0.2022571 -0.051902194 0.08412963 -0.027282897 -0.15531436
0.21819289 -0.24635787 0.030479942 -0.007048332 0.04946773 -0.08850056 -0.04716691 -0.06861196
-0.102912486 0.062223088 0.19771051 -0.18599293 -0.07873583 -0.12795721 0.14654617 -0.05562534
0.13171011 -0.109535754 -0.10017218 0.24078986 0.086521834 -0.18014379 0.25980157 -0.009295098

hiden_layers.2.bias f4 [64]
00000000: 3905 fabc 142b ebbc 1c78 dabc 5de2 073d
00000010: 23d7 90bc 927b 3f3c eec8 71bc 184c 1cbd
00000020: 6f82 8c3b 5e43 52bd 77ad 453d 612e c4bc
00000030: 861c 063d 0252 3d3d 0317 ea3c 1655 da3c
00000040: 8ba1 7fbd a956 1dbd 3391 f7bc 41fd bf3c
00000050: 635d 0abd 1c16 19bd 0616 163d 2045 c33c
00000060: 1da2 423c 02ba c4bc 63a3 3c3d f7df cfbc
00000070: 2feb 6fbd f3f4 0b3d 7d5d 89ba 6b13 0e3d
00000080: ba4a 7f3c 9679 21bd 8610 33bd b995 203d
00000090: c2ce 4a3d 8966 4a3d c716 263c 5755 2b3d
000000a0: d39b 1b3d 87c5 3a3d 40d0 02bd 55b1 203d
000000b0: c201 0b3d 5ec9 d83c 5036 2fbd 38bd e7bc
000000c0: 55e0 ae3c 25b3 aabc 78fb 403d 3e8c 8bbc
000000d0: 417f 77bd 9d2c bf3c 7178 84bc de87 a6bc
000000e0: fcdc dd3c 13ed 56bd 297c 19bd 926c 42bd
000000f0: 9e20 bcbd 37dd 4b3d f485 62bd 1516 903d
-0.030520068 -0.028707065 -0.0266686 0.03317486 -0.01768071 0.011687176 -0.014757378 -0.038158506
0.00428801 -0.051333778 0.048261132 -0.023947896 0.032742046 0.046220787 0.028575426 0.0266519
-0.06240992 -0.038412724 -0.030220604 0.02343619 -0.033780467 -0.0373746 0.036642097 0.023836672
0.011879471 -0.024014477 0.046054255 -0.02537535 -0.058573898 0.03416915 -0.0010480132 0.034686487
0.015581781 -0.039422594 -0.04371693 0.039205287 0.049513586 0.04941419 0.0101372665 0.041829433
0.037990402 0.045598533 -0.031936884 0.039231617 0.033937223 0.026463207 -0.042776406 -0.028288469
0.021347204 -0.020837376 0.04711482 -0.017034646 -0.060424093 0.023336703 -0.016170712 -0.020328458
0.027082913 -0.052472185 -0.037471924 -0.047466822 -0.09185909 0.049771514 -0.05530353 0.07035462

hiden_layers.3.weight f4 [64, 64]
00000000: b6e4 a2bd 00eb 573e 21de 2b3e e599 e7bb
00000010: ca4e 8abd d25e 2b3e ab07 8bbd aa26 65be
00000020: 5447 f73c 0f3f 813d c922 2c3e 5d92 53bd
00000030: 86e4 703e 8d8a 37be a85f 703e 2e77 8cbd
00000040: 49de 10be d492 1ebe 1185 403d 4e4d 01be
00000050: a21e 4a3e 6bb5 77be 8de2 653e 8558 783e
00000060: 7b3e 233e e9f0 a93d e4e9 90bd 0345 8ebd
00000070: b648 1e3e 4f37 193e 1414 803b 22b4 593e
00000080: 1730 8f3d e5c5 df3c fa79 0dbe a50f 293e
00000090: b739 c63d 8871 6e3d 1661 923c 5442 84bd
000000a0: 8221 7d3d e031 003e 0e57 67be 2dc1 01be
000000b0: 2926 053e b253 563e 8103 043d efa8 65bd
000000c0: 1cf0 3d3e 2ff7 7abe 3c02 04be 5a1a 44be
000000d0: d63c 283e 4c4f 583e ad26 253e d28e 16be
000000e0: 865c fe3d 8ce6 973d 81ad 4bbe d22c 9b3d
000000f0: dc1c 823c 9b66 5d3e 91ef c2bd f577 643e
00000100: 2d57 69be 0e76 b6bc 3a66 30bd 9b0c 8d3d
00000110: 58ef e63c c023 143e 2ad8 7cbe 2aef 9a3d
00000120: 85e1 49be d5b0 3fbe c463 393e 97e2 d53d
00000130: 7b3a 263e d7e0 06bd e6c0 a4bc 833a 3d3e
00000140: dd69 333e 1623 e5bd 80f6 623e e516 3a3e
00000150: 52a6 5c3e f90e c0bd 24d1 a2bd a1de 5a3e
00000160: d3b2 dcbd 9b01 fa3d a1c9 603e f98c 4ebe
00000170: 9b1a 1b3e 6a37 08bd 372c 61be ae30 f83d
00000180: dbf7 2d3e 0a43 c1bd 4af2 433e d98d cd3d
00000190: 818b 6abd 2b2c 16be a6bd 1cbe 86db a63d
000001a0: 1d68 683d 92e4 e63b b354 6b3d eb8d 703e
000001b0: 8c38 0e3d 24b8 893d 83d1 0f3e f091 eb3b
000001c0: ef9f 413e 35b1 07be 0cc8 eebd b3a1 263e
000001d0: 221a 093e ec80 9ebd 2873 cfbd 1239 403e
000001e0: 0273 4e3e d883 f7bd d1be c73d 33c3 9b3d
000001f0: 871c c63d bbf4 173e acc3 0ebc aec9 b73d
00000200: 79bb c0bd b06b 5b3e 80d4 ecbd 2647 fcbc
00000210: 7776 d7bd 5d67 c33d 8574 513e 24ea 50be
00000220: 3731 2e3e 6611 11bd 7cfa cabc 7358 fb3c
00000230: 7854 9dbd dbe1 923c 070d f33d 1940 a03d
00000240: ceff fe3d 22d2 793d 4537 16be 4ea6 32be
00000250: a5bf 2c3d 8dae 39bb 3f2a b4bd 1d4a 093e
00000260: 567a 593a 3df1 a43d 00af 2ebe b210 2d3e
00000270: a6f8 473e a149 37be fc9a 00be 9bdf 03be
00000280: 8047 85be 48d3 92bc 8ce2 213e 9e73 843c
00000290: 10ed fcbc de07 a3bd 6d72 843d c2af 9c3d
000002a0: 5012 613e 8a61 7abe 020d 14be 89c8 7c3d
000002b0: 8082 19bc 6df0 14be ecf2 cc3d 212a 48be
000002c0: e2ed 98bd ca65 7fbe fad5 623e 5514 bd3d
000002d0: 3aed a03c dac5 4cbd a524 82be 69c3 81be
000002e0: f4ca 5abe 6b72 1bbe 15d1 8abc 96ba 1a3e
000002f0: 1d5f ef3d ffb5 4d3c 180c 463d 6f3d 8ebb
00000300: a5e0 0e3e 5d64 1bbe 91a0 063e ac25 b0bd
00000310: a2f8 60be 7d2f e7bd 2db0 e43d c05f d7bd
00000320: 4126 d63d e13c 15be 3c96 85be 0f2c 2abe
00000330: 276b 6cbe 86d5 6fbe 6ce9 25be 803f 77bd
00000340: 052f f2bd c4b4 493e 6f35 133d 5095 fc3c
00000350: 7400 ab3d 2af4 69b9 7339 2bbe 034a a2bd
00000360: 29c8 493e 6d32 ec3c 44bb 4d3d d441 883d
00000370: ceea 463e 24ea 70be 019d b43d 3aa9 813d
00000380: c5d1 ca3d 43f0 4e3e 6028 f03d 891d 2abe
00000390: 27ec 74be 12fe 94bd 4ba4 61be 687a 62bd
000003a0: 7cf8 513d af8e 86be b063 56be 471c 7dbd
000003b0: aaaf 5e3d 79b2 40be 1766 873e 1863 313e
000003c0: 8b8e 25be ae49 ce3d a7e8 0fbe b588 08be
000003d0: b369 fa3d 3ca5 3f3e 6ede d23d 7e24 3f3e
000003e0: e079 0f3e ad00 2a3e 98da 513e 080f d0bd
000003f0: 9c99 80bd 782c 8bbe 95d2 f4bd 9e4c 0e3c
-0.079537794 0.21085739 0.16783954 -0.007067906 -0.06753309 0.1673539 -0.06788572 -0.2237803
0.03018538 0.063108556 0.16810144 -0.051653255 0.23524675 -0.17923947 0.2347399 -0.06858669
-0.14147295 -0.15485698 0.047001902 -0.12627146 0.19738248 -0.24190299 0.22449704 0.24252518
0.15941803 0.08297903 -0.07075861 -0.06946757 0.15457425 0.14962505 0.0039086435 0.21260121
0.06991594 0.027316043 -0.13816062 0.16509874 0.09678977 0.05821374 0.01786856 -0.064579636
0.061799534 0.12519026 -0.22591802 -0.12671347 0.13002838 0.20930365 0.032229904 -0.05606931
0.18548626 -0.24508356 -0.12891477 -0.19150677 0.16429457 0.21124 0.16128035 -0.14702919
0.12419991 0.0741702 -0.19890405 0.07576908 0.015882902 0.21621172 -0.0951835 0.22311385
-0.22787161 -0.02227309 -0.04306624 0.0688717 0.0281903 0.14466763 -0.24691835 0.07565148
-0.19714935 -0.187198 0.18104464 0.10443609 0.16233246 -0.032929268 -0.020111512 0.18479352
0.17520852 -0.11188333 0.22164345 0.18172796 0.21547821 -0.09377856 -0.07950047 0.21373989
-0.107762955 0.122073375 0.21951915 -0.20170964 0.15146868 -0.033255972 -0.21989523 0.1211866
0.1698908 -0.09436615 0.19135395 0.10036821 -0.057261948 -0.14665286 -0.1530672 0.081473395
0.056739915 0.0070462907 0.057453822 0.23491637 0.034721896 0.06724575 0.14044766 0.007189028
0.18908666 -0.13251193 -0.1165925 0.16272621 0.13388875 -0.07739434 -0.10129386 0.1877177
0.2016106 -0.12085694 0.09753192 0.07605591 0.0967341 0.14839451 -0.008713644 0.08974014
-0.094107576 0.21427798 -0.11563969 -0.030795645 -0.10520642 0.09541199 0.20454605 -0.20401818
0.17010961 -0.035416983 -0.024777643 0.030681824 -0.07682127 0.017929962 0.11867719 0.07824726
0.124511346 0.060991414 -0.14669521 -0.17446253 0.042174954 -0.00283328 -0.0879712 0.13407178
0.00082961225 0.08053825 -0.17058945 0.169009 0.19528446 -0.17899181 -0.12559122 -0.12878267
-0.26031113 -0.017923012 0.15809077 0.016168412 -0.030874759 -0.07960485 0.064671375 0.07650711
0.21979642 -0.2445127 -0.14458087 0.061714683 -0.0093694925 -0.1454484 0.10007271 -0.19547321
-0.074672475 -0.24941173 0.22151938 0.09232394 0.019644368 -0.049993373 -0.25418583 -0.253444
-0.21366483 -0.15180366 -0.016945401 0.1511024 0.11688063 0.012555598 0.048351377 -0.0043408195
0.13952883 -0.15175004 0.13147189 -0.08600935 -0.21969846 -0.112883545 0.11166415 -0.1051631
0.10456515 -0.14574005 -0.26091182 -0.1661837 -0.2308775 -0.23421296 -0.16202325 -0.060363293
-0.118253745 0.19697863 0.03593963 0.030832916 0.08349696 -0.0002231157 -0.16721134 -0.07924273
0.19705261 0.028832639 0.05022742 0.06653181 0.19425508 -0.23526818 0.088190086 0.063311055
0.099032916 0.2020884 0.11726451 -0.1661283 -0.2391821 -0.072750226 -0.22035329 -0.055292517
0.051262364 -0.26280734 -0.20936465 -0.061794546 0.054366745 -0.18818082 0.26445076 0.17322958
-0.16167657 0.10072647 -0.14053594 -0.133334 0.12227192 0.18715376 0.10296331 0.18666264
0.14011335 0.1660182 0.20493543 -0.10159117 -0.06279299 -0.27182364 -0.11954228 0.008685259

hiden_layers.3.bias f4 [64]
00000000: f306 683c a0b9 673a d4f5 a1bc 5fa4 40bd
00000010: 9a59 a43b de7a 07bd b09e 8a3d 3e2c df3c
00000020: c89e beb9 9900 7f3c e2e4 3e3d 96ea 483d
00000030: 6ea1 c33c 55ad 923b 831b 8dbb 2f53 f6bc
00000040: af28 11bd dbe8 38bd 5e1d 0e3d efbd 063d
00000050: 6e7f 873b 548b 92bd 8836 493b 5a6f ae3c
00000060: e6aa cebc a073 cd3c ae7a 61bc fe81 07bd
00000070: 337b adbd a60e 59bd 55f2 dfbc 4e7e 96bc
00000080: 0b06 613c 5445 b53d 8fc5 3e3d 08db cabc
00000090: 74cd 5e3c 06ff 023b c444 0c3d f6e0 32bd
000000a0: 977b 48bd 9cc4 c93b a650 243d faae 8bbb
000000b0: 8e4b 6dbd e042 3dbb 7dd4 353c d4f3 5abd
000000c0: 86bb 18bd d53f 2fbc 7772 f7bc 892d b2bc
000000d0: adb8 05bd cc62 313d 2b09 f73b b52f a6bc
000000e0: e7ad 2b3d 073c 003d a259 813b bd6a b3bd
000000f0: 8028 52bd 5b07 b23c dfa9 3ebd 2919 afbc
0.014161813 0.0008839611 -0.01977054 -0.047031756 0.005015564 -0.03307616 0.067685485 0.027242776
-0.00036357925 0.015564107 0.046605 0.049051844 0.023880687 0.004476229 -0.004306258 -0.030068962
-0.03543919 -0.045143943 0.034695975 0.03289598 0.004135064 -0.07155481 0.003070267 0.021293331
-0.025227975 0.025079548 -0.013762159 -0.033082955 -0.08470764 -0.052992485 -0.027337233 -0.018370774
0.013734351 0.08851114 0.046575125 -0.024762645 0.0135987885 0.0019988432 0.034245268 -0.04367157
-0.04894599 0.006157471 0.040115975 -0.004262802 -0.057933383 -0.0028878972 0.011098024 -0.05345519
-0.03728821 -0.010696371 -0.030205948 -0.021750228 -0.032646824 0.04330711 0.0075389347 -0.02028642
0.041913893 0.031307247 0.0039474526 -0.08760593 -0.051308155 0.021732023 -0.04654872 -0.021374302

hiden_layers.4.weight f4 [64, 64]
00000000: eaf1 21be 8998 313d 35af b13d 7e4f 5abe
00000010: e35c e3bc a8a5 d0bc 2aa8 67bd 9cb6 d53d
00000020: 1c94 bdbd 3492 debc 63cc 83bb e5ae 8d3d
00000030: 2d44 ad3c 259b 14be 43db e6bd 6c6b 2abc
00000040: f936 0dbc 1a5f 85bd db93 e33d baae 813e
00000050: f657 4dbd 365a 753d 52cc 59be 8e3b 90bd
00000060: 6aaf 32bc 78c6 febd c57f 073e 214e 1a3e
00000070: 0125 3cbe 4a32 05be 7fbc 10be 875c 2bbd
00000080: 75ce 0b3e 5f52 983c 3135 d53d 5710 44be
00000090: a1f1 383e 6ddc 86bd 952a d5bd 698e 0cbd
000000a0: 0e4e 1abe 162d 753a cb7e 3d3e 6bab 7e3d
000000b0: e277 45bc a4ca 0f3e b82c 573e 1c02 1dbe
000000c0: 84c1 29be a48f febd b77f b63d 715f 803d
000000d0: f228 44be f9f5 173e b9b6 563e bd1e 11be
000000e0: 27cd 713d 204c 863c 4dcd 69be b948 efbd
000000f0: 256f 0f3e 7237 2fbe 4231 503c 959e cfbd
00000100: 4ff8 6abd 81f3 2ebe 72b7 08be 08b1 b63d
00000110: e276 863d 95e0 623d dfe9 43be 7dc6 97bd
00000120: 7d79 07be 7f7e 74bd e36d e4bd 829a 233e
00000130: d653 ee3d b156 b93d 056e 31be 77d6 da3d
00000140: ae4c 3bbe ed2d 9abd c308 523e 1559 283d
00000150: 0ff3 c03d b660 f73d 1ff0 293e f13b ae3d
00000160: 6ae3 8dbd 8941 45be c0ae f6bd af1d 353e
00000170: a192 403d ebc2 6dbb 3be1 36be 9305 36be
00000180: 8d7b 323e 9ea3 a83d bfa1 483e f2bc 9ebd
00000190: a671 34be 6ff2 1c3d 6587 8e3d 575d ab3c
000001a0: e7e6 953e 0ffa 26be fd41 d93d 7cf8 273e
000001b0: ea71 bfbd a4ac 5a3e 713d 203d 9cc3 e3bc
000001c0: 3c06 f5bd bd5c 393e 786b 25be 872c 5bbd
000001d0: 97c0 f63d 7af1 b3bd fa2b 433e b214 723d
000001e0: f388 6f3d 740d 0abe 7f7b f83d 7f88 03bc
000001f0: 75dc 663e 6970 263d a505 6d3d af55 0d3e
00000200: 2635 46be 4cf1 2bbe c6d8 00be 0384 40be
00000210: 2e76 debc 3d8e 1abd 2192 98bd 8668 033e
00000220: 415e bcbb 9eca 36be b457 0a3e ae29 a5bd
00000230: 7b83 c0bd 0065 673e 6fc4 373e 2e9c b5bd
00000240: aea2 253d aef8 583e ba5c efbd 9d4f 083d
00000250: 7567 21be 5400 5bbe 9647 9ebd 56bf ba3c
00000260: fb65 30be e203 9bbe 1379 3d3d 6c42 3a3e
00000270: 110a 07be 7319 073e b92f b3bd 7ea2 553e
00000280: 6007 cdbd e9b1 2cbd 4144 60be d810 1d3e
00000290: f9d3 143b 658c 0a3d 431e 57be f708 863e
000002a0: c65f 923e 035f e93d 01ec a3be 6ba7 bcbd
000002b0: 5ce5 6fbd 95de 533b 1f86 c53d 8d44 633d
000002c0: f616 803e f1c6 9a3d 614a a03e 87ac 5abe
000002d0: 10fd f9bd e822 3c3e 4ebf 35bd 2339 9b3d
000002e0: 81d3 2abe bcb5 893e cb07 713e d76f 753e
000002f0: 4d9c 933d c169 aabc 1dc1 7b3d 68a6 663e
00000300: 6c74 f63c eae5 f6bd c8e8 9abd 1241 373e
00000310: 971f 083e 6572 5b3d 9448 12bc 918e 25be
00000320: f0a5 483e 65d2 ba3d 70bb fb3d 437b 78bd
00000330: 245f 08be fbbc 17be 7816 793e 1b6e 633e
00000340: 31b4 b33d 90ac c33d fe9f 6bbe 10ca a2be
00000350: 1d8e 2ebe a509 823d 60b6 263e d5a8 023e
00000360: ff26 603e 157c d1bd 77ef 063e 1856 a9bd
00000370: ede2 2abd 5e30 8c3d 1585 693d 6f5f 3ebe
00000380: 0d12 a3bd 1843 323d ae22 22be e21f febd
00000390: 8bee 443e a651 c2bd 6648 e0bd b6b6 e83d
000003a0: f990 9fbc d621 893c 09c2 36be 620a 683e
000003b0: d162 0d3e 5434 15be 5414 8bbd e60c 7fbe
000003c0: 183a b1bd e33f 373e 295e 92bd 4381 433e
000003d0: 23bc 38bd f0d8 f93d bb8f f33d fc41 413e
000003e0: 3042 61be dc4c 42bd 13b0 703e b87b d73d
000003f0: a020 173e 816e 5abd 09fb 1f3e 3283 783e
-0.15814939 0.04335836 0.08675996 -0.21319386 -0.027754253 -0.025469616 -0.056556858 0.104352206
-0.09256765 -0.027169324 -0.0040221675 0.06918124 0.021150673 -0.14512308 -0.112722896 -0.010401588
-0.0086190635 -0.0651228 0.111121856 0.25328618 -0.050132714 0.059900485 -0.21269348 -0.07042609
-0.01090608 -0.12440199 0.13232334 0.15068866 -0.18373491 -0.13007465 -0.14134406 -0.041836288
0.13652976 0.018593965 0.10410536 -0.19146858 0.18060924 -0.06585012 -0.104085125 -0.0343155
-0.15068838 0.00093527266 0.18505399 0.062175196 -0.012052508 0.14042145 0.21013153 -0.15332836
-0.16577727 -0.12429741 0.089110784 0.06268204 -0.19156244 0.14839925 0.2096814 -0.14171882
0.05903354 0.016393721 -0.22832222 -0.116837926 0.14007242 -0.17110994 0.0127070565 -0.10137669
-0.05736571 -0.17085077 -0.13351229 0.08920485 0.06565644 0.05538996 -0.19132183 -0.074109055
-0.13229938 -0.05969095 -0.11153772 0.15976909 0.11637084 0.09049738 -0.17327125 0.10685437
-0.1829097 -0.07528291 0.20511155 0.04110058 0.0942136 0.12078993 0.16595505 0.08507527
-0.069281414 -0.19263281 -0.1204505 0.17687105 0.047014836 -0.003627951 -0.17859356 -0.17775564
0.17429943 0.082343325 0.19592951 -0.07750882 -0.17621478 0.03831714 0.06959418 0.020918531
0.29277727 -0.16306327 0.106082894 0.16403383 -0.09347899 0.2135492 0.039121095 -0.027803235
-0.1196408 0.18101783 -0.16154277 -0.05350926 0.12048452 -0.087862924 0.19059744 0.059101768
0.058480214 -0.13481694 0.1213293 -0.008028149 0.22545035 0.040634546 0.05786671 0.13802217
-0.19356212 -0.16791266 -0.12582693 -0.18800358 -0.027155962 -0.037733305 -0.07449747 0.12832841
-0.0057485406 -0.1785073 0.13510019 -0.080645904 -0.09400078 0.22597122 0.17946027 -0.088676795
0.040438347 0.21188614 -0.11687608 0.03327905 -0.15762122 -0.21386844 -0.07728498 0.022796314
-0.17226402 -0.302764 0.046258043 0.181894 -0.13187434 0.13193302 -0.08749337 0.20862767
-0.10011172 -0.042161856 -0.21901037 0.15338457 0.0022709353 0.033825297 -0.21007638 0.26178715
0.28588694 0.11395075 -0.32015994 -0.0921162 -0.058568344 0.0032328714 0.09644722 0.055485297
0.25017518 0.07557476 0.31306747 -0.21354876 -0.12206471 0.1837269 -0.044371895 0.07579257
-0.16682245 0.26896465 0.23538129 0.23968445 0.072075464 -0.02080238 0.061463464 0.22524416
0.030084811 -0.120555714 -0.07563931 0.17895916 0.132933 0.053575892 -0.008928437 -0.16167666
0.1959455 0.09122161 0.1229161 -0.060664427 -0.13317543 -0.14818184 0.24324977 0.2220997
0.08774603 0.09554398 -0.23010251 -0.31794786 -0.170464 0.06349496 0.16280508 0.12759717
0.21889876 -0.10228745 0.13177286 -0.08268374 -0.04172032 0.06845163 0.057011683 -0.18591093
-0.07962427 0.043521017 -0.15833542 -0.12408425 0.19231622 -0.094882295 -0.10951309 0.11362974
-0.019478308 0.016739767 -0.17847456 0.2266021 0.13807227 -0.14570743 -0.06790987 -0.24907264
-0.08653659 0.17895465 -0.07146866 0.19092278 -0.045101296 0.12199581 0.11892649 0.18872827
-0.21997905 -0.04743658 0.23504667 0.10521644 0.14758539 -0.05332804 0.15623106 0.24268797

hiden_layers.4.bias f4 [64]
00000000: 3c45 053d fe87 e8bc 38e7 0cbc a76f e2bc
00000010: 56cc 113d cb0c 263c f880 103e 43d2 163c
00000020: f9e3 143b 900b 743d 9de4 e3bc 78d3 573c
00000030: c7f3 013d 7350 a93c c71d 203d b152 413d
00000040: 597d 453c 39f8 a13c 790e 063d 1725 57bc
00000050: b311 123d 9143 8abc 2fab 83bd d8c9 9039
00000060: 18af 8d3c 19ea 23bd 070e 06bd a1ff d3bc
00000070: bb11 cbbb a25f ef3b e7b8 353c e7d5 9fb8
00000080: 6e72 82bc 16c1 183d 14af 0a3d 45cc 52bd
00000090: e3aa 02bd 3c1d a6bc 0659 1fbc 68d8 82bd
000000a0: 3a47 733d 28a6 bdb7 a3a6 343c 5901 8fbb
000000b0: a1fb ae3c 95bc 3e3c c4b2 d3bc 77be cb3c
000000c0: d2c5 e73c 83bc 57bc cc66 a63c 36f5 c83c
000000d0: 22cb 173b 481d 3d3d 847c 03bd 293a 3dbd
000000e0: a3ec 303d c399 843c 71e8 d7bc a848 83bc
000000f0: 0d82 343d e7a3 2dbd d1fe 28bd 0945 b73b
0.03253673 -0.028385159 -0.008600049 -0.02764113 0.03559526 0.010134886 0.14111698 0.009205404
0.002271889 0.05958134 -0.027818972 0.013172977 0.031726625 0.020668244 0.039090898 0.047198
0.012053811 0.019771682 0.032728646 -0.0131314015 0.03566141 -0.016877921 -0.06429135 0.00027616206
0.017295405 -0.040018175 -0.03272822 -0.02587873 -0.006197182 0.0073051015 0.011091447 -7.621553e-05
-0.015923705 0.037293516 0.033858374 -0.051464338 -0.03190125 -0.020277612 -0.009725815 -0.063889325
0.0593941 -2.2607928e-05 0.011026057 -0.0043641743 0.02136022 0.011641641 -0.025842078 0.024871094
0.02829257 -0.013167503 0.02031269 0.024530988 0.0023161848 0.046170503 -0.03210117 -0.046198044
0.043194424 0.0161866 -0.026355954 -0.016025856 0.04406934 -0.042392638 -0.041258637 0.0055929464
