results/7_model_3_case_2_zoom/epoch1450/model_weights.pth (torch, 484214 bytes, 88 tensors)

init_layer.0.weight f4 [64, 3]
000000 97 9d a0 bd 8e 31 8b bd 3d 20 ba 3e 0d d5 9e 3d
       -0.07842558 -0.06796561 0.3635272 0.0775548
000010 5f 6f 8e 3d ec 2a b2 3e b6 34 43 3c aa 36 66 be
       0.06954836 0.34798372 0.011914423 -0.2248179
000020 ff 5e 59 be df 53 33 3e ea 79 d5 bc d3 37 96 3c
       -0.21227644 0.17512463 -0.02605911 0.018337166
000030 34 b9 15 bd fb f0 14 3d 74 d5 29 3f 09 09 1c be
       -0.036553577 0.03636263 0.6634133 -0.15237822
000040 b3 27 cc be 8c 24 34 3e 64 67 7b 3e ae d5 a9 bc
       -0.39874038 0.17592067 0.24551159 -0.020731773
000050 7d 0d e0 3e 63 a7 45 3e c6 4f 68 3e b4 e5 89 3e
       0.4376029 0.19302134 0.22686681 0.26933062
000060 61 fa a3 3e 87 2c c4 be ed c8 0a 3e 34 9d db bd
       0.3202696 -0.38315222 0.1355321 -0.107233435
000070 42 d6 bd bd 70 2b de 3e ca 78 8e bd de b1 35 3c
       -0.09269382 0.43392515 -0.069566324 0.01108977
000080 76 d7 fe be f5 c9 d8 3d 5a 63 98 3d 39 98 5b bf
       -0.4977376 0.10585395 0.07440825 -0.8577915
000090 93 59 5c bc e1 9a f4 3b d0 13 2a 3f ac 24 30 3c
       -0.0134490905 0.007464752 0.6643648 0.010750931
0000a0 40 0b 76 3c cd e3 98 3f 25 55 03 3e ca 53 a6 be
       0.015017331 1.1944519 0.12825449 -0.324858
0000b0 f0 0b cf 3d ce e1 75 3c 94 b4 8b 3b b8 82 98 bf
       0.10109699 0.015007449 0.00426347 -1.1914892
0000c0 26 5d c6 3d 6e 80 5d bd cf 6f 8c 3e 71 ba 4a 3e
       0.096857354 -0.05407756 0.27429053 0.19797684
0000d0 90 9b 91 3e 81 89 7c be 88 c4 8f 3c 42 99 03 bc
       0.28438997 -0.24661829 0.017549768 -0.008032145
0000e0 a8 e0 c8 be 10 56 9d bd 7b 77 a3 3d 9b d8 f6 be
       -0.392339 -0.07682431 0.079817735 -0.48212132
0000f0 3f fd ca 3c c6 61 ea bd 4e 9f 33 bf a9 4a 3a 3e
       0.02477896 -0.1144443 -0.70164955 0.18192543
000100 cf 58 6c bc 47 35 3c be e6 82 18 3e 55 9f f0 bd
       -0.0144254705 -0.18379699 0.14893684 -0.1174914
000110 9c 3e f0 be ff d7 1f bd 49 cf 95 3e d0 10 30 bd
       -0.46922767 -0.03902435 0.2925971 -0.042984784
000120 fe 64 58 3b 15 d9 41 3b 79 ba 72 3f 90 59 9f 3b
       0.003301918 0.0029578854 0.94815785 0.0048629716
000130 0d df 58 3d 89 e8 9f be a3 e1 25 bd 4c c5 c7 bc
       0.052947093 -0.31232098 -0.040498387 -0.02438607
000140 10 e3 88 3f f8 27 22 be 3b 88 9b be 5a 45 d1 3e
       1.0694294 -0.1583556 -0.30377373 0.40873224
000150 81 ae 6d 3d f6 f4 8f 3d 04 af 18 bf 4a 82 5a 3c
       0.058027748 0.070291445 -0.5964205 0.013336727
000160 5e 65 86 be e7 da 46 3e 67 df 72 be d3 7d 2b be
       -0.26249212 0.19419442 -0.23718034 -0.16747217
000170 80 33 e6 be fd d3 0a bd 76 be 58 3d 70 b6 ef 3e
       -0.44961166 -0.033893574 0.052916013 0.46818876
000180 4a d5 c1 bd cc 33 fd 3d 4f 79 45 3f 0a 72 08 bf
       -0.0946451 0.12363395 0.7713823 -0.5329901
000190 de 9f 8e 3e f8 39 99 bd 27 f1 5a bb dd 67 e0 bc
       0.27856344 -0.0748176 -0.0033407898 -0.027393276
0001a0 f1 14 b6 be 81 80 e1 bc 2b dd 44 bc 2c 1e 37 bf
       -0.35562852 -0.027527096 -0.012015621 -0.71530414
0001b0 c1 f7 6c 3c b3 2d 7b bb 07 7b d1 be d3 cc be bd
       0.014463366 -0.00383268 -0.40914175 -0.09316411
0001c0 5a 28 10 bd e7 79 c4 be 09 48 c3 3d a6 ae 81 3d
       -0.035194732 -0.38374254 0.09535224 0.0633214
0001d0 6b 7e cb 3f 35 66 25 be db 14 cb 3e 79 18 44 3e
       1.5897955 -0.1615227 0.3966435 0.1914996
0001e0 0a 71 e8 3d 4a 79 54 3d 77 b2 03 bf 90 1b 15 bd
       0.113496855 0.051873483 -0.5144419 -0.03640324
0001f0 12 7a 62 bc 08 3f 81 bf af 46 ef 3d df e0 27 bc
       -0.013823049 -1.0097361 0.11683404 -0.010246485
000200 fc a4 89 3e 7c f3 57 bb e6 ab 33 bd 8a 5b 56 3f
       0.26883686 -0.0032951524 -0.043865107 0.8373343
000210 87 92 a1 3d 2a b7 ac be 3b 02 9e be 2c 50 2d be
       0.07889276 -0.33733493 -0.30861077 -0.16925114
000220 c6 11 0c be 44 2a 4c 3e 88 c0 97 bc fa bc 7c bd
       -0.13678655 0.19937998 -0.018524423 -0.06170366
000230 84 4d c4 3e 77 dc e3 3d 5c 6d 82 3e 79 7b ed bc
       0.3834039 0.11126035 0.2547406 -0.02898954
000240 a2 f7 77 3e 21 f2 ae 3e 77 17 51 3e 98 39 86 3d
       0.24215558 0.34169105 0.20419107 0.06553954
000250 18 c5 93 be 24 68 3a 3e 29 c2 b3 bd 4f a6 0c bd
       -0.28861308 0.18203789 -0.087772675 -0.03433829
000260 d6 b2 08 bf fa a1 89 be 0b a0 d5 be 89 2b f1 bc
       -0.5339788 -0.2688139 -0.41723666 -0.029439704
000270 b2 59 59 3e 2f c2 61 be 0a 3b c9 3e cb 46 16 be
       0.21225622 -0.22046731 0.39302856 -0.14675443
000280 1d 0a f1 bd 5f b5 13 3f 3a b5 e1 3d 8a b5 49 be
       -0.11769507 0.57698625 0.11020894 -0.19698158
000290 e5 ae c6 be 45 c7 db 3d 1f c5 84 bc f5 e3 42 3f
       -0.3880531 0.10731367 -0.016207276 0.76129085
0002a0 b6 51 9b 3d 19 b1 3d 3d fd e4 96 3e 78 63 84 3c
       0.075839445 0.04631147 0.2947158 0.016160712
0002b0 b2 b7 d8 bc b6 8f b7 3e 06 55 0a 3e 0d 8a a0 3e
       -0.02645478 0.3585183 0.13508996 0.31355324
0002c0 61 cb f6 3d 3f 8d 02 3e 82 85 49 3e d0 41 df be
       0.1205051 0.12749194 0.19679835 -0.43604898
0002d0 e6 38 f7 bd e7 de 49 be ab 65 7a be 27 66 9a bd
       -0.120713994 -0.19713937 -0.24452846 -0.07539015
0002e0 cb 77 12 3d dd 84 8b be 56 a4 0e 3e 7a 0e 76 bc
       0.035758775 -0.27249804 0.13929877 -0.0150181
0002f0 1e f1 05 be 66 cf 0c 3e 91 ff e4 3c 0f 9d 88 3e
       -0.1308026 0.13750991 0.027953895 0.26682326

init_layer.0.bias f4 [64]
000000 1f 2d da be 72 b9 e1 bd 14 87 9c be d1 99 c0 3e
       -0.4261255 -0.11021699 -0.30571806 0.37617353
000010 fb 76 ac be d1 e5 00 be cf a3 f8 3b fb 14 c9 be
       -0.33684525 -0.12587668 0.007587887 -0.3927382
000020 70 e6 09 be a8 6d a1 be 95 62 84 3d 27 c1 75 bf
       -0.13466811 -0.31528974 0.064641155 -0.9599785
000030 e4 a6 25 3f 00 b1 c7 3f 5e a7 da 3d fb 3f d0 bc
       0.6470778 1.5600891 0.10676454 -0.025421133
000040 ac 42 b3 be ac ba 0c 3e 94 40 e4 3e 83 f9 5f bc
       -0.35011804 0.13743085 0.4458052 -0.013670328
000050 6e 52 3e be ab a0 a0 3d 68 66 0b bf c7 fe 6a 3e
       -0.18586132 0.07843145 -0.54453135 0.22948752
000060 cd a0 98 3f 0c 5a 49 3e 4f f4 8c 3e 54 63 a7 3e
       1.1924073 0.19663256 0.27530143 0.3269297
000070 ce 03 fc 3d 8a e0 ab 3b c8 91 00 bf 3e dd dd be
       0.12305413 0.005245273 -0.50222445 -0.43332857
000080 ec 95 7e 3c 81 69 6b be 58 4f ba 3e 67 fa 99 be
       0.015538674 -0.22989465 0.3638866 -0.30073854
000090 64 96 e0 3e b0 03 c6 3e 67 da 19 3f b4 de 86 3e
       0.4386474 0.38674688 0.6009888 0.26341784
0000a0 b7 b0 b5 3e 75 65 9c bf 8a 63 b6 be 15 02 57 bd
       0.35486385 -1.2218462 -0.35622817 -0.05249222
0000b0 fa ab 0d 3e 20 84 ad be 76 c3 b1 3e 4b 67 83 be
       0.13835135 -0.33889866 0.34719437 -0.25664744
0000c0 55 2b d0 ba ce 7e 63 be 2f 19 ab be fb 2c 0d be
       -0.0015882055 -0.22216341 -0.3341765 -0.1378669
0000d0 c2 74 de 3e b9 7e 01 3f ed c7 81 3e 38 3a 9f 3e
       0.43448454 0.5058399 0.25347844 0.31099105
0000e0 21 72 dc be 2d f2 bc be fb 6f 09 be 4c 46 94 be
       -0.43055823 -0.36903515 -0.13421623 -0.28959882
0000f0 77 d4 18 bd 62 6c 4d 3e 75 11 88 3e 3e 28 ad be
       -0.037311997 0.20060876 0.2657582 -0.33819765

hiden_layers.0.weight f4 [64, 64]
000000 3f 35 07 be d4 0f 9b 3d d6 ef e8 be 40 55 e8 3d
       -0.13203906 0.07571378 -0.4549548 0.11344385
000010 b1 6e 05 be 57 d6 81 bc ef 04 bb 3d 5a 52 97 be
       -0.13030507 -0.015849276 0.091318004 -0.29555017
000020 57 a3 63 3e 31 10 ec bb 53 92 92 be 33 64 61 bf
       0.22230278 -0.0072040786 -0.28627262 -0.88043517
000030 f9 96 15 40 7d fd ad 3f 75 f4 b0 3e 24 df 00 bf
       2.3373396 1.3592983 0.34561506 -0.50340486
000040 1b 09 09 be f3 02 be bd 29 3b fb bb 55 30 d3 be
       -0.1338238 -0.09277906 -0.0076669645 -0.41247812
000050 49 29 25 bf ac 40 9c bd 34 4e a7 bf c4 b8 c2 39
       -0.6451612 -0.07629523 -1.3070741 0.00037140225
000060 79 20 97 3f 67 30 9a bd d9 22 03 3f 5e 6b e9 3e
       1.1806785 -0.07528763 0.5122505 0.45589727
000070 97 3d 9e be 51 f0 17 3e b9 4b 18 bf 77 4c 9b bd
       -0.30906364 0.14837767 -0.59490544 -0.07582944
000080 4c 80 23 3e 81 85 43 3c 03 10 17 3e c4 81 1e bf
       0.1596691 0.011933685 0.14752202 -0.61916757
000090 30 2b 4a 3d 13 46 04 3d ab bf 6a 3f ff c5 19 3f
       0.049357593 0.03229339 0.9169871 0.60067743
0000a0 e3 8d dc bb 9e a6 00 c0 3a 4f b9 bc b3 26 98 3e
       -0.0067307814 -2.0101695 -0.022620786 0.29717025
0000b0 69 b7 2b be 1f 6a ad bd f6 3a 84 3f f9 20 d6 be
       -0.16769184 -0.084675066 1.0330493 -0.4182203
0000c0 f3 61 82 3e 04 32 29 be 32 95 82 bf 19 84 04 bd
       0.25465354 -0.16522986 -1.0201781 -0.03235254
0000d0 e4 7d e5 3e be 0d 16 3f 8c 58 dd 3d c5 a2 70 3f
       0.4482261 0.5861472 0.108079046 0.93998367
0000e0 68 64 88 be 64 7a e8 bd e1 89 06 be 26 71 fa be
       -0.26639104 -0.11351469 -0.13138534 -0.4891445
0000f0 98 e0 b3 be d4 f9 e5 bd 3d 7e aa 39 f0 42 65 be
       -0.3513229 -0.112292916 0.00032518982 -0.22388816
000100 5c ae 95 be b6 e6 5a be f4 af 67 be b0 79 53 3e
       -0.29234588 -0.21377072 -0.22625715 0.20651889
000110 d7 c1 ac be 7f 1d 42 be bf 6b c8 3d 85 2b 8d be
       -0.33741638 -0.18956564 0.09786176 -0.27572265
000120 80 1b 59 3c fb a7 e1 be 25 2e 6b 3e 59 43 33 be
       0.013251185 -0.4407347 0.22966821 -0.1750616
000130 30 91 80 3d 69 5b 67 3d 8a 0e de 3d 81 76 39 3e
       0.06277692 0.05648366 0.10842617 0.18111612
000140 48 b9 7d be 52 0a a6 3e 7a 43 e0 3e ae 59 a4 3c
       -0.2477771 0.3242975 0.4380148 0.020062294
000150 ba c4 c6 bd f7 10 e1 bd 73 73 6d 3d d6 1d 5e 3e
       -0.09705491 -0.10989564 0.05797143 0.21691069
000160 bb 62 b4 bc aa 3a 80 3d 1e 87 82 3e 70 63 ff 3d
       -0.022019735 0.06261189 0.2549371 0.12470138
000170 19 4d 7f 3e 7c 66 10 3d 08 c4 1f be 87 23 04 bf
       0.24931754 0.035253987 -0.15602124 -0.5161671
000180 5d 27 cc bd 5d 9e 38 3d ab 26 15 3f a9 47 e6 3d
       -0.099684455 0.045072902 0.5826213 0.11244137
000190 4a b4 6a 3f 9b b5 da 3d 85 80 84 bd f0 42 05 3e
       0.9168135 0.1067917 -0.06469826 0.13013816
0001a0 c6 04 ea 3d 2b ac d1 bd c0 81 e0 be f4 ed 7a bc
       0.11426692 -0.102379166 -0.4384899 -0.0153155215
0001b0 7c 81 9a 3e 0d 7b a2 be 00 cf 62 3e ea a6 52 be
       0.30176914 -0.31734505 0.22149277 -0.20571485
0001c0 88 8b 5b bd c9 6f 39 be c3 10 dd bd 72 68 05 be
       -0.053599864 -0.18109049 -0.10794213 -0.13028124
0001d0 a2 b5 2d 3e 4b 3e 11 be 66 d3 bd 3e db 15 0a 3e
       0.16963819 -0.14183919 0.37075347 0.134849
0001e0 6d 08 d8 be 4c a4 c8 be 08 69 63 be 5d ba 25 be
       -0.42193928 -0.3918785 -0.22208035 -0.16184373
0001f0 f5 ae 37 3e f0 0b a4 3e 9c 75 65 3e 73 a2 58 be
       0.17937835 0.32040358 0.22408146 -0.2115572
000200 f1 43 af 3d 5d b4 6e bd d8 25 3a 3e e1 f4 49 3c
       0.08557881 -0.058277477 0.18178499 0.01232645
000210 ed d7 48 be 0e 32 d7 bb 56 70 b6 3c 26 56 15 be
       -0.19613619 -0.0065672463 0.022270363 -0.14583644
000220 cf 37 a4 3d b9 d1 9a bd 0a 95 17 bd d7 e1 36 3e
       0.08018457 -0.07559533 -0.03700737 0.17859589
000230 06 9b db 3d 10 9c 5a be 6c 6a 5d 3e e1 57 07 be
       0.10722928 -0.21348596 0.21622628 -0.13217117
000240 75 8d d7 bd f6 57 01 be 04 de 69 3d e1 ff 67 bd
       -0.10525028 -0.1263121 0.057096496 -0.05664051
000250 92 dc d6 3b ea 86 9b bd 47 ff 00 be 4b 99 0f bd
       0.0065570557 -0.07594092 -0.1259738 -0.0350583
000260 f4 98 3a bc 9f 99 e3 bd e4 e7 e7 bc d6 3e 35 3e
       -0.011389006 -0.11113285 -0.028308816 0.17699751
000270 9e f3 ea bc ed 67 1c be a3 b2 56 3e 7c ab 61 3e
       -0.028680619 -0.1527402 0.20966582 0.22038072
000280 51 43 23 be ab f0 24 be 26 87 46 3e 94 33 46 3e
       -0.15943648 -0.16107433 0.19387493 0.19355613
000290 7d 2f b3 bd 0b 72 12 be d8 47 6c 3b c1 21 61 3c
       -0.08749292 -0.14301316 0.0036053564 0.013740958
0002a0 89 40 40 be c9 b7 8e bc 10 d3 44 3e 64 9e 54 3e
       -0.18774618 -0.01742162 0.19221139 0.20763546
0002b0 fe d0 4c 3e d1 de 40 bc 55 08 03 bd 6d aa a4 bc
       0.20001599 -0.011771874 -0.031990368 -0.020100797
0002c0 53 18 87 3c 03 72 a7 3d 6b bb f6 bd 31 fb a2 bd
       0.01649109 0.08176043 -0.12047466 -0.07958067
0002d0 5d 58 3a 3d 1a dd b0 bd a9 fe 0d be d6 0a 63 3d
       0.045494426 -0.08635922 -0.13866676 0.055430256
0002e0 05 33 62 be ff 58 1d 3e a9 1d 2d be a3 40 ea bd
       -0.22089775 0.1536598 -0.16905846 -0.1143811
0002f0 b2 08 31 3e e3 e8 30 be 7c 06 9d bd 18 8e 2e 3e
       0.17288473 -0.17276339 -0.076672524 0.17046392
000300 31 5e 43 bf 1f 65 02 bf 1a 43 53 bc 09 a7 b9 3e
       -0.763156 -0.5093555 -0.012894416 0.3626025
000310 b4 31 0f bf 5a 0f d1 be 3c ad 45 bf 9a b6 42 bf
       -0.55935216 -0.40832025 -0.7721746 -0.7605988
000320 87 e8 d6 be c5 44 87 bf 18 f4 cc 3e 35 1a b6 3e
       -0.4197428 -1.0567862 0.4002998 0.3556687
000330 f6 3a 89 3c c2 d9 f5 be 62 df 2b 3e a9 b5 78 3e
       0.016751748 -0.480177 0.16784433 0.24288048
000340 bd 84 8b bf 69 69 22 3f 24 88 f5 3f 36 d9 7f 3e
       -1.0899884 0.63442093 1.9182172 0.24985203
000350 d8 94 9b 3e e7 8c b1 3e 12 43 21 be 41 56 98 3e
       0.30386996 0.34677812 -0.15748242 0.29753307
000360 af ef 3e be 9a b3 0d 3f 4f 74 cc bd 53 ce 8e be
       -0.1864612 0.55352175 -0.099831216 -0.27891788
000370 df 0b 6c 3f 3c b6 21 bf 25 1e 53 3c 8d 02 d0 bf
       0.92205614 -0.6316869 0.012885605 -1.6250778
000380 7d 52 5a bf ef 4d 8f bd 90 73 98 3f 4c 7a 54 3e
       -0.8528212 -0.069972865 1.1910267 0.20749778
000390 ae 57 f5 3f d5 69 03 3f c5 5b ec be df 1c 47 be
       1.9167383 0.5133336 -0.46163765 -0.19444607
0003a0 69 70 36 3f dc 8d 72 3d 24 81 70 bf f6 92 16 bf
       0.71265274 0.05921732 -0.9394705 -0.58817995
0003b0 58 10 55 3f c9 66 89 be 4d 2c b3 3e ac 32 ad be
       0.83228064 -0.2683623 0.34994736 -0.33827722
0003c0 d7 44 ea bd 47 07 3c bf 06 d6 9b 3e 49 6a df 3d
       -0.114389114 -0.73448604 0.30436724 0.10908944
0003d0 e0 81 22 3d 63 93 ae bd 9b 7c a3 3f 35 cb c3 bd
       0.03967464 -0.085242055 1.2772402 -0.09560243
0003e0 ba 99 95 bf a9 6b bd bf 19 8c df be cf a9 cf 3e
       -1.1687539 -1.479848 -0.43661574 0.4055924
0003f0 1f 69 8c bd c0 84 32 3f 97 b9 06 3f 7d 35 37 bf
       -0.06855988 0.6973381 0.5262694 -0.7156599

hiden_layers.0.bias f4 [64]
000000 67 8a cb 3e 7c de 99 3e 49 4c 95 bc 77 8b fb 3e
       0.3975403 0.30052555 -0.018224852 0.4912984
000010 03 02 11 3e 80 3d 1e 3e 0d 73 0f 3e ee ce 98 bd
       0.14160924 0.15453148 0.14008732 -0.07461344
000020 fb a9 24 bd be fa a1 3e e9 10 90 3d 18 45 50 be
       -0.04020117 0.31636614 0.07034475 -0.20338857
000030 12 c5 eb bd 97 3c 9d 3c 4f 79 76 3e aa f1 34 be
       -0.115121976 0.01919393 0.24069713 -0.17670313
000040 b5 76 2d be cc 83 9f bd 37 be 9e 3d 8e d2 78 3d
       -0.16939814 -0.0778881 0.07751124 0.060747676
000050 79 23 a5 3d 3e 60 3e be 31 05 ae bc d4 73 f8 bd
       0.080634065 -0.18591401 -0.02124271 -0.121314675
000060 4a 21 f8 bb 7e a6 4e 3c d3 d9 92 3d 8e 21 d1 3c
       -0.0075723277 0.012612937 0.07170453 0.025528695
000070 21 5e 8d 3e df 48 48 3c 68 85 39 bd 57 83 22 be
       0.27610877 0.012224405 -0.04529324 -0.15870415
000080 c5 a3 2a 3d ad 33 a8 3c dd 16 03 be 03 e6 b2 3c
       0.04166009 0.020532453 -0.1280169 0.021838194
000090 ec 00 7f 3c 1a 83 3f 3e a5 f7 bc 3b 41 2b a5 bd
       0.015564185 0.18702355 0.005766826 -0.08064891
0000a0 f7 aa e4 3c 7c a2 5c 3e 36 4f f1 bd ba 72 6e bd
       0.027913554 0.21546358 -0.117826864 -0.05821488
0000b0 ef d3 ec bd 39 e2 0b be 1c 3e 42 bd ac 0f 4e be
       -0.115638606 -0.13660516 -0.047422513 -0.20123166
0000c0 2c 12 32 3e 4a 2c c5 3e 9e 08 75 3e d0 d9 e6 bd
       0.17389745 0.38510352 0.23929068 -0.11272013
0000d0 c8 8d 78 3e fd 7e 97 3b 84 5b da 3d 2e df 52 bd
       0.24272835 0.0046232925 0.106619865 -0.051482372
0000e0 87 50 f0 bd f2 f8 cf 3d a8 64 22 be 2f 8d ab 3c
       -0.11734109 0.101549044 -0.1585871 0.020941345
0000f0 5e ba 3d be 30 af 4e bc ce c3 3f bd 2a d5 c3 bd
       -0.18528125 -0.01261501 -0.046817593 -0.09562142

hiden_layers.1.weight f4 [64, 64]
000000 a5 d5 06 be 37 9c d8 3c 69 2a 4b be 78 56 47 3e
       -0.13167436 0.026441677 -0.19840397 0.19466579
000010 40 02 91 be 1a 16 2d 3e dd 36 dc bd 9c 78 ad bc
       -0.2832203 0.16902962 -0.10752652 -0.021175675
000020 e6 c4 f3 3d 17 da 07 3d 82 48 82 bd f4 0b d8 bd
       0.1190279 0.03316697 -0.06361486 -0.10549155
000030 c8 66 93 3c 01 7a 38 3c 27 9e 17 3c cb 1e 81 bc
       0.017993346 0.011259557 0.009254015 -0.015761754
000040 6f 7b 81 3d c5 30 27 3e 00 19 13 3e 41 3e 6d 3d
       0.06322371 0.16327198 0.14365005 0.057920698
000050 2d 40 89 3e 76 1d 8c bd ba 17 25 3c 97 3a ef bd
       0.26806775 -0.06841557 0.010076458 -0.11681097
000060 58 21 85 3b f1 24 5a be be 86 79 3d 92 69 9c 3e
       0.004062813 -0.21303155 0.060919516 0.30549294
000070 72 4a cf 3c 5c fc 1c bd b1 cc 1e bd df a8 01 3e
       0.025304053 -0.038326606 -0.038769428 0.12662075
000080 3b 70 ae be f5 be 4c 3e 35 b8 82 be 04 4f 3f be
       -0.3407 0.1999472 -0.25531164 -0.18682486
000090 4d 84 9f bd 95 f3 31 3c 0b f8 b7 3c 96 34 15 3e
       -0.07788906 0.010861297 0.022457143 0.14570841
0000a0 44 6e cc 3d 1b a2 ea 3d 57 90 d7 bd 4c 94 51 3e
       0.09981969 0.114567004 -0.105255775 0.20466727
0000b0 4c c7 37 3e 5f 8e 72 3d 18 a0 01 3e f1 8d 3a be
       0.1794712 0.059217807 0.12658727 -0.18218209
0000c0 e5 b1 ca bd 9d e2 12 be ba 39 ba bd c4 7a ba 3d
       -0.09897212 -0.14344259 -0.09093042 0.09105447
0000d0 b9 39 fe 3c 9e 97 59 bd 2e e6 46 bc 87 15 81 be
       0.031033384 -0.05312311 -0.01213984 -0.25211737
0000e0 42 70 52 3e f7 2d eb bd 16 92 5f be 78 80 b1 3d
       0.20550635 -0.114833765 -0.21833071 0.086670816
0000f0 28 a5 b7 3d b9 8a 08 3e 09 6a 26 3d c0 37 26 be
       0.08967048 0.13334168 0.040628467 -0.16232204
000100 d4 2f 43 3e 30 da 0b 3e 3c 75 f7 be 4a 0e 1d be
       0.19061214 0.1365745 -0.4833163 -0.15337482
000110 46 b6 f9 bd 03 d2 7b 3f 4d 03 2f be 43 3c 28 be
       -0.12192969 0.9836733 -0.17091103 -0.16429238
000120 6a ee a1 bd d2 dd 13 be fc e1 cd 3e 5d a6 1a bc
       -0.07906802 -0.14440086 0.40211475 -0.009439078
000130 f3 05 21 3d 63 cf 85 3d e5 df 63 3e eb b5 ba bd
       0.039312314 0.065336965 0.22253378 -0.09116729
000140 19 92 27 3e 32 6c 13 bf 83 53 48 3e 20 64 90 3e
       0.16364326 -0.5758697 0.19563107 0.2820139
000150 7a dc 04 3d 36 78 69 3e 56 63 36 be eb 25 06 be
       0.032436825 0.22799763 -0.17811331 -0.13100402
000160 57 14 86 3e 9b e7 ed bc 18 77 f9 be 0d 52 af bd
       0.26187393 -0.029041102 -0.48723674 -0.08560572
000170 a7 2f b1 3d 76 b0 27 be 1f 4d 21 be 60 4e a9 bd
       0.08651667 -0.16375908 -0.15752076 -0.08266902
000180 cc 38 3c be 7a c7 c0 bd 50 52 4c be d6 1b 25 3e
       -0.18381041 -0.09413047 -0.19953275 0.161239
000190 8a 9f ec 3d 0c 09 f2 3b bb f6 28 bf c1 f3 d5 3a
       0.11553867 0.0073863324 -0.6600148 0.0016323255
0001a0 af b0 99 bd 62 4c cb bd b1 f2 38 bf eb ad 20 be
       -0.07504403 -0.09926678 -0.7224532 -0.15691344
0001b0 4f 68 d7 3d 19 66 f8 bd 76 ec 95 3c ee 97 aa be
       0.10517942 -0.121288486 0.01830123 -0.33319038
0001c0 4b 74 62 3f a4 4c f8 3d 41 37 4b 3c b3 f1 00 be
       0.884587 0.12123993 0.01240331 -0.12592201
0001d0 2a 33 d4 3d 44 0f 38 3d f8 09 56 bd be 5d c2 3c
       0.10361321 0.044936433 -0.0522556 0.02372634
0001e0 9a e2 a1 be 8c 5d fc 3e a1 ba 8d be 86 0c ac 3d
       -0.31618196 0.4929012 -0.2768145 0.08400826
0001f0 42 be 28 bd 55 78 2c bd 5d 44 83 3d a1 4f 39 bd
       -0.04119707 -0.042106945 0.06409524 -0.045241956
000200 50 37 81 3d 87 c6 d3 3e 25 39 74 bc 8e b5 bc 3e
       0.06309378 0.41362402 -0.014906202 0.36857265
000210 27 92 a4 3d 09 e4 77 3e 59 6c bd bd 0c 81 26 3e
       0.08035689 0.24208082 -0.09249181 0.16260165
000220 e6 8a 76 3d c6 56 c1 bd 28 04 58 be b0 2b 0b bd
       0.060191058 -0.09440379 -0.21095335 -0.03397721
000230 0a cd a5 3c 37 33 11 3d 00 83 33 3e 68 b9 99 3d
       0.020239372 0.035449233 0.17530441 0.075060666
000240 e3 d8 49 be a1 f6 92 bd 19 d2 89 3d ce 4e 8d bd
       -0.19711642 -0.07175947 0.06729526 -0.068997964
000250 be 34 1a bd 86 f3 38 be 43 fd 8b be 8e b6 5d be
       -0.037647955 -0.18061647 -0.2734166 -0.2165167
000260 2a 26 88 bc 02 7d 83 3e 2e 19 2b bb 28 81 be bd
       -0.01661976 0.2568131 -0.0026107538 -0.09301978
000270 53 9d d1 3c 13 8f 3a 3e dc ba 14 3e 1e 60 45 3e
       0.025587713 0.18218641 0.14524406 0.19274947
000280 27 9c 4e 3e 5e f3 47 be 63 2b 4c 3d 39 d4 41 be
       0.20176755 -0.19526431 0.049846064 -0.18928613
000290 51 54 67 3d e9 8d 37 be 27 67 96 3d 01 83 1d be
       0.056476895 -0.17925228 0.073438935 -0.15382005
0002a0 42 dc 14 be c1 55 55 be 28 2b 20 be 10 05 02 be
       -0.14537147 -0.20833494 -0.15641463 -0.12697244
0002b0 f8 03 8c 3c b5 4f 25 3e e4 9f 17 be 61 f1 37 3d
       0.017091736 0.16143687 -0.14807087 0.04490793
0002c0 e2 a0 90 bd 3e 50 03 3d 30 8c a0 3d 57 d7 3d be
       -0.07061936 0.032058947 0.07839239 -0.18539177
0002d0 58 4f b6 3c c7 3e 37 be 92 fd b0 3d 5b 01 ba bc
       0.02225463 -0.17895041 0.08642115 -0.022705724
0002e0 cc d2 ee bd 92 7c 3e 3e 37 b6 20 be df 18 37 3d
       -0.116613 0.18602207 -0.1569451 0.044701453
0002f0 dd 3d f9 bc a5 8d 83 3d 22 ff da 3c d7 8e 78 bd
       -0.030425007 0.06423501 0.026732985 -0.060683098
000300 6e d3 8b 3d da 9e 1b bd 8d 3c 43 be 29 88 99 3e
       0.068274364 -0.03799329 -0.19066067 0.29986694
000310 27 dc 53 3e dc f4 15 be 77 78 ac bd 32 9b bd bd
       0.2068945 -0.14644188 -0.08421414 -0.09258117
000320 f0 51 a8 bc 3f b0 5a 3e 55 49 10 be c1 37 5d 3e
       -0.020546883 0.21356295 -0.14090474 0.216033
000330 52 14 4a 3e fa f6 a9 3d 30 8b 02 be 5f d4 ed 3d
       0.19734314 0.0829906 -0.12748408 0.11612772
000340 67 66 0c bd b3 b9 a9 bd f8 cf 9a 3d 8d 7a f3 3d
       -0.034277346 -0.082873724 0.07559198 0.11888609
000350 c3 28 22 3d c8 ce d1 be 3d 75 12 3e 12 e2 29 3e
       0.039589655 -0.40978074 0.14302535 0.16590145
000360 45 14 75 3d ca e9 dc 3d d1 d5 0d 3e ea 89 75 bd
       0.059833784 0.10786779 0.13851096 -0.05994598
000370 eb 2b 05 3c 57 30 25 3e cf d8 bd 3d d3 96 fd 3d
       0.008128147 0.16131721 0.092698686 0.12382283
000380 18 a6 07 3e 40 03 5f bb b5 7b 95 be 63 63 5c 3d
       0.13246953 -0.0034029037 -0.29195943 0.05380572
000390 93 24 4f 3d d7 a9 60 bc 3a c3 8b 3e 92 55 33 3e
       0.05057199 -0.013712368 0.27297384 0.17513111
0003a0 94 7c 8a 3d b8 dd 9c bd 7d 91 cd 3d ec 40 c4 3d
       0.06762043 -0.07659477 0.10037515 0.09582695
0003b0 1b e7 de bd c2 48 c7 bc e5 05 18 be 49 2a 02 be
       -0.108839236 -0.024326686 -0.14845999 -0.12711443
0003c0 e5 37 37 3d 56 1f 39 3e 51 3e 1e bd 9e 1c 41 3d
       0.04473104 0.1807836 -0.03863365 0.047146432
0003d0 30 a8 06 3e 29 cd a8 bc f7 73 40 be 68 a4 ba bd
       0.13150096 -0.02060564 -0.18794237 -0.09113389
0003e0 c1 2e c0 bd a4 a7 9d bd 64 d7 10 3e 23 67 8d 3a
       -0.093839176 -0.076979905 0.14144665 0.0010788183
0003f0 aa 9e 2e be 35 bc 8c 3e 16 48 2f 3d 66 93 31 be
       -0.17052713 0.2748734 0.042793356 -0.17341384

hiden_layers.1.bias f4 [64]
000000 98 73 67 bd c9 32 da 3d b6 b3 8d 3d bc ed b0 bb
       -0.056506723 0.10654218 0.06919043 -0.005399434
000010 4d 33 17 be f2 06 17 3d 08 63 96 bc b0 16 2e 3e
       -0.14765663 0.036871858 -0.018357769 0.17000842
000020 c9 da 00 3d 2e ba e5 3d 02 29 d8 3c ee 6b 9c bb
       0.03145865 0.112171516 0.026386742 -0.0047736084
000030 61 37 99 3c 3b 5e 9f 3c 9e e5 70 bc a3 0f b8 bc
       0.018703165 0.019454112 -0.0147031825 -0.022468394
000040 73 36 a6 bc 55 f6 24 3d 97 3d a2 bd d5 68 62 bd
       -0.020289635 0.040273983 -0.079219036 -0.055275757
000050 20 67 b5 bd 86 e3 6b 3d b1 e0 70 bd a4 3b 74 3c
       -0.0885756 0.05759003 -0.058808032 0.014906798
000060 0a 13 2f 3d 7e 40 35 bc 79 f8 a2 3c b4 bd db bc
       0.042742766 -0.011062739 0.019893872 -0.026823856
000070 45 d3 86 be 51 05 dc bd 70 85 ba bd 7e 0a 97 bc
       -0.2633306 -0.107432015 -0.091074824 -0.01843762
000080 0a d4 05 bd 53 59 3a 3b 8c 81 82 bd 84 a0 85 3d
       -0.03267292 0.002843459 -0.06372365 0.065247566
000090 08 e8 97 bd 06 39 74 be 37 fc af 3b 21 b7 49 3d
       -0.07417303 -0.23849878 0.0053706425 0.04924691
0000a0 f7 88 72 3d 89 75 71 bd 7b 0c 00 3e 28 b2 2c bd
       0.05921265 -0.05894998 0.12504761 -0.04216209
0000b0 ec 72 eb bd 18 d3 84 3c 6d ff 8d bc 26 81 2c 3c
       -0.11496529 0.016213939 -0.01733371 0.010528838
0000c0 74 47 ac bd 9e bc 02 bd a4 fb 2c 3d 32 12 91 3c
       -0.08412066 -0.03191816 0.04223217 0.017708872
0000d0 99 01 20 3e 56 7b 04 be 79 81 f8 bc 46 92 5d bc
       0.1562561 -0.12937674 -0.030335175 -0.013523644
0000e0 19 f7 9e bc 50 02 9b 3d e9 13 53 be 24 24 72 3b
       -0.019404935 0.075688004 -0.20613064 0.003694781
0000f0 32 12 7a be ab 8e b0 bc 6f f9 de bd a0 43 0d 3d
       -0.24421003 -0.021552404 -0.108874194 0.03448832

hiden_layers.2.weight f4 [64, 64]
000000 ea 23 ba be 0b 9d 4c 3e 7c 8f d6 be f1 87 a3 be
       -0.36355525 0.19981782 -0.41906345 -0.31939653
000010 4e 20 85 3d 2a 0a 01 be 1e 00 e5 bf 04 f9 26 be
       0.06500302 -0.12601534 -1.7890661 -0.1630593
000020 62 4d 79 be 17 56 95 bc 18 9f 71 3e 13 78 dc 3d
       -0.24345925 -0.018229527 0.23595846 0.1076509
000030 71 7a 2f bf e7 d5 22 3e 2c da 93 bd 1a 70 8c 3e
       -0.68546206 0.1590191 -0.07219347 0.27429277
000040 5b 0b c6 be 73 e9 ef bb c0 7d 97 bd 53 8b fb bd
       -0.3868054 -0.0073215305 -0.07397032 -0.12282433
000050 43 81 b0 3e b1 e5 13 3e d0 5a 82 bd 3c 2e 0b 3e
       0.3447362 0.14443089 -0.06364977 0.13591856
000060 6c 8f 8b bd 1b 27 2c be 6f f1 f8 bc ad 5f 4f bd
       -0.06814465 -0.16811793 -0.030388562 -0.050628353
000070 c9 be 89 3b 7c 08 a7 be 14 4f 21 3e 62 43 df 3e
       0.0042036516 -0.3262366 0.15752822 0.43606097
000080 09 5b 37 be 15 54 33 3d e8 2e db bd d6 10 e7 bd
       -0.17905821 0.04378136 -0.10702306 -0.11282508
000090 b0 a2 45 3e 97 89 05 3f 86 06 af 3e bb 54 2a 3c
       0.19300342 0.5216307 0.34184664 0.010396178
0000a0 3d 74 b1 3e 7d 52 9c bc 7b e4 a7 3d d8 30 c3 3d
       0.34658995 -0.019082302 0.08197876 0.095308006
0000b0 9d 29 e7 3d f6 b8 59 be bd 39 7b 3d e1 ab 40 3e
       0.11287234 -0.21261963 0.06133436 0.18815567
0000c0 08 ef 6e 3e 89 59 06 bd f2 26 46 be ff a1 ba be
       0.2333337 -0.03280023 -0.19350794 -0.36451718
0000d0 b5 29 ea bd c1 01 ef 3d 07 e6 9a 3c 64 3b 9b 3e
       -0.11433736 0.116702564 0.018908514 0.3031875
0000e0 40 0b ae be 4f 2d fa 3d 89 7f 83 3e 07 33 4f 3f
       -0.33992958 0.12215673 0.2568324 0.80937237
0000f0 dd 20 51 3d 1f 83 8c 3b bf e7 34 3e dc 3c ea 3d
       0.05105673 0.004288092 0.17666529 0.11437389
000100 c2 26 62 3d b3 88 9d 3e 17 5e f6 3d 06 30 04 3e
       0.055212744 0.30768356 0.12029665 0.12908944
000110 89 02 27 3e b2 de 08 3e 2a 13 8d 3e 6f 73 30 3e
       0.16309561 0.13366202 0.27553684 0.17231534
000120 08 20 5a 3d fd 0a 5b 3e b6 32 79 3e ec 0c bf 3d
       0.053253204 0.2139091 0.24335751 0.093286365
000130 79 f7 5b be 53 a1 ec bd db eb f5 3c e3 e2 41 3e
       -0.21481122 -0.11554208 0.030019691 0.18934207
000140 b0 03 87 be e2 62 22 3e 51 19 94 be 44 96 5a bd
       -0.2637 0.15858033 -0.28925565 -0.05336596
000150 ee 88 fa 3d 6a 3b cf bd 25 92 79 bd 02 72 1b be
       0.122331485 -0.10118754 -0.06093039 -0.1518021
000160 54 0b 88 3d d0 03 13 3e 26 20 f9 3d 59 e0 8d 3c
       0.06642786 0.14356923 0.12164335 0.017318891
000170 3f 52 99 bd 8a 32 e8 3d 26 5e 3c bd 40 22 fb bd
       -0.0748639 0.113377646 -0.045988224 -0.12262392
000180 71 e4 3d 3d f4 34 16 3e 8e 2e f0 bd d1 3b 62 3e
       0.046360437 0.14668638 -0.117276296 0.2209313
000190 58 13 44 3e d4 5c df bd 88 b4 ac 3d 94 f8 3c be
       0.19148004 -0.109063774 0.08432871 -0.184542
0001a0 67 d0 b2 be 69 ef fa bd 04 da 3e bd 25 28 85 3d
       -0.34924623 -0.12252695 -0.046594635 0.065017976
0001b0 f9 21 14 3e b0 8f 42 be 6d 47 43 be 96 45 79 3e
       0.14466085 -0.19000125 -0.19070216 0.24342951
0001c0 e5 e7 f2 bd ea ce e0 3e bd 12 0e be 77 9f c6 bd
       -0.118606366 0.43907863 -0.13874336 -0.09698384
0001d0 83 0d d0 bd af 5a 50 3e 92 8d 65 bc 43 53 40 be
       -0.10158827 0.20347093 -0.014010804 -0.18781762
0001e0 63 08 72 3d 42 f2 04 bd f1 4d 20 be d1 39 1f 3e
       0.05909003 -0.032457598 -0.15654732 0.15549399
0001f0 40 08 1d 3c f6 91 28 3e f0 42 d3 3d fa 50 f7 3c
       0.0095844865 0.1646193 0.10315502 0.03018998
000200 c6 96 8c 3e 33 c2 46 bd fc cc 40 be c5 dd 16 be
       0.2745878 -0.048525047 -0.18828195 -0.14733036
000210 17 36 f5 3d 6c cf d3 3d 3c de 0f 3e 11 ae de 3c
       0.119732074 0.10342297 0.1404962 0.02718261
000220 32 f3 22 be 63 e7 4c 3e a5 6b c7 bd 6e 99 0a 3e
       -0.15913084 0.20010142 -0.097373284 0.13535091
000230 58 02 a4 3e b8 3e 64 3e d6 e8 2f be 83 9d 15 3d
       0.32033038 0.2228955 -0.17178664 0.036527168
000240 49 e8 12 3e e6 2a 8d 3d 22 39 0d 3e 6f 0b a0 be
       0.14346422 0.06892948 0.13791326 -0.31258723
000250 f5 7a 39 bc b0 38 f6 3d 1f 59 7d 3e 3b 24 32 be
       -0.011320819 0.12022531 0.24741028 -0.17396633
000260 30 e2 4e bd 8c b2 93 bd b1 48 cb bd e2 f7 6b be
       -0.050508678 -0.072117895 -0.09925974 -0.23043779
000270 bf c7 ae 3d 4b 63 32 3d 1c 31 96 bc 6d 39 d7 3e
       0.08534192 0.043551724 -0.018333964 0.42036
000280 3e db a6 3c f9 6d 49 bd 57 f3 d9 3d 6d 03 8f 3c
       0.020368215 -0.049177144 0.106421165 0.017457688
000290 a5 12 8d 3e 8b 92 9f bc 9e 17 28 be aa 66 cc 3c
       0.27553287 -0.019479057 -0.16415259 0.024951298
0002a0 8a b3 1d 3e 59 c7 0b 3e 1f b1 9a 3c 1f ab 8d bd
       0.1540052 0.13650264 0.018883286 -0.069174044
0002b0 65 b4 90 3e 86 99 32 3c ae d7 47 bd 1f 60 46 be
       0.2826263 0.010900861 -0.048789673 -0.19372605
0002c0 2e 88 8e 3e ff ac 17 3c 64 ea e2 be 2c 08 5e 3e
       0.27838272 0.009257554 -0.4431945 0.21682805
0002d0 0a a4 36 be 9f 09 18 3e 99 24 17 3d cd a6 06 3e
       -0.17836013 0.1484742 0.036900137 0.13149567
0002e0 ac 96 f8 3c e0 1d b5 3d fb e1 68 be a2 f0 83 be
       0.030345283 0.08843589 -0.22742455 -0.25769526
0002f0 1e 3a 31 3d 6a 7f ee bc 9f 99 82 3d 13 8c 72 bb
       0.043268315 -0.02911349 0.06376957 -0.003700976
000300 5c 86 0d 3e 16 a4 83 bd 85 0a 4e bd af 29 2b 3e
       0.13820785 -0.06427781 -0.050303 0.1671512
000310 e0 1f fb bd 41 9f 1f be 1b f4 c8 bc 22 c9 e0 bd
       -0.12261939 -0.15588094 -0.024530461 -0.10975863
000320 c8 18 b4 3d 1f a5 09 3e e3 22 1e 3c 2b 4e f8 bd
       0.08793789 0.13441895 0.009651872 -0.12124284
000330 7d de d1 3e 98 9e 3a be df 67 40 be d3 9b 69 3e
       0.40990058 -0.18224561 -0.18789624 0.22813348
000340 84 fe 01 3e ab 3d 76 be 7a c0 96 be 5e 47 93 3d
       0.12694746 -0.24046962 -0.29443723 0.071913466
000350 d3 e7 30 be f8 ea 48 bd a1 e2 92 3e f7 0f a9 bd
       -0.17275934 -0.04905221 0.2868853 -0.08254998
000360 45 29 d5 be f1 21 94 bd 25 99 04 3e d7 18 be 3d
       -0.4163305 -0.07233036 0.12949045 0.092820816
000370 b1 da ab bc ab c9 8d 3e a6 3c ee 3d 9f f6 04 be
       -0.020978304 0.27692923 0.116326615 -0.12984703
000380 5d ce d9 be b3 79 03 bd 25 e1 51 3e 09 60 fa 3e
       -0.42540255 -0.032098483 0.20496042 0.48901394
000390 80 cc 5f bd c2 fe 8d 3e b5 c1 28 be 79 11 82 be
       -0.054638386 0.27733427 -0.16480143 -0.25403956
0003a0 9f 02 b1 3e ca cd 31 be c7 74 47 3e 69 f2 60 be
       0.34572312 -0.17363659 0.19478141 -0.21967472
0003b0 5b 4a 62 3d 83 73 0e be 27 af 2f 3d 5e 72 80 be
       0.055246692 -0.13911252 0.042891648 -0.25087255
0003c0 fa 31 0c be a5 c3 b7 3e a8 ab ec 3d 02 28 55 be
       -0.1369094 0.35891452 0.11556178 -0.20816043
0003d0 db 5f 2a bd 9c ce c2 bd f6 a5 3e 3f df 19 9e bd
       -0.04159532 -0.09512064 0.74471986 -0.07719778
0003e0 60 44 29 bf e1 06 d3 bd cd fd 66 bd ed 05 0e 3f
       -0.66119957 -0.103040464 -0.056394387 0.5547779
0003f0 d7 49 03 3e 9d e8 93 be 4f e9 44 3e 59 48 bb 3c
       0.12821136 -0.28888407 0.19229625 0.022861646

hiden_layers.2.bias f4 [64]
000000 d7 67 3e 3d cd cf ec bc b1 f0 73 bd ea ba 01 3c
       0.04648575 -0.02890768 -0.059555713 0.007918099
000010 71 ea 22 bd 57 dc c0 bd af 9b 0a be 5d 25 fd bd
       -0.039774362 -0.094170265 -0.13535951 -0.12360642
000020 3b eb 57 bd f8 ab d3 3c fb 7e 0e bd 3a f5 bf bb
       -0.052714568 0.025838837 -0.034789067 -0.0058580907
000030 6d 89 3c 3c 7c da c7 bc 10 6c 62 bd 3d 3d 0e bd
       0.011507374 -0.024396174 -0.055278838 -0.03472637
000040 08 90 64 bc 13 a4 69 bd 94 18 2c 3b d3 ce 04 bd
       -0.013950355 -0.05704124 0.0026259767 -0.032423805
000050 ac 66 bc bb 4d 11 01 3c 59 f3 22 3d c2 96 8b bd
       -0.005749544 0.00787766 0.039782856 -0.06815864
000060 05 48 bf 3d 59 a6 0b 3d b4 25 30 3e 76 9a 09 bd
       0.093399085 0.03409419 0.17201883 -0.03359457
000070 51 b5 7e 3c 38 3d 40 bd f6 f1 ca 3d 20 2f ff bb
       0.015546159 -0.046933383 0.09909432 -0.0077876
000080 21 f2 0f bd 01 db 95 3c d7 be 72 b9 80 7b 5b 3c
       -0.03514302 0.018292906 -0.00023150012 0.013396144
000090 09 68 3e 3c a6 37 01 bd dd 02 28 be 0c e1 c4 3c
       0.011621484 -0.03154721 -0.16407342 0.024033092
0000a0 b8 be 8f bb 64 1a 40 ba 04 fa 9f bd e9 ed 2d be
       -0.004386749 -0.0007328151 -0.078113586 -0.16985287
0000b0 cb 6c cf 3c f2 86 87 bd 76 0d a9 b8 12 f3 19 bc
       0.025320431 -0.06617536 -8.061055e-05 -0.009396331
0000c0 53 69 c3 3d a5 ea 1c be aa 50 00 3d 51 81 8b 3c
       0.095415734 -0.15323885 0.031326927 0.017029436
0000d0 2c 24 6a bd b8 a6 bb bc 28 6c e8 3b 83 8f 48 bc
       -0.057163402 -0.022906646 0.0070929714 -0.012241247
0000e0 d7 68 97 3c d4 55 ab 3b c0 50 75 bd cd eb 33 bd
       0.018482609 0.0052287374 -0.059891462 -0.04392605
0000f0 0f 1e 1f be b4 f2 f9 bc e8 13 4f bd cd 25 af 3d
       -0.1553881 -0.030511238 -0.050556093 0.08552132

hiden_layers.3.weight f4 [64, 64]
000000 0d cf c4 be 10 2b b9 3e 55 60 61 3e 42 69 86 be
       -0.38439217 0.36165667 0.22009404 -0.2625218
000010 bb a2 53 be b0 3e bb 3d 3e a4 12 be 3e e4 13 be
       -0.20667545 0.09142816 -0.14320466 -0.14442536
000020 38 c8 5d be c8 87 26 3e 56 5d 1c 3e 1d 1e 0e 3d
       -0.21658409 0.16262734 0.1526998 0.034696687
000030 2b 8c 5a bd 17 e3 82 be 29 97 5e 3e 9c 42 fa bc
       -0.05335633 -0.2556388 0.2173735 -0.03054934
000040 88 d7 a3 bd 0c 88 21 be 8a 89 10 3d 3e e1 53 be
       -0.08000094 -0.15774554 0.035287417 -0.20691392
000050 c2 cd 88 3e 94 94 da bd 3d f8 37 3e 17 c3 00 3e
       0.2671948 -0.1067287 0.17965789 0.12574421
000060 07 b9 f9 3d e5 64 5c 3e 53 7b 0a be a4 87 8a 3e
       0.12193494 0.21522863 -0.13523607 0.2705661
000070 66 ca 1a 3e 2c 2e b4 3d ba 59 52 be 9d 0f 9b 3d
       0.15116271 0.08797869 -0.2054204 0.07571337
000080 c3 be 12 be 84 0a c6 bd 95 45 d1 3c 6e c7 01 3e
       -0.14330582 -0.096699744 0.025545875 0.12673733
000090 6c 71 cc 3c cd a4 a6 bc 10 6f 1c 3e 0e cd 8e be
       0.024956428 -0.020342255 0.15276742 -0.2789082
0000a0 25 8b 68 3d b3 d1 b8 3e 37 ff cb be 84 62 a1 be
       0.056773324 0.36097488 -0.3984315 -0.31520474
0000b0 92 d9 92 3c 90 2f fa 3d 31 ed 5e 3e 75 2f 1e be
       0.017926011 0.12216103 0.21770169 -0.15447791
0000c0 6e 6d be 3e f7 d3 32 be 56 f9 c0 bd 3e 2f 5d be
       0.37192863 -0.1746367 -0.09422557 -0.21600053
0000d0 5b f8 d1 3e d3 e3 fe 3d 3e 8c 0c 3e 73 1c 97 bd
       0.41009793 0.12445798 0.13725373 -0.07378473
0000e0 53 73 ea bc 1e cc 4b 3e e5 89 1a be 1c 26 36 3e
       -0.028619444 0.19902083 -0.15091665 0.17787975
0000f0 9e 25 14 bc f1 9d 58 3e a8 03 0c be 13 41 58 3e
       -0.009042172 0.21154 -0.1367327 0.21118574
000100 1c 5d 3a bd 89 a3 28 bd aa 2a e7 bb e4 7b ee 3d
       -0.045498952 -0.041171584 -0.0070546465 0.11644724
000110 8c 5f ee 3d 3a f6 4b 3e 4c c0 43 be 06 47 fb 3d
       0.11639318 0.19918147 -0.19116324 0.12269406
000120 f4 1d 9a bd 6e d6 80 be e5 b2 9e 3d ba 1f 3d 3d
       -0.07525244 -0.25163597 0.07748965 0.046172835
000130 ba 44 11 3e ef 65 ab bd 0b ec 80 3c b0 9b 6a 3e
       0.14186373 -0.08369052 0.015737554 0.22910953
000140 c8 77 af 3e 1c 74 c3 3d 83 fc d2 3d 08 c5 26 3e
       0.34271073 0.095436305 0.10302069 0.16286099
000150 14 c1 50 3e e2 4b 7a bc 42 75 ec bc 17 9f 10 3e
       0.20386153 -0.015276881 -0.028864507 0.14123188
000160 e1 bc ec be 46 a2 05 3d a5 15 49 3e d4 7e 3f be
       -0.46237853 0.03262546 0.19637163 -0.18700725
000170 27 21 0c 3e 16 81 c2 bd 08 b5 63 bd 09 73 2b 3e
       0.13684522 -0.094972774 -0.055592567 0.16743101
000180 ba 51 72 3d bd d1 fe bd d4 e0 dc 3e f6 8b 5c 3d
       0.05915997 -0.12442348 0.4314028 0.053844415
000190 1f d1 94 bd a0 89 7f bd a8 37 33 be 0a 05 25 3e
       -0.07266449 -0.06238711 -0.175017 0.16115203
0001a0 26 2c 7f 3d 37 35 8e be 65 a7 48 3c bd 05 a4 3e
       0.062297963 -0.27774975 0.012246941 0.32035628
0001b0 0e 18 b8 bd df 0e 81 bb 27 54 98 3d c1 cd 98 3e
       -0.08988963 -0.0039385404 0.07437926 0.29844478
0001c0 b9 ca 04 be ad 37 0b be 53 39 1d be cf 4f 3a 3e
       -0.12967958 -0.13595457 -0.15353899 0.18194507
0001d0 88 78 fd 3d f6 2f 21 bd 06 ae 82 3e b2 f3 5c 3e
       0.12376505 -0.03935238 0.25523394 0.21577337
0001e0 11 1e 5b 3e ec 6c eb bd cf 97 97 3e 83 9c 1c 3e
       0.21398188 -0.114953846 0.29608008 0.1529408
0001f0 e4 80 6d 3e 7a 64 51 3e e7 20 9b 3c 29 94 3b 3d
       0.23193699 0.20448485 0.018936587 0.045795593
000200 67 6a 6b be 6f b3 04 3e 59 0c c0 bd d3 f4 50 be
       -0.22989808 0.12959073 -0.09377355 -0.20405893
000210 4a a5 ea bd 87 44 37 3e 65 ec 81 3e 8b ac 99 be
       -0.11457308 0.17897235 0.25375667 -0.30014452
000220 7a f4 3c bd 83 fa 82 3d 1d 7b 4a be 9d 16 43 3e
       -0.04613159 0.063954376 -0.19773526 0.19051595
000230 1e a0 df bc 5e 24 4c 3d 37 29 16 3e fe 7b 1a 3d
       -0.02729803 0.04983937 0.1466416 0.037715904
000240 d2 cc ba 3e 59 ca ae 3e 42 96 72 be b9 a7 98 be
       0.3648439 0.34138754 -0.23690131 -0.29815462
000250 d0 c6 c5 3c f2 2a 34 3e dc ac 02 bf 56 e9 9f bd
       0.024142653 0.17594507 -0.5104501 -0.07808177
000260 7f 1a 45 be fc cc c9 bd a9 51 7d be ba 05 e6 3e
       -0.19248389 -0.09853551 -0.24738182 0.44926244
000270 cb 72 d6 3c 15 22 9e be d3 ef 21 be b4 24 48 be
       0.026177784 -0.30885378 -0.15814142 -0.19545251
000280 6e 46 18 bf ec 2c bc bd 27 b1 a9 3e 99 87 02 be
       -0.5948247 -0.09188256 0.3314297 -0.12747039
000290 82 af 53 3e 2a 1a 9a be a4 e0 42 be 00 bb 31 3e
       0.2067242 -0.30098087 -0.19031006 0.17356491
0002a0 c2 4a b8 3e 86 b8 6c be 8c 56 e8 bd 00 6f 88 3e
       0.35994536 -0.23117265 -0.113446325 0.26647186
0002b0 93 ed 42 be 0e f0 bd be 62 5f 83 3e 16 7e 4d bc
       -0.1903594 -0.3709721 0.2565871 -0.012542268
0002c0 c9 7b b2 bc e2 d1 28 be 8c 65 7d 3e ce a3 0f 3e
       -0.021787541 -0.16486314 0.24745768 0.1402733
0002d0 c2 8d 3b 3e f2 6c 2e be 93 9c 80 3e 75 f0 e1 be
       0.18315795 -0.17033747 0.25119457 -0.44128767
0002e0 fe 3f 52 bd c3 98 7b bb 7a 01 b4 3c 65 b3 a4 3d
       -0.05133056 -0.0038390614 0.02197336 0.08042029
0002f0 32 19 be 3e bf e5 60 bc 95 45 2a be 3e 33 0f bd
       0.37128597 -0.013726651 -0.16628106 -0.034960978
000300 64 1d 30 be 62 43 ba 3c 32 48 82 3d e6 c9 1c be
       -0.17198712 0.022737209 0.063614264 -0.15311393
000310 50 60 39 be 58 a3 f6 bc e0 9b ec bd b2 98 0d be
       -0.18103147 -0.030107185 -0.11553168 -0.1382778
000320 2e 95 4f be 05 30 b4 bd d5 d7 74 be 16 3e 8e bd
       -0.20271751 -0.087982215 -0.23910458 -0.06945436
000330 d8 f9 6e be 96 a2 f1 bd 08 c9 0f be bd be d6 3d
       -0.23337495 -0.11798589 -0.14041531 0.10485599
000340 b3 d1 a4 bd 81 3e 01 3e 35 97 d9 3c 23 bf 44 3e
       -0.080478095 0.126215 0.026561359 0.19213538
000350 8f 45 1b 3d b2 3d 89 3c 05 dd 64 be fd 42 43 bd
       0.037908133 0.016753051 -0.22349937 -0.047671307
000360 ed ff 45 3e 57 43 23 3e 42 cc c4 3d ae 9d 32 be
       0.19335909 0.15943657 0.096092716 -0.17442963
000370 29 16 f6 3d 5c 36 95 be 06 2c 02 3d 3f 82 7b 3c
       0.120159455 -0.29143035 0.031780265 0.015350877
000380 59 02 9a 3e 47 ee 0b 3e 72 aa d6 3d f8 42 dc bc
       0.30079916 0.13665114 0.104817286 -0.026887402
000390 ea e5 5f be f1 50 0c 3d fc 3c 24 be 5b 73 8c 3c
       -0.21865049 0.03425688 -0.16038889 0.01714485
0003a0 26 62 80 3d f7 29 d9 bc e4 77 fd bd f7 c0 e5 bc
       0.0626872 -0.026509268 -0.12376383 -0.028046114
0003b0 f1 d4 e8 3d d4 74 03 be 77 2f 4e 3e 88 48 c1 3b
       0.1136874 -0.12837535 0.20135294 0.005898539
0003c0 e4 74 55 3e 9d 71 2c 3e ec 51 7f bd 21 5c aa bd
       0.20845371 0.16840215 -0.062333986 -0.083183534
0003d0 96 94 82 3d cc ca 79 3d fb 8f 1e 3e 00 5c 72 3e
       0.06375997 0.060984418 0.15484612 0.23667908
0003e0 27 ee bd bc 1c bc cb 3d 44 11 40 3e 2e 86 75 bd
       -0.023184849 0.099479884 0.18756586 -0.059942417
0003f0 bc a0 47 bd 5f 98 df bd d2 54 9f bd 29 7b 37 3d
       -0.048737273 -0.10917734 -0.0777985 0.04479519

hiden_layers.3.bias f4 [64]
000000 f6 3c 66 bd 14 44 18 be e5 06 33 bd 3d d5 93 3d
       -0.05621048 -0.1486972 -0.043707747 0.07218406
000010 16 34 f4 3b 67 30 82 bd e4 a8 8e 3c 19 b6 a2 bc
       0.007452498 -0.06356888 0.017414518 -0.019862222
000020 9a 2b bc bd 95 a8 d0 bd f8 c5 fb 3a 63 69 b8 3c
       -0.09188004 -0.101884045 0.001920878 0.02251119
000030 d4 8b b6 bd e2 53 c0 3d cf c2 7c 3c d4 04 c2 bc
       -0.08913389 0.093909994 0.015427305 -0.023683943
000040 1b 43 14 3d 29 b5 1f bd 2a da ab 3c 7b 64 45 bc
       0.03619681 -0.038991127 0.020978052 -0.012047882
000050 b6 ea be 3c 3b 07 3d bd 4f d8 43 bd a5 6a 9d 3d
       0.023305278 -0.046149474 -0.04781371 0.076863565
000060 6c 85 1e bd 21 37 e7 bc e0 58 04 3c 7a fb a5 bd
       -0.03870146 -0.02822453 0.00807783 -0.08104606
000070 74 09 47 bd fd 6c dd bd 75 6f 76 3d 61 83 52 3d
       -0.048593 -0.108118035 0.060164887 0.051394824
000080 85 79 a0 bd 56 a2 e4 3d 54 d6 85 3d 72 62 09 bc
       -0.07835678 0.111637756 0.065350205 -0.008385288
000090 80 52 8a bd d1 f2 fa 3c 89 ff 3c bd d2 b1 dd 3d
       -0.06754017 0.030633362 -0.046142135 0.10824932
0000a0 10 e9 47 be c2 62 70 3d e6 2b 42 bd 7a 69 a2 bd
       -0.195225 0.058687933 -0.047405146 -0.07930274
0000b0 94 b4 dc bc 85 f7 08 3d ed f8 ac bd 49 97 18 be
       -0.026941575 0.033439178 -0.08445916 -0.1490146
0000c0 f1 a5 d7 bd ec 1e 04 3d c6 8e 73 bd eb 33 9b 3c
       -0.10529698 0.032256052 -0.05946233 0.018945655
0000d0 16 91 64 bd e2 6a a6 3d 95 c8 ff 3c c0 3b aa bc
       -0.055802427 0.08125855 0.031223575 -0.020780444
0000e0 28 84 8e 3d 41 1c 12 bd 73 22 a2 bb 70 e4 62 bd
       0.069588006 -0.035671476 -0.0049479543 -0.055393636
0000f0 5d 92 9f 3d b5 e6 22 3c 6a 85 c4 3c 1d 2c 7d bc
       0.077915885 0.0099427 0.023989398 -0.015452412

hiden_layers.4.weight f4 [64, 64]
000000 9f 71 cd be 91 80 d2 3e f3 5a 98 3d f0 6e d9 bd
       -0.4012575 0.41113713 0.07439222 -0.10616863
000010 5d 08 2c bd 06 d8 a2 bd ed 92 c6 3c 70 26 ca 3d
       -0.042000163 -0.079513595 0.024239982 0.098706126
000020 05 b6 39 be 14 fc 20 bd b0 e3 29 be 7a 84 2c 3e
       -0.18135841 -0.0393029 -0.16590762 0.16847411
000030 07 94 1f 3e c1 7e 14 be 0d f3 3f 3d 5e dc 6c 3d
       0.15583812 -0.14501478 0.04686265 0.057827346
000040 90 9d 26 bd 55 b4 8e bc cd ef 06 3e 51 f5 ad 3e
       -0.040677607 -0.017419973 0.13177414 0.33976224
000050 87 a9 58 be 9d dd 9a bc 2e f5 07 be 2d 35 08 bd
       -0.2115842 -0.018904502 -0.13277122 -0.033253837
000060 bf ed cc be 18 11 85 be 1c 2c 80 3e d1 27 75 3e
       -0.40025136 -0.25989604 0.25033653 0.2394097
000070 eb 62 c1 be c0 af 60 be 0a 29 dc bd 3e a0 bb bd
       -0.3777078 -0.21942043 -0.10750015 -0.09161423
000080 68 86 86 3e e8 db 41 bd a2 f6 9c bd bd b2 e0 be
       0.2627442 -0.04732886 -0.07664229 -0.43886366
000090 09 37 d8 3b 73 16 55 3d 62 9f 30 3d a5 08 1b bd
       0.0065983576 0.052023362 0.04312075 -0.03785004
0000a0 d5 5c d8 be 97 85 e2 bc 36 63 5f bc 04 fb 72 3c
       -0.42258325 -0.027651591 -0.013634494 0.014830355
0000b0 3b be 7e 3d 5e be 49 3e 58 94 86 3e 05 7a 6d bd
       0.062193137 0.19701526 0.26285052 -0.057977695
0000c0 9e f4 47 be e0 d2 c2 3c 55 58 66 be 25 ed 3b 3e
       -0.19526908 0.023782194 -0.22494633 0.18352182
0000d0 1b c4 1a bf 1c ad 33 3e 0b b9 88 3e e4 ef 81 be
       -0.60455483 0.17546505 0.26703677 -0.25378335
0000e0 b2 4e 19 bd 5d 34 bf bd eb 76 bf be 23 84 1f be
       -0.037428565 -0.093361594 -0.37395415 -0.1557775
0000f0 18 57 85 bd 3d 43 6c be 3d 7c 04 be b4 46 9b bd
       -0.065107524 -0.23072524 -0.12938018 -0.07581845
000100 db 46 d9 3e 78 a7 1c bf fb 4b 8c be 60 9a d8 3d
       0.4243687 -0.6119304 -0.27401718 0.1057632
000110 99 9a 2e bd 95 b1 2c bc 61 a0 d6 bd 83 62 56 3e
       -0.042627905 -0.010540386 -0.104798086 0.20936017
000120 f6 c8 45 be cb 92 0d 3c ff 19 b9 3d f2 6c 56 3c
       -0.19314942 0.008640955 0.090381615 0.013087498
000130 e7 56 f2 3d c8 1f 28 3f da 56 db be 1f d2 0d bc
       0.118329816 0.65673494 -0.428397 -0.008656054
000140 4b 4b 9b be 2a b8 2e bd 63 8d d0 3d 4e f4 bd 3c
       -0.3033088 -0.0426561 0.101832174 0.023187783
000150 dd fa a9 3e 1b d8 12 bd 70 53 3f 3e 97 35 3e 3e
       0.33199206 -0.035850625 0.18684173 0.1857513
000160 b6 3e 8d 3d bc ab f4 bd 5a e7 9b be e6 8d c7 3d
       0.06896727 -0.11946818 -0.30449945 0.09743862
000170 a4 d6 78 3e ce c6 fc 3d 47 4a 6b be df c9 4d bd
       0.24300629 0.123426065 -0.22977553 -0.050241347
000180 49 81 86 bd 35 a4 fa bd 68 c7 aa 3e d9 66 81 bd
       -0.06567628 -0.12238351 0.3335526 -0.06318445
000190 1e c3 b0 be b5 f8 70 3c e2 79 fc 3d 6b c8 a4 3d
       -0.34523863 0.014707734 0.12327935 0.08046039
0001a0 05 7c 00 3f 40 b8 a7 3d ee d2 30 3e c7 1f 04 3e
       0.5018924 0.0818944 0.17267963 0.12902747
0001b0 d8 dc 2d be a9 80 27 3e 90 06 97 be c6 db 49 be
       -0.16978776 0.16357674 -0.29497194 -0.19712743
0001c0 0c 30 87 be 83 eb 3c 3d 18 5a 6e be 88 28 ae bd
       -0.26403844 0.04612304 -0.23276556 -0.085038245
0001d0 a6 fd de 3e 3e 44 4a bb bd b7 42 3d 23 8f 9c 3d
       0.43552893 -0.003086343 0.047538508 0.07644489
0001e0 a8 2d 24 3e 9f 12 64 bd 60 89 56 3d 10 30 eb bc
       0.16033041 -0.05568182 0.052377105 -0.028709441
0001f0 aa 80 10 3f 68 25 86 3d 8e 1f fa 3e 4e a5 91 3d
       0.56446326 0.065501034 0.488522 0.071116075
000200 a1 94 9a 3d 8a 24 34 be 83 b2 53 be 06 9c fc bd
       0.0754788 -0.17592064 -0.20673566 -0.123344466
000210 e3 95 e6 3d a3 63 d4 3d 7e 1a b8 bd 8d 67 92 3d
       0.112590574 0.10370567 -0.08989428 0.07148657
000220 43 d1 da bd 1a 46 94 be c6 eb 09 3d 23 0e 91 bd
       -0.10684445 -0.28959733 0.033672117 -0.070827745
000230 09 93 98 bd a4 a9 b2 3e a7 25 7f 3e f1 3c c8 bc
       -0.0744992 0.3489505 0.24916707 -0.024443122
000240 7e 97 46 3d b8 48 ad 3d f1 14 17 bd 21 91 19 bd
       0.048484318 0.084611356 -0.036885206 -0.03749192
000250 65 09 5f be 47 87 c2 bd 48 ca ea bd 5d b9 a9 3d
       -0.21780927 -0.09498458 -0.11464363 0.08287308
000260 92 4e 9c be 26 58 2b be d7 dd 75 be b5 c0 10 3e
       -0.30528694 -0.16732845 -0.24010406 0.14136012
000270 f0 6e c4 bd 8e 96 bf 3d 03 a7 44 bc a9 5a c7 3d
       -0.09591472 0.09354888 -0.012002709 0.09734089
000280 de 22 64 be da a8 63 bd ef 29 d9 3d 7e 65 7f 3e
       -0.22278926 -0.05558095 0.10603701 0.2494106
000290 aa 3a 52 bd b7 f9 9e 3d 0c 0d 45 be f6 33 8e 3e
       -0.051325478 0.07762473 -0.19243258 0.27774018
0002a0 d8 fc 7f 3e d7 83 6b bd a4 26 70 be 51 a8 a2 bd
       0.24998796 -0.05749878 -0.2345224 -0.0794226
0002b0 91 f3 97 be df 39 39 bd e8 64 a8 3d 75 0e c4 bd
       -0.29678014 -0.045221206 0.08222371 -0.0957307
0002c0 d3 c9 86 3e 39 09 90 bd d1 b3 c8 3e 68 9a 79 be
       0.26325855 -0.07033009 0.3919969 -0.24375308
0002d0 7f b1 e5 3d 03 b9 75 3e 34 5a 5e bc a9 c0 5e 3d
       0.11215495 0.23996358 -0.013571311 0.054382954
0002e0 42 6a 1a bc 82 af 75 3d 28 a6 86 3e 4c ac 39 3e
       -0.009424748 0.05998183 0.26298642 0.18132132
0002f0 14 9b 58 3e 70 72 1e bd 29 df 48 be fd 88 82 3e
       0.21152908 -0.038683355 -0.19616379 0.2549514
000300 c6 12 18 3e bb b9 67 be 97 e8 f9 bc 3b 22 59 bd
       0.14850911 -0.22629444 -0.030506415 -0.05301116
000310 12 d6 f5 bd 85 0e 8a bd a3 56 ba bd 09 d3 44 be
       -0.12003721 -0.06741051 -0.09098556 -0.19221129
000320 81 93 32 3c 84 71 4a 3e 16 4c 37 3e a9 d9 46 bd
       0.0108994255 0.19769865 0.17900118 -0.04854742
000330 fe 6c 37 bc 86 64 f5 bc 74 b0 90 bd 15 bd 47 3e
       -0.011195419 -0.02995516 -0.07064906 0.19505723
000340 7c 4b 1c 3d d3 d1 1b bd 7a 36 49 be 78 97 5c be
       0.038157925 -0.0380419 -0.19649687 -0.21542156
000350 4d 6f ce bd 09 20 8e 3d ee 37 23 3e d6 01 3a 3e
       -0.10079823 0.06939704 0.15939304 0.18164763
000360 d9 aa 36 3e 7e 23 84 3d 77 37 bd 3c 6d 89 65 be
       0.1783861 0.06452082 0.023097737 -0.22415705
000370 53 0d ea bd 3a 36 f2 3d 0b f9 44 bd ee b2 9d be
       -0.11428323 0.11826749 -0.04808907 -0.30800575
000380 f8 d8 43 3e 42 f0 10 3d b2 79 77 bc d7 5e 03 be
       0.19125736 0.035385378 -0.015104698 -0.12829147
000390 e0 43 7c 3e 50 cb d8 bc e5 1e 7c be b4 a5 49 3e
       0.24635267 -0.026464134 -0.2462116 0.19692117
0003a0 29 4d be be 00 c1 c7 3d 33 0d 7d bd 9a 7d 79 3d
       -0.37168244 0.09753609 -0.061780166 0.0609108
0003b0 6f 57 82 3d 44 35 1e be 2b 3a 0e be 9c b6 ac bd
       0.06364333 -0.15450007 -0.13889377 -0.084332675
0003c0 eb fa a2 bc e5 f3 55 3d a1 74 88 bd d7 d2 21 3e
       -0.019895038 0.05223455 -0.0666287 0.15803085
0003d0 8f 5f 8a 3d ad b0 9e 3d e9 10 88 3c 94 a6 1a 3e
       0.067565076 0.07748542 0.016609626 0.15102607
0003e0 25 e6 b9 bd 9b 63 0b be 08 0b 43 3e 59 e6 25 3e
       -0.090771 -0.13612215 0.19047177 0.16201152
0003f0 19 7c 01 3e 7e 3d 10 bd 45 72 47 bd df c3 17 3e
       0.12644996 -0.035214894 -0.04869296 0.14820813
