results/5_model_3_case_1/epoch1200/model_weights.pth (torch, 484214 bytes, 88 tensors)

init_layer.0.weight f4 [64, 3]
000000 25 5d 05 be ab e2 96 bd 42 70 a3 3e 04 5b 38 3f
       -0.13023813 -0.07367452 0.31921583 0.7201388
000010 c3 c8 71 3d 11 c5 2c be 54 18 16 be 93 ed 0e be
       0.059029352 -0.1687205 -0.14657718 -0.13957815
000020 d1 42 0e be 6c 6a 8d 3e 04 9c b1 3d e6 83 af 3d
       -0.13892676 0.27620256 0.08672336 0.085700795
000030 19 da fe bd 15 e0 5b 3e 74 41 7f 3e 60 bb 86 be
       -0.124439426 0.214722 0.24927312 -0.2631483
000040 7c 83 f1 be 81 60 46 3e 07 89 b9 3e 95 20 c9 bc
       -0.47170627 0.19372751 0.36237356 -0.02455167
000050 52 b6 bb 3e 96 c2 b9 3e 47 6e 72 3d 84 32 86 3e
       0.36662537 0.3628127 0.0591872 0.26210415
000060 79 ef b7 3e 5b 6f 82 be 1f d9 e3 3d 53 29 ef bd
       0.3592489 -0.25475582 0.11125397 -0.11677804
000070 37 46 c8 bd 0c 6e 89 3e fd dd a0 be 32 77 7c bc
       -0.097790174 0.26841772 -0.31419364 -0.015409278
000080 1d 9f d5 3c be e7 03 3e 25 af c3 3d 8f 47 8a be
       0.026076848 0.12881371 0.095548905 -0.2700772
000090 0f 33 2c be 04 bd 8a 3c 5a 97 e1 bc a1 42 87 bd
       -0.16816352 0.016935833 -0.02753799 -0.06604505
0000a0 f5 16 5c 3d 91 df b5 3e 1a ae 83 3e d8 fe e0 be
       0.05373283 0.3552213 0.25718766 -0.4394443
0000b0 79 d8 28 bd 1f d8 5b 3e d3 f7 b1 bd 7f c5 9e be
       -0.04122207 0.21469162 -0.08689847 -0.31010053
0000c0 8d 59 bd bc a6 20 f3 bc 91 f8 b3 3e 36 8d 2e 3e
       -0.02311399 -0.029678654 0.3515058 0.17046055
0000d0 6a 94 1f 3e 45 3c 6e be 10 32 25 3e 96 ea ac 3d
       0.15583959 -0.23265179 0.16132379 0.08443181
0000e0 70 df 7d be 00 e6 b5 be 9e 34 94 3c c1 68 99 be
       -0.24792266 -0.3552704 0.018091496 -0.29962733
0000f0 65 1a 0c 3e 8d fc 8c bd 81 83 2d be ad 82 09 3e
       0.13681944 -0.06884108 -0.16944696 0.13428755
000100 86 66 22 be 34 1f ed bd 3d 1d b1 bb 5c 52 09 be
       -0.15859422 -0.11578217 -0.005405097 -0.13410324
000110 06 8e 64 be 58 bf e7 bd 33 43 6b 3e c2 f1 21 bc
       -0.22319803 -0.11315793 0.22974853 -0.0098843
000120 a1 3c 85 bd 45 a5 34 3c bf 33 89 3e ba 8e 1a bc
       -0.06505705 0.011025731 0.26797292 -0.009433443
000130 b1 35 2c 3e aa 1e 0c be 35 52 02 bc 0b 4b ca 3d
       0.16817357 -0.13683572 -0.00795417 0.098775946
000140 45 4a 9d 3e 4c 13 0a be b9 e4 26 be b0 48 20 3e
       0.30720726 -0.13483924 -0.16298188 0.15652728
000150 f3 8d ac 3d 1b 26 09 bc c8 f0 9f be 07 39 84 bd
       0.08425512 -0.008370901 -0.3123839 -0.064561896
000160 21 61 4d be 4a 50 30 3e 57 58 d5 be 3a 36 95 be
       -0.20056583 0.17218128 -0.4166896 -0.29142934
000170 ad 9d 15 be 64 09 21 be 2c 80 fd 3c 2a 9a cc 3e
       -0.1461093 -0.15726238 0.030944906 0.39961368
000180 af 7a 7f bd 9c be e5 3d ad 00 9c 3e 94 f0 9d be
       -0.06237286 0.112179965 0.30469266 -0.3084761
000190 85 e6 5a 3e c1 9b eb bd 3a dc 65 3d 3e 46 6d 3b
       0.21376999 -0.11504317 0.056118228 0.0036205198
0001a0 49 81 3a be ed b0 45 bd 52 ee a9 bd 2e 83 90 be
       -0.18213381 -0.048264433 -0.08297409 -0.28225082
0001b0 46 aa b3 3d bb 15 0b bd 8a 13 aa be c8 07 11 be
       0.087727115 -0.03395627 -0.33218032 -0.14163125
0001c0 25 2f 0e be 9d ae d8 bd f7 38 8b 3e db 20 fe bc
       -0.13885172 -0.1058018 0.27191898 -0.031021526
0001d0 b6 d9 8f 3e b9 0d 9e be bb 7e de 3e b4 d2 9a 3e
       0.28095788 -0.30869845 0.43456063 0.3023888
0001e0 4f 8d 00 3e a9 37 01 3e 0e 95 c8 be 48 ce 72 3d
       0.12553905 0.12618889 -0.3917622 0.059278756
0001f0 51 71 3c ba ca 58 8e be 2a 16 55 3b c1 90 25 bd
       -0.00071885163 -0.27802116 0.0032514432 -0.04042125
000200 24 93 9d 3e 4c f9 bf bd ad 68 15 bd 8f 67 83 3e
       0.30776322 -0.093737215 -0.03647678 0.25664946
000210 98 55 13 3e a8 e7 36 be 89 9b 6a be e5 31 1f be
       0.1438812 -0.17861807 -0.22910894 -0.15546377
000220 83 1e 5d be d4 90 5b 3e 3c 19 ee 39 53 74 2c be
       -0.2159367 0.21441966 0.00045413699 -0.16841249
000230 38 cd b5 3d 47 46 13 3e c4 ff 32 3e 65 5d 37 3d
       0.08877033 0.14382277 0.1748038 0.044766802
000240 ad 03 c6 3e ba 95 c3 3e 1d 3a 1f 3c da 8d 8a 3e
       0.3867468 0.3820017 0.009718445 0.2706135
000250 d9 28 ba be 25 ec 8b 3e 19 de e9 3d 1a 21 3e be
       -0.3635929 0.273286 0.11419315 -0.18567315
000260 9c e3 74 be d0 d3 9f be cf d6 16 be df e7 f7 bd
       -0.23914951 -0.31216288 -0.1473038 -0.12104773
000270 10 6a ab 3e 7e 8a 9e be 04 c2 9d 3d 66 d1 b9 bd
       0.33479357 -0.30965036 0.07703021 -0.09073143
000280 d2 c0 4c be ab c1 99 3d fa 70 4e 3e 47 9b 69 be
       -0.1999543 0.07507642 0.20160285 -0.2281314
000290 44 fc 9f be 19 89 bc 3e 62 e9 fb bd 5f 32 8c 3e
       -0.3124715 0.36823347 -0.123003736 0.2738218
0002a0 b0 78 c0 b9 ba 5d 44 3d 45 05 9a 3e 43 3c b8 bd
       -0.00036711013 0.047940947 0.30082145 -0.08995869
0002b0 3e bb 70 bd 90 04 32 3e c9 92 19 3e c5 28 f2 3e
       -0.058772318 0.17384553 0.149974 0.4729673
0002c0 ae ec 0b 3e ef 57 0c 3e 0a b9 46 3e a8 df 39 be
       0.13664505 0.13705419 0.19406524 -0.18151724
0002d0 34 c5 ca be 27 17 58 be bc 1b 41 be b3 77 bb be
       -0.3960358 -0.21102582 -0.18858236 -0.3661476
0002e0 9d 45 0e 3e 07 67 d2 bd d8 d2 b3 3e 29 3e e5 bd
       0.13893743 -0.10273557 0.351218 -0.11193497
0002f0 94 dd 85 3d fe 49 c1 3e 7e a1 8e 3d a9 ff 59 3e
       0.06536403 0.37751764 0.06964396 0.21288933

init_layer.0.bias f4 [64]
000000 01 44 91 3e e0 41 44 bb b1 a8 a4 3d cf 83 85 be
       0.28372195 -0.002994649 0.08039988 -0.26077124
000010 e5 62 11 3c 55 ef d4 3c 75 14 15 3e c5 d0 46 3e
       0.008873676 0.025993029 0.14558585 0.19415577
000020 d4 64 12 be 24 1c 28 be 89 af a2 3e 99 19 0a 3e
       -0.14296275 -0.16416985 0.31774548 0.13486327
000030 5f eb 38 3e b7 45 ab 3e ad 30 72 bd e4 86 88 3e
       0.18058537 0.33451626 -0.059128452 0.26665413
000040 92 84 ab 3e d0 b3 05 3e d6 07 80 3d 16 9c a6 3d
       0.3349958 0.13056874 0.062514946 0.0813524
000050 23 a4 1e 3e 8b b1 a7 3c da f3 7c 3e 0b c9 a9 3d
       0.154923 0.020470401 0.24702397 0.08290299
000060 5d d0 0a 3e 20 03 2d be 6d ca 0b 3e 93 0d 50 bd
       0.13556047 -0.16895723 0.13651438 -0.050794195
000070 38 4f a3 be ba 4d 7c 3e 03 92 df bd 20 78 d6 bd
       -0.31896377 0.24639025 -0.109165214 -0.10472131
000080 c6 bf fa bd b1 28 3f 3e 3c c9 25 3e 77 56 78 3e
       -0.12243609 0.18667866 0.16190046 0.24251734
000090 51 f8 71 be c6 13 00 be 87 95 96 be d6 45 c4 bd
       -0.23629881 -0.12507543 -0.29410955 -0.09583633
0000a0 5c 22 b8 be 17 7c 85 3c a4 80 48 be 7d b9 96 bd
       -0.35963714 0.016294522 -0.19580323 -0.07359598
0000b0 78 72 0a 3e 53 2c 61 3d 0c 91 21 be be 15 7c bd
       0.13520229 0.05497391 -0.15777987 -0.061544172
0000c0 75 1e 37 bd 7f 7d 4d 3e 8f 87 31 be 7e d6 0c be
       -0.04470678 0.20067404 -0.17336868 -0.13753697
0000d0 9f 15 09 be cd 47 13 be e8 63 dc 3d df 84 09 3e
       -0.13387154 -0.14382859 0.10761243 0.13429593
0000e0 26 b4 6b 3e 56 7f 3a 3d 3d 54 11 3d bc 23 61 be
       0.2301794 0.045531593 0.035480727 -0.21986288
0000f0 42 77 b7 3d 50 ad c2 bd 22 b5 12 3e 41 33 47 3d
       0.089582935 -0.09505713 0.14326909 0.048632864

hiden_layers.0.weight f4 [64, 64]
000000 d8 54 82 be 9d dd 14 be c4 71 5c 3d 08 17 98 3e
       -0.25455356 -0.14537664 0.053819433 0.2970507
000010 27 ea fa bd d5 cb ab bd d9 52 bb 3d 07 d5 47 be
       -0.12251692 -0.08388487 0.09146661 -0.19514857
000020 b3 5a 88 3e f9 0b 69 3d b6 90 e7 bd ee 2f a7 3d
       0.26631698 0.056896184 -0.11306898 0.08163439
000030 e0 c1 16 be 01 ab e5 3d 26 30 a3 3e 0c 2e f3 be
       -0.14722395 0.11214257 0.31872672 -0.47496068
000040 37 f5 86 bd 77 03 16 be dd 74 00 be ae 14 79 be
       -0.0658974 -0.14649759 -0.1254458 -0.24324295
000050 98 6a 6c be 75 5f 11 3e cd 59 40 be f8 26 03 bf
       -0.23087537 0.1419657 -0.18784256 -0.51231337
000060 be 5e 13 3e 5a fb 73 3d 22 e4 00 be 74 21 40 be
       0.1439161 0.05956588 -0.12587026 -0.18762761
000070 bb c2 fe bc dc e6 10 be ca 89 5c be e8 ac 15 3e
       -0.031098714 -0.14150566 -0.21536937 0.1461674
000080 06 35 8c 3d 29 fd 97 be 2f 41 79 3b d6 ad 48 be
       0.06846051 -0.29685333 0.0038033237 -0.19597563
000090 2c e5 e8 39 67 b2 40 bc 6c ca c9 3e fa 7d 7a 3e
       0.00044421235 -0.011761284 0.39412248 0.24462119
0000a0 32 86 32 3e 3d 02 3b be 64 03 98 3e 3b 52 45 3d
       0.17434004 -0.18262573 0.29690087 0.048174124
0000b0 f0 a5 40 be 76 34 dd bd c3 61 2d 3e 81 32 96 bd
       -0.188133 -0.10801022 0.16931824 -0.073338516
0000c0 a7 2e b6 3e d3 80 3d be 95 76 a8 bd 0a 07 11 3d
       0.35582468 -0.18506174 -0.08225743 0.035407104
0000d0 4d fa b3 3e 2b 5c d1 3c c6 39 89 3c 47 15 84 3e
       0.35151902 0.025556644 0.016751181 0.25797483
0000e0 b4 2b 24 be 42 ff c9 bc 88 97 53 be 65 86 62 3e
       -0.16032296 -0.02465785 -0.20663273 0.2212158
0000f0 32 ba 17 bd 52 68 4e be 30 e1 9e bc 00 e3 a7 bd
       -0.037042804 -0.20156983 -0.019394487 -0.08197594
000100 b2 52 b2 bc 11 e4 7f be c2 64 f3 bd 8b 67 05 be
       -0.021767948 -0.24989344 -0.118844524 -0.1302778
000110 d5 77 84 be 5c f7 2d be fe ea 4a 3e 1b 6f 23 be
       -0.25872675 -0.16988891 0.19816205 -0.15960352
000120 0a 4b e6 bd d0 5e 02 bf 76 bc e9 3e 4c f0 2d 3e
       -0.11244781 -0.5092592 0.45651597 0.16986197
000130 7e cb 66 3e d5 fe 87 3d 23 5b 92 3d 63 bd c9 3e
       0.22538564 0.06640402 0.07146289 0.39402303
000140 2b ec 14 3d b1 92 a3 3e d6 a6 22 3e d9 76 ee 3d
       0.03635804 0.31947854 0.15883955 0.11643762
000150 fa 05 b9 3e 9f 20 db bd 33 5a a9 3e 07 3e 60 3e
       0.36137372 -0.10699581 0.3307663 0.21898662
000160 df 2c 03 be 82 c5 83 bd d2 64 5f 3e e8 93 24 bd
       -0.12810086 -0.06434156 0.21815804 -0.040180117
000170 a9 a7 e9 3d c0 7c fd 3d 0c ba 29 be ce ef b7 be
       0.11408932 0.1237731 -0.16574878 -0.35925144
000180 49 7f 43 be 45 d8 34 3e 80 d1 37 3f 31 33 ef 3e
       -0.19091524 0.17660625 0.71804047 0.46718743
000190 fc da 56 3e a8 8b f5 bd 39 77 ba be 60 d7 a1 3c
       0.20981973 -0.11989528 -0.36419085 0.01975602
0001a0 d8 ff ac bd 37 2d 10 3e c2 cd 0b bf d4 31 9f be
       -0.08447236 0.14079748 -0.54610837 -0.31092703
0001b0 c7 62 8b 3e 70 22 81 be 34 7d dc bd 31 2f 54 be
       0.272238 -0.25221586 -0.10766068 -0.20721127
0001c0 c4 cc 3d be 31 7c 30 bd ab 7d e1 bd 99 a5 b8 bd
       -0.18535143 -0.04308719 -0.110102974 -0.0901596
0001d0 29 b1 66 3c 44 b2 b1 be f5 08 8b 3e aa fc 17 3e
       0.014080324 -0.34706318 0.2715527 0.14842477
0001e0 76 80 48 be fc 5e 58 be 60 97 37 be a0 c4 29 be
       -0.19580254 -0.21129984 -0.17928839 -0.16578913
0001f0 e8 e2 a1 3e 15 f7 1d 3e d6 71 85 3e a1 44 16 be
       0.31618428 0.15426286 0.26063412 -0.14674617
000200 20 03 cf 3d 15 18 2a be e9 f9 82 3e 3b aa 15 bd
       0.10108018 -0.16610749 0.2558129 -0.036539298
000210 68 9d 84 be c4 c9 bf 3d 4f 59 cd bd e6 d0 96 be
       -0.2590134 0.093646556 -0.100268 -0.29456252
000220 f3 ff 80 3d 6b fb e4 bc 87 1c 99 bc 06 c4 da 3d
       0.062988184 -0.027951917 -0.01869036 0.1068192
000230 59 35 10 3e b7 03 70 be 59 2f 79 3e b3 c4 f9 bd
       0.1408285 -0.23438917 0.24334468 -0.121957205
000240 0e 36 0d be b3 94 8a be 3d d5 35 3d 4d 08 16 bd
       -0.13790151 -0.27066574 0.044392813 -0.03662901
000250 d2 2b fd 3a 2f b4 01 be dc ab 01 be 62 10 b6 bd
       0.0019315428 -0.12666391 -0.12663215 -0.088898435
000260 2d 45 6f bc 9a ee 2b be 95 ab af bd 3b fa a6 3e
       -0.014603895 -0.16790238 -0.085776486 0.32612786
000270 ee 6c f6 bb 51 50 07 be 45 4f cb 3e c5 73 57 3e
       -0.0075203096 -0.13214232 0.39708915 0.21040256
000280 fa 29 4a be 31 64 f9 bd 2b 85 40 3e 1b 58 5c 3e
       -0.19742575 -0.12177313 0.188008 0.21517985
000290 c5 e7 59 bd d4 ab 2c bc 73 b5 0a bd e4 37 34 3d
       -0.05319955 -0.010539014 -0.03386445 0.043998614
0002a0 a5 ee 39 be 5c e1 07 bd 63 a0 41 3e fd 62 6d 3e
       -0.18157442 -0.033173904 0.18908839 0.23182292
0002b0 c5 00 56 3e cf e9 e1 3d ae 10 1d 3d d1 d5 d1 bd
       0.20898731 0.110309236 0.038345985 -0.1024586
0002c0 ac dd 00 be 65 ee 8e 3d 7a 0f 0d bd d5 f2 15 3e
       -0.12584561 0.06979064 -0.034438588 0.14643414
0002d0 10 ac 64 3d ea 9f d4 3d 72 1c f4 bd 41 ec 9c bc
       0.055828154 0.10382064 -0.11919488 -0.019155623
0002e0 b0 3c 89 be 70 ee 43 3e 12 bb c8 be e5 70 36 be
       -0.26804113 0.19133925 -0.39205223 -0.17816503
0002f0 2e 68 8a 3e 55 48 61 bd df e6 74 be eb 91 85 3d
       0.27032608 -0.05500062 -0.23916195 0.06521972
000300 f0 f8 48 be d8 ca 84 3d 95 cb aa 3d 99 1e 6d bd
       -0.19626212 0.06484002 0.083396114 -0.05789051
000310 73 f9 c5 3c 77 d9 20 be 91 1e 3b be 56 ea 9b be
       0.024166798 -0.15707956 -0.18273379 -0.30452222
000320 6b 2c 92 bd 8d 57 4b be b8 e7 1d bd a9 bc c3 3d
       -0.07137378 -0.19857617 -0.038551062 0.095574684
000330 f6 a4 50 be 0b 14 1f bf a6 fd a9 3e 35 26 d4 bd
       -0.20375428 -0.6213996 0.3320133 -0.1035885
000340 17 ce f4 be ac fd 68 3e 2a bb 87 3e 61 8d 43 bd
       -0.47813484 0.22753018 0.26509982 -0.04774225
000350 3d 3e 6c 3e 4e d2 e4 3c 1c 80 17 be 1b 2a 82 be
       0.23070617 0.027932312 -0.14794964 -0.2542275
000360 b2 05 8e bd b3 6c 4b 3e da a8 82 be 28 11 04 be
       -0.0693468 0.19865684 -0.2551945 -0.1289717
000370 f9 e4 ca 3e de 67 dc be 98 68 a1 bc c0 b8 2a bd
       0.39627817 -0.43047994 -0.019703194 -0.041680098
000380 37 b0 41 be 65 a2 47 bc 26 95 07 be 2c 10 f7 3c
       -0.18914877 -0.012184714 -0.1324049 0.030159079
000390 b8 5e b1 3e ec 89 53 3c a6 0f 9c bb e6 1b 19 be
       0.34642577 0.012911301 -0.0047626076 -0.14952049
0003a0 99 e0 54 3e 1a 56 b3 3d 10 b4 0d 3d d3 19 fb 3d
       0.20788802 0.08756657 0.03459555 0.12260785
0003b0 c7 5a cd 3d a4 93 03 be 3d d7 fa 3d 63 f3 95 3d
       0.1002708 -0.12849289 0.12248085 0.07321813
0003c0 77 7c 9f 3e 63 d9 91 bd 98 a0 f2 3e 92 08 61 3d
       0.31149647 -0.07121541 0.47388148 0.054939814
0003d0 64 0a fc 3c 19 a5 1d 3e 31 f2 89 3e 27 38 2c bd
       0.030766673 0.15395011 0.2694259 -0.04204574
0003e0 a5 ce 07 bf f9 ae 7c be 86 29 83 3c 82 c0 02 3f
       -0.5304969 -0.24676122 0.01601101 0.51074994
0003f0 24 62 86 bc f8 1f 40 3c 5a dc e4 bd cb 44 2b be
       -0.016404219 0.011726372 -0.11174841 -0.16725461

hiden_layers.0.bias f4 [64]
000000 b5 b3 ad bd 3d 94 90 3e f1 d5 2e bd 14 26 59 be
       -0.08481542 0.28238097 -0.0426845 -0.21205932
000010 73 61 2b 3d 51 0f 94 bc 8b 0d e4 3d 4f c1 19 bd
       0.04184098 -0.01807371 0.111353956 -0.03753787
000020 b0 38 93 36 90 40 06 be cb 4c 22 be fe 83 1f 3e
       4.3875407e-06 -0.13110566 -0.15849607 0.15577695
000030 18 87 a9 3d 8f 31 ec bc f9 05 b3 3b 8e 4f e5 3d
       0.0827772 -0.028832225 0.0054633585 0.111968145
000040 ca 5b 38 bd d4 34 2d 3d ca 15 d7 3d e9 87 83 be
       -0.045009412 0.04228671 0.10502203 -0.2568963
000050 5e 93 6d be 9c 4f 6d 3d 2c 5c 29 bd 2b d5 81 3d
       -0.23200747 0.05793725 -0.041347668 0.06339487
000060 e0 c2 02 3e 5f 63 96 3d 27 9c c2 bd ae ff 7d bd
       0.12769651 0.07343172 -0.0950244 -0.062011413
000070 0c 39 c9 3d c0 94 45 3d 2f 7e 47 bd f7 14 ac 3d
       0.09825334 0.048237562 -0.048704322 0.08402436
000080 d5 7c 77 3d 9f de 29 bd 8b 32 19 be 20 a3 3d bd
       0.060421783 -0.041472074 -0.14960687 -0.046298146
000090 d3 e3 aa bd 66 95 00 3d 56 9b dc bd 56 af 71 bd
       -0.08344235 0.031392477 -0.107718155 -0.059005104
0000a0 96 be b4 be 02 44 0c be b5 dc 0a 3e 49 11 ec bd
       -0.35301656 -0.13697818 0.13560756 -0.115267344
0000b0 6b 3b 75 3c 62 c1 c6 3d 11 b4 30 bc b8 12 80 3c
       0.01496778 0.097048536 -0.010785119 0.015633926
0000c0 6d 77 d5 3d e3 f8 69 bd ac 42 64 3e fb 03 d7 3d
       0.10423169 -0.057122122 0.22291058 0.10498806
0000d0 6f 45 a9 bd 87 4a db bd 48 b2 2d bc 23 d3 89 3c
       -0.082651965 -0.10707574 -0.010601588 0.01682431
0000e0 ce 59 01 be 94 a5 c5 3c 93 fc 19 bd b0 14 c0 bd
       -0.12631914 0.024126805 -0.03759439 -0.09378946
0000f0 43 f9 88 be 4d e5 ad 3d 90 76 f2 bd c6 71 7c 3d
       -0.26752672 0.08491001 -0.1183902 0.06163194

hiden_layers.1.weight f4 [64, 64]
000000 8d 33 f6 bc 45 d6 6f 3d e5 2d a9 be 29 94 2e 3d
       -0.030053878 0.058553953 -0.33042827 0.042621765
000010 b0 d4 8e be fb fb 5c 3e 53 1f e2 bd de 2c 18 be
       -0.27896643 0.21580498 -0.11041131 -0.14860865
000020 66 1c bc 3d 98 2a 99 bb 69 e6 35 bc 14 f2 19 be
       0.09185104 -0.004674267 -0.011102297 -0.15033752
000030 25 a0 dd 3d 6f 62 11 bd 31 77 2a bd df 24 a8 bd
       0.10821561 -0.035494264 -0.041617576 -0.082101576
000040 ce cd 0f 3d 25 fc 63 3e f3 85 3f 3d 59 a9 f1 3d
       0.03510838 0.22264154 0.046758603 0.117998786
000050 ef 4b 5a 3e b6 db af bd 89 66 3b 3d e5 8d 15 be
       0.21318029 -0.085868284 0.045752082 -0.1460491
000060 fe 10 57 bd 0d f0 4f be 52 7f e0 bd dc 49 3d 3e
       -0.05250644 -0.20306416 -0.109617844 0.18485206
000070 22 61 23 3c a8 a7 ed bb 47 ec ed bd 25 ca 52 3d
       0.009971889 -0.007252652 -0.11617332 0.05146231
000080 9a ed 98 be 54 0e 72 3e 7a 0b 33 be c2 af 45 be
       -0.29868776 0.23638278 -0.17484847 -0.19305328
000090 eb 4d bc bd 60 f1 07 bd 79 45 88 bd 82 1c 0d 3e
       -0.09194549 -0.033189178 -0.06653876 0.13780406
0000a0 3d f3 3d 3d 21 54 23 3e 32 05 2a be 12 94 36 3e
       0.04637455 0.15950061 -0.16603544 0.17829922
0000b0 a8 41 5e 3e a8 64 a5 3d 24 e0 2b 3e c2 b0 3a be
       0.21704733 0.08075839 0.16784722 -0.1823149
0000c0 62 d7 b9 3c 1d 94 18 be 9c fb 19 be 75 88 07 3e
       0.02268571 -0.1490025 -0.15037388 0.13235648
0000d0 f1 eb cb bd 81 73 a3 bd 80 9a 22 3b bd bc 64 be
       -0.099571116 -0.07981015 0.0024811327 -0.22337623
0000e0 18 6c 70 3e a4 87 07 be 2c e3 53 be 57 fd a5 3d
       0.23478734 -0.13235337 -0.20692128 0.08104961
0000f0 05 fc 6c 3d 97 21 ad 3d 8b b6 87 3c 07 57 d6 bd
       0.057857532 0.084536724 0.016566535 -0.10465818
000100 5b 05 7b 3e 61 5e b5 3c 81 09 d1 3c fc ea ef bd
       0.24513762 0.02213973 0.025517227 -0.117147416
000110 a7 86 96 bd 3a f3 65 bd 22 fe 6e bb 51 26 a3 be
       -0.07349902 -0.056140162 -0.0036467393 -0.3186517
000120 f7 3f d8 3d 5e be c3 bf 25 62 47 3c 0f 1b 81 3e
       0.10559075 -1.529247 0.012169396 0.25215957
000130 df 0e 37 3d 80 2d 69 bd ab f0 a1 bd ea 00 dd bd
       0.044691917 -0.056928158 -0.07907232 -0.1079119
000140 c4 e4 99 bd d0 56 ed bd 1d 28 81 3d a0 f7 a4 be
       -0.07514337 -0.11588824 0.06306479 -0.32220173
000150 cd ae ff 3c 61 56 b5 3d 8e b9 1e be e5 81 2a 3e
       0.031211281 0.08854366 -0.15500471 0.16651113
000160 be 95 85 bd 37 8f 1c bd 52 d4 44 3d 23 c2 67 3d
       -0.06522702 -0.038222518 0.048054047 0.056581628
000170 2b 65 83 bd 9e 43 62 3e 0c 62 6b 3d 4d a2 e8 3d
       -0.06415781 0.22096106 0.05746655 0.113590814
000180 80 63 77 3e aa 0b cc 3c a4 0c 1d be 9b e2 cf be
       0.2415905 0.024907906 -0.15336853 -0.40602574
000190 ba 17 de be ae 46 72 3d 82 30 ad bc df 55 0f bf
       -0.43377477 0.059149437 -0.021141294 -0.55990404
0001a0 cd 9d 2b bf 4b 43 8c bd cc ff 1f 3e 27 76 a0 be
       -0.6703766 -0.068487726 0.15624923 -0.31340143
0001b0 c3 50 b6 bd 00 46 61 3e 95 0f b2 3e 4b 9b c6 be
       -0.08902123 0.21999359 0.34777513 -0.38790354
0001c0 94 ae c1 3d ea 3f 1c 3e 6b b9 3b be 8c 5f bd 3d
       0.09457126 0.15258756 -0.1833245 0.0924674
0001d0 46 93 08 be 2b 51 f7 3d 22 29 b5 3e 6d 6f b7 3e
       -0.1333743 0.120760284 0.35382944 0.358272
0001e0 34 9f 1d be b8 6c 02 3f 25 21 30 3c 25 e5 65 3d
       -0.15392762 0.5094714 0.01075009 0.056126732
0001f0 89 dd 98 3d b8 16 dd bd 1c 5b 68 be 13 eb 98 3d
       0.074641295 -0.10795349 -0.22691005 0.07466712
000200 8a bd 02 3e 3c 33 77 3e c2 18 4f 3e 2a 74 13 3e
       0.12767616 0.24140638 0.20224288 0.14399782
000210 d9 c9 4b 3d 4c ff cd 3d dd 08 00 be 45 59 3c 3e
       0.049753044 0.1005846 -0.12503381 0.18393429
000220 dc f5 50 3e 57 1a fa bc 3c fa 42 be 93 cb 45 3c
       0.20406288 -0.030530138 -0.1904077 0.012072462
000230 e3 a8 21 3e 19 82 9b 3c 36 03 dd 3d 8d c0 23 3e
       0.15787081 0.018982934 0.10791628 0.15991421
000240 f9 bb e4 bd 89 02 b4 bd 63 0e c7 3d 77 20 69 bb
       -0.111686654 -0.08789546 0.09719541 -0.003557233
000250 9d f6 e9 bd fb 57 d5 bd 13 b5 c6 bd 63 8f 2d be
       -0.11423991 -0.104171716 -0.09702506 -0.16949229
000260 00 c7 75 3d 36 a7 b2 3e 24 04 9f be 0b ab 82 be
       0.060004234 0.34893197 -0.31057847 -0.2552112
000270 70 49 e4 3d 09 e2 0d bd 6b 19 f8 3d 1c 56 8f 3e
       0.111468196 -0.034639392 0.12114223 0.27995384
000280 b5 2d 60 bc 0e 89 20 be 5a fe f0 bd 9e ae ac bd
       -0.013682772 -0.15677282 -0.11767264 -0.08431743
000290 72 5d 2a bd 38 af 44 be 0a 1b 74 bd c5 9a 37 bd
       -0.041593023 -0.19207466 -0.0595961 -0.044825334
0002a0 86 3d 35 be 87 1f 73 be af 62 b9 be bf d4 f1 bd
       -0.1769925 -0.23742495 -0.36208102 -0.11808156
0002b0 6f 69 26 3e 72 fc 32 3d 91 04 16 be e8 cd 0e bd
       0.16251157 0.04369778 -0.1465018 -0.034864336
0002c0 fe 83 97 3d 98 40 8a bd 42 fb e4 3a 7b cd 83 be
       0.073982224 -0.067506015 0.00174699 -0.25742707
0002d0 6f 97 22 3d c3 b4 76 bd 69 f7 f6 3d a5 08 98 3c
       0.0396952 -0.06023098 0.120589085 0.01855881
0002e0 ae 4a ae bd 14 08 2b 3e 63 b7 70 be 44 5a ce 3d
       -0.08510338 0.167023 -0.23507456 0.100758106
0002f0 fa 91 1d bd 86 99 2a 3d 6a 19 2a 3e ff c0 48 bd
       -0.038469292 0.041650318 0.16611257 -0.04901218
000300 3d 8a 26 3e b0 09 4c bd 86 f0 eb bd 47 57 fe 3d
       0.16263671 -0.049813926 -0.115204856 0.124189906
000310 8b 1b 53 3e d1 31 33 be da 45 6c bd da d2 d5 bd
       0.20615976 -0.17499472 -0.057683803 -0.10440607
000320 15 fd cc bd b4 33 cb bc e4 57 04 be 68 4b 92 3e
       -0.10009209 -0.024804927 -0.12924153 0.28573155
000330 c7 66 8c 3e d9 16 7f 3e e4 b8 72 3d 6e 9d 30 3e
       0.27422163 0.2491106 0.059258357 0.17247555
000340 0f af 24 3c eb d7 ef bd ab e8 c2 3d b9 c6 1f 3e
       0.010051503 -0.11711105 0.09517034 0.1560315
000350 17 b9 0e 3d 31 45 35 be 7f 0b fb 3c 08 f8 92 3d
       0.034844484 -0.17702176 0.03064513 0.071762145
000360 71 b2 22 3e 6d cd 95 3d 40 e4 31 39 58 ee f0 bc
       0.15888382 0.073145725 0.00016965065 -0.029410526
000370 ad 06 19 3e 8c ef 4b 3e 27 d6 03 3e ac 34 5b 3e
       0.14943953 0.19915599 0.12874661 0.21406811
000380 11 c8 85 3e b6 62 bc bc 63 01 d0 bd 0d 9e 85 3c
       0.261292 -0.022996288 -0.101565145 0.016310716
000390 27 8d d0 3d 60 7d d0 3d c8 d8 0e 3e 67 9c 52 3e
       0.10183173 0.101801634 0.13949883 0.20567475
0003a0 55 2b 5f 3e 62 0b 9b bd 4a 8d 0f 3e fa 23 77 3d
       0.21793874 -0.075705305 0.14018741 0.060337044
0003b0 c4 d2 02 be 81 e3 0a be 60 95 1c be 9d aa 8f bd
       -0.12775713 -0.13563348 -0.15291357 -0.07014964
0003c0 39 59 aa 3c 96 40 b2 3d d3 ab 28 be d5 5c e3 3d
       0.020794498 0.08703725 -0.16471796 0.11101691
0003d0 cf e8 1a 3e 8a e5 e4 bd c0 e9 a3 be db 2a 75 3a
       0.15127872 -0.111765936 -0.32014275 0.0009352394
0003e0 36 ee 24 be df 46 70 bd 85 dd 0f 3e ea 7c c8 3c
       -0.16106495 -0.058661338 0.14049347 0.024473626
0003f0 2e 39 22 be 11 62 4f 3e c9 cd 81 3d e1 97 45 be
       -0.15842125 0.20252253 0.063380785 -0.19296218

hiden_layers.1.bias f4 [64]
000000 24 2b 6b bb d5 88 6e bb 8e 4c 2c 3d 2f c2 1a 3d
       -0.0035883868 -0.0036397476 0.042065196 0.037782844
000010 0a 86 f6 bd d5 73 b7 3d 93 b7 11 bd ab d6 cf bd
       -0.12037285 0.0895764 -0.03557546 -0.101483665
000020 fd a3 f0 bd 48 fc 99 3d 9c aa 34 3b e7 36 c3 bd
       -0.11750028 0.07518822 0.0027567511 -0.09531956
000030 e2 0f 1f be d2 69 16 bc 36 78 06 be 77 32 9f bb
       -0.15533403 -0.009180503 -0.13131794 -0.004858311
000040 d8 ec d0 bd 3d 1a 19 bd bf 4e 73 3d 86 a8 23 be
       -0.10201424 -0.03737854 0.05940127 -0.15982255
000050 82 b4 b9 bd 0a 2b a6 3d 42 6f 67 3d f6 55 8d 3b
       -0.09067632 0.08113678 0.056502588 0.004313226
000060 c0 8f 19 bb 4c d8 e1 3d bc f3 c5 3c 4f c8 86 3d
       -0.002343163 0.110275835 0.024164073 0.065811746
000070 ae e0 b1 bd b4 10 87 3d ba 43 8b ba 66 c8 46 bc
       -0.086854324 0.06594983 -0.0010625042 -0.01213274
000080 c0 6d dc bd 52 96 47 be 1b 3f ae 3b 8f 19 ad bd
       -0.10763121 -0.19490936 0.0053175814 -0.084521405
000090 0b 87 a6 39 30 fa d8 bd d0 24 21 bd c2 87 bc bd
       0.00031762602 -0.105945945 -0.039341748 -0.09205581
0000a0 db b7 67 3d c3 7a d0 bd ff 5c 96 bd 0a 78 0f 3d
       0.056571823 -0.10179665 -0.07341956 0.035026588
0000b0 e5 92 92 3d 17 74 de 3b c2 16 b8 bd a5 d4 82 bd
       0.07156924 0.0067887413 -0.08988716 -0.06388215
0000c0 94 d3 85 3c 56 75 66 3d 1e f1 6e 3c e3 0b 7a 3c
       0.01633624 0.056264244 0.014583854 0.015261623
0000d0 00 64 00 be 6b af 27 be e9 ef 0b bd 48 a3 60 bd
       -0.12538147 -0.1637551 -0.034164343 -0.054843217
0000e0 5b 3b 4e bd 5c ff 82 bd c7 31 dd 3c 6a e6 b1 3d
       -0.050349575 -0.06396362 0.027001275 0.08686526
0000f0 40 e0 08 bd 04 98 16 be 41 17 13 3d 75 cd cb bc
       -0.033416986 -0.14706427 0.03591085 -0.024878243

hiden_layers.2.weight f4 [64, 64]
000000 dc 4b c8 bd d6 17 a3 bd 49 42 37 bd 13 2e f4 bd
       -0.09780094 -0.07963531 -0.04474095 -0.119228505
000010 72 b0 67 3e 1b d7 82 bf d0 42 b5 bb c0 08 40 bd
       0.22625902 -1.0221895 -0.0055316463 -0.046883345
000020 c1 a4 c2 bd fc ae 4d be 70 b5 47 bd 7b 0f 17 3e
       -0.095040806 -0.20086282 -0.048757017 0.14751999
000030 36 91 2d 3d 5f 53 c9 3f 80 c0 04 be 6d 79 f9 3b
       0.042374812 1.5728568 -0.12964058 0.007613352
000040 9d b5 38 3e 4f 1a 18 be 58 98 8d be e6 a6 97 be
       0.1803803 -0.14853786 -0.27655292 -0.2961952
000050 f6 9b 88 3e 43 04 e2 bf 31 b3 de be 8c 90 57 3c
       0.2668149 -1.765755 -0.43496087 0.013157021
000060 42 de 25 3f 18 46 a5 be f3 13 92 be 23 ff 17 be
       0.64792264 -0.3228004 -0.28530845 -0.1484342
000070 db b5 5b 3e e7 2e 74 be 67 4a 4f 3d c4 16 0d 3e
       0.21456091 -0.23846017 0.050608065 0.13778216
000080 ec cd 9a 3d 64 b0 72 3e 53 5c 06 bf 53 5e 60 be
       0.07558808 0.237001 -0.52484626 -0.21910982
000090 0d dd 6e 3e 64 fc e1 3e 5c 70 cd 3e 46 c8 9d 3b
       0.23326512 0.4413787 0.40124786 0.004815134
0000a0 e6 5a 7a bc d8 e9 80 bd 1d 6f 95 3e 62 74 19 3d
       -0.015280461 -0.06294602 0.29186335 0.037464507
0000b0 8c 76 8d 3e 0c 14 27 3d 85 e3 ea 3c 09 a1 41 bd
       0.27629507 0.040790603 0.028672943 -0.047272716
0000c0 8b 8f 5f be 01 7c 7b 3e c9 61 49 bf 4a 8a bc be
       -0.21832101 0.24559022 -0.78664833 -0.36824256
0000d0 7b 65 91 be ec 64 27 3e a2 ac be 3e 8d 72 73 3e
       -0.28397736 0.16347092 0.37241083 0.23774166
0000e0 b4 4a 98 be cc 46 e4 3e 96 d9 bf 3d c0 88 61 be
       -0.29744494 0.44585264 0.09367673 -0.22024822
0000f0 e7 b1 dc be d8 9c 7e 3f fa 79 76 3e 61 48 60 3e
       -0.4310448 0.99458075 0.24069968 0.2190261
000100 da 8b 1a 3e c6 39 83 bd a2 4d 05 3f e6 c6 05 bc
       0.15092412 -0.06407504 0.52071583 -0.008165097
000110 c0 1e 9b 3d 1f 2a fa 3e ae 7a ad 3e 38 3b bc 3e
       0.075742245 0.4886026 0.3388266 0.3676393
000120 df 10 fc 3e 27 d8 aa be 06 50 1f 3f db a0 e4 3d
       0.49231622 -0.33368036 0.6223148 0.11163493
000130 01 2d ac 3c 33 7c a5 be c5 58 95 be b2 9e 89 3e
       0.021017553 -0.3232132 -0.29169288 0.26878887
000140 86 60 f6 be df f5 22 bc 63 cb 98 be 1b a9 14 bf
       -0.48120517 -0.009946316 -0.29842672 -0.58070534
000150 36 2b d8 3e a1 39 1e 3e da dd 92 3e 12 47 4f 3d
       0.42220467 0.15451671 0.28684884 0.050604887
000160 10 6c 19 be 97 c9 52 3d 52 50 90 3e 57 bb 12 3d
       -0.14982629 0.051461782 0.2818628 0.035823192
000170 c9 c4 b2 be 08 1e 97 bb 5e f9 8a 3c 2a 5d 45 bf
       -0.3491576 -0.0046117343 0.01696461 -0.7709528
000180 0a 10 37 be fa a2 8b 3e 82 b4 d8 3d 83 22 26 3e
       -0.17877212 0.2727278 0.10581304 0.16224103
000190 b8 d8 b1 3e f9 71 55 bf 88 8e 86 3e 91 fc 54 be
       0.34735656 -0.83377033 0.26280618 -0.20799471
0001a0 c4 ee 69 3e 86 27 8a bc 21 30 95 3e 2a 04 b7 3e
       0.22844988 -0.01686455 0.29138282 0.35745364
0001b0 03 20 bf 3d 9d 2f 6e 3c ca e9 55 be 2c 1d c5 3e
       0.093322776 0.014537719 -0.20889965 0.3849882
0001c0 5f ca 05 bf 35 81 83 3e b4 90 28 3e ba cc bf be
       -0.5226192 0.25684515 0.1646145 -0.3746088
0001d0 de 9c 44 bd 23 d0 ff bd 37 34 37 bf 44 0f cc be
       -0.048001163 -0.12490871 -0.7156405 -0.39855397
0001e0 45 d0 fa 3e 2c ae b4 bd df 71 d4 bd 8d 28 25 3f
       0.48987022 -0.08822283 -0.10373282 0.64515
0001f0 34 68 00 3e 7f 4d ce 3d 1f 15 38 3e 99 d5 d1 be
       0.1253975 0.10073375 0.17976807 -0.40983275
000200 33 7d 4e 3d 5a a3 f6 bd 5e 59 fb bd df 29 b6 bd
       0.050412368 -0.120428756 -0.12272905 -0.08894705
000210 2f d8 ff 3e 4e d3 77 3e 67 40 89 3d 75 96 4a be
       0.49969622 0.242017 0.06701737 -0.19783957
000220 48 63 df be 39 b5 11 3f 6c 37 05 be 86 bf 40 3e
       -0.43630433 0.5691715 -0.13009423 0.1882306
000230 6f fe 97 3e be f7 8a bd a9 c7 81 bd bd 21 52 3d
       0.29686305 -0.06785534 -0.0633691 0.051301707
000240 f5 9c c2 bd ad 99 57 be f0 b6 9a 3e b6 39 60 3d
       -0.095025934 -0.21054716 0.30217695 0.054742537
000250 38 0d 8a be 90 98 8b 3e 1b 3f 41 3e 27 bf 9b be
       -0.2696321 0.27264833 0.18871729 -0.30419275
000260 41 55 0e be 10 e6 a1 be 9c aa f9 bd 6c b3 79 3d
       -0.1389971 -0.31620836 -0.12190744 0.060962126
000270 5f 6a 89 3e 23 da 80 3e b1 40 00 be c4 8b 86 3e
       0.26838967 0.25166425 -0.12524678 0.26278508
000280 9b 89 26 3d 87 af 94 be 12 d5 ec 3b 95 ce 33 3e
       0.040658575 -0.29040167 0.0072275484 0.17559274
000290 70 f1 a2 3e ba 1c eb bd 85 7d b5 3d 5a 23 33 3f
       0.31824827 -0.114800885 0.088618316 0.6997582
0002a0 3c 23 87 3d 28 c1 ce bc 74 2f 7f bd 91 f8 25 bc
       0.06598517 -0.025238588 -0.062301114 -0.010130064
0002b0 a3 59 71 3e 9f 72 21 3e e4 5a a7 b9 98 33 df 39
       0.2356935 0.1576638 -0.0003192044 0.00042572315
0002c0 db b6 bc 3d 38 93 57 bd 43 db 3f be 43 e0 4a 3e
       0.092145644 -0.052630633 -0.18735985 0.19812112
0002d0 c4 e2 72 be fe 5b 79 3d ed 2c c0 3e b5 1d 1d bd
       -0.23719317 0.060878746 0.37534276 -0.03835841
0002e0 48 ec a1 be 71 83 df bd 6b c8 47 be 94 06 58 be
       -0.3162558 -0.10913742 -0.19510047 -0.2109626
0002f0 fd c5 55 3d 7f 6c 7c be 4c 9e ad 3d 14 e4 c5 3d
       0.05219077 -0.24650763 0.08477458 0.09662643
000300 40 80 57 be 9e 7e 4d be 78 7e 09 bd 76 90 8a 3e
       -0.21045017 -0.20067832 -0.033567876 0.2706334
000310 8b 84 5a be 92 85 d0 bd 82 bb 5c 3d c0 e8 0f be
       -0.21339624 -0.101817265 0.05388976 -0.14053631
000320 2f 5c c2 bd 4e 92 95 3e 0e 7f fd 3d 98 a7 5f be
       -0.09490239 0.29213184 0.123777494 -0.21841276
000330 f3 86 37 3d a9 09 08 3d 70 19 5c bd c6 08 76 bd
       0.044806432 0.033212338 -0.053735197 -0.06006696
000340 ce 06 77 3e 49 f0 c1 be 9b 59 af bd 7f 7f 88 3d
       0.2412369 -0.37878636 -0.08562013 0.06664943
000350 d2 f0 b9 be 0b 25 20 3d bc ee 63 3e 57 3e 86 bd
       -0.36316544 0.039097827 0.22259039 -0.06554859
000360 4f f2 82 bd c8 1f f6 3b 89 b1 c9 3d 00 7b 1a 3e
       -0.06393873 0.007511113 0.09848315 0.15085983
000370 83 51 f3 bd d7 b1 05 3e 55 f3 1f be fd e5 04 be
       -0.118807815 0.13056122 -0.15620168 -0.12978359
000380 1a 35 2e be 20 41 1f be a8 0e 39 3e ee de 99 3e
       -0.17012444 -0.15552187 0.18071997 0.30052894
000390 b3 73 39 3c 15 72 82 3d f5 63 6b bb 6e 56 ec bd
       0.011319089 0.06369416 -0.0035917733 -0.11539923
0003a0 7b 70 37 3e f4 a6 26 be d1 e1 82 3d e9 0f 7b 3d
       0.17914002 -0.16274625 0.06390727 0.06129447
0003b0 57 bc ab 3d c7 e7 c7 bc 19 ea ef be a5 30 1f bd
       0.08385532 -0.024402512 -0.4685829 -0.03886475
0003c0 83 d6 ab 3e 55 03 69 3d cf 98 da 3d 94 c1 5a be
       0.33562097 0.056887943 0.10673677 -0.21362907
0003d0 02 5d 12 be be 68 5c be 18 5c 01 3e 41 a7 0b bd
       -0.14293292 -0.21524331 0.12632787 -0.034095053
0003e0 32 c8 86 3e e9 d3 52 be 51 47 cd bd db 23 54 3e
       0.26324612 -0.2058865 -0.10023368 0.20716803
0003f0 34 e1 c2 3d ff b7 4e be 15 8d 7d 3e 06 1a b3 3d
       0.0951561 -0.20187376 0.2476085 0.08745198

hiden_layers.2.bias f4 [64]
000000 dd f2 f1 bd 7c 5a 49 bd b2 f2 b0 3e 6d 16 7d 3d
       -0.118139006 -0.04915856 0.34560162 0.061788965
000010 5b 36 ac 3c fb 9b 89 be 10 82 be 3c 88 a9 a1 bd
       0.021022012 -0.26876816 0.023255378 -0.07893664
000020 74 54 bc 3d a5 28 ae 3d 85 de 8c ba 4f 08 8b bd
       0.09195796 0.08503846 -0.0010747468 -0.06788694
000030 7c 8a 87 3d 28 2d bb 3c e9 07 9f 3d 36 dd 34 3d
       0.06618211 0.02284868 0.077651806 0.044156276
000040 35 25 42 3d dd ab cc bd 08 15 d0 3d 1c 1b 2b bd
       0.047398765 -0.09993718 0.101602614 -0.0417739
000050 b0 d9 85 3d 7a 64 1f be fa 31 21 3d 44 08 8e 3d
       0.06535661 -0.15565673 0.039354302 0.0693517
000060 e7 4d e1 bc d3 b2 2c bd c7 9e b8 bb cb 4a 81 be
       -0.027502967 -0.042162728 -0.005634162 -0.25252375
000070 55 a5 0c be bd f7 3a 3d b6 f1 f9 3d 42 50 ff 3c
       -0.13734944 0.045646418 0.12204306 0.0311662
000080 3d ce de 3d ff 36 1f 3d c2 ab 35 bd af 31 37 3d
       0.108791806 0.038870808 -0.044353254 0.044725116
000090 97 08 80 3d a5 e7 04 3c e3 4d ef 3d bd bc 98 3d
       0.062516384 0.008111869 0.116847776 0.07457874
0000a0 8b 19 05 3d 99 0c 7d 3c 21 a9 62 3d c2 ae c8 bd
       0.032495063 0.015444898 0.055337075 -0.097989574
0000b0 6c 25 e4 3d 3d ca de 3c d7 22 c2 bb 38 69 9d 3c
       0.1113995 0.027196044 -0.0059245634 0.019215211
0000c0 f6 d5 b3 3c e1 5d 37 bd 62 2f ac 3b f7 69 c7 bd
       0.02195261 -0.044767264 0.005254672 -0.09737008
0000d0 d3 8d f9 bb 94 ad 24 bd eb d6 93 bd 95 2a 19 bd
       -0.0076157837 -0.0402046 -0.07218727 -0.037394125
0000e0 23 46 91 3d a6 0d 09 bd 59 d5 85 be a1 df 60 bc
       0.07093456 -0.03346028 -0.26139334 -0.013725192
0000f0 86 61 84 bd 8a 1a 50 bc 7f 65 14 bd d2 4c f5 bc
       -0.064639136 -0.01270164 -0.036229607 -0.029943857

hiden_layers.3.weight f4 [64, 64]
000000 a3 ca f8 bc 80 2a 41 3e 02 28 ad 3d 1d be fb 3e
       -0.030370062 0.18863869 0.084548965 0.49168482
000010 76 42 ff bd 67 d0 41 3e 64 62 8e bd d9 6e b1 be
       -0.12463848 0.18927155 -0.0695236 -0.34654883
000020 85 29 a5 3d 5a 6f 07 3e 9f fa 7d 3d 6b 4b 67 3d
       0.0806456 0.13226071 0.06200659 0.05646841
000030 ca f4 68 3e 63 4e af be d1 e9 7b 3e 4a a3 24 be
       0.2274963 -0.34239492 0.24600913 -0.16077915
000040 d6 80 b5 be 3c 6a a6 bd f5 61 82 3d b0 9f e2 bd
       -0.35449857 -0.08125731 0.0636634 -0.11065614
000050 2b 05 5e 3e 7f 77 c8 bd ea a0 34 3e aa 50 26 3e
       0.21681659 -0.09788417 0.17639509 0.16241708
000060 93 4d a8 3d e3 d1 50 3e 57 5b 2c bd 29 46 40 3d
       0.08217921 0.20392565 -0.042079296 0.04694191
000070 d4 d9 00 3e cc 06 b7 3d e4 3f 1b bd 08 65 3b 3e
       0.12583095 0.08936843 -0.037902728 0.18300259
000080 24 fb 13 3e 2f e5 8f 3d 82 5a c1 bc 15 0d 24 3d
       0.14451271 0.07026135 -0.023602728 0.04005154
000090 08 71 17 3d 53 75 ea 3d 0d e1 22 be 36 b1 36 bd
       0.03697303 0.11448159 -0.15906163 -0.044602595
0000a0 da 25 9e bd 26 51 e0 3d 3c 77 de bd 2d ff d7 bc
       -0.07722063 0.10952978 -0.10862586 -0.026366794
0000b0 55 5c 12 3d d9 e1 ba 3d 6e e0 ba bc 73 dc 88 3c
       0.035732586 0.09125108 -0.022812095 0.01670668
0000c0 68 ba a5 3e ad 21 f7 bd 8a a8 21 be 40 f2 db bd
       0.3236878 -0.1206697 -0.15786949 -0.10739565
0000d0 fb 4d 8b 3e 45 c9 54 3e 03 c6 81 3e 71 78 1a be
       0.27207932 0.20779903 0.25346383 -0.15085007
0000e0 67 21 bc 3d 25 71 a0 3d e9 e8 46 bd 7f ed 64 3e
       0.091860585 0.078340806 -0.048561964 0.22356223
0000f0 73 ef 6e 3e d9 8d 0c 3e 57 7f ca bd ff d1 8a 3e
       0.2333353 0.13725986 -0.098875694 0.2711334
000100 36 ba f0 bd be f8 8c bd 09 1b 97 bd 86 72 c5 3d
       -0.11754267 -0.06883381 -0.073782034 0.09640984
000110 4c b2 6c bd 5e 9d d5 3d 7e 68 aa be 07 39 2a 3e
       -0.057787225 0.10430406 -0.33282846 0.16623317
000120 ff 65 96 bd 9a 1c 3c be 9c 6a b2 3e b9 e8 2d 3d
       -0.07343673 -0.18370286 0.34846961 0.04245827
000130 6f d2 5b 3e 38 be 4f 3d fb 37 81 bd 41 b7 53 3d
       0.21466993 0.050718516 -0.063095056 0.051688436
000140 65 60 80 bc 56 8f 78 bd 55 e1 2e 3e 37 be d9 3d
       -0.015670964 -0.06068357 0.17078145 0.10631984
000150 f2 1e 6a 3e 7c f6 fd bd 18 f6 d7 bd 7e 6d 18 3e
       0.22863367 -0.12400529 -0.105449855 0.14885518
000160 f5 1a 37 be de 31 0e 3c a1 a3 9b 3e b4 73 5c be
       -0.17881377 0.008678881 0.30398276 -0.21528512
000170 e7 b6 66 3e ae 21 67 bc aa cb 58 be bd d6 a5 3d
       0.22530709 -0.014107151 -0.21171442 0.08097599
000180 c8 24 86 3e 89 90 21 be 1d cd 47 3e 98 c4 ea 3d
       0.26199937 -0.15777792 0.19511838 0.114632785
000190 06 92 96 bd cd 48 64 be 66 45 59 be 24 f7 f2 3c
       -0.073520705 -0.22293396 -0.2121788 0.029658861
0001a0 75 39 70 3d 3f 3b 60 3d 2c fd b1 3c 95 9a 0b 3f
       0.058648545 0.054744 0.021727167 0.5453275
0001b0 e7 36 89 bc 89 e0 c7 3d 5c d0 15 3e 38 ee fe 3c
       -0.016749812 0.097596236 0.14630264 0.03111945
0001c0 ff 2c 1f 3e 91 cf 82 be c0 ff fa bc d4 d8 2f 3e
       0.15544508 -0.25548986 -0.03063953 0.17172557
0001d0 3f 34 f7 3d 1b c6 c0 bd 3b 36 4a be 73 96 0a 3e
       0.12070512 -0.094127856 -0.1974725 0.13533954
0001e0 47 1b da 3d 1e 20 d7 bd ca b7 80 3e 7b 45 8d 3d
       0.10649734 -0.10504173 0.2514022 0.06898018
0001f0 cc 84 44 3d c9 03 52 3e a4 ea e6 bc 4b 6e 50 3e
       0.047978207 0.20509256 -0.028188057 0.20354573
000200 06 54 5c 3e b7 e6 88 3e 59 55 1f bf 91 2d 98 bc
       0.21516427 0.2673852 -0.62239605 -0.018576415
000210 5b 22 b6 be 4f 2e 5b 3e ce e8 8e bd e1 08 32 be
       -0.35573086 0.21404384 -0.06977998 -0.173862
000220 e4 38 8b bd 25 30 8a be 30 73 31 be df cd a4 3d
       -0.067979604 -0.26989856 -0.17329097 0.08047079
000230 e3 6c 62 be a7 88 36 3e 56 26 90 bd 13 62 fd 3e
       -0.2211185 0.17825566 -0.07038562 0.49488887
000240 04 59 29 bd 26 89 83 3e 3c 46 22 be 0d 2d e1 bd
       -0.041344658 0.25690573 -0.15847105 -0.10994921
000250 ed f8 77 bd b8 52 8f bd 2d c5 11 be 74 50 bb 3e
       -0.06054013 -0.06998199 -0.14235373 0.36584818
000260 e1 6c a1 3d 51 25 94 bc ad 82 31 be 50 28 c4 3e
       0.07882095 -0.0180842 -0.17335005 0.38312006
000270 3e c5 41 3e f4 c6 98 bd 85 39 04 3e 44 8c 5b be
       0.18922898 -0.07459822 0.12912567 -0.21440226
000280 91 68 1d 3d e1 de b5 bb e4 be 43 3e df b7 3a bc
       0.0384298 -0.005550251 0.19115788 -0.011396377
000290 16 9f 33 3d 05 0d ff bc 40 24 a6 bc 8a 5c ac 3d
       0.043852888 -0.031134138 -0.020280957 0.08416088
0002a0 98 be 93 3d f3 52 9f be b8 f7 c4 bc 9a 9b 98 be
       0.07214087 -0.31117973 -0.024043903 -0.29806215
0002b0 65 47 32 be ce db a4 be 34 b1 47 3c d1 6e 42 be
       -0.17410047 -0.32198948 0.012188245 -0.18987586
0002c0 02 61 24 be a5 04 8e be 7a 7a 0b 3e e0 6d dc 3d
       -0.1605263 -0.27737918 0.1362094 0.107631445
0002d0 eb 75 0b be 69 f8 df 3d 4e 3e 2f be ac cf 64 be
       -0.13619201 0.10936052 -0.17113611 -0.22344846
0002e0 44 f7 de be 11 d9 8d bd 06 3f 6d 3e b3 db 54 3e
       -0.43548024 -0.06926168 0.23168573 0.20786934
0002f0 33 aa 02 3e ae 04 92 bd 3c 39 7f 3e 15 d5 b8 3d
       0.12760238 -0.07129799 0.24924177 0.09025017
000300 9a 10 ed 3d 6d c7 58 bc 1a 52 cc bc 0d 87 94 3d
       0.11575432 -0.013231141 -0.024941493 0.072523214
000310 d4 af 83 be ff 9b 53 bd 0c fa 1f bd 33 e9 34 be
       -0.25720084 -0.05166244 -0.039056823 -0.17667083
000320 2a 94 45 3c 7e c1 89 be cd 43 78 be aa 35 a1 bc
       0.012059251 -0.26905435 -0.24244614 -0.01967891
000330 98 76 aa bd 2d 85 2d be 18 e9 ff 3d 4d 6b 50 bd
       -0.08323401 -0.16945334 0.12495631 -0.05088358
000340 12 c2 a3 be 68 c3 16 3e f5 9d 16 bc 9d f7 14 be
       -0.31984 0.14722979 -0.009192933 -0.14547582
000350 74 bb 5e bb a3 14 e7 bc 4e a7 87 3c f5 95 fc bd
       -0.0033986242 -0.028208083 0.01655927 -0.123332895
000360 52 e6 55 3e 72 65 99 3d 23 73 f9 3d 7a 7f 43 3e
       0.20888641 0.07490052 0.12180164 0.19091597
000370 1f f3 6e 3e 65 6d a2 bd 07 92 7b 3d 58 e4 c2 3d
       0.23334931 -0.079310216 0.06141856 0.09516209
000380 10 e8 16 3e 49 26 54 3e 08 01 fb bc 0b 75 b1 be
       0.14736962 0.2071773 -0.03064014 -0.3465961
000390 b9 d9 76 be fa 35 e0 bb 83 62 bb be 60 cb 06 be
       -0.24106492 -0.006842372 -0.36598596 -0.13163519
0003a0 78 3f e5 3d 3b 23 fc bd 61 ad 10 be dd b9 5d 3e
       0.11193746 -0.12311407 -0.14128639 0.21652932
0003b0 29 ad 17 3e b6 70 54 be c6 3d de 3d f1 01 6f 3e
       0.14812149 -0.20746121 0.10851626 0.23340584
0003c0 c6 13 04 be e1 78 52 3e 11 d8 62 be db 60 71 be
       -0.12898168 0.20553924 -0.22152735 -0.23572104
0003d0 12 f7 55 3d 1b e1 fc 3b a2 0f 81 3c 9d 9d 35 3e
       0.052237578 0.0077172644 0.015754525 0.17735906
0003e0 31 51 90 3e dd 89 32 3e 91 3c 00 3e 66 be 3d 3d
       0.28186944 0.17435403 0.12523104 0.046324156
0003f0 e1 19 10 3d 69 e0 78 be ca 05 6e be da 28 b2 3d
       0.03518093 -0.24304356 -0.23244396 0.08699198

hiden_layers.3.bias f4 [64]
000000 e1 71 88 3b 93 ea e8 3c 8d 86 b5 bc be 3d 42 bd
       0.004163966 0.028432166 -0.022158885 -0.047422163
000010 30 96 95 3d c8 6a b8 bd 0b e0 a9 3c 8d dd 0d bd
       0.073040366 -0.09004742 0.020736715 -0.034635115
000020 c4 da 1c 3e 5d 4e 84 3d 87 41 61 3d 9f 89 fb bc
       0.15317827 0.06460259 0.054994132 -0.030705271
000030 72 23 cc bd 63 a5 a0 bc fd a9 b1 3d 32 de 96 bd
       -0.09967698 -0.019610113 0.08675001 -0.07366599
000040 d5 6c 06 3e ab c6 dd bd 62 4e 07 3e 2c 63 88 3c
       0.13127454 -0.108289085 0.13213494 0.016648851
000050 ce 1b 38 bd 93 2a ad 3d d1 48 16 bd 30 c7 5e bc
       -0.04494839 0.08455386 -0.036690537 -0.013597295
000060 65 f2 db bc 77 6a 84 3d 00 f3 5b 39 05 43 e5 bd
       -0.026848981 0.06465619 0.00020975992 -0.111944236
000070 bc ea 12 3d 34 41 5d 3c af 1c 13 bd d4 58 10 be
       0.03586839 0.013504315 -0.035916027 -0.14096385
000080 07 44 29 bd 64 87 ea bc 1c 8b 41 be b9 5c 98 bd
       -0.04132464 -0.028629012 -0.18900722 -0.074395604
000090 66 36 7e 3d 53 fc d4 3c 98 fe 8d bb 86 39 67 3d
       0.062063597 0.025999224 -0.0043333285 0.056451343
0000a0 b7 6f c1 bd ba 7e 76 bc 47 dd b6 3d 34 85 49 3e
       -0.09445136 -0.015044862 0.08928924 0.19679719
0000b0 19 a8 b1 bc 78 d6 35 3d 22 f0 3d bd 22 80 02 3c
       -0.0216866 0.044393986 -0.046371587 0.00796512
0000c0 2f 3d 76 bd 7e 10 2d 3d 45 1f 95 3c 09 e2 1d be
       -0.060116943 0.042252056 0.018203387 -0.15418257
0000d0 eb 72 e2 3c 15 73 1e bc 64 d8 ba bd cc 16 18 3d
       0.027642688 -0.009670992 -0.091233045 0.037131116
0000e0 a4 6b c1 ba 09 41 18 3d f9 f7 66 3d 99 c4 df bd
       -0.0014756811 0.037171397 0.05638883 -0.1092617
0000f0 e2 cf eb 3d 9e 5b 7b 3d 74 86 7d bd 71 98 8a 3d
       0.1151426 0.06136667 -0.061895803 0.06767357

hiden_layers.4.weight f4 [64, 64]
000000 9a 9c 88 be 4a c4 07 3f 2d 38 0f 3e 43 d2 27 bd
       -0.26681978 0.5303389 0.13986273 -0.040972006
000010 8d 25 72 be de ab 04 be 58 47 c4 bd 8d 48 9e 3e
       -0.23647137 -0.12956187 -0.0958392 0.30914727
000020 fa 05 18 be 4b a2 b2 bc 3a 93 cd 3d db bb 03 be
       -0.1484603 -0.021805903 0.10037847 -0.1286463
000030 5f 5e 01 3e 6c c2 80 be 3b bc 33 be 33 91 c7 3d
       0.12633656 -0.25148332 -0.17552273 0.097444914
000040 a1 b0 47 be 46 ad 36 bd 58 63 61 3e c0 be a9 3e
       -0.19500972 -0.04459884 0.22010553 0.33153343
000050 f7 3e 89 be 60 db 36 3e 78 68 b1 be 09 eb 01 be
       -0.2680585 0.17857122 -0.34650016 -0.12687315
000060 86 b6 80 3e 6d 21 e3 bd 73 57 fb 3d 5a d4 1b 3e
       0.25139254 -0.1109036 0.12272539 0.15217724
000070 04 65 9c be 8b 89 04 3a 8b 2f 84 be 31 6f bc 3d
       -0.3054582 0.0005055896 -0.25817522 0.092008956
000080 bb 03 b4 bc e7 98 87 ba 97 f2 d3 3e 2d 0c f8 bd
       -0.021974435 -0.0010345251 0.4139602 -0.12111697
000090 fe 23 48 3e 6f 73 7e be dc ec 37 3d 03 f1 c6 bd
       0.1954498 -0.24848722 0.04490362 -0.09713938
0000a0 84 23 50 3d 2b 2e 0d 3d f2 d1 d3 3d 12 df 73 be
       0.05081512 0.034467857 0.10342778 -0.23815563
0000b0 34 b5 ea bc f0 4e 89 3d 4b a4 5b 3d 87 22 e1 bc
       -0.028650858 0.06704509 0.05362348 -0.027482284
0000c0 85 a4 b0 be ba 1b 35 be b1 cd c4 3e 0c 45 df 3d
       -0.34500518 -0.17686358 0.3843818 0.109018415
0000d0 18 66 96 be d7 08 13 3e 80 69 ba 3e f4 f0 80 be
       -0.29374766 0.14358841 0.36408615 -0.25183833
0000e0 14 ff 9d 3a 29 02 d2 3d c5 f1 39 be ed 81 30 be
       0.0012054169 0.10254318 -0.18158634 -0.17237063
0000f0 78 06 b3 3d 18 ad 97 3c 52 61 50 be 24 43 a2 bb
       0.08741468 0.018515155 -0.20349625 -0.0049518514
000100 5f 42 ba bd b7 7b 25 be 1a b2 f1 bd c2 34 83 3e
       -0.090946905 -0.16160475 -0.11801548 0.2562619
000110 5c d8 60 3d e7 f4 54 3d fb a0 b1 be 1a cd d3 bd
       0.054893836 0.05199137 -0.3469313 -0.103418544
000120 5c 8f a2 be 3b 17 80 bd f5 d1 3e be ce 74 a8 3e
       -0.3175 -0.06254431 -0.1863478 0.32901615
000130 9a 50 30 3c 3f bc b0 3d 3c 2f 52 be 6c df 50 3e
       0.010761404 0.08629655 -0.20525831 0.20397729
000140 61 b3 15 be e1 4d 3a be e5 22 5b 3e e7 69 93 3d
       -0.14619209 -0.18193771 0.2140003 0.07197934
000150 5a f3 99 3e ff df 10 3e 7d 59 75 3e 76 df f1 3d
       0.30068475 0.14147948 0.23959918 0.118102
000160 be 9f bb bd ef 42 80 be d2 59 e2 bd 5e 5a 04 3e
       -0.09161328 -0.25051066 -0.11052288 0.12925097
000170 58 1c 71 bd 11 9e 72 3d d2 78 04 bd 0e c9 ef bd
       -0.05886492 0.059232775 -0.032341786 -0.1170827
000180 a4 c0 96 3e e0 14 cc 3c df 9a 22 3e 10 90 b3 bd
       0.29443848 0.024912298 0.15879391 -0.08767712
000190 9e 6d 43 be a0 0e 42 3d 74 16 bb 3b ef 91 98 3d
       -0.19084784 0.04737723 0.0057094637 0.074497096
0001a0 5f fb 1d 3e 5b 69 35 be d9 49 ad 3d 2c c5 60 3e
       0.15427922 -0.17715971 0.08461351 0.21950215
0001b0 4b e5 e0 bd 0a ec e8 3d ba 7c 01 be 57 52 a8 bd
       -0.10981234 0.11373146 -0.12645236 -0.0821883
0001c0 5b db 10 be 6d 6b 93 3e b1 2e 0b 3d 43 47 3a be
       -0.14146177 0.28792897 0.033980075 -0.18191247
0001d0 8a d9 b8 3e ff 3b 20 bc 7f 3f c0 3d 0e 43 92 3e
       0.3610347 -0.009779929 0.09387111 0.28566784
0001e0 ef 3b b6 3d d5 a2 8f be f3 2f 31 3c 22 93 9d bd
       0.0889815 -0.28053918 0.010814655 -0.07694079
0001f0 9d ce 8b 3e db 5e 8b bc f2 5e bd 3d 19 ff db 3c
       0.2730607 -0.017013004 0.09246625 0.026855038
000200 66 a0 7e be 64 13 99 bd 71 43 58 3d 3b 82 99 be
       -0.24865875 -0.074744016 0.052798692 -0.2998217
000210 4d 6d d6 bd e8 00 9c be 6f d8 0f bd 71 53 45 3e
       -0.10470066 -0.3046944 -0.035118517 0.19270112
000220 0b 49 96 3c 2d 25 40 bd 2f 10 b7 3d 62 9c 8e be
       0.018345376 -0.046910454 0.08938634 -0.27853686
000230 88 88 27 bd 1d 48 13 3e c0 cd 63 3e 80 68 63 bd
       -0.04090169 0.14382978 0.22246456 -0.05551958
000240 34 96 a5 3d 98 c3 96 bc 7c a7 9c 3c 6c 59 12 3e
       0.080852896 -0.018403813 0.019122832 0.14291924
000250 32 6c 69 bc 27 8d 5d be b1 6f 03 be 41 80 fa 3c
       -0.014246987 -0.21635877 -0.12835576 0.030578734
000260 02 e2 20 3a b4 f9 88 be a4 b6 36 3d 93 82 99 3e
       0.00061371934 -0.26753008 0.044607773 0.29982433
000270 a2 e4 5a be cc 48 0f 3e a9 91 89 be 6f 95 ff 3e
       -0.21376279 0.13992614 -0.26868942 0.49918696
000280 24 b6 ca bd da 74 ae be f8 d1 a3 bd 3c 9c 16 bd
       -0.09898022 -0.34073526 -0.07999033 -0.03677009
000290 ae be 7a 3c c2 5c df 3c dc 7f d3 bd b4 0c 49 3e
       0.015304251 0.02726591 -0.103271216 0.19633752
0002a0 0e 1e ae 3e e5 f9 1a 3e 6c d2 11 bf d1 19 fd bd
       0.34007305 0.1513439 -0.56961703 -0.1235844
0002b0 bd 48 1f 3d 28 1c fd 3d 76 84 1a 3e 2a 2d 66 3e
       0.038887728 0.12358886 0.15089592 0.22478166
0002c0 d4 e2 81 3e 18 88 3d bd 99 27 ed 3d e5 08 dc bc
       0.2536837 -0.046272367 0.11579818 -0.02685971
0002d0 e6 0e 90 bd c5 37 3c 3e a8 24 13 3d 4d b4 7e 3d
       -0.07034092 0.1838065 0.03592363 0.062183667
0002e0 25 69 6f be 7f fa 94 bd 5a 22 88 ba 59 94 e3 3e
       -0.23379953 -0.07274341 -0.0010386214 0.44449118
0002f0 c9 ab 28 3d 8d d5 36 3c e3 c6 a3 3c 59 cd 63 3e
       0.041179452 0.011159313 0.019992298 0.22246303
000300 86 65 c8 3d b4 dc e0 be 2d a3 60 bd 73 45 c3 3d
       0.09784989 -0.43918383 -0.054843117 0.09534731
000310 ed 05 c1 3d 74 5f e8 bd 03 2d 81 3d a5 84 e1 bd
       0.094249584 -0.11346331 0.063074134 -0.11011628
000320 18 25 00 3e 2c c8 f9 3d a1 55 52 3e 50 a8 47 3e
       0.1251415 0.12196383 0.20540477 0.194978
000330 b9 de 9e 3d 85 48 86 3d ff 04 0b 3e 5d fc 7e 3e
       0.07757325 0.06556801 0.13576125 0.24900956
000340 60 77 2d 3d 35 b5 27 bd a0 a9 ba 3c da 16 54 bd
       0.042350173 -0.040944297 0.022785962 -0.051779605
000350 4d 9b 29 be c7 6e 04 3c 5e 65 0f 3f a0 bd 60 3d
       -0.16563149 0.008083052 0.5601405 0.05486834
000360 ee 30 6a 3d 04 91 41 bc 6a 63 3a 3e 38 b4 38 be
       0.05717557 -0.01181436 0.18201986 -0.18037498
000370 b7 d0 91 be f2 13 df bc c6 48 99 bd b8 6b d0 bd
       -0.2847955 -0.02723119 -0.074845836 -0.10176796
000380 7c 7f 2c bd 36 d7 b5 3b 10 61 c3 bd a7 08 19 be
       -0.042113766 0.005549337 -0.095399976 -0.14944707
000390 ba 50 a4 3d 07 0e 4c 3c 0a b0 5d bd 80 db e2 3c
       0.0802321 0.012454516 -0.054122962 0.027692556
0003a0 09 4b c4 be c1 90 05 3e 56 ba 85 be 81 e5 94 3e
       -0.38338497 0.130435 -0.26118726 0.29081348
0003b0 4d bb 03 3e 5e 0a 71 bd 5b 4a c1 bd 1e ee 77 bd
       0.12864418 -0.058847778 -0.0943801 -0.06052982
0003c0 39 a5 89 be 59 90 0f bd d8 68 08 be 89 9f 56 3e
       -0.26883867 -0.03504977 -0.13321245 0.20959295
0003d0 c7 58 8e bc 70 95 03 3e 02 0e 6e bc f4 2e 1c 3e
       -0.017376317 0.12849975 -0.014529707 0.15252286
0003e0 57 3e be be 66 cb ec bc df b4 48 3e 28 18 98 3d
       -0.37156937 -0.028905582 0.19600247 0.074264824
0003f0 fb 44 23 3e 59 08 05 3e 86 d2 cd 3e 00 67 05 3e
       0.15944283 0.12991466 0.4019968 0.13027573
