results/6_model_3_case_2/epoch1250/model_weights.pth (torch, 484214 bytes, 88 tensors)

init_layer.0.weight f4 [64, 3]
000000 95 af 8f be ba 1d c8 be 12 35 5d 3e 9d 65 c6 3e
       -0.28063646 -0.3908518 0.21602276 0.387494
000010 d8 4c 96 3e 1d 21 94 bc 65 f5 f0 bb 1c 7f 42 be
       0.29355502 -0.018082196 -0.007353472 -0.18993801
000020 2a ce 84 be 46 e3 76 3e 1b 77 ca 3c 2c fe 10 3e
       -0.2593854 0.24110135 0.024714997 0.14159459
000030 3d 62 1d be 03 5f a4 3e df b0 96 3e 0c 86 b5 bd
       -0.15369506 0.32103738 0.29431817 -0.08863458
000040 2d 17 0b be 2f fd b7 3e d8 83 8a 3e 63 bd 7d bd
       -0.1358306 0.3593535 0.27053714 -0.06194819
000050 48 f3 eb 3e f7 31 ac 3e e5 57 0e 3e f7 eb d2 3e
       0.46084046 0.3363187 0.13900717 0.41195652
000060 bf 70 3c 3e 42 e7 8f be 9f 8a ea 3d 4e f8 18 be
       0.18402384 -0.28106123 0.11452221 -0.1493847
000070 29 42 12 bd 84 16 b0 3e 71 70 8b be 2e ba af 3d
       -0.035707626 0.34392178 -0.27234223 0.08580433
000080 41 20 71 3c f4 0a f0 3d 15 30 c5 3d 16 c5 af be
       0.014717163 0.11720839 0.096283115 -0.34330052
000090 34 2f a5 bd d2 b0 45 bc 67 57 12 be 22 7a a3 bd
       -0.08065644 -0.012066083 -0.14291154 -0.07982279
0000a0 1d e1 17 3d c2 17 ca 3e 75 4f 7f 3e 73 ad 39 bf
       0.03707992 0.3947125 0.24932654 -0.7253029
0000b0 eb 85 55 bc 52 8e 51 3e 4e f8 fd bd 78 4f a2 be
       -0.013032417 0.20464447 -0.12400876 -0.31701255
0000c0 2a 09 30 bd 65 a1 e7 bc fe fb c3 3e b6 89 8a 3e
       -0.04297749 -0.028275201 0.38278192 0.2705819
0000d0 12 a6 c3 3e fa c9 85 be 0e eb f6 3d d5 12 39 3d
       0.3821264 -0.26130658 0.12056552 0.045183975
0000e0 1b 11 99 be 5a 83 6d be 67 7e e9 3d 56 91 c1 be
       -0.29895863 -0.23194638 0.114010625 -0.37806195
0000f0 af e3 ca 3d bc fc 98 bd fc b9 5a be a3 8e 96 3d
       0.099067084 -0.0747008 -0.2136001 0.073514245
000100 bc df 47 3d 40 58 06 be e0 9b 83 bd 60 d3 8e bd
       0.048797354 -0.13119602 -0.06426215 -0.0697391
000110 3d 5d 8c be c1 52 bc bd 95 89 9d 3e 5f b3 b5 bd
       -0.27414885 -0.091954716 0.3076903 -0.08872103
000120 ad f6 47 bd cf c9 08 bd 8d 28 c5 3e 6e ad b0 3d
       -0.048819233 -0.033395585 0.385075 0.08626829
000130 b8 06 14 3e e7 ad 4a be e9 53 98 bd 47 f2 3c 3e
       0.14455688 -0.19792901 -0.074378796 0.18451796
000140 68 85 c0 3e 58 b2 18 be 9f 11 33 be 50 a5 46 3e
       0.3760178 -0.14911783 -0.1748719 0.19398999
000150 c3 07 07 3e cd 17 b1 3d f9 a4 86 be 0e ae fd 3b
       0.13186555 0.08647118 -0.2629774 0.007741696
000160 8c 41 82 be 28 7a 3d 3e dc 07 0b bf e8 3e 07 bf
       -0.25440633 0.1850363 -0.5430887 -0.5283036
000170 ba c9 13 be 2c ab ac bd 47 0a 03 3d 33 26 cc 3e
       -0.14432421 -0.08431086 0.031992223 0.39872894
000180 92 d6 93 bd 31 89 ac 3d 9a 58 ad 3e ee 72 80 be
       -0.072186604 0.08424605 0.3385666 -0.25087684
000190 7d a1 44 3e eb c5 2e be 1d 52 6c 3d 7d 69 4a bd
       0.19202228 -0.17067687 0.057695497 -0.049417008
0001a0 32 7d 78 be f4 d2 69 bd 82 e4 a6 bd cd 62 a0 be
       -0.24266508 -0.057085946 -0.08149053 -0.3132538
0001b0 e0 ae 54 3d c6 ab 0a bc 07 e7 eb be ca b0 3d be
       0.051924586 -0.008463806 -0.46074697 -0.18524471
0001c0 87 bb 5a b8 8f e7 80 be 4c f2 84 3e 29 00 23 3e
       -5.21499e-05 -0.25176665 0.25966108 0.1591803
0001d0 dd 37 d1 3e 9d 4e 25 be 5c 9b 70 3e 14 db 99 3e
       0.40862933 -0.1614327 0.23496765 0.30049956
0001e0 64 f7 d3 3d 59 d2 35 be 8e 69 ba be f8 7a bf 3d
       0.103499204 -0.17756023 -0.36408657 0.09349626
0001f0 5a bf e3 3d 87 5d c3 be ae 55 3a 3e 1c 7e 63 bd
       0.11120482 -0.38157293 0.18196747 -0.05554019
000200 44 4f ac 3e cb 89 8e bd 14 9f 1e bd b1 f1 8e 3e
       0.33654225 -0.06959876 -0.038725927 0.2791877
000210 73 73 cb 3d b0 8e eb bd 40 d2 a4 be d8 d6 35 bb
       0.099341296 -0.11501825 -0.32191658 -0.0027746465
000220 b4 0d ab bc 5f 29 9c 3e 4f 6e 94 bb 17 4d 26 be
       -0.020880558 0.30500314 -0.0045297514 -0.16240345
000230 9b f4 0e 3e 4a cf fe 3d af 12 34 3e 82 1b 00 3e
       0.13960497 0.12441881 0.17585252 0.12510493
000240 bb 9c 84 3e 1d ea 3a 3f f6 aa b3 bc 10 d4 8e 3e
       0.25900826 0.7301348 -0.021932106 0.27896166
000250 53 20 95 be e0 3e 99 3e 13 22 05 3e f7 a4 94 be
       -0.29126224 0.29930782 0.1300128 -0.29032108
000260 d7 7f 90 be ac 0a a4 be b7 25 b7 3d 7d 1c 1c be
       -0.28222534 -0.32039392 0.089427404 -0.15245242
000270 24 46 8c 3e 97 84 4b be 30 ab 3f 3e 58 f8 03 be
       0.27397263 -0.19874798 0.18717647 -0.12887704
000280 5a 2e 5e be fc f0 cc 3d b0 df 06 3e 49 a4 e8 bd
       -0.21697369 0.100069016 0.13171268 -0.1135946
000290 15 d9 c6 be 8d 0b 3e 3c d2 82 09 bd 57 d5 ba 3e
       -0.38837495 0.011599434 -0.033572026 0.3649089
0002a0 4d 46 68 bd cd ee 71 3d 95 72 cc 3e fc 5f 8c 3d
       -0.05670767 0.05906563 0.3993117 0.06854245
0002b0 b0 c9 2c be 10 13 31 bd 52 6b 8f 3e 63 63 8f 3e
       -0.16873813 -0.04323107 0.28011566 0.28005514
0002c0 c3 0e f9 3d 32 6b 3c 3d 10 f6 ca 3d 43 99 9f be
       0.12161019 0.046000667 0.09910214 -0.31171617
0002d0 87 2a 4d be 06 cd af be 03 53 f5 bd 68 22 78 be
       -0.20035754 -0.34336108 -0.11978724 -0.24231875
0002e0 ef 07 b0 3d ab 7c d0 bd 56 83 68 3e 7a 20 02 be
       0.08595263 -0.101800285 0.2270635 -0.12707701
0002f0 a5 a7 ce bc b2 eb 60 3e 40 93 63 bd bd a9 ad 3e
       -0.025226424 0.2196491 -0.05556035 0.33918563

init_layer.0.bias f4 [64]
000000 97 75 9a 3e e1 0b 94 bd 6c 57 ad 3c fb 47 9a be
       0.3016784 -0.07228828 0.02115985 -0.30133042
000010 5e 05 72 3c 64 80 3f 3d b1 72 6a 3e 00 b3 a9 3e
       0.014771787 0.046753302 0.22895314 0.3314438
000020 55 ae 1f be c5 fb 6d be 82 79 b2 3e 45 1d 7c 3e
       -0.15593846 -0.23240574 0.34858328 0.2462054
000030 11 05 35 3e 23 15 ec 3e 4d 56 b8 bd fd a5 56 3e
       0.17677714 0.46109876 -0.090008356 0.20961757
000040 83 36 b1 3e 7d 82 1a 3e a3 74 33 3e 8d 51 0a 3e
       0.34611902 0.1508884 0.17524962 0.13507672
000050 81 2f 3c 3e 83 ec 1b 3e 34 8a 82 3e fa 42 95 3d
       0.18377496 0.15226941 0.25496066 0.072881654
000060 82 fb 2b 3e 82 45 30 be 68 74 0e 3e cc 60 07 be
       0.16795161 -0.17214015 0.13911593 -0.13220519
000070 ab ba e0 be 4d c1 97 3e 47 15 06 3c 49 bf 1a be
       -0.43892416 0.29639664 0.008183784 -0.15112032
000080 02 e8 ed bd 73 b1 47 3e fe aa 41 3e da 40 99 3e
       -0.116165176 0.19501285 0.18912885 0.2993229
000090 26 f3 ec be bb 1b 50 be 6e 5f 8d be 5d 75 e6 bd
       -0.46279258 -0.20323078 -0.2761187 -0.11252854
0000a0 bf 53 bf be 1d 89 32 bd 16 5a 85 be 71 b8 1e be
       -0.3736858 -0.043587793 -0.26045293 -0.15500046
0000b0 f5 06 cf 3d 01 ea 9e bc c7 2d 65 be 5d a8 79 3d
       0.10108749 -0.019398691 -0.22380744 0.06095158
0000c0 67 c4 fc bd 20 a3 8d 3e 38 40 85 be 2f 95 2a be
       -0.12342148 0.27663517 -0.26025558 -0.16658472
0000d0 d0 1b 16 be ea 8d 2e be 70 3f c9 3d a2 1b 85 3e
       -0.14659047 -0.17046323 0.09826553 0.25997645
0000e0 9c e4 a7 3e 26 ba 06 3e aa 9a cf 3d b8 59 1b be
       0.32791603 0.13156947 0.10136922 -0.15170944
0000f0 c6 46 d1 3c 94 d2 e6 bd cc 3f 2d 3e 84 9d bf 3d
       0.025546443 -0.11270633 0.16918868 0.093562156

hiden_layers.0.weight f4 [64, 64]
000000 59 7d d4 be 1f 21 14 3e 1a d2 09 3e f7 dc 5e 3e
       -0.41501883 0.1446576 0.13459054 0.21763979
000010 07 e5 6c be 3a ed f2 bc 85 7f 07 3d d4 52 41 be
       -0.23134242 -0.029654134 0.033080596 -0.18879253
000020 62 8a 04 3e 08 91 a1 bd f8 40 f3 bd 06 98 44 3e
       0.12943414 -0.07888991 -0.11877626 0.19198617
000030 fc 3c 2b 3d 00 0e 93 3d 67 ee b4 3e e2 8c 3f bd
       0.041806206 0.07180405 0.35338137 -0.046765216
000040 8d 1e 97 bd 0c b5 79 bd 88 08 9d 3d 63 6a 5e be
       -0.07378874 -0.060963675 0.07667643 -0.21720271
000050 08 a9 05 3c 75 c9 46 3e ed 6b d8 bb 3f 05 ce be
       0.008157976 0.19412787 -0.0066046626 -0.40238377
000060 1a 06 89 3d f8 a9 49 bd d4 6b 19 be 75 aa 3a be
       0.06690617 -0.04923436 -0.1498254 -0.18229087
000070 58 4b 76 bd 86 c5 d8 bc b1 28 88 be 7d 88 f7 bd
       -0.060130447 -0.026461374 -0.26593545 -0.1208658
000080 49 a8 1f be 9e a6 12 be 48 f6 59 3e f0 8e d9 bb
       -0.1559154 -0.14321372 0.21285355 -0.006639354
000090 28 44 ce 3d 01 97 8d 3d 58 da c6 3e 5b f8 a1 bd
       0.100715935 0.06913567 0.38838458 -0.07908698
0000a0 bb c2 7a 3e 2c e9 9d bd 3a 94 3d 3e a2 c7 e5 bd
       0.24488346 -0.0771049 0.18513575 -0.112197176
0000b0 8e c8 7f 3d bf 93 fd bd 0a fd a3 3d 2f 63 78 be
       0.062447123 -0.12381696 0.08007248 -0.24256586
0000c0 cd e5 d2 3e ef 08 2a be b5 18 91 bc d9 50 22 3e
       0.4119095 -0.1660497 -0.017711977 0.15851153
0000d0 1c e4 04 3e 13 ed f1 3c 91 71 98 3e b0 0d 27 3e
       0.12977642 0.029531991 0.29774144 0.16313815
0000e0 55 ae 5a be d2 3e 05 3d 5a 02 46 bd 79 de 2b 3e
       -0.21355565 0.032530613 -0.048342086 0.16784085
0000f0 95 27 be bc a0 d6 30 bd 81 e4 18 bd 14 4a 21 be
       -0.023212234 -0.043173432 -0.037327293 -0.15750915
000100 4e 02 69 3d 82 a3 13 be e3 9c 0b be 41 5e 50 3d
       0.056886964 -0.14417842 -0.13634066 0.050871138
000110 90 1d 1e be 3a 92 ea bd 27 7c 11 3e 40 b8 2c be
       -0.15440965 -0.11453672 0.14207517 -0.16867161
000120 77 82 84 be f1 29 d6 be 5e be a5 3e 9e 4a d2 3d
       -0.25880787 -0.41828874 0.323718 0.10268138
000130 a1 db b8 3e f0 3e f6 3d b2 48 5e bd 31 3c 78 3e
       0.36105064 0.12023723 -0.054268546 0.24241711
000140 a1 de 66 3d 71 94 88 3e 54 35 0c 3e dd 8d c2 3d
       0.05636466 0.26675752 0.13692218 0.094997145
000150 db a5 ba 3d 9a f2 01 be ec 6b b6 3e 93 d2 a7 3e
       0.09113666 -0.12690201 0.35629213 0.32777843
000160 54 40 fa bc 88 72 81 bd bc cb 65 3e 11 97 12 3d
       -0.030548252 -0.06320673 0.22441 0.0357886
000170 85 c2 a2 3a af 39 36 3e eb fa 6d bd 73 de 8a be
       0.001241759 0.17795442 -0.058100622 -0.2712284
000180 38 06 bd bd 4b 38 82 3e 28 79 b0 3e 89 2f ce 3e
       -0.09229702 0.25433573 0.34467435 0.4027064
000190 57 22 f6 3d 07 a4 ad 39 33 81 51 be 40 53 10 3e
       0.120182686 0.0003311934 -0.20459442 0.14094257
0001a0 8e 16 25 be 75 06 2f 3d f4 3a 11 bf 5e ef 3c be
       -0.16121885 0.042730767 -0.5673058 -0.18450686
0001b0 b3 f8 2f 3e 53 84 6c be 00 da b3 bd a0 2a 79 be
       0.17184715 -0.23097353 -0.087818146 -0.24332666
0001c0 b8 fb 59 be c7 69 53 bd b9 96 fb bd 7a e9 34 be
       -0.2128743 -0.05161455 -0.122846074 -0.17667189
0001d0 af e5 ff bd 8e 8d 88 be d7 8d 65 3e 0c cb c0 3d
       -0.124949805 -0.26670498 0.22417389 0.09413728
0001e0 98 fb 35 be 3d 0c 37 be 9d ca 77 be fe b1 67 be
       -0.17771757 -0.17875762 -0.24198385 -0.22626492
0001f0 a5 1e 9c 3e 86 5f 5f 3e c3 7d 3d 3e 55 3e fb bd
       0.3049213 0.21813783 0.18505006 -0.12267748
000200 b5 69 ed 3d 55 2a 26 bd e9 6b 36 3e 71 3b e9 3c
       0.11592428 -0.040567715 0.17814602 0.028470727
000210 13 ee 4f be 6a e3 2a 3d fb 60 d7 bc d4 47 2b be
       -0.20305662 0.041720785 -0.026291361 -0.16726619
000220 af 22 a5 3d 23 66 cd 3b 5c 5e fd bc 94 89 7f 3d
       0.08063256 0.006268279 -0.030928783 0.062387064
000230 7e f1 ae 3d 88 2c 3f be 5b 3d dd 3d 18 f1 21 be
       0.08542155 -0.18669331 0.10802718 -0.15814626
000240 ff 6f be bd 9c 01 a5 be d1 26 90 bb 63 ef 0a be
       -0.09298705 -0.3222779 -0.0043991585 -0.13567881
000250 72 df 70 bd 78 d1 7c be 9e 57 46 be 8e 01 a3 3c
       -0.058806844 -0.24689281 -0.19369361 0.019898202
000260 08 2e 16 3d b2 f5 2e be 60 f1 e8 bc c6 9f ac 3e
       0.036664993 -0.17085913 -0.02843541 0.33715647
000270 c4 cd 5c bd 69 7f 20 be c4 76 87 3d f9 e0 83 3e
       -0.05390717 -0.15673603 0.066144496 0.25757578
000280 d1 81 19 be d1 cf 1f be 30 f8 fd 3d 35 59 1d 3e
       -0.14990927 -0.1560662 0.12400854 0.15366061
000290 37 02 ca bd 66 db 04 be 69 05 57 3d 74 eb 84 3d
       -0.09863704 -0.12974319 0.052495394 0.064902216
0002a0 d8 0b 41 be 7d dc d7 bd 71 da 82 3e cc 5a 9b 3e
       -0.18852174 -0.10540102 0.25557283 0.3034271
0002b0 3b ea 1e 3e b8 ac bd 3d 20 8e a7 3d 7e ae 62 bd
       0.1551904 0.09261459 0.08181405 -0.05534219
0002c0 9a dd 3e bd 61 0f 36 3d 88 f2 ca bd de 6c 66 bc
       -0.046598054 0.04444826 -0.099095404 -0.014064042
0002d0 71 7e 9e 3d c1 04 fe 3d 7e d3 22 be d2 77 73 3d
       0.077389605 0.124032505 -0.1590099 0.05944044
0002e0 af e7 55 be a5 d5 0d 3e db 02 52 be 8e ec 35 be
       -0.20889162 0.1385103 -0.20508902 -0.1776602
0002f0 40 68 43 3e 94 17 44 be 5d 63 62 be 9c cf 46 3e
       0.19082737 -0.1914962 -0.22108217 0.19415134
000300 37 ff ec 3b e8 60 41 be 4d b1 01 3e 12 19 b4 be
       0.0072325724 -0.18884623 0.12665291 -0.35175377
000310 3c a0 19 be ce d2 0d be b6 4e 9c be 6b 61 b9 be
       -0.15002531 -0.13849947 -0.30528802 -0.36207137
000320 8a 4c 10 be 47 db ad be cb 25 36 3e ab 71 5f 3e
       -0.14091697 -0.33956358 0.17787854 0.21820705
000330 6b 33 f7 bc 8f ae fb be 04 50 81 3e e8 87 b2 3d
       -0.030175885 -0.49156615 0.2525636 0.08717328
000340 e5 ed b5 be ba a3 e0 3e f0 dd d4 3e 19 a1 7c 3e
       -0.35533062 0.43874913 0.41575575 0.24670829
000350 a6 40 c4 3e e2 ab c7 3d b4 10 11 bc ba 5b 6d be
       0.38330573 0.09749581 -0.00885408 -0.23179522
000360 2f 01 46 be 67 81 3a 3e 61 56 99 be 9e 45 88 be
       -0.19336389 0.18213426 -0.29948714 -0.26615614
000370 65 5e 0f 3e c5 a2 8c be 49 93 dd bd 94 87 5e be
       0.14000852 -0.27467933 -0.10819108 -0.21731406
000380 36 8d c2 be f7 21 28 3e 92 58 c8 3c 76 45 28 3e
       -0.3799836 0.16419207 0.024456296 0.16432747
000390 d3 29 bc 3e 90 62 b5 3c d9 f7 b5 be a7 f8 94 be
       0.3675066 0.022141725 -0.35540655 -0.29095957
0003a0 28 e1 43 3e ec fc 83 3e 2e f3 44 be 95 bc b9 3a
       0.19128859 0.25778902 -0.1923339 0.0014170582
0003b0 73 2a 94 3e eb 2e 6e be f8 f9 dd 3c 9f d4 0a bc
       0.28938636 -0.23260085 0.027096733 -0.008473544
0003c0 72 f4 a5 3e 96 d9 5e be 16 95 1a 3f 8f e2 87 3d
       0.3241306 -0.2176269 0.6038374 0.066350095
0003d0 da c1 77 be 43 b7 26 3c 93 87 ef 3e cf 90 31 be
       -0.24195042 0.010175529 0.46783122 -0.17340396
0003e0 33 b8 0b bf 30 37 e0 3c ae 0d c4 bd 63 13 fe 3e
       -0.5457794 0.027370065 -0.09572922 0.49624166
0003f0 62 a4 a5 bd 93 89 29 3c bd 7f 3c 3d 76 c5 c7 be
       -0.08087994 0.010347742 0.04602026 -0.39017838

hiden_layers.0.bias f4 [64]
000000 9e 0b 74 bd 7c ec 39 3e 3e b5 b1 bd f7 af d6 bd
       -0.05958139 0.18156618 -0.08677147 -0.104827814
000010 b1 9f 81 3d 0e ba c8 3d d9 1a 9f 3e 0d e3 d7 bc
       0.06329287 0.09801112 0.3107517 -0.026353383
000020 9c 41 64 bc 98 e7 25 be 9a a8 79 be da 34 c0 3b
       -0.013931658 -0.16201627 -0.24380723 0.0058656754
000030 81 ed 2a 3e 4d cb 60 bd 22 69 bc 3d f7 94 48 3e
       0.16692163 -0.054881383 0.0919974 0.19588076
000040 4a df cb bd ef c0 e0 bc 01 40 be 3d c6 15 6f be
       -0.099546984 -0.027435748 0.092895515 -0.2334815
000050 f3 57 22 be 28 87 f7 3d 32 3d 6f 3c ae 3f f0 bc
       -0.15853862 0.12086326 0.014601992 -0.02932724
000060 eb 29 02 3b b0 8b 8f 3d 90 a1 00 be f0 c7 56 bf
       0.001986141 0.07009065 -0.12561631 -0.8389883
000070 c3 a0 6b 3e bc eb 0d bd 43 a3 46 3e c2 d2 a1 3d
       0.23010544 -0.034648642 0.19398217 0.07901527
000080 09 10 8f 3d 7b e0 10 be 97 68 f8 bd ae d1 b1 3d
       0.0698548 -0.14148133 -0.12129324 0.08682571
000090 2b 47 10 be cb 35 75 3c 4c 6f 7e be 0a 0a 18 be
       -0.14089648 0.0149664385 -0.24847144 -0.1484758
0000a0 e5 40 9e be 3b 41 3f bd b0 a4 75 3e 9d de 26 be
       -0.30908886 -0.046693068 0.23988605 -0.16295858
0000b0 2c 06 c6 3d 38 25 32 3e 9c a1 d0 bb d3 a4 63 3c
       0.09669146 0.1739701 -0.0063669216 0.013894278
0000c0 1a 20 61 3e 40 ff 0d be ee cf c2 bc b6 71 46 3e
       0.21984902 -0.13866901 -0.02378079 0.19379315
0000d0 82 e5 f2 bd 0e 77 01 be 51 37 b0 3c a4 f5 1a bc
       -0.118601814 -0.12643072 0.021510752 -0.009457979
0000e0 ef 61 ef bd 9c 69 78 3d 6e d2 80 be cc bd 2c be
       -0.11688601 0.060647592 -0.25160545 -0.16869277
0000f0 5f 5f 57 bd 97 a0 a9 3d de 1b b8 bd 2a fe 9a bc
       -0.052581187 0.08282583 -0.0898969 -0.018920023

hiden_layers.1.weight f4 [64, 64]
000000 fc 2a 8a 3d 49 a2 16 3e 7b c0 1e be f0 5d 17 3f
       0.0674648 0.14710344 -0.15503113 0.5912771
000010 31 5e 95 3d 4c 77 cb 3e 48 a7 41 be d4 30 31 3e
       0.07293356 0.39739454 -0.18911469 0.17303783
000020 3a e8 08 bd c4 0a 29 bd d1 d0 bd 3c 8f 04 65 be
       -0.033424594 -0.041270033 0.02317086 -0.2236502
000030 dc 4b f4 3d 8a bf 15 3d 46 a4 dc 3d 32 4e 16 bd
       0.119285315 0.03655962 0.1077352 -0.036695667
000040 0e df 1a 3e 0a 39 86 3e 52 22 6f 3d db 27 89 3e
       0.15124151 0.26215392 0.05838234 0.2678822
000050 19 55 87 3e 50 47 99 3b 86 e2 b4 3d d8 e3 6a 3e
       0.26432112 0.0046776906 0.088322684 0.22938478
000060 76 16 08 be 0e ae b9 bd 88 7d ce bd cb e8 5b 3e
       -0.13289818 -0.090664014 -0.10082537 0.21475522
000070 65 c3 86 3d c1 c3 3c be 50 7f 6a bf 2c 3b af 3e
       0.06580237 -0.18434049 -0.91600513 0.34224832
000080 40 57 75 3d 0a 8a 21 3e 2e d2 6c be ce 89 4d be
       0.05989766 0.15775314 -0.23127052 -0.200721
000090 ba fa f4 bd 53 c0 3f 3e b7 3a 03 be b4 d8 42 3e
       -0.11961885 0.1872571 -0.12815367 0.19027978
0000a0 65 37 27 3e 0b b6 2d 3e bc c8 12 bf be 45 9f 3d
       0.16329725 0.16963975 -0.57337546 0.07776974
0000b0 34 71 83 3e f5 57 91 3e 58 b3 9a bc d5 b3 24 bf
       0.25672305 0.28387418 -0.018884346 -0.643369
0000c0 78 a5 10 3d 60 f4 36 be 83 c9 01 3e 48 2e 30 3e
       0.035314053 -0.17866659 0.12674527 0.17205155
0000d0 52 92 07 be a5 f0 15 3e 2d 74 e0 3d 7a 11 a0 be
       -0.1323941 0.1464258 0.10959659 -0.31263334
0000e0 fa e7 28 3f 08 7a 58 bc 7b 17 71 be 38 14 63 3e
       0.6597897 -0.013212688 -0.23544113 0.22175682
0000f0 b1 ac bd 3d 9d c8 5c 3e 0d e4 c6 3d 89 1e 7f 3d
       0.09261454 0.21560903 0.09711466 0.06228498
000100 6e bc 8d bd cd fd 4d bc c1 89 95 bc 78 c0 ad 3d
       -0.06920706 -0.012572718 -0.018254163 0.08483976
000110 9f 3c 5c be d3 d4 7d bd 76 46 42 be b6 59 f7 3c
       -0.215075 -0.061970543 -0.18972191 0.030194145
000120 5a ae 76 3e 28 40 b9 bd 78 5b 63 3e 7f ce 4c 3e
       0.24089947 -0.0904544 0.22202861 0.20000647
000130 db fa 73 3d 88 75 cd 3d c7 d0 8b 3d fb 30 3c 3d
       0.059565406 0.10032183 0.068269305 0.04594515
000140 4c 06 ae 3d 69 70 df bd 9d c3 0f 3e c2 d5 d1 3d
       0.08497295 -0.109101124 0.14039464 0.10245849
000150 a1 92 34 3d 75 42 0a 3e 01 fb 94 be d5 e3 65 3e
       0.04408515 0.13501914 -0.2909775 0.22450192
000160 92 d2 0c be d2 af 20 3e 8b 71 08 3d 9e 6b 72 bd
       -0.13752201 0.1569207 0.033311408 -0.059184663
000170 1f 52 63 bd 20 ff 7e 3d 4b a2 00 be 47 a3 0a 3e
       -0.05549824 0.062255025 -0.1256191 0.13538848
000180 48 98 9a 3e ef 3b 33 3e ee 6d 25 be a2 9a 83 be
       0.30194306 0.17503332 -0.16155216 -0.25703913
000190 4f 0a e0 bd e4 87 14 3d 2b c9 b8 bd 3c 81 82 be
       -0.10939466 0.036262408 -0.09022745 -0.25489223
0001a0 0c e7 51 be 40 96 8e be 92 f1 20 bc 2c 08 ee bd
       -0.20498294 -0.27849007 -0.00982322 -0.116226524
0001b0 ac a8 61 3d 2c 48 d4 3d 7a bd 1e bd 01 28 8d be
       0.0550925 0.10365328 -0.038754918 -0.27569583
0001c0 d5 da 23 3e db a2 3d 3e 56 78 64 be 1b 3b e9 bd
       0.16001447 0.18519156 -0.2231153 -0.113882266
0001d0 71 5a ad 3d f6 0c 22 3d 43 81 5c 3e 7f a1 ba bb
       0.08464516 0.03956314 0.21533684 -0.0056955214
0001e0 82 61 52 3c ab 45 72 3d f6 c7 7b bd 0b 35 fa 3d
       0.0128406305 0.05914847 -0.061469994 0.122171484
0001f0 db 44 8b 3d 73 59 d8 3c fb 33 3f 3a 6f 11 f4 3d
       0.068002425 0.02640984 0.00072938175 0.11917388
000200 92 01 77 3d c6 8d 5b 3e e8 3e 61 bd 1f dc 84 3c
       0.060304232 0.21440801 -0.054991633 0.016218243
000210 5e 92 a2 3e cd b0 fc 3d e1 52 83 be ea fc 9e be
       0.31752294 0.123384096 -0.2564917 -0.31052333
000220 7a a1 3a 3e eb 0d 48 be fa fc d3 be a4 be e8 3e
       0.18225661 -0.1953656 -0.41403943 0.45457947
000230 2e b2 ec 3d ae c1 f0 bd ab 93 6c 3e 71 09 8e 3d
       0.115574226 -0.117556915 0.23103206 0.069353946
000240 56 e3 80 be c9 5a 21 3c 2c c0 a6 3e 85 9c 3e 3e
       -0.25173444 0.009848305 0.3256849 0.18614395
000250 3a 7f c1 3d 83 fb 7c bd b6 a8 95 be fd a3 d4 be
       0.09448095 -0.061763298 -0.2923028 -0.41531363
000260 70 2b 8e 3e e6 0e ff 3e 43 a3 19 be 06 17 3a be
       0.27767515 0.49816054 -0.15003686 -0.18172845
000270 36 b3 8f 3e 65 5d 62 3e 99 68 9d 3e 5f 59 ae 3e
       0.28066415 0.2210594 0.30743864 0.3405256
000280 bd b7 1a 3d 41 b2 b5 be 85 cb dd be 78 bf fb 3c
       0.037772883 -0.3548756 -0.43319336 0.030730948
000290 bf 2e 16 3c 96 51 19 be cb 0b 63 3d 07 25 a9 be
       0.009166419 -0.14972529 0.05543117 -0.33036062
0002a0 7e 84 55 be f7 c5 01 bf 37 6e 8c be 19 a2 6b be
       -0.20851323 -0.50692695 -0.27427837 -0.23011054
0002b0 e5 c9 23 bd a1 73 c1 3e 25 a8 ff 3d cf 97 4b 3e
       -0.039987464 0.3778353 0.12483243 0.19882129
0002c0 5b 6d e6 bd 42 37 76 bd 49 38 d1 3d 90 ee 63 be
       -0.11251327 -0.06011129 0.10215814 -0.22258973
0002d0 ed 2f 6c bd c3 19 4d be fd 7f c5 3d 5a 2b 1a 3e
       -0.057662893 -0.20029359 0.096435525 0.150556
0002e0 ec ad f9 bd 7a 84 ae 3e 3d 6a 44 be cd 8f eb ba
       -0.12191376 0.34085447 -0.19181152 -0.0017971933
0002f0 a8 e6 b6 3d 70 03 46 3e 1d 1c 92 be 21 33 de 3e
       0.08930713 0.19337249 -0.28537074 0.43398383
000300 68 97 49 3e 8c 3b e0 bc 7a 1c 06 be 04 4c 45 3e
       0.19686663 -0.027372144 -0.130968 0.19267279
000310 ca f3 93 3e 7d f6 31 be da fa 08 3d 4e a6 e3 bd
       0.28896934 -0.17379184 0.033442356 -0.111157045
000320 1a b2 cb bd ed c8 be bd 8e f3 81 bb 2b e7 96 3e
       -0.099460796 -0.09315667 -0.0039658016 0.29473242
000330 27 b3 7e 3e 42 dc 4a 3e bc a3 a6 bc 05 b4 cb 3d
       0.24873029 0.19810584 -0.020341747 0.099464454
000340 10 46 40 3d fa df 5c be f1 10 2e 3d cb c7 d4 3d
       0.046941817 -0.21569815 0.042496625 0.1038967
000350 85 1a a0 3a 6b 0c 7f be 66 4c a7 3c 54 36 c7 3d
       0.0012214935 -0.24907081 0.020422172 0.09727159
000360 f3 22 5d 3e 3e c0 2b 3e 25 3a 97 3c e0 dc 75 bd
       0.21595363 0.16772553 0.018460343 -0.060025096
000370 15 37 29 3e 8b 19 66 3e 4e fe 10 3e 49 f3 93 3e
       0.16524918 0.22470681 0.1415951 0.2889655
000380 bb 86 4f 3d 88 e8 6f bd 0a 9b d7 bd 81 11 42 bc
       0.0506656 -0.05857137 -0.10527618 -0.011844994
000390 bf 48 18 3e 6d 57 af 3d da 0d 17 3e 80 2f 02 3e
       0.148715 0.08561597 0.14751378 0.12713432
0003a0 de ea 09 3e 16 b7 a4 bd 4e 73 42 3e 95 41 9a 3d
       0.13468501 -0.08042733 0.18989298 0.0753204
0003b0 1b fc 44 be 4b df 0f be b1 ce a2 be e5 75 11 be
       -0.19236796 -0.14050023 -0.31798318 -0.1420513
0003c0 1a 3c 90 bb 21 36 64 3e b9 28 1f 3d ce b7 6c 3d
       -0.004401696 0.22286274 0.038857196 0.057792477
0003d0 12 76 26 3e df 70 7f bd 63 d5 5e be c9 07 48 3c
       0.16255978 -0.0623635 -0.21761088 0.012208887
0003e0 3d f0 12 be 4f f1 8e bd f9 be 26 3e 56 9e 98 3d
       -0.14349456 -0.0697962 0.16283788 0.07452075
0003f0 c3 57 08 be 77 db 80 3e 04 0f 76 3d f8 51 89 be
       -0.13314728 0.25167438 0.060072914 -0.2682035

hiden_layers.1.bias f4 [64]
000000 04 07 13 bd 07 4e 29 3d ec 5e 1c 3d 4e d4 c5 3c
       -0.035895362 0.04133418 0.038176462 0.024149086
000010 93 b4 3e bd 79 8b de 3d f2 46 82 bc c8 7d bd bb
       -0.046558928 0.10866446 -0.01590297 -0.0057828166
000020 02 58 4a 3b 6c c1 67 3d 5b 4f a3 bd 92 f1 d8 bb
       0.003087521 0.056580946 -0.0797412 -0.0066205943
000030 5f f6 22 3e 42 2e 1f 3d 26 bb 37 be 5b dd 2b bd
       0.15914296 0.038862474 -0.17942485 -0.041959148
000040 18 ef d0 bd 47 21 49 bd c5 25 a4 bc 7b 22 d4 bd
       -0.102018535 -0.049104 -0.020037541 -0.10358139
000050 59 e4 1e bd 22 d6 26 3e 9d 9f 17 3d 91 18 fd ba
       -0.038791988 0.16292623 0.037017453 -0.001930969
000060 72 f3 5e be 18 89 ee 3c d3 1d 82 3d 8a 51 0c 3e
       -0.21772555 0.029118106 0.06353345 0.1370298
000070 83 ff c9 bd 2d ce 18 be be 93 87 bd e9 80 c6 bd
       -0.09863188 -0.149224 -0.066199765 -0.096925564
000080 92 6c 49 bd ca d5 47 3c a8 c5 47 3b 4d 7a 10 be
       -0.049175806 0.012196967 0.0030482803 -0.14109154
000090 f7 16 d3 bd a0 86 3d be 0e f4 d8 bd e1 6c 89 3e
       -0.103071146 -0.18508387 -0.10593425 0.2684088
0000a0 ff 40 0d 3e 13 7c ed bd 71 e0 16 3d 4b 13 9e 3e
       0.13794325 -0.11595931 0.036835138 0.30874094
0000b0 86 bb c2 bc 8c f7 ad 3e b5 4a d2 bb b3 5d b3 3c
       -0.023771059 0.33977926 -0.006417597 0.021895265
0000c0 89 7a 20 3c 88 a7 9d bd da 1a 08 bc a5 01 4c 3e
       0.00979484 -0.0769797 -0.008307183 0.19922502
0000d0 a4 68 2a bc 66 29 a0 bc 05 b5 b0 3d 59 ee 87 bd
       -0.010400925 -0.01955099 0.08628277 -0.06637258
0000e0 20 bf bf 3d 3e b6 e2 bc 2d 1a d8 3c ff d3 19 3e
       0.09362626 -0.02767479 0.02637967 0.15022276
0000f0 3f ed 4b 3d a4 bd 32 bc 08 74 25 3d 16 3b b1 bd
       0.049786802 -0.010909472 0.04039386 -0.08653848

hiden_layers.2.weight f4 [64, 64]
000000 74 1c 1b be a4 b9 23 3e 1f c2 21 3e 46 67 31 be
       -0.15147573 0.15988785 0.15796708 -0.17324552
000010 69 cd 5b 3c a4 62 35 be 5b 5a 0e be 10 27 b1 bd
       0.013415673 -0.1771341 -0.13901655 -0.08650029
000020 6e 0b 73 be c7 4c a5 bd 8f a2 be bd 2b 7c 35 bd
       -0.23734829 -0.08071285 -0.09308349 -0.04430787
000030 0b 77 54 3e 47 29 d1 3e c9 8f 2e be c2 a6 2a 3e
       0.20748536 0.40851805 -0.17047037 0.16665176
000040 82 84 7a 3e 38 af 2e bd bf 82 69 3d 1a ee 34 be
       0.2446461 -0.04264757 0.057009455 -0.17668954
000050 c4 64 70 bc cd 8a 15 3e 30 66 0c be 7a e0 04 3e
       -0.014672462 0.1460373 -0.13710856 0.12976256
000060 c0 29 d3 bb 4a 43 18 be 6a 0b 91 bd 2b 02 40 3b
       -0.006444186 -0.14869419 -0.07082255 0.0029298167
000070 80 5f fe 3b 42 ce 32 bd c1 ff 20 3e 93 c0 a0 bc
       0.0077628493 -0.043653734 0.15722562 -0.019623077
000080 7d a6 82 be 22 b6 d5 3d 2a c5 0b be 4e d1 0f be
       -0.25517645 0.1043513 -0.13649431 -0.14044687
000090 db 11 c3 3e b5 0e 93 3d df 8e 3d 3e 1b d2 93 3e
       0.3809956 0.071805395 0.18511532 0.28871235
0000a0 5e a7 a7 bd eb 78 ef 3b ee 27 3d bd 7d 7c fc 3d
       -0.0818622 0.0073081157 -0.046180658 0.12328432
0000b0 60 bf ef 3d 10 b0 5b be da ae f8 bb 31 d6 14 3e
       0.11706424 -0.21453881 -0.0075892033 0.14534833
0000c0 25 59 18 3e cd be f9 39 14 72 f6 bd 88 2e 97 be
       0.14877756 0.0004763514 -0.120334774 -0.29527688
0000d0 22 73 04 be 47 82 34 3e 64 80 56 3e 72 d3 06 3e
       -0.12934545 0.17627822 0.20947415 0.13166597
0000e0 67 b8 95 bc 43 19 59 3d 4a 8c d0 3c d8 72 6c 3e
       -0.018276406 0.053002607 0.02545752 0.23090684
0000f0 e5 7f 84 be 25 b8 84 3e 00 bf 7b 3e ea 2b bc 3e
       -0.25878826 0.2592174 0.2458458 0.36752254
000100 f7 98 50 3e 3d 85 d9 3c 9d 2e cc 3c bc 8c d9 3c
       0.20370851 0.02655279 0.02492457 0.026556365
000110 1c 84 64 3e 67 aa 24 3e ea 29 9d 3e 7e cb d4 3d
       0.2231602 0.16080628 0.3069604 0.103903756
000120 e9 40 16 3e 82 1a a0 3e eb be 8b 3e 1a 3c 71 3e
       0.14673199 0.31270224 0.27294096 0.23558083
000130 8d 1c b5 3c dd d6 57 bd e6 cf 91 bc 55 41 25 3e
       0.02210834 -0.052695144 -0.017799329 0.16138203
000140 8e 41 70 be 6c 3a 38 3d 13 e9 65 be fe 9f 3a be
       -0.23462507 0.04497759 -0.22452192 -0.18225095
000150 b7 5e e5 3d 60 61 0a be 76 8f 4b 3d 00 0f 0d be
       0.11199706 -0.13513708 0.049697362 -0.13775253
000160 89 e9 2d bc 64 09 6f 3d ec 4c ae 3e 77 ba 3c 3e
       -0.010614761 0.058358565 0.34043062 0.18430506
000170 50 10 ef bc 9a 81 17 3e e7 84 dd 3d e6 62 fd bc
       -0.029182583 0.14795533 0.10816365 -0.030930948
000180 e0 ea 86 3d 7d 9b 6f 3e 84 a5 4c bd 22 f6 60 3e
       0.065877676 0.23399158 -0.049962536 0.21968892
000190 bc 01 05 3e 3a 8f f6 3d 02 24 0b 3e ea 8d 8e be
       0.12988943 0.12039037 0.13587955 -0.27842647
0001a0 ef 6b 28 bd 82 23 90 bd 36 24 17 3e fe 69 b0 3e
       -0.04111856 -0.070380226 0.14759907 0.34455866
0001b0 20 b9 a4 3d df cd 9c bd c7 95 42 bd ec 95 40 3e
       0.08043122 -0.07656454 -0.04750612 0.1880719
0001c0 65 b9 d4 bd d9 dd 9a 3e 43 2f c9 bd 78 3e 97 be
       -0.10386924 0.3024738 -0.098234676 -0.29539847
0001d0 12 7e 98 be 00 11 8b 3e f4 22 62 bc 69 44 5a be
       -0.29783684 0.27161407 -0.013802279 -0.21315159
0001e0 68 4a 9d 3e 71 fe 05 3c ab 0e 4d bd bd f3 69 3d
       0.3072083 0.008178339 -0.050062817 0.057117213
0001f0 de e7 92 3d 6a fe 7a 3e 08 78 0a 3e 7e 15 1c be
       0.071731314 0.24511114 0.13522351 -0.15242574
000200 b6 f9 15 3e b7 8c 22 be 7f d9 7c bd a1 d9 03 be
       0.14646038 -0.15873991 -0.061730858 -0.12875988
000210 20 75 57 3e f2 fa 51 3d 70 12 fe 3e 4f 76 b3 3d
       0.21040773 0.05126471 0.49623442 0.087628
000220 12 d2 33 be a4 6e 7d 3e 0a 02 0a 3e 6e 2c 50 3e
       -0.17560604 0.24749237 0.1347734 0.20329449
000230 c5 ee 03 bf bc 88 0a 3e 77 47 93 be fb d1 51 3e
       -0.5153621 0.13528723 -0.2876546 0.20490257
000240 c8 42 48 be 61 19 a2 be da be e5 3d 10 64 08 be
       -0.19556725 -0.31659988 0.11218043 -0.13319421
000250 3e e5 8d bd 4d 6f 80 3d c1 be ac 3d f6 ad 17 3e
       -0.0692849 0.06271229 0.08434821 0.14812455
000260 62 eb ca be c0 3a 82 bc 7d 17 2d be 5e b8 43 bd
       -0.39632708 -0.015897155 -0.16903491 -0.047783248
000270 c9 5d 77 3d 10 78 c0 bd 9a fa ba 3e b6 be 82 3e
       0.060392175 -0.093979 0.3651932 0.25536126
000280 8f 69 e7 bd a6 90 3f be 22 8d 45 bd 29 b9 33 3f
       -0.112994306 -0.18707523 -0.048230298 0.70204407
000290 9b 96 2f 3e 30 bf b7 3b 87 17 cb be 73 90 ed 3e
       0.17147295 0.005607508 -0.39666387 0.46399269
0002a0 21 fa dc 3b 9c a7 5e be a2 be 62 be dd b8 f0 be
       0.006743685 -0.21743625 -0.22143033 -0.4701604
0002b0 31 f7 f7 3d 12 dc 2f be d5 78 e7 bd ff ac b3 bd
       0.12107695 -0.17173794 -0.11302344 -0.08773231
0002c0 8b 0a 03 3e 70 76 9b 3d e4 62 0a be d5 ff 94 3e
       0.1279699 0.075909495 -0.13514286 0.29101434
0002d0 72 51 ce bd 5c bb e8 3d e7 15 9b 3d aa bb 0d 3e
       -0.10074128 0.11363861 0.07572537 0.1384112
0002e0 ee 40 91 be 54 7e 83 3d 01 af 1a be e2 58 09 be
       -0.2836985 0.064205796 -0.15105821 -0.13412812
0002f0 e8 72 8d 3e c2 81 0a bf 5e 13 bf 3d f8 35 05 3c
       0.2762673 -0.54104245 0.09329866 0.008130543
000300 d8 e4 05 be 9e 6a da bd ff bf bb bd 35 d2 2a 3e
       -0.13075578 -0.10664867 -0.0916748 0.1668175
000310 e8 d1 ec bd a9 f4 fd bd a1 46 92 3e 02 88 7e be
       -0.11563474 -0.12400181 0.2856951 -0.2485657
000320 2e 18 8a 3e 0d 18 70 3e 36 d2 92 3e c5 32 88 be
       0.26971573 0.23446675 0.28676003 -0.26601234
000330 24 72 7c 3d a1 71 3c 3d 03 76 c9 3d 67 18 1d 3e
       0.06163229 0.046006802 0.09836962 0.1534134
000340 0c 1c 3a 3d 45 bd 63 be e2 0a 57 bc 60 1f 83 3d
       0.045436904 -0.2224017 -0.013125153 0.06402469
000350 ff 06 90 3d f2 8b a6 bd 8f bb ef 3d e7 73 12 bd
       0.070325844 -0.08132161 0.11705696 -0.035755064
000360 39 f6 1f bf 2e d9 2f 3d 9b 28 77 3d 04 95 6f 3d
       -0.6248508 0.042931728 0.06034146 0.05849172
000370 46 fb e4 bd 30 ab 17 3e c9 34 e3 bd 7b 52 86 3e
       -0.11180739 0.14811397 -0.11094052 0.26234803
000380 a4 91 66 be a2 9a 1d be 87 76 a1 3d 20 d9 4d 3e
       -0.22516495 -0.15391019 0.078839354 0.20102358
000390 19 c3 89 3d 6a 3d 6e bc a0 a9 92 bc ad 92 68 be
       0.06726665 -0.014541009 -0.01790315 -0.22712202
0003a0 02 d7 70 3e e0 cc d9 be df 61 03 3d 33 96 0f 3e
       0.23519519 -0.4253912 0.03207576 0.1402214
0003b0 71 0e 25 3e 54 24 5b bf ae c1 ac bd f4 be f0 3b
       0.1611879 -0.8560231 -0.08435379 0.007346982
0003c0 5f 04 fe bd f7 d0 61 3e f8 a7 4f 3e 45 4f 7d be
       -0.124031775 0.2205237 0.20278919 -0.2473727
0003d0 39 01 41 be 12 f6 13 be 2f 23 37 3e 89 17 b6 3d
       -0.18848123 -0.14449337 0.17884515 0.08891208
0003e0 95 b8 96 bc 63 04 1c 3e 2f 82 83 bd c2 7c 77 3e
       -0.018398562 0.15236048 -0.06421315 0.24168685
0003f0 7d 38 47 3e fe 12 53 be 36 a6 18 3e c8 6f 1f be
       0.19455142 -0.20612714 0.14907154 -0.15569985

hiden_layers.2.bias f4 [64]
000000 de 0d 9a 3c 06 df 12 3d 35 27 fa bd b9 49 ad bd
       0.01880544 0.035857223 -0.122145094 -0.08461327
000010 76 48 d1 bc d0 4d ba be e1 b2 f8 3d e6 c3 6e bd
       -0.025547247 -0.3638749 0.121434934 -0.058292292
000020 0a 87 27 3d 96 ae 28 bd 26 6c 9b bc bf 93 0b bd
       0.040900268 -0.041182123 -0.018972468 -0.03407645
000030 a9 0c 28 bd 71 fa 41 bd d3 76 8d 3d 85 36 91 3d
       -0.0410277 -0.04735798 0.069074295 0.07090477
000040 9f b3 f4 3b 6e 54 ef 3c 6b 18 4b 3d 5b 68 2b bb
       0.0074677016 0.029215064 0.049583834 -0.002615473
000050 21 48 62 bd 90 cb 6e bd 11 0c e8 3c 0f 0a 03 3d
       -0.05524457 -0.0582996 0.028326066 0.031992014
000060 f2 be 19 3d 97 e8 8e bd 2e 19 80 3c 9f ca ea 3c
       0.037535615 -0.06977957 0.015637007 0.02866107
000070 75 16 ab bc 80 cf 7a 3d 35 3d d8 3c 67 99 c6 3c
       -0.020884732 0.061233044 0.026396373 0.02424307
000080 88 9d 84 bd cc 6a 8f bd 35 2d 9f bd 6a 67 0b bd
       -0.06475359 -0.07002792 -0.077722944 -0.03403417
000090 3b 6d 1b 3d 04 04 b9 3d f6 07 5d bd 9d b3 a4 3d
       0.037945967 0.09033969 -0.05396267 0.08042071
0000a0 88 30 e9 bc 98 a7 54 bd 86 0b cb bd c2 0d 36 3c
       -0.028465524 -0.051917642 -0.09914307 0.011111679
0000b0 75 31 24 bd 8f ec 0b bd 34 e6 0f 3c fc ba 83 bd
       -0.04008623 -0.034161147 0.008782912 -0.06432149
0000c0 f1 4c 9d ba dc ea 7f be 00 b9 dc 3d 87 7d 0e bd
       -0.001200108 -0.24991935 0.107774734 -0.03478768
0000d0 b9 74 00 be d3 38 77 3d ae b2 0b bc fa 2b 3e bd
       -0.12544526 0.060356926 -0.008526487 -0.046428658
0000e0 f4 60 6b 3d 3f bc 2c 3a bc de b3 bd 10 ac 95 bd
       0.05746551 0.000658933 -0.087827176 -0.07308209
0000f0 02 06 10 3b 46 8c 34 3e 26 3c 66 bc 3f 43 86 3c
       0.0021976237 0.17631635 -0.014052426 0.016389487

hiden_layers.3.weight f4 [64, 64]
000000 5c ac 35 bd 2c 00 b8 3e f5 20 ab 3e 97 0d 48 be
       -0.044353828 0.3593763 0.33423582 -0.19536434
000010 b7 81 20 bd 2e f3 4a 3e 4d 6c 82 bc e7 4a 95 be
       -0.039186206 0.19819328 -0.015920782 -0.29158708
000020 58 f1 09 bd 35 5e b1 3d b8 e8 00 3e 7c e0 06 be
       -0.03367743 0.08660547 0.12588775 -0.13171571
000030 93 2d 4e 3e 86 6c 8a bd 26 b0 29 3e 51 41 5f bc
       0.20134573 -0.067589805 0.16571102 -0.0136264125
000040 fe 07 02 be 9f 9c 8e be 82 43 21 3e 0a d1 3f be
       -0.12698361 -0.27853867 0.15748408 -0.18732086
000050 a3 ee 28 3e cf 8f 8c 3d 09 db dc 3e 9c 3d 43 3e
       0.16497283 0.06863367 0.4313586 0.19066471
000060 da 40 49 3e 63 95 80 3c 92 e7 01 be 13 df 50 be
       0.19653645 0.015696233 -0.12685993 -0.20397596
000070 fc 01 85 3e af 50 38 3e 28 64 f6 bb 7d b7 94 3d
       0.25978076 0.17999528 -0.007519264 0.0726156
000080 4c 2d eb 3e 26 67 99 3d 76 6b 43 be 4f ba de 3d
       0.45932996 0.07490377 -0.19083962 0.10875379
000090 cd 2d ac 3d 03 50 1c bd 8c b8 b9 3e a6 5d 8f bd
       0.08407173 -0.038162243 0.3627361 -0.07000284
0000a0 ec 8f 39 3c ee e9 bc 3d 59 f2 47 be 16 48 9e bd
       0.011325818 0.09224306 -0.19526042 -0.07728593
0000b0 86 ce 64 bd 71 30 0a 3e 05 6a a5 bd 5f 5e e2 bd
       -0.05586102 0.13495041 -0.08076862 -0.11053156
0000c0 ee d4 a6 3d 03 e8 69 be b1 2e c8 bc 77 49 8e 3d
       0.08146082 -0.22842412 -0.024436327 0.06947606
0000d0 9d 45 b8 3e 71 7c 29 3e b0 4b 0f 3e df 6d 02 be
       0.3599061 0.16551377 0.13993716 -0.12737225
0000e0 6a e4 0e 3e bc 95 b7 3d e1 ca 56 be 99 21 e7 3d
       0.1395432 0.089641064 -0.2097583 0.11285705
0000f0 95 09 a9 3d d8 df b9 3e 03 f6 2a bd 81 58 a0 3e
       0.08253781 0.36303592 -0.04173852 0.31317523
000100 8b ba 52 be e5 af 9d 3d 1d c5 8e be 6a fc 2a 3e
       -0.20578973 0.07699565 -0.2788476 0.16697851
000110 af 92 17 3e 11 da 83 3e d0 02 80 be 1c 37 27 3e
       0.14802049 0.2575231 -0.25002146 0.16329616
000120 2e 2f 88 be 37 a7 6f bd 00 3c bc 3d 50 7e c2 3c
       -0.26598495 -0.058509078 0.091911316 0.023741871
000130 54 24 33 3d 6f a5 d5 3a c4 2d e8 bb a7 82 08 3e
       0.043735817 0.0016299913 -0.007085534 0.1333109
000140 ce 60 5c 3d e7 ae 9d bc 03 97 c3 3d 8c d8 16 3d
       0.053803258 -0.019248439 0.095502876 0.03682761
000150 95 21 43 3e be a9 3e be 60 c2 5e be f3 b7 6a 3e
       0.1905578 -0.18619439 -0.21753836 0.22921734
000160 eb 34 06 3d 66 4f 94 3d f5 77 51 3e 16 d3 27 be
       0.03276531 0.072417066 0.20455916 -0.16389117
000170 f2 05 3b 3e c8 dd 02 bc 21 f5 a2 be d5 dd 43 3d
       0.18263987 -0.007987447 -0.31827644 0.047818977
000180 be a7 52 bd ca 2c fe bd ac ed ae 3e 36 4a b1 3e
       -0.051429503 -0.124108866 0.34165704 0.3462693
000190 5a 28 64 3b 74 ac b2 bd 69 0c ad be 53 ac 4e 3e
       0.003481409 -0.08724299 -0.3379853 0.20182924
0001a0 a8 f7 0b 3e 8c f1 40 bd fb 92 52 3c a7 a1 ab 3e
       0.13668692 -0.047105357 0.012852426 0.33521768
0001b0 e0 02 4f bd 95 e4 30 3e 59 2d 30 bd 07 a3 29 bd
       -0.05053985 0.17274697 -0.043011997 -0.04141524
0001c0 d9 8e 2a 3e 8e 6e 0d be bd 0d 73 be 54 8c ee 3c
       0.16656055 -0.13811705 -0.2373571 0.029119648
0001d0 8a 53 0c 3e e8 d6 19 3c 59 44 4b bb 87 ec 1e 3e
       0.13703743 0.009389617 -0.003101608 0.15519916
0001e0 c0 35 8a 3d 91 9b 31 be 9c ad 92 3e 8d bf 02 bd
       0.06748533 -0.173445 0.28648078 -0.03192096
0001f0 8a 4f 99 3e 55 8f f8 3d 83 06 80 3d 93 60 24 bd
       0.29943496 0.121367134 0.06251242 -0.040131163
000200 c8 cd d6 bd c8 47 a0 3e 30 51 3d be 33 be 92 3c
       -0.104884684 0.31304765 -0.18488002 0.01791296
000210 13 30 3d bd 05 f2 85 3e 9b e9 b6 3e d2 30 16 be
       -0.046188425 0.2616121 0.35725102 -0.14667061
000220 ab 07 33 3e 33 ef 82 bd b0 a2 15 be fd a8 f8 3d
       0.17483394 -0.0639328 -0.14612842 0.12141607
000230 f7 35 a0 bd cd 5c db 3c 2c a1 8e 3d 80 53 23 bd
       -0.07822793 0.02677765 0.06964335 -0.039874554
000240 ff 29 2b 3e 1d 80 c5 3d 29 a3 d6 be 48 5a a0 bd
       0.16715239 0.09643576 -0.41921356 -0.0782972
000250 49 66 82 bd 16 ac 24 be 42 f3 0c bd d1 ea 75 3d
       -0.063671656 -0.1608127 -0.034411676 0.06003839
000260 62 b4 b1 bc b4 99 85 3e 05 e9 9f be c1 5b 88 3c
       -0.021692459 0.2609383 -0.31232467 0.016645314
000270 8a 3f 54 3d 48 96 83 be d9 8f 17 bd 8d be 0f be
       0.051818408 -0.25700593 -0.03700242 -0.14037533
000280 74 05 be be dd 44 ee bd f3 c3 50 3e cf 1b e4 bc
       -0.37113535 -0.116342284 0.20387249 -0.027845291
000290 d4 f9 a4 bd 60 d4 86 bd c1 40 1c 3e e3 70 36 3d
       -0.080554634 -0.06583476 0.15259077 0.04454125
0002a0 b6 a3 26 3e 57 95 dc bd 18 d7 b0 bd ee 6f 53 3e
       0.16273388 -0.10770672 -0.08634776 0.20648167
0002b0 1f 68 07 be 9c 53 ac be 6e 80 81 be b4 58 95 be
       -0.13223313 -0.3365754 -0.25293297 -0.29169238
0002c0 89 2f 54 bd f2 01 05 3d 64 c4 39 3e 72 5c 49 3e
       -0.051803146 0.03247256 0.18141323 0.19664171
0002d0 27 5e ce 3b 98 cf 21 bc 27 dc d2 be c4 74 e7 be
       0.006297845 -0.009876154 -0.41183588 -0.45206273
0002e0 6f 7b a2 be 58 94 64 be 7a 3c b3 3d 8f f6 06 3d
       -0.31734797 -0.22322214 0.08751769 0.03294998
0002f0 6c e0 1c 3d 90 27 22 3e aa 7e b5 3d b5 36 27 3d
       0.038299963 0.15835404 0.0886205 0.040823657
000300 91 68 27 3e 7a 16 88 be 19 42 46 3e b0 05 75 bd
       0.16348483 -0.26579648 0.19361152 -0.059819877
000310 97 77 9b be 59 25 32 bd ef 2c 95 3d c4 3f d7 bd
       -0.30364677 -0.04349265 0.07283961 -0.10510209
000320 ba 50 28 3e 63 37 4d be 99 3f fe bd 5e f8 37 be
       0.16437045 -0.2004066 -0.12414474 -0.17965838
000330 28 74 fd bd 40 8d d7 be 69 07 09 be af 45 ce 3d
       -0.12375671 -0.42099953 -0.13381733 0.10071885
000340 5f 84 b7 bd 30 1b 56 3e 9b ed d4 3d 62 11 bb bd
       -0.08960795 0.20908809 0.10396882 -0.09134175
000350 75 e6 c2 3d d4 af 57 bd fd 9c 60 3d 31 f5 3a bd
       0.095166124 -0.052657917 0.054837216 -0.04564399
000360 5a a7 5e 3e 5b 84 bf 3d 5e b2 80 3d 0f 1b 27 3d
       0.21743527 0.09351417 0.06284021 0.04079729
000370 1d 9c 00 bd 8a d9 47 bd fa 02 a3 3c c1 ff 98 3d
       -0.03139888 -0.048791446 0.01989888 0.07470656
000380 a7 8e 85 3e 6b b5 1e 3e 66 76 29 bb a2 ca 82 be
       0.26085398 0.15498893 -0.0025857924 -0.25545222
000390 ca e6 57 be 83 3b 11 3d 6a fe 09 be db d5 4d be
       -0.21084133 0.035457145 -0.13475958 -0.2010111
0003a0 c4 39 b6 3d 28 dd 8b be 56 63 28 bd 69 62 75 bb
       0.08897737 -0.27317166 -0.04111036 -0.003744269
0003b0 90 9b ac 3e d3 09 57 be 88 29 88 3e 9f 3f 08 3e
       0.33712435 -0.20999841 0.26594186 0.1330552
0003c0 6d 04 4f 3b d5 cc c4 3d 1d fb e8 bd 9f 64 ad bc
       0.0031588331 0.09609381 -0.11376021 -0.021166144
0003d0 b2 5b e7 3d c8 48 e5 3d f0 45 14 bc 5a b3 c6 3e
       0.11296786 0.111955225 -0.0090498775 0.3880871
0003e0 3c e5 4b 3e 59 bc 2c 3e 48 82 31 3e 64 d5 73 bd
       0.19911665 0.16868724 0.17334855 -0.059529677
0003f0 23 63 bc 3d 70 de 1c be 05 65 ce bd 01 14 04 3e
       0.09198596 -0.15319228 -0.10077862 0.12898256

hiden_layers.3.bias f4 [64]
000000 34 82 d8 bd 72 46 07 bd c7 39 0b 3c d6 d7 87 bd
       -0.10571709 -0.033026166 0.008497662 -0.06632964
000010 2f 07 ea 3d d6 33 f2 3b 57 66 00 3e 93 4e 1e bc
       0.114271514 0.007391433 0.1253904 -0.009662288
000020 12 2e 90 3d 40 a3 b2 bd e3 92 14 bd c1 23 86 bd
       0.07040037 -0.08722544 -0.036272895 -0.06549788
000030 73 56 8e 3d 99 f1 21 bc b8 2d fe 3d ed 30 06 3e
       0.06950083 -0.0098842615 0.12411064 0.13104601
000040 60 50 45 3d 3e 24 b9 bd 03 da 9c 3d ad b1 1c bd
       0.048172355 -0.09040116 0.0765877 -0.038255382
000050 59 9d 66 bd c1 5f 19 be c0 77 02 bd 61 06 bf 3d
       -0.056302402 -0.14977933 -0.031852484 0.093273886
000060 c3 db 7a be 6e 1c 39 3d 71 42 ad 3c b1 64 a7 3d
       -0.24497895 0.04519313 0.021149846 0.08173502
000070 b1 4e f1 bd fe 77 ca bd 7e 1a 13 3d c8 c7 cd bc
       -0.11782587 -0.09886168 0.035913937 -0.025119677
000080 df 4a a8 3c f5 2a a0 3d e7 b8 04 be 5c 8f e9 3c
       0.020543514 0.078206934 -0.1296116 0.028510742
000090 61 ac 05 bd 14 c4 13 3e 4e 66 30 bd 4f ae e8 bd
       -0.032635096 0.14430267 -0.043066315 -0.11361372
0000a0 f7 3d eb bd 37 7c bc bd b5 e9 b5 bc 5a 59 1a 3d
       -0.11486428 -0.092033796 -0.022206167 0.03768287
0000b0 b1 42 45 bd ea 44 ba 3c 1f 5a 11 bd 86 33 23 3c
       -0.048159305 0.022737939 -0.035486337 0.009961015
0000c0 47 03 f3 3c dc ff 3d bc 9d e2 48 3d e5 83 24 be
       0.029664649 -0.011596646 0.04904424 -0.16065939
0000d0 71 1c 81 3c 93 45 19 bd 58 18 ce 3d e6 b2 a2 3d
       0.015760632 -0.037419867 0.10063237 0.079442784
0000e0 97 3c 29 3e f0 bf f3 3c a4 e5 dc 3c 0b 20 9d bd
       0.1652702 0.029754609 0.02696497 -0.07672127
0000f0 2d e4 fb bc bb 75 3d bd 3c 56 ba bd b7 b5 bd 3c
       -0.030748451 -0.046254855 -0.09098479 0.023157937

hiden_layers.4.weight f4 [64, 64]
000000 ea a6 32 be 1e 68 de 3d b5 6a fa 3e 47 dd e9 be
       -0.17446485 0.108597025 0.48909536 -0.45676634
000010 ef 98 da 3d 4a 41 e1 3c 05 2a e1 bd e3 a3 89 bc
       0.10673701 0.027496953 -0.10994343 -0.01680178
000020 e7 5e a5 3e 88 70 1a bf 27 8c 5a 3d 23 ac b1 bc
       0.32298967 -0.6032796 0.053356316 -0.021688526
000030 53 8d 0d 3e 13 2a 25 3e 5c 06 73 be 3d de a3 3e
       0.13823442 0.16129331 -0.23732895 0.32005492
000040 12 0f 30 3d 96 39 bd bd 20 70 bb 3e 25 b6 54 3e
       0.042983122 -0.09239499 0.36608982 0.20772608
000050 e2 99 09 bf e2 31 8c 3e eb 48 5d be 3c 6a ab 3e
       -0.5375043 0.27381808 -0.21609847 0.33479488
000060 69 44 7e 3c f0 78 58 be f0 fb cb 3e 29 0f d8 3e
       0.01551924 -0.21139884 0.3984065 0.42199066
000070 00 de 83 bf db 0a e3 be 29 35 09 3e d7 a1 c2 bd
       -1.0302124 -0.4434422 0.13399185 -0.09503525
000080 6d b6 30 ba 48 62 66 3d c1 db 2d 3e 43 0a 0d bf
       -0.0006741051 0.056246072 0.1697836 -0.55093783
000090 50 69 7e bd b1 82 1b be 21 4f bd bd 12 9a 4b be
       -0.062112153 -0.15186574 -0.09243608 -0.19882992
0000a0 ad 7a af be cc de 8a 3d 3e 6c f3 3b 8b 9a af 3e
       -0.34273282 0.067807764 0.007428675 0.34297594
0000b0 eb 81 34 3e f1 ba 08 3d 91 61 7e 3e 2a 7a 2c bd
       0.17627685 0.033381406 0.24841906 -0.042108692
0000c0 16 83 8e be a8 bb 03 bf ea 87 c9 bd e7 0a 45 bd
       -0.27834386 -0.51458216 -0.09840377 -0.0481061
0000d0 16 0b 41 be df 73 53 bf 25 0e 7e 3e d8 f3 4b 3e
       -0.18851885 -0.8259868 0.24810083 0.19917238
0000e0 b9 ee b5 3b 52 c9 e7 bc 6b ca 21 be 52 69 4d bf
       0.0055521396 -0.02829424 -0.15799873 -0.8023883
0000f0 b2 a5 4a 3d 66 2d e8 3e 64 e7 1c bc 85 a0 87 be
       0.049474426 0.45347136 -0.009576652 -0.26489654
000100 ec 49 bd 3d ea 60 c2 bd bd dd 01 bf b6 9a 09 3f
       0.09242615 -0.09491141 -0.5072897 0.53751695
000110 c2 44 98 bd f8 45 38 3d dd c5 21 3d 95 70 2a bd
       -0.074349895 0.044988602 0.039495338 -0.041611273
000120 1b 23 92 bd c4 18 d8 be 1d 0a 66 be 81 9d 27 3e
       -0.07135602 -0.42206395 -0.22464795 0.16368677
000130 85 cd a8 3d 98 79 79 be 94 f6 3e be 64 ad 80 3e
       0.08242325 -0.2436279 -0.1864875 0.25132287
000140 2e 9a 17 be 82 37 1b be da 69 c6 3e 83 de 75 3d
       -0.14804909 -0.15157893 0.38752633 0.060026657
000150 26 4a a1 3e 98 94 b3 3d 51 04 cc 3d 4f a8 73 bd
       0.31501883 0.087685764 0.09961761 -0.059486683
000160 a2 6b 01 be 7f 5d 4a be 10 60 6a be ec 1c 73 3d
       -0.12638715 -0.19762228 -0.22888207 0.059353754
000170 0f 6e 9e 3d 28 aa ac bc 51 9d a7 bd 7f 5c 52 be
       0.07735836 -0.02107723 -0.081843026 -0.20543097
000180 a4 a2 00 3e 05 55 d9 bd 32 db 1b 3e 43 dc 5a be
       0.12562042 -0.10611919 0.15220335 -0.21373086
000190 07 45 8d be 3e 36 30 3d c6 ec ba bd 91 23 3e 3d
       -0.27591726 0.04302048 -0.09127192 0.046420638
0001a0 45 c3 90 3d 37 3c 53 be dd 7b f4 3d a6 75 c1 3e
       0.07068495 -0.20628439 0.119376875 0.3778507
0001b0 01 ab 1c be fd a0 41 3e b1 0a fe bd 06 20 fb bd
       -0.15299608 0.18909068 -0.12404383 -0.12261967
0001c0 3a 8d e0 bd 64 d3 63 3e 92 6d 0b 3e 23 b1 82 3a
       -0.10964437 0.22248608 0.13616017 0.0009971004
0001d0 00 55 b9 3e 82 8d 3a be a2 6a a1 3d 18 7c 8b 3b
       0.36197662 -0.18218043 0.07881667 0.0042567365
0001e0 d5 29 92 3c ec ce d2 be cb 2c 6f 3e f5 3b f5 bc
       0.017842213 -0.41173494 0.23356931 -0.029935816
0001f0 0e 3a 43 3e 85 cd 3a 3e f2 5d 6b 3e a1 49 14 3e
       0.19065115 0.18242462 0.22985056 0.14481212
000200 5b ad 7e be f9 78 6c 3d be 86 4f be 12 69 ea bd
       -0.24870817 0.057732556 -0.20266244 -0.11445822
000210 b2 08 3a be 83 94 ae bd 36 76 65 3d 0f 84 35 3e
       -0.1816738 -0.0852442 0.056020938 0.17726158
000220 3c a5 cc bd 8e 26 93 bd 4f d2 96 bb ef 1a 71 bd
       -0.099924535 -0.07185088 -0.0046027075 -0.058863577
000230 73 a2 48 3d 4f 7b 90 be 26 59 40 be 25 38 91 bd
       0.04898305 -0.28219077 -0.18784007 -0.07090787
000240 46 9f b2 3c e4 e0 04 3d d6 4a 8d bc 11 77 d2 3d
       0.021804463 0.032441035 -0.017247599 0.10276616
000250 8b 8f 5e bc 33 62 53 be 15 5b 8d be 21 f3 aa 3e
       -0.013584028 -0.20642929 -0.27608553 0.33388618
000260 66 7a cb bd c9 0a 7e be 7b 9f b9 3c d0 d9 23 3e
       -0.09935455 -0.24808802 0.022659054 0.16001058
000270 75 8c 65 be 45 ed b8 3d 50 59 70 be 15 fa c3 3e
       -0.22416861 0.090296306 -0.2347157 0.38276735
000280 bf 7e 03 be 16 10 2f bb 78 1f 2c bd de c1 22 bd
       -0.12841319 -0.0026712469 -0.0420222 -0.039735667
000290 5f 35 7c be 84 86 e8 3c cc 6f f0 bc ef 0a 8c 3e
       -0.24629734 0.028384455 -0.029350184 0.27352092
0002a0 f9 96 0a 3e ab f3 4d 3e b4 50 aa be c1 3f b5 3c
       0.13534154 0.20112483 -0.33264697 0.022125127
0002b0 ff 8b 1d 3e d4 34 11 3e 59 1b b5 3e 11 64 a6 bd
       0.15385436 0.14180309 0.35372427 -0.08124555
0002c0 d5 85 36 3e f5 8e 6c 3c 16 ac 43 3e 51 5d f9 bd
       0.1782449 0.0144383805 0.19108614 -0.12176002
0002d0 e6 df d0 be 31 8f 8e 3d a7 b2 0d be ba fd 66 be
       -0.4079582 0.06960905 -0.13837682 -0.22557727
0002e0 0c ff 91 be d1 6c 6e 3c 1c 9a dc 3d 7d 39 49 3e
       -0.28514898 0.014552311 0.107715815 0.19650836
0002f0 12 43 a7 bc 9f 0f b2 3e 6d 74 58 bd bd 33 84 3a
       -0.020417724 0.34777543 -0.052845407 0.001008622
000300 be 4e 98 bd d4 6e b0 be a2 25 a0 bd a0 ac bc 3e
       -0.07436894 -0.34459555 -0.07819678 0.36850452
000310 15 22 85 3c 25 4e a6 3d 1c 1b ff 3c a9 7b c0 be
       0.016251603 0.08120374 0.031140856 -0.37594345
000320 45 10 3e bd a3 3b 86 3e df 20 f5 3d 78 8d 5f bd
       -0.046402235 0.26217374 0.1196916 -0.054578274
000330 bf cc eb 3b ef 40 d6 3d b6 65 c9 3d 5d e7 a4 3d
       0.0071960385 0.10461604 0.09833853 0.080519415
000340 05 26 6b 3e 49 53 c8 3d b0 d8 8c be 01 80 82 be
       0.22963722 0.097815104 -0.2750907 -0.25488284
000350 56 34 f2 bd 5f 90 8c 3d f4 10 5f 3e 74 e6 2c be
       -0.118263885 0.06863474 0.21783811 -0.16884786
000360 04 8d 86 3d a1 53 85 be 86 a8 0f 3e a4 7f ae bd
       0.06569865 -0.26040366 0.1402913 -0.08520439
000370 7c 5e 61 bb 11 4c f2 bc 52 ad e7 3d 3f df 59 be
       -0.0034388592 -0.029577287 0.11312355 -0.21276568
000380 b3 c5 fd bd 1a 98 f3 3d b3 06 88 3b dd 44 43 be
       -0.12391224 0.118942454 0.0041511892 -0.19069238
000390 00 1d b3 3c c8 5e c6 bd 43 ee 62 3d d6 1a 14 3d
       0.021864414 -0.09686047 0.055403005 0.036158405
0003a0 bd c6 b9 bd 87 93 2b be 4b e0 7f be 49 35 09 3e
       -0.090711094 -0.16755496 -0.24987905 0.13399233
0003b0 c4 d5 21 3e 9b 37 2f be 85 c4 4f bc 2d 9c 47 be
       0.15804201 -0.17111056 -0.012681131 -0.1949317
0003c0 c1 9c 1d bd 80 89 2f 3e 45 f0 a8 bd d4 98 d3 3d
       -0.03847957 0.17142296 -0.08248953 0.10331884
0003d0 ea e7 89 bc b0 77 15 3d c9 5d 47 3e c1 11 09 3e
       -0.016834218 0.036491096 0.1946937 0.13385679
0003e0 e1 b1 cb be d5 c4 04 be 75 56 35 3e 43 d6 a6 bd
       -0.39784148 -0.1296571 0.17708762 -0.08146336
0003f0 1a b8 5f 3d 15 d7 ab bd fd 37 48 3e f1 89 4b 3e
       0.054618932 -0.08390633 0.19552608 0.19876839
