results/5_model_3_case_1/epoch50/model_weights.pth (torch, 484214 bytes, 88 tensors)

init_layer.0.weight f4 [64, 3]
000000 54 ee 9c be 3d 87 5a bd d4 c3 8a 3e 55 c6 dc 3e
       -0.3065058 -0.05335163 0.2710253 0.43120065
000010 37 90 15 3d ac e0 4a bd d2 db 4e be 8f 5f 4c be
       0.036514487 -0.04953067 -0.20201042 -0.19958328
000020 bc 52 19 be 04 4f bb 3e 46 8e 8a 3d 2a 93 9e 3d
       -0.14972967 0.36583722 0.06765418 0.07742913
000030 c6 ae 53 bb ca b7 70 3e f0 0d 77 3e 64 da 31 be
       -0.0032300218 0.2350761 0.2412641 -0.17368466
000040 6b 04 78 be 5a c3 4a 3e e0 a6 7e 3e aa 69 11 3d
       -0.24220435 0.19801083 0.24868345 0.03550116
000050 cf 11 93 3e 36 22 aa 3e fc 46 3a 3e f7 0a 5c 3e
       0.28724524 0.33229226 0.18191141 0.21488558
000060 b4 5f 8a 3e 8b 9c 8d be 96 ba e5 3d b5 2b 04 be
       0.2702614 -0.27658495 0.11217229 -0.12907298
000070 ca a7 1a be 22 c9 7c 3e 7e d3 d2 be 2e eb 34 bc
       -0.15103069 0.24686101 -0.4117698 -0.011042399
000080 1f 52 7f 3c ec 49 e7 3d 5b 4c 1b 3e a9 47 84 be
       0.015583544 0.11293396 0.15165846 -0.25835922
000090 f5 ff 01 be b0 2a 03 bc 6d 22 42 bd 61 7f 40 bd
       -0.12695296 -0.008005783 -0.047396112 -0.046996478
0000a0 5a a7 37 3d f9 47 9a 3e f3 91 19 3e 42 5e a5 be
       0.044837333 0.30133036 0.14997081 -0.32298476
0000b0 10 1e cd bc 09 26 38 3e ed 33 1d be 2d 4e 95 be
       -0.025038749 0.1798326 -0.1535184 -0.29161206
0000c0 5a 8b b2 3d 88 06 be bd 23 80 95 3e b2 36 7f 3e
       0.087179855 -0.092785895 0.29199323 0.24923208
0000d0 28 90 4e 3e de 3c 55 be ad bc 4b 3e 71 11 9d ba
       0.20172179 -0.20824 0.19896193 -0.0011983347
0000e0 04 09 87 be 39 b2 91 be fc aa b6 3d e1 08 71 be
       -0.26374066 -0.28456286 0.089193314 -0.23538543
0000f0 6c 1d 05 3e 56 24 ae bd 4c 67 1a be 5b 24 88 3e
       0.12999505 -0.08503024 -0.15078467 0.26590237
000100 21 8b ff bc f6 4f e9 bd 1a 72 33 bb 1a 7d 3d be
       -0.031194272 -0.113922045 -0.0027381242 -0.18504754
000110 62 6f 52 be 03 af cf bd 1d cc 81 3e 75 bd 7c bd
       -0.20550302 -0.10140803 0.2535104 -0.061704118
000120 d9 46 af bd 19 05 e9 bc e8 6b 73 3e ca 4a b9 bd
       -0.08558435 -0.028444814 0.23771632 -0.09047468
000130 22 9f 4d 3e 4e 51 03 be fa 52 37 3d 22 84 7f 3e
       0.20080236 -0.12823984 0.044756867 0.24952748
000140 cf 8d 85 3e 5b f1 25 be 9f 12 38 be 70 62 10 3e
       0.26084754 -0.16205351 -0.17975853 0.14100051
000150 e5 15 8f 3d 08 6c ef 3c e7 67 8a be fc fd 19 3d
       0.06986598 0.029226318 -0.27032396 0.037595734
000160 59 5a 83 be fd 9f 17 3e f5 40 a4 be 02 dc ed bd
       -0.25654867 0.14807124 -0.32080808 -0.11614229
000170 93 28 a4 bd a0 11 e4 bd 33 8f a2 3d 9a 68 b3 3e
       -0.080155514 -0.11136174 0.07937469 0.35040742
000180 f7 e4 3d bd bf 5a 27 3e ba 50 98 3e 09 a6 99 be
       -0.046360936 0.1634321 0.2974909 -0.30009487
000190 97 8d 7d 3e 49 41 f3 bd b6 da 26 3d 93 fc 87 bc
       0.24761043 -0.118776865 0.040735923 -0.016599929
0001a0 bb 36 1e be 53 da 8e bd c6 67 f3 bd 10 c8 82 be
       -0.15450566 -0.06975236 -0.118850276 -0.2554326
0001b0 4d 48 84 3d dd 80 5a bc 52 84 94 be 0f 02 50 be
       0.06459103 -0.013336387 -0.29007202 -0.20313285
0001c0 c7 69 e4 bd de 37 95 bd 74 7b 91 3e 4b 92 c1 bd
       -0.11152988 -0.072860464 0.284145 -0.09451731
0001d0 f8 68 93 3e 55 11 8e be 0a bc 72 3e c6 ef 9e 3e
       0.28791022 -0.27747598 0.23704544 0.31042308
0001e0 75 b6 57 3e 4e ca 35 3d e3 99 b2 be ba 90 0b 3b
       0.21065696 0.044382386 -0.3488303 0.002129598
0001f0 c6 2a 95 3c 4b 86 7b be 36 ed 63 3d 31 9a 69 bd
       0.018208873 -0.24562947 0.055646144 -0.057031814
000200 75 85 91 3e 46 d9 9b bd eb 9c 0a bd f0 57 61 3e
       0.28422132 -0.07609801 -0.033841055 0.22006202
000210 5c a6 08 3e 69 07 33 be 33 a0 81 be 21 85 72 be
       0.13344711 -0.17483296 -0.25317535 -0.23683597
000220 97 bc 21 be ba 19 5b 3e fb c3 67 bc 61 93 42 be
       -0.15794598 0.21396533 -0.0141458465 -0.19001533
000230 11 6b c8 3d af e5 44 3e 57 0c 57 3e fc 45 78 3d
       0.09786046 0.19228242 0.21000801 0.060613617
000240 ea 3e 92 3e cc fb 98 3e 66 bf 5b 3d a9 55 2a 3e
       0.28563625 0.29879606 0.05364933 0.1663424
000250 19 11 a7 be b0 24 83 3e ff 2e d7 bc 94 15 8b be
       -0.32630232 0.25613928 -0.026267527 -0.271649
000260 2c de 37 be 3e 29 b9 be 16 e2 ef bd 74 42 bb bd
       -0.17955846 -0.36164278 -0.11713044 -0.09143534
000270 59 c7 80 3e c8 4f 9a be 58 bd c9 3d 1f 3c e3 bd
       0.2515209 -0.30138993 0.098505676 -0.110954516
000280 b8 1f 4d be 8d 22 96 3d 93 02 3e 3e a9 9e 22 be
       -0.20031631 0.07330809 0.1855567 -0.15880837
000290 8c 63 a1 be 52 9e 74 3e 1f 89 0c bd b8 19 6e 3e
       -0.3152126 0.2388852 -0.034310456 0.23251998
0002a0 c0 36 fd 3d 31 1c 4a 3d 1d e8 86 3e 07 05 b8 bc
       0.12363958 0.04934329 0.26348963 -0.022463335
0002b0 92 cb 84 bd 84 b6 17 3e 3d 7a 82 3e 08 21 8d 3e
       -0.064841405 0.14815718 0.25483885 0.27564263
0002c0 4b 93 ae 3d 03 bb 4b 3e 46 d9 2a 3e ec 8f 1a be
       0.08524188 0.19895558 0.16684446 -0.15093964
0002d0 60 b7 79 be 30 3b 42 be 4b a0 1b be 60 01 77 be
       -0.24386358 -0.1896789 -0.15197866 -0.24121618
0002e0 e9 e5 ae 3c ac fa 92 bd 1c f9 8f 3e f9 6f 91 bd
       0.021349864 -0.07176718 0.28119743 -0.07101435
0002f0 f8 41 74 3c ba 8c b4 3e 30 ef c0 3c 4d 62 49 3e
       0.014908306 0.35263616 0.023551553 0.19666405

init_layer.0.bias f4 [64]
000000 d4 26 54 3e 90 a0 bd 3b 66 3e 76 3d 0e 09 21 be
       0.20717937 0.005786963 0.0601181 -0.1572611
000010 e2 4f 11 bd 48 93 fd bc 7a c1 f5 3d 58 91 1e 3e
       -0.035476573 -0.030954018 0.11999793 0.15485132
000020 50 17 d6 bd a4 44 1b be 18 6e 4b 3e 8b ca 0f 3e
       -0.10453665 -0.15162903 0.19866216 0.14042108
000030 37 93 1e 3e db 80 65 3e 76 64 49 bd 2e 06 47 3e
       0.15485846 0.22412436 -0.049168073 0.19435951
000040 52 8b 51 3e 75 fc e9 3d e1 62 ab 3d 69 33 65 3d
       0.20463303 0.114251055 0.08368469 0.05595723
000050 f6 36 14 3e 6a 5b 7d 3c 5f 89 54 3e 85 07 99 3d
       0.14474091 0.015463689 0.20755528 0.07472137
000060 56 c0 9b 3d be 04 ea bd e6 83 aa 3d c7 c7 6f bd
       0.076050445 -0.11426686 0.08325939 -0.058540132
000070 05 9a 64 be 62 be 21 3e 14 5c 07 be 3f de 02 be
       -0.22324379 0.15795282 -0.13218719 -0.12780093
000080 48 f6 07 be 2d cf d5 3d 3b 50 11 3e 3d 9e 67 3e
       -0.13277543 0.10439906 0.14190762 0.22618957
000090 95 ce 08 be 65 fc e6 bd 74 78 49 be 0c 42 00 be
       -0.13360055 -0.11278609 -0.19674855 -0.12525195
0000a0 a1 c6 6f be 35 e7 61 3d e2 64 4a be 14 07 ba bd
       -0.23415615 0.055152137 -0.19765046 -0.09083381
0000b0 6e 0e ff 3d be ce c8 bc e3 99 0a be 61 de 2b bd
       0.12453924 -0.024512645 -0.13535266 -0.041960124
0000c0 a2 9a 90 bd 4b d1 1b 3e cb b8 06 be f3 91 cb bd
       -0.07060744 0.15216558 -0.1315643 -0.09939947
0000d0 d0 f1 c5 bd 83 ed 09 be dc 10 f5 3d 51 65 9e 3d
       -0.09665263 -0.1346951 0.11966106 0.07734168
0000e0 4d 66 06 3e b9 1a 56 bb d0 67 40 3d 40 89 29 be
       0.13124962 -0.0032669737 0.046974003 -0.16556263
0000f0 97 e7 1a 3d 1a 58 62 bd 76 0b ed 3d 8d ba c2 3c
       0.037818518 -0.0552598 0.115744516 0.023770595

hiden_layers.0.weight f4 [64, 64]
000000 b3 9a 5e be 38 f0 a7 3d 6a ae 6b 3d 96 e4 4f 3e
       -0.217387 0.08200115 0.05753938 0.20302042
000010 cb 6f 13 be c5 8e ed bc 1c 0d d7 3d 68 99 1e be
       -0.14398114 -0.028998742 0.10500547 -0.15488207
000020 26 bc 8c 3d 0a a9 9e bc f7 2e a8 bd ed 88 18 3e
       0.06871824 -0.019367713 -0.08212083 0.14895983
000030 eb 46 81 bd 8f 17 24 3e 85 a3 25 3e 11 58 73 be
       -0.06312355 0.16024612 0.16175659 -0.23764063
000040 f2 d8 98 bc a4 82 c3 bd 67 fd 64 bd 7d 56 62 be
       -0.018658135 -0.09546402 -0.055905726 -0.22103305
000050 a0 81 15 be c3 11 fd 3d 72 d2 d1 bd 65 ac 96 be
       -0.1460023 0.123569034 -0.102452174 -0.29428402
000060 71 72 1d 3e d0 23 66 3c 04 8b c3 bd 5c eb 33 be
       0.15375687 0.014046624 -0.095479995 -0.17570251
000070 45 c9 a1 bd f7 8d 65 bd 45 1f 69 be 9a 5d ba 39
       -0.07899717 -0.05604359 -0.22765835 0.00035546423
000080 ca 84 93 bc 3e 04 08 be 49 5a 69 3d 70 f8 d5 bd
       -0.018007655 -0.13282868 0.05697087 -0.10447776
000090 7e 5c b9 bc 9a fa 1a bd 26 3a a7 3e 03 2e f6 3d
       -0.022627112 -0.03783665 0.3266155 0.12020495
0000a0 43 64 f8 3d 9f 96 13 be b3 5d 55 3e db 43 7a bb
       0.121284984 -0.14412926 0.20836525 -0.0038187418
0000b0 bb a7 d6 bd 10 1e a4 bd be cd ab 3d d5 f0 ff bd
       -0.10481211 -0.080135465 0.083888516 -0.12497107
0000c0 eb 98 94 3e de 9d f8 bd 3d 84 1a be d8 21 6d 3c
       0.29022917 -0.12139486 -0.15089507 0.014473401
0000d0 70 b1 e9 3d f3 74 97 bc 8e 82 0f 3e ed 62 76 3e
       0.11410797 -0.018488383 0.14014646 0.24061175
0000e0 b1 dd 11 be df 3e 95 bc e8 f2 a6 bd e6 ea 12 3e
       -0.14244725 -0.018218456 -0.081517994 0.14347419
0000f0 e9 45 1f bd d6 34 2f be 64 a1 12 3d 50 ba be bd
       -0.03888503 -0.17109999 0.035798445 -0.0931288
000100 6f d5 54 bd b4 e8 3d be 82 25 e4 bd 6e ba 31 3a
       -0.05196136 -0.185458 -0.111399665 0.00067797943
000110 d3 6f 80 be d4 c4 60 be d0 73 01 3e 9b b6 4a be
       -0.25085315 -0.21950084 0.12641835 -0.19796221
000120 f6 da bf bd a7 fd ec be be be a6 3e 72 3b 07 3e
       -0.09367935 -0.4628727 0.325674 0.1320627
000130 0e 1b 3e 3e da e8 6c 3d cd bf bd 3b 14 7a b3 3e
       0.18565008 0.057839252 0.0057906867 0.35054076
000140 14 25 e6 3c 76 11 b4 3e 84 a9 3d 3e c3 61 d5 3d
       0.028093852 0.35169572 0.18521696 0.10419037
000150 21 51 93 3e 02 c4 cc bd da 8b a2 3e c3 dc 82 3e
       0.28772834 -0.09998323 0.31747323 0.25559053
000160 56 33 fb bd 79 4c 58 bd a6 88 5f 3e 23 90 3a bd
       -0.12265651 -0.052807305 0.21829471 -0.045547616
000170 32 18 fc 3d e8 4c 00 3e 38 a5 1e be b4 7a a9 be
       0.123093024 0.12529337 -0.15492713 -0.33101428
000180 e1 4b 24 be e0 c4 0c 3e cb 65 17 3f b4 85 d7 3e
       -0.1604457 0.13746977 0.591397 0.42094195
000190 d7 af 5a 3e d5 10 b1 bd 70 87 99 be a9 32 a3 3c
       0.2135614 -0.086457886 -0.29986143 0.019921618
0001a0 8f 60 87 bd 88 58 e8 3d 9d bc f8 be f3 9e 89 be
       -0.06610214 0.11345011 -0.485814 -0.2687908
0001b0 26 d2 85 3e c1 5b 97 be 21 2f db bd cf e7 58 be
       0.26136893 -0.2956219 -0.107023485 -0.21182178
0001c0 af 35 02 be 11 6c c3 bd 72 4d e7 bd e0 ac a5 bd
       -0.12715791 -0.095420964 -0.112940684 -0.08089614
0001d0 97 72 84 bc ab 6a ae be 14 c4 93 3e 96 56 8f 3d
       -0.016167922 -0.34065756 0.28860533 0.06998937
0001e0 d3 a0 51 be 17 d2 4d be 94 df 2f be 3b e8 10 be
       -0.20471506 -0.20099674 -0.17175132 -0.14151089
0001f0 d2 45 92 3e 2f 21 44 3e 5e eb 67 3e 65 bb 13 be
       0.28568894 0.19153284 0.22648379 -0.14426954
000200 02 12 d9 3d 02 39 a1 bd 5c 2f 3c 3e c7 e1 84 bc
       0.10599138 -0.078722015 0.18377441 -0.01622094
000210 b0 47 56 be dc a4 c3 3b ee cc 3b bd 23 27 44 be
       -0.20925784 0.0059705805 -0.045849733 -0.19155554
000220 ae fa ad 3d 07 8f 4c bd 6a 73 d2 bc 22 a6 02 3e
       0.08495079 -0.04994109 -0.0256898 0.12758687
000230 e5 c9 09 3e 79 80 56 be 78 91 61 3e a2 3e 00 be
       0.13455923 -0.20947446 0.22028148 -0.12523893
000240 5c 3c f6 bd 3d df 55 be 76 25 67 3d 41 9e 94 bd
       -0.120232314 -0.2088594 0.05643221 -0.07256747
000250 7d 65 6c bb de 94 1b be 51 4c 1e be 70 d1 41 bd
       -0.0036071234 -0.15193507 -0.154588 -0.047318876
000260 79 dd 2f 3c 5e 18 20 be b4 c4 06 bd cb a8 74 3e
       0.010733956 -0.15634295 -0.032902434 0.23892514
000270 64 73 e0 bc 0b 69 16 be 8e 38 73 3e 39 40 64 3e
       -0.027398773 -0.14688508 0.23752043 0.22290124
000280 ac 56 31 be 02 f6 09 be 7a b7 3f 3e ab 24 4a 3e
       -0.17318219 -0.13472751 0.18722335 0.1974055
000290 78 f8 97 bd 8b db ff bd 6b 12 ae bc 6a 68 32 3d
       -0.074204385 -0.124930464 -0.021249017 0.04355661
0002a0 50 61 45 be 3a 2b 55 bd 57 e5 46 3e b5 fa 6e 3e
       -0.19275403 -0.052043177 0.19423424 0.23337825
0002b0 5c 9c 3e 3e 38 a2 6f 3d 1a c5 34 bb d5 c5 c4 bc
       0.18614334 0.058504313 -0.0027583302 -0.024020115
0002c0 b7 d9 0b bd cd da 86 3d 13 3e b1 bd 3b 92 c5 bc
       -0.034143176 0.06584702 -0.08654418 -0.02411758
0002d0 b6 76 a4 3d 6d d0 7d 3c 0f 4a 0e be 27 74 11 3d
       0.08030455 0.015491587 -0.13895439 0.035511162
0002e0 e9 86 71 be d3 40 4a 3e f9 93 4a be d2 b7 29 be
       -0.2358662 0.19751291 -0.1978301 -0.16574028
0002f0 e6 15 43 3e 0f 3a 3e be 45 04 cb bd 2e a0 1f 3e
       0.19051322 -0.18576835 -0.09912924 0.15588447
000300 1e 90 21 3d 47 b8 c7 bd 7a 17 38 3d 1c 30 0b bc
       0.03944408 -0.09751945 0.044944264 -0.008495357
000310 f0 28 dd 3d 8c a2 b2 3d f5 17 7e bd 7c ce 42 be
       0.10798824 0.087224096 -0.062034566 -0.1902408
000320 9e 33 22 be 76 49 3f be 4f 7a e0 bc c5 39 9e 3d
       -0.15840003 -0.18680367 -0.027402071 0.077258624
000330 8b 37 34 be 8a 5c 79 be 96 cd 13 3e a2 97 e6 bd
       -0.17599313 -0.24351707 0.14433894 -0.112593904
000340 a1 e0 1a be 7a b5 32 3e cb 8f 61 3e 74 fc d4 bd
       -0.15124752 0.1745204 0.22027509 -0.10399714
000350 25 cf 67 3e ed dd 04 bd 2c 18 28 be 47 25 3c be
       0.22637613 -0.032438207 -0.16415471 -0.18373595
000360 fe 56 d4 3d 84 42 ad 3d 37 61 c4 bd 1e bd 8f bd
       0.10368155 0.084599525 -0.09588855 -0.07018493
000370 fc d5 87 3c a1 47 6c be 1b 03 b8 bd 85 ea 47 bb
       0.016581528 -0.230742 -0.08984967 -0.0030504775
000380 08 dc 13 be e5 72 0d 3d fb f2 0b be 0c 21 32 3c
       -0.14439404 0.0345334 -0.13666908 0.010872137
000390 01 74 a3 3d 3a 2a bc bd 77 f1 1d 3d 22 b4 96 bd
       0.0798111 -0.091877416 0.038560357 -0.07358576
0003a0 ce dd 86 bd 2c 84 c4 3c 9c 15 40 3d 8f a5 1d 3e
       -0.06585275 0.023988806 0.04689561 0.15395187
0003b0 7f 77 5a 3d 41 0e a3 3c 0f 50 bf 3d c5 a1 8e 3d
       0.053336617 0.019904258 0.09341442 0.06964449
0003c0 20 81 03 3e 33 53 29 be 58 6c 8f 3e 31 f3 dc bc
       0.12842226 -0.16535644 0.28012347 -0.026971431
0003d0 66 08 02 be 03 00 32 3e c6 a8 5a 3e 41 2e 35 3d
       -0.12698516 0.17382817 0.21353444 0.044233564
0003e0 09 24 81 be b1 a2 48 be 35 bf 0a be 3c a4 7f 3e
       -0.25222805 -0.19593312 -0.13549502 0.24964994
0003f0 98 19 a6 bd 78 f3 8f bd aa 15 26 bd ac de cb bd
       -0.0811035 -0.0702886 -0.040548004 -0.09954581

hiden_layers.0.bias f4 [64]
000000 8f 47 be bd 36 30 78 3e 50 ef 13 bd 34 36 e3 bd
       -0.092909925 0.24237141 -0.036116898 -0.11094323
000010 0a 2a dd 3c f5 46 14 3c 66 ce b7 3d 94 d6 80 bd
       0.026997585 0.009050121 0.08974914 -0.062909275
000020 f1 d0 dc 3b 05 55 85 bc 6a 99 a9 bd 02 f6 c9 3d
       0.006738775 -0.016275892 -0.082812145 0.098613754
000030 b8 73 84 3d e7 86 29 bd 61 94 eb bb 48 88 8f 3d
       0.06467384 -0.04138842 -0.007189319 0.070084155
000040 87 c5 60 bd 28 ef d0 bc 0e 44 5d 3d 53 69 40 be
       -0.054875877 -0.025504664 0.05401998 -0.18790178
000050 96 da 44 be f3 d6 92 3d 16 27 00 bc 7f 66 19 3c
       -0.19224009 0.071699046 -0.007821819 0.009362816
000060 4e 22 b7 3d e2 63 82 3d 57 6b e2 bd e3 20 55 bd
       0.0894209 0.063667074 -0.1105563 -0.052033316
000070 d9 c4 d0 3d ab 53 b5 3b f9 81 23 bd 2f 8c 82 3d
       0.10193796 0.0055336556 -0.039918873 0.06374394
000080 ad ef 05 3d 49 b4 66 bd 3b 9c e1 bd 09 f9 c3 bc
       0.032699276 -0.056324277 -0.11016127 -0.02392246
000090 3f 61 80 bd 02 b6 75 3d 0a d3 15 be 71 2e 88 bd
       -0.06268548 0.05998803 -0.14631286 -0.06649483
0000a0 4c 76 5a be 28 03 09 be c6 a2 c7 3d bc 62 c8 bd
       -0.21334189 -0.1338011 0.097478434 -0.09784457
0000b0 45 1d c6 3c 55 a7 bd 3d d2 f7 b6 bb 22 1e 84 3b
       0.024183879 0.09260432 -0.0055837417 0.0040319124
0000c0 a4 be ba 3d 72 78 86 bd 3a aa ae 3e c8 4e 89 3d
       0.09118393 -0.06565942 0.34114248 0.067044795
0000d0 38 09 94 bc d4 e5 89 bd 53 36 2e 3d d3 02 1b 3d
       -0.018070802 -0.06733289 0.042532276 0.03784449
0000e0 c8 aa e6 bd 96 4f a5 39 d4 2a af bd ab 1a 80 bd
       -0.11263043 0.0003153055 -0.08553091 -0.062550865
0000f0 fb 8c 6f be f0 17 8f 3d 03 5a bb bd f1 c5 ea 3b
       -0.23393624 0.069869876 -0.09148028 0.0071647097

hiden_layers.1.weight f4 [64, 64]
000000 37 86 22 bd c5 2e 94 3d b1 b4 67 be e6 06 90 3d
       -0.03967878 0.07235483 -0.22627522 0.07032566
000010 71 c6 9b be 35 d2 41 3e 32 79 01 be 46 b4 07 be
       -0.30424836 0.18927844 -0.12643889 -0.13252363
000020 63 9e 21 3d b0 6f 55 3d cc 65 81 bc cd c7 22 be
       0.03945769 0.052108467 -0.01579561 -0.1589653
000030 52 25 cf 3d cc 83 29 3d e4 05 2c bd 6e 91 8d bd
       0.1011454 0.041385457 -0.041997805 -0.06912504
000040 54 26 89 3c 3d c4 74 3e 80 e6 99 3b 87 86 fa 3d
       0.01674191 0.23902984 0.004696667 0.1223269
000050 5c af 56 3e 36 3e c9 bd f3 a3 88 3d f4 dc d8 bd
       0.20965332 -0.09826319 0.06671896 -0.105890185
000060 ac da a4 bd 8f 2a 6a be c3 18 b7 bd c3 5e 4f 3e
       -0.08049521 -0.22867797 -0.0894027 0.20250992
000070 6d 14 e8 3b 5b 64 4f bd 06 cb 08 be ea ca 8a 3d
       0.007082513 -0.050632816 -0.13358697 0.06776984
000080 5b de 8a be 26 37 77 3e f3 1f 30 be 87 9b 45 be
       -0.2712277 0.24142131 -0.17199688 -0.1929761
000090 9d 71 6d bd b3 74 80 bc 81 c7 2b bd 0d c5 02 3e
       -0.05796968 -0.015680647 -0.04193831 0.12770481
0000a0 1e e2 ed 3d 1b 7a 35 3e 01 08 4b be e7 e5 51 3e
       0.11615394 0.17722361 -0.19827272 0.20497857
0000b0 39 42 79 3e 59 36 95 3d f6 36 1f 3e 57 a7 3a be
       0.24341668 0.072857566 0.1554831 -0.18227898
0000c0 fb e4 9d 3c a6 37 20 be ea fb 0d be 4b ca e6 3d
       0.019274225 -0.15646228 -0.13865629 0.11269053
0000d0 26 5f cb bd a6 72 95 3c 07 b5 39 3c 9d 15 72 be
       -0.099302575 0.018243145 0.011334664 -0.23641057
0000e0 55 79 82 3e de c2 22 be c3 0f 5d be eb 85 dc 3d
       0.25483194 -0.15894648 -0.21588044 0.1076773
0000f0 bd 60 1f 3d 0d 67 3f 3d 37 cb ab 3d 70 d6 28 be
       0.038910616 0.046729136 0.083883695 -0.16488051
000100 28 7b e7 3d c8 e8 12 3d e9 83 39 be f9 be a5 3c
       0.11302787 0.03586653 -0.18116726 0.020232664
000110 10 3d 06 be 2f b3 0a bd 93 4d d9 bd 91 73 d8 bd
       -0.13109231 -0.03386229 -0.10610499 -0.105689175
000120 50 92 f8 3d 94 7a 35 be e1 a5 11 3e 52 c0 53 3e
       0.12137282 -0.17722541 0.14223434 0.20678833
000130 91 9d 83 3d 79 62 c7 bc 2f f4 9d 3b 21 f4 e2 3c
       0.06426538 -0.024338948 0.0048203687 0.0277043
000140 24 1d b6 3d 43 b4 02 be 84 9f 44 3e c1 c6 1a be
       0.08892277 -0.12764077 0.19201475 -0.15114881
000150 c6 85 24 3c 73 41 18 3e 13 6b 6b be 7c d9 db 3d
       0.01004166 0.14868717 -0.22990064 0.10734841
000160 36 a7 e4 bb 6f e8 21 3e 9c 4d 29 bc 18 ef a0 bd
       -0.006977941 0.15811323 -0.010333445 -0.078581035
000170 88 80 21 bc 2d 5b 88 3d dc f1 15 bd 65 81 5c 3e
       -0.009857304 0.066580154 -0.03660761 0.21533735
000180 1b fe 80 3e 7c d6 26 3e 33 c1 45 be 96 bd 24 be
       0.25193867 0.16292757 -0.19311981 -0.16087946
000190 b3 c0 4b be 9a 1a bb bc e1 7e 1b be e9 c4 93 be
       -0.19897728 -0.022839833 -0.15185119 -0.28861168
0001a0 dd 03 b6 be b4 d9 3a be 06 15 85 3d b4 dd 5f be
       -0.35549822 -0.1824711 0.064981505 -0.21861917
0001b0 b6 c1 5c 3d 80 f5 07 3e 3c fe b9 3c 05 ff 8a be
       0.053895675 0.13277245 0.022704236 -0.2714769
0001c0 de 6e 2b 3e ec 48 14 3e 3c c6 38 be e7 a6 a5 bc
       0.16741511 0.14480942 -0.1804437 -0.020221187
0001d0 f8 77 53 3c 15 e9 dc bc 4e ab 53 3e 63 c2 52 3d
       0.012907021 -0.02696661 0.20670816 0.051454913
0001e0 ec f8 41 bd ab d2 02 3e b8 7c 54 bd aa 5f cc 3d
       -0.04735653 0.12775676 -0.051876754 0.09979184
0001f0 91 fe 76 3d 1f ae 93 bc 0d da a7 3c 8a e6 12 3e
       0.060301367 -0.018027363 0.020489717 0.14345756
000200 9e ff 47 3d 1e 56 92 3e db 28 05 bd d1 98 ae 3d
       0.04882776 0.28581327 -0.032509666 0.08525241
000210 2e c3 a1 3d cf d3 5a 3e 85 72 17 be 04 75 52 3e
       0.07898556 0.21369861 -0.1478978 0.2055245
000220 71 b3 38 3e 79 21 2b bd 89 97 4c be 6e 1b b3 bc
       0.18037201 -0.04177997 -0.19979681 -0.021863665
000230 f1 4b f8 3d c2 a1 88 bd 5f 4b 58 3e 93 49 01 3e
       0.1212386 -0.06671478 0.21122502 0.12625723
000240 ff be 26 be 12 0f 49 bd f4 f0 29 3d 60 7a 15 bc
       -0.16283797 -0.049086638 0.041489556 -0.009123415
000250 6b 53 d3 bd 3f 0f 3a be 33 a6 11 be cd 14 58 be
       -0.10318645 -0.18169878 -0.14223556 -0.21101685
000260 0a 32 e8 3c 01 42 54 3e 2c 6f a3 be 61 17 11 be
       0.028344173 0.20728303 -0.31920755 -0.14169075
000270 ba 3e 63 3e 1b 7b 10 39 73 ed 1a 3e f5 8f 4c 3e
       0.22191897 0.0001377877 0.15129642 0.1997679
000280 b4 fe c6 3d 11 02 5c be 0b e8 2c be 30 ec 06 be
       0.097165495 -0.21485163 -0.16885392 -0.13176036
000290 ea d9 2a bd 4b bb 69 be be 48 06 be ff 42 eb bd
       -0.041711725 -0.22825353 -0.13113686 -0.11487388
0002a0 41 f9 31 be dc 25 91 be 4e fe 35 be 72 82 ee bd
       -0.17380239 -0.28349197 -0.17772791 -0.11645974
0002b0 75 6a ef 3d 9c e8 bd 3d c0 be 0e be 93 47 b9 3d
       0.11690227 0.09272882 -0.13939953 0.09046855
0002c0 5c 97 36 3d c8 4e 78 bd d6 64 8d bc 5c dc 71 be
       0.04457794 -0.060622007 -0.017259996 -0.23619217
0002d0 15 6a aa ba 46 31 46 be a3 20 c7 3d c6 46 32 bb
       -0.0013001586 -0.19354734 0.09723022 -0.0027202829
0002e0 5d 04 db bd e0 32 32 3e 1b 4d 40 be bf b2 0b 3d
       -0.106941916 0.1740222 -0.18779413 0.034106012
0002f0 a5 c9 a4 bd 9b 58 e4 3d 84 f1 3f 3d fd 2c 92 3d
       -0.08046273 0.11149713 0.046861187 0.07137487
000300 50 58 34 3e 40 24 00 bd 08 1a 1d be 71 32 25 3e
       0.17611814 -0.03128457 -0.15341961 0.16132523
000310 1f 9d 9c 3e 28 d5 6d be e2 df ae bd 04 8a cd bd
       0.30588624 -0.23225844 -0.08538796 -0.1003609
000320 a9 66 53 bd f2 01 58 bd 9b 4d d5 bd 61 49 8b 3e
       -0.051611576 -0.05273623 -0.10415193 0.2720442
000330 3c fe 8e 3e 16 5c 1b 3e 18 b0 83 3c 92 00 0f 3e
       0.2792834 0.15171847 0.016075179 0.13965061
000340 37 89 9e bc a3 f2 0e be e0 3c ac 3d 47 3b 30 3e
       -0.019352539 -0.13959746 0.084100485 0.17210113
000350 92 fa c4 ba 36 47 4a be 05 8e bc 3d a8 e0 7e 3d
       -0.0015028289 -0.19753727 0.092067756 0.062225968
000360 91 5d 52 3e b4 46 e0 3d 66 19 aa bc d5 23 97 bd
       0.20543505 0.109509856 -0.020764064 -0.07379881
000370 cf 59 26 3e bb aa 71 3e 38 eb 1b 3e 52 0c 4f 3e
       0.16245197 0.23600285 0.15226448 0.20219544
000380 bc 8d 59 3e 0f 67 a0 bd 59 95 f6 bd 45 9b 96 3d
       0.21245474 -0.07832157 -0.120402046 0.07353834
000390 e8 9e a7 3d b6 9a 25 3c ba 8b 09 3e ef 81 61 3e
       0.08184606 0.010107687 0.13432208 0.22022222
0003a0 24 a7 2a 3e 9b 2a 52 bd e4 6e 3a 3e e9 cc a4 3d
       0.16665322 -0.051310163 0.18206364 0.08046896
0003b0 39 d8 08 be af 14 03 be b4 b8 68 be b8 18 92 bd
       -0.13363732 -0.12800859 -0.22726709 -0.07133621
0003c0 b8 95 22 3d 21 6f b3 3d a1 93 88 bd 3c 33 9e 3d
       0.039693564 0.087614305 -0.06668783 0.07724616
0003d0 70 b9 4a 3e 07 11 49 bd 2a 79 a2 be 2e 62 b1 bc
       0.19797301 -0.049088504 -0.31733066 -0.021653261
0003e0 bd 6f 11 be 5a 99 a9 bd 47 97 08 3e 08 4d 36 3d
       -0.14202781 -0.082812026 0.13338958 0.044507056
0003f0 d1 f0 38 be c2 e8 44 3e 4a 09 6a 3d f3 63 44 be
       -0.18060614 0.19229415 0.057137765 -0.19178753

hiden_layers.1.bias f4 [64]
000000 ff 52 d1 bc af 47 66 3c 24 30 1e 3d 0c 65 1a 3d
       -0.025552271 0.014055177 0.03862013 0.037694022
000010 0e 60 03 bd 96 61 a5 3d 2c db 1a bd 29 17 5c bd
       -0.032074027 0.08075254 -0.037806675 -0.053733025
000020 07 ab c7 bd b0 ab b8 3c 70 3c a3 bb aa 68 40 bd
       -0.09749418 0.022542804 -0.00498157 -0.046974815
000030 68 6f 53 bd eb a0 d7 bb da 05 02 bd 19 24 24 bd
       -0.051619917 -0.006580462 -0.03174386 -0.040073488
000040 eb fb 52 bd 74 c2 62 bc ba 95 1e 3d 53 87 25 3c
       -0.05150978 -0.013840307 0.03871701 0.010103065
000050 42 83 59 bd 09 03 7a 3d 6b ae e0 3d 27 fa c7 bc
       -0.053103693 0.06103805 0.109707676 -0.024411274
000060 99 9f a2 bd 27 52 61 3d e5 ff 73 3d d8 87 b4 3c
       -0.07940597 0.055009987 0.059570212 0.022037432
000070 a6 7e cc bc c4 24 07 3d 16 4f 2f bd 65 c8 93 bc
       -0.024962734 0.032994047 -0.04280003 -0.018039891
000080 a8 fc 10 bd fd ae b1 bd 3c af 60 3d 3c c6 11 3d
       -0.0353972 -0.086759545 0.054854617 0.03558944
000090 13 f0 09 bd 43 6f d1 bd ad 5b d1 bd a1 8e 95 bd
       -0.03367622 -0.102262996 -0.10222564 -0.07302595
0000a0 65 f7 27 3d dd b7 5e bd d4 c6 88 bd ac f3 84 bc
       0.04100742 -0.054374564 -0.066785485 -0.016229473
0000b0 ae 0f 44 bc 6f fb 9e bd 5f 40 1a bd 6a f5 2b bc
       -0.011966629 -0.07762801 -0.037659045 -0.010495523
0000c0 c8 ab d9 3c d1 1d 13 bd 0f 71 14 3d 81 82 1d 3d
       0.02657117 -0.035917107 0.036240634 0.038454536
0000d0 1b 60 2b bd d1 6e 2b bd de e5 5f bc 94 5e 75 bd
       -0.0418397 -0.04185373 -0.013665644 -0.05990465
0000e0 7d 16 90 bc b0 0e 1b be 52 a8 3b 3d 79 77 5a 3d
       -0.017588848 -0.15142322 0.04581482 0.053336594
0000f0 aa e0 83 3d d1 45 03 be 67 ca e5 ba 85 28 20 bd
       0.06439336 -0.12819602 -0.0017531634 -0.039101142

hiden_layers.2.weight f4 [64, 64]
000000 34 02 ab bb 7a a3 43 bd 43 eb 4b be d3 45 08 be
       -0.0052187685 -0.047763325 -0.19913964 -0.13307886
000010 d4 40 81 3e dc 6d 4e bf 56 95 94 bd 41 8d 25 bd
       0.25244772 -0.8063638 -0.07255046 -0.040417913
000020 ac 82 c4 bd 91 7c 36 be fd b3 a5 bd 24 c1 23 3e
       -0.09595236 -0.17820956 -0.08090971 0.15991646
000030 a7 94 84 3c fc f8 87 3f c8 35 3f be ac 96 3b 3e
       0.016184164 1.0622859 -0.1867286 0.18319196
000040 72 eb 97 3e 73 dd 6d 3c ad fe d2 bd 6f 2b 8a be
       0.29671818 0.01451813 -0.10302482 -0.26986262
000050 cf 79 4f 3e d4 3f 6b be e6 4a d3 be 5f d9 48 3e
       0.2026131 -0.22973567 -0.4126808 0.1961417
000060 47 50 f6 3e 8e 94 97 be 27 cb 82 be a2 1d e6 bd
       0.48108122 -0.29605526 -0.25545618 -0.11236121
000070 b9 b8 8f 3d b4 83 87 be 22 9c b4 3e c0 a5 d3 3e
       0.07017655 -0.2646767 0.3527537 0.41337395
000080 92 17 f9 bd f0 5e 54 3e e3 8f b8 be 9d b8 98 be
       -0.12162699 0.20739341 -0.36047277 -0.2982835
000090 ce cb 94 3e 8e 64 f0 3e 94 62 7e 3e 52 34 b7 bc
       0.2906174 0.46951717 0.24842292 -0.022363815
0000a0 c9 9e 39 bd d6 bd 24 3d b5 69 1d 3e a5 1a a4 bd
       -0.045317445 0.040220104 0.15372355 -0.080128945
0000b0 eb 3e ba 3d 42 24 98 bd 62 16 05 3d ca d2 83 3e
       0.09094032 -0.07428791 0.03249205 0.25746757
0000c0 a8 a7 0e 3e 06 8f b4 3d 1a 5e 28 be 1b 69 ab be
       0.13931143 0.08816342 -0.16442147 -0.33478627
0000d0 70 ca a3 be 1f 88 53 3e fc 31 cc 3e 87 53 75 3e
       -0.31990385 0.20657395 0.39881885 0.23957644
0000e0 ed 0b c6 bd c4 1c 9b 3e 6d 88 a8 3d 1c fe 21 be
       -0.096702434 0.30295384 0.08229146 -0.15819591
0000f0 c9 22 37 be 9e 68 28 3f b4 09 10 3e f9 82 23 3e
       -0.17884363 0.65784633 0.14066201 0.15967931
000100 9e ea 29 3d 28 8d ed bc d5 62 86 3e 48 17 0c 3e
       0.041483514 -0.028997973 0.26247278 0.13680756
000110 f0 8f 4c be c3 b5 79 3e 41 49 10 3e 86 d0 38 3e
       -0.19976783 0.24385743 0.14090444 0.18048295
000120 9c d0 1f 3e c4 a2 85 bc 33 cd 8f 3e 2f de cc 3d
       0.15606922 -0.016312964 0.28086242 0.10003316
000130 f2 74 15 3d 3b 7d 08 be a5 ee 24 be 22 05 76 3d
       0.03648848 -0.13329022 -0.1610666 0.06006349
000140 7c 61 5c bd 48 6f d6 bc 8f 32 23 be ae 14 be be
       -0.053803906 -0.02617611 -0.15937255 -0.37125152
000150 9a 2a a5 3d b2 51 a7 3a 00 2e f9 3d 12 13 93 bd
       0.08064766 0.0012765436 0.12166977 -0.07181372
000160 95 b4 26 bd 16 bd 1b 3d be 39 74 3e 47 2e ea 3c
       -0.04069956 0.038022123 0.23850152 0.02858652
000170 35 6d 9a bd c7 c5 e8 3c c9 c1 c5 bd b7 c5 07 be
       -0.07540361 0.02841462 -0.09656102 -0.13259016
000180 77 5b d1 bd 75 11 81 3e 7a 55 38 3d d8 cb c9 3d
       -0.10222524 0.2520863 0.04500339 0.09853333
000190 ce f7 8c 3e 90 c9 97 bd 1a 2b 07 3e 77 ef 4b be
       0.2753281 -0.07411492 0.13200036 -0.19915567
0001a0 09 f8 35 bd de 6e 92 bd 95 59 bd bd 15 12 fb bc
       -0.044425998 -0.071500525 -0.09245602 -0.03064827
0001b0 74 52 c0 3c 9a 3b 0d be 3f e0 38 be 58 9a 53 3e
       0.023476817 -0.13792267 -0.18054293 0.20664346
0001c0 72 2a fd bd 7c 68 6b 3e 73 9f 1a bd e5 da 43 be
       -0.123616114 0.22989076 -0.03774972 -0.1912647
0001d0 c2 54 f5 bd 5b 90 42 3e d1 02 df be 40 70 86 be
       -0.11979057 0.1900038 -0.43556836 -0.26257515
0001e0 c9 08 f3 3d f1 dc e3 bc 93 da f8 bd 14 62 a0 3e
       0.1186691 -0.027815314 -0.12151065 0.31324828
0001f0 cc c3 d7 3c c6 67 82 3e c8 d1 d1 3d f2 0c 5a be
       0.02633848 0.25469798 0.10245091 -0.21294
000200 af 86 4a 3e c2 4d b5 bd d8 6e 1c be 85 4b 0f be
       0.1977794 -0.08852722 -0.15276659 -0.13993652
000210 26 7d 83 3e 79 40 3f 3e 93 ff 06 3e 72 a7 13 be
       0.25681418 0.18676938 0.13183431 -0.14419344
000220 16 71 b9 be fe 60 e2 3e 64 4c a2 bc 79 d1 4d 3e
       -0.3621909 0.44214624 -0.019811817 0.20099439
000230 6c 8c 5d 3e 5b e0 df bc 7a 92 a2 bd d5 9a 10 3e
       0.21635598 -0.02732866 -0.079380944 0.14121564
000240 2c a8 62 bd e0 9f 76 be 74 8a 7d 3e 67 f5 79 bd
       -0.055336162 -0.24084425 0.24759847 -0.06102505
000250 70 a7 99 be 41 5b 6f 3e ae fd 5e 3e 16 b8 96 be
       -0.30010557 0.23374654 0.21776459 -0.2943732
000260 0b be 1e be 66 c7 0f be 19 54 89 bd d8 ca cf 3d
       -0.15502183 -0.14040908 -0.067054935 0.10146111
000270 84 37 56 3e 05 01 a7 3e cb e8 cd 3d a1 86 17 3e
       0.20919615 0.32617965 0.10054167 0.1479745
000280 42 b6 14 bd b2 d3 a3 be 2c 18 ac 3c ec c9 03 3e
       -0.036306627 -0.31997448 0.02100762 0.12869996
000290 9c ca 92 3e c4 f1 0b be 94 88 78 bd 43 5c 14 3f
       0.28670204 -0.13666445 -0.060677126 0.5795328
0002a0 a2 5a 93 3d cc 3c 46 3c bd d4 cc bd f4 c2 61 3d
       0.07195021 0.012099456 -0.10001514 0.055117562
0002b0 df 0e 9c 3e 14 24 dd 3d ed a3 07 bc 65 f0 05 be
       0.30480096 0.10797897 -0.008278829 -0.13079984
0002c0 2c e7 78 3e 76 a5 50 bc fc 8a 2e be 69 d3 92 3e
       0.24306935 -0.012734761 -0.17045206 0.28676918
0002d0 b0 25 5d be 83 46 84 3c a9 82 1c 3e 57 cc a4 bd
       -0.21596408 0.016146904 0.15284218 -0.08046787
0002e0 3e 31 90 be 42 9b a8 bc 36 1a 45 be 93 6b f4 bd
       -0.2816257 -0.020581845 -0.1924828 -0.11934581
0002f0 bf d1 0b 3d 99 08 33 be 19 b9 fd 3d dc e2 31 3e
       0.034135576 -0.17483748 0.1238882 0.17371696
000300 18 74 88 bd 9a b3 35 be 09 de f3 bc 9c cf 97 3e
       -0.06662768 -0.17744294 -0.02976896 0.2965058
000310 66 8a 4d be 8a a4 9d bd 01 52 44 3d 47 bd 64 be
       -0.20072326 -0.07697399 0.047929768 -0.22337829
000320 f9 02 1e 3c 2e 22 87 3e a6 ae 3f 3e ee dd a1 be
       0.009644263 0.26393265 0.18718967 -0.3161463
000330 51 a0 96 3d d5 81 14 3d 29 cd 8c bd a2 4c 5d 3c
       0.07354797 0.03625663 -0.06875069 0.01350704
000340 40 70 29 3d 6a 89 ad be 8d 9c ee bd f6 03 a8 3c
       0.041366816 -0.338939 -0.116509534 0.020509701
000350 72 16 82 be 76 93 35 3c b5 ff 1f 3e 98 90 e3 bc
       -0.2540775 0.011082521 0.15624888 -0.027778909
000360 87 13 61 bd b1 91 76 3c 27 f5 08 3e 9e a9 06 3e
       -0.054950263 0.015049384 0.13374768 0.13150641
000370 f3 49 a7 bc 06 41 74 3e 0a 27 82 bd fd 3c 70 be
       -0.020421004 0.2385293 -0.06355102 -0.23460765
000380 96 ff 8c be 22 8a 1b be 73 6f 87 3e 44 85 79 3e
       -0.27538747 -0.15189412 0.26452217 0.24367243
000390 6d a3 a0 3c 53 8f f4 3c 1c d8 12 3c ee 6a 95 bd
       0.019609177 0.029853499 0.008962657 -0.07295786
0003a0 00 2d 5e 3e 4f 0d af be c8 82 75 bc a7 30 97 3d
       0.21696854 -0.3418984 -0.014984794 0.073823266
0003b0 05 a0 f0 3d b7 b1 30 bd f5 f3 15 be f5 b9 de bd
       0.11749271 -0.043138232 -0.14643843 -0.10875312
0003c0 51 d0 9d bb 3e c6 09 3d 6a 9d 3d 3e c5 91 4b be
       -0.004816093 0.033636324 0.1851708 -0.19879825
0003d0 c5 16 ac bd 78 6b 55 be 12 66 ad 3d 14 91 bd bc
       -0.084027804 -0.20841777 0.08466734 -0.023140468
0003e0 66 50 13 3e b3 61 2c be cb 8b 05 be 6c ae 86 3e
       0.14386138 -0.16834144 -0.13041608 0.26304948
0003f0 84 83 9f 3d 52 32 4c be e4 ef 97 3e 8c c3 9b 3c
       0.077887565 -0.1994107 0.2967521 0.019014142

hiden_layers.2.bias f4 [64]
000000 d5 1c bc bd a1 2c 3f bd 5d bd 66 3e dc df 1b 3d
       -0.09185187 -0.04667342 0.22533174 0.038055286
000010 08 e1 91 3c dd 56 4e bd 65 03 0c bc 41 72 9f bc
       0.017807499 -0.050375808 -0.008545731 -0.01946366
000020 3d be 88 3d 11 99 ef bc 51 2c 53 3c 26 75 2d bd
       0.0667691 -0.029247792 0.012888984 -0.04234805
000030 e6 f6 8f 3c 27 69 e0 3c 70 53 c9 3c f2 ee 2b 3d
       0.017573785 0.02739389 0.024575919 0.041975923
000040 bb 69 12 3c 03 93 d1 bd c9 c1 8f 3d ca f7 3c bb
       0.008936341 -0.102331184 0.070193835 -0.0028834217
000050 3c ab f7 bb cb 4d 14 bd 0e 08 15 3d 44 86 57 3d
       -0.0075582545 -0.036207 0.036384635 0.05261828
000060 ea 11 72 bb 1b cf e3 bd b2 55 fe 3c 57 23 a5 bd
       -0.0036936947 -0.111234866 0.031046722 -0.08063381
000070 83 ee ab bd 54 87 de 3c 73 04 28 3d 6a 4b 6c 3c
       -0.08395102 0.027164139 0.041019868 0.014422277
000080 46 9f bd 3d ce c0 3e 3c df 84 10 bd 0e 4f ce 3c
       0.092588946 0.011642648 -0.035282966 0.02518418
000090 c1 97 3b 3d 0e 59 86 ba 54 e3 ff 3d 84 5f 5a 3d
       0.04579902 -0.0010249929 0.12494531 0.053313747
0000a0 ea 55 81 3d 7a 9d 09 3d 16 fd c7 3c 63 2e 54 bc
       0.06315215 0.033597447 0.024412673 -0.012950513
0000b0 1f 6b d8 3d d0 63 03 3d bc c5 75 3c a6 f7 25 bd
       0.10567307 0.03207761 0.015000757 -0.04051938
0000c0 4f c1 96 3c 25 db 9f bd fd 3d a8 3c c1 7a b3 bd
       0.018402724 -0.078054704 0.02053737 -0.08763648
0000d0 a8 7c 9f 3c 58 0b 97 3c 92 a5 18 bd 76 0a cf bc
       0.01946862 0.018438026 -0.037267275 -0.025273543
0000e0 fd c9 35 3c 9a 7c ae bc 6e fe 6d be 4e 50 08 bd
       0.011095521 -0.021299649 -0.23241588 -0.03327971
0000f0 9f 8e 7e bd 5b 35 45 bc 5a d2 fd bc 97 d3 6a 3d
       -0.062147733 -0.012036647 -0.030984093 0.057330694

hiden_layers.3.weight f4 [64, 64]
000000 a9 7a aa bd d7 7c 32 3e 28 2c 50 3c 01 0e da 3d
       -0.08324177 0.17430435 0.01270584 0.10647202
000010 5d 0c f6 bd f7 f8 4c 3e 86 c3 0a be ef 73 b5 be
       -0.12014077 0.20016848 -0.13551149 -0.35440013
000020 8c dd f9 3d f8 80 d3 3d e1 0d 06 3e 76 70 49 bd
       0.1220046 0.10327333 0.13091232 -0.049179517
000030 49 ea 17 3e 5d f1 68 be 4e 43 99 3e 3b 85 42 bd
       0.14835466 -0.22748323 0.29934162 -0.04749034
000040 f6 f2 3f be 19 53 04 be 45 aa aa 3d 42 e9 09 be
       -0.18745026 -0.12922324 0.083332576 -0.13467887
000050 f8 d2 5a 3e eb 32 64 be a9 c0 c4 3e fc 1f 54 3e
       0.2136954 -0.22285049 0.38428238 0.20715326
000060 c5 10 1c 3e 57 d5 c6 3d f4 b7 d7 bc 80 cd 25 3c
       0.15240772 0.0970866 -0.026332833 0.010119796
000070 43 8a 90 3d 87 6b 25 3e 1f 6a c7 bd 08 9f 94 3e
       0.07057621 0.161543 -0.09737038 0.2902758
000080 7c 89 4b 3e 03 e7 20 3d ce 86 0e be 11 5b 05 3e
       0.19876665 0.03928281 -0.13918611 0.1302302
000090 e9 98 97 3d 12 c2 c2 3d 02 bb b5 bd 41 ea 5e bd
       0.07402212 0.09509672 -0.088735595 -0.05442262
0000a0 24 82 0b 3d 23 a9 a1 3c bf a0 8c be 68 2e 1f be
       0.03405966 0.019733971 -0.2746639 -0.15545046
0000b0 70 4e b2 3d a5 a8 2d 3e c9 85 db 3b b8 55 84 bd
       0.08706367 0.16958864 0.006699298 -0.06461662
0000c0 2d 7b 70 3e 23 e9 3c be 5c c4 17 be 66 0a 12 be
       0.23484488 -0.1844831 -0.14820999 -0.14261779
0000d0 c3 27 34 3e 4d 0c 89 3e 85 0f 56 3e 92 52 c9 bd
       0.17593293 0.26767197 0.20904358 -0.09830202
0000e0 71 df 33 3e 57 45 55 3e fe bf ac bd 69 64 04 3e
       0.17565705 0.20827232 -0.08435057 0.12928928
0000f0 94 7c d7 3d 93 d9 2d 3e 72 61 a2 bd 3f 73 8d 3e
       0.10521808 0.16977529 -0.079287425 0.27626988
000100 b0 5e e2 bd 96 85 1c bd 2d 1b 15 bd 15 39 88 3d
       -0.110532165 -0.038213335 -0.03640287 0.066515125
000110 f6 a7 32 3c 73 cc 17 3e be 36 7b be ca 04 ec 3d
       0.010904303 0.14824085 -0.24532601 0.11524351
000120 c7 ec 37 be cb 2c 4e be ed 36 9b 3e 71 46 cf 3d
       -0.17961417 -0.20134275 0.30315343 0.101208575
000130 23 2c 5b 3e 4d 9c 18 3c 60 20 d6 bc 38 0a 23 3e
       0.21403556 0.009314609 -0.026138484 0.15921867
000140 97 ac 3d 3e b0 8c 67 bd 6a 9b 58 3e 8d 76 43 3e
       0.18522869 -0.056530654 0.21153036 0.19088192
000150 11 54 38 3e 67 ed bb bd 48 ef c6 bd a5 56 72 3e
       0.18000819 -0.0917614 -0.09713608 0.23665865
000160 0b 71 e6 bd 0a c7 d3 3d 76 69 72 3e 6f ac 3a be
       -0.1125203 0.10340698 0.23673043 -0.1822984
000170 30 fb 33 3e 14 47 0b bd 84 cf 3b be 96 83 d8 3d
       0.17576289 -0.034003332 -0.1834088 0.10571973
000180 1c c0 6b 3e bd 33 08 be 27 1e 48 3e 2d 13 0d 3e
       0.23022503 -0.13300987 0.19542752 0.13776846
000190 8b 4b 76 bd 47 59 2c be 43 1d 25 be cb 1e b5 3d
       -0.060130637 -0.16830932 -0.16124444 0.08843764
0001a0 b5 9f 80 3d 33 52 c6 3c 24 dc 93 3d 92 e0 8b 3e
       0.06280462 0.024209118 0.07219723 0.2731977
0001b0 58 c5 4e 3c 42 63 95 3d a9 b4 08 3e c7 0b 81 bc
       0.012620293 0.072943226 0.13350166 -0.015752686
0001c0 67 78 2c 3e c8 61 44 be 30 eb 8b bd 0f a6 2b 3e
       0.16842805 -0.19177926 -0.06831968 0.16762565
0001d0 5c f3 1a 3e 42 71 d3 bd f5 85 06 be c3 ed 0e 3e
       0.15131897 -0.103243366 -0.13137038 0.13957886
0001e0 37 ff 28 3e b4 1f 05 be 4c 3f 31 3e 38 f4 40 3d
       0.16503607 -0.13000375 0.17309302 0.047107905
0001f0 62 ad 76 3d 33 5c 27 3e 64 30 39 bb 55 d9 f2 3d
       0.060223944 0.16343765 -0.0028257603 0.11857859
000200 3a 68 86 3e d6 6b 73 3e ad 25 e1 be ca e3 91 bd
       0.26251394 0.23771605 -0.43974057 -0.071235254
000210 65 22 7b be d1 64 1a 3e 84 39 bb 3d c8 81 23 be
       -0.24524839 0.15077521 0.091418296 -0.15967476
000220 c5 c0 72 3d 89 64 9b bd 0d c6 d5 bd 4e 46 47 3d
       0.05926587 -0.07587535 -0.10438166 0.048651032
000230 6f 01 0e be cb d1 4a 3d 54 ed a7 3d 99 bb 15 3e
       -0.13867734 0.04951648 0.081995636 0.14622344
000240 a9 b5 49 3d e8 38 76 3e 4f a0 77 be aa d3 09 be
       0.04924551 0.24045146 -0.24182247 -0.1345965
000250 3e 5f 95 bd 22 0b e2 3b cb 1b 32 be 2f a0 81 3e
       -0.07293557 0.0068983 -0.17393415 0.25317523
000260 a3 57 dd 3c 57 e0 ef 3d ec 05 47 be 14 fd 89 3e
       0.027019328 0.11712711 -0.19435853 0.26950896
000270 a1 ec 20 3e 64 b7 34 be ea c6 0c bd 74 11 05 be
       0.15715267 -0.17648083 -0.034369387 -0.12994939
000280 ab ec 55 be 0c 0c e6 bc 1d bd 72 3e 9d d5 93 3d
       -0.20891063 -0.028081916 0.23704953 0.07218478
000290 83 73 7d bd 32 fe ff ba ba 80 a1 bd cc 89 9f 3d
       -0.06187774 -0.0019530712 -0.07885881 0.077899545
0002a0 c7 35 f4 3d a2 f1 90 be 39 b6 bf bd 86 ae d3 bc
       0.1192432 -0.2830935 -0.09360928 -0.025840055
0002b0 db 1a 0f be f6 b2 33 be e9 e0 ee 3c 47 64 24 be
       -0.13975088 -0.17548737 0.02915998 -0.16053878
0002c0 33 d1 4c be c2 ed 7e be 4a 11 1f 3e ba 41 1f 3e
       -0.20001678 -0.24895385 0.15533939 0.15552416
0002d0 6e 5c 11 bc 0c 06 b4 bd 44 e5 50 be 8c fa 30 be
       -0.008872135 -0.08790216 -0.20399958 -0.17283076
0002e0 75 0f 92 be 7d 11 e4 bd 85 d1 92 3e a4 2a 6f 3e
       -0.28527418 -0.11136148 0.28675476 0.2335611
0002f0 f2 ee ec 3d a5 06 09 be ce e0 16 3e e5 dd 98 3d
       0.11569013 -0.13381441 0.14734194 0.07464198
000300 f9 50 e9 3d 2e a9 b7 bd 1e 08 da 3c 66 3d cf 3b
       0.113923974 -0.08967815 0.026615199 0.006324458
000310 c7 66 87 be 13 6d 15 bd 22 14 9f bd f7 44 19 be
       -0.264456 -0.036480974 -0.07767512 -0.14967714
000320 48 02 f0 3d 0d f7 6f be 82 69 7e be 33 fb 37 be
       0.11719185 -0.23434086 -0.24844936 -0.17966919
000330 ef 71 93 be 95 42 ac be a0 6b d3 bd b1 26 b6 bd
       -0.28797862 -0.33644548 -0.10323262 -0.088940986
000340 6e ab 6a be 1e 22 10 3e 1e 50 b9 3d bb 7e 82 bb
       -0.22916958 0.14075515 0.09048484 -0.0039823926
000350 25 34 77 3c 92 44 30 bd e0 3a 90 bd 37 7f ba bd
       0.015088116 -0.043034144 -0.070424795 -0.091062956
000360 fe 43 29 3e 4d 42 c1 3c d7 19 18 3e 42 df 09 3e
       0.16529843 0.023591185 0.14853607 0.13464072
000370 e3 5c 1f 3e 4a fe d7 bd 8b 04 0c 3d 80 6a ca 3d
       0.15562777 -0.10546549 0.03418402 0.098835945
000380 67 7d 94 3d 65 02 65 3e d2 99 07 3d b9 bd 67 be
       0.07250481 0.22364195 0.03310568 -0.22630967
000390 d1 82 6a be de 36 63 3c de 58 ab be 22 05 49 bd
       -0.22901465 0.013868062 -0.33466238 -0.04907716
0003a0 97 4a 62 3d 90 de 34 be 92 9b 8d be a7 45 83 3c
       0.055246916 -0.17663026 -0.27657753 0.016024424
0003b0 d8 f2 0a 3e 64 76 57 be 47 d6 f7 3d e8 d5 55 3e
       0.135692 -0.21041256 0.12101417 0.2088238
0003c0 f4 0a db bd 5c 5e 17 3e d8 7c 72 be da 79 20 be
       -0.106954485 0.14782089 -0.23680437 -0.15671483
0003d0 37 d0 1f 3d ed 89 8f 3e 0f dc 01 3e 9c 6d 99 3e
       0.03901693 0.28034917 0.12681602 0.29966438
0003e0 b8 25 42 3e ff 32 3b 3e d7 b6 03 3e 1d 3e 57 bd
       0.18959701 0.18281172 0.12862717 -0.05254947
0003f0 bc 4f 01 bc 27 78 63 be cb ba 41 be 92 95 80 3d
       -0.007892545 -0.22213803 -0.18918912 0.06278528

hiden_layers.3.bias f4 [64]
000000 67 6d a8 3c ad a4 0e 3d 0c 41 ba bc c6 ef 8c b9
       0.02055998 0.034825016 -0.022736095 -0.00026881526
000010 ef 1a 28 3d 2b 7e 98 bd 04 ad 35 bc d7 86 c1 bb
       0.04104131 -0.0744594 -0.011088613 -0.0059059667
000020 c4 20 d6 3d fa 8d cd 3d 67 90 d4 3c 8d b1 91 bb
       0.10455468 0.100368455 0.025947763 -0.0044462145
000030 1e 81 5b bd 5f 72 84 bc 3a 2d 6d 3d 2e 55 a8 bd
       -0.053589933 -0.016167818 0.05790446 -0.08219372
000040 b6 f1 4d 3d cc 5a ca bd ed ec bd 3d 75 18 51 3c
       0.05027934 -0.098805994 0.09273706 0.012762179
000050 f8 74 f2 bc 14 fa ac 3c 28 a8 77 bd c2 23 af 3b
       -0.02959679 0.02111534 -0.0604631 0.005344839
000060 8d 48 18 bd 5e c3 a2 3c 29 4c 81 3c 5c aa 74 bc
       -0.037178565 0.019868549 0.015783386 -0.014933195
000070 50 2f 14 3d 57 6d f0 bc fb b1 87 bc f5 31 98 bd
       0.036177933 -0.029349012 -0.01656436 -0.074314035
000080 ed 72 15 bc 6f 6d 9e b9 20 15 17 bd 64 65 42 bc
       -0.009121639 -0.00030217643 -0.03688538 -0.011864994
000090 90 01 d2 bc 9a a0 8d 39 27 56 64 bd 07 31 89 3d
       -0.02563551 0.00027013273 -0.055746224 0.06698804
0000a0 42 73 46 bd c9 7d 01 bd 9d a3 20 3d 2e 2d fa 3d
       -0.048449762 -0.0316141 0.039218534 0.122156486
0000b0 41 a8 cc bc 1e f1 a6 3c b2 f6 f5 bc 49 c5 0e 3c
       -0.024982573 0.020378646 -0.03002486 0.008714029
0000c0 cc 48 b0 bd 78 d9 2d 3c bc d6 87 3c fc cf ba bd
       -0.08607635 0.010610931 0.016581886 -0.09121701
0000d0 06 e9 3f ba d9 47 b8 3d 12 3e c5 bd 53 6c 90 3d
       -0.0007320795 0.08998079 -0.096309796 0.07051911
0000e0 8b 67 18 bc d5 94 1b 3d 8a 5d 05 3e 4e 60 98 bd
       -0.00930203 0.037983734 0.13023964 -0.07440244
0000f0 84 2a ac 3d 09 1b 0c bd fe 90 71 bd e5 bc ef 3b
       0.08406547 -0.03420547 -0.058976166 0.007316219

hiden_layers.4.weight f4 [64, 64]
000000 e3 b6 4c be 61 98 ca 3d a3 b1 2f 3e ae 58 9a be
       -0.19991641 0.09892345 0.17157607 -0.30145782
000010 4f 58 d9 bd eb ab 8e bd 83 eb bc bd 5f f3 3d 3e
       -0.10612547 -0.069663845 -0.09224608 0.1854987
000020 2c 94 0f bd a7 d1 d1 bc cc 38 2c 3d de 00 00 bd
       -0.035053417 -0.025612665 0.042046353 -0.031250827
000030 9e d7 9d 3d 1d ed 9f bc a9 b2 f1 bd c3 d3 44 3d
       0.07707141 -0.019522244 -0.11801655 0.048053514
000040 78 6d 65 bd 4b 9e 89 bd f5 8b 14 3e e0 6a 78 3e
       -0.0560126 -0.06719645 0.14506514 0.2425952
000050 02 9d 9e be 82 63 8d 3d 1b 1e ac be bd e8 e7 bd
       -0.30979162 0.06903745 -0.3361672 -0.11323688
000060 9c cf 10 3e cb e3 f7 bd dd a2 36 3e 55 e6 44 3e
       0.14141697 -0.12103995 0.17835565 0.1922849
000070 0e fa 22 be c3 00 d5 bd 3a 53 09 be 02 3b e5 bd
       -0.15915701 -0.10400536 -0.13410655 -0.111928955
000080 2d 3e 70 3e c2 5d 07 bc 81 88 a5 3d 11 2d 38 be
       0.23461218 -0.0082621 0.08082677 -0.17985941
000090 e4 09 77 3e 20 a9 a3 bd 24 6e f3 bd b6 5d 3d bc
       0.24124867 -0.079912424 -0.11886242 -0.011557987
0000a0 c2 0c dc bd 7f 66 be 3d 9a 7f 27 3e f7 84 87 3d
       -0.10744621 0.09296893 0.1635727 0.06617158
0000b0 7f 35 ac bc db 5b 3a 3e ea 9b 26 3e 3a e2 23 be
       -0.021021603 0.18199103 0.16270414 -0.16004267
0000c0 27 7a 18 be 06 58 2a be 15 df e9 3d 79 f5 0e 3e
       -0.14890347 -0.16635141 0.11419503 0.13960828
0000d0 0f e0 85 be 20 3a 14 3e 99 bd 5a 3e 0b 13 30 be
       -0.26147506 0.14475298 0.21361388 -0.17194764
0000e0 7e 64 98 3d 4c f0 68 3c f4 de 74 be 95 ad 20 be
       0.07441042 0.0142174475 -0.23913175 -0.15691216
0000f0 1c ae dd 3d 1d 1c 18 be 19 73 a7 bb 1b c9 dc bd
       0.10824224 -0.14854474 -0.0051101563 -0.10780545
000100 40 97 79 bd a8 41 86 be ff 36 62 be 09 5a 2c 3e
       -0.06093526 -0.26221967 -0.22091292 0.1683122
000110 28 14 14 3e e7 93 1b 3e f9 e8 3a be f0 8a db bd
       0.14460814 0.15193139 -0.18252935 -0.107198596
000120 d7 f6 31 be 78 9e 9e bd 02 c0 65 be fa d6 a0 3e
       -0.17379318 -0.07745069 -0.22436526 0.31414014
000130 75 40 35 3d 07 a1 6f 3e 20 a3 21 be ad 4b b4 3d
       0.044250924 0.23401271 -0.15784883 0.088034965
000140 0b de 05 be 49 5f ba bd da 7f 42 3e 60 ac 5c bd
       -0.13072984 -0.091002055 0.18994084 -0.053875327
000150 8b c6 92 3e 9c 9b ef 3d 4b 4d 80 3e 10 ec 0a 3e
       0.286671 0.11699602 0.2505897 0.13566613
000160 26 46 2b be 57 7a 6a be c0 e8 29 be 22 74 1c 3e
       -0.16725978 -0.22898231 -0.16592693 0.15278676
000170 43 92 0d bb f2 65 88 bc 28 3c 39 be b9 6f 16 be
       -0.0021602071 -0.016650174 -0.18089354 -0.14691056
000180 e9 fb 4f 3e af 42 fd 3d be 0f 08 3e 49 ce c5 bd
       0.2031094 0.123662345 0.13287255 -0.096584864
000190 eb d8 82 be 74 d5 84 3d cb 46 03 3c 6e 57 9a 3d
       -0.2555612 0.064860255 0.008012484 0.07536207
0001a0 7d 16 22 3e 91 d2 9d be 5c 16 b5 3d 5a 7f 51 3e
       0.15828891 -0.30824712 0.08842155 0.20458737
0001b0 e8 12 ab bd 1e b8 10 3e 0a 2e c5 bb 12 56 dd bd
       -0.083532155 0.14132735 -0.006017451 -0.10807432
0001c0 3d 51 cc bd 32 42 8c 3e 33 1e 1a be 9c 90 df bd
       -0.099764325 0.27394253 -0.15050583 -0.10916254
0001d0 db 39 31 3e e6 7b 8e bd f8 c0 5b 3e ce e2 de 3d
       0.17307226 -0.069572255 0.2146033 0.10883103
0001e0 bb a5 2e 3d e0 1e 67 be 9a 3d 23 3e d7 d0 77 3c
       0.04263852 -0.22570372 0.15941468 0.015125475
0001f0 e9 a2 97 3e 49 47 98 3d ee 4e ec 3d a4 0a ec 3d
       0.29616478 0.074354716 0.11538492 0.11525467
000200 32 5e 69 be 03 1a c9 bd e5 b3 e6 bd 11 e1 88 be
       -0.22789839 -0.098194145 -0.11264781 -0.26734212
000210 2e 60 78 bc 22 cd 30 be f6 3f 83 bd 78 d8 00 3e
       -0.01515965 -0.17265752 -0.06408684 0.12582576
000220 f8 5c 3e bd ef 63 f1 bd 37 1b 46 3d 88 15 bc bd
       -0.04647538 -0.11786639 0.048365798 -0.09183794
000230 76 ff 7b bd 3c c6 23 3e 69 b2 72 3e 1f d7 17 be
       -0.061522923 0.15993589 0.2370087 -0.14828156
000240 cd dd f5 3c cd 17 f1 3d 5b c2 d6 bc f4 39 ea 3d
       0.03001299 0.11772118 -0.026215723 0.11436835
000250 9b eb 92 bd c6 59 34 be 2c aa ee bd 9a 0c 86 3d
       -0.071738444 -0.17612371 -0.116535515 0.06545372
000260 4e 5e 25 be 3c 73 a9 be 37 d5 41 bd d7 ac a7 3e
       -0.16149256 -0.3309573 -0.04732248 0.32749054
000270 82 79 4c be e6 8b 2d 3e 3c d9 07 be c1 82 77 3e
       -0.19968227 0.16947898 -0.13266462 0.24170972
000280 ce 37 ba bd d6 48 4b bd 54 48 f9 bd e4 be f4 3d
       -0.09092675 -0.04963001 -0.121719986 0.11950472
000290 ef 4b ff bc b0 46 82 3d 43 56 8f bd 20 f4 6b 3e
       -0.031164138 0.06361139 -0.06998875 0.23042345
0002a0 b5 8c b4 3e 2f c7 a4 3d 42 58 bc be 3b f8 0a be
       0.352636 0.08045804 -0.36786085 -0.13571255
0002b0 a8 a2 75 bd 28 91 ad 3d 77 c1 1f 3e 72 f4 08 3e
       -0.059969574 0.08474952 0.15601145 0.13374498
0002c0 60 31 02 3e c0 68 b2 3c 7e 09 02 3e fc 41 4f be
       0.12714148 0.021778464 0.12698933 -0.20240015
0002d0 94 2b eb bd 75 6c 4f 3e 2f b7 f2 bc 50 79 98 3d
       -0.11482921 0.20256217 -0.029628364 0.074450135
0002e0 65 3f 14 be 8d 1a 84 bc 53 85 27 3e 97 32 ae 3e
       -0.14477308 -0.016125942 0.16359453 0.34022972
0002f0 26 c2 fb 3c 94 34 83 3b 2f 5a 09 3d bc ca ae 3e
       0.030732226 0.0040040705 0.03353327 0.3413905
000300 5e c8 b6 3d ec 8d 25 be 55 06 bd bd 62 f7 3c 3e
       0.08924936 -0.1616742 -0.09229723 0.18453744
000310 a7 92 b7 3d 5a ac 01 be 6b c2 0d 3d 30 45 28 be
       0.089635186 -0.12663403 0.03460924 -0.16432643
000320 3e 2f 82 3e 16 89 c3 3d 79 af d7 3d 60 d4 27 3d
       0.25426668 0.095476314 0.10531516 0.04097402
000330 5f 20 22 3e b7 7c 09 be 0a 47 62 3e c5 6d 8a 3e
       0.15832661 -0.13426481 0.22097412 0.27036873
000340 52 3c 8e 3d 88 31 6c 3d 2f fb 50 be 69 88 8d be
       0.06945099 0.057664424 -0.20408319 -0.27643135
000350 74 38 87 be 9f 18 16 3d 4d d0 53 3e 36 96 25 3e
       -0.26410258 0.036644574 0.20684929 0.16170582
000360 77 93 10 3e ef ad 68 bd 43 6d 07 3e 1b e0 ca bd
       0.14118753 -0.0568065 0.13225274 -0.09906026
000370 46 0d fa bd 7c 76 18 3d ad 5c a7 3c 4e 07 22 be
       -0.12209563 0.03722237 0.020429933 -0.15823099
000380 58 86 1d be 23 08 67 3d 9f 92 65 bd 9f 13 e4 bd
       -0.1538328 0.056404244 -0.056048032 -0.11136555
000390 de b7 d6 3d 2f 08 a4 bd e9 0d a0 bc f3 4e b3 3d
       0.10484289 -0.080093734 -0.019537883 0.08755293
0003a0 05 78 2b bd 13 fa 26 3d 14 83 13 be b6 bc 84 3e
       -0.041862506 0.040765833 -0.14405471 0.25925225
0003b0 f8 61 02 3e 09 b3 06 be d8 43 42 bd 1a 6f 33 be
       0.12732685 -0.13154234 -0.047427982 -0.1752285
0003c0 d6 50 ec bd 6d a3 4b 3e a4 92 d3 bb ef 2f 33 3e
       -0.11538856 0.1988656 -0.00645669 0.17498754
0003d0 b8 24 31 bb 02 05 43 3d 11 e2 13 3e ed 43 63 3e
       -0.0027029943 0.047612198 0.14441706 0.2219388
0003e0 60 77 91 be b1 c4 ba 3c b0 d0 d1 3d 0a 53 27 3d
       -0.28411388 0.022798868 0.10244882 0.040850677
0003f0 38 95 2c 3e e4 9d 32 3c db 80 5b 3e 38 2b 50 3e
       0.16853797 0.010901902 0.21435873 0.20328987
