results/6_model_3_case_2/epoch200/model_weights.pth (torch, 484214 bytes, 88 tensors)

init_layer.0.weight f4 [64, 3]
00000000: 265d b8be ad44 90be d822 653e bc7c d83e
00000010: 328d 173e be4c 24bd 3972 8abd 5336 2cbe
00000020: f3d9 8ebe e7da b43e 0a89 013d c2d7 bd3d
00000030: 4442 03be 2961 963e cee8 9c3e b890 edbd
00000040: fe6f 37be 0fd4 a83e 18af e43e 337f a4bd
00000050: 75e7 dd3e 6399 b83e 8950 2d3e 1ddc da3e
00000060: 0912 5f3e 36c0 7fbe d5e5 fe3d 746d 00be
00000070: 1212 76bd f513 9c3e a13a a5be 15c1 223d
00000080: 503b 253d 05ae c63d 34eb b33d ef02 a2be
00000090: 62c6 0dbd 4eab 82bc 7d6f eabd 433e debd
000000a0: c62f cb3c 2f1e c43e 225f 463e 6301 f7be
000000b0: 05cb 03bd f721 243e 061d 09be f51d 98be
000000c0: 2698 3ebd 0807 08bd 5a02 bd3e 64b8 803e
000000d0: 9eef 773e 6a37 89be e060 1a3e 2e06 753d
000000e0: 7c45 89be 8b81 b8be 421a 9b3d d01b 9ebe
000000f0: 80f9 e33d db7c 31bd 6926 3bbe 371f 433e
00000100: 75d5 0d3d bf32 efbd b235 40bd 24c8 a3bd
00000110: f4e8 82be 002b cbbd 2698 a13e f93d aabd
00000120: 1676 c2bd 378b e53a 8d92 bc3e 1409 923c
00000130: eaaf 2b3e c75a 3ebe de61 8dbc 349f 643e
00000140: b1f1 c93e df5a 0dbe 4fc3 19be 0f64 3e3e
00000150: 30ca f33d c70f db3d 0467 7dbe 6858 0c3b
00000160: ad1f 96be f19f 3d3e 6bb7 dabe 0584 9fbe
00000170: d755 29be 2079 c7bd 553f e23c a619 c13e
00000180: 20f0 b8bd 017b ab3d 3d09 a43e fd91 9abe
00000190: 5edc 323e 32bc 1cbe 5ab0 5e3d 7598 2ebd
000001a0: fd76 5fbe a7bf cfbc 81ab 89bd b052 9bbe
000001b0: 57dd b83d 4fe0 16bc 5c98 e6be 687e 20be
000001c0: feea 35bd 605e 7abe 30a1 d63e 57b5 f53d
000001d0: d394 b13e a531 2abe d092 453e abab 9c3e
000001e0: 723e 083e f159 f3bd 7d35 b4be 7c0c ad3d
000001f0: 4a53 013e 5409 bebe a6d5 533e 7165 03bd
00000200: 1f9c 9a3e 64f4 9bbd 2d96 3abc 1c2d 823e
00000210: d93d e33d c7af e1bd ae29 99be 052f 14be
00000220: 5dcc 20bd 12b6 8f3e df13 23bc 2852 0cbe
00000230: 4116 043e b583 323e 2825 223e a628 f43d
00000240: 8668 873e ac5a a83e 2239 5dbc 7ce4 6c3e
00000250: ffe7 8abe fd76 8a3e 56a9 e03d 999f 4bbe
00000260: bca3 97be e817 00bf 171f b03c b85c 37be
00000270: bbf5 9c3e 087e 6dbe 7a33 2d3e 61b6 e4bd
00000280: 8be2 12be 959c cf3d dfbf 193e 4a92 dabd
00000290: 808b b7be 9b9b d8bb b731 843c 1f98 b23e
000002a0: 45e2 aebd 2dc0 e33c 6d3a c73e 2a14 ce3d
000002b0: c1b1 b4bd 10fe 00bd c6ba 743e 8071 893e
000002c0: ecd0 cc3d c16b c33d 7563 b23d ae9a 98be
000002d0: 9fdb 8bbe 9d9b 5cbe ad4b 00be 9af4 9cbe
000002e0: c20b 7f3c f9cf c9bd 8c36 8b3e efe0 b4bd
000002f0: f4a6 91bc aa8c cb3e 1e5d 8ebc c680 9e3e
-0.36008567 -0.28177395 0.22376573 0.42282665 0.14799955 -0.04011225 -0.067600675 -0.16817598
-0.27900657 0.3532326 0.03162483 0.09269668 -0.12818247 0.29371002 0.30646366 -0.115998685
-0.17913815 0.32974288 0.44664836 -0.08032074 0.4334065 0.36054525 0.16925253 0.42746058
0.21784224 -0.24975666 0.12446181 -0.12541753 -0.060075827 0.30483976 -0.32271293 0.03973492
0.040339768 0.0970116 0.08785096 -0.31642863 -0.03461302 -0.015950825 -0.11447046 -0.10851719
0.024803054 0.38304278 0.19372228 -0.48243245 -0.032176036 0.16028582 -0.13389978 -0.29710355
-0.04653182 -0.03320983 0.36915857 0.2514068 0.242125 -0.2680009 0.15076017 0.059820347
-0.26810825 -0.36036333 0.07573368 -0.30880594 0.11131573 -0.043331962 -0.18276371 0.19054876
0.034627397 -0.11679601 -0.046926208 -0.07997158 -0.25568354 -0.09920311 0.31561393 -0.083126016
-0.09495179 0.0017512803 0.3683056 0.017826594 0.16766325 -0.18589316 -0.01725858 0.22326356
0.39442208 -0.13804196 -0.1501591 0.18592857 0.119037986 0.10696369 -0.24746329 0.0021415
-0.29321042 0.18518044 -0.42718062 -0.3115541 -0.16536652 -0.097399 0.02761809 0.3771488
-0.09030175 0.083730705 0.32038298 -0.30189505 0.17466876 -0.15306166 0.0543674 -0.042625863
-0.21822734 -0.025359942 -0.06722165 -0.30336523 0.09026592 -0.009208753 -0.45038116 -0.1567322
-0.04441356 -0.24450064 0.4191985 0.119974785 0.34683856 -0.166205 0.19294286 0.30599722
0.13305071 -0.11882389 -0.35197058 0.08449647 0.12629429 -0.37116492 0.20686969 -0.032079164
0.30197236 -0.07614973 -0.011388344 0.2542504 0.11095781 -0.11019855 -0.29914612 -0.14471062
-0.039257396 0.28068596 -0.009953468 -0.13703215 0.12899114 0.17433055 0.15834486 0.119218156
0.26446933 0.32881677 -0.013502391 0.23134035 -0.27130124 0.27043906 0.10969798 -0.198851
-0.29617107 -0.5003648 0.0214992 -0.17906463 0.30656227 -0.23192608 0.16914168 -0.111675985
-0.14344232 0.101372875 0.150146 -0.10672434 -0.35848618 -0.0066103465 0.016136987 0.34881684
-0.08539251 0.027801597 0.38911763 0.1006244 -0.08822966 -0.031492293 0.23899373 0.26844406
0.10000786 0.09542037 0.08710376 -0.2980551 -0.27315995 -0.21543737 -0.12528868 -0.30655366
0.015566768 -0.09854121 0.27190053 -0.08831965 -0.017779805 0.39755756 -0.017378386 0.3095762

init_layer.0.bias f4 [64]
00000000: f8ab b63e 8bb9 c2bd d41e 2b3c ef6c 8abe
00000010: ad35 973c 44f3 4e3d f083 363e 7f5b 653e
00000020: bac0 2bbe c9b3 4bbe 8baa 9f3e 94d8 6a3e
00000030: 80a1 2a3e 8969 d43e 1c06 98bd a35e 363e
00000040: 210d a03e 69ea ec3d 37a1 103e f6da ed3d
00000050: acdf 283e 8a83 e13d a822 6b3e b04c 863d
00000060: 8d31 2b3e add9 20be 2afd fd3d 3fb5 e0bd
00000070: 231a d1be 2699 6f3e 052e c0ba a048 08be
00000080: 245d d5bd 85d3 3d3e 02af 2c3e 82e8 873e
00000090: 21b8 d9be 83d3 27be 2444 7fbe 27a2 afbd
000000a0: 551f b2be e49a f3bc 4693 65be 8a72 12be
000000b0: ddf7 c23d 47ed f03b 94df 54be 08e4 3c3d
000000c0: c969 36be 352d 8b3e 7fbb 6dbe fc27 fdbd
000000d0: 91a3 15be c95e 1dbe 9a21 ac3d a098 6d3e
000000e0: e48e 993e a728 ed3d 080c 8e3d bf20 1bbe
000000f0: d7f8 7c3d e877 23bd ffa0 eb3d 5a2b 603d
0.35678077 -0.09508046 0.010444362 -0.27036235 0.018458212 0.050524965 0.17823768 0.22398184
-0.16772738 -0.19892801 0.311848 0.2293418 0.1666317 0.41486767 -0.0742304 0.17809539
0.31260017 0.11568148 0.14123999 0.11614029 0.16491574 0.11011417 0.22962439 0.06557596
0.16718121 -0.15708037 0.12401803 -0.1097207 -0.40840253 0.23398265 -0.0014662152 -0.13308954
-0.10418156 0.1853772 0.16863635 0.26544577 -0.42523292 -0.16389279 -0.24928337 -0.0857585
-0.3478953 -0.029736944 -0.22419462 -0.14301506 0.095199324 0.0073525044 -0.20788413 0.046115905
-0.17813791 0.27182928 -0.23216055 -0.12361142 -0.14613177 -0.15368189 0.084048465 0.23202753
0.2999183 0.115800194 0.069358885 -0.1514921 0.06176075 -0.039909273 0.11505317 0.054728843

hiden_layers.0.weight f4 [64, 64]
00000000: f20f c8be 58fa 023e a564 053e e2d7 593e
00000010: 6318 6cbe 7108 4fbd 838b 843d d980 30be
00000020: 9bdf 053e add7 b6bd 8382 16be 95b0 563e
00000030: c585 b13c 3790 8c3d da3b ae3e 9bab 53bd
00000040: eb1d 98bd 32d7 09bd 84cf be3d 5dc8 61be
00000050: 84d7 0a3c 0f2e 693e 40f4 0ebc 6afe bbbe
00000060: 2931 733d 13cb e0bb 6ea2 0ebe fb30 5fbe
00000070: 4a51 12bd 330f 2ebd 04d8 aebe 4502 fbbd
00000080: eda4 1cbe 99fc 2abe 37b7 543e 6c00 8ebb
00000090: c982 ad3d c226 533c 2dd0 ae3e 5f82 aabd
000000a0: c99e 683e ed0a 67bd e764 3c3e 83be f0bd
000000b0: 0d54 753d 1a49 11be ede8 813d 1a11 3fbe
000000c0: ef19 cd3e d7b8 10be 64da 3dbd bbcf a83d
000000d0: e987 1d3e c524 62bc 613b 983e e7fe 313e
000000e0: ca2e 57be db6e 503d 0c78 92bb 5b80 473e
000000f0: 7e6a e8bc 76fa ffbd 0fcb 8c3c ea54 0dbe
00000100: f725 203d 9683 58be f898 0dbe a4c0 083d
00000110: 7afc 4abe 8163 e5bd a97c fe3d 9752 49be
00000120: 1f79 b2bd 0bf5 a8be b1ad 9e3e 7cc1 b53c
00000130: 5d8d 643e cab6 ba3d 3918 1e3c d695 5a3e
00000140: ccbb 0c3d c32e 8b3e 061d 883d 9c9c 8b3d
00000150: e1e9 a03d 2b37 2bbe 429a 853e 0ea1 5d3e
00000160: 80a2 2bbd 192f 67bd 0cbe 563e dd5c 443d
00000170: a76e 0a3d 7f3b 133e 8e0b c1bd 9a30 77be
00000180: 31ae a9bd 748f f43d 2018 a43e bff8 a63e
00000190: deaa 173e 0b2d 4cbc 4b3e 23be 9d73 f83d
000001a0: e2ae 08be e939 273d f0bd bfbe 7cd3 0abe
000001b0: 18ac 2c3e 16cf 70be 4f82 8c39 10e3 5dbe
000001c0: cab4 16be e2f5 a5bd eeba abbd 3e0f 83bd
000001d0: 73de ccbb 5df6 82be fc9e 583e 0737 a93d
000001e0: ee57 4dbe 63d1 f4bd a30c 6cbe b409 57be
000001f0: e3f4 813e 866c 793e 167c 273e 6d9f 0fbe
00000200: 75e0 d93d c550 6ebd de95 153e 8814 de3b
00000210: 1ec0 33be ef18 113d a843 febc d7ec 22be
00000220: 15ce aa3d 0d7b 9cbc 08c6 9fbc ee84 cb3d
00000230: 6072 ce3d 2c62 2cbe 634b 0b3e ea50 18be
00000240: ce46 9abd 32bb 63be a3b3 053d 29eb dcbd
00000250: 1c3a 1cbd 375b 32be 99a6 32be 5095 9ebc
00000260: 340a 373d cd54 3fbe 6cfe 933a f1dd 873e
00000270: 3572 84bd b08f fbbd b1bb 423e 8bd9 7b3e
00000280: a025 20be 14e4 12be 1343 143e f2e6 333e
00000290: 2fa2 f2bd 36b6 21be 003b 7b3c 35f9 a03d
000002a0: 5395 5bbe bcdf c9bd a9b2 693e 64dc 8c3e
000002b0: 651b 233e b734 9a3d 5389 1d3d 37f6 2a3c
000002c0: a8f9 4ebc 1926 913d 9997 00be 77cc a0bc
000002d0: 5a78 9c3d d5fa 173d 7560 23be 3816 a03d
000002e0: 4e0b 44be 93c9 203e 4497 1cbe 0418 3abe
000002f0: 6a27 1c3e 57d8 64be 7b1b 2ebe 60bf 3f3e
00000300: bbbf 4c3d e2f0 1cbe c2c6 543e 4b68 24be
00000310: 8476 a5bd ae5f 8fbd ced3 5abe 5eec 92be
00000320: 6e4a 47be 0c78 9cbe fc44 573d 4345 393e
00000330: d138 9ebd b104 e7be 19cd 2a3e bd0f 6e3c
00000340: 2062 a2be 2da2 a13e e6ec bd3e fa3c 633d
00000350: 90ff af3e 156f 813d a8ac 84bd 14a8 37be
00000360: ab3f dbbd 6ee0 213e ce10 96be ca4b 54be
00000370: 55d4 043e 320b 83be 2cb7 8ebd 34ba 1abe
00000380: 3a5d a1be 2f54 073e 26b8 ecbb 954b ec3d
00000390: b75f a63e 04af 6fbc b4d4 00be 6a1e 51be
000003a0: 4d43 ff3d 965d 4a3e 5136 37bd be59 243d
000003b0: c6bc 613e 96b4 0fbe c256 f13c 19a6 2ebd
000003c0: b869 133e 65fe 7fbe 212c 023f 55e9 ba3d
000003d0: 8677 5dbe f97a 7a3d 1dfa be3e 449b 01be
000003e0: 7df1 fabe 5a1a 243a 77e6 3ebe c997 e33e
000003f0: 18cc 72bc 73a1 c6bc e5b7 a83a e138 8abe
-0.39074665 0.12790811 0.13026674 0.21273759 -0.23056178 -0.05054516 0.06471922 -0.17236651
0.1307358 -0.08927856 -0.14698224 0.20965798 0.021670232 0.06863444 0.34030038 -0.051677328
-0.074275814 -0.033652492 0.09316924 -0.22049089 0.0084742345 0.22771476 -0.008725226 -0.3671754
0.059373055 -0.006860146 -0.1392915 -0.21796028 -0.035722055 -0.042494964 -0.34149182 -0.12256292
-0.15297289 -0.16697921 0.20773016 -0.0043335464 0.08472211 0.012887659 0.341432 -0.083256476
0.22716822 -0.056406904 0.18397866 -0.11755087 0.05989461 -0.14188042 0.06343255 -0.18658867
0.40058848 -0.14133011 -0.04635085 0.082427464 0.15383877 -0.013802712 0.29732803 0.17382394
-0.21013942 0.05088697 -0.004469877 0.19482557 -0.028371092 -0.124989435 0.01718667 -0.13801923
0.039098706 -0.21143946 -0.13827884 0.03338684 -0.19822875 -0.112006195 0.12426121 -0.19660412
-0.08714508 -0.32999453 0.3099189 0.022186987 0.22319551 0.091168955 0.00964933 0.2134622
0.034358785 0.27184114 0.06646161 0.0681698 0.07857109 -0.16720264 0.26094252 0.21643469
-0.04190302 -0.0564414 0.20970935 0.047940124 0.033796933 0.14378165 -0.09426032 -0.24139634
-0.082851775 0.11941424 0.32049656 0.32611653 0.14811274 -0.012461911 -0.15941732 0.121314265
-0.13347962 0.04082671 -0.37449598 -0.13557237 0.16862524 -0.23516497 0.00026799968 -0.21668649
-0.14717403 -0.08103539 -0.083852634 -0.063993916 -0.006252104 -0.25578585 0.21154398 0.08262449
-0.20053074 -0.11954 -0.23051696 -0.20999795 0.25382146 0.24357805 0.16355929 -0.1402566
0.10638515 -0.058182497 0.14607951 0.00677735 -0.17553756 0.03542417 -0.03103812 -0.1591066
0.08340088 -0.019101644 -0.019503608 0.09937464 0.10080409 -0.16834325 0.13602977 -0.14874616
-0.07533036 -0.22239378 0.032642018 -0.10787041 -0.038141355 -0.17417608 -0.17446364 -0.019358307
0.044687465 -0.18684693 0.0011291034 0.26536515 -0.06467096 -0.122832656 0.19016911 0.24594705
-0.15639353 -0.14344817 0.14478712 0.17568567 -0.1184734 -0.15792164 0.015333891 0.078600325
-0.21443681 -0.09857127 0.2282206 0.27511895 0.15928419 0.07529586 0.03846104 0.010434679
-0.012632765 0.07087345 -0.1255783 -0.019628746 0.07640143 0.037104446 -0.15954764 0.07816738
-0.19144937 0.15701894 -0.15292078 -0.18173224 0.1524941 -0.22348152 -0.1700267 0.18725348
0.049987536 -0.15326265 0.20778945 -0.1605541 -0.08079246 -0.07000671 -0.2136986 -0.2869596
-0.19461986 -0.30560338 0.052556023 0.18092827 -0.077256806 -0.45120767 0.16679801 0.0145301195
-0.31715488 0.31569043 0.37094802 0.055478074 0.34374666 0.06320015 -0.06478244 -0.1793521
-0.10705503 0.1580827 -0.29309696 -0.20732036 0.12971623 -0.2559448 -0.06968531 -0.15110093
-0.3151644 0.13215707 -0.0072241006 0.11537854 0.324949 -0.014629129 -0.1258114 -0.20421758
0.124640085 0.19762263 -0.044729535 0.040124647 0.22044668 -0.14033732 0.029460315 -0.04263887
0.14395797 -0.24999388 0.50848585 0.09126536 -0.21627626 0.061152432 0.37300196 -0.12656885
-0.49012366 0.000626003 -0.18642603 0.4445174 -0.014819168 -0.024246907 0.0012872188 -0.2699652

hiden_layers.0.bias f4 [64]
00000000: 7cde 8cbd 05a2 1f3e b48c 59bd d439 d6bd
00000010: 211e 3f3d 582e a33d 3967 603e 6496 c3bc
00000020: 7ddb 923a ede8 f7bd c8be 63be 64f5 ad3c
00000030: af24 283e 7f59 64bd 9d6e bb3d 8e84 253e
00000040: c4f8 e7bd 9ee5 37bd 837e a03d c19f 4dbe
00000050: 05f7 39be 7aad 143e a1d1 883c faf6 c8bc
00000060: 21af c93c f340 7f3d 597a 15be 7222 57be
00000070: 0808 4a3e 554a aebd 979c 223e 7988 ae3d
00000080: 8350 373d 7d7c e3bd 6a7d 04be 4138 d23d
00000090: fa72 fbbd e607 aa3c 36a0 5cbe 9866 28be
000000a0: ef62 94be 54da 35bd 8015 613e ae5a 21be
000000b0: 3865 e33d aeb1 4a3e 8010 a4bc bc45 c83b
000000c0: a16c 413e b679 edbd df71 12bd 2197 313e
000000d0: cbf9 bdbd 8dcd 9bbd 6d39 dd3b d5b8 dcba
000000e0: d04a 0fbe 55f3 533d 0221 69be ffa1 25be
000000f0: d01c 32bd 586e d23d 7efc 54bd f80b cbbb
-0.06878373 0.1558915 -0.0531127 -0.104602486 0.046659593 0.07967824 0.21914376 -0.023875423
0.0011204329 -0.12104974 -0.22240746 0.021235175 0.16420244 -0.055749413 0.09151957 0.16163847
-0.11326745 -0.044896714 0.0783663 -0.20080473 -0.18160637 0.14519301 0.016701521 -0.02453183
0.02461964 0.0623178 -0.14597453 -0.21009234 0.19729626 -0.085102715 0.15880047 0.08522124
0.044754516 -0.11107729 -0.12938467 0.10264636 -0.122777894 0.02075572 -0.2154549 -0.16445386
-0.2898173 -0.044397667 0.21980858 -0.15757248 0.1110329 0.19794342 -0.020027399 0.0061118286
0.18889095 -0.1159548 -0.035753127 0.17342807 -0.0927616 -0.07607565 0.0067512305 -0.0016839752
-0.13993382 0.05174573 -0.22766498 -0.16175078 -0.04348451 0.10274953 -0.051998608 -0.006196495

hiden_layers.1.weight f4 [64, 64]
00000000: 089f 003d ce39 1f3e 8fca 4bbe 534c b93e
00000010: e79d c8bd b04e b33e 1cd6 2bbe 9f4c 8b3e
00000020: 8f6e cbbd 999a 01bc aa06 153b 2003 4fbe
00000030: 6951 f73d 6217 4a3d d2f7 b83d eb7d a9bc
00000040: 574b 653d 5b80 883e faee a63d 5fd9 5e3e
00000050: ad99 7d3e 8075 79bd 8c99 b03d fd67 cbbb
00000060: 08ea d5bd f296 a8bd a328 efbd 6cfa 343e
00000070: 50b8 983d 9023 28be a4e8 13bf 1c9d 673e
00000080: 90bb 76bd 6379 fe3d dc3a 58be 0966 17be
00000090: da3c 9ebd a05b fa3d 31b0 0abe 4bb2 543e
000000a0: 0d68 163e 1c63 303e 8595 f4be 6338 d53d
000000b0: 0d3e 7f3e c055 343e dc47 3a3d 98e7 02bf
000000c0: af68 343d 09c8 4dbe 6d89 3e3a e06e 373e
000000d0: 5925 0dbe a84e 753d da50 e83d ee7c 98be
000000e0: fc2a 013f 48b3 74bd c391 77be f3a2 393e
000000f0: 7606 893d 0c24 3c3e c7dc 5f3d 6621 f3bc
00000100: 80d8 60bd 71db 90bc a61a 04be 3f82 8b3d
00000110: df40 5abe 66c9 90bd ccb8 35be bb88 b6bd
00000120: bcea 203e 430e f8bd 44ee 803e 2c02 883e
00000130: b36a 863d d2c0 003d f6d4 6d3d 68ce 403d
00000140: a067 a93d 112a cebd 0a72 e03d 4ccd 33bc
00000150: 41e1 513d ec13 073e 7c5b 84be 2b20 ac3d
00000160: d27f 90bd c86f 6f3e 3757 203d cd72 5abd
00000170: 759c 58bd 1939 803d f195 a3bd c084 5e3e
00000180: 4ac9 673e f9f9 283e 5f8f 13be e834 7bbe
00000190: 0b94 17be f0e7 6b3b a5ab 04be 000f 6cbe
000001a0: 2483 29be 5fb0 91be e44b 8e3d 8444 0abe
000001b0: 469a 8d3d 4e26 fd3d 9a85 7fbc 3342 5dbe
000001c0: 0a41 1e3e ce63 1b3e 1f89 50be b3e2 b7bd
000001d0: 6e25 973d 2c4c 0bbd df1f 2e3e 278f c4bc
000001e0: 8c73 1dbb ac21 693d 8c27 87bd 54cf 023e
000001f0: 42a7 bc3d 59c3 6cbc c6ef 883d 54f2 183e
00000200: f548 f43c 2c12 4a3e 0237 35bc 2c0c 153d
00000210: e630 003e 6e16 113e 16ea 04be 64a8 0c3d
00000220: 247a 3c3e 67ff b5bd 1caa 5cbe 844d 1a3e
00000230: 32ff 5a3d a5e0 e5bd 56f4 383e 890a b63d
00000240: 1eeb 5fbe 89b2 d9bc aa13 4e3e e7f8 243b
00000250: f371 3d3d 0fa6 4dbe fa7e 50be d8dc 75be
00000260: f75e 103e e4eb 213e f46c 73be 5d17 a8bd
00000270: 729b 183e f92c a23d 3f5e 5c3e 41b2 853e
00000280: 0cf7 213e 6f64 58be 1d91 0fbe 447f 1abd
00000290: 6213 37bd fdea b9bd 9945 a13c 340b 43be
000002a0: a640 7abe 879a 7fbe 84c9 31be 7812 dabd
000002b0: 05ef d53c 8921 243e 16e9 97bc 51c0 233e
000002c0: 29bc 92bd e0fc 1fbd 83cc 433d 87de 76be
000002d0: 84f9 803c 6272 74be d08d 1c3e d98c c93d
000002e0: d154 11be a874 223e 31fe 84bd 1a34 c2bc
000002f0: 63c5 f939 ef2e f33d 8d5a adbd 8b50 023e
00000300: fca6 513e 776a 12bd b531 f3bd 79d8 2f3e
00000310: c0d2 ba3e c2d0 2dbe 8198 b8bd 5812 ebbd
00000320: 9c17 2fbd 0825 01be 57e6 0cbd 04dd 4e3e
00000330: eb25 6f3e 2433 353e 9737 91bc 380d d73d
00000340: 6e8d 5b3c 2d48 4ebe daa7 a63d 9892 d63d
00000350: 02ab 67bc 1ce5 4fbe 52cf e53c 0358 fa3d
00000360: f9c5 e83d 805e 123e ab83 03bd f964 a9bd
00000370: 10e4 223e b77a 6e3e 9260 593e 0fea 793e
00000380: 7ecd 303e 1ae1 7bbd f77f 11be 63bc 263d
00000390: ed55 123e dffb 743b 9d8c 253e ec88 023e
000003a0: 98e2 163e e52e 67bd 39d6 723e fc38 a33d
000003b0: 225e 41be f77b e2bd ca74 92be 2e11 07be
000003c0: 8875 02bc 99fb 433e 3666 683b 1040 7f3d
000003d0: e6b9 2f3e 03cc 61bc e4fc 84be 9af0 98bc
000003e0: 89ac 3fbe 9327 a1bd c418 3f3e 448b 923d
000003f0: 6daf 3abe d2ed 693e b7c0 8a3d 0b94 79be
0.031401664 0.15549394 -0.19901489 0.36191043 -0.097957425 0.3502097 -0.16780895 0.27206895
-0.09933197 -0.007910394 0.0022739568 -0.20216036 0.12076075 0.049338706 0.09031643 -0.020689925
0.055980053 0.26660427 0.0815105 0.21762608 0.24765654 -0.060903072 0.08623037 -0.0062074647
-0.104450285 -0.082319155 -0.11677673 0.17673653 0.0745703 -0.16419816 -0.57776856 0.22618526
-0.060237467 0.124254964 -0.21116203 -0.14785017 -0.0772645 0.12224507 -0.13543774 0.20771138
0.1468813 0.17225307 -0.47770324 0.104111455 0.24926014 0.17610836 0.045478687 -0.51134634
0.044045147 -0.20095839 0.0007268403 0.17913389 -0.13783778 0.059889466 0.11343546 -0.29782814
0.50456214 -0.05974129 -0.24176697 0.18128566 0.066906855 0.18373126 0.05465391 -0.029679012
-0.05489397 -0.017682763 -0.1290079 0.06811952 -0.21313809 -0.07069664 -0.17746276 -0.08912798
0.15714544 -0.12112095 0.25181782 0.26564157 0.0656332 0.031433888 0.058064424 0.047071844
0.08271718 -0.10066617 0.10959251 -0.01097424 0.05124021 0.13191193 -0.25851047 0.08404573
-0.0705563 0.23382485 0.039145675 -0.05333214 -0.052883584 0.062608905 -0.079875834 0.21730328
0.2263538 0.16501607 -0.1441016 -0.24531901 -0.14802568 0.00359964 -0.12956102 -0.23052597
-0.16553932 -0.28454873 0.06948069 -0.13502699 0.06914191 0.12360822 -0.015595818 -0.21607284
0.15454498 0.15174791 -0.20364808 -0.08978786 0.07380186 -0.03400819 0.17004345 -0.023994042
-0.002402517 0.056916878 -0.0659934 0.12774402 0.092115894 -0.014450871 0.06686358 0.14936191
0.029819945 0.19733495 -0.011060478 0.03638856 0.12518653 0.14168712 -0.12979922 0.034340277
0.18405968 -0.08886605 -0.21549267 0.15068632 0.05346603 -0.11224488 0.18061957 0.08888728
-0.21867034 -0.02657439 0.20124689 0.0025172771 0.04625125 -0.20082878 -0.20360938 -0.24010026
0.14098726 0.15812641 -0.23772031 -0.08207581 0.14903048 0.07918734 0.21520327 0.2611256
0.15816897 -0.21132062 -0.140202 -0.037719026 -0.04469622 -0.090780236 0.019686507 -0.19047242
-0.24438724 -0.24961291 -0.17362028 -0.10648054 0.02611495 0.16028418 -0.018543761 0.15991332
-0.07164795 -0.03905952 0.04780246 -0.24108325 0.015743978 -0.23871759 0.15288472 0.09841318
-0.14192511 0.15864813 -0.06493796 -0.023706485 0.00047640046 0.11874186 -0.08464537 0.12726037
0.20473856 -0.035746064 -0.11874715 0.17172422 0.36488914 -0.16974166 -0.09013463 -0.11478108
-0.042747125 -0.12611783 -0.034399357 0.20201498 0.23354308 0.1769529 -0.017726703 0.10500568
0.013400419 -0.2014472 0.08137484 0.10477179 -0.0141398925 -0.20302242 0.02805296 0.12223818
0.11365885 0.14293861 -0.03210799 -0.08271212 0.15907311 0.23289 0.21228245 0.24405693
0.17265889 -0.06149397 -0.14208971 0.040707003 0.1429059 0.0037381572 0.16166921 0.12747544
0.14734876 -0.056441206 0.23714532 0.07969853 -0.18883565 -0.11058801 -0.28604728 -0.13190147
-0.007962592 0.19138946 0.0035461313 0.062316954 0.17160758 -0.01378155 -0.2597419 -0.018669415
-0.1871816 -0.07868876 0.18661791 0.07155469 -0.18230982 0.22844627 0.06775039 -0.2437288

hiden_layers.1.bias f4 [64]
00000000: 00ee cebc ff4e e33c be1d 793d 8bde 123d
00000010: 64ac 2abd 709d be3d 4acb 3abd ad3c 2bbc
00000020: fd28 00bd 47e4 da3c 510a 02bc af28 3dbc
00000030: 94af 123e bdf9 e03c 5602 9fbd c78c 0dbd
00000040: a8f6 c4bd fdb6 89bd fece b5bc d201 70bd
00000050: 62dc f0bc 25cb 253e 2cbb 173d 9680 ae3d
00000060: 64db 6dbe 3024 2d3d e54e 323d 77bf 9e3d
00000070: 16e1 b6bd 25cb 1abe ca2d 31bd aaa1 5ebd
00000080: 23e1 7abd 82c3 a03c d966 8e3b fe7d 7dbd
00000090: 4f5e cabd af85 33be 1676 92bd f64c 8c3e
000000a0: 9ad5 883d dcfd b8bd 5f6e 1bbd 7285 983e
000000b0: a3a9 3cbd 011d 443e 034b 29bd 41dd a33c
000000c0: eabb dbbc 75b2 6cbd 0ad8 3d3c ca5b 4b3e
000000d0: ae1f 353c 4185 92bc 8664 5b3a 74ab 7abd
000000e0: 36f2 553d 5450 f3bc 4ac9 183d c131 143e
000000f0: 6bd8 a83d bfd4 66bd e714 453d f10f d1bd
-0.025259972 0.02774763 0.06081938 0.035856765 -0.04166831 0.093073726 -0.045604028 -0.010451478
-0.03128909 0.02672018 -0.00793703 -0.011545344 0.1432479 0.027462834 -0.077641174 -0.034558084
-0.096173584 -0.06724355 -0.022193428 -0.058595486 -0.029401962 0.16190775 0.037043735 0.085206196
-0.23228222 0.04227084 0.04353227 0.07751363 -0.089296505 -0.15116556 -0.04325656 -0.054353394
-0.061249863 0.019624475 0.0043457565 -0.061887734 -0.09881269 -0.17531465 -0.07151429 0.27402467
0.06681366 -0.09032795 -0.037947055 0.2978931 -0.046060216 0.19151689 -0.041331302 0.020002963
-0.026823003 -0.057787377 0.011587152 0.19859233 0.011054916 -0.017885806 0.0008369166 -0.061198667
0.052232943 -0.02970139 0.03730134 0.14472105 0.082444035 -0.056355234 0.048115637 -0.10208119

hiden_layers.2.weight f4 [64, 64]
00000000: 966b 2bbe 9167 273e 435e 783d 7501 10be
00000010: 583b 42bd 3bbc 26be f327 debd 4d35 02be
00000020: 7e7c 6dbe 0793 bcbd f1ea 0cbe c0bc b2bd
00000030: fe07 483e ab64 9f3e d7be 23be 4957 103e
00000040: bb0a 783e 3aa7 45bd 2718 fc3c ff7a 58be
00000050: 4df7 853d 5ea9 253e f331 1abe 03c7 483e
00000060: 8d91 763c d5b5 14be c757 18be 3aac 57b9
00000070: 709f cbbc 0da7 01bd 8673 3d3e e7ec 1bbc
00000080: 3df8 65be 1ff5 dc3d 9963 12be 0ea9 eebb
00000090: b134 a13e 8f53 c13d 7b26 6b3e 0d81 2a3e
000000a0: 9e3f 87bd d7c8 973c ef4c 04bd 89fe c63d
000000b0: 6346 123e e192 30be 3827 be3c 726e 0f3e
000000c0: 5d7b a73d 6e04 02bd 278e 9ebd c3f6 87be
000000d0: 351f cabd 5840 0f3e df72 b83d 8e4b 9c3d
000000e0: 6631 27bd 16dc f73d b80d 953d d465 853d
000000f0: fd5b 4ebe 376b 533e 803a dc3d 24c4 a23e
00000100: ebfe 8c3e f5e2 f8bb c9f2 a43d b4ab 843d
00000110: ceaa 433e 397f 023e cb62 533e c8d6 8a3e
00000120: 3bc7 333e 01ed 8b3e 0e45 803e 19dd 543e
00000130: 6ada 063c eca3 81bd 6ba7 013d cb76 ef3d
00000140: 1fa3 18be f983 ad3d a7ac 47be 4b55 6ebe
00000150: 921d f43d ec47 28be 218a e53c 727c 53be
00000160: e582 8abd ad1c ed3c 5eb9 a23e 9b1d 303e
00000170: fa72 e2bd d491 0b3e ea58 273d 6e73 e9bd
00000180: d69f c23d 5e81 803e ec05 793c 6227 da3d
00000190: e2ce 0c3e afaf 2a3e f546 0f3e 5369 9abe
000001a0: a93f f8bc d1a8 c7bd 778f bf3d 1ff6 a93e
000001b0: 228e e13d 6105 ccbd a844 b0bd 61b3 383e
000001c0: 69b1 dabd c795 9f3e 0ec2 edbd 01b9 99be
000001d0: b570 8fbe b9b7 9d3e ecab a9bc a0a1 3cbe
000001e0: fed9 8b3e 6023 c03b dbf3 b3bd 33b7 b93d
000001f0: a25f 8f3d 0221 8f3e 6a4d 50bc 591e 2dbe
00000200: 022b 1b3e ff05 00be 34ff cbbd b8dc 07be
00000210: f44b 893e 02dc f43c 2343 f43e 1416 92bc
00000220: abeb 5abe dbe4 4c3e f777 fd3d 469a 7d3e
00000230: 3294 e5be b2c9 683d 6aeb a4be 2775 573e
00000240: f405 c0bd fb79 79be e4af e63d ee2c 06be
00000250: 3927 afbd 7c9b 4c3d a3e8 173e 042b d63d
00000260: 8bb4 a8be 3fdc 5fbd b82b 20be a8cb bbbd
00000270: 5af0 023e d6a5 80bd 58f8 7e3e 9bb5 8c3e
00000280: bb14 dabd 0ca3 3cbe bb1b a0bd a53e 0b3f
00000290: d8e9 343e eacb 46bd 1dae dabe bd87 c73e
000002a0: aeb3 123e 6312 58be 1365 45be f206 d3be
000002b0: 2539 7e3e d695 e3bd 2ebf f9bd 0dcb a6bd
000002c0: 015d 203e eeb0 083e 524e 1bbe b3f3 8c3e
000002d0: 3448 0bbe 37f4 243e 4b4b 9f3d e2af eb3d
000002e0: 9778 85be a9cd cd3d 0640 44be dd03 41be
000002f0: b21a 8d3e cd7f f5be df87 c73d 7e38 ed3c
00000300: 5614 9bbd 7550 0dbe a201 d3bd 7f1a 273e
00000310: 9f80 eebd 6383 d7bd c990 ad3e 882a 36be
00000320: f750 4d3e 6743 243e 43fa 613e badb 8dbe
00000330: 1393 963c aa49 d03d b707 9b3d 9773 003e
00000340: e705 c53c 1e85 69be 64f9 3dbd 5b87 443d
00000350: 6049 fc3b abaa 4cbd 33d5 bc3d 8c6a fabc
00000360: 8499 01bf 6b05 843c f2d0 fa3d f745 503d
00000370: 9228 a9bd f0de 123e 3f40 28bd c7f6 8dbe
00000380: 65fd 61be c1fc 53be 2810 103e e1c8 763e
00000390: c709 3c3d a0b6 263d 8222 eabc db72 47be
000003a0: 6a27 813e 4b90 a2be 9fa4 a43d c734 ef3d
000003b0: ef80 033e 1c7e 3fbf 470d febc 0145 aabd
000003c0: 03a5 ffbd 81e9 f03d cfef 673e cfe3 5fbe
000003d0: 76eb 25be 5636 b3bd 5cb8 2a3e 0fc7 8bbc
000003e0: 988f 8839 ec65 353e 1f4f 24bd 2dab 4d3e
000003f0: c85a 5e3e ba58 6fbe 6cbd a13e 7d80 66bd
-0.1674026 0.16348101 0.06063677 -0.14063056 -0.047419876 -0.16282742 -0.108474635 -0.12715645
-0.23192021 -0.09207731 -0.13761498 -0.087274075 0.19534299 0.3113149 -0.15990768 0.14095797
0.24222843 -0.048255183 0.030773235 -0.2114067 0.065413095 0.1617789 -0.15058117 0.19607167
0.01504935 -0.14522488 -0.14877234 -0.00020568157 -0.0248563 -0.031653453 0.185011 -0.009516931
-0.22457977 0.10788941 -0.14295806 -0.0072833365 0.31485513 0.09439766 0.22963898 0.16650791
-0.06603931 0.018528385 -0.032299932 0.097165175 0.14284663 -0.1724353 0.02321206 0.14006975
0.081778266 -0.031742506 -0.07741957 -0.26555452 -0.098692335 0.13989389 0.09006285 0.076315984
-0.040818594 0.12102525 0.07278007 0.06513563 -0.20152278 0.20646368 0.107533455 0.31790268
0.27538237 -0.0075954148 0.0805412 0.06478062 0.19108126 0.12743844 0.20643155 0.2711699
0.17556469 0.27329257 0.25052685 0.20787467 0.008230785 -0.06330094 0.031653803 0.1169258
-0.14905976 0.084724374 -0.19499455 -0.23274724 0.119197026 -0.16433686 0.028019967 -0.20652941
-0.067632474 0.028944338 0.3178205 0.17198794 -0.11057086 0.13629848 0.04085628 -0.113989696
0.095031425 0.250987 0.015199166 0.10652043 0.13750795 0.1666858 0.13991912 -0.3015848
-0.030303793 -0.09748996 0.093535356 0.33195588 0.11013438 -0.099619634 -0.08606845 0.18037178
-0.106783696 0.3116896 -0.116092786 -0.3002396 -0.28015676 0.30804232 -0.020711862 -0.1842103
0.27314752 0.005863592 -0.08786746 0.090681456 0.070006624 0.2795487 -0.012713769 -0.16906108
0.15153125 -0.12502287 -0.099607855 -0.13267791 0.2681576 0.029890064 0.4770747 -0.017832793
-0.21378963 0.20009176 0.12376397 0.24765882 -0.44839627 0.056832977 -0.32210857 0.21040784
-0.093761355 -0.24362938 0.11264017 -0.13103077 -0.08552403 0.04995297 0.14834838 0.10457423
-0.32950243 -0.054653402 -0.15641677 -0.09169704 0.12787 -0.06281631 0.24899423 0.27482304
-0.10648485 -0.18421572 -0.07817789 0.5439246 0.1766733 -0.04853431 -0.42710963 0.38970748
0.14326355 -0.21100764 -0.19276838 -0.41216236 0.24826486 -0.11112563 -0.12194668 -0.081441976
0.15660478 0.13348743 -0.15166596 0.27529678 -0.13601762 0.16108786 0.07778033 0.11508156
-0.26068565 0.10048992 -0.19165048 -0.1884913 0.2755943 -0.47949067 0.09742712 0.028957602
-0.07572238 -0.13800223 -0.10303046 0.16318701 -0.11645626 -0.10523107 0.33899525 -0.17789662
0.20050417 0.16041337 0.22068124 -0.277067 0.018380677 0.101703 0.07569831 0.12544094
0.024050666 -0.22804686 -0.046380416 0.047980648 0.0076991767 -0.04996745 0.09220352 -0.030568384
-0.5062487 0.016115865 0.122468844 0.050847974 -0.08259691 0.14342856 -0.041076895 -0.2772734
-0.22069319 -0.20701887 0.14068663 0.24100067 0.045907762 0.04070151 -0.028580908 -0.19477408
0.25225383 -0.31750712 0.080392115 0.11679988 0.12842153 -0.748018 -0.03101219 -0.08313943
-0.12482645 0.11763287 0.22650073 -0.21864246 -0.16203102 -0.08750598 0.1667189 -0.017062692
0.00026046927 0.17714661 -0.04011452 0.2008483 0.21714318 -0.2337369 0.3158983 -0.05627488

hiden_layers.2.bias f4 [64]
00000000: b561 f63c ba07 82bc 16ee 13be 3887 72bd
00000010: 1337 90bc f738 f5bd ad99 8f3d fc76 a5bd
00000020: 018f c23c c7ae 5bbd 09c3 f9bc 055d 06bc
00000030: 285d 0ebd 6040 8cbc 4aca b13d a5ca dc3d
00000040: 48c3 57bb 66c6 8bbc b75a 263c cb21 8fbc
00000050: 8786 85bd 4491 b1bd f5a8 ba3c 68bd 083d
00000060: 24ea 95bc 8f4e 0bbd 7168 633d 7831 4fbc
00000070: 60c9 cdbc 4e3c 513d 0bae 5c3d 82e3 a63b
00000080: 78c4 a8bc 5319 77bd 719e 85bd 2bcb eabc
00000090: 8e8c 113d d078 343d 8e28 67bc 0933 223d
000000a0: a83d 613c ed07 50bb dfff 81bd 1184 963c
000000b0: 6c49 b23c d54b 1ebd 6a7a 373c 465f 2fbd
000000c0: 20d3 ff3c 8dc9 23be 0535 a73d 7dcc e6bc
000000d0: 0311 c2bd a40c 483d f16f debc 10b2 ebbc
000000e0: 4c32 493d 42b7 cebc f8a7 bcbd 3708 84bd
000000f0: dc4c 433b 5623 2f3e d331 5a3c 86ad 323d
0.030075887 -0.015872825 -0.14446291 -0.059210986 -0.017604386 -0.11973756 0.07011733 -0.08079335
0.02374983 -0.053633478 -0.030488508 -0.0082008885 -0.03475681 -0.01712054 0.08681162 0.10780839
-0.0032922793 -0.017062377 0.010153464 -0.017472168 -0.065198 -0.08670285 0.022785643 0.033383757
-0.018300124 -0.034010466 0.055519525 -0.012646072 -0.025120437 0.0510829 0.053876918 0.005093039
-0.020601496 -0.060326885 -0.06524361 -0.028661331 0.035534434 0.04406053 -0.01410879 0.039599452
0.01374761 -0.0031743005 -0.06347632 0.018373521 0.021763526 -0.038646538 0.011198619 -0.04281547
0.031228602 -0.15994854 0.081644095 -0.02817368 -0.09475901 0.04884018 -0.027152987 -0.02877143
0.049120232 -0.025233869 -0.09211725 -0.06446879 0.002980045 0.17103323 0.013317543 0.043622516

hiden_layers.3.weight f4 [64, 64]
00000000: 8671 febc 7bcd 763e 0339 af3e 03fd d7bc
00000010: 451d 81ba 6aa5 533e c982 c4bc fb8a 5abe
00000020: 8fa8 113d b605 ea3d 0c06 123e 0276 31bc
00000030: 839a 2c3e 02a9 18bd 436c 0a3e b92f d6bd
00000040: e66c cbbd abda 6dbe 9baf 393d ea23 eebd
00000050: ad25 3b3e 2262 45bd ed80 e53e 3397 7c3e
00000060: 1b5a 373e 5ace cb3d 9326 40be ceab 6ebe
00000070: 4769 093e 26ff 063e 7505 a2bc 174a 273e
00000080: 2eb2 543e fbea bd3d 5e59 49be 9cb0 3b3e
00000090: a155 1b3e 5aa4 62bd d85f 7c3e 6af6 aebd
000000a0: 724e 703d 57b7 0b3e 39db 8dbe ebce debd
000000b0: 036c 213d 956f 203e 2336 713d 6129 b9bd
000000c0: a2ba 283e ce45 48be c1d5 8ebd 44d6 e7bc
000000d0: 39fe 8e3e f8b5 5d3e 9a87 513e b613 b4bd
000000e0: 7f23 b73d ae9b 293e ebd6 81be 7493 403e
000000f0: f70b 403d d0e0 1b3e fde8 a1bd 2e22 8d3e
00000100: b8d8 71be b8ef da3d 4148 95be b370 5a3e
00000110: 07d6 2d3d fab5 6d3e fc40 55be 4552 0e3e
00000120: 4923 24be ee77 00be 9077 ef3d 9b3a 283d
00000130: 6265 b63d ba2a aa3d f919 043c f4f7 723e
00000140: 82dc fe3d 6acc 9ebd 9238 243d 52e5 033e
00000150: 31cc 343e de48 22be 4a36 0fbe 667a 603e
00000160: 24b3 08bd e9de c93d 59bd 523e 55e1 06be
00000170: 65fe 3a3e 8a1c 90bb 4106 85be 8e42 223d
00000180: 7b11 d7bc 608c 3ebe 12f3 833e dbbd 9c3e
00000190: 6eb4 77bc b3e8 0cbe 4be3 a0be db98 053e
000001a0: 2e26 283d c89c a3bd fac3 d43d 9313 9f3e
000001b0: 82be a6bd 3938 243e e201 98bc 072b 96bc
000001c0: 2968 0d3e 41a3 05be 39f2 98be 1761 333e
000001d0: e183 0e3e 5661 3bbc c259 cabd 8a7a 5c3e
000001e0: 2034 903d 7e49 08be 844d 7c3e 8ef5 2b3d
000001f0: d9f1 953e 40cd 2a3e 653a 5a3d 3f67 103d
00000200: 19b2 06be e56b 883e a90d 56be fc6a 03bd
00000210: d6cf 99bc fff8 4d3e 0882 843e 110e 5cbe
00000220: 4d50 7a3e 4bfa 8fbc c10b 4d3c c813 0c3d
00000230: 0fd9 84bd a785 1e3d d86a 043e 8bb4 963d
00000240: d239 1c3e c177 d13d e614 bcbe c7bc 25be
00000250: 8657 b8bd 0b6e 3bbd 43e3 fabd dc4c 4f3d
00000260: ed11 273b 0314 8b3e 031d 8cbe 0466 093c
00000270: 235a 903e 3dd8 97be 6743 a8bc 7f4f 10be
00000280: 4097 83be 4a1f 96bd 6c54 413e 3e03 09bb
00000290: 27cd e3b8 9c94 2fbc d000 083e 60cf 6e3d
000002a0: e84b 5d3e 0f57 0cbe 0927 05bd 24f9 e33d
000002b0: f79c 16be 5161 a8be 1567 7ebd bbb7 7ebe
000002c0: c65a b2bd 038f 2fbd af03 863e b281 1b3e
000002d0: a9c6 43bd 1914 303c e22e 7fbe 2ddd 89be
000002e0: a0e5 a6be c4b6 6ebe 621a 043d 081b 083e
000002f0: bc8a 953c de7a 953d 86df b43c 36a6 113c
00000300: 4b5b e43d 882c 8ebe cffe 473e bb6d b3bd
00000310: e188 87be 1092 a3bd 5fef db3c d0b0 12be
00000320: 8590 4b3d 0beb 4cbe c455 18be 2dc4 4dbe
00000330: e143 42be f519 f0be 1971 e0bd c334 5abb
00000340: 8690 37be 6115 763e 331d 233b 0bbb b4bd
00000350: 2612 483d 3deb 85bd c85e d4bd e73f d7bd
00000360: 4d79 5d3e 8de7 db3d 64b8 b63d 4048 9c3c
00000370: 3f6e de3d 1ca8 74bd 5f33 783c 7355 ef3d
00000380: 9395 993e 62c9 453e 0cdf a93d 5a74 82be
00000390: 60db 41be a560 903c e3cb 9abe 8cd0 5ebd
000003a0: 1d07 26bd b402 7ebe 5f9f 83be 0568 103d
000003b0: f75a 963e e756 35be 9201 853e d578 253e
000003c0: 28be 3fbd 3992 073e 4421 e1bd c53c c3bd
000003d0: 1472 bd3d 659a 4a3e aa1d 493d 37f5 943e
000003e0: 5f60 5d3e dd09 c23d 7b36 233e 66ab fbbd
000003f0: d226 be3c 7390 27be 4722 34be dedf b43d
-0.031059992 0.24101822 0.34223184 -0.026365763 -0.0009850642 0.20668569 -0.023988144 -0.2134208
0.03556114 0.114268705 0.14260119 -0.010831358 0.16855817 -0.037270553 0.13517861 -0.10458321
-0.0993288 -0.23227946 0.045333486 -0.11627944 0.18276091 -0.04818929 0.44824925 0.24667053
0.17905466 0.09951468 -0.18764715 -0.23307726 0.13419066 0.13183269 -0.019777993 0.16336857
0.20771095 0.092733346 -0.19662997 0.1832909 0.15169384 -0.05533252 0.24645936 -0.085430935
0.05866856 0.13644157 -0.27706316 -0.1087931 0.03940965 0.15667565 0.05888952 -0.090410955
0.16477445 -0.19557878 -0.06974364 -0.028300412 0.27928331 0.21651447 0.20461884 -0.08792822
0.08942317 0.16563293 -0.25359282 0.18806249 0.04688641 0.15222478 -0.07905767 0.2756514
-0.23617828 0.10690254 -0.29156688 0.21332054 0.04244044 0.2321395 -0.20825571 0.13898571
-0.16029085 -0.1254575 0.116927266 0.041071516 0.08906056 0.08308931 0.008062833 0.23727399
0.12444402 -0.07753833 0.040093012 0.12880448 0.17656018 -0.15848109 -0.13985553 0.21921691
-0.033373967 0.0985697 0.20580043 -0.13171895 0.18261106 -0.0043979334 -0.25981334 0.039614253
-0.026253453 -0.18608236 0.25771385 0.30613598 -0.015118701 -0.13760643 -0.3142341 0.13046591
0.041052036 -0.07988888 0.10388942 0.3106962 -0.08141805 0.16037072 -0.018555585 -0.018331064
0.13809265 -0.13050558 -0.298723 0.17517506 0.13917495 -0.011436781 -0.09880401 0.2153112
0.07041192 -0.13309285 0.24638945 0.041982226 0.29286078 0.16679859 0.053278346 0.035254713
-0.13153876 0.26644817 -0.20903648 -0.03208445 -0.018775862 0.20114516 0.25880456 -0.21489741
0.24444695 -0.017575404 0.012515009 0.034198552 -0.06486713 0.03870168 0.12931383 0.073586546
0.15256432 0.10227919 -0.36734694 -0.16185294 -0.09001069 -0.045759242 -0.12250378 0.05061041
0.0025492862 0.27163705 -0.27365884 0.008386139 0.2819377 -0.29657164 -0.020539952 -0.14092825
-0.25701332 -0.07330187 0.1887986 -0.0020906474 -0.00010862416 -0.010716584 0.1328156 0.058303237
0.21610987 -0.13705085 -0.03250793 0.11131504 -0.14708315 -0.32886747 -0.062110025 -0.24874775
-0.0870872 -0.042860996 0.26174685 0.15186194 -0.04779688 0.010746979 -0.24920228 -0.26926556
-0.32597065 -0.23311907 0.032251723 0.13291562 0.01825463 0.07298826 0.02207924 0.008889725
0.11150225 -0.2776835 0.19530796 -0.08761164 -0.26471618 -0.079868436 0.02684754 -0.14325261
0.04969837 -0.20011537 -0.14876467 -0.20094366 -0.18971206 -0.46894804 -0.10959072 -0.0033295609
-0.17926225 0.24031593 0.002488923 -0.08824738 0.048845433 -0.06539009 -0.103696406 -0.10510235
0.21628304 0.10737524 0.089218885 0.01907742 0.108608715 -0.059730634 0.015148967 0.1168622
0.2999693 0.19315103 0.08294496 -0.25479394 -0.18931341 0.017624209 -0.30233678 -0.054398105
-0.040534128 -0.24805719 -0.25707528 0.03525545 0.29366276 -0.17708932 0.2597776 0.16159375
-0.046812207 0.13239373 -0.10992673 -0.09533075 0.09250274 0.1978546 0.049100555 0.29093334
0.21618794 0.094745375 0.15938751 -0.12288551 0.02321187 -0.16363697 -0.17591201 0.08831762

hiden_layers.3.bias f4 [64]
00000000: 81e5 6abd d4dc bfbb 8cf2 3d3d ad07 1fbd
00000010: e8ae 9a3d 4ecc d03c 8cdd e03d 3cfd 5b3b
00000020: 30b2 713d 56ae 58bd c9b0 e6bc 7e8c 8ebd
00000030: 1d70 0a3d 6199 0a3c 0273 b93d 6375 173d
00000040: 9e56 123d bfb9 98bd 783d 1d3d 044a 21bd
00000050: 08ce 3bbd dc1a 20be 1361 5cbd 331b 6a3d
00000060: 0625 e9bd 61f5 e9bc 2a17 b3bc 3ef6 783c
00000070: 1e60 e6bd 5f73 a7bd 6078 713c 1802 6f3b
00000080: 4224 813c 5a06 be3c cbb3 c8bd ff20 b93c
00000090: d644 45bd a4dd 803d 5160 25bd ca18 ffbc
000000a0: e98a 5dbd 9436 96bd b115 2c3d 04b2 c43c
000000b0: daa8 8abd 9017 143c 6d5f 26bc a2ac e3bc
000000c0: ebef 973a d6a2 de3c d179 623d 9c6b 00be
000000d0: 5670 d03c 50b8 01bd 57be 293d 8448 983d
000000e0: bc81 fd3d 03df 273d 1da5 16bd 0ce5 a8bd
000000f0: 606f a9bd 1ce6 18bb ffa3 1cbd eab9 e43c
-0.05734778 -0.005855182 0.04637389 -0.03882568 0.07552892 0.025488045 0.10979757 0.0033567687
0.059007823 -0.052900635 -0.02816047 -0.069603905 0.033798326 0.00845942 0.09055139 0.036977183
0.035727136 -0.07457303 0.0383887 -0.039377227 -0.045850784 -0.15635246 -0.053803515 0.057154845
-0.11384015 -0.028559389 -0.021861631 0.015195427 -0.11248802 -0.08176302 0.014738172 0.0036469754
0.01576436 0.023196388 -0.09799918 0.022598742 -0.04816135 0.062922746 -0.040375058 -0.03113975
-0.054087553 -0.07334629 0.042012874 0.024010666 -0.06770487 0.009038821 -0.010154587 -0.027792279
0.0011591887 0.027177256 0.055291954 -0.1254105 0.025444191 -0.031669915 0.041441288 0.07435706
0.123782605 0.040984165 -0.036778558 -0.08246812 -0.08273196 -0.0023330515 -0.038242336 0.027920682

hiden_layers.4.weight f4 [64, 64]
00000000: f873 24be 2dbc b63d c9b5 183f 416e 68be
00000010: 2c09 a8bc c0de d7bd 0d07 23be afae 0e3e
00000020: 6736 8ebc b01f 19bf 7de1 9bba c440 a83d
00000030: b876 623e fa6d 10be ce30 88be 5af6 c83e
00000040: 2fe9 5ebd 173a 6dbd a112 743e a34d cf3e
00000050: 5e30 0ebf 2d85 733e 0659 d7be 1a7b b13e
00000060: 7a9c 78bd d7a8 6cbe 5e55 973e 3f5f 453e
00000070: e810 70bf 29b8 bfbe 341e 11be 0b3a 373c
00000080: 4a07 473d 04c3 dc3d f669 c23d 81f8 0abf
00000090: 39c7 823d 22b9 273d a4d6 5dbd 2f8d 00be
000000a0: 6554 c5be 89a5 ab3d 7898 233e 0aeb 453e
000000b0: e680 49be 66c2 803d 90e1 583e c112 9dbd
000000c0: 85b0 a3be 387c 06bf 5b68 ebbd aa87 a33c
000000d0: 5e28 04be 5498 39bf ba68 873e 522a b23d
000000e0: c941 4b3d 3351 f93d 2d29 4abe c7d8 2ebf
000000f0: b338 373e a1d5 b23e e109 32bd 5fdb 54be
00000100: ba65 f3bc c5e3 f4bd 8997 95be 7811 dc3e
00000110: 2065 813c 7126 4a3d 1006 033d 80e3 77bd
00000120: 4046 07be 34e1 25be 68e3 48be 5051 d13d
00000130: c53c 123d c55f b3bd fef7 2dbe 3669 6e3e
00000140: 3179 2cbe ed23 2cbc 429a 563e 3273 b53d
00000150: 09ff 213e bc5e 6e3d d38e 543e fbd3 c83d
00000160: 3cd0 92bd 0050 78be 3f52 41be e2a0 773d
00000170: b873 0d3d 434a dc3b b4f0 85bd 3e96 53be
00000180: 88ec 5d3d 2d4a 443d e1f9 1c3e c4ea 56be
00000190: 1352 97be 7a16 b63c ef17 e13c 23de 443d
000001a0: 2979 d73d 13bb 7dbe 20d1 f13d 336d 9c3e
000001b0: 9754 16be a27e c93d 0b09 32be 003d 5bbd
000001c0: 78b7 34be 9571 603e 10d9 08be b93c 28be
000001d0: ecdf 8c3e c89b eabd ffbd 253e e1c4 bc3d
000001e0: f9b1 123d a724 aebe ee6e 2c3e 2008 213d
000001f0: ce1f 6a3e fcd6 3b3e 3304 e63d ce26 d93d
00000200: 4426 c9bd 52cc 7d3b 5376 6fbe 0905 21be
00000210: 88c2 cebd d0c7 0fbe 2245 123d e978 213e
00000220: fbab b8bc 0339 37be 1be0 d5bc 88b0 983d
00000230: f798 813c 5ab4 8fbd eb6a aebd 9922 86bc
00000240: 10fa 6e3d 5d97 ac3d 3584 9cbd 882c bf3d
00000250: 6f0f 58be 375d 3abe 5c1a 13be b35a 7b3e
00000260: 9298 83bd 5461 75be d4f5 4ebd 2b19 633e
00000270: 7149 58be bae6 ed3c 902b 6dbe bd91 a93e
00000280: e5e8 5bbe c2a6 153d 4d3c bbbd 33ac 0a3d
00000290: 6d52 92be 8978 80bd eb0d 05be 3643 823e
000002a0: bc71 883e cc7c 7c3e 5fcc 8dbe 5473 babd
000002b0: 3387 adbc b8db 3d3d 9f05 2f3e 9f9d a7bd
000002c0: 63a2 4a3e 380a 483d 786d 9c3e 4baa 3dbe
000002d0: 0281 9cbe e46a 7e3c 2fc3 b7bc 111a 863b
000002e0: d256 66be 7a3f fbbd 9719 6d3e 6364 603e
000002f0: a54c acbd b255 393e 0143 583c f8b8 d6bd
00000300: bf63 86bb 35b4 96be ea0b 0cbd 58af a03e
00000310: d469 e03d 7ea6 483c cf50 ba3c 17a6 73be
00000320: cb5c 793d 3d67 253e b6f4 2f3e 03df 0ebe
00000330: 6988 4dbd ebb4 d53d 4fcc 663e 5960 373e
00000340: c770 cd3d 348e 563e 90c4 97be 41be 67be
00000350: 77a8 103e 02cd 9e3d 0d18 793e e3df 07bd
00000360: bb19 463e 26b5 49be 90af 383e 1c9e 68bd
00000370: d6cb 77bd 5fbb 98bd 4caf 843e 67aa 3cbe
00000380: 08ee 47be 8120 953d fdbd 92bd b54f 67be
00000390: aacf ea3d 1bc9 d9bd 4f18 d6bb 9d2e f53d
000003a0: 6a72 3abd 019b aabd 146a 5bbe 7223 643e
000003b0: 4e87 2b3e a47a 4abe 113e 48bd 771c 65be
000003c0: 918e 3ebd 5da8 1d3e 8c5a fdbd 724a 1d3e
000003d0: b8c3 4dbd 1d89 193e 25d9 ce3d 1437 0b3e
000003e0: 4834 b5be 36af 10be bf7b 183e 6235 d9bd
000003f0: 4df3 363e 4864 0bbe de8c 3e3e 8f94 893e
-0.16059864 0.089226104 0.5965238 -0.22698309 -0.020512186 -0.10540533 -0.15920658 0.13933824
-0.017359925 -0.59813976 -0.0011892762 0.08215478 0.221156 -0.14104453 -0.26599735 0.3925045
-0.0544216 -0.057916727 0.23835231 0.4048892 -0.5554255 0.23781271 -0.42060107 0.34664232
-0.060696103 -0.23111282 0.29557317 0.19274615 -0.93775797 -0.3744519 -0.14171678 0.011183272
0.048590936 0.10779384 0.09492867 -0.54285437 0.06385655 0.04094804 -0.054159775 -0.12553857
-0.3854095 0.08381183 0.15976131 0.19327942 -0.19678077 0.062870786 0.21179795 -0.07669593
-0.3197061 -0.5253329 -0.114945136 0.01996215 -0.12906024 -0.7249806 0.26447088 0.08699478
0.049623284 0.12173691 -0.1974227 -0.68299526 0.17892723 0.3492861 -0.043466453 -0.20786808
-0.029711593 -0.11957506 -0.29217175 0.42982078 0.01579529 0.049353067 0.031988204 -0.060519695
-0.13210392 -0.1619919 -0.19617999 0.10220587 0.035702486 -0.08758501 -0.16989133 0.23282322
-0.16843106 -0.010506612 0.20957282 0.088598624 0.15819944 0.058195814 0.20757608 0.09806057
-0.07168624 -0.24249268 -0.1887903 0.060456164 0.034534186 0.00672272 -0.06540051 -0.20662782
0.054180652 0.047922302 0.15329696 -0.20987993 -0.29554805 0.022227515 0.027477233 0.04806341
0.10521156 -0.24778394 0.118074656 0.30552062 -0.14680706 0.098386064 -0.17386262 -0.05352497
-0.17648113 0.21918328 -0.13364053 -0.16429414 0.2751459 -0.11455494 0.16185759 0.09217239
0.03581426 -0.3401234 0.16839191 0.03931439 0.22863695 0.18343729 0.1123127 0.106031045
-0.09821752 0.003872652 -0.23384981 -0.15724577 -0.10095698 -0.14041066 0.03571046 0.1576878
-0.022542944 -0.17892842 -0.026107838 0.07455546 0.01582001 -0.07016821 -0.08516487 -0.01637392
0.058343947 0.08427308 -0.07642404 0.093346655 -0.21099637 -0.18199621 -0.14365524 0.24546318
-0.06425585 -0.23962909 -0.05052741 0.2217757 -0.21121766 0.029040683 -0.23161149 0.33119002
-0.21475561 0.036535986 -0.09142361 0.03385563 -0.2857851 -0.0627299 -0.1299359 0.25441903
0.26649272 0.24656981 -0.27694985 -0.09104028 -0.021182632 0.04635212 0.17091988 -0.08184361
0.19788508 0.04883787 0.30552268 -0.18521993 -0.30567175 0.015528414 -0.022431938 0.004092463
-0.22494057 -0.122679666 0.23154293 0.21913294 -0.08413056 0.18099096 0.013199569 -0.10484499
-0.004101246 -0.29434362 -0.03419105 0.31383777 0.10957685 0.012246726 0.02274361 -0.23793827
0.06087951 0.16152664 0.17183194 -0.1395226 -0.05017892 0.10434898 0.22538875 0.17907847
0.10031276 0.20952684 -0.29642153 -0.2263117 0.14126764 0.07753946 0.24325581 -0.0331725
0.19345753 -0.19698009 0.18035722 -0.05679141 -0.060497127 -0.07457613 0.2591499 -0.18424378
-0.19524395 0.0728159 -0.07165144 -0.22589 0.1146539 -0.10634061 -0.0065336595 0.119717814
-0.04551927 -0.08330346 -0.21427184 0.22279146 0.16750833 -0.19773346 -0.048887316 -0.2237414
-0.04652268 0.15396257 -0.12370786 0.1536043 -0.05023548 0.14993711 0.10100011 0.1359523
-0.3539145 -0.14129338 0.14890955 -0.10605885 0.1786625 -0.13612473 0.18608424 0.26871154

hiden_layers.4.bias f4 [64]
00000000: cfa2 973e a81c 083d 0a40 b8bc b35b 56bd
00000010: 6294 0e3d 69d5 efbc ddba c93c 86fb b13c
00000020: 9d07 f63c fd3c 0bbd 77eb a53d ff2a e93b
00000030: a81b 62bd 3145 94bc 4f00 363d f674 6d3d
00000040: 6dfc 8e3b 7b8e 89bc acb2 4b3a e265 66be
00000050: e674 cc3c c73c f3bd 289e 04bd c59b 8e3d
00000060: 195f 20bd 9c12 ecbb 0386 cabc 0a3d e03d
00000070: 314f 113d ad90 38bc c272 5e3d 7f07 7f3d
00000080: def9 5d3d fe8f c43c 15b5 dabc c3de 9c3d
00000090: 7dcb 223c 11e1 aa3d f6a4 04bd 6b60 8ebc
000000a0: 4e53 b33d ae55 113d 8c1b c03d 5e28 9abb
000000b0: 922b b83b 97d6 023d 705e 353e 7c77 98b8
000000c0: 1a11 293c 51a6 953c 4f3a 99bd 4fcf b93d
000000d0: cce9 abbc 7ee1 593c b2f2 94bd 1aaf 37bc
000000e0: 4b1c 8f3d d3dd 833c d39b bebd 6f2e 28bb
000000f0: d7d2 cb3c 2a36 83bd 90dd 40bd b98e bebc
0.296164 0.033230454 -0.022491474 -0.052333545 0.034809478 -0.029276567 0.024625236 0.021726381
0.030032927 -0.03399371 0.08101552 0.0071157212 -0.055202156 -0.0180994 0.044433888 0.05797287
0.0043635876 -0.016791573 0.00077704596 -0.22499803 0.024958085 -0.11876827 -0.032377392 0.069633044
-0.039153192 -0.007204367 -0.024722105 0.10949142 0.035475913 -0.011264962 0.05430866 0.06226301
0.05419337 0.023994442 -0.026697675 0.07659676 0.009936211 0.08343709 -0.03238388 -0.01737996
0.087561235 0.0354821 0.09380254 -0.004704519 0.0056204284 0.03194293 0.17711806 -7.2701805e-05
0.010319019 0.018267782 -0.074818246 0.09072744 -0.020985506 0.01329839 -0.07272853 -0.011211181
0.06987818 0.016096985 -0.09307065 -0.0025662442 0.02488081 -0.06406815 -0.0470863 -0.023261415
