results/8_model_1_case_2_zoom/epoch500/model_weights.pth (torch, 484214 bytes, 88 tensors)

init_layer.0.weight f4 [64, 3]
000000 ec 02 bf bd ca dd 59 bd d8 f1 02 3f 0d 32 a2 3d
       -0.09326729 -0.05319003 0.51150274 0.07919703
000010 c4 9a b9 3c 8a ac cf 3e 5c f4 d3 bc 56 c5 6e be
       0.022656806 0.40561324 -0.025873356 -0.23317465
000020 7d 68 11 be af 1d 2d 3e d4 c8 4e 3d ee 42 6d be
       -0.14200015 0.16905855 0.050484493 -0.23170063
000030 02 84 64 bc f1 5b 60 3e 17 c0 13 3f f5 bc 17 be
       -0.013947489 0.21910073 0.5771498 -0.14818175
000040 8d 29 b5 be ae cd 85 3e fa 8d f9 3e 40 94 d5 3d
       -0.35383263 0.26133484 0.48741132 0.10428667
000050 ba 0c 8c 3e 2a e4 b0 3e 84 2a 59 3e 7d a8 87 3e
       0.2735346 0.34549075 0.21207625 0.26495734
000060 58 29 cc 3e a3 84 98 be 2f d9 80 3d 4e 56 2c be
       0.39875293 -0.29788694 0.062914245 -0.16829798
000070 f3 79 53 be d7 fc e4 3e 22 68 5a be 2e 60 aa bc
       -0.20651989 0.44724151 -0.21328786 -0.020797815
000080 e5 9a bf bd bb e4 5d 3d ca d1 b5 3d 58 56 1d bf
       -0.09355716 0.054173212 0.08877905 -0.61459875
000090 c8 b6 32 3c e7 27 81 bd 45 27 3b 3f 53 60 3c bd
       0.010907836 -0.06306439 0.73106796 -0.0459903
0000a0 76 8b 08 bd cf f6 ff 3e a6 ad e4 3d f5 cf b0 be
       -0.033336125 0.49992988 0.11165933 -0.3453366
0000b0 c5 ce a0 bd 23 4f 62 3d c4 8f b2 bd e6 14 8a bf
       -0.07851938 0.055251252 -0.08718827 -1.0787628
0000c0 a6 b3 cb 3d f8 5e 92 bd cd 68 ac 3e 61 47 84 3e
       0.099463746 -0.0714702 0.33673707 0.25835708
0000d0 c4 ce 78 3e 80 4d 4c be a0 1e 87 3d d8 05 f6 3c
       0.24297625 -0.19951439 0.06597638 0.030032083
0000e0 c1 a3 fd be df 7e 47 bd a2 9b 30 3d f9 5d 27 bf
       -0.49538997 -0.048704978 0.043117173 -0.65377766
0000f0 44 b7 d1 3d 71 a9 fa bd b9 94 c1 be 43 54 fe 3d
       0.10240033 -0.1223935 -0.3780878 0.124184154
000100 de 2d 92 bd 2e e4 6d be 5f e3 2d 3d 0d 7b f7 bd
       -0.07137655 -0.23231575 0.042453166 -0.12084017
000110 38 35 da be 7d d1 a4 bd 8f c9 e8 3d 2d 9f b7 3e
       -0.42618728 -0.08047769 0.11366569 0.3586363
000120 10 0d 6a bd 2f a1 40 bc 80 fb 17 3f 23 64 f2 3c
       -0.057141364 -0.011757179 0.59368134 0.029588765
000130 5d 98 ba 3d af e5 b6 be f2 59 ff bb ee 8e 8f 3d
       0.09111092 -0.3572211 -0.0077927047 0.070096835
000140 d3 23 e6 3e 7d 44 1c be 97 ed 59 be 20 4a b7 3e
       0.44949207 -0.15260501 -0.2128204 0.3579874
000150 96 10 cf 3c 04 6f df 3c 46 11 2f bf 8e 91 c4 bd
       0.025276463 0.027274616 -0.6838573 -0.09598075
000160 f5 60 45 be b5 c1 a2 3e d4 62 a6 be 4c d5 a1 bd
       -0.19275267 0.31788412 -0.32497275 -0.07902011
000170 2d a8 f1 be 4a d0 6c bd 99 dd 23 3d 9f ba 0a 3f
       -0.4719862 -0.057815827 0.040006254 0.5419101
000180 b8 3b 69 bd 90 04 ec 3d fa b3 ed 3e 06 eb 0d bf
       -0.056941718 0.11524308 0.46426374 -0.5543674
000190 f7 ab 97 3e 2a de 37 bd 8c 8b 10 3d 9b a8 de bc
       0.29623386 -0.044889607 0.035289332 -0.027180007
0001a0 80 8f d2 be 32 14 6b 3c fc 9c 70 bd 04 2d 12 bf
       -0.41125107 0.014348077 -0.058743462 -0.5709994
0001b0 00 67 c3 3c d8 c5 41 bb 36 c1 03 bf ad eb c0 bd
       0.023852825 -0.0029567387 -0.5146669 -0.094199516
0001c0 77 ae f0 bc 49 e1 cb be c0 8a 4c 3c ea 51 02 bd
       -0.029380066 -0.39820316 0.012484252 -0.0318164
0001d0 63 4b 81 3f ee 84 22 be b8 65 80 3e bb ef 5d 3e
       1.0101131 -0.15871021 0.25077605 0.21673481
0001e0 9d 2e 9d 3d 74 60 c7 bc ae db 1e bf aa 01 0d 3d
       0.076749064 -0.024337985 -0.62053955 0.034425415
0001f0 92 91 d9 bc ca 42 eb be e0 90 d7 3d dd 6a 7f bd
       -0.026558671 -0.45949394 0.105256796 -0.062357772
000200 8e ff b4 3e c6 28 08 bd 83 90 05 bd 30 29 0a 3f
       0.35351223 -0.03324201 -0.03260852 0.539691
000210 fb 74 12 3e 7a d6 8f be 33 4f c2 be 4e fa 3b be
       0.14302437 -0.2809332 -0.3795105 -0.18357202
000220 e6 a0 65 be e4 e6 84 3e de 3d b6 bd af 4f 4d be
       -0.22424659 0.25957406 -0.08898519 -0.20049928
000230 3a f6 15 3e 7f e1 23 3e b0 24 57 3e ee 4d 05 3e
       0.14644709 0.16003989 0.21010089 0.13018009
000240 8c e5 80 3e 05 f0 67 3e a8 e1 be 3e f1 51 79 3b
       0.2517513 0.22650154 0.37281537 0.0038043226
000250 97 ac 8a be 67 d6 85 3e c0 c0 64 bc 7e 2b 93 3c
       -0.270848 0.26140139 -0.013961971 0.017965075
000260 bf bb 1f bf 6d 2f 8b be f2 c6 47 be ec 7d a7 3c
       -0.6239585 -0.2718462 -0.19509485 0.020445786
000270 54 c8 8a 3e 98 0d 83 be eb f2 99 3e 14 52 fc bd
       0.27105963 -0.2559631 0.30068144 -0.12320343
000280 85 d4 5f be fd 1d 81 3e 51 90 39 3d dc ef ce bd
       -0.21858414 0.25218192 0.045303646 -0.10104343
000290 65 48 ba be 90 bd b0 3d 92 06 94 3c 30 4b 10 3f
       -0.36383358 0.08629906 0.01806954 0.5636473
0002a0 53 18 c3 3d ab 27 f4 3c 5a 3f bd 3e 0e 4f 62 3c
       0.09526124 0.029804071 0.36962396 0.013812793
0002b0 2d b2 29 bd 08 0f b8 3e b6 09 75 3e 59 73 85 3e
       -0.041429687 0.35948968 0.23929486 0.26064566
0002c0 cc de a0 3e 6b 5c e9 3c 55 cd 08 3d b6 67 39 bf
       0.3141998 0.028486451 0.033398945 -0.72423875
0002d0 d3 45 ee bd 79 0e 38 bd 4e 28 a5 be 40 2a f9 bc
       -0.11634412 -0.044935677 -0.32257313 -0.030415654
0002e0 2b 37 fc 3c 3d 22 f4 be 5e 81 6b 3e 47 d9 cc bc
       0.030788025 -0.47682372 0.22998568 -0.02500595
0002f0 16 bf ba bd c3 49 45 3e 45 c9 0e bd 7b 70 6f 3e
       -0.09118478 0.19266419 -0.034859914 0.23382752

init_layer.0.bias f4 [64]
000000 9c d4 9a be 10 60 e1 be 26 e8 0f be 8d 66 4c bc
       -0.30240333 -0.44018602 -0.14053401 -0.012475622
000010 a7 79 69 be fc 38 1e be b3 93 b1 bc 59 f3 c4 be
       -0.22800313 -0.15451425 -0.021676874 -0.3846691
000020 77 4c 9d bd 04 0c 74 be f2 46 69 be 8a 7f 05 bf
       -0.076806 -0.23832709 -0.2278097 -0.52147734
000030 f8 bd 07 3f c9 e1 f4 be 9c bf e6 3d ec 82 5a 3d
       0.53024244 -0.4782851 0.11267015 0.053347513
000040 f3 12 7b be c4 3d 19 3e b2 ed ef 3e 77 fe 36 be
       -0.24518947 0.14964968 0.46861035 -0.17870508
000050 8a 4a e1 be 14 ba ca 3c 53 c0 9c be 80 6e 91 3e
       -0.4400218 0.024746932 -0.30615482 0.28404617
000060 b9 18 b1 3e bc 25 1c bd b5 ee a8 3e 4a 34 a8 3e
       0.34589174 -0.038121924 0.3299462 0.32852393
000070 3a 47 a2 be 36 80 10 3b f0 ab 8c be fa 1d c1 be
       -0.31694967 0.0022049076 -0.27474928 -0.37718183
000080 04 fb b8 bd 8d b0 ca bd c6 37 89 3e 80 12 e2 be
       -0.090322524 -0.09896956 0.26800364 -0.4415474
000090 e9 91 ac 3e a5 4e 8d 3e 90 43 5e 3e 52 65 a1 3e
       0.3370507 0.27599064 0.2170546 0.31522614
0000a0 88 f6 bc 3e 55 0f e7 be 04 fe a3 be e2 76 b2 3e
       0.36906838 -0.45128885 -0.32029736 0.34856325
0000b0 3b ed 13 3e e5 8a 39 be 1e 10 8f 3e 3e 4e ff bd
       0.14445965 -0.1811939 0.27941984 -0.124660954
0000c0 9e ab 07 3c 47 03 dd bd 87 00 1b bf 0f aa 13 3d
       0.008280663 -0.10791641 -0.6054768 0.036050852
0000d0 c9 a4 5b 3e ea d0 a5 3e c2 47 66 3e 09 e0 ae 3e
       0.2144958 0.3238595 0.22488311 0.341553
0000e0 c3 cb d2 be 16 3b 8d be c1 61 76 3c 6a 67 3f bf
       -0.41171083 -0.27584141 0.015037955 -0.7476717
0000f0 4f 41 6a be 65 d4 92 bd 87 ce 34 3e 18 dc 4b be
       -0.22876476 -0.07169417 0.17656909 -0.19908178

hiden_layers.0.weight f4 [64, 64]
000000 5a 2d 63 be a2 8a 30 bd 2d 7d 16 3e 42 e6 86 3d
       -0.22185269 -0.04310096 0.14696188 0.06586887
000010 1f 00 95 be 07 4b a8 bd 8d d7 5b 3c a5 3b 7a be
       -0.29101655 -0.08217435 0.0134180905 -0.24436815
000020 b0 95 ed bc be 19 e9 bd a9 51 41 3d 94 11 87 3e
       -0.02900204 -0.11381863 0.047197018 0.263806
000030 6b 5c 33 bd 4c 2f aa 3d 58 f0 07 3e 7f f7 67 bd
       -0.04378931 0.083098024 0.13275278 -0.056632515
000040 1e 8f f6 bd 44 63 aa bd 56 5b 7f 3d 36 cf 0c bd
       -0.12039016 -0.08319715 0.062342964 -0.0343773
000050 a2 4f 53 bd 7b 80 b6 3d 58 b8 8d 3d cf de 80 be
       -0.051589616 0.089112245 0.069199264 -0.2516999
000060 f6 69 ac 3d 58 30 1f 3e d8 eb 3c be 84 46 71 be
       0.08418648 0.15545785 -0.18449342 -0.23562056
000070 5d df 57 bc a7 03 0c be 87 34 36 be ee 22 47 be
       -0.013175813 -0.13673268 -0.17793475 -0.19446918
000080 6c d7 4a be 77 ce 73 bd 9e c8 8d 3e a6 67 90 3d
       -0.1980874 -0.059523072 0.2769212 0.07051019
000090 cc 60 17 3e cc c4 5d 3d e2 6f f6 3d 16 05 9d 3d
       0.14783019 0.05414276 0.12033059 0.07666986
0000a0 ce 9f 12 3e 96 87 71 bc fd a5 21 3c e7 93 13 be
       0.14318773 -0.014741799 0.009866235 -0.14411889
0000b0 df 2b 32 3d 10 30 ae bd 8b d1 c2 bc b6 f6 7b be
       0.04349887 -0.08505261 -0.023781558 -0.24605832
0000c0 dd e9 51 3e a6 98 6e be 63 d4 99 bd 26 b5 c3 3d
       0.20499368 -0.23300418 -0.07511213 0.09556036
0000d0 6f cf 55 3c db 4c 7e bd 7b 0f 8d 3e a2 cc 0f 3e
       0.013049944 -0.062085014 0.27550873 0.14042905
0000e0 31 b5 67 be 86 25 47 be ce 69 0b be d9 3c 36 3e
       -0.22627713 -0.19447908 -0.1361458 0.17796649
0000f0 04 17 91 3d ef 6d 13 3d e9 6b c8 bc 57 e4 56 be
       0.07084468 0.035993513 -0.024465518 -0.20985542
000100 f8 e6 f4 bd 6a d0 8e be a0 1e 61 be 50 90 4c 3e
       -0.11958116 -0.27893382 -0.21984339 0.19976926
000110 d6 b2 a0 be b1 75 0d be b9 dd f8 3d 38 80 96 be
       -0.3138644 -0.13814427 0.12151665 -0.29394698
000120 d0 63 25 3c 13 54 91 be 56 d2 47 3e ce 29 1a be
       0.010094598 -0.28384456 0.1951383 -0.1505501
000130 62 77 9f 3c 6d 45 06 bf 40 45 0a 3e c3 f1 5f 3e
       0.019466106 -0.52449685 0.1350298 0.21869569
000140 c8 06 12 be e2 94 41 3e 33 3c 54 3e a0 e6 38 3c
       -0.142604 0.1890445 0.20726089 0.011285454
000150 70 32 bb bd 7f b0 20 be f2 bd cb 3d 0a ad 4d 3e
       -0.091404796 -0.15692328 0.099483386 0.2008554
000160 62 9e cc bc 66 e2 d9 3c ca 40 72 3e 75 01 20 3e
       -0.024977867 0.026597213 0.23657528 0.15625556
000170 77 83 b7 3d 09 1e 4d 3d 3b 27 2a be 38 e2 bb be
       0.08960622 0.050077472 -0.16616528 -0.3669603
000180 a5 00 ef bd 38 e3 9b 3d 3c 31 e7 3e 65 77 e6 3d
       -0.11670045 0.07611698 0.4515475 0.112532414
000190 f2 69 14 3f ba 09 58 3d 82 08 54 bd e0 1b 13 3e
       0.5797416 0.05274365 -0.051765926 0.14366102
0001a0 4f c2 40 3c 82 49 b2 bd 79 00 ab be a2 5e 99 3d
       0.011765077 -0.08705427 -0.33398798 0.07488753
0001b0 e9 29 7a 3e e1 c5 59 be 07 22 76 3e 06 ee 77 be
       0.2443005 -0.21266891 0.24036418 -0.24211892
0001c0 32 ba 71 bd 28 9a 53 be 17 46 b4 bd 30 7c 66 bd
       -0.05901546 -0.20664275 -0.08802431 -0.05627078
0001d0 03 9a c1 3d 98 47 da bd f6 7d 90 3e 5c ac 00 3e
       0.094532035 -0.10658187 0.282211 0.1256575
0001e0 a7 b8 94 be e7 b5 94 be 4d a0 4d be ea d2 3e be
       -0.2904713 -0.2904503 -0.20080681 -0.18635145
0001f0 7b 7b 3c 3e 50 7d 76 3e 7e 61 4b 3e 9f e1 06 be
       0.18406479 0.2407124 0.19861409 -0.13172005
000200 c5 48 da 3d 45 15 02 bd ef eb 0c 3e 09 ec ac 3c
       0.10658411 -0.031758565 0.13761877 0.021108644
000210 e5 36 3a be e3 8d 58 bb ce f9 98 bc 8a c1 29 be
       -0.18185003 -0.0033043555 -0.018673804 -0.16577736
000220 b2 61 eb 3c 26 49 da bc fc 76 05 bd 69 7d 19 3e
       0.028733108 -0.026646208 -0.032584175 0.14989246
000230 0e 02 f1 3d ae b0 28 be 86 88 14 3e 56 0f e7 bd
       0.1176797 -0.16473648 0.14505205 -0.11282222
000240 c1 e0 9d bd ac 42 46 be 60 e6 1b 3d bf dd 32 bd
       -0.07708884 -0.19361371 0.0380615 -0.043668505
000250 de d3 1d bc d9 a8 fe bd 78 7f 3c be 53 4d 0f bc
       -0.009633033 -0.12434549 -0.18408 -0.008746463
000260 85 e1 97 3c af 29 f2 bd f8 55 c8 38 f7 af 32 3e
       0.018540153 -0.11824357 9.552756e-05 0.17449938
000270 9f f1 2d bd fa 8d 6e be 6d c1 5a 3e 54 93 73 3e
       -0.042466756 -0.23296347 0.21362849 0.2378667
000280 37 c8 1d be 21 ba b4 bd a6 ff 1e 3e 93 16 41 3e
       -0.15408407 -0.08824564 0.1552721 0.18856268
000290 05 18 f9 bd 3c bb 2a be 1d 29 8b bd 7c 31 ab 3d
       -0.121627845 -0.16672987 -0.06794951 0.08359048
0002a0 23 dd 51 be be 14 c9 bd c1 65 5f 3e fb 80 7e 3e
       -0.20494513 -0.098184094 0.2181616 0.2485389
0002b0 d2 78 24 3e 0f 91 e0 3c 3d 53 fa bc 27 4c e7 3c
       0.16061714 0.02741292 -0.03055727 0.028234554
0002c0 c8 6a 0d bd cb 8f c2 3b 4e fd e3 bd 02 14 66 bd
       -0.034525663 0.0059375516 -0.111322984 -0.056171425
0002d0 06 4f be 3c 1e 99 9a bd 7f 9e 1e be 6a b8 32 3d
       0.02323104 -0.07548736 -0.15490149 0.043632902
0002e0 ed 9e 3f be 16 98 53 3e b1 42 3f be 6b c9 24 be
       -0.18712969 0.20663485 -0.18677785 -0.1609246
0002f0 69 9d 29 3e 5c 55 30 be 5b b1 bb bd eb 54 37 3e
       0.16563953 -0.17220062 -0.09164687 0.17903487
000300 cf 87 d5 3c 57 43 0c be c5 4f f3 bd 7f 36 06 3d
       0.026065735 -0.13697563 -0.11880449 0.032766815
000310 51 95 30 3e 69 39 49 3c d7 05 55 bb c4 bc d4 bd
       0.1724446 0.012281754 -0.0032504702 -0.10387567
000320 34 bc 37 be 4d f7 92 be 2a b2 c4 bc 5b 1b 67 3d
       -0.17942888 -0.287043 -0.024010736 0.056422573
000330 6b c0 97 bd 19 d1 6c be e3 95 89 bb ff 55 29 be
       -0.07409748 -0.2312664 -0.004198776 -0.16536711
000340 f5 43 30 be 19 ab 7b 3e 4d a6 95 3e 14 3e b1 bd
       -0.17213424 0.24576987 0.2922844 -0.086544186
000350 da 6a a7 3d 16 d8 87 bc cd 6a 8d be 8a 98 7f 3c
       0.08174677 -0.01658253 -0.27620545 0.015600333
000360 f8 64 58 3e 00 e4 fd 3d 79 b3 2e 3d be a1 3c bd
       0.21132267 0.12397003 0.042651627 -0.046052687
000370 f7 46 d7 bd 44 e2 83 be 17 fc 4f be c6 75 f6 bc
       -0.10511582 -0.25758564 -0.20311008 -0.030085456
000380 4c aa d4 bd 4a 85 3c 3d 0d 74 d6 bd 2a ae 65 bd
       -0.10384044 0.04602555 -0.10471354 -0.0560743
000390 c4 6e 92 3d b3 10 33 be 6a b3 b0 3c ae 9f 18 bb
       0.07150033 -0.17486839 0.021569926 -0.0023288536
0003a0 d2 fe a2 bd b1 85 9f bd dc f0 27 bd ed 78 43 3e
       -0.07958759 -0.077891715 -0.041001186 0.19089098
0003b0 f8 16 b6 3c bd a7 11 bd 31 10 a3 3d 85 b2 ed 3d
       0.02222775 -0.03556036 0.07962073 0.116063155
0003c0 33 39 54 3e ce d8 76 be 6b 6e f1 3d e8 61 17 be
       0.20724945 -0.24106142 0.11788639 -0.14783442
0003d0 a0 92 2e be a7 b2 1a 3e 1f 29 50 3e 9e 2d e0 3d
       -0.1704812 0.15107213 0.20328186 0.10946201
0003e0 79 85 51 be 3c 5c 80 be 2c 6f d2 3b 9e 78 01 3e
       -0.20461072 -0.2507037 0.006421944 0.12643668
0003f0 60 1e 27 be 45 9c 8e bd 94 81 b3 3d d4 fc 94 bd
       -0.16320181 -0.069634 0.087649494 -0.07274786

hiden_layers.0.bias f4 [64]
000000 7c 10 5f 3d dc 93 83 3e 39 1d 15 bd 10 4d df 3d
       0.05445908 0.25698745 -0.036404822 0.109033704
000010 15 aa bc 3d 57 6c 12 3e ad 6e 7d 3d be 05 6a be
       0.09212128 0.14299141 0.061873127 -0.22853753
000020 3d 01 21 bd d7 12 7c 3d 44 11 13 bc ed 84 02 bd
       -0.03930782 0.061541405 -0.008976284 -0.03186505
000030 7d 39 d3 bd 8a 19 b1 bc 88 99 9b 3e 76 c4 30 be
       -0.103136994 -0.021618623 0.30390573 -0.17262444
000040 90 46 8f bd 26 4b 3e 3d 25 65 ae 3d d7 55 3d be
       -0.069958806 0.046458386 0.085153855 -0.18489777
000050 ec 9f da 3d 7b ae bc 3c 1c c0 87 bc 6f 3d 66 bd
       0.10675034 0.023032418 -0.016571097 -0.05621093
000060 80 9f b1 bd 96 1c 82 bc cb 16 5c bd fe fb 40 be
       -0.08673 -0.015882771 -0.053732675 -0.18846127
000070 d0 24 c5 3d c1 a5 57 3d e7 57 ba bc 3c e3 b4 bd
       0.09626162 0.05264831 -0.022746993 -0.08832404
000080 2c ee 0a 3d c1 27 a7 bc c3 7a 12 3e 86 a3 98 3b
       0.033918545 -0.020404698 0.14304642 0.0046581654
000090 7a 1b 6a 3d 9d 25 23 3e 78 2b 06 be 69 c4 01 3d
       0.05715511 0.15932317 -0.1310252 0.031681452
0000a0 a3 f4 a2 3d 56 ee 30 3d 0c c1 19 3e 5c aa 0c be
       0.07956817 0.043196045 0.15015048 -0.13736862
0000b0 b2 df a9 bd f4 7d 86 be 83 fa 80 bd c0 98 75 be
       -0.082946196 -0.2626797 -0.06297781 -0.23984051
0000c0 2d cf 23 3e 6a ab dc 3d 12 43 7b 3e a2 35 de bd
       0.15997 0.10774882 0.24537304 -0.108500734
0000d0 44 d6 03 3e da 05 e4 3c 9e 6a c4 3d c2 17 82 3e
       0.12874705 0.027834821 0.09590648 0.2540875
0000e0 18 f6 ee 3d 16 27 2b 3d cf 8b 2d 3e 3b 6a 98 3c
       0.116680324 0.041785322 0.16947864 0.018605342
0000f0 bd 43 4e be 54 e3 72 be 6c ed 63 3d a2 14 4a bd
       -0.20143028 -0.23719531 0.055646345 -0.049336083

hiden_layers.1.weight f4 [64, 64]
000000 f8 78 29 bd 2c 66 82 3d d4 12 47 be b6 64 81 3d
       -0.04137513 0.06367144 -0.19440776 0.06318037
000010 cf 8c 3a be 4c 03 7c 3e 57 7b 4b be d1 af c9 bd
       -0.18217777 0.24610633 -0.19871269 -0.098479874
000020 85 2c 5a bd f5 81 8a 3d 7b 1e d6 3d 52 cb 06 be
       -0.053265113 0.067630686 0.104550324 -0.13163498
000030 05 49 76 3d 44 5a 39 3d f9 be 4e 3c 1c 6f 92 bd
       0.06012823 0.0452521 0.012618774 -0.07150099
000040 75 b7 ab 3c f6 83 08 3e b2 e0 bd 3d 59 5a ad 3d
       0.020961503 0.13331589 0.09271373 0.08464498
000050 a2 48 98 3e d0 b4 a9 bd 6f 67 7d 3d fa cd 1c be
       0.29742914 -0.0828644 0.06186622 -0.15312949
000060 dc f5 34 be 43 ba 30 be a6 0a 95 bd ec 41 4e 3e
       -0.17671913 -0.17258553 -0.07277422 0.20142335
000070 25 14 5e 3d ad ef ff bc 02 8e 9b bd 0f ae bf 3d
       0.05421843 -0.031242216 -0.07595445 0.09359371
000080 05 9a 76 be 41 eb 53 3e 2a eb 76 be aa 28 18 be
       -0.24082191 0.20695211 -0.24113145 -0.14859262
000090 67 89 b8 39 88 36 f8 bd 15 be ec 3d a2 3f 89 3d
       0.00035197588 -0.12119776 0.11559693 0.0670159
0000a0 49 ed 7b 3d 5c 75 1e 3e 54 53 1d be cb 22 a2 3e
       0.06150559 0.15474457 -0.15363818 0.3166717
0000b0 56 25 af 3e cc dd 5d 3d 38 51 11 3e 3d f4 63 be
       0.34208173 0.0541666 0.14191139 -0.22261138
0000c0 3d 2c e9 bd bc 1a b2 bd 47 9f 20 bd 17 a5 0f 3e
       -0.11385391 -0.086965054 -0.0392144 0.1402782
0000d0 11 2f 61 be df 1a 3d bc 06 88 1d be 54 6c c0 bd
       -0.2199061 -0.011542051 -0.1538392 -0.09395662
0000e0 8b 16 92 3e d5 04 93 be 2b 7a 0a bf 22 3e 4a 3e
       0.28532824 -0.28714624 -0.54092664 0.19750264
0000f0 4d 52 27 3d 02 89 ef 3c d0 a7 ae 3d 03 31 1a be
       0.040849973 0.029240135 0.085281014 -0.15057759
000100 c9 ff df 3d 34 8a bd bc 7c f8 0a be 3b 8c db 3c
       0.10937459 -0.02313719 -0.13571352 0.026800266
000110 1e 5f f9 bd 0f 91 b4 bc 85 b1 3e be 2c 89 83 bd
       -0.12176345 -0.022041826 -0.18622406 -0.06422648
000120 44 2d 27 3d 6d 41 01 be f4 23 77 3e db 3e 37 3e
       0.040814653 -0.12622614 0.24134809 0.17895071
000130 b5 ca 94 3d 63 54 a3 3d 92 17 1c 3d 9d 51 82 3c
       0.07265226 0.0797508 0.038108416 0.015908057
000140 c7 74 40 3e 8d 96 16 be 56 51 1f 3e 25 e1 03 bd
       0.18794547 -0.14705868 0.15558371 -0.032197136
000150 dd 0c df 3d 89 b8 f4 3d a1 e6 76 be 6e b8 d9 3b
       0.10891125 0.1194926 -0.24111415 0.0066443
000160 6c dd b1 bb 78 6b 03 3e 9d 4b 41 3d a9 64 b5 bd
       -0.005428007 0.12833965 0.04719125 -0.0885709
000170 f3 f8 e8 bc 09 de 87 3d fb a7 14 bc 09 3a 40 3e
       -0.02843902 0.06634147 -0.009073253 0.18772139
000180 87 44 85 3e 1a 5d 25 3e 34 b4 43 be f2 15 7f be
       0.26028845 0.16148797 -0.19111711 -0.24910715
000190 e5 22 16 be 67 00 77 3d 5d 53 ab bd 68 61 34 be
       -0.14661749 0.060303118 -0.0836551 -0.17615283
0001a0 8a 37 99 be 01 69 67 be ad a2 d8 3b 78 5b 28 be
       -0.29925185 -0.2259865 0.0066111893 -0.16441143
0001b0 ce b0 c9 3c 24 e2 ab 3d 7e 6f 36 bd 52 69 5b be
       0.02462044 0.08392742 -0.04453992 -0.21426895
0001c0 3a a5 78 3d cf cd 08 3e b3 dc 39 be 99 da c1 bd
       0.060704447 0.1335976 -0.18150596 -0.09465522
0001d0 4a 22 d2 3d 5e f8 47 bd 38 49 1b 3e 42 3e 57 3c
       0.10260446 -0.048820846 0.1516465 0.013137402
0001e0 95 ea 63 bc c6 1b 38 3d 11 88 99 3d 31 01 5f 3e
       -0.013910909 0.04494836 0.07496656 0.21777798
0001f0 75 f9 91 3d 23 6f a4 bb 26 db 2c 3d 8b e6 4a 3e
       0.07127658 -0.0050181313 0.042201184 0.19814508
000200 98 d0 8b 3e f3 d6 eb 3e 60 25 72 bd d1 f6 0e 3e
       0.27307582 0.4606243 -0.059117675 0.1396134
000210 0c 7d 07 3e f3 68 1c 3f 6d 03 0d be b4 fe 03 3e
       0.13231295 0.6109764 -0.13770838 0.1289013
000220 90 09 30 3e 99 83 25 bd b4 1c f5 bd 7f 71 ff bd
       0.17191148 -0.040408704 -0.11968365 -0.124728195
000230 3f 60 92 bd f1 b8 3a bd 1b ae 88 3f d7 c0 8f bd
       -0.07147264 -0.04558653 1.0678133 -0.07019203
000240 9b 08 ea bd 9d 7e 35 be f0 f2 52 3d 09 dc 67 be
       -0.114274226 -0.1772408 0.051501215 -0.2264253
000250 ae 84 90 3d 15 46 98 bd bf ca 0c be c5 66 07 bf
       0.07056557 -0.07435242 -0.13749216 -0.5289119
000260 d3 ac a5 3d d9 b1 01 3e 2b 39 ab be 54 1b 40 be
       0.08089604 0.126655 -0.33442053 -0.18760425
000270 0e 84 19 3e 85 a3 b8 3c 67 d5 8f 3c 15 72 cd 3c
       0.14991781 0.02253891 0.017557813 0.025078813
000280 03 9c cb 3d 94 01 30 be 69 7c 57 3c b1 78 c1 bc
       0.09941866 -0.17188102 0.01315222 -0.02361712
000290 b2 ac 20 bd ec db 1e be 03 7e 6f be 57 e0 b0 bd
       -0.039227195 -0.15513581 -0.23387913 -0.086365394
0002a0 ce d1 11 be f1 16 33 bd f0 c3 29 be 8e 79 d7 bd
       -0.1424019 -0.04372305 -0.1657865 -0.105212316
0002b0 aa 3c 25 3e f7 1a be be 2e d8 48 bd 4f 18 4b bd
       0.16136423 -0.37129948 -0.04903429 -0.04958373
0002c0 f1 cb 5c be 93 1d 01 3e 04 6d 7b 3e 2f 4f 52 be
       -0.21562172 0.12608938 0.24553305 -0.20538019
0002d0 1c 32 f5 3b 40 b4 d1 bd 6e df 44 3e 54 0a 85 3d
       0.00748278 -0.10239458 0.19225857 0.064961106
0002e0 ab c1 e1 bd 5b 13 8b 3e 3e 53 d9 bd c5 41 6e bd
       -0.11023267 0.27163205 -0.1061158 -0.05816819
0002f0 de a0 af bd 03 1c e1 bc 6d 0f 0f 3e a7 2c f7 bc
       -0.08575605 -0.027479177 0.13970728 -0.03017266
000300 23 a0 3f 3e af 72 15 3a 82 bb da bd 4a 47 0c 3e
       0.18713431 0.0005700988 -0.106802955 0.1369907
000310 41 8c 92 3e d6 e5 55 be 2e ce a1 bd 7f a2 19 bd
       0.2862263 -0.20888457 -0.07900654 -0.037508484
000320 35 9f 58 3c 60 16 4f bb 4e 6c a1 bd f0 bc 77 3e
       0.013221552 -0.003159903 -0.078819856 0.24193168
000330 f4 c7 79 3e f6 3b 1f 3e 10 b7 b0 3c b9 d3 03 3e
       0.24392682 0.15550217 0.021571666 0.12873735
000340 94 7a 52 3c f1 05 10 be 6c 5d 4d 3d 71 8f d5 3d
       0.012846608 -0.14064766 0.050137922 0.1042775
000350 bf 0b 73 bd a7 40 9c be e5 a3 f2 3c f7 d3 2a 3e
       -0.059337374 -0.30518076 0.029619167 0.1668242
000360 c2 ee c6 3d 96 7b 03 3e dd e6 90 3b 63 df 22 bd
       0.09713508 0.12840113 0.0044220523 -0.03976382
000370 a7 ae a5 3d 1a 6e 58 3e 17 a8 4d 3e 7e d9 4a 3e
       0.08089953 0.2113575 0.20083652 0.19809529
000380 15 17 5b 3e cd 76 ff 3c 96 92 ea bd db 11 d3 3a
       0.21395524 0.031184578 -0.1145374 0.0016103344
000390 78 b2 30 3e 53 07 86 bd fd bf ee 3d 45 66 81 3e
       0.1725558 -0.06544366 0.116577126 0.25273338
0003a0 94 81 78 3d 73 4c 13 bd c7 47 08 3e 47 78 2c 3d
       0.06067045 -0.03596158 0.13308631 0.042106893
0003b0 91 b4 5e be 59 7d 3a be 51 a0 51 be 46 ca ed bd
       -0.21748568 -0.18211879 -0.20471312 -0.11610846
0003c0 bc f2 f1 3d 0d b3 c2 3d 41 86 d6 bc 63 0b c7 3d
       0.11813876 0.095068075 -0.026187064 0.09718969
0003d0 b3 de 27 3e 9b 0a e3 bc 18 2a 55 be c4 67 e5 bd
       0.16393547 -0.027715018 -0.20816839 -0.11201432
0003e0 7d 31 4b be 26 45 b2 bd 0b aa 68 3e 02 21 2b 3d
       -0.19843097 -0.08704595 0.22721116 0.041779526
0003f0 dc 51 dd bd c5 0d 60 3e 5c 8c 1b 3d f6 d1 47 be
       -0.10806629 0.21880253 0.037975654 -0.19513687

hiden_layers.1.bias f4 [64]
000000 4c 8a aa bc 7d 92 98 bc ab 13 15 3d b2 02 46 bc
       -0.020817898 -0.018624539 0.03639571 -0.012085604
000010 9d 19 71 be cb 86 60 3c 35 1d 2d bc af 6e b7 3d
       -0.23544927 0.013704012 -0.0105660455 0.08956658
000020 1c ce 1d 3e 27 ff 00 3d 93 a7 b9 bc a5 ce ba bc
       0.15410656 0.031493332 -0.022662913 -0.022803614
000030 0f 62 5c 3c 7f 0b 96 bd 8d 32 c2 bd d9 dd a2 3c
       0.013451113 -0.073264115 -0.09482298 0.019881176
000040 e5 ea 8d bd 92 67 ad bc b6 73 b2 3c df d4 1c bd
       -0.06929568 -0.02116755 0.02178369 -0.038288947
000050 2b ce 0c ba bb 14 6f 3d a4 2f ac bd 4c fc 74 3d
       -0.00053712976 0.05836938 -0.08407524 0.05981092
000060 12 6c 1c 3d 1a 38 0c bd 25 32 01 3d 96 d5 b0 bc
       0.038189 -0.03423319 0.031541962 -0.02158622
000070 30 19 17 be de 4b 25 bd bf cc 0d be 78 6c c7 bd
       -0.14755702 -0.040355556 -0.13847636 -0.09737486
000080 9a 69 7a bd a9 8d dd bc ee df 44 3b 4b 61 80 3d
       -0.061135866 -0.027045088 0.00300407 0.06268557
000090 b8 f0 9b bd 02 be 68 be 9e 86 7a bd d6 ae 02 bd
       -0.07614273 -0.22728732 -0.061163537 -0.031905018
0000a0 a7 37 10 3d 15 dc 12 bd 67 6d 08 3d 3a e5 52 bd
       0.035209324 -0.035854418 0.03330746 -0.05148814
0000b0 80 aa d5 bd 60 b5 08 3e 93 4a 3b bd dd ce 37 bc
       -0.10432911 0.13350439 -0.045725416 -0.011218754
0000c0 a2 7f 9b bd 1d 46 d9 3c 11 4d 03 3e 37 b4 ee 3c
       -0.075927034 0.02652269 0.12822367 0.029138668
0000d0 b6 96 65 bd 2f b6 94 bd 92 41 22 3b b4 70 50 bc
       -0.056051932 -0.07261311 0.0024758321 -0.012722183
0000e0 65 e9 b3 bc ec 99 10 3e bd 84 20 bd 67 86 9b 3c
       -0.021961877 0.14121217 -0.03918909 0.018984986
0000f0 2c f4 56 be 95 84 1b bb 1f 7f 8d bd 46 7d f1 3d
       -0.20991582 -0.0023730148 -0.06909012 0.11791472

hiden_layers.2.weight f4 [64, 64]
000000 d7 70 33 be f6 c2 3e 3e ed 35 a7 3d 2a e1 5c bc
       -0.17523514 0.18629059 0.081645824 -0.013481418
000010 97 41 4d be fc fa 01 bd ac 19 0a be 38 58 f1 bd
       -0.20044552 -0.031733498 -0.13486356 -0.117844045
000020 e6 f5 86 bd 02 9c b4 3d 53 62 c9 bc a8 54 a4 bd
       -0.0658987 0.08818819 -0.024583017 -0.080239594
000030 0f 96 48 bd d2 12 20 3e 86 cf 31 be 54 6e 4e 3e
       -0.048971232 0.1563218 -0.1736432 0.20159274
000040 7c 09 7a 3e e5 96 bc bd b2 8c 38 bb 0f b3 8e be
       0.2441768 -0.09208468 -0.0028160033 -0.27870986
000050 20 16 e6 bc 3a 4b 10 3d dc a6 f5 bd f7 92 f8 3d
       -0.028086722 0.03522799 -0.119947165 0.12137406
000060 c6 95 2c bd fb 76 0f be b4 a5 9f be 82 99 58 3d
       -0.042135023 -0.14010231 -0.3118111 0.05288077
000070 a8 70 76 bd 82 2c 0d be 16 e0 d2 3d d2 bf 66 bc
       -0.06016603 -0.1378651 0.10296647 -0.014083819
000080 d6 f2 98 be 3a 10 43 3d 25 43 15 be 62 cc cd bc
       -0.2987277 0.047622897 -0.14576395 -0.025121871
000090 31 61 81 3e 9b 09 2f bd e9 00 87 bd be de 37 be
       0.25269464 -0.04273377 -0.065919705 -0.17956063
0000a0 d6 9b 6d be de 84 8b bd ce 4c 50 3d 68 69 64 3e
       -0.23203978 -0.06812452 0.050854497 0.22305834
0000b0 73 38 fd 3d 0d fe 2d 3d 34 0f a8 3d bd 20 65 3e
       0.123642825 0.04247861 0.08206025 0.2237577
0000c0 7e 91 b0 3d 0d 50 96 bd 4c 59 39 be 59 cc fb bd
       0.086215004 -0.07339487 -0.1810047 -0.122948356
0000d0 cd 36 23 be 7e 41 99 3e c6 d2 46 3e 25 48 96 3e
       -0.15938874 0.2993278 0.19416341 0.29351917
0000e0 18 a9 65 bd 66 db 39 3e ea 7f 02 3e 2e 9e ce 3d
       -0.056069463 0.181501 0.12744108 0.10088764
0000f0 91 d2 c5 bd d8 48 a7 3d d0 81 86 3e 0c 94 6a 3d
       -0.09659303 0.08168191 0.26270914 0.057270095
000100 aa a0 66 3d e2 37 6b 3b d2 b8 0a 3f a5 41 9e 3d
       0.056305565 0.0035891463 0.54188263 0.077273645
000110 42 7a ae 3d 8b ee 0c 3f 25 97 0d 3f be 11 a2 3e
       0.085194126 0.5505149 0.55308753 0.3165416
000120 37 2d 62 3d 30 75 c7 3d d2 e0 6c 3e 66 50 ce 3d
       0.0552189 0.097391486 0.23132637 0.100739285
000130 40 8e 2b be b7 77 8e bf f4 50 3e be 22 2c 8e 3e
       -0.16753483 -1.1130284 -0.18585569 0.27768046
000140 5a ef 5b bd 98 27 39 3d c5 96 89 be 16 8c 1b be
       -0.05369506 0.045203775 -0.2687284 -0.15190157
000150 ee 96 20 bd 7f cb 48 3e 20 c2 b1 bd 62 cc 25 bd
       -0.039206438 0.19608878 -0.086796045 -0.040478118
000160 16 61 83 bd f0 3f 96 3e 0e a4 64 3e 7f 8c 06 3e
       -0.06415002 0.29345655 0.22328207 0.13139533
000170 e1 7d 98 be 89 33 3a bd c7 b7 39 be a2 89 14 be
       -0.29783538 -0.045459304 -0.18136512 -0.14505628
000180 ba d6 a6 3d 80 b4 18 3e 62 58 31 be f8 c3 65 3e
       0.081464246 0.14912605 -0.17318872 0.22438037
000190 3e c0 27 3e 1d 37 69 bd 7b ae 3b 3e 41 1d 3f bf
       0.16381928 -0.056937326 0.18328278 -0.7465401
0001a0 b4 66 2d be f7 65 50 be c6 0c 31 3d 4b 50 8e bd
       -0.1693371 -0.20351397 0.043225072 -0.069489084
0001b0 1d 14 a9 3d dd 97 c8 be c3 ff b5 3c b8 24 0c 3f
       0.082557894 -0.39178362 0.022216683 0.5474353
0001c0 00 f7 70 be e6 6f 9c 3e 71 3d 9e bd cd e5 7e bd
       -0.23531723 0.30554122 -0.07726563 -0.062230874
0001d0 e0 12 bd bd d9 94 c4 bc b1 ee ca bd 84 90 30 be
       -0.09232116 -0.023996757 -0.09908808 -0.17242628
0001e0 04 29 41 3e 79 ee 2a bd 73 96 b8 be 0c e8 f3 3d
       0.18863302 -0.04173133 -0.36052284 0.11909494
0001f0 88 51 a9 bb 4d d4 e6 3e 90 1d 75 3e 9e a6 8b bd
       -0.00516719 0.45083848 0.23937058 -0.06818889
000200 af 21 fb 3e ac e1 2f bd 2a 43 6d be 0b 60 27 be
       0.49049136 -0.042939827 -0.23170152 -0.16345231
000210 ae 62 54 3e 63 3e 0a bc fe 17 f0 3d 2e 4b 7b bd
       0.20740768 -0.008437726 0.11723326 -0.061350994
000220 97 11 20 be 91 c3 1a 3e 82 71 29 be 4b 63 25 3f
       -0.1563171 0.15113665 -0.16547206 0.64604634
000230 e2 8b 56 3f a9 5c 38 3e a4 0f b0 bd 02 1c 25 3f
       0.83807194 0.18004097 -0.08596733 0.6449586
000240 0f 28 a0 3d 1f ea 9b bd 9c ae 5c 3e 6a 1c 7e bf
       0.078201406 -0.076130144 0.21550983 -0.99262106
000250 c3 c8 0e be ac 34 8d 3e fb fb 9d 3e 61 6b 34 be
       -0.13943772 0.27579248 0.30856308 -0.17619087
000260 83 87 53 be 96 8d 04 bc d5 b5 55 bd 1c 8a 74 be
       -0.20657162 -0.008090397 -0.05217536 -0.2388081
000270 ac cc 47 3e 57 b1 20 3e c0 58 15 3e 4a f9 75 3e
       0.1951167 0.1569265 0.14584637 0.24020877
000280 6c 48 37 bd 32 37 23 bf 46 22 11 be ef cc fe 3d
       -0.0447468 -0.63756096 -0.1417323 0.12441432
000290 ff 61 78 3f 35 86 38 bd c6 6a 8e be ed 9b 81 3e
       0.9702453 -0.045049865 -0.27815837 0.25314274
0002a0 ba d7 39 3e e3 70 38 3d d5 af 24 be fa 5b 8c be
       0.181487 0.045029532 -0.160827 -0.27413923
0002b0 30 3c b5 3e c3 ee 00 be 5a d3 be 3d 67 25 ef bd
       0.35397482 -0.1259108 0.09317656 -0.11677056
0002c0 b5 fb 67 3f e3 ce ae bd 36 6d 5c bf 3e 84 ad 3e
       0.9061845 -0.08535554 -0.8610414 0.33889955
0002d0 8a f6 d2 3d 24 02 b3 3e 4d 90 01 3f 85 9e bc bc
       0.1030093 0.3496257 0.5061081 -0.023024807
0002e0 2c e2 8f be 41 f6 7b 3d 2a 6e 63 be fb 1e 93 be
       -0.28102243 0.061514143 -0.22209993 -0.28734574
0002f0 1e 1a d1 3d 32 07 3f 3e 87 3d 8d 3e 94 f3 1b 3e
       0.102100596 0.18655089 0.27586004 0.15229636
000300 d1 cc 1c 3d db 33 9c be d8 ff cd bc b4 9c 8a 3e
       0.038281266 -0.30508313 -0.02514641 0.2707268
000310 5b ae 0b be d3 eb 46 be 74 af 02 3d bc 59 03 be
       -0.1364073 -0.19425897 0.031905606 -0.128272
000320 9b d2 c1 3d 72 4d 0c 3e 28 2c 1d 3e 13 36 24 be
       0.09463998 0.13701418 0.15348876 -0.16036253
000330 eb 0c c2 3c 96 2f 57 3e 76 93 bf bc 76 61 08 3e
       0.0236878 0.21014246 -0.023385745 0.13318428
000340 2f 85 93 3e 8d 26 bf bd 0a 87 46 be 8f 93 bb bd
       0.2881255 -0.09333525 -0.19387451 -0.09159004
000350 b3 ec 71 be af 51 18 3d b8 06 5c 3e 54 b3 41 bd
       -0.2362545 0.037187275 0.21486938 -0.04729016
000360 20 27 a6 bc 7a 37 8d bd 3f a5 41 3e ab 6e 79 bd
       -0.020282328 -0.06895347 0.18910693 -0.060896557
000370 ee 67 4d bd fe 6d 16 3e c6 08 21 3e cc 6f 15 be
       -0.050147943 0.14690396 0.15726003 -0.14593428
000380 32 b2 3a be cb f1 c6 bd c4 bf 74 3e 30 55 42 3e
       -0.18232039 -0.09714087 0.23901278 0.18977809
000390 0a 76 b0 bd f3 1f f8 3d 3a c9 c6 3c 44 55 a5 bd
       -0.08616264 0.12115469 0.024265874 -0.08072904
0003a0 02 47 2c 3e e5 e9 66 be 7b 16 35 3d 6e 7d 2f 3d
       0.16823962 -0.22550161 0.044210892 0.04284423
0003b0 00 89 6d 3d 6f 65 90 bd b6 a1 a8 bd 82 7e f9 bb
       0.05799198 -0.07050597 -0.08233969 -0.007613958
0003c0 59 fe 27 be 71 c2 bb 3d c6 ca a1 3e 4f bd 3b be
       -0.1640562 0.09167946 0.31600016 -0.18333934
0003d0 24 43 5c 3d 80 09 18 3d 25 34 9a 3d 78 d3 f8 bc
       0.053774968 0.037118435 0.07529477 -0.030374274
0003e0 2a a9 50 3d d0 28 c1 bd c1 ca 8e bd ad 18 0a 3e
       0.050942577 -0.094316125 -0.06972266 0.13485976
0003f0 05 8a 04 3e 4f 53 dc bd 32 4b 0f 3e 8b ea ac 3c
       0.12943275 -0.10758077 0.13993528 0.021107933

hiden_layers.2.bias f4 [64]
000000 b8 ea 26 3d 4d 2a 3b 3d a2 db 91 bd eb a5 9b bb
       0.04075119 0.045694638 -0.0712197 -0.0047500036
000010 6e cc 4e bc f7 3c b6 bd 19 9c da 3d 8a 3a 6f bd
       -0.012621982 -0.08898347 0.106743045 -0.058405437
000020 c4 c4 52 bc 24 58 0c bd 56 0c 83 3c cb 91 ab bb
       -0.012864295 -0.034263745 0.015997093 -0.0052358857
000030 de e6 b3 3c 21 fc e8 3c de a9 89 bc 77 02 03 3d
       0.021960672 0.028440537 -0.016804632 0.031984773
000040 21 b7 a9 3d 9c a3 3a bd a7 1a dc 3c ed ee ec 3b
       0.08286882 -0.045566186 0.026868178 0.0072306306
000050 49 32 70 bc 61 2a 2a bd 0e 21 02 3d 12 96 a9 bd
       -0.014660426 -0.041544322 0.031769805 -0.08280577
000060 66 6f b0 3c 6c 11 82 3d ab 05 07 bd f9 4d ca bd
       0.021537494 0.06350979 -0.03296439 -0.09878153
000070 96 73 f5 bc 83 77 f3 bb 58 ac 9f 3d 0f bc 22 3d
       -0.029962342 -0.0074300184 0.07796544 0.039730128
000080 69 09 ad bc c0 63 d6 3c 1f 23 b0 3c ea d8 e8 3c
       -0.021122651 0.026170611 0.021501122 0.028423745
000090 26 e2 bc 3c a3 3f 71 3d d9 a5 5b be d1 57 a7 bc
       0.023057055 0.05889858 -0.21449985 -0.020427616
0000a0 1e 3f a5 ba 72 19 12 3e c2 6a 1b 3c a5 88 f9 bc
       -0.0012607311 0.14267519 0.009485902 -0.030460665
0000b0 4f 9d a1 3c b4 e3 82 bb 6e 93 03 3d 61 4c 58 3c
       0.01972833 -0.0039944295 0.03212302 0.013201804
0000c0 82 ea 1b 3d e3 9c ea 38 19 7b a5 3c 16 59 33 3d
       0.03806544 0.00011187212 0.0202003 0.04378613
0000d0 eb 88 fe bd 7a a6 e0 bc 05 96 ba 3d 9d c3 6d 3d
       -0.12428459 -0.027423132 0.09110645 0.05804788
0000e0 d7 f2 bd 3c 56 d5 5d bd 30 da a4 bc 05 bb 53 3d
       0.023187084 -0.05415853 -0.020123571 0.051692028
0000f0 18 f8 4d bd 33 03 9a ba a3 b1 f5 bc 0e 18 d7 3c
       -0.05028543 -0.0011750221 -0.02999193 0.026256587

hiden_layers.3.weight f4 [64, 64]
000000 be 11 85 bd 02 50 4a 3e 90 5a 53 3e 98 cf 6c bd
       -0.06497525 0.19757083 0.20640016 -0.057815164
000010 9c 7d cc bd 0d 31 dd 3d a4 bc 37 bd ed 7f 59 be
       -0.099848956 0.10800371 -0.044857636 -0.21240206
000020 c7 99 db bd 8e cf b0 3d 70 9d 8d 3e dd 70 f7 3b
       -0.1072269 0.08633338 0.27659178 0.007551296
000030 24 67 c4 3d 1c 60 50 be 6e 43 2f 3e 75 84 bb 3c
       0.09589985 -0.20349163 0.17115566 0.022890309
000040 15 f6 36 be 03 5e d2 bd 24 e3 b0 3d 15 e1 06 be
       -0.1786731 -0.102718376 0.08637074 -0.131718
000050 05 88 10 3e d0 7c 4b be b3 be 09 3e 47 f1 ab 3e
       0.14114387 -0.19871831 0.13451652 0.33582518
000060 d6 0c ee 3d 7d 0e 7e 3d 8e ba f6 3d d0 f6 2c be
       0.11623542 0.062025536 0.12047301 -0.16891026
000070 7a d4 3a 3e 42 34 35 3e b2 1b 9d 3d c8 9a 07 3e
       0.18245116 0.17695716 0.07671298 0.13242638
000080 a0 b0 2b 3d 6e ea 5b 3b 42 45 d7 bd 5c d9 44 3e
       0.04191649 0.003355648 -0.10511257 0.19223541
000090 7f 08 c8 3c 3b 95 a9 3d 63 5d ae bc b4 57 90 bd
       0.024418114 0.082804166 -0.021284765 -0.07047978
0000a0 e2 84 3c bb 6e 5c 19 3e fa 24 15 be 6c 5a dc bd
       -0.0028765728 0.14976665 -0.14564887 -0.10759434
0000b0 f1 b0 29 3e ea 8a a5 3e ad 1f 06 3e 0d f7 e4 bd
       0.16571404 0.32332546 0.13098021 -0.11179934
0000c0 cf 97 00 3e aa 6a 7a be 85 d1 11 be 9d f7 2b be
       0.1255791 -0.24454752 -0.14240082 -0.16793676
0000d0 25 3d 50 3e 09 bc 11 3e 7d 91 e8 3d ce cb 39 be
       0.20335825 0.14231886 0.11355875 -0.18144152
0000e0 73 f5 35 bb 5e cf 25 3e 06 6f 78 be c5 b5 2e 3e
       -0.0027764707 0.16192386 -0.24261102 0.17061527
0000f0 d4 f8 5e 3e 72 8a 67 3e 9d 55 0d be c1 05 5f 3e
       0.21774608 0.22611406 -0.1380219 0.21779539
000100 18 66 a6 be 23 ac ac 3c dd ae 41 3e b0 83 69 3d
       -0.32499766 0.021078175 0.18914361 0.057010353
000110 9e 44 e3 3d 49 33 60 3e 85 f1 ce be bd 90 23 3d
       0.11097072 0.21894564 -0.4041864 0.039932955
000120 c4 95 83 bd 45 75 14 be d7 fe 26 3e b7 f6 a2 3d
       -0.0642505 -0.1449786 0.16308151 0.07957213
000130 42 cb 59 3d e1 d8 7f bd 80 11 5d 3b 51 2d 90 3e
       0.053172357 -0.06246269 0.0033732355 0.28159574
000140 08 45 af 3d 8a 58 b2 bd 81 a2 50 3e 52 af 2e 3e
       0.085580885 -0.08708294 0.2037449 0.17059067
000150 05 c6 84 3e 62 fe cc bd 10 45 75 bd ec 4b 03 3e
       0.25932327 -0.10009457 -0.059880316 0.1282193
000160 76 07 ba bd f5 96 6d 3d 49 0e 82 3e 8c c0 53 be
       -0.09083454 0.058005292 0.25401524 -0.2067892
000170 52 0b 4c 3e e6 c2 b8 3d d4 76 98 be 26 75 23 3e
       0.19926193 0.09021549 -0.2977816 0.15962657
000180 91 8d 5b 3e 62 f8 be bc 4d 7d 5d 3e f0 94 54 3d
       0.21440722 -0.023311798 0.2162983 0.05189985
000190 c1 76 ac bd f9 b7 7a be 2a f0 d7 bc a3 02 85 3d
       -0.08421088 -0.24484242 -0.026359636 0.064946435
0001a0 d4 49 71 3d a9 74 36 bc c5 27 83 3d 35 ff ae 3e
       0.0589083 -0.011136212 0.0640407 0.34179083
0001b0 50 86 ff 3d 7c c8 87 bd cd bf f0 3d 7e e0 7f 3c
       0.1247679 -0.06630036 0.11755333 0.015617488
0001c0 84 a1 1d 3e e4 f4 39 be d1 0e 7e bd c3 09 5e 3e
       0.15393645 -0.18159825 -0.06202585 0.21683411
0001d0 b2 4a 11 3e cc ae ce bb 76 19 74 bd 41 f9 02 3e
       0.1418865 -0.0063074585 -0.059594594 0.12790395
0001e0 4a 0a 67 3e e6 3c a9 bd 13 3e bf 3c e6 47 a4 3d
       0.22562519 -0.082635686 0.023345029 0.08021526
0001f0 06 12 58 3e 2d be 5a 3d c1 a5 0e 3e 97 5f c7 3d
       0.21100625 0.053404022 0.13930418 0.09735029
000200 85 a0 06 bd 44 85 85 3e 3c 08 61 bc 21 1f 01 be
       -0.032867927 0.26078236 -0.013734873 -0.12609531
000210 60 f7 c1 be 89 c7 39 3e 93 bd 52 3e 25 4c 27 be
       -0.37884045 0.18142523 0.2058013 -0.1633764
000220 87 5b a5 bc 1e a7 ee bd a8 52 70 3e 81 7e d9 3d
       -0.020185245 -0.11652969 0.23469031 0.10619832
000230 0b 0c ae bd 76 a3 2b 3e 48 ac bf 3d 57 f3 70 3e
       -0.08498391 0.16761574 0.09359032 0.23530327
000240 d3 95 7d 3d ee f2 9a 3e bc 5f 0b be 7a d6 6e be
       0.06191046 0.30263466 -0.13610739 -0.23324004
000250 b4 07 ab 3d 97 0f 7d 3d a6 c2 5d be 38 ed 78 3e
       0.08351079 0.061782446 -0.21656284 0.24309242
000260 1c 76 c8 bc 6e ad 1a 3e 06 14 8e be ca 7f 74 3e
       -0.024470381 0.1510522 -0.27749652 0.23876873
000270 d8 e2 85 3e 83 4e 83 be fc c6 3c be 84 00 09 be
       0.2614963 -0.25645837 -0.18435282 -0.13379103
000280 a1 db da be d0 f6 d4 3d 88 49 7c 3e 3f cc ef bd
       -0.4274569 0.10398638 0.24637425 -0.11708879
000290 33 f4 07 be a2 67 2a be d5 a6 57 3d 89 45 07 3d
       -0.13276748 -0.16641095 0.052649338 0.0330253
0002a0 3b 76 dd 3e 2a 15 87 be de f4 c6 bd 4e eb 02 3d
       0.43254265 -0.26383334 -0.097146735 0.031962685
0002b0 6f 70 83 3d 70 e7 9c bd cc ee 98 3e f2 7d c9 be
       0.064179294 -0.07661331 0.29869688 -0.393539
0002c0 68 ee dc be 8b 04 1f be fc 12 be 3e 5e 5f 21 3e
       -0.4315064 -0.15529077 0.3712386 0.15759036
0002d0 90 84 55 3e 3d 63 d2 bd 22 eb 9e bd f5 05 ed be
       0.2085135 -0.102728345 -0.07759692 -0.46293607
0002e0 0e c5 0f be 9a 2d 3e be 3c e3 a5 3d b1 ce fd 3d
       -0.14040014 -0.18572083 0.08099982 0.12392939
0002f0 aa 90 c2 3b 49 20 83 be c3 01 44 3d 88 0f e1 3c
       0.0059376555 -0.2561057 0.047853243 0.027473226
000300 71 9c ac 3d 5f 46 89 3d 7e 8d bc 3d 12 ae d2 bc
       0.08428276 0.06702875 0.09206675 -0.025717769
000310 04 cb 1e be fd 2b a7 bd d8 3c 9b 3d a8 22 a4 bd
       -0.15507132 -0.08162687 0.075799644 -0.08014423
000320 07 4b 58 3e 5d 34 d5 bd 87 76 e2 bd e2 38 df bd
       0.2112237 -0.10410378 -0.110577635 -0.108995214
000330 a8 bb 92 be c4 6d a7 bc fe 5c 26 be 45 c1 82 bd
       -0.28658795 -0.020438083 -0.16246411 -0.063845195
000340 77 0f 8d 3c 65 3f 80 bc a7 3b c3 3d 09 7c d6 3c
       0.017219288 -0.015655229 0.09532862 0.026182191
000350 2a 96 5c 3d a8 59 24 3d f3 3a f5 bd d1 3e e1 3b
       0.053854145 0.040124565 -0.11974134 0.0068739434
000360 7b 88 d3 3d 44 fa a2 3d 5e 07 04 be f6 b1 93 3d
       0.10328766 0.07957891 -0.12893435 0.07211678
000370 4b d8 6f 3e 8e fc 87 be ce 9f e1 3c 28 9a ba 3d
       0.23422353 -0.2655987 0.027542021 0.09111434
000380 10 93 65 3e 01 13 c4 3d 5f 2c 32 3e fd 84 20 be
       0.22419381 0.09573937 0.17399739 -0.15675731
000390 f9 2b 98 be b9 61 2e be b2 80 bb bd e9 3f bb bd
       -0.29721048 -0.17029466 -0.09155406 -0.09143049
0003a0 31 4b 49 3e 8d 42 40 be 58 67 43 be c0 a2 46 3d
       0.1965759 -0.18775387 -0.19082391 0.048495054
0003b0 f8 e0 a3 3d 20 4d 67 3d de a3 27 3e 21 cc 87 3d
       0.08001894 0.056470037 0.16371104 0.066307314
0003c0 b6 1f de bd 5f 0c 04 3e 13 82 71 bd f6 0b 7b bd
       -0.10845892 0.12895344 -0.05896194 -0.061290704
0003d0 33 95 08 3e 50 57 20 3e 85 9c aa 3d 36 b2 25 3e
       0.13338165 0.15658307 0.08330635 0.16181263
0003e0 39 3d 82 3d 3f 1e 72 3e aa 5b cb 3d 21 0d 01 be
       0.063593335 0.2364435 0.09929593 -0.12602665
0003f0 6b 01 32 be 45 a9 75 be 7d 52 a3 bd 5d 59 8b 3c
       -0.17383353 -0.23990352 -0.07974718 0.017010385

hiden_layers.3.bias f4 [64]
000000 8b c4 c4 bc 18 e9 d2 bd c8 64 95 bd 99 c1 62 bd
       -0.0240195 -0.10298365 -0.07294613 -0.05536041
000010 5d ad 06 3d c6 83 2c bd 3f 07 32 3e 54 4d 1b 3d
       0.032880176 -0.042117856 0.17385577 0.037915543
000020 c0 b2 8d 3c 2e 8a 7e bc 29 a3 0f 3d 14 6d a9 bb
       0.017297149 -0.015535874 0.03506771 -0.005170474
000030 2f 57 8e bc 87 9a a1 3d f8 96 89 3d b3 e0 6f bd
       -0.017375557 0.07890802 0.06718248 -0.0585639
000040 08 6f fd 3b 5f 3d a3 bc 27 70 7e bd 0c cb ed bc
       0.007734183 -0.019926725 -0.062118676 -0.029027484
000050 5b c9 bc 3d 5b 5c 88 bd 7f e5 01 3e 6f 87 20 3d
       0.09218093 -0.066582404 0.12685202 0.03919166
000060 46 9e b2 bd 42 42 02 bd b4 c1 d0 3c 7d dd 70 bd
       -0.087215945 -0.03180147 0.02548299 -0.058804978
000070 53 44 92 bc e5 61 c9 bc 50 bb c2 bc f9 ff a5 bc
       -0.017854845 -0.024582813 -0.023770958 -0.020263659
000080 62 37 42 bc 69 58 da 3c a0 c3 b4 3b 6e a1 a1 bc
       -0.011854025 0.026653485 0.0055164844 -0.019730296
000090 d6 ef 61 bd 96 81 cb bc 6b 8c 8b bd f0 9b dc 3d
       -0.055160366 -0.024842065 -0.06813892 0.1077193
0000a0 b1 14 49 be 26 f7 03 3d 02 6a 10 bd ac 3d 36 bd
       -0.196368 0.03221812 -0.035257347 -0.04449241
0000b0 b0 24 ca bc 3e d4 14 3d 90 20 f8 bc 65 a8 cd 3b
       -0.024675697 0.036335222 -0.030288965 0.0062761777
0000c0 27 aa a7 bd c2 d3 1c 3d 7a ea 90 bc f0 de cb 3d
       -0.08186751 0.038287885 -0.017689932 0.09954631
0000d0 75 af 79 bd 78 63 c8 3c df cf 21 3d 74 13 2f bd
       -0.060958344 0.024461493 0.039504882 -0.04274316
0000e0 7c 98 2d 3d 07 cf f7 bc 37 a8 00 bd 8c 74 b4 bb
       0.04238175 -0.030250086 -0.031410422 -0.0055070575
0000f0 c7 f2 34 3d b2 48 a8 3c 4c a4 dc 3d 17 f1 3f bd
       0.044176843 0.020542476 0.10773525 -0.04686078

hiden_layers.4.weight f4 [64, 64]
000000 aa e9 1b be e6 7a ad 3d 3e 96 c5 bd 0e af 9a be
       -0.15225855 0.08470707 -0.09647797 -0.3021168
000010 a6 6e 55 3b ed c4 61 bd e1 b9 f2 bd 25 76 49 3e
       0.0032567172 -0.055119444 -0.1185186 0.19673975
000020 50 8e 9e 3d 14 de ad 3e d3 12 c5 bd e7 9b 52 3e
       0.07741988 0.33958495 -0.09622731 0.20567285
000030 7f 9b a8 3e 12 7b af bd 22 c0 15 3e 73 b3 b2 3e
       0.32931134 -0.08568396 0.14624074 0.34902534
000040 5a 9f 92 bd c7 0f ff bd 1d 38 27 3e 6d 42 e8 3e
       -0.071593 -0.12454181 0.1633 0.4536318
000050 bd 69 6f be 0d 9b 04 bc d0 cc 9b bd 79 d9 d2 bc
       -0.2338018 -0.008093608 -0.07607424 -0.025738465
000060 1b c8 c2 bd b1 2e 4d be 52 99 40 be 9d 48 43 3e
       -0.09510823 -0.20037343 -0.18808487 0.19070669
000070 a9 43 23 bf c3 bd 45 be ab 7e a3 bd 26 4a 2b 3d
       -0.63775116 -0.1931067 -0.079831444 0.04181876
000080 1e 1a 05 3f eb d0 f6 3c fd f2 e9 3c 3d 72 a9 be
       0.51992977 0.030128917 0.028558249 -0.3309497
000090 71 6f 95 be 17 1f 88 be a0 34 29 3e a5 ac f5 3b
       -0.29186586 -0.2658622 0.16523981 0.0074973875
0000a0 ce 0d cf be 39 e7 49 be d9 a6 94 3d 89 ec 33 3e
       -0.4044022 -0.1971711 0.07258386 0.175707
0000b0 22 36 31 3d e3 26 a4 3e 5f 00 07 3e 80 be bf bc
       0.043264516 0.32060918 0.13183735 -0.023406267
0000c0 c3 99 ac be d6 fa 57 bc 28 2c 6a bd bf 32 eb 3d
       -0.3371106 -0.013182363 -0.057171017 0.114842884
0000d0 45 8f 65 be cc 92 35 3f a1 08 a9 3e 0a f6 28 be
       -0.22417934 0.7092712 0.33014396 -0.16500106
0000e0 46 04 84 bd 13 3b a8 3d d2 4b 97 3c 22 ec 3b be
       -0.064461276 0.082143925 0.018468771 -0.18351796
0000f0 b7 83 10 3e 68 34 07 be 08 4c ba bd 87 21 a6 bc
       0.14112745 -0.13203585 -0.09096533 -0.020279659
000100 f8 a4 de bd ad e6 83 be 20 8d 6e be 04 53 92 3d
       -0.10871309 -0.2576193 -0.23296022 0.0714474
000110 3b b1 2c 3d 97 6e b0 bc 21 fa 4e be 06 43 9b 3b
       0.042161208 -0.021537108 -0.20212604 0.0047382144
000120 b1 7f b9 be 15 69 9b be 33 dc 88 bd 51 44 07 3d
       -0.36230233 -0.3035361 -0.06682625 0.033024136
000130 3b 46 e2 3d f5 fe b7 3d 35 4b a7 be c9 67 33 bd
       0.11048552 0.08984176 -0.32674566 -0.04380015
000140 c6 26 3a be cb 3e 70 bc ac a8 2f 3e a7 96 9e 3d
       -0.18178853 -0.0146634085 0.17154187 0.077435784
000150 be 64 52 3e 0f 4a 48 bc 47 a1 27 3e 26 bd d8 bd
       0.20546243 -0.012224688 0.16370116 -0.10582952
000160 c3 07 41 be 80 e5 7c be f5 25 b0 bd 60 cd 0f 3e
       -0.18850617 -0.24696922 -0.0860099 0.14043188
000170 ee cd 93 3d f0 dd 52 bd 18 f0 dd bd f3 6d 35 be
       0.07217012 -0.051481187 -0.1083681 -0.17717724
000180 fc 07 a3 bd b3 00 9d 3e 48 b8 68 3e 29 19 7f bd
       -0.07960507 0.30664596 0.22726548 -0.062279854
000190 2c 49 c1 3d e0 3f a5 be f2 e5 83 3e c5 e2 ce bc
       0.094377846 -0.32275295 0.25761372 -0.025254617
0001a0 3b 8f e6 3e d1 95 e7 bc 3a c3 50 3d 10 7d a9 3d
       0.4503115 -0.02826968 0.050967433 0.08275807
0001b0 14 26 66 bd bd 7e 4d 3e 26 ec 14 be 2e 54 c8 bd
       -0.056188658 0.20067878 -0.14543208 -0.09781681
0001c0 3c 78 1e be 0c 35 21 3e 8c 59 44 be 6a 0d 20 3d
       -0.15475553 0.15742892 -0.19174784 0.039075293
0001d0 55 82 ef 3d ab a0 8f be dc c7 4f 3e 88 18 60 bd
       0.11694781 -0.28052267 0.20291084 -0.054710895
0001e0 53 de ce 3c 62 3d 6f bd d2 9c bb bd e6 16 80 bd
       0.025252497 -0.05840815 -0.091607705 -0.062543675
0001f0 06 37 96 3e 9a 62 7f 3d af 53 fd 3d 88 4a d5 3d
       0.29338855 0.062349893 0.12369477 0.10414606
000200 56 36 36 bd 3c b5 2d be 5b 52 27 be f6 02 16 be
       -0.044485413 -0.16963667 -0.1634001 -0.14649567
000210 c7 dc 9f bd 0e a4 08 bb c4 83 42 bd f0 93 f7 3d
       -0.07805782 -0.0020849737 -0.047488943 0.12088764
000220 41 b5 14 be 0c 5e 0e 3d d1 b5 6b 3d 35 e8 b0 3c
       -0.14522268 0.03475766 0.05754644 0.0215951
000230 46 72 76 bd d0 44 5d 3e 00 7b 18 3e 5c 13 c7 3d
       -0.060167573 0.21608281 0.14890671 0.097204894
000240 a2 b4 07 3e 24 c6 08 3e 09 03 8e be 75 a5 b9 3c
       0.132525 0.13356835 -0.2773669 0.022661904
000250 b4 96 33 be 36 80 31 be df f6 78 bd 32 8f 0b 3d
       -0.17537957 -0.17334065 -0.06078231 0.03407211
000260 d8 95 fb bd 3e 15 cd be 03 a4 bd be e6 e3 42 3e
       -0.1228444 -0.4005527 -0.37039194 0.19032249
000270 30 2e 61 be 03 51 4d 3d ad 47 96 bd e0 5f 50 3e
       -0.21990275 0.050126087 -0.0733789 0.20349073
000280 70 a8 88 bc ae d4 5c 3e 8f 0a 05 be 39 f5 26 3e
       -0.01668188 0.21565506 -0.12992309 0.16304483
000290 6a 1b 5f bc 12 34 d4 bd 0a dd 26 be b1 27 1a 3e
       -0.013617376 -0.10361494 -0.16295257 0.15054204
0002a0 35 d9 82 3e b9 3d 82 3c 94 53 a9 be 73 7e a8 bd
       0.2555634 0.015898572 -0.33071578 -0.08227243
0002b0 64 61 0e be d0 2f d6 bd 53 34 fa 3d c9 77 3b 3e
       -0.13904339 -0.10458338 0.12217011 0.18307413
0002c0 51 21 7f 3e f4 d6 b2 3d 92 2a b7 3e e8 dc 9c bd
       0.24915053 0.08732405 0.35774666 -0.07659322
0002d0 4e 51 80 be 72 6a d1 bd 4a a5 03 bd 65 5f fe 3d
       -0.2506203 -0.10225381 -0.032140054 0.12420539
0002e0 e6 e8 46 be 34 2c 8c 3e ac 66 6f 3e 80 23 87 3d
       -0.19424781 0.27377474 0.2337901 0.06598568
0002f0 9f 4c 53 3e 48 dc 8e bb fc 17 fa 3d 39 cd 5e 3e
       0.20634697 -0.0043597557 0.12211606 0.21757974
000300 9e 27 bb 3d 83 99 e9 bd 7e 34 0d bd 58 ee b2 3d
       0.09138416 -0.11406233 -0.03447389 0.08736867
000310 5b 7e 85 3d 4f 04 23 be 37 fe 9f bd 39 a6 05 be
       0.06518241 -0.15919612 -0.078121595 -0.1305169
000320 1e 0c f8 3d 17 53 5a 3e 67 78 0d 3e 03 b9 8a bd
       0.12111686 0.21320759 0.13815461 -0.067735694
000330 2f 21 0c be 17 1e 66 be 99 74 02 3e dd e3 f1 3e
       -0.13684534 -0.22472416 0.12739791 0.47244158
000340 19 fc 01 3e cd 60 71 bc ec 25 47 be 29 74 2b be
       0.12693824 -0.014732552 -0.1944806 -0.1674353
000350 e1 32 59 be b5 ca 84 3d 04 6a 30 3e 4f 54 de 3d
       -0.21210815 0.06483976 0.17227942 0.10855924
000360 02 87 2a 3e 06 42 d4 bc 78 c6 65 bd a2 be f6 bd
       0.16653064 -0.025910389 -0.056097478 -0.12048079
000370 35 ae 42 be e1 f1 cd 3d 1e ff c2 bc ec 66 d1 bd
       -0.19011767 0.100559 -0.02380329 -0.10224709
000380 ed e6 03 3e 83 bb d6 3c 9f 64 b4 3d 38 f3 88 3c
       0.1288106 0.02621246 0.088082545 0.016717538
000390 9f 3b 72 3e 05 92 e0 bd ac ce 88 bb 06 c6 c2 3d
       0.23655556 -0.10965351 -0.004175028 0.09510426
0003a0 fb a0 4c be 37 4d e7 bd b4 bd d5 bd 99 24 71 3e
       -0.19983284 -0.112940244 -0.104365736 0.23549117
0003b0 5b 8f ad 3d 25 80 eb bd fe 0b c9 bd e5 ea 2d be
       0.084746085 -0.11499051 -0.098167405 -0.16984136
0003c0 4f 82 44 be fd 3f 30 3e c6 cf 1f be 9f 42 2d 3e
       -0.19190334 0.1721191 -0.15606603 0.16919945
0003d0 20 08 b2 bd 86 61 2c 3e ad f8 1f 3d f7 25 35 3e
       -0.08692956 0.16834077 0.039055515 0.17690264
0003e0 24 88 20 be d7 f5 5e bd 69 45 59 3e 54 52 57 3d
       -0.15676934 -0.05443367 0.21217884 0.05256875
0003f0 aa 8b 5f 3e 2e a3 1c be 90 4b a0 3d cf 8f 3b 3e
       0.21830621 -0.15296623 0.078269124 0.18316577
