results/3_model_2_case_1/epoch150/model_weights.pth (torch, 484214 bytes, 88 tensors)

init_layer.0.weight f4 [64, 3]
0	0xbe960b4e	-0.293055
1	0xbe5346a0	-0.2063241
2	0x3e5a4906	0.21316919
3	0x3ea38490	0.31937075
4	0xbcfd502a	-0.030922014
5	0x3bffd7a6	0.0078076897
6	0xbdf50e1c	-0.11965582
7	0xbe8cce79	-0.27501276
8	0xbe2cadb7	-0.16863142
9	0x3eed41ba	0.46339208
10	0x3db3087d	0.087418534
11	0x3c27c50f	0.0102398535
12	0xbc318c2e	-0.010836644
13	0x3e64b7da	0.22335759
14	0x3e85bd3f	0.26120946
15	0xbe004994	-0.12528068
16	0xbe961b49	-0.29317692
17	0x3e80a8e0	0.2512884
18	0x3e29bd7d	0.1657619
19	0x3e0c6184	0.13709074
20	0x3e9460dd	0.2898015
21	0x3e8d9f0e	0.27660412
22	0x3e53a72c	0.2066924
23	0x3e7c22a2	0.24622586
24	0x3e9ed48a	0.3102153
25	0xbeb75fa0	-0.35815144
26	0x3dacf506	0.08445172
27	0xbdc6355e	-0.09678148
28	0xbe0d48a6	-0.13797244
29	0x3e8f50cf	0.2799134
30	0xbe9660f8	-0.29370856
31	0xbe02cc44	-0.12773234
32	0xbd0ba505	-0.03409292
33	0x3dcb1e81	0.099179275
34	0x3dd2f784	0.10301116
35	0xbeade3c6	-0.3396284
36	0xbd66402d	-0.056213547
37	0xbc8e6cd0	-0.01738587
38	0x3d8892f8	0.06668657
39	0xbd969ae0	-0.07353759
40	0x3be44575	0.0069662877
41	0x3eaf703a	0.3426531
42	0x3e90aa1b	0.2825478
43	0xbea8e9bb	-0.32990822
44	0xbc890950	-0.016728073
45	0x3e422af2	0.18961695
46	0xbe51f9a7	-0.20505391
47	0xbea5d8fb	-0.32392105
48	0x3dda4bdd	0.10659001
49	0xbd4dbdb2	-0.050229736
50	0x3e959b15	0.2921988
51	0x3e7b930e	0.24567816
52	0x3e8213d6	0.2540576
53	0xbe5eb588	-0.21748936
54	0x3dcf3049	0.101166315
55	0xb9d32321	-0.0004027123
56	0xbeb64227	-0.35597345
57	0xbe96d31b	-0.29457936
58	0x3e33dd31	0.17564847
59	0xbe75a431	-0.23988415
60	0x3e10e4b2	0.1414974
61	0xbe053942	-0.13010123
62	0xbdf14805	-0.11781315
63	0x3ead2268	0.33815312
64	0xbd279ca0	-0.040920854
65	0xbda6d75d	-0.08146546
66	0x3c01deee	0.007926686
67	0xbdacd0fa	-0.084382966
68	0xbe9142f1	-0.28371385
69	0xbe144311	-0.14478709
70	0x3e7e39fc	0.24826807
71	0xbd0f8cf9	-0.03504655
72	0xbcfc2e46	-0.030783784
73	0xbde46825	-0.111526765
74	0x3e871477	0.263828
75	0xbe03560f	-0.12825797
76	0x3e4b1497	0.19832073
77	0xbe2b918a	-0.16754737
78	0x3d8bfe3e	0.06835602
79	0x3e92f089	0.2869914
80	0x3e8e2256	0.2776057
81	0xbe3bd3c8	-0.18342507
82	0xbe6a15bc	-0.22859854
83	0x3e1df991	0.15427233
84	0x3cfc02a5	0.03076298
85	0x3dab8515	0.08374993
86	0xbe95e439	-0.29275683
87	0x3db852ba	0.09000154
88	0xbe90a819	-0.28253248
89	0x3e3d1152	0.18463638
90	0xbeb8a077	-0.36059925
91	0xbe5d3468	-0.21602023
92	0xbdbf2764	-0.09333685
93	0xbd964820	-0.073379755
94	0x3d572d74	0.05253358
95	0x3eaf61b0	0.34254217
96	0xbd8d89d9	-0.06911058
97	0x3e3386b8	0.1753186
98	0x3ea466c1	0.32109645
99	0xbe9fd777	-0.31219074
100	0x3ea335bb	0.3187693
101	0xbd5cb842	-0.05388666
102	0xbd4fa901	-0.050698284
103	0x3bc770fb	0.0060864664
104	0xbe349f7a	-0.1763896
105	0xbe0e6a24	-0.13907677
106	0xbe4d5ac2	-0.20054153
107	0xbe469b93	-0.19395284
108	0x3cacea89	0.021107929
109	0x3a53e42b	0.0008083011
110	0xbe94311d	-0.2894372
111	0xbe5cfd21	-0.21580936
112	0xbde76fcf	-0.11300623
113	0xbd1ab0a8	-0.03776613
114	0x3dfb0865	0.122574605
115	0xbe20b76c	-0.1569497
116	0x3e9ddf76	0.3083455
117	0xbeaac515	-0.33353487
118	0x3e2c60ef	0.16833852
119	0x3e83816f	0.25684687
120	0x3e3d3543	0.18477349
121	0x3c07897c	0.008272525
122	0xbeb88714	-0.36040556
123	0xbcfefc45	-0.03112615
124	0xbca43d51	-0.02004877
125	0xbe90adb4	-0.28257525
126	0x3d0cdba8	0.034389168
127	0xbda0ec2c	-0.07857546
128	0x3ea40327	0.32033655
129	0xbd334848	-0.043770105
130	0xbcad6a80	-0.021168947
131	0x3e8b64a7	0.2722523
132	0x3deaa37d	0.11456964
133	0xbe53c97d	-0.2068233
134	0xbe88593b	-0.26630577
135	0xbebef67e	-0.37297434
136	0xbe1b0013	-0.15136747
137	0x3e38632d	0.18006583
138	0x3cdf0317	0.027223153
139	0xbe1e465d	-0.15456529
140	0x3da985bf	0.08277463
141	0x3e568134	0.20947725
142	0x3e653f82	0.22387508
143	0x3da5dda8	0.08098918
144	0x3ea85f7c	0.3288535
145	0x3edab152	0.4271341
146	0x3dd94fc3	0.106109165
147	0x3e1ce209	0.153206
148	0xbe87e094	-0.26538527
149	0x3e8f0b62	0.27938372
150	0xbbe61a4f	-0.007022179
151	0xbeb2ec7d	-0.3494605
152	0xbe2edfd9	-0.17077579
153	0xbed812e6	-0.42201918
154	0xbe194cd2	-0.14970711
155	0xbddfa5e1	-0.10920311
156	0x3efa2220	0.4885416
157	0xbec36968	-0.38166356
158	0x3df7007a	0.12060638
159	0xbdd248bf	-0.102677815
160	0xbe8e2316	-0.27761143
161	0x3d0cdbdf	0.034389373
162	0x3e3d8d48	0.18510926
163	0xbe85ae2b	-0.26109442
164	0xbea5e21a	-0.32399064
165	0x3e853432	0.26016384
166	0xbc200258	-0.009766184
167	0x3e7fba47	0.24973403
168	0x3e3dff7e	0.18554494
169	0x3d701e58	0.058622688
170	0x3e977489	0.29581097
171	0x3e27ed2c	0.16399068
172	0xbe11b5e4	-0.14229542
173	0x3d13b141	0.036057714
174	0x3ea4595d	0.3209943
175	0x3e9d3cba	0.30710393
176	0x3dd23adf	0.10265135
177	0x3eaef171	0.3416858
178	0x3e64e217	0.22351871
179	0xbe47fae3	-0.195293
180	0xbe770715	-0.24123795
181	0xbe42ad4f	-0.19011424
182	0xbdfb3934	-0.1226677
183	0xbe5508d4	-0.20804149
184	0x3c3b4a1d	0.011431244
185	0xbd578773	-0.05261941
186	0x3ea3106b	0.31848463
187	0xbd4989d6	-0.049203716
188	0x3d34f6d5	0.04418071
189	0x3e92961e	0.28630155
190	0x3d87e866	0.06636123
191	0x3e2ef0fb	0.17084114

init_layer.0.bias f4 [64]
0	0x3eb32f0b	0.34996828
1	0xbdb2921c	-0.087192744
2	0xbdc7ce30	-0.09756124
3	0xbe16a8f0	-0.14712882
4	0xbdd04812	-0.10169996
5	0xbd892aac	-0.06697592
6	0x3cd484de	0.025942262
7	0x3e09cd43	0.13457207
8	0xbdbc6910	-0.091997266
9	0xbe2a57bb	-0.16635029
10	0x3ec6fa44	0.38862813
11	0x3e2ca2fc	0.16859049
12	0x3e29ba2d	0.16574927
13	0x3ea3bb75	0.31978956
14	0x3c44e1a1	0.012016685
15	0x3e5ac61c	0.21364635
16	0x3e12118d	0.14264508
17	0x3de69917	0.11259668
18	0x3e5bf84d	0.21481438
19	0xbcef9f01	-0.029250624
20	0x3e0a9429	0.13533081
21	0x3d15789b	0.03649197
22	0x3e8141b1	0.2524543
23	0x3dafa5d2	0.085765496
24	0x3e51bac8	0.20481408
25	0xbe0d5724	-0.13802773
26	0x3e03ecc6	0.1288329
27	0xbd2bd46a	-0.04195062
28	0xbe922b3d	-0.28548613
29	0x3e0c2d9a	0.1368927
30	0xbda0197c	-0.07817361
31	0xbe26568e	-0.16243955
32	0xbe134115	-0.14380296
33	0x3dc58a98	0.09645575
34	0x3e335f3d	0.175168
35	0x3e047774	0.12936193
36	0xbe0fa96e	-0.14029476
37	0xbdbd7586	-0.092509314
38	0xbe6f0381	-0.2334118
39	0xbda78430	-0.0817951
40	0xbe50a09a	-0.20373765
41	0xbe601685	-0.2188359
42	0xbe8721d7	-0.26393005
43	0x3e361fb5	0.17785533
44	0x3e1627e4	0.14663655
45	0xbd93e08d	-0.07220564
46	0xbe3879b5	-0.18015178
47	0xbda1245a	-0.07868262
48	0xbdd2a341	-0.102850445
49	0x3e23f01f	0.16009568
50	0xbe2c6da0	-0.16838694
51	0xbde0a34e	-0.10968648
52	0x3d229b49	0.039698873
53	0xbd62ba99	-0.055353735
54	0x3df3a4e4	0.11896685
55	0x3df87662	0.12131955
56	0x3e017110	0.12640786
57	0xbe43cd00	-0.1912117
58	0x3d4d5870	0.05013317
59	0xbe74bcc0	-0.23900127
60	0xbd6e1678	-0.058126897
61	0xbd822d3b	-0.06356283
62	0x3dd8bb1b	0.105825625
63	0x3d141c81	0.036159996

hiden_layers.0.weight f4 [64, 64]
0	0xbebf8811	-0.37408498
1	0x3dfffc09	0.12499244
2	0x3e68dbb5	0.22740062
3	0x3e4cfc4c	0.20018119
4	0xbe6703f6	-0.22560105
5	0xbd5b880b	-0.053596538
6	0x3d3286a6	0.043585442
7	0xbe7c3c32	-0.24632338
8	0x3e017930	0.12643886
9	0xbd893e26	-0.06701307
10	0xbe033419	-0.12812842
11	0x3e493fa0	0.19653177
12	0xbd7dcfd0	-0.061965764
13	0x3cea3039	0.028587447
14	0x3e7d0c9c	0.24711841
15	0xbe337760	-0.17526007
16	0xbd76e2ba	-0.060274817
17	0xbd925e91	-0.07146943
18	0xbcdb5de1	-0.026778163
19	0xbe382aa2	-0.17985013
20	0xbd00eaed	-0.031474043
21	0x3e4984a1	0.196795
22	0xbbef8d40	-0.0073105395
23	0xbea87bcd	-0.32906953
24	0x3d19dbe9	0.03756324
25	0x3cf0373a	0.02932321
26	0xbe6a2821	-0.2286687
27	0xbe58cf12	-0.21172741
28	0x3ca9e1f2	0.020737622
29	0xbd7e2dbc	-0.062055334
30	0xbe1b49ec	-0.15164918
31	0xbd4d6866	-0.05014839
32	0xbdb2f690	-0.08738434
33	0xbe2dcc4d	-0.16972466
34	0x3e1a9eb7	0.15099607
35	0x3ca356f6	0.019938927
36	0x3dc2e78d	0.09516821
37	0x3d239ef6	0.03994652
38	0x3e8ee14a	0.27906257
39	0x3d004c9c	0.03132306
40	0x3e58f1f0	0.21186042
41	0x3d38800c	0.04504399
42	0x3e301cdc	0.17198509
43	0xbe4d3fd6	-0.20043883
44	0xbce1ca94	-0.027562417
45	0xbdbcb4c0	-0.09214163
46	0x3d5f4dfc	0.05451773
47	0xbe4b79d2	-0.1987069
48	0x3e6c7c42	0.23094276
49	0xbdebe064	-0.115174085
50	0x3ce3eb82	0.02782226
51	0x3dc2d5e4	0.09513453
52	0x3de5430c	0.11194429
53	0xbd37832b	-0.044802826
54	0x3e4f9b51	0.20274092
55	0x3e268864	0.16262966
56	0xbe6c9bde	-0.23106334
57	0x3d807a7c	0.06273362
58	0xbe41bc6f	-0.18919538
59	0x3e86d6d0	0.26335764
60	0x3ddfdecb	0.10931166
61	0xbe21231f	-0.15736054
62	0x3c85f0ef	0.016350238
63	0xbe3a10f4	-0.1817053
64	0x3d94412c	0.07238993
65	0xbe8d2540	-0.27567482
66	0xbe3218bf	-0.17392252
67	0x3d0ea5c4	0.034826055
68	0xbeb14378	-0.34621787
69	0xbe7a524a	-0.24445453
70	0x3e3841d2	0.17993858
71	0xbe05b677	-0.13057886
72	0xbddeb894	-0.10875049
73	0xbf148cd2	-0.58027375
74	0x3ee0d510	0.43912554
75	0x3e58eb22	0.21183446
76	0x3e4deb78	0.20109355
77	0x3d7fb39c	0.06242715
78	0x39cee46b	0.00039461566
79	0x3ee073dc	0.43838394
80	0x3d6cedc8	0.057843953
81	0x3e8f5733	0.27996215
82	0x3ef529a5	0.47883335
83	0xbc3f7a00	-0.011686802
84	0x3e21f1ee	0.15814945
85	0xbe266822	-0.16250661
86	0x3eea7e3a	0.45799428
87	0x3ec2c32d	0.38039532
88	0xbd9339cf	-0.071887605
89	0xbd2a0cf4	-0.04151626
90	0x3e73adcd	0.23796768
91	0x3c756d46	0.014979666
92	0x3dc3735c	0.095434874
93	0x3dddf23f	0.108372204
94	0xbe28bad2	-0.16477516
95	0xbefaf8e9	-0.49018028
96	0xbe87984d	-0.26483384
97	0x3dfc4cac	0.123193115
98	0x3f0bc64b	0.54599446
99	0x3e95b916	0.29242772
100	0x3e545dc9	0.20738901
101	0xbdb61235	-0.088901915
102	0xbe8dada7	-0.2767155
103	0x3d66c7df	0.056342956
104	0xbd54cfdc	-0.051956043
105	0xbdaa03d3	-0.08301511
106	0xbf0158a9	-0.5052591
107	0x3c796552	0.015221911
108	0x3ebe0305	0.3711168
109	0xbe5cf853	-0.21579103
110	0xbeea420c	-0.45753515
111	0xbea017da	-0.31268197
112	0xbe1f402f	-0.15551828
113	0xbd91a66a	-0.07111819
114	0xbe25f581	-0.16206934
115	0xbe240c7d	-0.16020389
116	0x3d638757	0.055548992
117	0xbe38d73d	-0.18050857
118	0x3eb3efc7	0.35143873
119	0x3e20a2ea	0.15687147
120	0xbe1bb753	-0.15206651
121	0xbeb6aca7	-0.35678598
122	0xbe32ac6d	-0.17448588
123	0xbe8fac46	-0.28061122
124	0x3e5cb183	0.2155209
125	0x3e6c7b0e	0.23093817
126	0x3e6570e1	0.22406341
127	0xbd923f03	-0.07140925
128	0x3da662ec	0.081243366
129	0xbdb8e587	-0.09028154
130	0x3e5e513c	0.21710676
131	0xbd04dbd7	-0.032436218
132	0xbe549460	-0.20759726
133	0x3c3aa36f	0.011391505
134	0xbd7663e5	-0.06015386
135	0xbe69604c	-0.2279064
136	0x3d0dd65a	0.03462825
137	0xbc8df043	-0.01732648
138	0xbd48e835	-0.049049575
139	0x3dd7b784	0.1053305
140	0x3dc58bfa	0.09645839
141	0xbe7a6ebe	-0.24456307
142	0x3de6a92f	0.11262738
143	0xbe1f5061	-0.15558006
144	0xbe2b41c9	-0.16724314
145	0xbe7fb20d	-0.24970265
146	0x3ce2b56d	0.027674401
147	0xbcb8d2a5	-0.02256138
148	0xbd839a81	-0.06425954
149	0xbe737d41	-0.2377825
150	0xbe329ea9	-0.17443337
151	0xbcaeffe1	-0.021362247
152	0xbd1847a9	-0.037177715
153	0xbd8efc2c	-0.06981692
154	0xbd7e7620	-0.06212437
155	0x3e81e100	0.25366974
156	0x3c9da29d	0.01924258
157	0xbe67d55f	-0.22639988
158	0x3e979e34	0.29612887
159	0x3e730123	0.23730902
160	0xbe28e89c	-0.16494983
161	0xbda16740	-0.078810215
162	0x3e30cd55	0.17265828
163	0x3e54cebc	0.20781988
164	0xbd20f4f2	-0.039296098
165	0xbcf04552	-0.02932993
166	0xbc48fa9a	-0.012266779
167	0x3daf6fe6	0.08566265
168	0xbe41a59a	-0.18910828
169	0x3c3718c8	0.011175342
170	0x3e5ca014	0.2154544
171	0x3e315569	0.17317738
172	0x3e29ab15	0.16569169
173	0x3dd44de3	0.10366418
174	0x3d09c3d4	0.033634022
175	0xbc4c3e17	-0.012465975
176	0xbccdf67d	-0.025141949
177	0x3c71a199	0.014748001
178	0xbd17511b	-0.036942583
179	0x3d61155b	0.054952007
180	0xba0fadc9	-0.0005480913
181	0xbb903aff	-0.004401564
182	0xbe21a2b8	-0.15784729
183	0xbc8b33a3	-0.016992396
184	0xbe8cba9d	-0.27486125
185	0x3e32874b	0.17434423
186	0xbe681f35	-0.22668155
187	0xbe04d759	-0.12972774
188	0x3e6c0a49	0.23050798
189	0xbd9fb3cf	-0.07797968
190	0xbe836fc8	-0.2567122
191	0x3de32c79	0.11092467
192	0xbdb4daec	-0.088308185
193	0xbe3090ba	-0.17242709
194	0x3e42b6d1	0.19015051
195	0xbe07a542	-0.13246635
196	0xbeb893f1	-0.3605037
197	0xbf0f9d1a	-0.5609909
198	0xbe1bc902	-0.15213397
199	0xbe705ae4	-0.23472172
200	0xbe9d485f	-0.30719277
201	0xbf6e1817	-0.9300551
202	0x3e2733f7	0.16328417
203	0x3f887809	1.0661632
204	0xbe62f8d4	-0.22165233
205	0xbec863fb	-0.3913878
206	0xbaa412e9	-0.0012517843
207	0x3eb0c90e	0.34528393
208	0xbe804cbf	-0.25058553
209	0x3ea4929a	0.32143098
210	0x3f8ad6d5	1.0846812
211	0x3d830d12	0.06398977
212	0x3ec4a2cd	0.38405457
213	0xbd8fa33f	-0.070135586
214	0x3f4982fd	0.787155
215	0x3c9512e6	0.018197488
216	0xbded789c	-0.1159527
217	0x3e6bcd47	0.23027526
218	0xbe67ff37	-0.2265595
219	0xbe838a57	-0.25691482
220	0x3e1c283a	0.1524972
221	0xbec60d40	-0.38681984
222	0xbda6f069	-0.08151323
223	0xbf890a82	-1.0706332
224	0xbf84d963	-1.0378841
225	0x3e255121	0.1614423
226	0x3ef38130	0.475595
227	0x3eaa7b6d	0.3329729
228	0x3ea29911	0.31757405
229	0xbe07eae2	-0.13273194
230	0xbeba7ba3	-0.36422452
231	0xbe726047	-0.2366954
232	0x3eca6ed9	0.39537695
233	0x3e2db76e	0.16964504
234	0xbf165275	-0.5871957
235	0xbe2159d6	-0.15756926
236	0x3f375d41	0.7162667
237	0xbbd3b20d	-0.0064604343
238	0xbebb2be8	-0.36556935
239	0xbde2a5d1	-0.11066783
240	0xbd1abad0	-0.037775815
241	0xbeab715c	-0.33484924
242	0x3eac3743	0.3363591
243	0xbcc4e9ee	-0.024037328
244	0xbea34409	-0.31887844
245	0x3dbd45d7	0.092418365
246	0x3f403f94	0.7509701
247	0xbd266ce2	-0.040631182
248	0xbea82466	-0.3284027
249	0xbe912c3f	-0.2835407
250	0xbe471337	-0.19440924
251	0x3e821c24	0.25412095
252	0x3ce0f3aa	0.027459938
253	0x3d37a53c	0.044835314
254	0xbd9d0a12	-0.076679364
255	0xbe3581ea	-0.1772534

hiden_layers.0.bias f4 [64]
0	0xbdf06406	-0.11737828
1	0x3e90f681	0.28313068
2	0xbdc52ade	-0.09627317
3	0x3b889cff	0.004169106
4	0x3d7702ee	0.06030553
5	0x3ce20acb	0.027593037
6	0x3dbca81a	0.0921175
7	0xbd54f613	-0.051992487
8	0xbcafe518	-0.021471545
9	0xbcaf4d18	-0.021399066
10	0xbe809e45	-0.2512075
11	0x3d5c0da9	0.053723965
12	0x3dc8e679	0.09809584
13	0xbd446310	-0.047946036
14	0x3cd8e119	0.026474522
15	0x3d31960e	0.043355994
16	0xbdb59bf2	-0.08867635
17	0xbd406bbf	-0.046977755
18	0x3d857cf8	0.065179765
19	0xbe446c5d	-0.19181962
20	0xbe2629d5	-0.16226895
21	0x3dee3008	0.11630255
22	0x3ab48e34	0.001377529
23	0xbd9740da	-0.07385416
24	0x3d4c82e8	0.04992953
25	0x3e04d38d	0.12971325
26	0xbe3aa1c1	-0.18225767
27	0xbd8eaf53	-0.06967034
28	0x3daed36d	0.0853642
29	0x3d757cf1	0.059933607
30	0x3d4c4e03	0.049879085
31	0x3d8ee213	0.06976714
32	0x3d9083f8	0.07056421
33	0xbd97bc64	-0.074089795
34	0xbe2c2dad	-0.16814299
35	0xbc8b989f	-0.017040549
36	0xbd3d8acc	-0.046274945
37	0x3d8cc6c9	0.06873853
38	0xbe3583c4	-0.17726046
39	0xbe01abde	-0.12663218
40	0xbe77dc2b	-0.24205081
41	0xbe0c3bad	-0.1369464
42	0x3dc864c1	0.09784842
43	0xbdb0077c	-0.085951775
44	0xbc9c8969	-0.019108491
45	0x3e22e591	0.15907885
46	0xbdd2029b	-0.10254403
47	0xbe933f2a	-0.28759128
48	0x3e1d75f6	0.1537703
49	0xbd6bb7c1	-0.05754829
50	0x3e23b645	0.15987499
51	0x3d97a449	0.07404382
52	0x3d556ca9	0.05210558
53	0xbc9cec97	-0.019155784
54	0x3dbc46e7	0.09193211
55	0x3e2e6391	0.17030169
56	0xbd9f8262	-0.077885404
57	0xbc819492	-0.015817914
58	0xbe49d276	-0.1970919
59	0xbdf0755a	-0.11741133
60	0xbe8d31ae	-0.27576965
61	0x3e078615	0.13234742
62	0xbd020ca0	-0.03175032
63	0xbcf0ab84	-0.02937866

hiden_layers.1.weight f4 [64, 64]
0	0xbdb02097	-0.08599966
1	0x3d922bc3	0.07137253
2	0xbe8ea997	-0.27863762
3	0x3df58b69	0.11989481
4	0xbe9a3d59	-0.3012493
5	0x3e58f18b	0.21185891
6	0xbd9a809e	-0.07544063
7	0xbe50036e	-0.20313808
8	0x3c7258f0	0.014791712
9	0x3dc0d97e	0.09416483
10	0xbd29192e	-0.04128378
11	0xbe0b4917	-0.136021
12	0x3d981e18	0.07427615
13	0xb93b070d	-0.00017836336
14	0xbd80415b	-0.062624656
15	0xbdafaddb	-0.08578082
16	0xbd856709	-0.06513793
17	0x3e4c4531	0.1994827
18	0x3d23be7d	0.039976586
19	0x3db97a4b	0.09056529
20	0x3e8963de	0.26834005
21	0xbd978326	-0.073980615
22	0x3dc8bfd0	0.0980221
23	0xbdc62001	-0.09674073
24	0xbdce4d0a	-0.10073288
25	0xbe8ebdd3	-0.278792
26	0xbd7b997b	-0.061425667
27	0x3e68d337	0.22736822
28	0xbcc62a75	-0.024190167
29	0xbdbb3852	-0.091416016
30	0xbdbc6fe6	-0.092010304
31	0x3d8dee8c	0.06930265
32	0xbe8a7a24	-0.2704631
33	0x3e67af52	0.22625473
34	0xbe32bd0d	-0.1745493
35	0xbe309ac8	-0.17246544
36	0xbdaa9454	-0.083290726
37	0x3deb00d8	0.1147477
38	0xbd38a800	-0.045082092
39	0x3d239106	0.039933227
40	0x3d927a01	0.07152177
41	0x3e535e5e	0.20641467
42	0xbe2d4ee8	-0.16924632
43	0x3e65f16d	0.22455378
44	0x3e8dc5b4	0.27689898
45	0x3e41f8e9	0.18942608
46	0x3e569811	0.20956446
47	0xbe704157	-0.23462425
48	0x3d206614	0.03915985
49	0xbe4c4416	-0.19947848
50	0xbb04f130	-0.002028536
51	0x3e026e74	0.12737447
52	0xbdfb9f90	-0.122862935
53	0x3c83be7c	0.016082041
54	0xbc535a4b	-0.0128999455
55	0xbe0bafa0	-0.13641214
56	0x3e219309	0.15778746
57	0xbe2dec78	-0.16984737
58	0xbe507644	-0.20357615
59	0x3dd5efd5	0.10446135
60	0x3de66bf5	0.1125106
61	0xbd36a112	-0.044587202
62	0x3ce0cda5	0.027441809
63	0xbe4daf4a	-0.20086399
64	0x3d8de105	0.06927685
65	0xbdc3a08c	-0.09552106
66	0xbe053754	-0.13009387
67	0x3d0a1aa3	0.03371681
68	0xbe0a06cc	-0.13479155
69	0x3d7ad749	0.06124047
70	0xbdec6d7a	-0.115443185
71	0xbd0182e9	-0.031618986
72	0x3e0afb56	0.1357244
73	0xbdc8cf03	-0.09805109
74	0xbd4ca83c	-0.04996513
75	0x3d782d4b	0.06059007
76	0x3d385e61	0.04501188
77	0xbd169894	-0.036766604
78	0x3dbff8f5	0.09373657
79	0x3d96ee84	0.07369712
80	0x3dedd6c3	0.11613228
81	0xbe1b10a3	-0.15143065
82	0x3dd7cae4	0.10536745
83	0xbe1b5a48	-0.15171158
84	0x3d20efbf	0.03929114
85	0x3dc1eacc	0.09468612
86	0xbe7f3d44	-0.24925715
87	0x3de0e62c	0.10981402
88	0xbd12448b	-0.0357099
89	0x3e4d29f2	0.20035532
90	0x3de2cc33	0.11074104
91	0xbd9c5d86	-0.07635026
92	0xbd666373	-0.056247186
93	0x3c12b690	0.008954659
94	0xbdbeb819	-0.093124576
95	0x3e50dc6f	0.20396589
96	0x3e6eaf8a	0.2330915
97	0x3e24b149	0.16083254
98	0xbdd0483c	-0.101700276
99	0xbe1ec964	-0.15506512
100	0xbe525952	-0.20541885
101	0xbce003f4	-0.027345635
102	0xbe5deff7	-0.2167357
103	0xbea39860	-0.3195219
104	0xbebc9cb2	-0.368383
105	0xbe8b5415	-0.27212587
106	0x3cd9ec78	0.026602015
107	0xbe37b777	-0.1794108
108	0x3db0a8af	0.08625924
109	0x3dfff2be	0.12497471
110	0xbd51b5ff	-0.051198956
111	0xbf11c780	-0.5694504
112	0x3da9b4b0	0.082864165
113	0x3e0e2d2e	0.13884422
114	0xbe807ece	-0.25096744
115	0xbdb389a0	-0.08766484
116	0x3d8a89e5	0.067645825
117	0xbc1aaf8a	-0.009441266
118	0x3e46d827	0.19418393
119	0xbd6ecdf2	-0.058301874
120	0x3cb08f54	0.02155272
121	0x3d32963c	0.043600306
122	0x3cc26128	0.023727968
123	0xbd03e6d3	-0.032202553
124	0x3d887c28	0.06664306
125	0x3c7d18ac	0.015447777
126	0x3d9a67ac	0.07539305
127	0x3edecaec	0.43514192
128	0x3dbe6b9e	0.0929787
129	0x3e184fa0	0.14874125
130	0x3daf6f13	0.085661076
131	0x3daba11c	0.083803385
132	0x3e219327	0.1577879
133	0x3e2515ad	0.1612155
134	0xbe0faa44	-0.14029795
135	0x3e524ed1	0.20537879
136	0x3e445393	0.19172506
137	0xbdca22d9	-0.09869928
138	0xbe83ff69	-0.257808
139	0x3c3c559e	0.011495022
140	0x3d322a96	0.043497644
141	0x3da185b8	0.07886833
142	0x3e6e8232	0.23291853
143	0xbc31fb7d	-0.010863182
144	0xbd5bbeaf	-0.053648647
145	0xbe05ef08	-0.13079464
146	0x3dfc9dac	0.12334761
147	0xbd7f8d67	-0.06239071
148	0xbbb42490	-0.0054975227
149	0xbe9aa36f	-0.30202815
150	0xbe3633e0	-0.17793226
151	0xbe3618c6	-0.17782888
152	0xb7037f5b	-7.837861e-06
153	0x3e1f8674	0.15578634
154	0xbdf7579d	-0.12077258
155	0xbd26b26b	-0.040697496
156	0x3e329119	0.17438163
157	0x3de0c961	0.1097591
158	0x3e534ac8	0.20633996
159	0x3e932586	0.28739566
160	0x3e41520b	0.18878953
161	0xbe219716	-0.15780291
162	0xbd26b606	-0.040700935
163	0xbe06ffac	-0.13183469
164	0xbc72e071	-0.014824019
165	0xbe5ee161	-0.21765663
166	0xbd9b1f6f	-0.07574355
167	0xbd42a6d3	-0.047522377
168	0xbe6ce055	-0.23132451
169	0xbe425e17	-0.18981205
170	0xbe04634e	-0.12928507
171	0xbe3f73e8	-0.18696558
172	0x3c814584	0.015780218
173	0x3d9d2d90	0.07674706
174	0xbde3d9e9	-0.111255474
175	0x3ce5d1ef	0.028054206
176	0xbd8aae31	-0.067715056
177	0x3cf5be0f	0.029997854
178	0x3d23a9d6	0.03995689
179	0xbe934113	-0.28760585
180	0x3d875138	0.06607288
181	0xbe3b4e36	-0.18291554
182	0x3dedbc19	0.116081424
183	0xbcab0117	-0.020874543
184	0xbdb1b83f	-0.0867772
185	0x3e5bcc7e	0.21464726
186	0xbcdc39a7	-0.02688296
187	0x3ccec5dc	0.025240831
188	0x3ce253f2	0.027627919
189	0x3e692a46	0.22770032
190	0x3c2d119f	0.010563283
191	0x3d5f294b	0.05448274
192	0x3e6cf5d3	0.2314065
193	0x3bae50f8	0.005319711
194	0xbe195456	-0.14973578
195	0x3dbb0264	0.09131315
196	0x3ed480cb	0.4150451
197	0xbe5a38c1	-0.21310712
198	0xbde837e4	-0.11338785
199	0xbdb5b74c	-0.08872852
200	0xbd73ca47	-0.05951908
201	0xbdb55413	-0.088539265
202	0xbe10711a	-0.14105645
203	0x3ea53d0a	0.32273132
204	0x3e8bf55a	0.27335626
205	0x3e6600f5	0.22461303
206	0x3c3d9022	0.0115700085
207	0x3e01de6c	0.12682503
208	0x3b5256f1	0.0032095278
209	0xbe791a20	-0.24326372
210	0x3da89eaf	0.082333915
211	0x3d65efdd	0.056136955
212	0xbd9bde46	-0.07610755
213	0xbe7c4fd0	-0.24639821
214	0xbb03ec94	-0.0020130025
215	0x3d993645	0.07481054
216	0x3e69ee39	0.22844781
217	0x3decd4d2	0.1156403
218	0xbd226d00	-0.03965473
219	0xbe347d19	-0.17625846
220	0x3e3c264f	0.18373989
221	0x3e9d46d7	0.3071811
222	0x3e9346b9	0.28764895
223	0x3e84e0c3	0.2595273
224	0x3e8ff6f0	0.28118086
225	0xbdfb6c6f	-0.122765414
226	0xbdfa4a55	-0.12221209
227	0x3dbf7c2b	0.09349855
228	0x3e1b8657	0.15187965
229	0x3c3f4943	0.011675182
230	0x3e40ab89	0.18815435
231	0x3e2fb575	0.17159064
232	0x3dedd803	0.116134666
233	0xbd28f643	-0.04125048
234	0x3e94ba7b	0.29048523
235	0x3cacd0c2	0.021095637
236	0xbe548ed0	-0.20757604
237	0xbdff4d8a	-0.12465961
238	0xbe888928	-0.26667142
239	0xbe3ea33f	-0.18616961
240	0x3c40b4ae	0.011761827
241	0x3e32773b	0.17428295
242	0xbca7d409	-0.020486848
243	0x3dd3d26d	0.1034287
244	0x3e37e860	0.17959738
245	0xbe23ac1b	-0.15983622
246	0xbe869492	-0.26285225
247	0x3cf4c896	0.029880803
248	0xbe5797c6	-0.2105399
249	0xbd8fbfae	-0.07018982
250	0x3e071ef9	0.13195409
251	0x3acddfbf	0.001570694
252	0xbe1a9465	-0.1509567
253	0x3e9cc072	0.30615574
254	0x3d8ce539	0.06879658
255	0xbe0a1d17	-0.1348766

hiden_layers.1.bias f4 [64]
0	0xbd0c629d	-0.034273732
1	0x3c8a8c0a	0.016912479
2	0x3bde3d49	0.006782208
3	0x3d8e17b6	0.06938116
4	0xbe0723f3	-0.13197307
5	0x3d387dd6	0.04504188
6	0xbda99d86	-0.08281998
7	0xbdf5f427	-0.12009459
8	0xbe025cb9	-0.12730683
9	0x3cebf545	0.028803477
10	0xbd0d90c5	-0.03456189
11	0xbd4f17c1	-0.050559763
12	0xbd476c11	-0.048687045
13	0x3d419e77	0.047270264
14	0x3cb7a169	0.022415834
15	0xbd5678f9	-0.052361462
16	0xbcef0d81	-0.029181244
17	0xbcec3636	-0.028834444
18	0x3d67b570	0.056569517
19	0x3b80e69a	0.00393374
20	0xbdd04c4c	-0.101708025
21	0x3d3a9d67	0.045560267
22	0xbc2ee565	-0.010674809
23	0x3d648cfb	0.055798512
24	0xbe04ad0c	-0.12956637
25	0xbd0dafea	-0.034591593
26	0x3c79f488	0.015256055
27	0x3dbbfe21	0.091793306
28	0xbcfb0da3	-0.030646151
29	0xbd691b2d	-0.056910682
30	0xbd3403d3	-0.04394896
31	0xbdc63ecd	-0.09679947
32	0xbd52b092	-0.05143792
33	0xbe406c6a	-0.18791357
34	0x3d596640	0.05307603
35	0x3dd6fff7	0.1049804
36	0xbe2166c4	-0.15761858
37	0xbe952aec	-0.2913431
38	0xbc0a0746	-0.008424586
39	0xbce1caac	-0.027562462
40	0x3da65514	0.08121696
41	0xbdade5d7	-0.08491104
42	0xbde36433	-0.11103096
43	0xbdbd9375	-0.09256641
44	0xbda332e5	-0.07968692
45	0xbdd56858	-0.104202926
46	0xbd9d1041	-0.07669116
47	0x3d25df0a	0.04049591
48	0x3da11844	0.078659564
49	0xbc5d9a25	-0.01352552
50	0x3b2162a0	0.0024625435
51	0x3d97320f	0.07382595
52	0xb9ad8286	-0.0003309438
53	0xbda3d0b8	-0.07998794
54	0x3d093006	0.033493064
55	0xbd94cc67	-0.07265549
56	0x3d25aca2	0.04044784
57	0xbd90aeb8	-0.07064575
58	0x3c93d421	0.018045487
59	0x3de2074e	0.110365495
60	0x3d9ae208	0.07562643
61	0xbdf9fd64	-0.122065336
62	0x3b6f1f57	0.0036487186
63	0xbc2465f2	-0.010034071

hiden_layers.2.weight f4 [64, 64]
0	0xbe4f021e	-0.20215651
1	0x3e457d52	0.19286087
2	0x3c74e344	0.0149467625
3	0x3bafee5d	0.0053689913
4	0xbe27fd81	-0.16405298
5	0xbd7c757d	-0.061635483
6	0xbc2bc823	-0.010484728
7	0xbe611b53	-0.2198308
8	0xbe2c740d	-0.16841145
9	0xbe185e75	-0.14879782
10	0xbe13ac2e	-0.1442115
11	0xbdf9d1a0	-0.12198186
12	0xbd1c923d	-0.0382254
13	0x3ebe78cd	0.3720154
14	0xbee7d77d	-0.45281592
15	0x3e3d0b31	0.184613
16	0x3e438997	0.19095455
17	0xbdfad127	-0.12246924
18	0x3e357452	0.17720154
19	0xbe5b4f63	-0.21417002
20	0x3d82007a	0.06347747
21	0x3d013b4a	0.031550683
22	0xbe965c44	-0.29367268
23	0x3e460ed8	0.193416
24	0x3e88dedf	0.26732537
25	0xbe16001a	-0.14648476
26	0xbe36c695	-0.1784919
27	0x3c88a695	0.016680995
28	0xbdd40da9	-0.10354168
29	0x3c5e96e0	0.013585776
30	0x3de686a0	0.112561464
31	0x3b92329c	0.0044615995
32	0xbe87f037	-0.26550457
33	0x3dca63df	0.0988233
34	0xbe32478b	-0.17410104
35	0xbe417e7f	-0.1889591
36	0x3ec52a26	0.3850872
37	0xbe2db228	-0.16962492
38	0x3e1be85f	0.15225361
39	0xbd983520	-0.07432008
40	0xbbb88dd7	-0.005632143
41	0xbdcb3039	-0.09921307
42	0xbd5895b3	-0.05287714
43	0x3e0c60c3	0.13708787
44	0x3e840f8e	0.25793117
45	0xbcb23d8e	-0.021757867
46	0xbcb5c350	-0.022187859
47	0x3d29e8c6	0.041481756
48	0x3e6e3811	0.23263575
49	0x3d23bf56	0.039977394
50	0xbdd2cbf5	-0.10292808
51	0xbeac1a0b	-0.3361362
52	0xbd46c51a	-0.048527814
53	0x3c44540f	0.011982932
54	0x3e621969	0.22080006
55	0x3ec6e041	0.38842967
56	0xbc66bf93	-0.014083761
57	0xbda2fd07	-0.079584174
58	0x3be41272	0.0069602067
59	0x3e3022eb	0.1720082
60	0xbe3c3851	-0.18380858
61	0x3e07f7c7	0.13278113
62	0x3e50e230	0.20398784
63	0x3ed2e331	0.41188958
64	0x3e74b408	0.23896801
65	0xbdab3354	-0.083593994
66	0x3c11dd68	0.008902885
67	0x3e02cfde	0.12774608
68	0x3e1c947a	0.15291014
69	0x3dfed3de	0.12442754
70	0x3d282b60	0.04105699
71	0x3ea84ee4	0.3287269
72	0x3e81e720	0.25371647
73	0x3e7e5246	0.24836072
74	0x3e516be4	0.20451313
75	0x3e4ebf61	0.20190193
76	0x3e8ebea2	0.27879816
77	0xbda8f3f7	-0.082496576
78	0xbc99fc4d	-0.018797064
79	0x3e0ac5be	0.13551995
80	0xbe262ef6	-0.16228852
81	0x3e56e204	0.20984656
82	0xbe07eba6	-0.13273486
83	0xbeda861e	-0.42680448
84	0xbc102d5b	-0.008799876
85	0xbdf423f7	-0.11920922
86	0xbd1b6ac5	-0.03794362
87	0xbe1b0d7b	-0.15141861
88	0x3dd36503	0.10322001
89	0x3d620cfc	0.055188164
90	0x3e54b5b5	0.2077244
91	0x3e579ae7	0.21055184
92	0xbe22dd84	-0.15904814
93	0x3dda2086	0.106507346
94	0xbb8ddfae	-0.004329643
95	0x3d6c7f43	0.057738554
96	0x3e129aef	0.14316915
97	0x3edbcde9	0.42930534
98	0xbe119f51	-0.1422093
99	0x3dafd8d7	0.08586281
100	0x3e45a6eb	0.19301955
101	0xbd25b21d	-0.040453065
102	0x3e95c14e	0.29249042
103	0xbf1eac98	-0.6198211
104	0xbe0818fa	-0.13290778
105	0xbc85b0a5	-0.016319582
106	0x3e0a0e3d	0.13481994
107	0x3e87b214	0.2650305
108	0x3d8d80a8	0.06909305
109	0xbd9982a0	-0.07495618
110	0xbd87216e	-0.06598173
111	0x3eea48d2	0.45758682
112	0xbd9dd806	-0.07707219
113	0x3e820dd1	0.25401166
114	0xbe2366c7	-0.15957175
115	0xbe56f0d2	-0.20990303
116	0xbed626b0	-0.4182639
117	0x3e660f64	0.22466809
118	0xbd6dd9ff	-0.058069225
119	0xbe374d6b	-0.17900626
120	0x3e5b5339	0.21418466
121	0xbe2333c6	-0.15937719
122	0xbe261b89	-0.16221441
123	0xbcd53c77	-0.026029808
124	0xbc81ce7b	-0.015845528
125	0x3ea2c076	0.3178746
126	0x3d032ee2	0.032027133
127	0xbe3c1d4f	-0.18370555
128	0x3ea7c8bb	0.32770333
129	0xbef5adcc	-0.4798416
130	0xbe82ba0a	-0.25532562
131	0xbdfbc0a7	-0.12292605
132	0x3e8777bd	0.2645854
133	0x3da75c81	0.081719406
134	0xbc35d56b	-0.011098246
135	0x3dc95ff8	0.09832758
136	0xbe350a41	-0.17679693
137	0x3ee9eb45	0.4568731
138	0xbd43fcc4	-0.047848478
139	0x3e5c91f1	0.21540047
140	0x3e321356	0.17390189
141	0x3e76d168	0.2410332
142	0xbe902d33	-0.28159484
143	0x3dc48a15	0.095966496
144	0x3e0bf001	0.13665773
145	0xbe8c8f2a	-0.27452976
146	0x3e176972	0.14786318
147	0xbed90a75	-0.4239079
148	0xbe9790d9	-0.29602697
149	0x3dadad3a	0.08480306
150	0x3e0a0d46	0.13481626
151	0xbdda7f2d	-0.10668788
152	0xbe359a56	-0.17734656
153	0xbe86a5a3	-0.26298246
154	0xbda2114b	-0.079134546
155	0xbeadfd77	-0.3398244
156	0x3db15033	0.08657875
157	0xbc26c246	-0.010178154
158	0x3d5f5903	0.054528248
159	0x3e5d42e9	0.21607555
160	0xbcaa6ff8	-0.020805344
161	0x3e9634cd	0.2933716
162	0x3d5b6039	0.053558562
163	0x3e1eec7d	0.155199
164	0x3ea516f7	0.32244083
165	0x3da227e6	0.07917766
166	0xbe2b22a6	-0.16712436
167	0x3e2152bf	0.15754221
168	0x3e891cc5	0.26779762
169	0xbd19b87b	-0.03752945
170	0xbd044169	-0.032288942
171	0xbe083817	-0.13302647
172	0x3eb8dfe0	0.36108303
173	0x3dda4047	0.10656791
174	0xbdfbfe5c	-0.123043746
175	0xbd93d616	-0.07218568
176	0x3ec2d2e7	0.3805153
177	0x3e891131	0.26770929
178	0xbebe5ebb	-0.3718165
179	0x3e51e1f7	0.20496355
180	0xbe538e18	-0.20659673
181	0x3e128109	0.14307036
182	0x3de16ebb	0.11007448
183	0xbb77a62b	-0.0037788253
184	0xbddbeb74	-0.107382685
185	0x3db00e75	0.085965075
186	0xbe978332	-0.29592282
187	0xbd44a0ba	-0.048004843
188	0xbd9563e5	-0.07294444
189	0x3e9d4721	0.3071833
190	0x3e3c84ca	0.1841003
191	0x3cc05e07	0.023482336
192	0xbd1d31b8	-0.038377494
193	0xbe33d115	-0.17560227
194	0xbdbbcce3	-0.091699384
195	0x3e905cdf	0.28195855
196	0xbe08cf22	-0.13360265
197	0xbda318b9	-0.079637
198	0xbb935d64	-0.004497217
199	0xbdfd06a0	-0.12354779
200	0x3d24d5c7	0.040242936
201	0x3e2e6b2f	0.17033075
202	0x3e28fe65	0.16503294
203	0xbe7429b1	-0.23844029
204	0x3e3e6bbd	0.18595786
205	0x3c74c621	0.014939816
206	0xbdade20c	-0.08490381
207	0x3da79f9f	0.08184742
208	0x3d1369d1	0.035989586
209	0xbe5d9eca	-0.21642604
210	0xbe0996b0	-0.13436389
211	0xbc19fdf1	-0.009398923
212	0xbe95477e	-0.29156107
213	0xbdc8f059	-0.09811468
214	0x3d06c6bc	0.03290437
215	0xbe018bf7	-0.12651049
216	0xbcb7349b	-0.022363951
217	0xbcfd9908	-0.03095676
218	0x3e490879	0.19632138
219	0x3e52d1db	0.20587866
220	0xbde0db2f	-0.10979306
221	0x3e4ecaac	0.201945
222	0x3cb436e9	0.02199884
223	0xbe1c0037	-0.15234457
224	0xbe379d1a	-0.17931023
225	0xbdac96e6	-0.08427219
226	0x3e5cdb08	0.21567929
227	0x3e1efe57	0.1552671
228	0xbdf49728	-0.11942893
229	0x3e384e6c	0.17998666
230	0x3d5d37e7	0.05400839
231	0xbe5793f2	-0.2105253
232	0x3e040c7a	0.12895384
233	0xbe7bf803	-0.24606328
234	0x3d9cbbcc	0.07653007
235	0x3d17007a	0.03686569
236	0xbc51a560	-0.012795776
237	0xbd92bd1e	-0.071649775
238	0xbdcd4c95	-0.100243725
239	0xbd2063b8	-0.0391576
240	0xbe2dc42c	-0.16969365
241	0x3da900ea	0.082521275
242	0x3e4ef004	0.20208746
243	0xbe584d22	-0.21123174
244	0xbe212c59	-0.15739574
245	0xbe1ec335	-0.15504153
246	0x3e15a16b	0.14612357
247	0xbcda2f6c	-0.02663394
248	0x3e79dc6f	0.24400495
249	0xbe002a25	-0.12516077
250	0xbdfbea90	-0.123005986
251	0x3dbf531f	0.09342026
252	0x3d0b97b6	0.03408023
253	0xbe340816	-0.1758121
254	0x3e86ae44	0.2630483
255	0xbcafc338	-0.021455392

hiden_layers.2.bias f4 [64]
0	0xbc9484f6	-0.018129807
1	0xbe505172	-0.20343569
2	0x3cbd2ed8	0.023093626
3	0xbd60dead	-0.05489986
4	0xbd803ac2	-0.06261207
5	0xbdfcbcb4	-0.1234068
6	0xbba7545c	-0.005106492
7	0xbceae79c	-0.028674893
8	0x3de110fe	0.10989569
9	0x3d41c1a5	0.047303814
10	0x3d486476	0.048923932
11	0xbcda1262	-0.026620094
12	0x3cb77b14	0.022397555
13	0x3d47d8a2	0.04879058
14	0x3b0bdd10	0.002134148
15	0x3e3995e0	0.18123579
16	0xbdcce9df	-0.10005545
17	0xbc53e47c	-0.012932893
18	0xbe9b3bbb	-0.30319008
19	0x3d1a7376	0.03770777
20	0xbe471b49	-0.19444002
21	0xbdab6df3	-0.083705805
22	0x3d21926c	0.03944628
23	0x3c8f9e0b	0.017531415
24	0x3d8b3d87	0.06798845
25	0xbdf2fc50	-0.11864531
26	0x3be207bb	0.006897894
27	0xbc89275e	-0.016742405
28	0xbd2047f0	-0.039131105
29	0x3ab021f7	0.0013437857
30	0x3ddf66bd	0.10908268
31	0x3d89cf0e	0.06728946
32	0x3b334674	0.0027355226
33	0xbd552149	-0.052033696
34	0xbd9fe042	-0.07806446
35	0x3d86bf61	0.065794714
36	0x3d1f6b8f	0.038920935
37	0x3d9f8218	0.07788485
38	0x3d7a8b05	0.061167736
39	0x3d6b9f4a	0.057524957
40	0x3d99556d	0.07486997
41	0xbc05832d	-0.0081489505
42	0xbd0725ea	-0.032995142
43	0x3d247374	0.040149167
44	0x3c9bf592	0.019037995
45	0x3d11662d	0.035497833
46	0xbd2f10b1	-0.042740528
47	0xbcfb3a30	-0.030667394
48	0x3b924c94	0.004464695
49	0x3e16a217	0.1471027
50	0x3da8ba77	0.0823869
51	0xbdc0feab	-0.09423574
52	0xbca85855	-0.020549932
53	0x3d6a75ac	0.057241127
54	0xbc5de78e	-0.0135439765
55	0xbc5a6a0d	-0.013330949
56	0x3cc4f93e	0.02404463
57	0xbe0350bf	-0.12823771
58	0xbd5816dc	-0.052756175
59	0xbd817e01	-0.063228615
60	0xbe5a52e3	-0.21320681
61	0x3bfa7340	0.0076431334
62	0xbd5cacb2	-0.053875633
63	0x3dcbf65e	0.099591

hiden_layers.3.weight f4 [64, 64]
0	0xbd957320	-0.07297349
1	0x3e2e4f99	0.17022552
2	0x3e1a3d72	0.15062502
3	0xbd1a2905	-0.037636776
4	0xbdefbfcc	-0.11706504
5	0x3e40d489	0.18831076
6	0xbdb5cd4a	-0.088770464
7	0xbe615c67	-0.22007905
8	0x3d76b529	0.06023136
9	0x3d6de3dc	0.05807863
10	0x3e2abb34	0.16672975
11	0xbd8cc031	-0.06872595
12	0x3e5985e6	0.21242484
13	0xbdb976db	-0.09055873
14	0x3e315a85	0.17319687
15	0xbe12b9b1	-0.14328648
16	0xbe1f069f	-0.1552987
17	0xbe400417	-0.1875156
18	0x3d7638b1	0.06011266
19	0xbde38c04	-0.1111069
20	0x3e74c11d	0.23901792
21	0xbe7ede9e	-0.24889609
22	0x3e63b909	0.22238554
23	0x3ea6a45d	0.32547274
24	0x3e24dfc1	0.1610098
25	0x3e152d29	0.14568008
26	0xbccb4715	-0.024814168
27	0x3cab4235	0.020905593
28	0x3e0a6fd6	0.13519225
29	0x3e0c8953	0.1372426
30	0xbd220618	-0.039556593
31	0x3e995ce8	0.29953694
32	0x3df612c1	0.12015296
33	0xbce5a630	-0.028033346
34	0xbe21cfa5	-0.15801866
35	0x3d900988	0.07033068
36	0x3d917045	0.07101492
37	0x3d647bee	0.05578225
38	0xbd18c531	-0.03729743
39	0xbcb9e85f	-0.022693811
40	0x3e03a727	0.12856732
41	0x3e0f9e26	0.14025173
42	0xbe371936	-0.17880711
43	0xbe2ad17c	-0.16681474
44	0x3e079ff4	0.13244611
45	0x3e61c8d3	0.22049265
46	0x3d4ad3fa	0.049518563
47	0xbd8d0cbc	-0.068871945
48	0x3e70c0ff	0.23511122
49	0xbe6faf92	-0.23406819
50	0xbe05639b	-0.13026278
51	0xbe4b8efc	-0.19878763
52	0x3e1be68b	0.15224664
53	0x3e4f81b0	0.20264316
54	0x3e04724e	0.12934229
55	0xbe086251	-0.13318755
56	0x3e1129d1	0.14176108
57	0x3def75d5	0.116923966
58	0xbe78185f	-0.24228047
59	0x3d59c59f	0.05316698
60	0xbd072420	-0.032993436
61	0x3e7261a7	0.23670064
62	0xbdbd1840	-0.09233141
63	0x3e84231f	0.25808045
64	0xbeb193e9	-0.3468316
65	0x3c613c01	0.013747216
66	0x3d65a454	0.05606492
67	0x3cd20d00	0.025640965
68	0xbd02ca0f	-0.03193098
69	0x3eb10be0	0.34579372
70	0xbea0ba93	-0.31392345
71	0x3bddc677	0.0067680436
72	0xbe8af7d5	-0.27142206
73	0xbdad9a06	-0.08476643
74	0x3e014bc3	0.12626557
75	0x3e10ef01	0.14153673
76	0x3e6f26af	0.233546
77	0xbdcfb923	-0.10142734
78	0x3c4c8a16	0.012484094
79	0x3ea4e024	0.32202256
80	0x3e5cb2a9	0.21552528
81	0xbe124e4f	-0.14287685
82	0x3ee2a64e	0.44267505
83	0x3e7411b3	0.23834877
84	0x3eab3b20	0.33443546
85	0xbdde5862	-0.108567014
86	0xbd481dc4	-0.04885651
87	0x3ed82f4a	0.4222358
88	0xbcee23cd	-0.029069806
89	0x3e33310a	0.17499176
90	0x3ee7129a	0.4513138
91	0xbe9fc0ae	-0.3120169
92	0x3e93fd45	0.28904167
93	0x3cf78232	0.03021345
94	0xbe8ebc16	-0.27877873
95	0x3e088e5c	0.13335556
96	0x3e96dd12	0.29465538
97	0xbd813573	-0.06309023
98	0x3e54b47a	0.20771971
99	0xbda14cb0	-0.07875955
100	0xbe239e49	-0.1597835
101	0xbe44f785	-0.19235046
102	0x3d0c8d6f	0.03431457
103	0x3da81356	0.08206813
104	0x3d711c7e	0.058865063
105	0xbd750abc	-0.05982469
106	0x3da43ba9	0.08019192
107	0x3e21fc4d	0.15818901
108	0x3c662a0a	0.014048109
109	0x3dd62ccd	0.10457764
110	0x3dd0e46f	0.1019982
111	0xbe173ea9	-0.14769997
112	0x3e7f633e	0.24940202
113	0xbd81b4ae	-0.0633329
114	0xbe23a4c0	-0.15980816
115	0x3dde66de	0.10859464
116	0x3e147156	0.14496359
117	0xbde51a84	-0.11186698
118	0xbe5db480	-0.21650887
119	0x3e6d1774	0.23153478
120	0x3e470353	0.19434862
121	0xbdce56e3	-0.10075166
122	0xbdcf5ea7	-0.101254754
123	0x3d29fa31	0.041498367
124	0x3dedfbe7	0.11620312
125	0x3d86635a	0.065619186
126	0xbc6eb12a	-0.014568606
127	0x3d28c158	0.041200012
128	0xbde2a9f0	-0.11067569
129	0x3e93635f	0.28786752
130	0xbdfc06b7	-0.12305968
131	0x3d767797	0.060172644
132	0xbdac8652	-0.08424057
133	0x3dfdd6ba	0.123944715
134	0x3ea6f7c7	0.32610914
135	0xbe24451f	-0.16041993
136	0x3e80f193	0.25184307
137	0x3e12d2bd	0.14338203
138	0x3ce98269	0.028504567
139	0xbd47f7d6	-0.04882034
140	0xbd381c6f	-0.04494899
141	0x3e1d25be	0.15346429
142	0x3e5c72f1	0.21528222
143	0x3db19b96	0.08672254
144	0x3deea370	0.11652267
145	0x3d365bd3	0.044521164
146	0xbe1d8833	-0.15383987
147	0xbd82fb2d	-0.06395564
148	0x3da75c2f	0.081718795
149	0xbda2da19	-0.07951755
150	0xbd483de0	-0.048887134
151	0x3e727313	0.2367671
152	0xbcff1549	-0.03113808
153	0x3de3565d	0.11100457
154	0xbe89cd0f	-0.2691426
155	0x3ec51831	0.3849502
156	0x3e8c5634	0.27409518
157	0xbe1e68fc	-0.15469736
158	0xbe0bfce6	-0.13670692
159	0xbdda2de2	-0.10653283
160	0xbe943f71	-0.28954652
161	0xba952af1	-0.0011380595
162	0x3ded729b	0.11594125
163	0x3cf3507c	0.029701464
164	0xbcb5769a	-0.02215128
165	0xbd348649	-0.044073377
166	0xbd3454c9	-0.04402617
167	0x3df06213	0.11737456
168	0x3e89f1cc	0.2694229
169	0xbe92143b	-0.2853106
170	0xbe4204c3	-0.18947129
171	0x3e5e6752	0.21719101
172	0x3d779a7b	0.06045006
173	0xbd199488	-0.037495166
174	0x3d3fbb91	0.046809737
175	0xbe773e04	-0.24144751
176	0xbdf95357	-0.12174099
177	0xbea61fc3	-0.32446107
178	0x3e593a0e	0.21213552
179	0x3d0ed8be	0.03487467
180	0xbd9e6056	-0.07733218
181	0xbdb09e8c	-0.086239904
182	0xbeaf5d16	-0.34250706
183	0xbed09bef	-0.40743968
184	0xbe9863b2	-0.2976356
185	0xbe7ff9ce	-0.24997637
186	0xbe2bfc74	-0.16795522
187	0x3e16feb4	0.14745599
188	0x3d9eacdc	0.07747814
189	0x3df7e74f	0.121046655
190	0x3c56c3be	0.013108192
191	0x3cc867ce	0.02446356
192	0x3e1c497b	0.15262406
193	0xbe3c09b8	-0.18363082
194	0x3e618d48	0.22026551
195	0xbe1be4ba	-0.15223971
196	0xbe6b3101	-0.22967912
197	0xbd8eb519	-0.069681354
198	0x3d95e686	0.073193595
199	0xbe0856bd	-0.13314338
200	0x3de7d058	0.11319035
201	0xbe0f2157	-0.13977562
202	0xbea2d312	-0.3180166
203	0xbe1d20bc	-0.15344518
204	0xbe4836df	-0.19552182
205	0xbe5f5810	-0.21810937
206	0xbe803bf6	-0.25045747
207	0xbda2cc41	-0.079491146
208	0xbe5de922	-0.21670964
209	0x3e86fd47	0.2636511
210	0x3e0983ec	0.1342923
211	0x3e0e5999	0.13901366
212	0x3d3ba92b	0.045815628
213	0xbdbc84e7	-0.092050366
214	0xbe0e07e8	-0.13870203
215	0x3cbb2eac	0.022849403
216	0x3e98f6ae	0.29875702
217	0xbbd40a17	-0.0064709294
218	0xbc85aa7a	-0.016316641
219	0x3e544dbf	0.20732783
220	0x3e7ac61a	0.24489632
221	0xbe912c61	-0.2835417
222	0x3dbfdd59	0.093683906
223	0x3d9b4921	0.075823076
224	0x3de140e8	0.10998708
225	0x3e1e9475	0.1548632
226	0x3da1582d	0.07878146
227	0xbcd84645	-0.026400695
228	0xbea829da	-0.3284443
229	0xbcb659fe	-0.022259708
230	0xbed6bc39	-0.41940477
231	0xbc28057f	-0.010255217
232	0x3e15a983	0.14615445
233	0xbe61e5b5	-0.22060283
234	0xbe7733b2	-0.24140814
235	0xbddd5696	-0.108075306
236	0x3e042150	0.12903333
237	0xbe3bf757	-0.18356071
238	0x3e8e2b96	0.27767628
239	0x3e3dc764	0.18533093
240	0xbe5e7749	-0.21725191
241	0x3dd7cb52	0.10536827
242	0xbcd0b557	-0.025477095
243	0xbdf5bbd3	-0.11998715
244	0x3e584d12	0.2112315
245	0x3e40a5ae	0.18813202
246	0x3df1d7b4	0.1180872
247	0x3e8752a3	0.26430234
248	0x3e2c96a4	0.1685434
249	0x3e35ebcf	0.17765735
250	0x3dd317e3	0.103072904
251	0xbe1ff08d	-0.15619107
252	0xbdfa265f	-0.1221435
253	0xbeccae15	-0.39976564
254	0xbe3bceda	-0.18340626
255	0x3d3872c3	0.04503132

hiden_layers.3.bias f4 [64]
0	0x3dae9d59	0.085261054
1	0x3a834467	0.0010014892
2	0x3d9a6485	0.07538704
3	0x3d0781b5	0.033082683
4	0x3c9e672a	0.019336302
5	0x3c17d20a	0.009266386
6	0x3da7a172	0.0818509
7	0xbc1a8389	-0.0094307745
8	0x3d24ebf1	0.040264074
9	0xbd225c1f	-0.039638635
10	0xbd95db8a	-0.073172644
11	0x3d9fba7e	0.077992424
12	0x3c385ca8	0.01125256
13	0xbdb8c208	-0.090213835
14	0x3dc4ca96	0.09608953
15	0xbd464095	-0.048401434
16	0xbbebcee4	-0.007196294
17	0xbd6d0f12	-0.0578757
18	0xbca3f875	-0.020015934
19	0x3ca4f56e	0.020136561
20	0xbca8ff7e	-0.02062964
21	0xbe0a82c5	-0.13526447
22	0xbde1c873	-0.11024561
23	0x3d1a161f	0.037618753
24	0x3b0474cd	0.002021122
25	0xbd0417e1	-0.032249335
26	0x3dd317b2	0.10307254
27	0x3ccc51f4	0.024941422
28	0xbdf1d941	-0.11809016
29	0xbcb9bc34	-0.02267275
30	0xbd1d5ce7	-0.038418677
31	0x3bf8911b	0.0075856573
32	0x3d06a161	0.032868747
33	0x3e863d35	0.26218572
34	0x3d9a26bd	0.0752692
35	0x3d6d31a2	0.05790866
36	0x3d95ba69	0.073109455
37	0xbe17e041	-0.1483164
38	0xbcf4489e	-0.029819783
39	0xbb03d9f7	-0.002011893
40	0xbe05cf24	-0.13067299
41	0xbcb18b09	-0.021672742
42	0x3a097cee	0.0005244751
43	0x3d4e63ab	0.05038802
44	0xbdce7719	-0.1008131
45	0xbba25218	-0.004953634
46	0x3e20a1a0	0.15686655
47	0xbe162fed	-0.1466672
48	0xbd2aff13	-0.041747164
49	0xbb9f1d35	-0.0048557767
50	0x3d4787bf	0.048713442
51	0xbe973782	-0.29534537
52	0xbd8d8ad1	-0.06911243
53	0x3da46ff6	0.08029167
54	0xbd7618e4	-0.06008233
55	0x3d0926a9	0.033484135
56	0x3dcb6193	0.0993072
57	0x3d9f97e7	0.07792645
58	0x3d32b0b4	0.04362555
59	0xbe1289dd	-0.14310403
60	0xbe027172	-0.12738588
61	0xbdfd8a1a	-0.123798564
62	0xbdbfa8cf	-0.093583696
63	0x3c21dbbb	0.009879048

hiden_layers.4.weight f4 [64, 64]
0	0xbe3c7f70	-0.18407989
1	0x3d64e423	0.05588163
2	0x3e11bb7e	0.14231679
3	0xbea64cb8	-0.32480407
4	0xbc3f30d0	-0.011669353
5	0xbda650d9	-0.08120889
6	0xbd8abaf8	-0.06773943
7	0x3e1a88a3	0.15091185
8	0xbe1f3811	-0.15548731
9	0xbd55718b	-0.052110236
10	0x3de2cdbb	0.11074396
11	0x3cfedd4c	0.031111382
12	0xbdcdbb91	-0.10045541
13	0xbdfa7fad	-0.122313835
14	0xbe34af1a	-0.17644921
15	0xbd78ed1a	-0.060772993
16	0x3d1d667b	0.03842781
17	0xbd065d29	-0.03280369
18	0x3db935ca	0.090434626
19	0x3e976f9f	0.29577348
20	0xbbd15cf9	-0.006389257
21	0x3c41fbf9	0.01183986
22	0xbeb58aa4	-0.35457337
23	0xbd9dd33c	-0.077063054
24	0xbcc8a574	-0.024492957
25	0xbe24bd13	-0.16087751
26	0x3e5ef44f	0.21772884
27	0x3e429e79	0.19005765
28	0xbe7811c0	-0.24225521
29	0xbe38ecfe	-0.18059155
30	0xbe0f671e	-0.1400418
31	0xbc7615a9	-0.015019813
32	0x3e22249f	0.15834282
33	0xbcd1aec4	-0.02559603
34	0x3e099241	0.13434698
35	0xbe2c1925	-0.16806467
36	0x3e6b948a	0.23005882
37	0xbe0dbba6	-0.13841113
38	0xbe250fe7	-0.16119348
39	0xbca0635a	-0.019578625
40	0xbdb3c3d7	-0.08777588
41	0x3c9daf23	0.01924855
42	0x3e2ba0bf	0.16760539
43	0x3d5ff469	0.054676447
44	0x3cd7ab2c	0.026326738
45	0x3e48d051	0.19610716
46	0x3e49e4a7	0.1971613
47	0xbe2418f0	-0.16025138
48	0xbdf20b10	-0.11818516
49	0xbdafbe75	-0.08581249
50	0x3e00b81f	0.12570237
51	0xbda4a30a	-0.0803891
52	0xbe840108	-0.25782037
53	0x3e88845a	0.26663476
54	0x3e9b50cb	0.30335078
55	0xbe1d060c	-0.15334338
56	0x3cf4f4aa	0.029901821
57	0xbdc07080	-0.09396458
58	0xbe872fc4	-0.2640363
59	0xbd20d66c	-0.03926699
60	0x3e6097ae	0.21932861
61	0xbeac3674	-0.33635294
62	0xbb9f1464	-0.0048547257
63	0xbd63da76	-0.055628262
64	0xbda6f629	-0.0815242
65	0xbe863add	-0.26216784
66	0xbe13aeac	-0.14422101
67	0x3bb41d2f	0.005496643
68	0x3d8b5398	0.068030536
69	0x3d5554a7	0.052082684
70	0xbe8218d5	-0.2540957
71	0xbd8202d0	-0.06348193
72	0xbe03037c	-0.12794298
73	0xbdca7041	-0.09884692
74	0xbd6eb273	-0.05827565
75	0x3e108bf6	0.14115891
76	0x3e5adf72	0.213743
77	0x3db657ed	0.08903489
78	0xbe8b69c6	-0.27229136
79	0x3e1101d8	0.1416086
80	0xbe54b468	-0.20771945
81	0xbd479e32	-0.04873485
82	0x3e7631c2	0.24042419
83	0xbc9250df	-0.017860828
84	0x3e67d115	0.22638352
85	0x3e19f39a	0.15034333
86	0x3e59c80c	0.21267718
87	0x3c9190af	0.017769186
88	0xbe8996d5	-0.26872888
89	0xbe5f8860	-0.21829367
90	0xbe10cc69	-0.14140476
91	0x3e3d6bf0	0.18498206
92	0x3d955ca9	0.07293064
93	0xbcea88cc	-0.028629683
94	0xbe2473a9	-0.16059746
95	0xbe0f8b09	-0.14017881
96	0x3e5409d6	0.20706877
97	0x3d8545fa	0.065074876
98	0x3e50fb35	0.20408328
99	0xbe0c1195	-0.13678582
100	0xbe83fc2a	-0.25778323
101	0x3e43b22e	0.19110939
102	0x3df4e3cf	0.119575135
103	0x3dafa902	0.085771576
104	0x3e74e6ed	0.23916216
105	0xbe29b7f9	-0.16574086
106	0x3d9203af	0.07129609
107	0x3ddb5dd2	0.10711254
108	0xbd955e3a	-0.07293363
109	0x3e3a9ff7	0.18225084
110	0x3d9ae203	0.075626396
111	0xbd0440a0	-0.032288194
112	0xbdae8444	-0.085213214
113	0x3e23b542	0.15987113
114	0xbe0c4ca4	-0.13701111
115	0xbd8c0517	-0.06836908
116	0x3e07e814	0.13272125
117	0xbdfe9c0a	-0.12432106
118	0x3e99d597	0.3004577
119	0x3bf21559	0.0073877987
120	0x3d0b8db8	0.0340707
121	0xbdae5440	-0.08512163
122	0x3ce5ba2f	0.02804288
123	0xbe11647d	-0.1419849
124	0x3ea021e9	0.3127587
125	0x3dd2afb2	0.102874175
126	0x3db20fce	0.08694421
127	0x3e1cbb99	0.15305938
128	0xbe00c74b	-0.12576024
129	0xbe17a751	-0.1480992
130	0xbe09d113	-0.13458662
131	0xbe5a5ee1	-0.21325256
132	0xbdcdd5ff	-0.10050582
133	0xbda89cd3	-0.08233037
134	0xb7b11b82	-2.1112854e-05
135	0x3e169811	0.14706446
136	0xbc8f27b2	-0.017474983
137	0xbe725fd1	-0.23669364
138	0x3e255950	0.16147351
139	0xbe535d24	-0.20640999
140	0xbdb51d22	-0.08843447
141	0x3e5d74ab	0.21626537
142	0x3e4f031a	0.20216027
143	0xbdcae1e9	-0.0990637
144	0x3d32f56c	0.043691084
145	0x3e315019	0.17315711
146	0xbe21c12f	-0.1579635
147	0x3d939718	0.07206553
148	0xbd798c18	-0.06092462
149	0xbe7030cd	-0.23456116
150	0xbdcb54ef	-0.09928309
151	0xbcad1cf6	-0.021131974
152	0xbddb1fdb	-0.10699435
153	0xbe8f84fe	-0.28031152
154	0x3d31bdb4	0.043393806
155	0x3ed035b8	0.40665984
156	0xbdb9954d	-0.0906168
157	0x3df36c45	0.11885885
158	0xbe1adb74	-0.15122777
159	0x3dacda25	0.08440045
160	0xbcbb14c5	-0.022837052
161	0xbd33060e	-0.043706946
162	0xbe2c1c62	-0.16807702
163	0x3e215ce4	0.15758091
164	0x3bf0815a	0.0073396387
165	0x3deddfdd	0.11614964
166	0xbe47dc95	-0.19517739
167	0x3e81ee5c	0.25377166
168	0x3e393113	0.18085127
169	0x3daa7d91	0.08324731
170	0xbea5f9d4	-0.32417166
171	0xbde6f6ed	-0.11277566
172	0xbc1d0b71	-0.009585247
173	0xbd3ca5a2	-0.046056397
174	0x3dbe4a93	0.09291568
175	0x3bca65f6	0.0061767055
176	0x3eaafb33	0.33394775
177	0x3d6f0a2c	0.05835931
178	0x3e9638a7	0.29340097
179	0xbe4c1bf2	-0.19932535
180	0xbddd2a01	-0.10799027
181	0x3e9b70f8	0.30359626
182	0x3d4fc7bc	0.05072759
183	0xbc2dfc4d	-0.010619235
184	0xbe0172d2	-0.12641457
185	0x3e874af4	0.26424372
186	0x3e4be9cb	0.19913404
187	0x3e87417c	0.26417148
188	0x3d84471f	0.06458878
189	0xbd1f6d58	-0.038922638
190	0x3d958916	0.07301538
191	0x3ea2a34c	0.3176521
192	0x3d2f6039	0.042816374
193	0xbde45a01	-0.111499794
194	0xbc842e54	-0.016135372
195	0x3dfd1f71	0.123595126
196	0x3e0cf6bf	0.13766001
197	0x3db55b82	0.08855344
198	0xbcd15151	-0.02555147
199	0xbe5526a4	-0.20815521
200	0x3d9fffa1	0.07812429
201	0x3e23e624	0.1600576
202	0x3e0144b6	0.12623867
203	0x3cee827d	0.029114956
204	0xbdd57fda	-0.104247764
205	0xbe2d7e1a	-0.16942635
206	0x3e8d93ed	0.2765192
207	0x3e61109b	0.2197899
208	0x3d9ce8bf	0.0766158
209	0x3e0ed392	0.13947895
210	0xbe7bd30f	-0.24592231
211	0xbeb23bdf	-0.34811303
212	0xbe72c508	-0.23707974
213	0xbbc0b0e2	-0.005880461
214	0x3e1d10a7	0.15338384
215	0x3d166271	0.036714975
216	0x3e55f935	0.20895846
217	0xbde0ebd3	-0.1098248
218	0x3d6aad55	0.05729421
219	0xbdfa0cb1	-0.12209452
220	0xbddd4040	-0.1080327
221	0x3ddb0594	0.10694423
222	0xbd12fb6c	-0.035884306
223	0xbe2e6985	-0.1703244
224	0xbda9464f	-0.082653634
225	0x3dabb130	0.08383405
226	0xbe38ba3d	-0.18039794
227	0xbceab8fb	-0.028652659
228	0x3e762776	0.2403849
229	0xbc895120	-0.016762316
230	0xbd6d992e	-0.05800741
231	0x3cccb313	0.024987733
232	0x3cb33786	0.021877062
233	0x3d029916	0.031884275
234	0xbe495282	-0.1966038
235	0x3e634b93	0.22196798
236	0x3d529c91	0.051418845
237	0xbe5e7689	-0.21724905
238	0xbdcfab78	-0.10140127
239	0xbe57d464	-0.21077114
240	0xbddfb068	-0.10922319
241	0x3eb8a563	0.3606368
242	0xbb69efad	-0.0035695836
243	0x3e044165	0.12915571
244	0x3cc3b99f	0.023892222
245	0x3d3dc9a6	0.046334885
246	0x3d905242	0.070469394
247	0x3e8622ad	0.2619833
248	0xbe706624	-0.23476464
249	0xb9e91146	-0.00044454093
250	0x3e3c8914	0.18411666
251	0x3dca6beb	0.09883865
252	0x3ddc5585	0.10758499
253	0x3d99d692	0.07511629
254	0x3e1c617e	0.15271565
255	0x3e82959e	0.25504774

hiden_layers.4.bias f4 [64]
0	0xbc30fa52	-0.0108018685
1	0xbdd22c0e	-0.10262309
2	0x3d2bd9f7	0.041955914
3	0xbbec8909	-0.0072184843
4	0xbd04851d	-0.03235351
5	0x3c26a2b5	0.010170628
6	0x3e306520	0.17226076
7	0x3ca0d18f	0.019631175
8	0xbdbfde58	-0.093685806
9	0x3dabcf68	0.08389169
10	0xbd2d4ff0	-0.042312562
11	0xbaa87fec	-0.0012855507
12	0x3d0eeeff	0.034895893
13	0x3d054788	0.03253892
14	0xbc27e3c9	-0.010247179
15	0x3dc57465	0.09641341
16	0xbc20f0c1	-0.009823025
17	0xbd2e7119	-0.042588327
18	0x3dde9783	0.10868742
19	0x3d826bd9	0.063682266
20	0xbd4a2c56	-0.04935869
21	0x3ceb5a68	0.028729632
22	0xbd881c83	-0.06646063
23	0xbc9f181c	-0.019420676
24	0xbc56b400	-0.013104439
25	0xbd0db486	-0.03459599
26	0xbdc1dc2b	-0.09465822
27	0x3cab8843	0.020938998
28	0x3cf45fb2	0.029830787
29	0x3ae75ac8	0.0017650956
30	0xbcf7709f	-0.03020507
31	0x3c7d5660	0.015462488
32	0x3c3ba9e9	0.011454084
33	0x3c072650	0.0082488805
34	0x3d8e98b3	0.06962719
35	0xbdb8fbb3	-0.09032383
36	0x3c2e19a7	0.010626233
37	0xbda725a8	-0.08161479
38	0x3c2a1067	0.010379887
39	0xbd9a8369	-0.07544596
40	0x3dfcc990	0.123431325
41	0x3da47f97	0.08032148
42	0x3c8f4ed8	0.01749365
43	0xbd5ab144	-0.05339171
44	0xbcfa775d	-0.030574495
45	0x3dc6646d	0.096871234
46	0xbc7ca79d	-0.0154208215
47	0x3d3bc8aa	0.045845665
48	0xbca216e4	-0.019786306
49	0x3c0a3a41	0.00843674
50	0x3d3dbd5d	0.04632317
51	0x3d1f54e8	0.038899332
52	0x3b600938	0.0034185182
53	0x3dabc57a	0.08387275
54	0xbd8454b4	-0.06461468
55	0xbd453412	-0.04814536
56	0x3cb1fb58	0.021726295
57	0x3c855cb9	0.016279565
58	0x3c286144	0.010277096
59	0xbd4ff1a5	-0.05076756
60	0x3dca32db	0.09872981
61	0xbc8fc8ac	-0.017551742
62	0x3b058d96	0.0020378581
63	0x3c9489e2	0.018132154
