results/6_model_3_case_2/epoch400/model_weights.pth (torch, 484214 bytes, 88 tensors)

init_layer.0.weight f4 [64, 3]
-0.3324515 -0.31976548 0.22781968 0.43481717 0.2131838 -0.05236196 -0.056303244 -0.2033671
-0.26754534 0.36511338 0.024490977 0.09448857 -0.11952091 0.2453183 0.30689162 -0.09622592
-0.17941974 0.3201839 0.41708815 -0.080144115 0.4437085 0.39070788 0.1759232 0.43084905
0.20430371 -0.24867977 0.12533182 -0.13575248 -0.04143124 0.30914703 -0.3296094 0.034474913
0.038419094 0.10237168 0.12566294 -0.31946868 -0.049774665 -0.027301619 -0.11792243 -0.10602153
0.04300163 0.3799236 0.2071398 -0.5228454 -0.021587137 0.16454522 -0.15255775 -0.29992568
-0.062387932 -0.02903934 0.36291873 0.2650477 0.2781152 -0.27173367 0.16262054 0.061683893
-0.26435408 -0.3497044 0.048029423 -0.32116565 0.123235404 -0.058649875 -0.18760127 0.18008725
0.059509188 -0.11153095 -0.046372868 -0.09548385 -0.2571842 -0.11776117 0.28022894 -0.0870146
-0.09091181 -0.0099334335 0.3618892 0.02868189 0.16710548 -0.18322605 -0.041057043 0.20539954
0.388435 -0.13737923 -0.15926619 0.1865811 0.11633675 0.094002455 -0.25141105 0.0023265895
-0.27467376 0.18301797 -0.4601948 -0.371717 -0.15790032 -0.1240976 0.05621895 0.3773779
-0.09913872 0.1124219 0.31471407 -0.28182414 0.20029692 -0.15419982 0.061869767 -0.059068356
-0.22103596 -0.03148198 -0.09228609 -0.30388466 0.08398604 -0.020304687 -0.44831318 -0.1703425
-0.044502646 -0.25008506 0.39041632 0.1314551 0.35304272 -0.16777246 0.20173505 0.29886967
0.11785422 -0.13854584 -0.35277542 0.09393311 0.15223964 -0.3687069 0.2312205 -0.062442053
0.3024185 -0.092347205 -0.037802827 0.25420076 0.11743587 -0.12397357 -0.29592842 -0.14345412
-0.037563864 0.2678772 0.0018007193 -0.15968789 0.13494025 0.1698131 0.15169165 0.11622083
0.29182085 0.37300092 -0.020874513 0.25933108 -0.26744205 0.26987422 0.13372363 -0.20988369
-0.29020366 -0.5365043 0.04362307 -0.15772706 0.29302946 -0.21447815 0.17192164 -0.10839135
-0.15550101 0.09942173 0.15423992 -0.12889291 -0.35936663 -0.024647113 -0.02046606 0.3423077
-0.095696524 0.04241 0.38317004 0.10652328 -0.10440841 -0.03261527 0.23972017 0.24354549
0.09931621 0.09364661 0.12199815 -0.29688814 -0.2558401 -0.23516195 -0.12684163 -0.30157825
0.063470624 -0.10302526 0.27613714 -0.13070925 -0.019210434 0.38043657 -0.043301538 0.31645474
00000000: 1537 aabe 4db8 a3be 9049 693e 5ba0 de3e
00000010: db4c 5a3e 7f79 56bd 3b9e 66bd 773f 50be
00000020: b4fb 88be 24f0 ba3e 4da1 c83c 3983 c13d
00000030: 61c7 f4bd b834 7b3e e620 9d3e 1812 c5bd
00000040: cfb9 37be 25ef a33e 948c d53e 9922 a4bd
00000050: c32d e33e dd0a c83e 3625 343e 3f98 dc3e
00000060: fe34 513e e9a5 7ebe fc56 003e b302 0bbe
00000070: ceb3 29bd 8548 9e3e 90c2 a8be 9135 0d3d
00000080: 575d 1d3d 3ea8 d13d c9ad 003e 6691 a3be
00000090: 85e0 4bbd a5a7 dfbc 5181 f1bd d121 d9bd
000000a0: 7a22 303d 5985 c23e 751c 543e 32d9 05bf
000000b0: 82d7 b0bc 8b7e 283e 1938 1cbe dc8f 99be
000000c0: 7d8a 7fbd e9e3 edbc 7cd0 b93e 55b4 873e
000000d0: 1e65 8e3e ad20 8bbe 0086 263e 40a8 7c3d
000000e0: 6b59 87be 750c b3be 80ba 443d d36f a4be
000000f0: d862 fc3d da3a 70bd 8c1a 40be cb68 383e
00000100: e8bf 733d 576a e4bd 7af1 3dbd 098d c3bd
00000110: a6ad 83be c52c f1bd 2b7a 8f3e b634 b2bd
00000120: f92f babd d7bf 22bc 8b49 b93e 48f6 ea3c
00000130: b31d 2b3e 9c9f 3bbe 6e2b 28bd 4254 523e
00000140: f4e0 c63e 24ad 0cbe ad16 23be 1e0f 3f3e
00000150: f641 ee3d 5c84 c03d f3b8 80be b279 183b
00000160: 0aa2 8cbe 1069 3b3e a79e ebbe b151 bebe
00000170: 9fb0 21be e226 febd d745 663d ad37 c13e
00000180: 3e09 cbbd 743d e63d 3422 a13e 414b 90be
00000190: a31a 4d3e 8fe6 1dbe 276b 7d3d a9f1 71bd
000001a0: 4057 62be 40f3 00bd 7d00 bdbd c596 9bbe
000001b0: df00 ac3d 0456 a6bc 4e89 e5be 446e 2ebe
000001c0: 6848 36bd 260b 80be a6e4 c73e 2a9c 063e
000001d0: 04c2 b43e 8bcc 2bbe a293 4e3e 7205 993e
000001e0: 8e5d f13d f6de 0dbe fb9e b4be 0160 c03d
000001f0: b5e4 1b3e 27c7 bcbe 11c5 6c3e 3dc3 7fbd
00000200: 99d6 9a3e 8820 bdbd 23d7 1abd 9a26 823e
00000210: 3882 f03d dbe5 fdbd ee83 97be a3e5 12be
00000220: 91dc 19bd 3327 893e 1d06 ec3a 3985 23be
00000230: c72d 0a3e 7ce3 2d3e 0e55 1b3e 3005 ee3d
00000240: 8b69 953e faf9 be3e 0701 abbc 0bc7 843e
00000250: 2aee 88be f42c 8a3e d9ee 083e c0eb 56be
00000260: 9395 94be 5958 09bf 1bae 323d 3483 21be
00000270: f507 963e 29a0 5bbe 3a0c 303e 49fc ddbd
00000280: a83b 1fbe 9f9d cb3d 12f1 1d3e 81fc 03be
00000290: e7fe b7be bee8 c9bc 70a8 a7bc f442 af3e
000002a0: 8afc c3bd 1cb6 2d3d dd2e c43e e128 da3d
000002b0: 14d4 d5bd 9797 05bd 3479 753e fd63 793e
000002c0: 4c66 cb3d cbc9 bf3d 2bda f93d b901 98be
000002d0: 79fd 82be 4bce 70be c6e2 01be 7768 9abe
000002e0: e3fc 813d e8fe d2bd d961 8d3e a5d8 05be
000002f0: 335f 9dbc 95c8 c23e f45c 31bd 5b06 a23e

init_layer.0.bias f4 [64]
0.36262718 -0.082590684 0.015307768 -0.28581125 0.014969533 0.049608327 0.16488306 0.23498504
-0.16961002 -0.20992759 0.31334057 0.23573573 0.1653999 0.43273172 -0.08678869 0.18257536
0.33025408 0.11384595 0.15857346 0.1340016 0.16717951 0.12575105 0.23079997 0.06795627
0.1760305 -0.1611852 0.124042846 -0.11310284 -0.41117343 0.248715 -0.008752557 -0.1300186
-0.10709097 0.18126287 0.16937155 0.26928633 -0.44064838 -0.16114883 -0.279649 -0.08740312
-0.35707572 -0.031035777 -0.24426624 -0.14007603 0.09895753 -0.0014213447 -0.20536214 0.04850933
-0.17441721 0.28495434 -0.24168515 -0.14362046 -0.14484486 -0.15371242 0.08456685 0.24939457
0.3118185 0.11578912 0.070401825 -0.14879179 0.05578341 -0.049818587 0.13042393 0.029764682
00000000: 45aa b93e 4e25 a9bd 6fcd 7a3c da55 92be
00000010: c642 753c 1a32 4b3d 1bd7 283e eb9f 703e
00000020: 40ae 2dbe 42f7 56be 2d6e a03e b564 713e
00000030: 975e 293e 038f dd3e 45be b1bd 09f5 3a3e
00000040: 1017 a93e 1128 e93d 1561 223e b737 093e
00000050: 1b31 2b3e e2c4 003e d456 6c3e a82c 8b3d
00000060: 5741 343e bc0d 25be 2d0a fe3d 76a2 e7bd
00000070: 5385 d2be 25af 7e3e e366 0fbc 9923 05be
00000080: 8352 dbbd f99c 393e bc6f 2d3e e6df 893e
00000090: aa9c e1be 3304 25be 272e 8fbe 6800 b3bd
000000a0: a1d2 b6be be3e febc ee20 7abe 1770 0fbe
000000b0: 3faa ca3d 6a4c baba 744a 52be b8b1 463d
000000c0: 6d9a 32be 89e5 913e 507c 77be 3e11 13be
000000d0: 3652 14be ca66 1dbe 6231 ad3d 4a61 7f3e
000000e0: ada6 9f3e d922 ed3d d52e 903d e05c 18be
000000f0: 257d 643d 930e 4cbd da8d 053e 10d5 f33c

hiden_layers.0.weight f4 [64, 64]
-0.41348612 0.16371399 0.1398527 0.2086537 -0.2426251 -0.037750322 0.046892937 -0.17131037
0.13653229 -0.08596367 -0.13590074 0.20338951 0.03055604 0.07384091 0.33006337 -0.041376617
-0.06654722 -0.045130305 0.086734414 -0.21666007 0.014195703 0.21734163 -0.002072824 -0.39183494
0.065054595 -0.03981765 -0.14985393 -0.20461641 -0.053789046 -0.021074448 -0.37946227 -0.12439284
-0.16026936 -0.16337396 0.21390611 0.000826323 0.08206241 0.02720903 0.34874743 -0.095788576
0.23534964 -0.06846017 0.18344994 -0.116513796 0.06896369 -0.13331646 0.07053367 -0.20848082
0.43011355 -0.1370216 -0.022002822 0.11513412 0.15082243 2.4292009e-05 0.3050313 0.17527846
-0.2075215 0.06384964 -0.0055959844 0.17654756 -0.034221925 -0.09986597 0.013799839 -0.14848284
0.048706345 -0.17912127 -0.12585405 0.034094524 -0.18731657 -0.092590705 0.12741518 -0.18426089
-0.16084716 -0.33200404 0.31573194 0.019433688 0.2684364 0.10413369 -0.042872276 0.22095525
0.04776347 0.26529258 0.062918596 0.087098375 0.07655683 -0.1737794 0.30500436 0.25881213
-0.030581387 -0.074248694 0.20806386 0.07312715 0.009237711 0.15573826 -0.0863415 -0.24562037
-0.086652815 0.18327378 0.32473534 0.35949254 0.13491488 -0.0075477622 -0.16138038 0.123700425
-0.13951792 0.022759536 -0.45075473 -0.13090357 0.17144178 -0.22258425 -0.0043968842 -0.23760815
-0.17108947 -0.08757842 -0.089258865 -0.09248531 -0.06633385 -0.23509881 0.21755305 0.0901236
-0.19014992 -0.13475515 -0.24808863 -0.23063089 0.29202592 0.23906589 0.16382043 -0.13580391
0.119717605 -0.07184264 0.14133503 0.0005675166 -0.15025273 0.03783201 -0.029539198 -0.15975942
0.05523282 -0.023130577 -0.012628874 0.10377748 0.10992593 -0.16499943 0.040442433 -0.16129096
-0.07082765 -0.22955899 0.033675022 -0.10161703 -0.037748117 -0.17565282 -0.16943364 0.052908372
0.048249017 -0.18979917 0.010015549 0.26633897 -0.07166803 -0.12902552 0.21118738 0.24807622
-0.15134779 -0.123820566 0.1479705 0.17959544 -0.122001514 -0.15759525 0.0073989313 0.09914917
-0.21774548 -0.1016067 0.22246078 0.27000943 0.15056798 0.07943766 0.032783784 0.0032871002
-0.021648346 0.056380756 -0.13478266 -0.0045679165 0.04675232 0.035220988 -0.16940498 0.08232605
-0.18762933 0.15287998 -0.1632103 -0.18696244 0.16506639 -0.20552643 -0.20994835 0.18450083
-0.02492603 -0.1594688 0.14375955 -0.28681573 -0.10321218 -0.09496974 -0.2585448 -0.30751723
-0.14644594 -0.3148202 0.14208509 0.18714106 -0.0987283 -0.4639949 0.17936654 0.032280143
-0.324057 0.3616226 0.39060766 0.1450048 0.35383618 0.08783985 -0.08259914 -0.21326467
-0.1182858 0.16329223 -0.27657044 -0.23825383 0.13768582 -0.25948453 -0.14768742 -0.1525791
-0.31600732 0.12621526 -0.015897429 0.0979621 0.33636877 -0.02839843 -0.24815539 -0.23055243
0.15198232 0.21066548 -0.10437578 0.039743032 0.23049782 -0.15862967 0.04087383 -0.0075113554
0.250833 -0.23066093 0.55725664 0.14158624 -0.19945672 0.03587106 0.3918628 -0.12807454
-0.503193 0.019109383 -0.12710175 0.45820385 -0.070892446 -0.0073600956 0.026660679 -0.33280236
00000000: 74b4 d3be a4a4 273e 8c35 0f3e 51a9 553e
00000010: b772 78be 15a0 1abd cf12 403d fc6b 2fbe
00000020: 1fcf 0b3e b80d b0bd 9029 0bbe 5745 503e
00000030: a950 fa3c e739 973d 11fe a83e 877a 29bd
00000040: e949 88bd 8eda 38bd d0a1 b13d 23dc 5dbe
00000050: 1895 683c ce8e 5e3e 37d8 07bb 979e c8be
00000060: 583b 853d d517 23bd 4f73 19be f786 51be
00000070: e751 5cbd 52a4 acbc e148 c2be acc1 febd
00000080: a71d 24be 814b 27be 340a 5b3e 999d 583a
00000090: 5610 a83d 79e5 de3c 068f b23e cd2c c4bd
000000a0: 7fff 703e d834 8cbd 4dda 3b3e c99e eebd
000000b0: d63c 8d3d 1c84 08be f573 903d ff7b 55be
000000c0: d837 dc3e 644f 0cbe 433f b4bc 70cb eb3d
000000d0: 3271 1a3e b1c6 cb37 102d 9c3e 327c 333e
000000e0: 8480 54be 9ac3 823d 855e b7bb e2c8 343e
000000f0: 4a2c 0cbd 8886 ccbd b818 623c e30b 18be
00000100: 4e80 473d 916b 37be e2df 00be b3a6 0b3d
00000110: eacf 3fbe 32a0 bdbd 2079 023e e3ae 3cbe
00000120: 1eb5 24be 6ffc a9be 9ea7 a13e 6633 9f3c
00000130: 7f70 893e 0b44 d53d d79a 2fbd 1842 623e
00000140: a1a3 433d 6ed4 873e 77db 803d a260 b23d
00000150: d4c9 9c3d 3af3 31be 8829 9c3e 0683 843e
00000160: d185 fabc b30f 98bd b10e 553e b0c3 953d
00000170: c559 173c da79 1f3e d0d3 b0bd e883 7bbe
00000180: 0877 b1bd 1fac 3b3e b643 a63e 680f b83e
00000190: 2027 0a3e 3853 f7bb e640 25be a656 fd3d
000001a0: c9dd 0ebe 3572 ba3c 53c9 e6be 960b 06be
000001b0: 6f8e 2f3e 20ed 63be bd13 90bb 8d4f 73be
000001c0: 1432 2fbe 515c b3bd 5acd b6bd f068 bdbd
000001d0: 0bda 87bd bebd 70be 3ac6 5e3e b992 b83d
000001e0: a9b6 42be 41fd 09be f20a 7ebe 812a 6cbe
000001f0: 6c84 953e b0cd 743e 8bc0 273e 2e10 0bbe
00000200: 812e f53d 3c22 93bd 21ba 103e 65c5 143a
00000210: dadb 19be bdf5 1a3d 30fc f1bc f997 23be
00000220: cf3b 623d 567c bdbc 56e9 4ebc 4a89 d43d
00000230: d920 e13d 9cf5 28be f7a6 253d 7529 25be
00000240: 160e 91bd 8311 6bbe d2ee 093d 971c d0bd
00000250: c59d 1abd 55de 33be 0380 2dbe 73b6 583d
00000260: c3a0 453d b75a 42be 4218 243c 955d 883e
00000270: b0c6 92bd 441f 04be 8141 583e b107 7e3e
00000280: eafa 1abe a395 fdbd 9485 173e dee7 373e
00000290: eedb f9bd a660 21be bc72 f23b b80e cb3d
000002a0: acf8 5ebe 2c17 d0bd c2cc 633e ad3e 8a3e
000002b0: 7e2e 1a3e 36b0 a23d 4a48 063d 646c 573b
000002c0: df57 b1bc 82ef 663d 7704 0abe 76ae 95bb
000002d0: 5c7f 3f3d e243 103d 8078 2dbe 8f9a a83d
000002e0: e721 40be 928c 1c3e 9a20 27be 1573 3fbe
000002f0: 2a07 293e 8575 52be b3fc 56be c9ed 3c3e
00000300: ac31 ccbc ca4b 23be b435 133e 83d9 92be
00000310: e860 d3bd 7f7f c2bd fc5f 84be e672 9dbe
00000320: edf5 15be 1d30 a1be c17e 113e e8a1 3f3e
00000330: 1032 cabd bd90 edbe ddab 373e 2f38 043d
00000340: cdea a5be 9926 b93e bafd c73e 237c 143e
00000350: 042a b53e 61e5 b33d bd29 a9bd 0e62 5abe
00000360: d33f f2bd 1436 273e a49a 8dbe d0f8 73be
00000370: 83fd 0c3e 28db 84be 5f3b 17be b23d 1cbe
00000380: b6cb a1be 933e 013e 533b 82bc 5aa0 c83d
00000390: 8738 ac3e d3a3 e8bc 721c 7ebe f015 6cbe
000003a0: 41a1 1b3e b1b8 573e f8c2 d5bd 97c9 223d
000003b0: 9f07 6c3e d16f 22be 516b 273d d121 f6bb
000003c0: 2f6d 803e 6132 6cbe 5fa8 0e3f fcfb 103e
000003d0: 623e 4cbe 88ed 123d 3ea2 c83e f925 03be
000003e0: 42d1 00bf 488b 9c3c f626 02be b299 ea3e
000003f0: 0f30 91bd f52c f1bb 7f67 da3c 1265 aabe

hiden_layers.0.bias f4 [64]
-0.062589176 0.16551644 -0.04672216 -0.11773982 0.054846767 0.08152865 0.26637247 -0.02792654
-0.0037813757 -0.12673534 -0.22973861 0.023027962 0.16905163 -0.05001616 0.08381839 0.18508378
-0.11136618 -0.04046994 0.08852227 -0.2237512 -0.17783312 0.12934433 0.015384687 -0.025469515
0.033225246 0.06427348 -0.12168885 -0.24495648 0.2049646 -0.06139853 0.1638793 0.0860118
0.044299148 -0.1165249 -0.13412829 0.08537222 -0.12555602 0.018947115 -0.22851343 -0.16853333
-0.2979985 -0.044322558 0.2469601 -0.15278248 0.102312945 0.18612032 -0.023116697 0.016801037
0.18065028 -0.11503397 -0.036944073 0.17674538 -0.097094275 -0.08060539 -0.0009597178 -0.004428235
-0.13271075 0.045933347 -0.22826786 -0.16412848 -0.04573441 0.098045245 -0.056799833 0.009046941
00000000: c12e 80bd 247d 293e bc5f 3fbd 9321 f1bd
00000010: 01a7 603d 7ef8 a63d f961 883e 33c6 e4bc
00000020: f5d0 77bb e9c6 01be 9940 6bbe 23a5 bc3c
00000030: df1b 2d3e bfdd 4cbd faa8 ab3d 9a86 3d3e
00000040: f413 e4bd cfc3 25bd 2a4b b53d 091f 65be
00000050: e319 36be d772 043e 0e10 7c3c 72a5 d0bc
00000060: 3217 083d d0a1 833d 0138 f9bd dfd5 7abe
00000070: 3de2 513e 067d 7bbd facf 273e f426 b03d
00000080: 0673 353d 9ba4 eebd ed58 09be a1d7 ae3d
00000090: c291 00be fb36 9b3c 6dff 69be 0094 2cbe
000000a0: 4293 98be 928b 35bd 1ce3 7c3e 0373 1cbe
000000b0: 7389 d13d 5396 3e3e 3a5f bdbc 54a2 893c
000000c0: 63fc 383e ee96 ebbd ab52 17bd befc 343e
000000d0: 5dd9 c6bd 7014 a5bd 9295 7bba ba1a 91bb
000000e0: 54e5 07be 9b24 3c3d 0dbf 69be 4c11 28be
000000f0: 0154 3bbd f2cb c83d f1a6 68bd 9f39 143c

hiden_layers.1.weight f4 [64, 64]
0.036249824 0.1632057 -0.19169246 0.4417314 -0.08546668 0.36477593 -0.17575166 0.1931399
-0.082957074 -0.012777954 0.009017846 -0.18754318 0.116708875 0.04434579 0.08928951 -0.025207188
0.06468996 0.26018178 0.09988666 0.23310421 0.2534591 -0.053368922 0.09266497 0.017218338
-0.09928597 -0.0873519 -0.111006975 0.17627439 0.0737634 -0.17823632 -0.62805444 0.24455051
0.026370496 0.1147615 -0.22648096 -0.1726873 -0.08825258 0.11167236 -0.14418833 0.24221781
0.15277235 0.16663101 -0.50162566 0.1031346 0.24730338 0.17866041 0.057113048 -0.52713656
0.039133877 -0.21629465 0.025451442 0.17479882 -0.1374129 0.051711746 0.11429309 -0.32302648
0.5311022 -0.055501565 -0.23763117 0.19122984 0.07744334 0.20217492 0.053950652 -0.011178618
-0.09739299 -0.0068293135 -0.09867321 0.07842463 -0.23749286 -0.07261548 -0.21543309 -0.07529726
0.16150978 -0.122468166 0.24058583 0.28795895 0.073541455 0.027492715 0.063809596 0.045666788
0.082865864 -0.109682575 0.11481154 0.027317297 0.060166165 0.13996129 -0.27183357 0.115993835
-0.057003297 0.22938794 0.055392448 -0.052679118 -0.05849423 0.08312823 -0.091249235 0.20176545
0.25296208 0.16302614 -0.13048543 -0.27315068 -0.1380522 0.033492662 -0.120857395 -0.2616384
-0.16671328 -0.29340544 0.05126401 -0.14802207 0.061370704 0.08862465 -0.011022255 -0.23490082
0.15338767 0.16788334 -0.19067085 -0.09112724 0.07366849 -0.0030104844 0.1767605 -0.017852638
0.010872212 0.072785 -0.072422855 0.13422129 0.098609716 -0.0050124777 0.045867153 0.17242722
0.007328238 0.24728239 0.0032753823 0.042929623 0.07182838 0.16198029 -0.16339897 -0.008654407
0.19878525 -0.13857608 -0.32649225 0.29361248 0.09489156 -0.13720086 0.21924306 0.1076194
-0.2719035 -0.072296165 0.26394695 0.04090616 0.065740086 -0.17185543 -0.22843018 -0.30986318
0.18811712 0.42240202 -0.20743966 -0.11426648 0.18162307 0.09897466 0.2205445 0.3750252
-0.013794592 -0.22982578 -0.27858007 -0.01689571 -0.05199749 -0.046498604 0.00072878046 -0.3032371
-0.26249808 -0.4099539 -0.18414591 -0.18855874 0.007744306 0.18266113 -0.02512073 0.17798795
-0.10576399 -0.03802338 0.10206457 -0.22521435 -0.0024025117 -0.25191176 0.14338535 0.11547108
-0.1192214 0.23765291 -0.078350976 -0.0116950795 0.045180347 0.17517886 -0.12090581 0.39500698
0.20116097 -0.041270137 -0.12966152 0.18629114 0.3470381 -0.1881792 -0.06013159 -0.13369632
-0.058987215 -0.12400086 -0.015977565 0.22109656 0.24445033 0.1807496 -0.0043261433 0.112341546
0.0419017 -0.19815238 0.056097068 0.093678735 -0.017447313 -0.2143113 0.016190317 0.061086226
0.08748937 0.1823877 -0.034528296 -0.080353454 0.16441992 0.22808541 0.196262 0.27140906
0.0954611 -0.05673796 -0.13375778 0.02925294 0.15621391 0.052825727 0.15781945 0.12879597
0.1528956 -0.04829873 0.24446557 0.06722676 -0.1843935 -0.10331295 -0.31534594 -0.12944637
0.0059812213 0.21167699 0.0094688255 0.066717185 0.16831128 -0.030956378 -0.24774289 0.0027492663
-0.18180145 -0.07410756 0.1844528 0.07169555 -0.18277189 0.22062759 0.04873859 -0.26082084
00000000: b27a 143d 651f 273e 074b 44be 9e2a e23e
00000010: 2809 afbd e9c3 ba3e 3ef8 33be 77c6 453e
00000020: 66e5 a9bd a05a 51bc 96bf 133c 520b 40be
00000030: 1005 ef3d eea3 353d 6bdd b63d 4e7f cebc
00000040: 2b7c 843d 8c36 853e 6191 cc3d dfb2 6e3e
00000050: 64c5 813e 5f99 5abd 22c7 bd3d 790d 8d3c
00000060: 7156 cbbd 8ee5 b2bd a057 e3bd 4681 343e
00000070: 4411 973d 9583 36be 2dc8 20bf 736b 7a3e
00000080: f006 d83c 1408 eb3d a0ea 67be f1d4 30be
00000090: c5bd b4bd 7ab4 e43d 1ba6 13be f207 783e
000000a0: 5b70 1c3e 52a1 2a3e 8a6a 00bf 3c38 d33d
000000b0: 193d 7d3e c1f2 363e 5fef 693d 6cf2 06bf
000000c0: d84a 203d 587c 5dbe 8b7f d03c 76fe 323e
000000d0: f8b5 0cbe b2cf 533d 7f12 ea3d ba63 a5be
000000e0: 50f6 073f 9c55 63bd 9655 73be c1d1 433e
000000f0: 9d9a 9e3d f106 4f3e 5cfb 5c3d 8626 37bc
00000100: fa75 c7bd 6fc8 dfbb 2e15 cabd 189d a03d
00000110: 5431 73be 6db7 94bd 7e9a 5cbe 7335 9abd
00000120: d262 253e 97d0 fabd 225c 763e 5b6f 933e
00000130: e79c 963d 6738 e13c 9bae 823d 190d 3b3d
00000140: 94b5 a93d 42a1 e0bd 5022 eb3d 86c8 df3c
00000150: cc70 763d 0352 0f3e c52d 8bbe 2d8e ed3d
00000160: 4a7c 69bd ace4 6a3e 31e3 623d 0fc6 57bd
00000170: a597 6fbd 223f aa3d e1e0 babd 9a9b 4e3e
00000180: 3f84 813e 53f0 263e f99d 05be 68da 8bbe
00000190: 8e5d 0dbe 9a2f 093d 1584 f7bd 78f5 85be
000001a0: e3b6 2abe 3d39 96be 36fa 513d 1993 17be
000001b0: d95f 7b3d d780 b53d b096 34bc d789 70be
000001c0: a811 1d3e 9ce9 2b3e 383f 43be eba0 babd
000001d0: 81df 963d 8c4b 45bb b400 353e b23f 92bc
000001e0: 5d21 323c 4d10 953d 6f52 94bd 4e71 093e
000001f0: e4f3 c93d b63f a4bb 32df 3b3d c390 303e
00000200: b721 f03b 9837 7d3e cca7 563b f9d6 2f3d
00000210: c21a 933d 29de 253e 0f52 27be 37cb 0dbc
00000220: 5c8e 4b3e e3e6 0dbe fe29 a7be 6054 963e
00000230: 8256 c23d 627e 0cbe 4181 603e 8f67 dc3d
00000240: f036 8bbe 0310 94bd 0e24 873e 388d 273d
00000250: bda2 863d dffa 2fbe 9ae9 69be 63a6 9ebe
00000260: c6a1 403e 1445 d83e 106b 54be 8b04 eabd
00000270: 66fb 393e 3ab3 ca3d 6bd6 613e 4e03 c03e
00000280: b602 62bc 7357 6bbe 0ca2 8ebe df68 8abc
00000290: 52fb 54bd 5275 3ebd a10b 3f3a e541 9bbe
000002a0: 2666 86be 7ae5 d1be bf90 3cbe 8b15 41be
000002b0: f3c3 fd3b 850b 3b3e fdc9 cdbc 7942 363e
000002c0: ca9a d8bd 67be 1bbd 3b07 d13d 979e 66be
000002d0: 7573 1dbb 94fa 80be 9cd3 123e 1a7c ec3d
000002e0: 592a f4bd 495b 733e 7a76 a0bd b89c 3fbc
000002f0: 070f 393d 1662 333e 779d f7bd 5b3e ca3e
00000300: 24fd 4d3e e00a 29bd fdc5 04be 1bc3 3e3e
00000310: faae b13e 0cb2 40be 8b4c 76bd b0e7 08be
00000320: 949c 71bd 2af4 fdbd 62e3 82bc 2367 623e
00000330: 3051 7a3e 6c16 393e 52c2 8dbb 5313 e63d
00000340: 1ea1 2b3d 75e8 4abe 0ac6 653d a3da bf3d
00000350: abed 8ebc 6c74 5bbe 8ea1 843c 8d35 7a3d
00000360: a02d b33d d7c3 3a3e 8b6d 0dbd 5a90 a4bd
00000370: b25d 283e 398f 693e e8f8 483e 21f6 8a3e
00000380: 1c81 c33d 1066 68bd cdf7 08be dda3 ef3c
00000390: 8af6 1f3e ca5f 583d 6c9b 213e 17e3 033e
000003a0: aa90 1c3e e4d4 45bd 2f55 7a3e 2fae 893d
000003b0: a6d1 3cbe bd95 d3bd 0675 a1be 978d 04be
000003c0: 1ffe c33b dac1 583e 2223 1b3c 05a3 883d
000003d0: cb59 2c3e 3b98 fdbc 50b0 7dbe 092d 343b
000003e0: 292a 3abe b4c5 97bd 32e1 3c3e 1ed5 923d
000003f0: 8e28 3bbe 33ec 613e 1ea2 473d 4f8a 85be

hiden_layers.1.bias f4 [64]
-0.031269472 0.020154096 0.08567484 0.039399218 -0.039180085 0.096035294 -0.024137104 -0.011773498
-0.031107333 0.038219493 -0.02874934 -0.0073754913 0.14894164 0.029173639 -0.12408095 -0.034439594
-0.09308158 -0.06260594 -0.023426823 -0.0757721 -0.02235846 0.1574441 0.031609952 0.07760916
-0.23193973 0.043896906 0.03494765 0.09079859 -0.08968017 -0.1413198 -0.05134855 -0.063658126
-0.054625437 0.03218342 -0.0017986341 -0.08844459 -0.098051816 -0.182919 -0.07388269 0.2681035
0.10078226 -0.09384161 -0.018115144 0.30039808 -0.04450177 0.23326004 -0.024103012 0.012788682
-0.013309372 -0.05434478 0.00797513 0.19689293 -0.0020110202 -0.028616186 0.035202377 -0.035115827
0.06703246 -0.023309836 0.037747562 0.15017615 0.07264951 -0.049158994 0.04630796 -0.114762045
00000000: 6b14 00bd 341a a53c 4a76 af3d 1361 213d
00000010: 4c7b 20bd 27ae c43d 2dbb c5bc a1e5 40bc
00000020: ced4 febc 0b8c 1c3d bc83 ebbc 1bae f1bb
00000030: 2884 183e 8efd ee3c 271e febd 8810 0dbd
00000040: 8ea1 bebd 8b37 80bd 9ce9 bfbc 672e 9bbd
00000050: 1729 b7bc 0739 213e 7079 013d 8df1 9e3d
00000060: 9c81 6dbe 3ecd 333d 4425 0f3d 9cf4 b93d
00000070: 3daa b7bd 23b6 10be db52 52bd 315f 82bd
00000080: ecbe 5fbd c3d2 033d 25c0 ebba 7022 b5bd
00000090: 64cf c8bd 1e4f 3bbe cf4f 97bd dd44 893e
000000a0: ee66 ce3d 0830 c0bd 3666 94bc c7cd 993e
000000b0: 7d47 36bd b8db 6e3e ae73 c5bc 9f87 513c
000000c0: 8d0f 5abc a298 5ebd 1faa 023c 4d9e 493e
000000d0: 52cb 03bb 7e6c eabc 5e30 103d 9dd5 0fbd
000000e0: 5048 893d 45f4 bebc 309d 1a3d c7c7 193e
000000f0: 44c9 943d f15a 49bd 6aad 3d3d 5d08 ebbd

hiden_layers.2.weight f4 [64, 64]
-0.16041885 0.18952528 0.09547646 -0.13569255 -0.029605465 -0.16557126 -0.13007966 -0.095388636
-0.2387236 -0.09160496 -0.14142425 -0.07275806 0.20550886 0.35906106 -0.16322394 0.11167476
0.29775932 -0.054828618 0.044913944 -0.23787096 0.019376991 0.16077179 -0.1251391 0.16433518
0.009041204 -0.14952165 -0.10764358 -0.005852946 -0.017114257 -0.008927371 0.15581231 -0.02468689
-0.22546157 0.10791707 -0.09927094 -0.049263004 0.3351394 0.047862943 0.23544621 0.22921653
-0.07048648 0.01368307 -0.047881346 0.1077481 0.15082902 -0.16304739 -0.010984176 0.15377429
0.124936946 -0.010174186 -0.058063924 -0.27120736 -0.116547525 0.12313116 0.14891808 0.09890957
-0.025672045 0.08922798 0.054731544 0.1250632 -0.21449322 0.2212175 0.13626634 0.3046005
0.2509582 0.012768442 0.05517207 0.043000285 0.19889785 0.13837744 0.21338096 0.22424462
0.1702546 0.29228032 0.27546248 0.22168918 0.027905593 -0.068679206 0.028901646 0.09553751
-0.19334559 0.06351399 -0.174426 -0.21055171 0.114779666 -0.15131679 0.023624036 -0.14955927
-0.022281041 0.033940427 0.34928206 0.16306883 -0.07404346 0.15514126 0.094849 -0.087901905
0.060403157 0.25653118 0.048797946 0.14792114 0.1475678 0.13630593 0.14265336 -0.30136964
-0.039643683 -0.10208592 0.09922318 0.34237227 0.098393135 -0.09699954 -0.10017002 0.17907073
-0.09890905 0.29267123 -0.09410544 -0.2948679 -0.2879994 0.30686155 -0.024818953 -0.18764894
0.27567 -0.053048145 -0.07581328 0.06962794 0.07755813 0.25873795 0.050421253 -0.16401027
0.15620561 -0.12334775 -0.08942079 -0.102282174 0.25415924 0.04046367 0.48088163 0.013774015
-0.19877967 0.21046564 0.11268223 0.2366699 -0.49227104 0.06758783 -0.35940045 0.19957697
-0.1567799 -0.27732605 0.122188106 -0.12328316 -0.08449927 0.060168725 0.1402689 0.12872973
-0.3249217 -0.043479037 -0.17807603 -0.07464513 0.13337292 -0.075877056 0.2923709 0.29399374
-0.11257051 -0.17753014 -0.07371596 0.6025382 0.15628251 -0.030569442 -0.43515393 0.420382
0.11882384 -0.22225566 -0.20970577 -0.4456713 0.20755377 -0.15523915 -0.14470902 -0.08818996
0.15337732 0.11165731 -0.16013232 0.29526642 -0.12933162 0.12760037 0.10154077 0.14194979
-0.26681083 0.08793532 -0.1609502 -0.15435657 0.26751432 -0.49325928 0.08728567 0.023658372
-0.07989297 -0.1305294 -0.10691976 0.1792484 -0.10676799 -0.10698814 0.33439744 -0.18257818
0.22046015 0.16459273 0.22680011 -0.26941413 0.034465633 0.080591135 0.07768529 0.14995748
0.029590689 -0.22655705 -0.046548057 0.06368031 0.0042672637 -0.05546976 0.10753579 -0.05990668
-0.54038584 0.019314775 0.107161835 0.04892782 -0.112002686 0.14086491 -0.05461059 -0.20002742
-0.2000793 -0.20203823 0.118039526 0.24018297 0.044940714 0.023211597 -0.033058938 -0.19762108
0.25411734 -0.36057332 0.086339794 0.13691731 0.13321286 -0.79727155 -0.034039713 -0.038030926
-0.120967895 0.13800311 0.21328016 -0.22606467 -0.17238888 -0.09830484 0.17987338 6.9814196e-05
-0.0026249348 0.18612733 -0.03700631 0.21075903 0.19467135 -0.22763358 0.32322118 -0.088117294
00000000: d744 24be ea12 423e 2a89 c33d fdf2 0abe
00000010: 2987 f2bc 838b 29be 9a33 05be 1e5b c3bd
00000020: f673 74be 629b bbbd 85d1 10be 2e02 95bd
00000030: ea70 523e dad6 b73e 2d24 27be bdb5 e43d
00000040: e973 983e f993 60bd aff7 373d 7294 73be
00000050: 7fbc 9e3c 5ca1 243e 7724 00be 7b47 283e
00000060: 8f21 143c 341c 19be 3d74 dcbd 12ca bfbb
00000070: 3333 8cbc 1c44 12bc 438d 1f3e 293c cabc
00000080: 66df 66be a003 dd3d 904e cbbd 01c8 49bd
00000090: 6497 ab3e ef0b 443d d018 713e bdb7 6a3e
000000a0: 375b 90bd f52e 603c 3b1f 44bd 09ab dc3d
000000b0: ec72 1a3e e5f5 26be f9f6 33bc 0277 1d3e
000000c0: f1de ff3d a1b1 26bc 70d4 6dbd b1db 8abe
000000d0: 78b0 eebd 312c fc3d fb7d 183e 1a91 ca3d
000000e0: 2e4e d2bc 29bd b63d 2f2e 603d 9110 003e
000000f0: 1ca4 5bbe d786 623e 6789 0b3e 99f4 9b3e
00000100: 987d 803e ba32 513c 1cfc 613d 1121 303d
00000110: e1ab 4b3e d1b2 0d3e 8a80 5a3e 62a0 653e
00000120: 3957 2e3e c4a5 953e 6b09 8d3e 7d02 633e
00000130: 459a e43c afa7 8cbd 25c3 ec3c 2ca9 c33d
00000140: 63fc 45be 9f13 823d bb9c 32be de9a 57be
00000150: 9a11 eb3d caf2 1abe 3287 c13c 1126 19be
00000160: bb86 b6bc 1e05 0b3d 19d5 b23e 84fb 263e
00000170: 19a4 97bd 5add 1e3e 3140 c23d ea05 b4bd
00000180: 4d69 773d 0e58 833e 5be0 473d a478 173e
00000190: 031c 173e c893 0b3e b913 123e 1f4d 9abe
000001a0: 6a61 22bd 6c12 d1bd 8635 cb3d 6b4b af3e
000001b0: 5782 c93d b2a7 c6bd f025 cdbd 515e 373e
000001c0: d490 cabd 01d9 953e 5aba c0bd edf8 96be
000001d0: a874 93be f51c 9d3e 1e51 cbbc 0b27 40be
000001e0: 9e24 8d3e 0349 59bd fe43 9bbd 1899 8e3d
000001f0: ccd6 9e3d 4d79 843e 8486 4e3d 4ff2 27be
00000200: 5df4 1f3e bf9d fcbd 3f22 b7bd 5179 d1bd
00000210: 2921 823e 3cbd 253d 1e36 f63e 68ac 613c
00000220: e68c 4bbe 4e84 573e f1c5 e63d 9859 723e
00000230: f30a fcbe 7d6b 8a3d 5603 b8be e85d 4c3e
00000240: e98a 20be aefd 8dbe c23d fa3d e27b fcbd
00000250: f40d adbd 7b73 763d a7a2 0f3e bad1 033e
00000260: 235c a6be 1317 32bd 9059 36be 8cdf 98bd
00000270: e992 083e 6e65 9bbd a3b1 953e 5986 963e
00000280: 5e8b e6bd 76ca 35be 65f8 96bd f23f 1a3f
00000290: 8608 203e c46c fabc 7fcc debe 4f3c d73e
000002a0: ea59 f33d fd96 63be 1cbd 56be 072f e4be
000002b0: fa88 543e 03f7 1ebe 9a2e 14be f09c b4bd
000002c0: f20e 1d3e 96ac e43d baf9 23be 292d 973e
000002d0: 826f 04be aca9 023e 9bf4 cf3d 495b 113e
000002e0: 6e9b 88be 6f17 b43d 21d0 24be a60f 1ebe
000002f0: a3f7 883e 7b8c fcbe d4c2 b23d 34cf c13c
00000300: ed9e a3bd 80a9 05be bff8 dabd e48c 373e
00000310: 2da9 dabd 991c dbbd 2436 ab3e c6f5 3abe
00000320: 4ec0 613e ff8a 283e 4a3e 683e a6f0 89be
00000330: d62b 0d3d f70c a53d 7719 9f3d 748e 193e
00000340: 2c68 f23c 92fe 67be 2da9 3ebd d36a 823d
00000350: 67d4 8b3b 4234 63bd b93b dc3d b560 75bd
00000360: ba56 0abf 053a 9e3c aa77 db3d 8a68 483d
00000370: aa61 e5bd e43e 103e 5baf 5fbd fdd3 4cbe
00000380: 97e1 4cbe 1ce3 4ebe b5be f13d 86f2 753e
00000390: c113 383d 3f26 be3c cf68 07bd 2e5d 4abe
000003a0: ab1b 823e 119d b8be ebd2 b03d 0d34 0c3e
000003b0: f468 083e fd19 4cbf 3a6d 0bbd 51c6 1bbd
000003c0: 04be f7bd b050 0d3e 1d66 5a3e 7f7d 67be
000003d0: b686 30be 0c54 c9bd ba30 383e 3669 9238
000003e0: 1907 2cbb 2a98 3e3e ee93 17bd 37d1 573e
000003f0: ed57 473e c718 69be 3f7d a53e d776 b4bd

hiden_layers.2.bias f4 [64]
0.035097197 0.0086752875 -0.13627356 -0.06441562 -0.016926752 -0.2656191 0.08976141 -0.07053477
0.02915482 -0.048333623 -0.036090147 0.0021152534 -0.040742986 -0.028448662 0.065780886 0.10320716
-0.0029910025 0.0014596935 0.009312146 -0.017751744 -0.05236448 -0.083028235 0.010474605 0.014696605
-0.001583743 -0.062018566 0.040613648 -0.012180039 -0.026119968 0.04846666 0.06828538 0.007839215
-0.03265487 -0.04033867 -0.07995803 -0.029631084 0.03680295 0.061177354 -0.026962396 0.04164212
-0.0131664835 -0.011583635 -0.069659926 -0.004680617 0.021349665 -0.042402346 0.015479808 -0.03359526
0.022271095 -0.20244932 0.06978617 -0.03342553 -0.101365544 0.04807346 -0.02057276 -0.027999382
0.05154085 -0.018470962 -0.09490036 -0.070701495 0.004283598 0.17326035 0.009423127 0.03720045
00000000: 14c2 0f3d cb22 0e3c 4c8b 0bbe 56ec 83bd
00000010: f9a9 8abc 3aff 87be d5d4 b73d 8974 90bd
00000020: 17d6 ee3c 7af9 45bd 43d3 13bd 10a0 0a3b
00000030: 1ee2 26bd 2b0d e9bc 21b8 863d 475e d33d
00000040: b204 44bb 3053 bf3a f991 183c 1b6c 91bc
00000050: 237c 56bd b50a aabd ad9d 2b3c 07ca 703c
00000060: 9995 cfba 2e07 7ebd 7f5a 263d c98e 47bc
00000070: 8bf9 d5bc fa84 463d 35d9 8b3d 0d70 003c
00000080: 1dc1 05bd 293a 25bd 09c1 a3bd e3bc f2bc
00000090: b1be 163d 1b95 7a3d 3ee0 dcbc ed90 2a3d
000000a0: 3cb8 57bc 49c9 3dbc dda9 8ebd dc5f 99bb
000000b0: 7ee5 ae3c 15ae 2dbd 059f 7d3c 2f9b 09bd
000000c0: df71 b63c e04e 4fbe 0dec 8e3d 35e9 08bd
000000d0: bd98 cfbd ade8 443d 3488 a8bc f65e e5bc
000000e0: 801c 533d 6a50 97bc 1f5b c2bd f2cb 90bd
000000f0: 6d5d 8c3b 296b 313e 7663 1a3c 805f 183d

hiden_layers.3.weight f4 [64, 64]
-0.015433893 0.26457992 0.35917386 -0.082841694 -0.007328837 0.21118195 -0.022162113 -0.25356027
0.05529945 0.10427987 0.09515835 -0.008489343 0.17680317 -0.028805207 0.1553448 -0.06558911
-0.10797975 -0.29487622 0.17145531 -0.09639138 0.15688567 -0.024687793 0.4280594 0.21993797
0.14833091 0.085140824 -0.14123057 -0.19691841 0.15290795 0.13918816 0.02088926 0.17062427
0.33301592 0.079175286 -0.20859246 0.20310993 0.14596593 -0.053577263 0.30970845 -0.12955822
-0.008624007 0.11148566 -0.25289825 -0.1054259 -0.018923167 0.1393139 -0.0011150186 -0.11954715
0.12370111 -0.18178779 -0.0674833 0.012398531 0.31314692 0.14104567 0.19062464 -0.07151673
0.12699914 0.18033 -0.25078923 0.17678139 0.09977779 0.21106492 -0.08793964 0.29783913
-0.2221142 0.08857429 -0.31642652 0.20734677 0.05838813 0.2307246 -0.24080369 0.14326496
-0.1861404 -0.08877031 0.06426535 0.027801301 0.080421835 0.042438813 -0.0031898355 0.22252549
0.08029221 -0.08500719 -0.00740375 0.12529343 0.1810232 -0.17703912 -0.15212043 0.21105587
-0.030515602 0.1343272 0.2219305 -0.14306647 0.20023407 -0.0042295987 -0.28431344 0.013361675
-0.09051227 -0.1649025 0.28786856 0.31340033 -0.007678699 -0.13504477 -0.3081018 0.14875343
0.05900141 -0.07044432 0.0771172 0.32725695 -0.0626755 0.15694201 -0.03976121 -0.03112503
0.15646705 -0.15773639 -0.28868303 0.15799722 0.1479291 0.022088943 -0.07622765 0.22019549
0.04581299 -0.11987014 0.2833367 0.06399433 0.3025299 0.13502215 0.05010324 0.0037452728
-0.15626284 0.28414455 -0.21503153 -0.04196819 -0.024739495 0.22037669 0.33524138 -0.21392597
0.3069202 -0.003499706 -0.004783441 0.07645498 -0.035100568 0.03163493 0.13365762 0.08516204
0.17985503 0.122983366 -0.4043955 -0.1652568 -0.10459456 -0.05628004 -0.106311895 0.03834482
0.025045019 0.2812657 -0.32225704 -0.017111087 0.24500121 -0.27657172 -0.012891511 -0.13678947
-0.24216893 -0.10998542 0.18600723 0.026545092 -0.018935816 -0.02048687 0.14205277 0.045988955
0.21634008 -0.11905352 -0.058326896 0.15619712 -0.118183404 -0.3470792 -0.11497175 -0.2298608
-0.06310465 0.010717921 0.25176463 0.16008857 -0.046896968 0.0051177447 -0.26407433 -0.34254518
-0.3096698 -0.21678995 0.0144444965 0.0990137 -0.0076518008 0.109158844 0.037031204 0.008327629
0.13794339 -0.2625848 0.2009566 -0.090441056 -0.27149564 -0.082998924 0.07564239 -0.1330428
0.09813538 -0.19642425 -0.14300542 -0.19642383 -0.18758316 -0.46492526 -0.12560165 0.011954863
-0.15641664 0.24311161 0.07392671 -0.07901707 0.05075812 -0.05787636 -0.07023708 -0.13448732
0.20287128 0.11646117 0.039528016 0.027575107 0.06160784 -0.07635784 0.026785035 0.10353827
0.276214 0.1826573 0.06210769 -0.2565402 -0.19305074 0.009800101 -0.23697855 -0.069163375
-0.046362836 -0.2658707 -0.22136843 0.031167831 0.3144611 -0.18563989 0.24081142 0.15069155
-0.012309032 0.11929776 -0.12689966 -0.11063863 0.08996661 0.18778917 0.032887008 0.32242683
0.21735726 0.115914926 0.17606543 -0.12347165 0.050639987 -0.17508084 -0.17838673 0.097570896
00000000: 70de 7cbc 0577 873e a3e5 b73e e8a8 a9bd
00000010: be26 f0bb 1540 583e 528d b5bc a7d2 81be
00000020: ad81 623d af90 d53d 62e2 c23d e316 0bbc
00000030: e40b 353e e6f8 ebbc b512 1f3e 9553 86bd
00000040: 7d24 ddbd 04fa 96be fb91 2f3e d868 c5bd
00000050: a3a6 203e 0e3e cabc 9a2a db3e 6b37 613e
00000060: 0fe4 173e 505e ae3d bf9e 10be fba4 49be
00000070: e793 1c3e 5787 0e3e f41f ab3c 21b8 2e3e
00000080: 1081 aa3e a726 a23d 4399 55be 0dfc 4f3e
00000090: 1878 153e d573 5bbd 1b92 9e3e e9aa 04be
000000a0: b54b 0dbc 9852 e43d e17b 81be 89e9 d7bd
000000b0: c204 9bbc 4ea8 0e3e d125 92ba 23d5 f4bd
000000c0: 0257 fd3d 9426 3abe af34 8abd 3523 4b3c
000000d0: cb54 a03e 476e 103e 1b33 433e 5d77 92bd
000000e0: 100c 023e 6da8 383e 7267 80be 2e06 353e
000000f0: 4c58 cc3d 6721 583e b319 b4bd 5f7e 983e
00000100: e871 63be 7066 b53d a802 a2be b652 543e
00000110: 6428 6f3d 1243 6c3e 3e95 76be 0db4 123e
00000120: 979b 3ebe 35cd b5bd 8d9d 833d 8ebf e33c
00000130: 34b4 a43d 52d4 2d3d 8f0c 51bb b9dd 633e
00000140: 3e70 a43d 4018 aebd 289b f2bb ec4c 003e
00000150: 255e 393e be49 35be 75c5 1bbe 081f 583e
00000160: dbfb f9bc 128d 093e c041 633e 0480 12be
00000170: 290a 4d3e 7298 8abb 8891 91be edea 5a3c
00000180: 7f5e b9bd 33dc 28be 8263 933e 0276 a03e
00000190: 999d fbbb 2d49 0abe 85bf 9dbe d252 183e
000001a0: 76ab 713d 1d45 90bd 9fef 9d3d 398e a73e
000001b0: 035c 80bd 68b5 203e a7dc 22bd ebf9 febc
000001c0: e638 203e a685 21be 43ce 93be 06ca 213e
000001d0: ba7a 173e dff3 b43c 3e1d 9cbd ed7a 613e
000001e0: 67a6 3b3d 7a7e f5bd 8211 913e 760f 833d
000001f0: 33e5 9a3e 3f43 0a3e 0e39 4d3d 4073 753b
00000200: 5e03 20be 657b 913e 3a31 5cbe d6e6 2bbd
00000210: 7baa cabc 6daa 613e c2a4 ab3e 690f 5bbe
00000220: a524 9d3e 535b 65bb 69be 9cbb 6e94 9c3d
00000230: 9dc5 0fbd a193 013d 8bdd 083e 7069 ae3d
00000240: eb2b 383e b4de fb3d ed0c cfbe 1439 29be
00000250: ac35 d6bd e685 66bd 0dba d9bd 750f 1d3d
00000260: 362b cd3c 0f02 903e e0fe a4be 8d2c 8cbc
00000270: 99e1 7a3e cf9a 8dbe eb36 53bc 8a12 0cbe
00000280: 22fb 77be 0940 e1bd ae78 3e3e 1875 d93c
00000290: 491f 9bbc 15d4 a7bc 4876 113e ea5e 3c3d
000002a0: 4188 5d3e 55d2 f3bd 2fe8 6ebd 23f2 1f3e
000002b0: 240a f2bd 5db4 b1be 4f76 ebbd a160 6bbe
000002c0: 033d 81bd 389a 2f3c 4be7 803e 42ee 233e
000002d0: 0917 40bd c1b2 a73b c034 87be 1562 afbe
000002e0: 0a8d 9ebe 2ffe 5dbe 9ca8 6c3c b2c7 ca3d
000002f0: f5bb fabb ac8e df3d 08ae 173d 9c70 083c
00000300: 0841 0d3e 8471 86be 91c7 4d3e 2939 b9bd
00000310: 7a01 8bbe 57fb a9bd 66ea 9a3d 5f3c 08be
00000320: 34fb c83d 7023 49be 0370 12be 5423 49be
00000330: cd15 40be af0a eebe b89d 00be 54de 433c
00000340: af2b 20be 40f2 783e e366 973d b4d3 a1bd
00000350: bfe7 4f3d c30f 6dbd 75d8 8fbd 0bb7 09be
00000360: 7dbd 4f3e 3283 ee3d 21e8 213d 31e5 e13c
00000370: 8158 7c3d 8061 9cbd 4a6c db3c df0b d43d
00000380: ec6b 8d3e 840a 3b3e a264 7e3d 3d59 83be
00000390: 18af 45be 9a90 203c 81aa 72be 87a5 8dbd
000003a0: f5e6 3dbd 3420 88be 68ae 62be ae53 ff3c
000003b0: 0c01 a13e 6218 3ebe 4597 763e e34e 1a3e
000003c0: d2ab 49bc 6252 f43d fcf1 01be 8296 e2bd
000003d0: 6a40 b83d ce4b 403e 87b4 063d 2115 a53e
000003e0: e792 5e3e ce64 ed3d 7f4a 343e b4de fcbd
000003f0: e06b 4f3d 6448 33be 03ab 36be 40d3 c73d

hiden_layers.3.bias f4 [64]
-0.09066771 -0.015994482 0.030484822 -0.049735077 0.088135876 0.02701429 0.11649037 0.004435309
0.042671442 -0.0567608 -0.02848946 -0.068995215 0.0385454 0.0014539936 0.13326392 0.054347273
0.048232164 -0.067048095 0.046483915 -0.041526318 -0.049751695 -0.1704813 -0.053276718 0.05858558
-0.15021816 -0.035453454 0.039215468 0.03728318 -0.10534991 -0.08266014 0.037960794 -0.0072997813
-0.017269688 0.041604523 -0.09687515 0.016233336 -0.055729765 0.090411514 -0.051296044 -0.033207502
-0.052401874 -0.0728038 0.029698184 0.03341331 -0.034144115 0.0006259545 -0.02061262 -0.021350332
-0.0022850314 0.0076828375 0.051143937 -0.15476154 0.022092158 -0.029766118 0.074371435 0.075631745
0.11409243 0.04105636 -0.014633589 -0.083976485 -0.06500874 -0.0047807745 -0.024605872 0.030383933
00000000: feaf b9bd dc06 83bc 4ebb f93c 02b7 4bbd
00000010: 9580 b43d 134d dd3c 8192 ee3d 1256 913b
00000020: 40c8 2e3d 037e 68bd ba62 e9bc 5d4d 8dbd
00000030: c8e1 1d3d ee93 be3a 5676 083e 3f9b 5e3d
00000040: 178f 453d 8350 89bd eb65 3e3d 8017 2abd
00000050: 6fc8 4bbd a692 2ebe b038 5abd 6ff7 6f3d
00000060: cad2 19be a437 11bd 66a0 203d 3fb6 183d
00000070: b2c1 d7bd b849 a9bd c77c 1b3d 0133 efbb
00000080: 2979 8dbc 8169 2a3d 7b66 c6bd c6fb 843c
00000090: e544 64bd ac29 b93d cd1b 52bd 9704 08bd
000000a0: 59a3 56bd 291a 95bd 9b49 f33c 65dc 083d
000000b0: b3da 0bbd 1817 243a ccdb a8bc e4e6 aebc
000000c0: 77c0 15bb 50c0 fb3b 4e7c 513d cf79 1ebe
000000d0: 9dfa b43c 13d8 f3bc 0d50 983d d1e4 9a3d
000000e0: 4ba9 e93d b72a 283d b9c1 6fbc ddfb abbd
000000f0: 4d23 85bd 0ba8 9cbb 4192 c9bc bae7 f83c

hiden_layers.4.weight f4 [64, 64]
-0.15056865 0.062738 0.6787676 -0.32738987 -0.020611972 -0.09119204 -0.13748255 0.12391841
0.08848378 -0.6475601 0.10114 0.0063837967 0.16857617 0.057196718 -0.2823652 0.36331457
-0.06980284 -0.089918755 0.28544226 0.3993655 -0.6104774 0.26598316 -0.36431533 0.3647581
-0.02338362 -0.20872162 0.35456383 0.2819534 -0.9122111 -0.3935767 -0.024331369 -0.011882495
0.044536773 0.04311953 0.09710745 -0.51692456 -0.0015037439 0.15154763 -0.016223313 -0.15179856
-0.4160588 0.06045623 0.05478777 0.34201697 -0.21802944 0.0010958535 0.20045051 -0.054483477
-0.34641314 -0.51074934 -0.13970311 -0.03635467 -0.05430581 -0.78940094 0.24122557 0.13776104
0.009819779 0.042210955 -0.20453566 -0.76330656 0.1542174 0.32480803 -0.04182877 -0.18510593
-0.08513863 -0.13462377 -0.29533795 0.47321045 -0.062011823 0.044171225 0.03846426 -0.047085974
-0.08293614 -0.2324267 -0.20120025 0.09662899 0.05534368 0.025840426 -0.14074197 0.20788363
-0.14901745 -0.061948817 0.19460346 0.08841579 0.37060335 0.015437457 0.14153942 -0.007697588
-0.091745354 -0.27628332 -0.18971042 0.05538637 0.043224122 0.0536569 -0.08177934 -0.24596953
0.01775743 0.033047717 0.11857568 -0.2604016 -0.27715066 0.0063272915 0.039086375 0.06286051
0.109415725 -0.23102996 0.10332349 0.33416092 -0.17625767 0.059781894 -0.22325197 -0.11398989
-0.18290244 0.19027908 -0.08015679 -0.15220088 0.28310466 -0.22172564 0.11515742 0.050199386
0.007153546 -0.4091354 0.18234164 0.017521018 0.23062687 0.20038365 0.176669 0.11117325
-0.14191733 0.008333336 -0.2514924 -0.16261117 -0.1114518 -0.13789934 0.031467736 0.119155794
-0.074626826 -0.18405494 -0.014026723 0.06662342 0.026788075 -0.21225466 -0.12626831 0.0065124454
0.053230017 0.084282294 -0.058513112 0.05847352 -0.094880186 -0.20022923 -0.14014532 0.3352005
-0.08902811 -0.267153 -0.03410293 0.23010062 -0.24371606 0.009938196 -0.20935866 0.32951003
-0.21814619 0.0173816 -0.07762629 0.080994 -0.2955527 -0.05808565 -0.15886553 0.24032317
0.24905035 0.24773063 -0.283837 -0.09536405 0.01786754 0.041141957 0.18155605 -0.1368064
0.21966682 0.046507396 0.28983274 -0.21079512 -0.35524935 -0.035483606 -0.052672785 -0.01881096
-0.21622218 -0.11208864 0.23109695 0.20550032 -0.09846639 0.15328097 -0.03208328 -0.107931994
-0.06428873 -0.336804 -0.053007454 0.33618942 0.07775413 0.002843219 0.033347566 -0.31659207
0.028712962 0.19628176 0.14333522 -0.14927769 -0.023468906 0.15418178 0.21638343 0.18086995
0.119618766 0.16471404 -0.27840355 -0.2196026 0.11739506 0.07653318 0.2603233 -0.10995022
0.1905575 -0.1898582 0.19538844 -0.03410046 -0.054717865 -0.08340049 0.25904003 -0.1793171
-0.17021789 0.07553537 -0.025872765 -0.25400704 0.09300033 -0.12015476 0.026925623 0.091606095
-0.024961712 -0.09443381 -0.22957952 0.20072667 0.17145507 -0.19794959 -0.05296802 -0.22896339
-0.057839025 0.14227991 -0.12430091 0.14111513 -0.057291996 0.13256383 0.12796357 0.14505735
-0.38583788 -0.12946145 0.11747731 -0.11078252 0.16074462 -0.1401611 0.21109101 0.26171553
00000000: ab2e 1abe c87c 803d b7c3 2d3f a59f a7be
00000010: 70da a8bc e4c2 babd 3ac8 0cbe efc8 fd3d
00000020: fc36 b53d 80c6 25bf 7d22 cf3d 2b2f d13b
00000030: 3b9f 2c3e 1b47 6a3d 2c92 90be 5e04 ba3e
00000040: cbf4 8ebd 5327 b8bd 7d25 923e a379 cc3e
00000050: 3f48 1cbf f22e 883e 8a87 babe 93c1 ba3e
00000060: 018f bfbc 1fbb 55be 6489 b53e 325c 903e
00000070: ab86 69bf e382 c9be 9452 c7bc ccae 42bc
00000080: 316c 363d 1b9e 303d 45e0 c63d 2b55 04bf
00000090: 4619 c5ba 4d2f 1b3e c1e6 84bc 1571 1bbe
000000a0: a905 d5be f4a0 773d 2469 603d d91c af3e
000000b0: 1c43 5fbe bea2 8f3a e642 4d3e 112a 5fbd
000000c0: 105d b1be 78c0 02bf 550e 0fbe a2e8 14bd
000000d0: c56f 5ebd 2e16 4abf d603 773e 3b11 0d3e
000000e0: 23e3 203c 65e5 2c3d cc71 51be 0f68 43bf
000000f0: 2beb 1d3e 3d4d a63e a554 2bbd 698c 3dbe
00000100: 295d aebd d0da 09be 8936 97be a448 f23e
00000110: 1c00 7ebd e3ec 343d b38c 1d3d 39dd 40bd
00000120: 6cda a9bd 4401 6ebe 7007 4ebe 6be5 c53d
00000130: 0eb0 623d 4daf d33c aa1e 10be 72df 543e
00000140: 0898 18be 0bbe 7dbd 2146 473e 5613 b53d
00000150: b9bf bd3e 63ed 7c3c b6ef 103e 0c3c fcbb
00000160: fde4 bbbd 0275 8dbe 7343 42be d1dc 623d
00000170: c70b 313d 56c7 5b3d ed7b a7bd 70df 7bbe
00000180: 0878 913c 0b5d 073d ced7 f23d 5c53 85be
00000190: b1e6 8dbe 2b55 cf3b 0919 203d 03bd 803d
000001a0: 5a15 e03d 1e93 6cbe 449b d33d 2417 ab3e
000001b0: e47c 34be dcdd 743d 2a9c 64be 8873 e9bd
000001c0: c74a 3bbe 85d8 423e 3e29 a4bd 8cda 1bbe
000001d0: 18f3 903e 0c0c 63be a7d7 eb3d df9d 4d3d
000001e0: 4b68 ea3b 327a d1be c4b7 3a3e 3d88 8f3c
000001f0: 7329 6c3e 5f31 4d3e b8e8 343e cdae e33d
00000200: c752 11be 8b88 083c 9dc3 80be 8b83 26be
00000210: d740 e4bd 7c35 0dbe 50e4 003d f407 f43d
00000220: f3d5 98bd e678 3cbe 57d0 65bc dc71 883d
00000230: aa72 db3c 4959 59be 7b4c 01be 5a66 d53b
00000240: b807 5a3d 329c ac3d 72ab 6fbd ee81 6f3d
00000250: 8b50 c2bd e408 4dbe 4182 0fbe 669f ab3e
00000260: 5f54 b6bd 47c8 88be 84af 0bbd 7f9f 6b3e
00000270: b490 79be d1d3 223c 1e62 56be 8ab5 a83e
00000280: b761 5fbe db63 8e3c 88fa 9ebd 2fe0 a53d
00000290: af52 97be 38eb 6dbd a5ad 22be 4717 763e
000002a0: 0e07 7f3e 19ad 7d3e 1553 91be 3a4e c3bd
000002b0: f25e 923c 7884 283d d4e9 393e fa16 0cbe
000002c0: 57f0 603e 8a7e 3e3d f564 943e adda 57be
000002d0: 3ee3 b5be 4257 11bd 6bbf 57bd 7119 9abc
000002e0: 5969 5dbe bb8e e5bd aea4 6c3e ad6e 523e
000002f0: bfa8 c9bd b0f5 1c3e c269 03bd 730b ddbd
00000300: cfa9 83bd 9371 acbe 581e 59bd 0521 ac3e
00000310: 8f3d 9f3d 4d55 3a3b 7597 083d 5b18 a2be
00000320: 7237 eb3c 16fe 483e 78c6 123e 40dc 18be
00000330: dd41 c0bc d4e1 1d3e 9e93 5d3e f935 393e
00000340: affa f43d ccaa 283e e98a 8ebe 81df 60be
00000350: d26c f03d 6ebd 9c3d 1849 853e 952d e1bd
00000360: 8121 433e 306a 42be e813 483e edac 0bbd
00000370: d71f 60bd e0cd aabd e5a0 843e e79e 37be
00000380: 994d 2ebe 4ab2 9a3d 1ff3 d3bc 360d 82be
00000390: f576 be3d b313 f6bd 2093 dc3c fa9b bb3d
000003a0: 817c ccbc 8366 c1bd e516 6bbe 4b8b 4d3e
000003b0: eb91 2f3e 4cb3 4abe fff4 58bd 6175 6abe
000003c0: 9de8 6cbd d3b1 113e 7a91 febd 7c80 103e
000003d0: 03ab 6abd d0be 073e e208 033e ea89 143e
000003e0: 8b8c c5be 8b91 04be f297 f03d f2e1 e2bd
000003f0: 3d9a 243e 6486 0fbe 3e28 583e 94ff 853e

hiden_layers.4.bias f4 [64]
0.34099475 0.041353192 0.008628669 -0.050109264 0.01088972 -0.015228199 0.041547894 0.020962588
0.00041395202 0.0090670325 0.09129636 0.022504585 -0.031579427 -0.024281615 0.060617704 0.068493426
0.0016217881 -0.0055259797 0.0077996887 -0.243676 0.031476907 -0.1320344 0.005255152 0.07320938
-0.045400705 -0.0029016077 -0.01649554 0.1665446 0.04657317 -0.019903872 0.07862213 0.06668512
0.037675478 -0.0019656727 -0.016026512 0.08660214 -0.0070155794 0.071164235 -0.027087796 -0.01685036
0.20776294 0.094746046 0.11693584 -0.04960307 0.012658561 0.053751193 0.18976009 -0.022954226
0.005479294 0.041764166 -0.0920289 0.09721083 -0.04782047 0.019509198 -0.07229693 -0.01162954
0.07975372 0.013298243 -0.094176725 -0.01024725 0.015627338 -0.07565126 -0.046622712 -0.061685674
00000000: dd96 ae3e f761 293d 435f 0d3c 5f3f 4dbd
00000010: cc6a 323c b27f 79bc 202e 2a3d bcb9 ab3c
00000020: b307 d939 e48d 143c 96f9 ba3d 895b b83c
00000030: 6e59 01bd 3dea c6bc 454a 783d 4846 8c3d
00000040: 2e92 d43a 4713 b5bb 8894 ff3b 3486 79be
00000050: eeed 003d 0734 07be 6933 ac3b cdee 953d
00000060: 17f6 39bd e628 3ebb a821 87bc ab8a 2a3e
00000070: 82c3 3e3d 720d a3bc a404 a13d 3592 883d
00000080: 9a51 1a3d 84d2 00bb 084a 83bc 765c b13d
00000090: f2e2 e5bb 8ebe 913d 3ae7 ddbc c409 8abc
000000a0: cfbf 543e 370a c23d 0f7c ef3d 972c 4bbd
000000b0: da65 4f3c 362a 5c3d 7850 423e 800a bcbc
000000c0: a68b b33b e710 2b3d a679 bcbd 7916 c73d
000000d0: 66df 43bd c1d1 9f3c 6a10 94bd d389 3ebc
000000e0: eb55 a33d e0e0 593c badf c0bd 15e4 27bc
000000f0: e704 803c 0cef 9abd 75f7 3ebd 1eaa 7cbd
