results/7_model_3_case_2_zoom/epoch1100/model_weights.pth (torch, 484214 bytes, 88 tensors)

init_layer.0.weight f4 [64, 3]
000000 11 08 ce bd a3 5e 94 bd 7a 6e b7 3e 74 5e fc 3d
       -0.10060132 -0.07244613 0.35826474 0.12322703
000010 0f 7a 66 3d 0e 49 aa 3e 86 ac 35 3d fc c6 7c be
       0.056268748 0.3325886 0.044353984 -0.24685282
000020 f7 66 4e be 21 12 5d 3e af 59 71 bc fe c7 b3 3c
       -0.20156465 0.21588947 -0.014730855 0.02194595
000030 76 71 54 bd 8f b9 71 3d e7 35 26 3f a6 5b 31 be
       -0.051866017 0.059014853 0.64926 -0.17320117
000040 d8 5d b7 be 5d c9 4e 3e 3b ce af 3e c1 33 a2 3b
       -0.35813785 0.20194001 0.3433703 0.004950017
000050 88 a9 cd 3e 74 89 83 3e aa 4b 65 3e cd db 89 3e
       0.40168405 0.25690806 0.22392145 0.26925507
000060 ea d8 dc 3e 2e c4 bf be c0 7b 1a 3e 44 f6 03 be
       0.43134242 -0.3745436 0.1508627 -0.12886912
000070 9b 73 df bd 2c f9 df 3e ea 98 b5 bd 66 72 86 3a
       -0.10910722 0.4374479 -0.08867057 0.0010257482
000080 3b 9b 00 bf 62 aa fd 3d b2 32 0a 3e 36 a6 5f bf
       -0.5023686 0.123860136 0.13495901 -0.8736299
000090 3f e9 bb bc ff d9 cc 3b 69 ea 2a 3f e4 5d 2d ba
       -0.022938369 0.006251573 0.6676393 -0.0006613417
0000a0 17 f0 20 3c 47 bc 98 3f ae a5 04 3e 05 79 9d be
       0.009822867 1.1932458 0.12953827 -0.30756393
0000b0 4e da cd 3d ad 85 83 3d 15 ed 62 3a ef af 89 bf
       0.10051404 0.06421981 0.0008656544 -1.0756816
0000c0 ca c0 fc 3d 46 29 69 bd c2 07 8c 3e 6d 0d 5c 3e
       0.12341459 -0.056924127 0.2734967 0.21489497
0000d0 cb 3a 94 3e 32 72 81 be 4c 3c 83 3c be 7a 94 ba
       0.28951105 -0.25282437 0.016019963 -0.0011328084
0000e0 47 b8 c8 be 5d e8 d9 bd d2 ea 0a 3d 4b 78 f4 be
       -0.39203092 -0.10640023 0.03391535 -0.47748026
0000f0 ad ca 92 3d e6 4f 00 be e9 f6 25 bf c2 e8 46 3e
       0.071675636 -0.12530479 -0.6482988 0.19424728
000100 80 76 25 bc 7a 50 45 be 51 58 0f 3e 5e 74 48 be
       -0.010099053 -0.1926898 0.13998534 -0.1957564
000110 1b 21 f1 be 5c 83 26 bd e6 99 90 3e 42 d2 7e bd
       -0.4709557 -0.040652618 0.28242415 -0.062212236
000120 df 46 4b bc 95 91 09 bc 59 64 73 3f 9f a2 b7 ba
       -0.012407034 -0.008396526 0.95074993 -0.0014010257
000130 a0 ea 65 3d 27 13 99 be 98 87 07 bd 68 d2 1c bc
       0.05613196 -0.29897425 -0.033088297 -0.009571649
000140 b8 28 82 3f d5 d4 1c be 24 c9 86 be 9c 94 d5 3e
       1.0168676 -0.15315564 -0.26325333 0.41714942
000150 30 be 56 3d fb 3c be 3d 8d 57 17 bf 4a 69 1b bd
       0.05242747 0.09288975 -0.59117967 -0.03794221
000160 67 62 7e be 9a 15 55 3e d6 c4 a9 be a3 2d 19 be
       -0.24842225 0.20809022 -0.33157986 -0.14958815
000170 b6 08 fc be 0a c7 49 bd 61 be 8f 3d 86 00 ee 3e
       -0.49225396 -0.049262084 0.07018734 0.46484774
000180 4b 7c 0b be b5 0f 13 3e 73 88 39 3f 32 fd 09 bf
       -0.13621633 0.1436146 0.7247383 -0.5390197
000190 5f 88 79 3e 30 34 d6 bd 49 1e b3 b9 4a b6 23 bd
       0.24368428 -0.10459173 -0.00034164105 -0.039968766
0001a0 4b 2c b3 be 58 f1 cb bc d4 38 0e bd f8 bd 37 bf
       -0.3499473 -0.024895355 -0.034722164 -0.71774244
0001b0 a5 91 82 3c 30 fe 10 bc f9 2c d0 be 85 79 04 be
       0.01593859 -0.0088496655 -0.4065931 -0.12936981
0001c0 8a e1 e5 bc a3 40 c2 be f5 67 d9 3d 8a 6d 1b 3d
       -0.028061647 -0.3793994 0.10615531 0.03794626
0001d0 dd 70 cd 3f 5a 31 49 be 1c 71 b6 3e 15 ba 45 3e
       1.6050068 -0.19647732 0.3563317 0.19309266
0001e0 49 27 16 3e 06 39 80 3d 0e 28 02 bf af 5d 0a bc
       0.14663424 0.06260876 -0.5084237 -0.0084451875
0001f0 b9 22 21 bb ef 41 81 bf 2a d2 0e 3e ee 47 21 bc
       -0.0024587347 -1.0098246 0.13947359 -0.0098438095
000200 c7 d7 87 3e f7 90 81 bc c8 cf 27 bd 78 9a 4a 3f
       0.26531813 -0.015816195 -0.04096964 0.7914195
000210 ad 74 da 3d 65 58 ab be 73 4e a7 be db a0 56 be
       0.106667854 -0.33465877 -0.3267704 -0.20959799
000220 dd da 24 be 6e 6f 4c 3e b5 a8 4a bd 34 44 72 bd
       -0.16099115 0.19964382 -0.049477298 -0.059147075
000230 c6 9e c5 3e b1 78 05 3e 04 32 6b 3e 7f 13 c1 bb
       0.38597697 0.13034321 0.22968298 -0.0058922167
000240 28 80 8b 3e 22 bc 97 3e 58 eb 5f 3e 55 06 91 3d
       0.27246213 0.2963572 0.2186712 0.07081286
000250 7b ab 87 be 72 05 4e 3e a5 81 ff bd 6f f2 20 bd
       -0.26498017 0.20119265 -0.124758996 -0.039293703
000260 ca e9 0a bf 2f c2 93 be dc 9f ae be 9f 81 60 bd
       -0.54262984 -0.28859088 -0.34106338 -0.054811116
000270 c8 d9 84 3e fe c6 54 be 5f 2b d5 3e df f3 23 be
       0.25947404 -0.20779034 0.41634652 -0.16010998
000280 a3 51 46 be e9 42 19 3f 6b 57 20 3e 14 4e 5b be
       -0.1936708 0.5986772 0.15658347 -0.21416503
000290 a8 b9 c9 be 92 12 31 3e 36 70 45 3c ac e0 42 3f
       -0.39399457 0.1729224 0.012050679 0.7612407
0002a0 0c 5f d6 3d 94 47 0e 3d 93 34 95 3e e8 81 00 3d
       0.104673475 0.03473623 0.29141673 0.03137389
0002b0 7b a6 e5 bc cb a7 b5 3e f0 46 1b 3e fa 99 8f 3e
       -0.028033486 0.35479578 0.1516378 0.28047162
0002c0 a9 0b 15 3e af 52 27 3e 77 d4 62 3e b4 a0 e7 be
       0.14555229 0.16340135 0.22151361 -0.45239794
0002d0 df 94 2f be d5 5a 39 be 29 a7 7f be 12 11 c3 bd
       -0.17146634 -0.18101056 -0.2496611 -0.0952474
0002e0 b0 38 fe 3c 03 e1 88 be 61 29 41 3e 97 2a 04 bd
       0.03103289 -0.2673417 0.18863441 -0.03226718
0002f0 5e b8 03 be e2 cb 1f 3e e5 21 e3 3c 0a 3d 86 3e
       -0.12863299 0.15605119 0.027726123 0.26218444

init_layer.0.bias f4 [64]
000000 16 ab d5 be d7 49 f0 bd e8 f9 a0 be 7e df b9 3e
       -0.4173209 -0.11732834 -0.31440663 0.36303324
000010 32 42 aa be 63 2f 09 be c4 f9 68 bd ab ef dd be
       -0.33253628 -0.13396983 -0.05687882 -0.43346915
000020 10 8a 22 be 52 fc 99 be 4c a1 8c 3d 13 25 71 bf
       -0.15872979 -0.30075318 0.068667024 -0.94197196
000030 02 6b 25 3f 0c fe c6 3f 14 c3 d2 3d cc 44 3d bd
       0.64616406 1.5546279 0.102911144 -0.046208188
000040 32 31 b4 be 79 2d 20 3e a8 c3 de 3e 6f a8 60 bb
       -0.35193783 0.15642346 0.4350865 -0.0034280082
000050 d8 d3 45 be d2 a8 c2 3d a7 e1 09 bf 38 b7 70 3e
       -0.19319093 0.09504856 -0.53859943 0.23507392
000060 b3 15 97 3f 8d 2d 38 3e 0b da 8c 3e 65 67 b0 3e
       1.1803497 0.17986126 0.27510104 0.34453884
000070 99 f5 df 3d 49 f3 cf 3c f0 99 e4 be 7c 8a d9 be
       0.10935516 0.025384562 -0.44648695 -0.42488468
000080 ca 49 6e bc 7b 02 55 be a8 cb b6 3e 25 48 91 be
       -0.01454396 -0.20801727 0.35702252 -0.28375354
000090 f1 53 dc 3e 6e 86 c4 3e 24 d3 14 3f df 8a 9d 3e
       0.43032792 0.38383812 0.58134675 0.30770013
0000a0 30 db b1 3e 96 fc 9a bf bf 29 b8 be 58 70 dd bc
       0.3473754 -1.2108333 -0.3596935 -0.027031109
0000b0 32 0e e5 3d b2 1e a7 be da 63 ad 3e 5a 46 90 be
       0.11184348 -0.32640606 0.33865243 -0.28178674
0000c0 bf 2b c3 bc 38 39 63 be fb fb 9d be 19 f7 fe bd
       -0.02382457 -0.22189796 -0.30856308 -0.12449474
0000d0 74 5b cb 3e 8a a5 00 3f c3 74 86 3e f3 c6 94 3e
       0.3971821 0.5025259 0.26260957 0.29058036
0000e0 ed 85 dc be 5c dc b7 be 94 6d 15 be aa d9 94 be
       -0.43070927 -0.35910308 -0.14592582 -0.29072315
0000f0 9b c2 1d bd ed d6 52 3e 54 7a 8a 3e 54 a2 b0 be
       -0.03851567 0.205898 0.27046454 -0.34498847

hiden_layers.0.weight f4 [64, 64]
000000 ee 2b 0d be 44 0c 9f 3d 77 61 04 bf a5 20 1d 3e
       -0.13786289 0.07766011 -0.5171122 0.15344484
000010 68 09 0b be 0d f4 8e 3d 89 86 e7 3d b1 31 97 be
       -0.13577807 0.06980143 0.113049574 -0.295301
000020 e4 cc 58 3e 2c e3 31 bc 20 cb 95 be 01 f4 84 bf
       0.2117191 -0.010857385 -0.29256535 -1.0386964
000030 2a ea 3f 40 d4 f3 b7 3f d7 87 90 3e 41 a6 00 bf
       2.9986672 1.4371285 0.28228638 -0.50253683
000040 3b f3 14 be 55 66 24 be 7c 06 67 bb cf 3a d7 be
       -0.1454591 -0.16054662 -0.0035251668 -0.42037055
000050 66 bd 27 bf 63 ca 47 bd b7 b0 b9 bf 97 ab 04 3d
       -0.65523374 -0.048776995 -1.4507054 0.032390203
000060 b9 bb a2 3f 50 6b 9e bd 97 39 06 3f 6d 40 07 3f
       1.2713538 -0.07735312 0.52431625 0.5283268
000070 e5 5c a0 be 9a 4b 2b 3e f1 04 35 bf 39 40 aa bd
       -0.31320873 0.16728058 -0.70710665 -0.08313031
000080 75 29 17 3e b6 9a e1 bd fc 25 1a 3e 25 41 27 bf
       0.14761908 -0.11015837 0.15053552 -0.6533378
000090 85 91 5a 3d c0 04 24 3d 3e 13 6d 3f 69 7e 36 3f
       0.053361434 0.040043592 0.92607486 0.71286637
0000a0 6c 2d b0 39 f0 43 07 c0 db 86 0c bd ee 20 9a 3e
       0.00033603178 -2.1135216 -0.034308296 0.30103248
0000b0 e7 d7 4a be b2 71 b0 bd 7b 0d 9c 3f 71 8c da be
       -0.19808923 -0.08615436 1.2191614 -0.42685273
0000c0 d2 c1 b6 3e 7a cd 49 be cc 86 8c bf f5 5e 9b bd
       0.35694748 -0.1970729 -1.0978637 -0.07586471
0000d0 54 b9 e5 3e d9 ad 2f 3f e7 ab 00 3e 71 9d 79 3f
       0.44867957 0.68624645 0.12565576 0.9750586
0000e0 ee 7d 8c be 95 33 ee bd b5 8b d7 bd fe 0d 11 bf
       -0.27439827 -0.11630932 -0.10524694 -0.56661975
0000f0 5e 7c bc be e3 b0 de bd 62 32 da 3c 4f d0 71 be
       -0.36813635 -0.10873582 0.026635353 -0.2361462
000100 d4 45 88 be 9e e6 50 be da 71 5f be cc 1a 5e 3e
       -0.26615775 -0.20400473 -0.21820775 0.2168991
000110 23 93 aa be d4 64 56 be c2 9a eb 3d e7 fa 8c be
       -0.3331538 -0.209369 0.11504127 -0.27535173
000120 a8 d9 4b 3c 8c 7b dc be 8c 41 62 3e 07 db 30 be
       0.01244203 -0.4306301 0.22095317 -0.17271052
000130 36 2e 7b 3d 51 84 5c 3d 01 31 e7 3d 00 85 3a 3e
       0.061323367 0.053837124 0.11288644 0.18214798
000140 cf 7f 4c be 4d 0a a6 3e 11 32 d0 3e 61 a1 3a 3c
       -0.1997063 0.32429734 0.40663198 0.011391015
000150 75 47 c6 bd 67 7c b2 bd 1b 18 84 3d 66 84 60 3e
       -0.09681598 -0.08715134 0.0644991 0.21925506
000160 d3 8c c8 bc 5d ee 31 3d ae b2 81 3e 26 08 07 3e
       -0.024481213 0.04344021 0.25331634 0.13186702
000170 2a af 7b 3e 24 da 16 3d f1 be 28 be 54 ba 02 bf
       0.24578539 0.03682913 -0.16479088 -0.51065564
000180 d6 8f d0 bd be a0 0b 3d 83 0c 11 3f 27 23 e5 3d
       -0.101836845 0.034088843 0.56659716 0.111883454
000190 26 0d 64 3f b1 1f aa 3d d3 6c 89 bd 5e c6 15 3e
       0.8908256 0.08306826 -0.0671021 0.14626452
0001a0 c3 9b dd 3d 06 a9 cc bd c3 3d cc be 06 70 64 bc
       0.10820725 -0.09993176 -0.3989087 -0.013942724
0001b0 d8 77 93 3e 97 2c 9f be 2e 53 64 3e d6 e3 54 be
       0.2880237 -0.31088707 0.22297356 -0.20790038
0001c0 ff 90 53 bd 40 94 37 be 52 b0 e3 bd 0f 01 06 be
       -0.05165195 -0.17927647 -0.11117615 -0.13086341
0001d0 83 37 37 3e 9a 7f 11 be e7 3b c4 3e 10 ff 0b 3e
       0.1789227 -0.14208832 0.38326952 0.13671517
0001e0 b3 f6 ca be 53 4d b7 be 7f f3 5c be 8b 61 2a be
       -0.39641342 -0.3580118 -0.21577261 -0.16638772
0001f0 93 0d 34 3e 74 e6 96 3e cd 75 79 3e 72 d8 3d be
       0.17583303 0.29472697 0.24361344 -0.18539599
000200 bd 7a b9 3d 9b e4 8f bd 63 f2 3b 3e 4d 0a dd bb
       0.090566136 -0.07026025 0.18354182 -0.0067456127
000210 df 39 4a be 67 cd 06 bc 6a 50 bf 3c a3 db 17 be
       -0.19748639 -0.008227683 0.023353774 -0.14829879
000220 4e 5f ba 3d 49 c4 84 bd 2a 20 c7 bc a6 b8 32 3e
       0.09100209 -0.06482751 -0.02430733 0.1745325
000230 ae 75 d9 3d f1 7e 59 be d2 26 53 3e a9 f8 00 be
       0.10618149 -0.2123983 0.20620278 -0.12594856
000240 2c 90 f0 bd c3 93 22 be 94 5c 70 3d a7 e5 33 bd
       -0.117462486 -0.15876679 0.05868204 -0.043920185
000250 46 f6 06 3c 24 05 e1 bd 03 63 04 be 2c f7 ca bc
       0.008237427 -0.109873086 -0.12928395 -0.024776064
000260 8e a6 2e bc 96 f5 d5 bd 23 b3 02 bd 46 07 2f 3e
       -0.010659827 -0.104472324 -0.03190912 0.17092618
000270 7b 23 db bc ab 8c 24 be e5 72 5f 3e 51 1d 63 3e
       -0.026750317 -0.16069286 0.21821173 0.22179152
000280 cc 50 21 be d5 82 0c be 78 7f 48 3e b7 20 4d 3e
       -0.15753478 -0.13721783 0.19579875 0.20032011
000290 c5 8b af bd 97 58 0a be 02 37 bc bb ee 23 2b 3b
       -0.08571581 -0.13510357 -0.005743862 0.0026113945
0002a0 fb cc 48 be 76 89 8c bc 2f 8c 39 3e b4 45 4e 3e
       -0.19609444 -0.01715539 0.18119882 0.20143777
0002b0 82 f4 49 3e 9e 8b ae 3c bd 5f fe bc 68 81 83 bc
       0.19722179 0.021306809 -0.031051511 -0.016052917
0002c0 84 cb a5 3b eb 55 90 3d 7a fc e2 bd 9d ad 72 bd
       0.0050596613 0.070476376 -0.11083312 -0.0592476
0002d0 58 b8 15 3d 50 99 ab bd 01 9c 14 be 3d ea 3f 3d
       0.036552757 -0.083788514 -0.14512636 0.046854246
0002e0 ea 8a 68 be 99 d9 16 3e 2a 09 2a be 28 da ec bd
       -0.22709242 0.14731444 -0.16605058 -0.115650475
0002f0 c4 3a 42 3e f7 5c 21 be ea f7 c8 bd 3f f8 23 3e
       0.1896773 -0.1575812 -0.09812911 0.16012667
000300 70 f3 4e bf e6 dc 07 bf 19 14 77 3c cd 27 c1 3e
       -0.80840206 -0.5307144 0.015080475 0.37725678
000310 93 e2 43 bf 34 13 c0 be 91 3e 43 bf 57 ce 4d bf
       -0.765176 -0.3751465 -0.76267344 -0.80392975
000320 a4 2c f3 be 28 ac 92 bf 33 58 db 3e 24 a0 b9 3e
       -0.47494996 -1.1458788 0.42840728 0.3625499
000330 38 95 20 3c 84 2b f6 be 6c 13 5a 3e c2 63 8b 3e
       0.0098012015 -0.48080075 0.21296471 0.27224547
000340 b7 21 94 bf 85 ae 2b 3f b2 d6 f9 3f 16 e5 8c 3e
       -1.1572789 0.6706317 1.9518645 0.2751853
000350 ba c6 a5 3e ee b4 c3 3e 2d db 21 be 4c a7 85 3e
       0.3237818 0.38223976 -0.15806265 0.261042
000360 54 3c 41 be 75 8a 38 3f 61 d3 ee bd 63 4c a9 be
       -0.1887067 0.7208627 -0.11661411 -0.3306609
000370 c4 7a 7e 3f c1 b5 28 bf 31 a0 0e bd de 5c d4 bf
       0.99406075 -0.65902334 -0.03482074 -1.6590841
000380 ee 35 64 bf b7 1b d6 bd c3 aa 9c 3f 43 50 5e 3e
       -0.8914479 -0.10454505 1.2239612 0.21710305
000390 37 3a fa 3f 7e 61 12 3f b4 7c ec be 30 83 5b be
       1.9549016 0.5718001 -0.4618889 -0.21436763
0003a0 79 eb 4e 3f 32 d9 78 3d 12 23 7f bf d3 0a 21 bf
       0.8082805 0.06075401 -0.9966289 -0.6290714
0003b0 94 b7 6e 3f c1 58 a3 be fd bd a9 3e 21 b0 9d be
       0.9324887 -0.3190365 0.33152762 -0.30798438
0003c0 09 9b cc bd 14 bb 37 bf 2c 27 9b 3e 38 3e cc 3d
       -0.09990508 -0.71769834 0.30303323 0.09972805
0003d0 ad 95 4d 3d f6 cc d4 bd 02 85 ac 3f fa bb bd bd
       0.05019157 -0.10390656 1.3478091 -0.09264369
0003e0 c5 12 99 bf 66 24 c6 bf 90 2e e5 be 09 8b e5 3e
       -1.1958853 -1.5479858 -0.44762087 0.44832638
0003f0 83 c3 ad bd 1a cd 51 3f e8 ac 0b 3f 0d 50 43 bf
       -0.084845565 0.81953585 0.5456071 -0.7629402

hiden_layers.0.bias f4 [64]
000000 82 6d d1 3e 16 79 98 3e 70 6e 96 bc f6 c3 fb 3e
       0.4090386 0.2977988 -0.018363208 0.49172944
000010 44 3c 0d 3e dc fb 14 3e 3a 57 00 3e bd 12 91 bd
       0.13792521 0.14549202 0.12533274 -0.07083652
000020 33 23 13 bd 1b 4b a5 3e 44 69 97 3d d7 60 4c be
       -0.03592224 0.32283863 0.07393125 -0.19958816
000030 9c 06 f6 bd d8 5d 98 3a 07 f1 71 3e 6e 56 2c be
       -0.120129794 0.0011624647 0.23627101 -0.16829845
000040 fd c3 0a be f7 36 a1 bd da ba a5 3d e3 29 80 3d
       -0.13551326 -0.07871812 0.0809228 0.06257989
000050 1f d9 99 3d 85 91 28 be 40 4d c7 bc 6b 9f f0 bd
       0.07512116 -0.16461761 -0.024328828 -0.117491566
000060 cd ec c5 bc 8e 8e 8e 3c 65 90 9c 3d 71 3f 04 3d
       -0.024160767 0.01740196 0.076447286 0.032287065
000070 bd 0c 91 3e 19 a6 9a 3c 5a 29 5e bd 39 c1 18 be
       0.2833003 0.01887803 -0.054238655 -0.14917459
000080 ff 38 17 3d 83 1c 66 3c 19 69 d9 bd f3 ca d0 3c
       0.03691959 0.014044884 -0.10615749 0.025487399
000090 b0 50 5e 3c 38 7d 38 3e 63 15 eb 3c 80 cf a7 bd
       0.013569042 0.18016517 0.028696721 -0.08193874
0000a0 73 95 d7 3c 97 01 61 3e 97 d0 ea bd 19 09 7e bd
       0.02631638 0.21973263 -0.114655666 -0.062020395
0000b0 fe bc f0 bd b2 16 13 be ca 49 35 bd e3 f7 50 be
       -0.117547974 -0.14364126 -0.044259824 -0.20407061
0000c0 d8 eb 32 3e d9 2a bb 3e e6 00 67 3e c9 7f e5 bd
       0.1747278 0.36556128 0.22558936 -0.11206014
0000d0 07 5e 71 3e c5 25 0c ba 00 6b b8 3d 9c a5 2a bd
       0.23571025 -0.0005346204 0.09004784 -0.041661844
0000e0 65 ce ee bd 7d 88 c3 3d e8 6e 19 be 36 57 c7 3c
       -0.116604604 0.095475174 -0.14983714 0.024333578
0000f0 3f 8a 3e be 2b 12 c9 bb b2 3d 1d bd 4e 95 b9 bd
       -0.18607424 -0.006136199 -0.038388915 -0.09061681

hiden_layers.1.weight f4 [64, 64]
000000 3f a1 f1 bd b8 cb e8 3c eb 78 44 be 01 4e 44 3e
       -0.117983334 0.028417453 -0.19186752 0.19170381
000010 b8 9e 8f be 19 3a 2d 3e 51 df f9 bd 94 fc bc bc
       -0.2805078 0.16916694 -0.12200797 -0.023069657
000020 66 49 c1 3d 4c a4 f5 3c a8 9e 2e bd 04 d1 ea bd
       0.09437828 0.02998557 -0.042631775 -0.11465648
000030 fa b5 37 3c 94 c7 a9 3b 72 22 3b 3c b3 5e 5e bc
       0.01121282 0.0051812623 0.011421787 -0.013572383
000040 3a 17 81 3d 06 5a 2a 3e dc 43 19 3e 74 eb 85 3d
       0.06303258 0.16635904 0.14967293 0.0653905
000050 26 f7 89 3e 89 c2 88 bd ab 77 fa 3b 03 0a ff bd
       0.26946372 -0.0667773 0.00764366 -0.124530815
000060 c0 0e 2b bc 8e 58 58 be d9 8d 80 3d 15 5e a4 3e
       -0.010440528 -0.21127531 0.06277055 0.3210303
000070 7e db b2 3c 16 e5 0b bd 4e b8 45 bd d4 31 04 3e
       0.021833178 -0.03415402 -0.04827147 0.12909633
000080 88 8f aa be 3c 98 43 3e ae dc 78 be da 56 2d be
       -0.3331263 0.19101042 -0.24302933 -0.16927662
000090 0a 4c b4 bd d7 7b 0a 3c d8 08 89 3c f3 b7 05 3e
       -0.08803566 0.008452377 0.01672785 0.13058452
0000a0 99 3a bb 3d cc 5b 10 3e f2 00 bf bd 86 d4 59 3e
       0.09142036 0.14097518 -0.09326352 0.21272478
0000b0 14 37 34 3e 5d 10 52 3d cf 7d 04 3e e5 43 4a be
       0.17599136 0.051285136 0.12938617 -0.19752462
0000c0 ae 4c b1 bd f5 68 07 be ff 90 b0 bd f5 8e d2 3d
       -0.086572036 -0.13223632 -0.08621406 0.10281173
0000d0 10 6b 1a 3d 4a 69 73 bd 48 77 e7 bc 01 de 81 be
       0.03769976 -0.059426583 -0.02825512 -0.25364688
0000e0 25 7a 54 3e b1 bf db bd 3c 25 65 be 82 f6 b1 3d
       0.2074972 -0.107299216 -0.22377485 0.08689596
0000f0 a2 48 a6 3d 26 fe 0d 3e f5 7d 29 3d e8 3d 0e be
       0.08119322 0.13866481 0.041379888 -0.13890803
000100 9c 76 3b 3e d8 1e 04 3e d1 43 c2 be 36 1a 24 be
       0.18306965 0.12902391 -0.37942365 -0.16025624
000110 94 a0 e8 bd ee fb 71 3f a5 df 24 be e0 86 20 be
       -0.11358753 0.9452504 -0.16100939 -0.1567645
000120 d1 ea 7f bb 6e 97 1b be b3 7e d4 3e 49 3a a0 ba
       -0.0039049874 -0.15194485 0.41502914 -0.0012224402
000130 81 d7 41 3d 20 cd 12 3d b8 3c 5a 3e 32 58 ac bd
       0.04732466 0.035840154 0.21312225 -0.084152594
000140 75 e1 0a 3e b6 7a ef be fa fb 44 3e 98 f9 7d 3e
       0.13562568 -0.4677331 0.19236746 0.24802244
000150 73 03 bb 3c df 31 71 3e 57 20 33 be 9d 01 fc bd
       0.022828793 0.2355418 -0.17492805 -0.12304995
000160 62 5a a1 3e 8b 4d b7 bc ce 02 fd be 8b 5c c2 bd
       0.3151427 -0.022375843 -0.49416202 -0.094903074
000170 e6 46 99 3d 7a 60 20 be 48 c1 27 be 65 15 93 bd
       0.07484226 -0.15661803 -0.16382325 -0.07181815
000180 03 7d a1 bd 93 db 48 bd ac ff 53 be c6 c2 10 3e
       -0.07885172 -0.049037527 -0.20703 0.141368
000190 94 09 3b bb 7f 31 16 3c a9 d1 28 bf 14 7c 24 be
       -0.0028539645 0.009167074 -0.65944916 -0.16062957
0001a0 67 39 02 be f1 bf da bd b3 2d 29 bf 02 76 31 be
       -0.1271721 -0.10681141 -0.66085356 -0.17330173
0001b0 45 19 db 3d d6 2b da bd ce 1e 93 3b 13 14 a9 be
       0.10698179 -0.10652892 0.004489756 -0.33023128
0001c0 a6 14 55 3f bd d9 e8 3d 06 b5 60 3b cb 8d 09 be
       0.8323463 0.11369655 0.0034287586 -0.13432996
0001d0 d4 c3 c4 3d a3 cc b8 3d a2 37 d2 bc 51 77 85 3c
       0.09607664 0.09023406 -0.025661293 0.016292246
0001e0 99 c0 8a be c8 1a 1b 3f 1c 9b 84 be d0 c7 ef 3d
       -0.27100065 0.6058774 -0.2589959 0.11708033
0001f0 32 8a 84 bd 31 85 89 bd e4 96 68 3d f2 d3 13 bc
       -0.06471671 -0.06714857 0.056784526 -0.0090227
000200 a3 70 81 3d bf 84 cd 3e 84 37 a5 3b 7f 19 a7 3e
       0.06320312 0.4014034 0.0050420184 0.3263664
000210 bc c6 cf 3d 6f 75 7b 3e 31 4a b2 bd d8 02 24 3e
       0.101453274 0.24556516 -0.08705557 0.1601671
000220 90 c0 66 3d bf b2 b0 bd 06 b8 52 be ce 4c 0d bd
       0.056335986 -0.08627843 -0.20578012 -0.034497075
000230 c8 80 87 3c e9 a6 af 3c 1f 1e 76 3e fd 36 95 3d
       0.0165409 0.021441894 0.24034928 0.07285879
000240 a8 4c 59 be ad 9e 81 bd ec dd 98 3d 64 02 42 bc
       -0.21220648 -0.06329093 0.07464203 -0.01184139
000250 f0 e1 07 bd ea cb 42 be ed c7 8e be 8b fd 66 be
       -0.033174455 -0.190231 -0.27886906 -0.22557656
000260 3b 76 13 bc 5a f7 84 3e 63 6e 73 bc 28 cf 01 be
       -0.009000356 0.25969964 -0.014857861 -0.1267668
000270 ec 19 99 3d 4c c6 3d 3e 22 a4 18 3e ef 8c 50 3e
       0.07475647 0.18532676 0.14906362 0.20366262
000280 44 50 4a 3e 78 15 66 be 46 06 23 3d 53 05 59 be
       0.19757181 -0.22469127 0.039800905 -0.21193437
000290 3c e6 bd 3d 13 ee 30 be 42 fd ac 3d a8 10 04 be
       0.09272429 -0.17278318 0.084467426 -0.12896979
0002a0 a5 00 38 be 82 cd 57 be d8 ea 27 be 94 52 1b be
       -0.17968996 -0.21074489 -0.1639818 -0.1516822
0002b0 13 eb 0d 3c fc 31 05 3e 04 fe 19 be 38 8d 33 bb
       0.008662003 0.13007349 -0.15038306 -0.0027397405
0002c0 93 b0 77 bd 70 fd 1f 3d de 8d b9 3d e4 15 43 be
       -0.06047113 0.039060056 0.09060262 -0.1905132
0002d0 a9 f6 da 3c 5b 0f 40 bd 39 2a f4 3d 8d 2e 73 bc
       0.026728945 -0.046889644 0.11922116 -0.014842642
0002e0 3a 07 c9 bd fb fd 33 3e 02 6b 17 be 56 06 4f 3d
       -0.098158315 0.17577355 -0.14786914 0.05054315
0002f0 79 03 1d 3c 8a 1b 77 3d a0 28 a4 3c bc d9 28 bd
       0.0095833475 0.060328998 0.020038903 -0.041223273
000300 38 cc a0 3d ca ac 21 bd 14 09 49 be c0 d3 9c 3e
       0.07851452 -0.039471425 -0.1963237 0.30630302
000310 ea b2 4d 3e ea 28 17 be 81 64 a7 bd 9c 4a c0 bd
       0.20087782 -0.14761701 -0.081734665 -0.093892306
000320 9f 93 06 bd 14 a9 4e 3e a3 a0 19 be 80 09 5e 3e
       -0.032855626 0.20181686 -0.15002684 0.21683311
000330 61 f7 4c 3e 1f 4a a6 3d 6b 53 eb bd 83 46 d9 3d
       0.20016243 0.08119606 -0.1149052 0.10609152
000340 cd ed d3 bc 86 6c aa bd d3 80 9a 3d 10 38 f6 3d
       -0.025870228 -0.083214805 0.075441025 0.12022412
000350 7c 54 69 3d 8d d0 c6 be f4 22 0e 3e b7 63 2a 3e
       0.056965336 -0.38830987 0.13880521 0.166396
000360 d8 f6 44 3d 99 db cd 3d 06 0a ff 3d 97 89 1e bd
       0.04808697 0.100516506 0.12453084 -0.038705435
000370 e8 52 a5 3c 5b 27 1b 3e 23 82 ec 3d 6b d0 ff 3d
       0.020181134 0.15151732 0.11548259 0.124909244
000380 09 75 ef 3d 36 6c 6c bc 08 06 99 be c3 f4 59 3d
       0.116922446 -0.014430096 -0.29887414 0.05321194
000390 49 c0 37 3d 02 93 60 bc cf 9a 7c 3e fc 6c 33 3e
       0.04486111 -0.013706924 0.2466843 0.17522043
0003a0 bb 86 c9 3d b8 fe 84 bd ee 18 cc 3d b2 18 ca 3d
       0.09840151 -0.06493896 0.099656925 0.098679915
0003b0 ac c0 d6 bd c5 97 04 bd 30 49 1f be c3 2f 07 be
       -0.10485968 -0.0323713 -0.15555263 -0.13201813
0003c0 a1 93 36 3d 40 a1 35 3e 5c 5d 19 bd 24 8b 57 3d
       0.044574384 0.17737293 -0.03744255 0.05262293
0003d0 32 2d 06 3e 00 95 ef 3a 00 d8 49 be 67 af 89 bd
       0.13103178 0.0018278658 -0.19711304 -0.067229085
0003e0 7d 05 a8 bd f4 17 8b bd d9 0f 13 3e 80 e5 10 38
       -0.08204172 -0.06791678 0.14361514 3.4546014e-05
0003f0 ab 68 28 be 94 2d 8a 3e a3 b2 fc 3c b6 71 3f be
       -0.16446178 0.26987898 0.0308469 -0.18695721

hiden_layers.1.bias f4 [64]
000000 85 0f 49 bd b2 bf ca 3d f0 e3 8e 3d e3 73 00 bc
       -0.049087066 0.09899844 0.069770694 -0.00784013
000010 88 d2 19 be 66 1b 3e 3d 0a 95 a1 bc 6a a2 25 3e
       -0.15021718 0.046412848 -0.019724388 0.16175237
000020 41 e9 15 3d 83 3a ca 3d 7d 1d 2c 3d 86 ef 24 bc
       0.0365994 0.098744415 0.04202031 -0.010066872
000030 03 78 49 3c 6f 2f af 3c 85 a6 bd bc 44 b6 6d bc
       0.012296679 0.021384923 -0.023150692 -0.014508788
000040 70 4f a7 bc 25 a2 14 3d 95 c5 9c bd fd ba 43 bd
       -0.020423621 0.036287446 -0.07654873 -0.047785748
000050 fa c4 a8 bd bd 4f 5d 3d c5 c3 53 bd 83 7f a5 3c
       -0.08240695 0.054031122 -0.051700372 0.020202404
000060 0a 83 45 3d 1a 4e e1 bc 96 3e d4 3c c3 92 78 bd
       0.04822067 -0.027503062 0.02590875 -0.060686838
000070 b1 27 85 be a9 ca db bd 91 22 c5 bd 18 6e bd bc
       -0.26006845 -0.10732014 -0.09625734 -0.023123786
000080 24 11 21 bd 62 c6 f8 ba 9b a3 71 bd 80 bc 86 3d
       -0.039322987 -0.0018980021 -0.058993917 0.06578922
000090 73 c0 c9 bd e1 aa 74 be 28 67 63 3c 9a 46 6d 3d
       -0.0985116 -0.2389331 0.013879575 0.05792866
0000a0 5a 02 83 3d 79 eb 82 bd f0 80 04 3e b4 9b 3d bd
       0.06396933 -0.06392569 0.12939811 -0.04629107
0000b0 3e ba 08 be 39 2e 96 3c ec 2c ca bc 2c c7 19 bc
       -0.13352296 0.018332588 -0.024679624 -0.009385865
0000c0 4d 62 a6 bd bd d3 cc bc b4 51 2e 3d 4b 36 43 3c
       -0.08124218 -0.025003308 0.042558387 0.0119148
0000d0 51 bb 1c 3e 00 dd e6 bd 70 b7 ee bc cb 22 01 bd
       0.1530583 -0.11272621 -0.029140204 -0.03152732
0000e0 db 89 e0 bc 7c 69 9e 3d 9f 91 47 be 7b cb 37 3b
       -0.027409485 0.07734963 -0.19489144 0.0028044868
0000f0 7c 41 70 be e7 48 d7 bc 42 d0 ce bd 7d a7 32 3d
       -0.2346248 -0.02627988 -0.10098316 0.04361676

hiden_layers.2.weight f4 [64, 64]
000000 56 ca ae be 59 58 42 3e 41 27 9f be 0c 68 9b be
       -0.34138745 0.18979014 -0.31084636 -0.3035282
000010 9d b3 8e 3c 1d c7 db bd 89 05 da bf 9d 67 19 be
       0.01741963 -0.10731337 -1.7032939 -0.14980932
000020 51 f4 69 be 43 ac 0e bc a0 95 67 3e e0 62 3e bb
       -0.22847106 -0.008708063 0.22615671 -0.0029050633
000030 da 0d 1e bf 04 fa 1a 3e 43 20 3c bd 9e 0f 8d 3e
       -0.61739886 0.15134436 -0.045929205 0.27550977
000040 d6 5f b2 be 6d 93 dc bc 14 58 ae bd 06 45 f9 bd
       -0.34838742 -0.026925767 -0.08512893 -0.12171368
000050 ba 3b c7 3e 76 c9 fb 3d ce ea 6e bd 10 ee c5 3d
       0.38912755 0.12294285 -0.058329396 0.096645474
000060 0e 16 d2 bd bb dd 3e be d7 98 ba bd ba a8 3c 3b
       -0.10258113 -0.18639271 -0.09111183 0.0028787092
000070 7b 59 17 bc 0a cc a2 be 3d 9b 14 3e ae f9 00 3f
       -0.009237642 -0.31796294 0.14512344 0.5038098
000080 44 9a 41 be b6 9b ad 3d 74 f8 f1 bd f1 e1 e1 bd
       -0.18906504 0.08476965 -0.11814967 -0.11029423
000090 07 6b 21 3e b3 8b eb 3e 58 af 9f 3e 74 f7 25 3d
       0.15763484 0.4600502 0.31188464 0.040519193
0000a0 bd af ae 3e 2b 0e ff 3c dc 2c 6f 3d 28 3c bb 3d
       0.34118453 0.031134686 0.05839239 0.09142333
0000b0 22 a6 1c 3e 62 4a 0e be 6d f8 4f 3e 64 81 5b 3e
       0.1529775 -0.13895562 0.2030961 0.21436077
0000c0 73 55 60 3e 5b a4 08 bd c8 4e 2e be 28 96 bc be
       0.21907596 -0.033359867 -0.1702224 -0.3683331
0000d0 20 49 c1 bd dd ad c2 3d e2 16 b5 3c 32 fc 97 3e
       -0.094377756 0.09505818 0.022105638 0.29684597
0000e0 fc 41 8e be 05 ca 26 3e 7f 9f 77 3e 27 dd 40 3f
       -0.27784717 0.16288002 0.24181937 0.7533745
0000f0 79 e3 14 3d 9f 94 83 3c 21 db 75 3e 8d 90 f6 3d
       0.036349747 0.016062079 0.24009372 0.120392896
000100 b9 a7 99 3d bd f2 ae 3e 31 82 08 3e 12 9c e7 3d
       0.07502694 0.3416957 0.13330914 0.11309065
000110 68 79 23 3e a6 2e 09 3e 08 c9 88 3e 62 39 39 3e
       0.15964282 0.13396701 0.26715875 0.18088296
000120 68 ce 66 3d 86 cd 51 3e 8f 62 75 3e 6c a8 04 3e
       0.056349188 0.20488557 0.23963378 0.12954873
000130 d3 1b 6b be 30 19 08 be 5d 4c b3 3c ca 20 7f 3e
       -0.22959833 -0.13290858 0.021886999 0.24914852
000140 32 ec 92 be ed 41 2a 3e e5 c6 90 be 20 e0 56 bd
       -0.28695828 0.16626711 -0.28276744 -0.052459836
000150 b1 30 d2 3d 93 17 04 be 9a c4 87 bd d5 61 28 be
       0.102631934 -0.12899618 -0.06629296 -0.1644357
000160 52 75 6b 3d 05 66 04 3e 6c f0 2b 3e e2 e6 a4 bb
       0.057484932 0.12929542 0.16790932 -0.005032406
000170 7f f4 91 bd fa 1e 3a 3e b1 01 ed bc db 79 11 be
       -0.07126712 0.18175879 -0.02893147 -0.1420664
000180 ce 5c 5a 3d c2 20 29 3e 3d 49 09 be a5 e1 47 3e
       0.05331116 0.16516402 -0.13406844 0.1951967
000190 28 4a 4d 3e a9 9f db bd 37 d1 7f 3d c1 59 44 be
       0.2004782 -0.10723812 0.062455382 -0.19174863
0001a0 30 08 a4 be e6 c0 f2 bd 73 ce 27 bc 00 7f 9a 3d
       -0.32037497 -0.11853199 -0.010242092 0.075437546
0001b0 84 0c d7 3d 3f 79 31 be c3 68 34 be 84 cc 45 3e
       0.10500434 -0.17331408 -0.17618088 0.19316298
0001c0 87 cf 07 be 2f 1b d5 3e 6c 83 1f be e7 2f 0c be
       -0.13262759 0.41622302 -0.15577477 -0.13690148
0001d0 9b f2 c1 bd 01 f9 5c 3e bc 1a b9 bc 08 0b 30 be
       -0.094701014 0.21579362 -0.022595756 -0.17191708
0001e0 fb be 80 3d 71 dc f6 bc e7 20 19 be 50 fb 1c 3e
       0.06286427 -0.030134412 -0.14953957 0.15330243
0001f0 7a 76 03 3a 64 ce 5c 3e fe a3 d2 3d 3f 69 d2 bb
       0.0005014908 0.21563107 0.10285185 -0.0064212377
000200 4e ff 8d 3e 4e 6e b5 bd cc 80 28 be 33 65 fe bd
       0.27733845 -0.088589296 -0.16455382 -0.12421646
000210 cd 2e 0b 3e c3 6f b2 3d 47 23 72 3e 16 b3 db 3c
       0.13592072 0.08712723 0.2364627 0.026818793
000220 a4 ea 2a be d7 72 5d 3e 29 c1 b8 bd 00 97 23 3e
       -0.16691071 0.21625839 -0.090212174 0.1597557
000230 a7 69 a1 3e ce 4e 33 3e f9 45 29 be e2 87 06 3d
       0.3152592 0.1751053 -0.16530599 0.03284443
000240 ef b8 3d 3e e2 95 48 3d b7 e3 fb 3d f8 19 9f be
       0.18527578 0.048971064 0.122992925 -0.310745
000250 17 89 04 bd 00 09 12 3e 1c a5 a2 3e e7 89 30 be
       -0.0323573 0.14261246 0.31766593 -0.17240106
000260 d9 fd 55 bd a2 f8 59 bd 9e cc c3 bd 35 9b 47 be
       -0.05224404 -0.05321563 -0.09560512 -0.194928
000270 da 16 b3 3d f2 a1 45 3c 36 a7 8d 3c 52 15 cb 3e
       0.08744593 0.012062537 0.017291646 0.39664704
000280 01 ba da 3c 16 dd 9f bd a5 6f 04 3d db 71 ab bc
       0.026700022 -0.07805841 0.032333035 -0.020928314
000290 6d 37 86 3e 25 08 d7 bb 53 98 38 be 72 19 47 3d
       0.26214162 -0.00656225 -0.18026857 0.04860825
0002a0 c4 49 27 3e 91 66 d8 3d c6 b8 1f bb 33 d8 63 bd
       0.16336733 0.10566438 -0.0024371608 -0.055626106
0002b0 be 1b 9b 3e ba 7d 84 3c 74 45 53 bd 91 b8 18 be
       0.30294603 0.016173232 -0.051579908 -0.14914156
0002c0 03 c3 90 3e 63 0c 18 3d cb 3d db be b2 6a 82 3e
       0.28273782 0.037121188 -0.42820582 0.25472027
0002d0 5c ce 37 be 1f e9 12 3e c4 06 15 3d 11 c3 59 3d
       -0.17949814 0.14346741 0.036383405 0.053164545
0002e0 36 9a 9b bc 16 f7 ac 3d 1d fb 6e be 47 49 a4 be
       -0.018994432 0.084455654 -0.2333798 -0.32087156
0002f0 58 72 1a 3d aa b4 3a bd ae 58 78 3d 3a 42 b4 bc
       0.037706703 -0.04558245 0.060631447 -0.022004236
000300 9a 59 ad 3d 67 49 f2 bd 77 7a 30 bd 65 66 2d 3e
       0.08464356 -0.11830407 -0.04308554 0.16933592
000310 6f f3 0b be 39 72 1d be ae f9 0c ba 88 ea b5 bd
       -0.13667081 -0.15375604 -0.00053777813 -0.08882624
000320 6b 3e c8 3d 27 b0 0e 3e cb a3 70 3d 37 d9 4c be
       0.0977753 0.13934384 0.058749955 -0.20004736
000330 42 23 db 3e 23 dc 40 be d8 53 03 be 29 6a 87 3e
       0.42800337 -0.18833975 -0.12824953 0.2644818
000340 49 10 ba bc 9a d6 8d be 0d 6e 9c be 6c 39 cc 3c
       -0.022712843 -0.2770279 -0.30552712 0.024929725
000350 cc 2d 0d be 18 6b 3d bd 50 e8 ae 3e a2 ea aa bd
       -0.13787001 -0.04624471 0.34161615 -0.08345534
000360 ed 8b c9 be 71 22 bb bd 2e 5b 8a 3d a6 34 26 3e
       -0.39364567 -0.091374286 0.067556724 0.16231021
000370 2b 75 27 bd 95 d1 8c 3e 5d 96 cb 3d 79 de 17 be
       -0.040883224 0.27503648 0.09940789 -0.1483096
000380 22 36 d1 be 1d 29 e3 bc c5 25 63 3e 54 0b d7 3e
       -0.40861613 -0.027729565 0.22182377 0.4200083
000390 7a bc f8 bc 76 01 6a 3e 18 fe f1 bd f5 29 88 be
       -0.03036331 0.2285212 -0.11816043 -0.2659451
0003a0 f7 4b a0 3e bf f7 3f be da c5 3b 3e 7b b2 7c be
       0.31307957 -0.18746851 0.18337193 -0.2467746
0003b0 c4 bf 6e 3d b9 30 07 be 00 3a 44 3c b1 96 8f be
       0.05828835 -0.1320218 0.011976719 -0.28044656
0003c0 8d 7c 01 be 47 50 94 3e 70 d9 fe 3d b1 f5 4a be
       -0.12645169 0.28967497 0.12443817 -0.19820286
0003d0 d6 09 0f bd 8f 17 d5 bd 02 50 17 3f de 91 e3 bd
       -0.03492149 -0.10404884 0.5910646 -0.11111806
0003e0 6f 3d 14 bf d4 17 91 bd e2 75 9d bd 0c 10 12 3f
       -0.5790624 -0.07084623 -0.076885 0.57055736
0003f0 69 3d db 3d 3e 3f 97 be 94 15 79 3e d8 47 3e 3c
       0.107050724 -0.29540437 0.24324638 0.011613809

hiden_layers.2.bias f4 [64]
000000 99 61 75 3d 35 ee 0c bd c4 df 7d bd 1a e9 e2 3c
       0.05990753 -0.03440686 -0.061980978 0.027699042
000010 82 bc 0a bd e0 b6 a6 bd 0b c7 05 be 5b e2 fa bd
       -0.03387118 -0.081403494 -0.1306421 -0.12250205
000020 2b 98 32 bd b5 03 c5 3c de 19 b4 bc d8 b0 e8 bb
       -0.04360215 0.02404962 -0.02198499 -0.0071011595
000030 65 3e 02 3c c3 19 34 bd 56 3f 64 bd 23 25 b2 bc
       0.007949446 -0.04396988 -0.055724464 -0.021746224
000040 30 d6 24 bc 9f 80 55 bd 85 b3 d6 ba 3c dc f7 bc
       -0.010060832 -0.052124616 -0.0016380405 -0.030256383
000050 61 a5 da ba 4f fb b7 3b 26 35 1b 3d 3c ad 4d bd
       -0.0016681367 0.005614675 0.037892483 -0.050214037
000060 d9 bf 9d 3d f1 3d 48 3d b0 db 29 3e db 1d 22 bd
       0.07702608 0.048887197 0.1658771 -0.039579254
000070 93 26 83 3c 74 ec 23 bd 17 55 d2 3d b7 c4 1c bc
       0.016009605 -0.04002042 0.10270136 -0.009568385
000080 98 c4 04 bd cc 33 df 3c e9 58 54 3b 94 bb 85 3c
       -0.03241405 0.027246378 0.0032401627 0.016324796
000090 4c 93 9d 3b d9 b2 fd bc 79 00 27 be 00 79 b1 3c
       0.004808819 -0.03096907 -0.16308774 0.021664143
0000a0 a0 ad 6f ba e4 0b 23 3c 16 6e 8e bd 6e 93 28 be
       -0.00091429986 0.009951565 -0.06954591 -0.1646249
0000b0 04 85 13 3d 51 d2 59 bd a0 a1 80 bc 69 79 9d b9
       0.036015525 -0.05317909 -0.015702069 -0.0003003583
0000c0 49 5e bd 3d 84 c5 22 be 1e f3 b5 3c b2 8b 05 3d
       0.09246499 -0.15895659 0.022210654 0.032603927
0000d0 e3 e8 61 bd 05 13 fb bc 5d ac 2e 3c 57 01 e2 3b
       -0.05515374 -0.030648718 0.010661212 0.0068971324
0000e0 91 08 88 3c 96 25 7c 3a ed 75 50 bd af 24 d2 bc
       0.016605647 0.0009618638 -0.050893713 -0.025652258
0000f0 67 0c 17 be dc ed 07 bd 08 d8 5d bd ae b1 b3 3d
       -0.14750825 -0.033185825 -0.0541611 0.08774124

hiden_layers.3.weight f4 [64, 64]
000000 72 08 d0 be d7 44 c9 3e 4b b4 42 3e 52 72 6f be
       -0.40631443 0.39310333 0.19014089 -0.23383453
000010 d6 5e 58 be 87 f8 9e 3d 4f b5 0a be ff d4 0b be
       -0.21129927 0.077622466 -0.13545726 -0.1365547
000020 df ac 5c be aa e4 22 3e e0 b2 0d 3e 92 af 41 3d
       -0.2155032 0.15907541 0.13837767 0.047286578
000030 c8 f5 8f bd c1 ca 80 be 19 04 32 3e c7 26 a8 bc
       -0.07029301 -0.2515469 0.17384376 -0.020526303
000040 5d 8f d6 bd a9 a7 3d be c6 f1 3a 3d 22 f2 14 be
       -0.10476563 -0.18520989 0.04564073 -0.14545491
000050 c8 f3 66 3e 97 ef f5 bd 1f 15 05 3e 4d 73 06 3e
       0.22553933 -0.12008589 0.12996338 0.13129921
000060 2e d4 d3 3d 6c 48 58 3e 72 26 02 be 30 67 54 3e
       0.103432044 0.21121377 -0.12709978 0.20742488
000070 22 19 0d 3e 8d cc 00 3e 71 50 65 be cf 2e b3 3d
       0.13779119 0.1257803 -0.22393967 0.087491624
000080 54 af d1 bd ea 09 cc bd 4a cf d6 3c 6b d7 16 3e
       -0.10238519 -0.099628285 0.02622189 0.14730613
000090 a8 f2 6b 3d ee 30 51 bd 3a af 29 3e 5b 6b 5e be
       0.057604462 -0.051072054 0.1657075 -0.2172064
0000a0 45 09 a7 3d e7 d8 94 3e 85 83 b9 be e6 e3 9f be
       0.08156065 0.29071733 -0.36233154 -0.3122856
0000b0 1d 65 ea 3b 82 82 23 3e 0a 43 58 3e 9e ad 0e be
       0.007153167 0.15967754 0.21119323 -0.13933417
0000c0 c3 00 c7 3e f7 11 21 be aa 16 d1 bd f4 0c 63 be
       0.3886777 -0.1572951 -0.10209401 -0.2217291
0000d0 38 90 c8 3e 83 56 06 3e c7 d9 19 3e ff ef b4 bd
       0.3917253 0.13118939 0.15024482 -0.08834838
0000e0 4a 27 08 bc 75 18 1b 3e 87 cc 29 be 42 42 18 3e
       -0.0083101485 0.15146048 -0.16581927 0.14869025
0000f0 3a 07 63 bd b8 40 50 3e c8 d2 04 be 3d bc 5f 3e
       -0.055426814 0.20337188 -0.12971032 0.21849151
000100 b8 93 bd bd 70 40 a1 bd 61 1a 1a bb 40 e2 c0 3d
       -0.09256691 -0.078736186 -0.0023514258 0.09418154
000110 01 67 ec 3d ff a2 68 3e ca 5d 2f be 0f 3f 0c 3e
       0.11543084 0.22718428 -0.17125621 0.1369593
000120 0f ed 8d bd 9e 55 85 be ab 54 d2 3d cf d4 81 3d
       -0.06929981 -0.26041883 0.102700554 0.06339418
000130 6a e8 36 3e ce 95 a6 bd 02 c3 73 bc c1 7f 4f 3e
       0.17862096 -0.08134042 -0.014878036 0.20263578
000140 75 d7 9c 3e b1 0b f1 3d 6b 79 a5 3d af 7a ef 3d
       0.3063313 0.11769808 0.08079799 0.11693322
000150 c3 c1 74 3e 03 6e 72 3b 44 9b 11 3d 04 82 2a 3e
       0.23902039 0.0036991842 0.035548463 0.1665116
000160 14 85 e4 be fa 20 6f 3d bd ed 45 3e 55 4b 23 be
       -0.4463278 0.05838106 0.19328971 -0.15946706
000170 3e 4a 21 3e e6 85 99 bd ca 11 e4 bc 7b ac 2f 3e
       0.15750977 -0.07496242 -0.027840514 0.1715564
000180 d3 ab c3 3d a6 bc a7 bd f4 e8 d1 3e cf a6 80 3d
       0.09554257 -0.08190279 0.40998042 0.06281816
000190 f2 df 08 bd 93 60 00 be 35 72 28 be 6a ad 35 3e
       -0.033416696 -0.1253684 -0.16449817 0.17741933
0001a0 f4 1a c8 3c 6c d5 6c be cd 3e 38 3d d2 91 a2 3e
       0.024426915 -0.23128289 0.044981766 0.31751877
0001b0 b1 2c a2 bd 90 ac 44 bb 9a ac 8a 3d cf 02 82 3e
       -0.079186805 -0.0030010082 0.067712024 0.25392768
0001c0 b4 ed 25 be 5e 5a 09 be 6b 75 2f be 29 91 3f 3e
       -0.16203958 -0.13413379 -0.17134635 0.18707718
0001d0 38 6b fc 3d 5c 6d 29 bd 7a 07 7c 3e 2b 95 8a 3e
       0.12325138 -0.04136406 0.24612227 0.2706693
0001e0 36 18 6d 3e 7a 25 1a be 00 a3 9f 3e 2f a5 15 3e
       0.23153767 -0.15053359 0.31179047 0.14613794
0001f0 4a ad 6b 3e c9 cd 71 3e ee 18 33 bb 57 b5 86 3d
       0.23015323 0.23613657 -0.0027328092 0.065775566
000200 34 94 0c be 30 b5 c8 3d dd ff b9 bd 6e 1d 02 be
       -0.1372841 0.09800184 -0.09082005 -0.12706539
000210 5b 50 b5 bd f6 ab 58 3e 36 3f 88 3e 12 48 8c be
       -0.08853217 0.21159348 0.26610726 -0.27398735
000220 91 b7 4c 3d f0 d1 54 3c 43 e6 96 bd 66 87 14 3e
       0.04997975 0.012989506 -0.07368138 0.14504775
000230 17 69 7c bd e2 62 75 3d 06 31 45 3e 03 da 0f 3d
       -0.06162366 0.059908755 0.19256982 0.03512002
000240 52 09 9b 3e 8f 49 91 3e db 72 6c be 95 8d 63 be
       0.30280548 0.28376433 -0.23090689 -0.22221978
000250 db cf 7b 3d d1 e0 3a 3e 7b 60 cb be 58 b4 d8 bc
       0.061477523 0.18249823 -0.39722046 -0.026453182
000260 a3 00 d5 bd 2d d6 9e bc e3 39 7b be 62 81 e5 3e
       -0.10400512 -0.019389236 -0.24533801 0.44825274
000270 09 f5 09 3e 07 96 95 be c4 49 d5 bd 31 7e 5a be
       0.1347238 -0.29216024 -0.1041446 -0.213372
000280 05 13 b8 be 87 b8 00 be ca c2 9d 3e e2 72 e7 bd
       -0.3595201 -0.12570392 0.30812675 -0.11301209
000290 da 66 31 3e 52 f4 74 be da d5 d8 bd 8b c7 b2 3d
       0.17324391 -0.23921326 -0.10587664 0.08729466
0002a0 af 66 99 3e 17 02 84 be 5d 52 48 be 68 9d 80 3e
       0.29961154 -0.25782844 -0.19562669 0.2512009
0002b0 de 31 d1 bd 50 e2 b1 be 46 e1 61 3e 20 0d 7d bd
       -0.102145895 -0.34742975 0.22058591 -0.061780095
0002c0 58 3b 33 be fb 43 3c be ea d7 73 3e 86 89 1a 3e
       -0.17503107 -0.18385307 0.23812833 0.15091524
0002d0 9a 03 35 3e fc 87 dd bd 5e 12 38 3e d0 90 c2 be
       0.17677155 -0.108169526 0.17975757 -0.38001108
0002e0 9f 19 91 bd 5a a5 b4 bc c1 9e 03 3d 2e da f3 3d
       -0.07084965 -0.022051502 0.03213382 0.11906849
0002f0 93 31 be 3e 7f 1b 53 bc 5d 7a 1c be 7a f6 41 bd
       0.37147197 -0.012884974 -0.15281053 -0.0473542
000300 0a 96 24 be 45 57 01 bb 58 d5 62 3d b3 f9 04 be
       -0.1607286 -0.0019735855 0.05537924 -0.12985878
000310 e4 85 29 be 67 e6 b4 3b 5d d0 d5 bd 21 52 08 be
       -0.16554981 0.00552063 -0.10440133 -0.1331258
000320 14 29 53 be 73 86 f7 bd e8 df 62 be ba 0d ab bd
       -0.20621139 -0.12086191 -0.22155726 -0.083522275
000330 b3 d3 5c be a3 4a 23 be b9 2e 01 be 98 0c d5 3d
       -0.21565132 -0.1594644 -0.1261548 0.10402793
000340 09 cb df bd 02 83 cd 3d fe 60 88 3d 28 d7 2e 3e
       -0.10927398 0.100347534 0.06659125 0.17074263
000350 2d 53 87 3d 91 0e 27 bc 20 4b 50 be 91 5f 83 bd
       0.066076614 -0.010196344 -0.20341158 -0.06414712
000360 e6 4f 5d 3e 97 fc 13 3e e0 4e c1 3d 58 11 4d be
       0.2161251 0.14451824 0.09438872 -0.20026147
000370 10 b9 0b 3e 23 df 8a be 7d 13 c9 3c 56 c3 09 3d
       0.13644814 -0.27123365 0.024545426 0.033633552
000380 de ec 8d 3e 68 ca 04 3e 49 e5 d5 3d 77 c0 a4 bd
       0.27719778 0.12967837 0.10444123 -0.08044522
000390 1c db 85 be 8f d5 18 3d 13 18 0b be f7 24 87 3c
       -0.2614373 0.03731304 -0.13583402 0.016497118
0003a0 0f 48 22 3d a5 ef 3d 3b f2 68 36 be c7 66 83 bc
       0.0396195 0.002898195 -0.17813471 -0.016040219
0003b0 14 34 04 3e 04 f0 27 be 20 6c 42 3e 5e fa cc bc
       0.12910491 -0.16400152 0.18986559 -0.025021728
0003c0 c3 f3 13 3e 2a 17 0d 3e 19 31 91 bd 9a aa e5 bd
       0.14448456 0.13778368 -0.07089443 -0.1121418
0003d0 05 db 58 3d dd 61 fc 3d 5b 78 10 3e fc d3 48 3e
       0.05294325 0.123233534 0.14108412 0.19612116
0003e0 0c cc 87 3c 48 b5 f7 3d 2a 13 33 3e cb 61 77 bd
       0.01657679 0.120951235 0.1748778 -0.060395997
0003f0 74 7d 85 bc 6c 21 35 be 55 9b a5 bd 06 5f a3 3c
       -0.016295172 -0.1768853 -0.08086268 0.019942772

hiden_layers.3.bias f4 [64]
000000 9c 00 88 bd 9b 2e 0d be b1 0e 25 bd ea 1d 59 3d
       -0.06640741 -0.1378731 -0.040297214 0.053007044
000010 38 10 94 3c 6e 03 65 bd 03 25 cb 3b 00 8c 33 3c
       0.01807414 -0.055911474 0.0061994805 0.010958672
000020 ff 1c c8 bd 4b dd d4 bd 9f fe 5b 3d 51 6a 2f 3c
       -0.097711556 -0.10393771 0.053709622 0.0107065
000030 d1 4e c5 bc 77 c1 d8 3d 38 b4 f5 3c 9d fa bd bc
       -0.024085434 0.105837755 0.029993162 -0.02319079
000040 31 e8 e3 3c 54 d5 ae bc bb 3f 93 3c 64 00 b2 bc
       0.027820678 -0.021341957 0.017974725 -0.021728702
000050 39 8a ee 3c 83 2f 51 bd 5c 8f 45 bd c1 85 90 3d
       0.029118644 -0.0510707 -0.04823242 0.070567615
000060 cf f2 0e bd 9c 54 14 bd 7f 2f cc 3c 9f 53 85 bd
       -0.03489953 -0.036213502 0.024924992 -0.0651009
000070 56 54 16 bd 2c cb c5 bd 21 f9 b6 3d cf 60 7c 3d
       -0.036701523 -0.096578926 0.08934236 0.06161576
000080 0d ee 9a bd 7d 72 0f 3e d3 90 19 3d 69 a0 f8 bc
       -0.07564936 0.14008518 0.03749163 -0.030349927
000090 5a d2 3b bd 21 7c 6b 3c c2 69 30 bd 65 f3 da 3d
       -0.045854904 0.014372856 -0.04306961 0.10690955
0000a0 21 04 45 be 7d 40 7b 3d db d5 39 bd c9 2d b2 bd
       -0.19239856 0.061340798 -0.045369964 -0.08700139
0000b0 b4 16 02 bd db 6b b7 3c 8f bc be bd fc 6e 24 be
       -0.031759933 0.022390297 -0.093133084 -0.16057962
0000c0 16 0f ee bd 08 5b 73 3d 22 9b 82 bd 0c 91 42 3c
       -0.11623971 0.059412986 -0.063772455 0.011875402
0000d0 91 51 84 bd d0 84 92 3d 55 29 b4 3c 41 89 d0 bc
       -0.0646087 0.07154238 0.021992365 -0.025456073
0000e0 ca 5b 03 3d c8 79 50 bd ba 86 dc bb 99 0e 81 bd
       0.03206996 -0.05089739 -0.006729928 -0.063016124
0000f0 21 0a af 3d 56 0d fd 3c a8 57 5a 3c 7c e3 a5 bc
       0.08546854 0.030890148 0.013326563 -0.020250075

hiden_layers.4.weight f4 [64, 64]
000000 ab fa b3 be 75 40 b4 3e 3d d6 99 3d 11 47 10 be
       -0.35152182 0.35205427 0.07511566 -0.1408961
000010 cb b9 0c b9 89 d3 87 bd ba d6 2d bd 7d 43 bc 3d
       -0.00013420654 -0.06632144 -0.042441107 0.0919256
000020 1b 7e 62 be 0b 9c 81 bd c4 0e 59 be 5c b4 50 3e
       -0.22118418 -0.06328591 -0.21197039 0.20381302
000030 a4 c3 0b 3e e1 06 cb bd 6b 96 22 3d 45 89 a5 3b
       0.1364885 -0.099134214 0.03969423 0.005051764
000040 d2 61 7c bb 5a bd aa bc 36 e0 05 3e 06 2b aa 3e
       -0.0038510454 -0.020842243 0.13073811 0.3323595
000050 17 6d 39 be 71 8e 26 3e 4b 39 c5 bd 5c a3 d4 bc
       -0.1810802 0.16265275 -0.096300684 -0.025956802
000060 58 e7 f1 be 65 3f 44 be 8b 6a 4e 3e 59 5e 5c 3e
       -0.47246814 -0.19164808 0.2015783 0.21520366
000070 04 bc d0 be 19 2d 68 be 71 0d 8a bd a8 1e c7 bd
       -0.40768445 -0.22673453 -0.06740845 -0.09722644
000080 55 23 a0 3e 45 6d cd bc 27 87 a4 bd a2 44 cb be
       0.31276956 -0.025076518 -0.08033591 -0.397008
000090 49 07 f8 3d b7 8b 1e bd 3e 1c c8 3c db 97 51 bd
       0.121107645 -0.03870746 0.02442753 -0.05117021
0000a0 0b 34 da be 3b 1e ed bd 1a e7 00 3d 3a 14 83 3b
       -0.4261783 -0.11578032 0.031470396 0.004000214
0000b0 b2 0a 84 3d fc 9e 33 3e 8d 0c 97 3e 6d 23 9b bd
       0.064473525 0.17541116 0.29501763 -0.07575116
0000c0 4d 9a 58 be 20 fc 11 3d e6 e7 78 be 1e 07 1b 3e
       -0.21152611 0.035640836 -0.24307212 0.15139434
0000d0 7d dc 13 bf db 94 35 3e 8e f4 bb 3e f8 98 61 be
       -0.57758313 0.17732565 0.36710018 -0.22031009
0000e0 84 6f 7e bd c9 f2 c4 bd 29 8b b7 be 11 7a ac bd
       -0.06211807 -0.0961662 -0.35848358 -0.0842172
0000f0 f8 29 86 bd ab 77 85 be 55 24 42 be cd e9 52 bd
       -0.06550974 -0.26067862 -0.18959172 -0.0514925
000100 6b d1 3e 3e 3c c6 11 bf 77 8b 91 be 8f 6d bb 3d
       0.18634574 -0.56943107 -0.28426716 0.09151756
000110 96 04 f7 3c 8d 66 42 3c 49 ba e8 bd e2 c9 08 3e
       0.030153554 0.01186527 -0.11363656 0.13358262
000120 a1 b6 2e be 97 42 1d bd ec 26 08 3e 2f 66 de 3d
       -0.17061855 -0.038393583 0.13296098 0.10859334
000130 c1 b5 37 3e 44 3a 17 3f 52 dd b6 be 6c 7a 61 bd
       0.17940427 0.5907328 -0.3571573 -0.05504839
000140 ff 47 77 be 19 c5 ab bd ef c9 82 3d 34 c6 8c 3d
       -0.24148558 -0.08387203 0.06386172 0.06873742
000150 00 d7 a5 3e 06 a8 94 3c 65 f2 41 3e 10 10 2a 3e
       0.32390594 0.018146526 0.18940122 0.1660769
000160 94 54 3b 3c 3a 95 04 be 72 5c 8d be c2 72 9f 3d
       0.011433739 -0.1294755 -0.27609593 0.0778556
000170 6f f6 46 3e a6 bf 0a 3e 8e 0b 35 be ce 84 8a bd
       0.19429944 0.1354967 -0.17680189 -0.06763612
000180 6f b0 db bd ed 95 b5 bd 05 f7 ab 3e 97 ef 60 bc
       -0.107270114 -0.08866487 0.33586898 -0.013728998
000190 55 63 a8 be 68 7d 62 3d d4 15 01 3e eb ce 08 3e
       -0.32888284 0.055295378 0.12605983 0.13360183
0001a0 82 64 fc 3e 40 1d ac 3d 1a cd 4f 3e 3b e9 06 3e
       0.4929543 0.084040165 0.20293084 0.13174908
0001b0 42 28 45 be ef 32 31 3e 56 36 83 be ae bc 6e be
       -0.19253638 0.17304586 -0.25627393 -0.23314163
0001c0 a4 28 7b be a4 82 ad 3c 9d 45 80 be cb 7e a3 bd
       -0.24527222 0.021180458 -0.2505311 -0.07983168
0001d0 98 97 c4 3e d5 6c b4 bc 45 fa ef 3d 3c 3c f6 3c
       0.38396907 -0.022024551 0.11717657 0.030058019
0001e0 cb 86 a1 3d 85 fb da bd 45 c7 09 3d 14 83 9e bb
       0.07887038 -0.10692505 0.033637304 -0.004837403
0001f0 ee e3 0d 3f 64 c5 be 3c 09 ab 99 3e 87 af 8f 3d
       0.5542592 0.023287483 0.30013302 0.07015901
000200 3e 2f 44 3d e1 ca f9 bd 52 47 14 be c6 40 ed bd
       0.047896616 -0.12196899 -0.14480332 -0.1158462
000210 85 15 22 3e d6 5a bf 3d 84 23 ba bd 26 48 ef 3d
       0.15828522 0.093434975 -0.09088805 0.11683683
000220 89 e1 fe bc 3c f3 8a be 41 91 2e 3d 0c 91 44 bd
       -0.031113403 -0.27138698 0.042618994 -0.04798989
000230 24 f2 a8 bd a1 31 b3 3e 3b 27 36 3e 43 27 2a 3d
       -0.0824931 0.349988 0.17788403 0.04154135
000240 5a 09 1b 3d 8c a4 d2 3d 68 4a 86 bd b2 40 da bd
       0.037850715 0.10285291 -0.065571606 -0.10656871
000250 f5 5b 81 be 55 18 08 be 89 e3 0e be 55 92 e3 3d
       -0.2526547 -0.13290532 -0.13953985 0.11111895
000260 f0 8f 96 be 2e 3d 4d be fc 56 63 be 7e 6c fd 3d
       -0.2940669 -0.2004287 -0.2220115 0.12374209
000270 4b 6b 0a be 5f 5d 02 3e 4e 43 82 bd ff b9 f4 3d
       -0.13517492 0.12730931 -0.063604936 0.119495384
000280 2a 1a 7c be b8 be 67 bd 37 79 03 3b dd 61 88 3e
       -0.24619356 -0.056578368 0.0020061263 0.26637164
000290 da 51 dc bd 96 11 67 3d ed 7e dc bd 39 3a 83 3e
       -0.107577994 0.056413256 -0.10766397 0.25630358
0002a0 fd 36 7a 3e d9 ef fd bb 25 8d 8a be a0 16 b7 bd
       0.24435039 -0.0077495393 -0.2706081 -0.08939862
0002b0 8a e5 8e be 26 b6 7e bd 80 f3 bf 3d 9b 39 44 bc
       -0.279095 -0.06218543 0.09372616 -0.011976625
0002c0 62 88 76 3e bf 57 a8 bd dd 71 76 3e 3d b1 6f be
       0.24075463 -0.08219861 0.24066873 -0.23407455
0002d0 b8 21 dd 3c a0 e5 76 3e 5f 3d 9b 3c f5 25 b5 3d
       0.026993617 0.24111032 0.018950162 0.0884513
0002e0 6f 2e 55 3d 8f e0 d3 3d 82 34 a9 3e 9f cf 65 3e
       0.052046236 0.103455655 0.33047873 0.22442482
0002f0 b5 a5 32 3e 70 83 c9 bc f7 2f 8b bd 0f e9 70 3e
       0.17446025 -0.024598807 -0.06796258 0.23526405
000300 2f e4 20 3e 32 d4 69 be 80 8a 01 bc aa d2 5b 3d
       0.15712045 -0.22834852 -0.007906556 0.0536677
000310 cc c8 40 be bb 0a 93 bd c8 73 56 bd 4b 48 e4 bd
       -0.18826598 -0.07179781 -0.05235651 -0.11146601
000320 18 78 b4 3c 1c 07 5a 3e 9d c4 22 3e b5 8a 61 bd
       0.022029921 0.21291775 0.15895315 -0.055063922
000330 4f a9 be bc fb 54 73 bd 90 ea d2 bc 06 d8 4d 3e
       -0.023274092 -0.059407216 -0.025746614 0.20101938
000340 cb 61 fa 3b 4d dc 7b bc 3d 70 54 be 75 1a 7f be
       0.0076410524 -0.015372348 -0.2074594 -0.24912436
000350 04 8b 11 be fd 2a ea 3d 8b 66 2f 3e 72 f9 44 3e
       -0.14213187 0.114339806 0.17128961 0.19235781
000360 97 5d 73 3e 62 68 92 3d 93 58 20 3d 49 17 55 be
       0.2376617 0.07148816 0.03914697 -0.20809664
000370 e7 e5 4f bd 73 81 79 3d 59 94 25 bd 41 7d 9a be
       -0.05075636 0.060914468 -0.04042468 -0.30173686
000380 c1 ad 49 3e 6d 34 b4 3c b9 27 67 bd e3 2c f1 bd
       0.19695188 0.021997655 -0.056434367 -0.117761396
000390 15 c5 8f 3e 56 bc bf bc bf ea 57 be e4 64 07 3e
       0.2808005 -0.023405235 -0.21085642 0.1322208
0003a0 14 91 aa be f4 a8 60 3e 1c 6f d3 bd 55 8a 85 3d
       -0.3331381 0.2193945 -0.10323927 0.06520525
0003b0 78 76 eb 3d f2 be 3f be ea 68 1f be 4b b3 81 bd
       0.114972055 -0.18725184 -0.15567365 -0.063330255
0003c0 df e4 99 bd 42 34 cc 3d 7d 61 b8 bd 6f c2 28 3e
       -0.07514357 0.09970905 -0.090029694 0.1648042
0003d0 f5 21 4e 3d 8c c2 94 3d 9d fd 10 bd 01 53 4a 3e
       0.050325353 0.07263669 -0.035398114 0.19758226
0003e0 54 9e e1 bd 14 6d 0c be 4b de 63 3e 9c 6b b4 3d
       -0.11016527 -0.13713485 0.22252767 0.08809587
0003f0 31 8f 17 3e ea 9e 57 bc 0f 11 82 3d f4 05 3a 3e
       0.14800717 -0.013160447 0.0635091 0.18166333
