results/7_model_3_case_2_zoom/epoch1400/model_weights.pth (torch, 484214 bytes, 88 tensors)

init_layer.0.weight f4 [64, 3]
-0.08030898 -0.06923944 0.36358082 0.08064696 0.06804399 0.34766266 0.012874715 -0.22936997
-0.21163538 0.17886454 -0.022045178 0.01892925 -0.038522407 0.037862968 0.6627243 -0.15504509
-0.394824 0.18061028 0.25167257 -0.018815424 0.43938008 0.20220219 0.22949147 0.27165955
0.32657284 -0.38335228 0.13368037 -0.11043628 -0.09311611 0.43482214 -0.07171998 0.00903859
-0.49896353 0.10955389 0.07909109 -0.8606152 -0.012294226 0.0070885634 0.66597664 0.009802589
0.013800046 1.1959827 0.1296244 -0.32571632 0.101328306 0.01923035 0.005665448 -1.1741813
0.098350674 -0.053980898 0.27494207 0.20410512 0.28592363 -0.2454938 0.01759099 -0.007751981
-0.39326954 -0.080030926 0.074818574 -0.48302326 0.028111467 -0.1115968 -0.6969628 0.18177177
-0.0133518865 -0.18436092 0.14790407 -0.1244917 -0.47195134 -0.040189695 0.29139143 -0.044676825
0.0010636002 0.0015793993 0.9489725 0.0027041843 0.05351257 -0.31213203 -0.041618448 -0.022872422
1.0611005 -0.15835471 -0.300856 0.41091555 0.05561436 0.07111984 -0.5969182 0.008899914
-0.26044473 0.19680746 -0.24156983 -0.16507311 -0.45467797 -0.035109464 0.05370535 0.46888754
-0.09672336 0.12471556 0.76680946 -0.52601004 0.2765643 -0.08329088 -0.0028810303 -0.028356876
-0.35565054 -0.028891923 -0.012774006 -0.7171569 0.014562528 -0.004218076 -0.409408 -0.09471122
-0.035194397 -0.3840408 0.095335945 0.06355045 1.5906141 -0.1623572 0.40029347 0.19581737
0.11456418 0.052587412 -0.5148281 -0.03585957 -0.013429058 -1.0116271 0.11666263 -0.010232792
0.2690591 -0.0034780432 -0.04616065 0.8344442 0.08076111 -0.34069404 -0.31201392 -0.17143303
-0.13850887 0.19966967 -0.021249574 -0.061008334 0.38419724 0.113033004 0.2551836 -0.025236478
0.24784185 0.33760887 0.20789595 0.06666897 -0.28540555 0.18332644 -0.08876885 -0.034264285
-0.5384319 -0.2698573 -0.4052438 -0.033137277 0.2172982 -0.21921368 0.39710787 -0.14833337
-0.12336629 0.58235633 0.11334018 -0.19860846 -0.38947016 0.10691138 -0.012951792 0.75942224
0.07870951 0.04573348 0.29469106 0.01799405 -0.026343077 0.359161 0.13573651 0.30880737
0.12457139 0.13084865 0.20037329 -0.43805116 -0.12874904 -0.19505595 -0.24583453 -0.07759896
0.035560787 -0.2727729 0.14648883 -0.015339567 -0.13187416 0.13634095 0.02828463 0.2668689
00000000: 0979 a4bd 68cd 8dbd 4427 ba3e 3c2a a53d
00000010: a65a 8b3d d700 b23e 78f0 523c f6df 6abe
00000020: f2b6 58be 4428 373e 1798 b4bc 8411 9b3c
00000030: acc9 1dbd 3316 1b3d 4da8 293f 24c4 1ebe
00000040: 5f26 cabe e7f1 383e 3adb 803e ce22 9abc
00000050: 6df6 e03e 170e 4f3e d0ff 6a3e f616 8b3e
00000060: 8e34 a73e c046 c4be 82e3 083e 6b2c e2bd
00000070: a9b3 bebd 02a1 de3e ede1 92bd 9816 143c
00000080: 2678 ffbe ca5d e03d 82fa a13d 4751 5cbf
00000090: b96d 49bc 2e47 e83b 727d 2a3f 0a9b 203c
000000a0: 9719 623c f615 993f 42bc 043e 4ac4 a6be
000000b0: 3785 cf3d f888 9d3c 39a5 b93b 934b 96bf
000000c0: 146c c93d 131b 5dbd 35c5 8c3e ef00 513e
000000d0: 9564 923e ba62 7bbe fb1a 903c 5404 febb
000000e0: a05a c9be 41e7 a3bd 7b3a 993d d34e f7be
000000f0: 054a e63c dd8c e4bd 276c 32bf 6122 3a3e
00000100: dfc1 5abc 1cc9 3cbe 2a74 173e 81f5 febd
00000110: 9ba3 f1be f39d 24bd 4231 953e 0cff 36bd
00000120: 8068 8b3a d903 cf3a ddef 723f af38 313b
00000130: ff2f 5b3d c5cf 9fbe 1b78 2abd f25e bbbc
00000140: 24d2 873f bd27 22be cc09 9abe 8663 d23e
00000150: e2cb 633d 47a7 913d a2cf 18bf f2d0 113c
00000160: 0359 85be e587 493e 155e 77be ed08 29be
00000170: 8dcb e8be f1ce 0fbd 24fa 5b3d 0712 f03e
00000180: e616 c6bd df6a ff3d a04d 443f 98a8 06bf
00000190: d699 8d3e 6994 aabd abcf 3cbb ae4c e8bc
000001a0: d417 b6be c1ae ecbc 114a 51bc 9897 37bf
000001b0: ab97 6e3c c937 8abb ed9d d1be f5f7 c1bd
000001c0: 0028 10bd ffa0 c4be 7e3f c33d bd26 823d
000001d0: 3e99 cb3f f740 26be 44f3 cc3e 5984 483e
000001e0: a0a0 ea3d e665 573d c6cb 03bf 7ce1 12bd
000001f0: 8d05 5cbc ff7c 81bf d1ec ee3d 71a7 27bc
00000200: 1dc2 893e e2ef 63bb f312 3dbd 239e 553f
00000210: 1566 a53d 736f aebe 4ac0 9fbe 248c 2fbe
00000220: 45d5 0dbe 3576 4c3e 9613 aebc e0e3 79bd
00000230: 80b5 c43e d97d e73d 6da7 823e bbbc cebc
00000240: 41ca 7d3e 12db ac3e ade2 543e be89 883d
00000250: ad20 92be edb9 3b3e 71cc b5bd b558 0cbd
00000260: acd6 09bf bc2a 8abe 1e7c cfbe f4ba 07bd
00000270: 6b83 5e3e 8d79 60be b951 cb3e b4e4 17be
00000280: 77a7 fcbd 4e15 153f e51e e83d 0460 4bbe
00000290: a268 c7be 5bf4 da3d c133 54bc 7f69 423f
000002a0: 7432 a13d 0853 3b3d bfe1 963e 4268 933c
000002b0: 70cd d7bc f3e3 b73e 83fe 0a3e 001c 9e3e
000002c0: 491f ff3d 30fd 053e a82e 4d3e 3e48 e0be
000002d0: cad6 03be bfbc 47be 0cbc 7bbe 34ec 9ebd
000002e0: 30a8 113d e4a8 8bbe 2b01 163e cf52 7bbc
000002f0: 050a 07be f69c 0b3e 2bb5 e73c 0aa3 883e

init_layer.0.bias f4 [64]
-0.4262812 -0.111008555 -0.30668798 0.37523872 -0.33720374 -0.12487445 0.0063906163 -0.3975562
-0.14345811 -0.31491908 0.06598803 -0.9578428 0.6470758 1.5581245 0.106314756 -0.027501635
-0.35033375 0.1409501 0.4453956 -0.012638274 -0.18873912 0.08157053 -0.5430381 0.22988716
1.1910993 0.19605245 0.27963316 0.3292823 0.1224879 0.008489183 -0.49663314 -0.4331855
0.013434337 -0.23182967 0.3638024 -0.2994591 0.43862602 0.38656458 0.6053527 0.26366213
0.35527298 -1.2201303 -0.35619172 -0.050979294 0.13589124 -0.3401584 0.3478721 -0.26158622
-0.0057915547 -0.22207226 -0.3328518 -0.13600996 0.42881796 0.50512433 0.25428483 0.31355527
-0.43111667 -0.36844388 -0.1359611 -0.2905101 -0.038188323 0.20117627 0.26650324 -0.33952636
00000000: 8841 dabe 7458 e3bd 3506 9dbe 4a1f c03e
00000010: f8a5 acbe 2dbe ffbd 6068 d13b 7c8c cbbe
00000020: afe6 12be 133d a1be bb24 873d 3035 75bf
00000030: c2a6 253f a070 c73f 8dbb d93d 1c4b e1bc
00000040: f25e b3be 3955 103e e40a e43e c310 4fbc
00000050: d444 41be 730e a73d 8b04 0bbf 8a67 6b3e
00000060: f175 983f f9c1 483e 142c 8f3e b197 a83e
00000070: f0da fa3d 3716 0b3c b346 febe 7dca ddbe
00000080: b21b 5c3c c264 6dbe 4f44 ba3e b452 99be
00000090: 9793 e03e cbeb c53e 65f8 1a3f b9fe 863e
000000a0: 57e6 b53e 3b2d 9cbf c35e b6be aacf 50bd
000000b0: 1327 0b3e 3e29 aebe 4b1c b23e a1ee 85be
000000c0: 15c7 bdbb e966 63be 8d6b aabe 3246 0bbe
000000d0: 078e db3e d44f 013f 9f31 823e 518a a03e
000000e0: 53bb dcbe ada4 bcbe 6339 0bbe bdbd 94be
000000f0: 5c6b 1cbd 2701 4e3e 1d73 883e 66d6 adbe

hiden_layers.0.weight f4 [64, 64]
-0.13307057 0.07665944 -0.46356294 0.120352276 -0.12958129 -0.011436135 0.08757672 -0.30243838
0.22755429 -0.009090143 -0.28912786 -0.9020034 2.4316354 1.3712851 0.34180593 -0.5049525
-0.13295826 -0.09651714 -0.00830464 -0.41631353 -0.6476838 -0.07150299 -1.322051 0.006809965
1.194432 -0.07676439 0.51578087 0.46362615 -0.30991077 0.14716434 -0.605492 -0.075531036
0.16005611 0.005489911 0.14668508 -0.62650204 0.0486567 0.032293152 0.9184267 0.6094538
-0.0056217746 -2.027414 -0.022349477 0.2991842 -0.16632336 -0.08966267 1.0622311 -0.42541713
0.26338738 -0.17038207 -1.0349106 -0.038872894 0.45010754 0.5997394 0.11005843 0.9467152
-0.26653227 -0.112426 -0.13539794 -0.49677387 -0.34955066 -0.11435273 0.0042271 -0.22470517
-0.2905445 -0.21193856 -0.22677031 0.20761885 -0.33673623 -0.19137946 0.09911636 -0.27612424
0.013800876 -0.43993628 0.22830357 -0.17499635 0.062840186 0.056403518 0.10883597 0.18100074
-0.24163121 0.32345515 0.43430883 0.018891798 -0.097395584 -0.10606895 0.058955114 0.21800733
-0.022073422 0.06038812 0.25496238 0.12729058 0.24877249 0.03585666 -0.15849766 -0.5150388
-0.09999105 0.046649303 0.5800747 0.11207441 0.9135408 0.10345797 -0.064705975 0.1344105
0.11426902 -0.10233337 -0.43323213 -0.014874288 0.29938155 -0.31734815 0.22191507 -0.2072279
-0.05293333 -0.18164116 -0.10875237 -0.13176206 0.17076685 -0.14175586 0.37081215 0.1353717
-0.4184612 -0.38758886 -0.2215056 -0.16311279 0.17775953 0.3170783 0.22649403 -0.2079691
0.08590217 -0.05973488 0.18173957 0.00933329 -0.19668135 -0.007383799 0.019426446 -0.14473827
0.08209824 -0.07497412 -0.03481134 0.17793998 0.10671069 -0.21384804 0.21548122 -0.13068171
-0.10687898 -0.13044596 0.057354763 -0.05381172 0.007165129 -0.07997968 -0.12768252 -0.033563714
-0.011739663 -0.110149406 -0.029420117 0.17575464 -0.027753288 -0.15394908 0.21294376 0.22027601
-0.15977162 -0.15737961 0.1942171 0.1951965 -0.08716739 -0.1422205 0.0014052115 0.010395635
-0.1879391 -0.01671682 0.19085748 0.20607808 0.20060389 -0.0076877614 -0.03224362 -0.019147683
0.017760104 0.07966602 -0.11821875 -0.07908844 0.043301344 -0.085754216 -0.13845645 0.053214703
-0.22143064 0.15286618 -0.16734537 -0.11454257 0.17412642 -0.17051043 -0.079174705 0.16928624
-0.7716889 -0.51894057 -0.009027259 0.3630422 -0.60100794 -0.4033321 -0.77359784 -0.76320684
-0.4293393 -1.0737036 0.40884927 0.35477698 0.016708517 -0.4789847 0.17339861 0.24667
-1.1049091 0.6432699 1.9269024 0.2568081 0.30693865 0.3524637 -0.15882824 0.2923956
-0.18555486 0.58697975 -0.10145974 -0.28494173 0.93248105 -0.6340555 0.011460285 -1.6347106
-0.8571455 -0.07283773 1.2015722 0.2094509 1.9267235 0.5281195 -0.46173206 -0.19613104
0.7318924 0.058301356 -0.9522946 -0.5947235 0.8463007 -0.2778514 0.34831548 -0.33470473
-0.1107908 -0.73252636 0.306115 0.107266724 0.038919386 -0.08513164 1.284711 -0.09779407
-1.1761509 -1.494796 -0.43918937 0.4097614 -0.06776354 0.7307625 0.52812433 -0.7262972
00000000: a743 08be a0ff 9c3d 1f58 edbe 417b f63d
00000010: f5b0 04be a05e 3bbc 6c5b b33d 34d9 9abe
00000020: fe03 693e d3ee 14bc 9108 94be b2e9 66bf
00000030: ea9f 1b40 4586 af3f 3001 af3e 9144 01bf
00000040: 3626 08be c7aa c5bd 2f10 08bc 0c27 d5be
00000050: 9bce 25bf 2970 92bd f838 a9bf 2026 df3b
00000060: 26e3 983f a636 9dbd 370a 043f 6860 ed3e
00000070: a0ac 9ebe 40b2 163e 8601 1bbf 04b0 9abd
00000080: c0e5 233e b6e4 b33b 9d34 163e 7062 20bf
00000090: 3f4c 473d d345 043d 031e 6b3f 2a05 1c3f
000000a0: dd36 b8bb 27c1 01c0 4016 b7bc ac2e 993e
000000b0: ac50 2abe 10a1 b7bd 30f7 873f 46d0 d9be
000000c0: b6da 863e a378 2ebe f377 84bf 2f39 1fbd
000000d0: 7f74 e63e 8588 193f 5066 e13d ed5b 723f
000000e0: eb76 88be 9a3f e6bd c2a5 0abe 2559 febe
000000f0: 4ef8 b2be c431 eabd 7c83 8a3b 1d19 66be
00000100: 40c2 94be 6c06 59be 7a36 68be 099a 543e
00000110: b168 acbe faf8 43be 85fd ca3d 2860 8dbe
00000120: 121d 623c 543f e1be 69c8 693e 3e32 33be
00000130: 5bb2 803d 6007 673d 65e5 de3d 4258 393e
00000140: 2c6e 77be ea9b a53e ba5d de3e f9c2 9a3c
00000150: 5677 c7bd ad3a d9bd eb7a 713d 503d 5f3e
00000160: 52d3 b4bc 8959 773d 6e8a 823e 7658 023e
00000170: 37be 7e3e 6fde 123d 364d 22be 95d9 03bf
00000180: 1cc8 ccbd 5713 3f3d c77f 143f 4587 e53d
00000190: cfdd 693f c6e1 d33d 9184 84bd e8a2 093e
000001a0: e005 ea3d 2894 d1bd 9ad0 ddbe 49b3 73bc
000001b0: 8a48 993e 757b a2be b43d 633e 8d33 54be
000001c0: 9fd0 58bd 2400 3abe 90b9 debd a2ec 06be
000001d0: 81dd 2e3e 7328 11be 17db bd3e e19e 0a3e
000001e0: 8c40 d6be 0c72 c6be 5dd2 62be 0a07 27be
000001f0: 9806 363e 1658 a23e 0dee 673e daf5 54be
00000200: 7aed af3d 90ac 74bd f019 3a3e a8ea 183c
00000210: d666 49be ccf3 f1bb 3624 9f3c 4536 14be
00000220: 1f23 a83d 088c 99bd 5696 0ebd e635 363e
00000230: 228b da3d fbfa 5abe 1ca7 5c3e 6dd1 05be
00000240: 5ee3 dabd a093 05be d4ec 6a3d ae69 5cbd
00000250: 75c9 ea3b 63cc a3bd 35bf 02be 1b7a 09bd
00000260: b757 40bc 0396 e1bd 7502 f1bc 06f9 333e
00000270: dd5a e3bc d4a4 1dbe ee0d 5a3e 0990 613e
00000280: 2c9b 23be 1f28 21be d9e0 463e 97e1 473e
00000290: d184 b2bd 40a2 11be 132f b83a 7452 2a3c
000002a0: 1c73 40be b6f1 88bc 2570 433e 2206 533e
000002b0: 1b6b 4d3e 9ee9 fbbb e311 04bd 9adb 9cbc
000002c0: a37d 913c f027 a33d ac1c f2bd 1ff9 a1bd
000002d0: c05c 313d e89f afbd 87c7 0dbe a9f7 593d
000002e0: b7be 62be f488 1c3e 965c 2bbe 4c95 eabd
000002f0: 324e 323e 499a 2ebe 5926 a2bd 5f59 2d3e
00000300: 678d 45bf 4ad9 04bf 12e7 13bc abe0 b93e
00000310: a8db 19bf 8c81 cebe 820a 46bf 8661 43bf
00000320: 5cd2 dbbe 1f6f 89bf b154 d13e 54a5 b53e
00000330: 4de0 883c 7c3d f5be 688f 313e 0f97 7c3e
00000340: a96d 8dbf 56ad 243f bda4 f63f 5a7c 833e
00000350: 1027 9d3e 1f76 b43e dfa3 22be e0b4 953e
00000360: 1802 3ebe 4e44 163f 20ca cfbd e2e3 91be
00000370: 14b7 6e3f 7651 22bf ebc3 3b3c 323e d1bf
00000380: e36d 5bbf f32b 95bd 1ecd 993f 4c7a 563e
00000390: e09e f63f d732 073f 2568 ecbe 93d6 48be
000003a0: 4d5d 3b3f 67cd 6e3d 94c9 73bf cd3f 18bf
000003b0: 2aa7 583f 8a42 8ebe 6856 b23e 6b5e abbe
000003c0: 49e6 e2bd d986 3bbf 1bbb 9c3e a8ae db3d
000003d0: ef69 1f3d 7f59 aebd 6971 a43f 4248 c8bd
000003e0: 1d8c 96bf 7a55 bfbf 6edd e0be 3fcc d13e
000003f0: 9cc7 8abd 4013 3b3f 2833 073f 9dee 39bf

hiden_layers.0.bias f4 [64]
0.3981441 0.3004317 -0.018299835 0.49272707 0.14051212 0.15408367 0.14008002 -0.07352225
-0.04110657 0.31754196 0.07020032 -0.20315027 -0.11519319 0.017189512 0.23974988 -0.1752159
-0.16897963 -0.079504624 0.077675335 0.06248975 0.07943091 -0.18544945 -0.02104487 -0.12035162
-0.007440616 0.01340718 0.07277695 0.02435274 0.27768573 0.0128578115 -0.04734777 -0.15810743
0.04098636 0.019100191 -0.12716655 0.021686632 0.01569327 0.18647897 0.0062887194 -0.079873174
0.027518643 0.21538807 -0.11695857 -0.05770273 -0.1164702 -0.13760781 -0.047241535 -0.20182368
0.17328663 0.38692126 0.23808062 -0.11294744 0.2421646 0.004122059 0.10418805 -0.05019933
-0.11895399 0.101182766 -0.15781133 0.020930916 -0.18424453 -0.010912889 -0.045962956 -0.094504446
00000000: 8bd9 cb3e 2fd2 993e 89e9 95bc b946 fc3e
00000010: 69e2 0f3e 1cc8 1d3e 2371 0f3e d592 96bd
00000020: 5d5f 28bd dc94 a23e 2fc5 8f3d a006 50be
00000030: 68ea ebbd 05d1 8c3c fe80 753e cc6b 33be
00000040: ff08 2dbe 52d3 a2bd 3f14 9f3d 41f5 7f3d
00000050: acac a23d 76e6 3dbe 4b66 acbc e97a f6bd
00000060: 69d0 f3bb caa9 5b3c 150c 953d 667f c73c
00000070: d32c 8e3e 92a9 523c bcef 41bd eae6 21be
00000080: 50e1 273d 0178 9c3c f337 02be 2aa8 b13c
00000090: 2c8f 803c 58f4 3e3e 9a11 ce3b 8c94 a3bd
000000a0: c76e e13c b18e 5c3e fa87 efbd b359 6cbd
000000b0: ee87 eebd 10e9 0cbe 5780 41bd deaa 4ebe
000000c0: 0d72 313e 8b1a c63e 68cb 733e fd50 e7bd
000000d0: fff9 773e 5612 873b 8b60 d53d d09d 4dbd
000000e0: 269e f3bd e938 cf3d 4b99 21be 5077 ab3c
000000f0: 99aa 3cbe f9cb 32bc a743 3cbd 8c8b c1bd

hiden_layers.1.weight f4 [64, 64]
-0.13001421 0.026942598 -0.19832022 0.19393702 -0.28317386 0.16948572 -0.10878785 -0.021401163
0.116413094 0.032382306 -0.062320206 -0.10629497 0.01728481 0.01157669 0.0096843755 -0.01471873
0.06293263 0.16306368 0.14458513 0.058054537 0.2687884 -0.06715202 0.008581628 -0.117846094
0.001201682 -0.21191646 0.06338399 0.3087944 0.025918748 -0.038455114 -0.0403094 0.12591998
-0.34148937 0.19844815 -0.2556745 -0.18561336 -0.078324914 0.011557136 0.02739358 0.14262411
0.09850268 0.11813066 -0.10517362 0.20511542 0.17851594 0.058564283 0.12695503 -0.1843691
-0.09744649 -0.14236182 -0.08989996 0.092463225 0.031679135 -0.051123645 -0.012786172 -0.25321048
0.20698984 -0.11440089 -0.21972565 0.08775967 0.08859436 0.13443169 0.041492455 -0.15979868
0.19061425 0.13643868 -0.4761818 -0.15336989 -0.11865235 0.9660922 -0.17351861 -0.16429538
-0.08124145 -0.14439914 0.40087795 -0.009231027 0.03938169 0.06481594 0.22189015 -0.09114698
0.16451557 -0.54422027 0.1956251 0.2785159 0.03234317 0.22799593 -0.17917061 -0.13052337
0.254297 -0.029127644 -0.48715937 -0.09063908 0.08509784 -0.16108835 -0.15881182 -0.08115918
-0.1786367 -0.088625655 -0.19952644 0.15814972 0.092016056 0.006918307 -0.6597638 -0.007308731
-0.076475464 -0.09926501 -0.7057446 -0.15567337 0.10488591 -0.120118715 0.017113632 -0.3330611
0.8897259 0.12124174 0.012016178 -0.12575996 0.10361586 0.050342266 -0.050243143 0.023733512
-0.31031594 0.5018871 -0.2745014 0.082730725 -0.041791018 -0.04111627 0.06437113 -0.034171727
0.0634474 0.41219673 -0.013263608 0.36594924 0.07814498 0.24088073 -0.09203039 0.16173086
0.059056543 -0.09314571 -0.20870599 -0.034474444 0.019535182 0.033252206 0.18025571 0.07436521
-0.19783199 -0.07174238 0.0683564 -0.06514425 -0.036758315 -0.18239096 -0.27151036 -0.2174806
-0.015161782 0.25521314 -0.0046415795 -0.091279835 0.031341873 0.18233204 0.14829937 0.19074275
0.20023796 -0.19472483 0.051247444 -0.18807466 0.062052686 -0.17807642 0.07016175 -0.15803291
-0.14578852 -0.20805742 -0.16076282 -0.12981023 0.016155895 0.15951967 -0.14925542 0.04025908
-0.07118596 0.033427108 0.078237146 -0.18714781 0.022961332 -0.18092248 0.09029991 -0.018175935
-0.11629057 0.18570855 -0.15558651 0.046691857 -0.030468225 0.06292385 0.024103777 -0.057646926
0.07008987 -0.038488954 -0.19112587 0.30092925 0.20723182 -0.14712489 -0.083935544 -0.09266431
-0.020129079 0.21206288 -0.13948064 0.21657178 0.19806677 0.08490683 -0.1273101 0.1150925
-0.032968156 -0.08209584 0.07539476 0.11828643 0.03979435 -0.40735883 0.1430593 0.1666862
0.06162879 0.108259216 0.1368144 -0.05932965 0.008210545 0.16151893 0.094123684 0.1242947
0.13252825 -0.0035443706 -0.2939465 0.05290249 0.05096219 -0.01406353 0.27396762 0.17672807
0.06850018 -0.074825175 0.09992358 0.096055724 -0.10849686 -0.024217695 -0.14970323 -0.12653407
0.043202788 0.17976597 -0.039252833 0.045063164 0.13097225 -0.023133477 -0.18866326 -0.09168766
-0.09279465 -0.076695345 0.14307909 0.0025824006 -0.16934049 0.2736096 0.04287659 -0.17520691
00000000: 7222 05be b9b6 dc3c 7514 4bbe 6d97 463e
00000010: 2afc 90be aa8d 2d3e 2acc debd 7e51 afbc
00000020: fd69 ee3d 4fa3 043d 7943 7fbd 2db1 d9bd
00000030: e098 8d3c 28ac 3d3c 37ab 1e3c d426 71bc
00000040: d3e2 803d 2afa 263e 200e 143e 98ca 6d3d
00000050: a29e 893e 0087 89bd f599 0c3c 4b59 f1bd
00000060: c281 9d3a a100 59be 77cf 813d 4d1a 9e3e
00000070: 8e53 d43c 1c83 1dbd 781b 25bd 2bf1 003e
00000080: b2d7 aebe fe35 4b3e c5e7 82be 6e11 3ebe
00000090: d068 a0bd 245a 3d3c 8068 e03c 0e0c 123e
000000a0: c6bb c93d 7dee f13d 4465 d7bd c709 523e
000000b0: e2cc 363e 1ae1 6f3d 8000 023e 41cb 3cbe
000000c0: 0692 c7bd 4cc7 11be 781d b8bd 5c5d bd3d
000000d0: fbc1 013d 0767 51bd 187d 51bc cea4 81be
000000e0: 25f5 533e 044b eabd c3ff 60be 58bb b33d
000000f0: f670 b53d 76a8 093e fef3 293d 44a2 23be
00000100: 6230 433e 95b6 0b3e 1ace f3be ff0c 1dbe
00000110: 0100 f3bd d251 773f ddae 31be 0c3d 28be
00000120: eb61 a6bd 5edd 13be e03f cd3e bc3d 17bc
00000130: b24e 213d 38be 843d 2c37 633e 45ab babd
00000140: c576 283e 0552 0bbf f251 483e a399 8e3e
00000150: 467a 043d c477 693e 8078 37be eba7 05be
00000160: 3733 823e 199d eebc f46c f9be fba0 b9bd
00000170: c747 ae3d 58f4 24be 919f 22be c936 a6bd
00000180: 8aec 36be 5e81 b5bd a950 4cbe 00f2 213e
00000190: ea72 bc3d f7b2 e23b 48e6 28bf 147e efbb
000001a0: 2b9f 9cbd 744b cbbd aeab 34bf d768 1fbe
000001b0: 6dce d63d cd00 f6bd e331 8c3c fc86 aabe
000001c0: 14c5 633f 974d f83d 81df 443c 38c7 00be
000001d0: 8d34 d43d b133 4e3d c1cb 4dbd c86c c23c
000001e0: bbe1 9ebe ac7b 003f 738b 8cbe ba6e a93d
000001f0: 0f2d 2bbd 8969 28bd 03d5 833d a7f7 0bbd
00000200: b6f0 813d 730b d33e 9b4f 59bc b35d bb3e
00000210: 7a0a a03d 70a9 763e 6e7a bcbd c69c 253e
00000220: 46e5 713d 2ec3 bebd 06b7 55be 1335 0dbd
00000230: 3f08 a03c 7733 083d f494 383e ca4c 983d
00000240: 7894 4abe abed 92bd 71fe 8b3d 596a 85bd
00000250: e38f 16bd b2c4 3abe 6803 8bbe 3cb3 5ebe
00000260: 1f69 78bc 4cab 823e 6418 98bb ecf0 babd
00000270: 5660 003d 40b5 3a3e cadb 173e 1152 433e
00000280: 2e0b 4d3e f265 47be d7e8 513d a596 40be
00000290: f52a 7e3d aa59 36be f7b0 8f3d 61d3 21be
000002a0: 9649 15be 010d 55be 029f 24be f9ec 04be
000002b0: 5e59 843c 2059 233e 6ad6 18be b4e6 243d
000002c0: f2c9 91bd ddea 083d cc3a a03d ada3 3fbe
000002d0: 6719 bc3c be43 39be 29ef b83d b3e5 94bc
000002e0: c029 eebd 622a 3e3e 1252 1fbe f63f 3f3d
000002f0: 8098 f9bc 38de 803d 4975 c53c 2f1f 6cbd
00000300: 478b 8f3d 98a6 1dbd 80b6 43be 6613 9a3e
00000310: 9434 543e e8a7 16be 66e6 abbd c9c6 bdbd
00000320: bde5 a4bc 0327 593e 03d4 0ebe fec4 5d3e
00000330: 04d2 4a3e a2e3 ad3d 945d 02be 9eb5 eb3d
00000340: 9e09 07bd dd21 a8bd 9168 9a3d 2840 f23d
00000350: 66ff 223d 5691 d0be 237e 123e caaf 2a3e
00000360: 786e 7c3d 02b7 dd3d 1319 0c3e a603 73bd
00000370: 8685 063c 3865 253e ebc3 c03d 388e fe3d
00000380: 7cb5 073e ac48 68bb 2880 96be 48b0 583d
00000390: bbbd 503d b86a 66bc 7c45 8c3e 34f8 343e
000003a0: d349 8c3d f13d 99bd bca4 cc3d ddb8 c43d
000003b0: 9a33 debd 3064 c6bc ce4b 19be 2692 01be
000003c0: 68f5 303d 9214 383e 94c7 20bd 2794 383d
000003d0: 971d 063e 6b82 bdbc f130 41be bdc6 bbbd
000003e0: 1f0b bebd 7312 9dbd 5383 123e 7e3d 293b
000003f0: 9867 2dbe 8f16 8c3e 5d9f 2f3d 7169 33be

hiden_layers.1.bias f4 [64]
-0.055815708 0.10654405 0.06933582 -0.006180236 -0.14756522 0.037367005 -0.018673033 0.16859324
0.03162211 0.10971666 0.027955776 -0.006997025 0.017586913 0.019951373 -0.014268754 -0.022293583
-0.021097314 0.039523516 -0.0783369 -0.055268798 -0.0873607 0.058163848 -0.058385637 0.014888173
0.043073792 -0.010097231 0.02079278 -0.031203737 -0.26349422 -0.107486024 -0.091174945 -0.020510368
-0.03380871 0.003119529 -0.062796056 0.06625868 -0.07684484 -0.23851137 0.0044903825 0.05061775
0.05992602 -0.06049069 0.12490127 -0.04160988 -0.11861369 0.015274219 -0.018141393 0.010935604
-0.08461601 -0.030937422 0.041886225 0.01692994 0.15566856 -0.1250704 -0.029707097 -0.014109563
-0.019560482 0.0754915 -0.20622338 0.0033014733 -0.24378406 -0.022389874 -0.10863145 0.03486549
00000000: 039f 64bd c433 da3d f0ff 8d3d 9483 cabb
00000010: 561b 17be 250e 193d 30f8 98bc b5a3 2c3e
00000020: 3086 013d 21b3 e03d 8303 e53c 4d47 e5bb
00000030: 6e12 903c 1071 a33c 7ec7 69bc 08a1 b6bc
00000040: 46d4 acbc 69e3 213d 196f a0bd 8961 62bd
00000050: 2bea b2bd 373d 6e3d c725 6fbd 86ed 733c
00000060: 256e 303d db6e 25bc 9f55 aa3c fb9e ffbc
00000070: b7e8 86be a221 dcbd eeb9 babd 5c05 a8bc
00000080: 007b 0abd 0371 4c3b 389b 80bd a1b2 873d
00000090: d460 9dbd 533c 74be 0f24 933b 8f54 4f3d
000000a0: fd74 753d 16c5 77bd 3dcc ff3d 1f6f 2abd
000000b0: bceb f2bd b840 7a3c 429d 94bc 3f2b 333c
000000c0: 294b adbd 7a70 fdbc e490 2b3d a8b0 8a3c
000000d0: 9467 1f3e 7412 00be 4c5c f3bc cc2b 67bc
000000e0: 4e3d a0bc 4a9b 9a3d 392c 53be 885d 583b
000000f0: 87a2 79be f86a b7bc 2a7a debd 1ecf 0e3d

hiden_layers.2.weight f4 [64, 64]
-0.37504253 0.1983736 -0.41608495 -0.3215434 0.061529167 -0.12479217 -1.7788457 -0.16252896
-0.24270557 -0.016591433 0.23398022 0.102750875 -0.68309116 0.15550551 -0.07123129 0.27339607
-0.38569948 -0.008015501 -0.07455878 -0.12399037 0.3449391 0.14114986 -0.066815615 0.12233621
-0.06439945 -0.16945435 -0.039128084 -0.035861697 0.0036910903 -0.32477912 0.1570338 0.4472718
-0.18045337 0.043976374 -0.10828882 -0.115716904 0.18618667 0.5170916 0.32485905 0.014213895
0.34728354 -0.01423206 0.080311395 0.0945186 0.1222875 -0.21637435 0.078792304 0.18980084
0.22938554 -0.032449175 -0.18869562 -0.36440122 -0.11338734 0.11460891 0.015821308 0.30454794
-0.3344667 0.12318067 0.25609642 0.8056885 0.05040454 0.0058505707 0.18308266 0.11137997
0.052873258 0.30580336 0.12168527 0.12677203 0.16268916 0.1335095 0.2776605 0.17236602
0.05297578 0.21300487 0.24199839 0.10165427 -0.21868859 -0.11930475 0.031011755 0.1927399
-0.2689494 0.16090176 -0.28903645 -0.052910462 0.12224106 -0.10423245 -0.060991425 -0.15229174
0.06606276 0.14212427 0.12561119 0.01400257 -0.07450594 0.116651274 -0.043760158 -0.12876318
0.046557236 0.15036319 -0.118543655 0.22096819 0.19242343 -0.10958481 0.08625366 -0.18973258
-0.34881842 -0.122005776 -0.041687287 0.06620517 0.14322679 -0.18916094 -0.18920946 0.23899116
-0.11807325 0.4387371 -0.13996072 -0.10017482 -0.10193183 0.20387761 -0.012439976 -0.18496417
0.056389987 -0.03296886 -0.15578736 0.15596753 0.009742765 0.16432427 0.105492234 0.024442792
0.27188617 -0.056764804 -0.1872904 -0.1510549 0.120892756 0.10231321 0.13682099 0.027503759
-0.15944056 0.20012523 -0.0990914 0.13893145 0.32157975 0.21687795 -0.17139001 0.034903545
0.14859308 0.073125556 0.1371937 -0.31148076 -0.01280191 0.123254366 0.25308937 -0.17372467
-0.0528208 -0.07069273 -0.101824954 -0.23120025 0.08506535 0.047909074 -0.014957135 0.41990754
0.02051061 -0.055605832 0.09653948 0.015006538 0.2743756 -0.018338904 -0.16505642 0.02622468
0.1577447 0.13323607 0.021306798 -0.06761426 0.2870527 0.011677757 -0.047367375 -0.1930835
0.2789964 0.0066683055 -0.45275623 0.22264636 -0.17779087 0.1464121 0.043447275 0.121592745
0.026900329 0.089483246 -0.22963113 -0.26328397 0.041441042 -0.030716961 0.06507855 -0.00793997
0.12960614 -0.0680514 -0.047691144 0.16739638 -0.12392334 -0.15700196 -0.021619227 -0.10759627
0.08771975 0.13697253 0.008524963 -0.12695833 0.41101325 -0.18085064 -0.18717642 0.23207806
0.11915225 -0.24506222 -0.29633644 0.070842765 -0.17229202 -0.04869183 0.28940958 -0.08223877
-0.40773547 -0.073993996 0.11218789 0.09755015 -0.022993777 0.27387983 0.11426805 -0.13028926
-0.4294375 -0.016296703 0.20661233 0.48838878 -0.05248585 0.27200666 -0.16097707 -0.25344267
0.34300607 -0.1757089 0.19419499 -0.22050288 0.05429488 -0.13636263 0.034111567 -0.24825078
-0.13945079 0.3580967 0.11639384 -0.20821828 -0.041729525 -0.09679268 0.71531045 -0.086374775
-0.65857273 -0.10253809 -0.059057813 0.5557185 0.1256082 -0.28626832 0.19102645 0.023137052
00000000: 9305 c0be 7322 4b3e 1609 d5be 56a1 a4be
00000010: 0206 7c3d 0a93 ffbd 37b1 e3bf fe6d 26be
00000020: cf87 78be c2ea 87bc 8398 6f3e 0d6f d23d
00000030: 10df 2ebf d63c 1f3e b6e1 91bd 92fa 8b3e
00000040: 677a c5be 7353 03bc 46b2 98bd aaee fdbd
00000050: dc9b b03e 9789 103e a0d6 88bd 688b fa3d
00000060: dce3 83bd 7185 2dbe c544 20bd b7e3 12bd
00000070: 38e6 713b 7349 a6be 78cd 203e cf00 e53e
00000080: c5c8 38be 9220 343d 87c6 ddbd fcfc ecbd
00000090: b8a7 3e3e 1d60 043f ed53 a63e 66e1 683c
000000a0: 26cf b13e 962d 69bc 4d7a a43d f892 c13d
000000b0: de71 fa3d 3d91 5dbe dc5d a13d 275b 423e
000000c0: 0be4 6a3e 6de9 04bd 6d39 41be cc92 babe
000000d0: 9f37 e8bd 14b8 ea3d b09b 813c b5ed 9b3e
000000e0: 383f abbe 2646 fc3d 121f 833e 9a41 4e3f
000000f0: fe74 4e3d 25b6 bf3b 057a 3b3e 2f1b e43d
00000100: a191 583d 4292 9c3e 2036 f93d 87d0 013e
00000110: fd97 263e b7b6 083e 8429 8e3e b880 303e
00000120: 22fd 583d f31d 5a3e 6dce 773e 1d30 d03d
00000130: e7ef 5fbe 0c56 f4bd 5d0c fe3c 9c5d 453e
00000140: bcb3 89be 6ec3 243e 96fc 93be a4b8 58bd
00000150: 8559 fa3d d377 d5bd 25d2 79bd 5ef2 1bbe
00000160: ea4b 873d 0689 113e 38a0 003e 096b 653c
00000170: 9296 98bd dde6 ee3d da3d 33bd 7fda 03be
00000180: cdb2 3e3d cff8 193e 04c7 f2bd 7c45 623e
00000190: a60a 453e 006e e0bd c2a5 b03d 4249 42be
000001a0: 5498 b2be 2ade f9bd 4ac0 2abd 9396 873d
000001b0: 0baa 123e 68b3 41be 20c0 41be 19ba 743e
000001c0: 63d0 f1bd 26a2 e03e dd51 0fbe 7528 cdbd
000001d0: a3c1 d0bd 4bc5 503e 0bd1 4bbc 3f67 3dbe
000001e0: 30f9 663d 5b0a 07bd b986 1fbe f4b5 1f3e
000001f0: 1ea0 1f3c 9f44 283e 500c d83d 403c c83c
00000200: aa34 8b3e 3682 68bd 0ec9 3fbe 23ae 1abe
00000210: 9f96 f73d 9789 d13d cd1a 0c3e 904f e13c
00000220: 6344 23be a1ed 4c3e 6ff0 cabd 0c44 0e3e
00000230: 1aa6 a43e 4115 5e3e dd80 2fbe 05f7 0e3d
00000240: c928 183e dac2 953d 817c 0c3e 687a 9fbe
00000250: 1abf 51bc c96c fc3d ee94 813e e1e4 31be
00000260: a05a 58bd 5ac7 90bd 9a89 d0bd c2bf 6cbe
00000270: be36 ae3d 4e3c 443d c50e 75bc 1ffe d63e
00000280: de05 a83c f1c2 63bd 7eb6 c53d fbdd 753c
00000290: f57a 8c3e 783b 96bc 8d04 29be 24d5 d63c
000002a0: d487 213e 096f 083e 988b ae3c 5879 8abd
000002b0: 92f8 923e 1054 3f3c 4b04 42bd aeb7 45be
000002c0: 9ed8 8e3e cd81 da3b aacf e7be 68fd 633e
000002d0: cf0e 36be 0eed 153e c5f5 313d 9e05 f93d
000002e0: 145e dc3c fe42 b73d 6c24 6bbe 28cd 86be
000002f0: 15be 293d 23a2 fbbc e747 853d a616 02bc
00000300: 79b7 043e 885e 8bbd ca57 43bd f569 2b3e
00000310: 85cb fdbd 1fc5 20be ce1a b1bc 6f5b dcbd
00000320: 6aa6 b33d 8742 0c3e 49ac 0b3c 5d01 02be
00000330: 5470 d23e e930 39be 2dab 3fbe dfa5 6d3e
00000340: 1806 f43d 97f1 7abe 69b9 97be 0316 913d
00000350: 526d 30be 1671 47bd 7e2d 943e cd6c a8bd
00000360: b4c2 d0be 2a8a 97bd c4c2 e53d 5fc8 c73d
00000370: 725d bcbc fa39 8c3e 5e05 ea3d 8c6a 05be
00000380: 3bdf dbbe aa80 85bc 2f92 533e 180e fa3e
00000390: 67fb 56bd 7544 8b3e 2cd7 24be 3dc3 81be
000003a0: 7e9e af3e 09ed 33be 0ddb 463e 82cb 61be
000003b0: 4f64 5e3d a5a2 0bbe 92b8 0b3d 7435 7ebe
000003c0: 30cc 0ebe 7358 b73e e55f ee3d 2c37 55be
000003d0: 94ec 2abd 3e3b c6bd 961e 373f 42e5 b0bd
000003e0: 3998 28bf 7dff d1bd 9be6 71bd 9143 0e3f
000003f0: 709f 003e c391 92be 709c 433e ea89 bd3c

hiden_layers.2.bias f4 [64]
0.046993654 -0.029269917 -0.059642076 0.009966426 -0.040211417 -0.093582064 -0.1364336 -0.12252209
-0.052929576 0.026255792 -0.03269493 -0.0071092197 0.011400976 -0.02584804 -0.056808695 -0.031625085
-0.0134658925 -0.057078436 0.001443137 -0.031317268 -0.0054298313 0.0065725506 0.039481528 -0.065884575
0.092149414 0.03547546 0.16952457 -0.034142748 0.014693231 -0.04377409 0.099761836 -0.0087876925
-0.034752876 0.018359354 -7.219473e-05 0.013758795 0.011268709 -0.030479783 -0.16425852 0.024296282
-0.0043170075 -9.6625045e-05 -0.077233024 -0.17002901 0.026235865 -0.06552934 -0.002410898 -0.009762263
0.09445207 -0.15222444 0.029415179 0.018315906 -0.056723725 -0.024544017 0.0069551035 -0.011425293
0.016694665 0.0048239455 -0.058794774 -0.043650784 -0.15531698 -0.030016975 -0.051305097 0.085810214
00000000: 6b7c 403d 77c7 efbc 404b 74bd 384a 233c
00000010: bab4 24bd f4a7 bfbd 40b5 0bbe ddec fabd
00000020: afcc 58bd 6316 d73c 1eeb 05bd 75f4 e8bb
00000030: 29cb 3a3c 45bf d3bc 3cb0 68bd 4e89 01bd
00000040: 0ca0 5cbc 14cb 69bd a427 bd3a 8946 00bd
00000050: baec b1bb 8d5e d73b 62b7 213d 7eee 86bd
00000060: d5b8 bc3d b74e 113d d997 2d3e 44d9 0bbd
00000070: e1bb 703c 764c 33bd ef4f cc3d 41fa 0fbc
00000080: 0859 0ebd 5b66 963c 4067 97b8 926c 613c
00000090: 64a0 383c bdb0 f9bc 6333 28be ff08 c73c
000000a0: af75 8dbb 2da3 cab8 592c 9ebd 161c 2ebe
000000b0: 99ec d63c 3f34 86bd 2800 1ebb e6f1 1fbc
000000c0: 1670 c13d b9e0 1bbe 1af8 f03c 3d0b 963c
000000d0: 2357 68bd 8910 c9bc a3e7 e33b 2731 3bbc
000000e0: 40c3 883c 3012 9e3b cad2 70bd 2acb 32bd
000000f0: 6a0b 1fbe 29e6 f5bc 4b25 52bd 44bd af3d

hiden_layers.3.weight f4 [64, 64]
-0.38607562 0.36029965 0.21919347 -0.26266453 -0.20716906 0.08839799 -0.14507097 -0.1439074
-0.21059243 0.15570168 0.1522811 0.037714925 -0.054103725 -0.25953192 0.21229064 -0.030656971
-0.08094642 -0.16088168 0.036959868 -0.20344108 0.26258662 -0.10733658 0.17383151 0.12531042
0.1195941 0.22165099 -0.13549925 0.26273847 0.14778201 0.08940253 -0.20677881 0.07321758
-0.14286308 -0.09957101 0.023674302 0.12875009 0.02612724 -0.016599126 0.15594436 -0.27221546
0.058051337 0.3548947 -0.39841422 -0.31491297 0.016769605 0.12227536 0.21936056 -0.15164033
0.3721715 -0.17315386 -0.09352337 -0.21682873 0.40851238 0.1222729 0.13862078 -0.072851464
-0.027141513 0.1976348 -0.15218 0.17798185 -0.013604266 0.20854695 -0.135115 0.212233
-0.04825105 -0.042369578 -0.009015891 0.11328192 0.11701147 0.20687172 -0.18800752 0.12344576
-0.07613332 -0.25171155 0.07642662 0.047870267 0.14357725 -0.082441635 0.01861027 0.22786035
0.34223723 0.09627578 0.096708 0.16168487 0.2084359 -0.012698535 -0.02411071 0.1476562
-0.4622202 0.033613518 0.19555849 -0.1809638 0.13682264 -0.093434244 -0.054295678 0.16682762
0.05750022 -0.13163728 0.43084654 0.051897842 -0.06579361 -0.06903603 -0.17225541 0.16215886
0.06196482 -0.27691397 0.016029643 0.32238793 -0.09052591 -0.0069936537 0.07302928 0.29440987
-0.13194348 -0.13480528 -0.1524381 0.18076776 0.12458693 -0.038588006 0.25583 0.22192055
0.21288557 -0.116563134 0.29983068 0.15196337 0.23132315 0.20614357 0.008722319 0.046143755
-0.22880985 0.13392317 -0.09051567 -0.197787 -0.11278468 0.17792785 0.25725245 -0.3010096
-0.032705218 0.06241622 -0.19149148 0.19083878 -0.02637621 0.04503521 0.1473814 0.036997207
0.36388028 0.34360316 -0.23840235 -0.2980849 0.029178 0.17932624 -0.5159474 -0.07981327
-0.18819429 -0.1034566 -0.24654683 0.44642478 0.034227 -0.30662712 -0.15578826 -0.20558253
-0.58808374 -0.10084687 0.33415246 -0.13762222 0.2068 -0.30981147 -0.18628252 0.17781901
0.35619023 -0.23424302 -0.124876246 0.26671064 -0.18876535 -0.37562382 0.25382513 -0.017322848
-0.015972963 -0.16908145 0.24551983 0.14137883 0.18146846 -0.1745707 0.24917129 -0.4422303
-0.05338961 -0.0062524686 0.020372719 0.08540288 0.3767746 -0.01711915 -0.16300468 -0.037387595
-0.17373177 0.024642408 0.06453701 -0.1511948 -0.17782617 -0.031068878 -0.115617655 -0.1373004
-0.19915706 -0.09244254 -0.2345989 -0.06901294 -0.22934599 -0.12166579 -0.13458827 0.105429515
-0.08397133 0.1318488 0.024361765 0.19130135 0.041037895 0.012977049 -0.22597659 -0.046598397
0.19720621 0.1643429 0.09607601 -0.18426977 0.12485291 -0.28872126 0.029667264 0.01692557
0.29190728 0.13738258 0.10731862 -0.026904024 -0.22827145 0.033271264 -0.1563885 0.024789037
0.055322457 -0.02052334 -0.12854443 -0.022935003 0.11321786 -0.12738602 0.20047672 0.0026302154
0.20440018 0.16532876 -0.062115107 -0.08869596 0.063084975 0.063823156 0.15649696 0.23921342
-0.019520463 0.09577742 0.18182065 -0.057099022 -0.04736647 -0.10999645 -0.07131698 0.043137647
00000000: b4ab c5be 3279 b83e 4174 603e f77b 86be
00000010: 2024 54be 010a b53d 7c8d 14be 765c 13be
00000020: 8ba5 57be 4370 1f3e 94ef 1b3e f77a 1a3d
00000030: de9b 5dbd 5ee1 84be b862 593e 5424 fbbc
00000040: 3dc7 a5bd 2bbe 24be 3b63 173d dc52 50be
00000050: c171 863e 48d3 dbbd e300 323e 6051 003e
00000060: c0ed f43d 7af8 623e 51c0 0abe a885 863e
00000070: 2b54 173e ac18 b73d d3bd 53be 19f3 953d
00000080: b34a 12be e3eb cbbd 9cf0 c13c 10d7 033e
00000090: cb08 d63c e4fa 87bc e1af 1f3e d35f 8bbe
000000a0: 3dc7 6d3d c2b4 b53e f3fc cbbe 463c a1be
000000b0: 6960 893c 816b fa3d 0ea0 603e 9a47 1bbe
000000c0: 438d be3e 3f4f 31be 2e89 bfbd 5a08 5ebe
000000d0: 8928 d13e 376a fa3d 9bf2 0d3e 2633 95bd
000000e0: e157 debc c760 4a3e 13d5 1bbe e040 363e
000000f0: 6de4 5ebc 558d 553e 965b 0abe 9c53 593e
00000100: e5a2 45bd b98b 2dbd 63b7 13bc 5a00 e83d
00000110: b6a3 ef3d 2ed6 533e 0b85 40be 21d1 fc3d
00000120: c9eb 9bbd 56e0 80be 8f85 9c3d 9d13 443d
00000130: ea05 133e 29d7 a8bd 9174 983c 3954 693e
00000140: b839 af3e 3c2c c53d d80e c63d b890 253e
00000150: 3870 553e 840d 50bc d383 c5bc 3033 173e
00000160: 20a8 ecbe 54ae 093d 7c40 483e 934e 39be
00000170: 3c1b 0c3e 745a bfbd 2565 5ebd dcd4 2a3e
00000180: 5a85 6b3d eccb 06be eb97 dc3e d592 543d
00000190: cdbe 86bd c362 8dbd b963 30be f90c 263e
000001a0: d3ce 7d3d abc7 8dbe 9950 833c 0810 a53e
000001b0: a665 b9bd 052b e5bb 6090 953d e4bc 963e
000001c0: 311c 07be 650a 0abe bc18 1cbe 2f1b 393e
000001d0: 6f27 ff3d 750e 1ebd 26fc 823e 243f 633e
000001e0: adfe 593e a7b8 eebd 6883 993e 499c 1b3e
000001f0: fadf 6c3e 4d17 533e 0fe8 0e3c 3c01 3d3d
00000200: 214d 6abe 2823 093e 4860 b9bd ad88 4abe
00000210: a8fb e6bd b832 363e 98b6 833e ee1d 9abe
00000220: e8f5 05bd 26a8 7f3d 5816 44be 3e6b 433e
00000230: ec12 d8bc d776 383d 26eb 163e 628a 173d
00000240: 844e ba3e c1ec af3e bf1f 74be 969e 98be
00000250: b306 ef3c 4ca1 373e 2115 04bf 2475 a3bd
00000260: 01b6 40be 0ee1 d3bd c676 7cbe ca91 e43e
00000270: 9c31 0c3d 3bfe 9cbe f586 1fbe 3a84 52be
00000280: a88c 16bf ce88 cebd 0816 ab3e d7ec 0cbe
00000290: 61c3 533e 9c9f 9ebe d8c0 3ebe 3016 363e
000002a0: 915e b63e 67dd 6fbe 1ebf ffbd 4c8e 883e
000002b0: b44b 41be c451 c0be 5ef5 813e a5e8 8dbc
000002c0: bbd9 82bc b023 2dbe 8d69 7b3e 9dc5 103e
000002d0: ded2 393e a9c2 32be c226 7f3e 036c e2be
000002e0: 10af 5abd 82e1 ccbb b0e4 a63c b5e7 ae3d
000002f0: 9ae8 c03e 763d 8cbc b3ea 26be bc23 19bd
00000300: bee6 31be e0de c93c fb2b 843d cfd2 1abe
00000310: 1018 36be 2984 febc f3c8 ecbd 7a98 0cbe
00000320: d4ef 4bbe 8452 bdbd b23a 70be a856 8dbd
00000330: add9 6abe ea2b f9bd 82d1 09be 6eeb d73d
00000340: 29f9 abbd 5f03 073e 5392 c73c 80e4 433e
00000350: 5a17 283d b09d 543c 6866 67be f6dd 3ebd
00000360: 6df0 493e 8149 283e 80c3 c43d 37b1 3cbe
00000370: e2b2 ff3d 46d3 93be c308 f33c 7ea7 8a3c
00000380: df74 953e 05ae 0c3e ddc9 db3d d465 dcbc
00000390: febf 69be 7347 083d 4f24 20be 6112 cb3c
000003a0: cd99 623d 9020 a8bc 27a1 03be 30e2 bbbc
000003b0: c4de e73d 7b71 02be c549 4d3e b15f 2c3b
000003c0: 484e 513e f14b 293e 696c 7ebd 3aa6 b5bd
000003d0: b232 813d b7b5 823d bd40 203e 5df4 743e
000003e0: 61e9 9fbc f426 c43d 312f 3a3e aae0 69bd
000003f0: 5803 42bd d245 e1bd a30e 92bd 1ab1 303d

hiden_layers.3.bias f4 [64]
-0.057395495 -0.14816007 -0.04298436 0.06903415 0.007467413 -0.06614122 0.018024227 -0.016579341
-0.092532665 -0.10053409 0.006198705 0.022247566 -0.08393247 0.096064635 0.015653852 -0.022390319
0.036985446 -0.03742359 0.020889048 -0.013640548 0.025386743 -0.046682827 -0.046388015 0.07544446
-0.04023572 -0.029604666 0.008916667 -0.0786907 -0.048655257 -0.10726527 0.061711915 0.050134484
-0.07764671 0.11376565 0.0611703 -0.012512551 -0.06647197 0.030940233 -0.04585801 0.10734473
-0.19453768 0.059959278 -0.046464942 -0.079881564 -0.028327608 0.03203457 -0.08626189 -0.1484954
-0.108951315 0.03262039 -0.05815936 0.019535802 -0.056333315 0.08019782 0.03127495 -0.022330625
0.065636374 -0.038109075 -0.005867057 -0.057121817 0.079599425 0.011305441 0.023704449 -0.017073337
00000000: 8a17 6bbd 46b7 17be 5e10 30bd c761 8d3d
00000010: 33b1 f43b 0c75 87bd 8ba7 933c 66d1 87bc
00000020: c481 bdbd d1e4 cdbd 821e cb3b 8740 b63c
00000030: c9e4 abbd 89bd c43d 823c 803c e76b b7bc
00000040: 0d7e 173d 7a49 19bd 821f ab3c 9b7c 5fbc
00000050: dcf7 cf3c 7e36 3fbd 5c01 3ebd a082 9a3d
00000060: 36ce 24bd 7c85 f2bc 3617 123c 9728 a1bd
00000070: bc4a 47bd e5ad dbbd a2c5 7c3d d159 4d3d
00000080: 3d05 9fbd f7fd e83d b58d 7a3d 7101 4dbc
00000090: 7522 88bd 5f76 fd3c 9cd5 3bbd 8ed7 db3d
000000a0: e334 47be dc97 753d 0652 3ebd f298 a3bd
000000b0: 4d0f e8bc ae36 033d 13aa b0bd 2e0f 18be
000000c0: de21 dfbd f59c 053d 8238 6ebd 8c09 a03c
000000d0: c3bd 66bd c13e a43d 291a 003d b7ee b6bc
000000e0: 5d6c 863d 4318 1cbd 7140 c0bb 91f8 69bd
000000f0: 0605 a33d 753a 393c d52f c23c 62dd 8bbc

hiden_layers.4.weight f4 [64, 64]
-0.40090746 0.40778044 0.07419045 -0.10631588 -0.034537718 -0.08039048 0.012679224 0.09999418
-0.19206144 -0.04255174 -0.16352212 0.16986986 0.15535723 -0.13654643 0.044957027 0.05888386
-0.040014226 -0.01536221 0.13328908 0.3363293 -0.21106891 -0.012443357 -0.12647028 -0.032598674
-0.40444708 -0.2532523 0.2462541 0.23520589 -0.37526375 -0.2209902 -0.10138995 -0.09287214
0.2703605 -0.04721139 -0.07757265 -0.43300256 0.017498782 0.04622684 0.03833781 -0.037147827
-0.4270909 -0.03712482 -0.012796031 0.010596219 0.0597079 0.19516894 0.2605866 -0.06978004
-0.19775116 0.019586494 -0.2265263 0.17602333 -0.6025982 0.17769873 0.27459976 -0.24697445
-0.039528348 -0.09379048 -0.3687526 -0.15514016 -0.06409257 -0.23697528 -0.13319239 -0.07362837
0.41125754 -0.6232712 -0.27505213 0.10339182 -0.035982072 -0.008679858 -0.105709404 0.20505622
-0.19463094 0.007218816 0.09761755 0.020311864 0.12493506 0.6561096 -0.42452875 -0.014360037
-0.29939386 -0.05143183 0.10055356 0.02273497 0.33231127 -0.032291077 0.18542932 0.18819052
0.063341245 -0.130589 -0.3058831 0.09937172 0.24263029 0.12569205 -0.2270364 -0.052569907
-0.06705946 -0.12010527 0.33753648 -0.058426693 -0.35037616 0.016853387 0.12402039 0.08338151
0.50269985 0.08234867 0.1777906 0.1287525 -0.17083241 0.16453403 -0.29330605 -0.20117818
-0.2655705 0.046136048 -0.23072124 -0.08666456 0.43975058 -0.0057694716 0.054539386 0.07183866
0.15356483 -0.06039066 0.056163915 -0.030450536 0.5639674 0.06383798 0.4794239 0.07530859
0.07024295 -0.17407727 -0.20897931 -0.1184269 0.12006479 0.10851681 -0.09098678 0.07753242
-0.0999277 -0.28947917 0.03536566 -0.07206612 -0.06847748 0.35513493 0.2427789 -0.016349662
0.046173632 0.091213755 -0.034617092 -0.043511447 -0.21290466 -0.09528033 -0.119899854 0.085525714
-0.30474958 -0.16481455 -0.24124722 0.14477937 -0.09722697 0.095718294 -0.01416195 0.10397794
-0.2277966 -0.053593837 0.10262201 0.2509609 -0.054145288 0.076458275 -0.18606889 0.28023353
0.24935763 -0.053980436 -0.23675883 -0.08259252 -0.29767755 -0.046812605 0.083916835 -0.08797895
0.26509047 -0.07533021 0.38297567 -0.24420397 0.113105156 0.24191532 -0.010048963 0.05368084
-0.008505408 0.06681747 0.26689082 0.1805939 0.20722303 -0.0422387 -0.19373555 0.2554888
0.14899991 -0.2273503 -0.023850577 -0.034051776 -0.11816879 -0.06685566 -0.08784604 -0.18332224
0.012738935 0.19586459 0.17524856 -0.048493627 -0.014624469 -0.03215633 -0.06422577 0.19676875
0.030961249 -0.033771038 -0.19788025 -0.21772857 -0.1058297 0.07650382 0.16264047 0.18584108
0.18329753 0.058898807 0.02622889 -0.22212715 -0.11439835 0.11575679 -0.04976212 -0.31211287
0.20020643 0.03745943 -0.014763404 -0.13085558 0.25039917 -0.019565506 -0.24408287 0.19254412
-0.37202173 0.10665583 -0.06832892 0.05290014 0.06512937 -0.15752506 -0.14230378 -0.08278982
-0.024901528 0.058293503 -0.06584389 0.16169764 0.07461865 0.080006756 0.007488847 0.1553024
-0.09342633 -0.13410147 0.18927842 0.15144056 0.12749517 -0.031522118 -0.043269005 0.14976658
00000000: be43 cdbe 99c8 d03e 2af1 973d 24bc d9bd
00000010: 6c77 0dbd c4a3 a4bd 85bc 4f3c c0c9 cc3d
00000020: c1ab 44be bc4a 2ebd 5872 27be 5df2 2d3e
00000030: f715 1f3e d4d2 0bbe dc24 383d 3430 713d
00000040: f5e5 23bd c7b1 7bbc ef7c 083e 5b33 ac3e
00000050: 7322 58be 39df 4bbc 6d81 01be 3086 05bd
00000060: b013 cfbe 49aa 81be 092a 7c3e d0d9 703e
00000070: 9222 c0be 414b 62be 89a5 cfbd c033 bebd
00000080: b16c 8a3e bb60 41bd 69de 9ebd 83b2 ddbe
00000090: 9b59 8f3c 5b58 3d3d 1c08 1d3d 5228 18bd
000000a0: a9ab dabe 3210 18bd 72a6 51bc c49b 2d3c
000000b0: 4590 743d 5eda 473e 9b6b 853e d6e8 8ebd
000000c0: 487f 4abe db73 a03c 83f6 67be 763f 343e
000000d0: e043 1abf a8f6 353e 5798 8c3e dfe6 7cbe
000000e0: 7ae8 21bd 3915 c0bd 24cd bcbe 10dd 1ebe
000000f0: f742 83bd a6a9 72be 9663 08be 79ca 96bd
00000100: 5990 d23e b48e 1fbf a2d3 8cbe 17bf d33d
00000110: f061 13bd f735 0ebc 2c7e d8bd 42fa 513e
00000120: 554d 47be d18b ec3b b6eb c73d 1165 a63c
00000130: f4dd ff3d ccf6 273f d55b d9be 5c46 6bbc
00000140: 274a 99be 2faa 52bd 06ef cd3d b03e ba3c
00000150: b424 aa3e a643 04bd 2fe1 3d3e 04b5 403e
00000160: 0eb9 813d 1fb9 05be b69c 9cbe 6683 cb3d
00000170: 1374 783e 6bb5 003e 3b7c 68be 8b53 57bd
00000180: 7856 89bd c0f9 f5bd 95d1 ac3e d450 6fbd
00000190: 8164 b3be 1d10 8a3c 67fe fd3d edc3 aa3d
000001a0: f0b0 003f 6ba6 a83d bd0e 363e b2d7 033e
000001b0: b1ee 2ebe 9c7b 283e 362c 96be a701 4ebe
000001c0: dbf8 87be 27f9 3c3d 3042 6cbe 307d b1bd
000001d0: fd26 e13e d60d bdbb b164 5f3d 2620 933d
000001e0: 1940 1d3e 325c 77bd 220c 663d 6773 f9bc
000001f0: 2b60 103f 7dbd 823d 0d77 f53e 643b 9a3d
00000200: 89db 8f3d 5041 32be acfe 55be cd89 f2bd
00000210: 87e4 f53d 103e de3d 4757 babd 51c9 9e3d
00000220: e5a6 ccbd 9d36 94be 95db 103d 6797 93bd
00000230: ec3d 8cbd 3fd4 b53e 089b 783e baef 85bc
00000240: 9020 3d3d 47ce ba3d a7ca 0dbd 0f39 32bd
00000250: ae03 5abe 5522 c3bd 0e8e f5bd 1b28 af3d
00000260: 2308 9cbe 25c5 28be 8309 77be 0b41 143e
00000270: ef1e c7bd f407 c43d 8607 68bc 63f2 d43d
00000280: 8343 69be 3685 5bbd 7d2b d23d f27d 803e
00000290: 73c7 5dbd 2896 9c3d d888 3ebe c57a 8f3e
000002a0: 9b57 7f3e 971a 5dbd e870 72be 4426 a9bd
000002b0: 3169 98be 93be 3fbd 97dc ab3d 4f2e b4bd
000002c0: f0b9 873e ba46 9abd 6315 c43e 9b10 7abe
000002d0: ada3 e73d a6b8 773e 68a4 24bc 71e0 5b3d
000002e0: 445a 0bbc 99d7 883d eaa5 883e 9bed 383e
000002f0: 4632 543e 7d02 2dbd 9d62 46be 6ecf 823e
00000300: 6f93 183e 84ce 68be 4962 c3bc e079 0bbd
00000310: 7b02 f2bd 9feb 88bd a0e8 b3bd d3b8 3bbe
00000320: f7b6 503c ba90 483e 5c74 333e 41a1 46bd
00000330: 789b 6fbc 5bb6 03bd cd88 83bd bf7d 493e
00000340: 72a2 fd3c 8053 0abd 1fa1 4abe 3df4 5ebe
00000350: 3ebd d8bd 09ae 9c3d 398b 263e 204d 3e3e
00000360: 59b2 3b3e e03f 713d f8dd d63c 4d75 63be
00000370: af49 eabd e511 ed3d 5dd3 4bbd 42cd 9fbe
00000380: ea02 4d3e 0f6f 193d 34e2 71bc 01ff 05be
00000390: 5234 803e d747 a0bc dcf0 79be 492a 453e
000003a0: a279 bebe 5f6e da3d 08f0 8bbd d1ad 583d
000003b0: 8c62 853d 404e 21be 15b8 11be b68d a9bd
000003c0: 4afe cbbc 2bc5 6e3d 29d9 86bd 1194 253e
000003d0: aad1 983d 95da a33d 0065 f53b 9807 1f3e
000003e0: 4e56 bfbd e551 09be 34d2 413e 3c13 1b3e
000003f0: 188e 023e 561d 01bd d73a 31bd 695c 193e

hiden_layers.4.bias f4 [64]
-0.049048867 -0.006115065 0.16823311 0.038700145 -0.119070254 -0.12428302 0.14927113 0.14365341
0.050132103 -0.18052804 -0.05580763 -0.13738151 0.11503406 -0.13185726 0.14405154 -0.014183398
-0.07520108 0.057873182 0.1478868 -0.031955644 -0.0035226652 0.10210511 0.06502145 0.028778402
-0.11878153 0.014716867 -0.059784926 0.08781213 0.06910153 0.070775725 0.03373693 0.031156788
-0.038404252 0.17715408 0.021708092 -0.03279503 -0.09597957 0.043380912 -0.044101052 -0.05038774
0.20511892 -0.0016437193 0.030754277 0.00039655805 0.05438715 -0.016440904 0.05278227 -0.07640888
0.24959046 -0.02590058 0.05602913 0.08926775 -0.15894099 -0.06021425 -0.10413899 0.06984497
0.022741547 0.14849825 -0.03503399 0.08281794 0.020736422 0.047433667 0.122643955 0.06816098
00000000: 77e7 48bd e260 c8bb 4d45 2c3e 0b84 1e3d
00000010: 1bdb f3bd 1988 febd 88da 183e e119 133e
00000020: 5257 4d3d 58dc 38be 8b96 64bd bdad 0cbe
00000030: fa96 eb3d 9705 07be 3f82 133e 7c61 68bc
00000040: 0603 9abd 6e0c 6d3d a36f 173e ece3 02bd
00000050: 84dc 66bb 7c1c d13d f729 853d afc0 eb3c
00000060: bb43 f3bd 041f 713c 0ae1 74bd d9d6 b33d
00000070: 1a85 8d3d ddf2 903d bc2f 0a3d 853c ff3c
00000080: c74d 1dbd e167 353e 2bd5 b13c 1554 06bd
00000090: f090 c4bd 2fb0 313d 4ea3 34bd 6063 4ebd
000000a0: b20a 523e 1172 d7ba 65f0 fb3c 1fe9 cf39
000000b0: 0fc5 5e3d 13af 86bc 3932 583d 427c 9cbd
000000c0: a494 7f3e 742d d4bc cd7e 653d 03d2 b63d
000000d0: 6dc1 22be 38a3 76bd d346 d5bd e10a 8f3d
000000e0: 7b4c ba3c ed0f 183e cd7f 0fbd 749c a93d
000000f0: 6edf a93c ce49 423d c12c fb3d fc97 8b3d
