results/5_model_3_case_1/epoch1400/model_weights.pth (torch, 484214 bytes, 88 tensors)

init_layer.0.weight f4 [64, 3]
0	0xbdda36d0	-0.10654986
1	0xbd956003	-0.072937034
2	0x3ea64201	0.32472232
3	0x3f0bc381	0.5459519
4	0x3d792233	0.06082363
5	0xbe45175a	-0.19247189
6	0xbe0d4f8c	-0.13799876
7	0xbe0db496	-0.1383842
8	0xbe08b906	-0.13351831
9	0x3e7eeb49	0.24894442
10	0x3dc8b303	0.09799769
11	0x3db30444	0.08741048
12	0xbe03bca7	-0.12864934
13	0x3e671161	0.22565223
14	0x3e75aee9	0.23992504
15	0xbe5a5ee1	-0.21325256
16	0xbf0bd53b	-0.5462224
17	0x3e2e34fb	0.17012398
18	0x3e8d5d95	0.2761046
19	0xbcbcf88e	-0.023067739
20	0x3ebb3211	0.36561635
21	0x3e9dad28	0.3079617
22	0x3d8c794b	0.06859072
23	0x3e82abf6	0.2552182
24	0x3ea161fd	0.31520072
25	0xbe94d9ec	-0.2907251
26	0x3dd91955	0.10600535
27	0xbdd0a690	-0.10188019
28	0xbdc41034	-0.09573403
29	0x3e88a956	0.26691693
30	0xbe8f50c8	-0.2799132
31	0xbc6a6f74	-0.014308799
32	0x3cbe65d2	0.023241911
33	0x3df525d2	0.11970104
34	0x3dc0eaf0	0.09419811
35	0xbe886345	-0.26638237
36	0xbe2885a3	-0.16457228
37	0x3ca0e39b	0.01963978
38	0xbcd8b980	-0.02645564
39	0xbd6d7024	-0.057968274
40	0x3d744ad3	0.05964167
41	0x3eb90295	0.36134782
42	0x3e785631	0.2425163
43	0xbf033ff9	-0.5126949
44	0xbd156f39	-0.036483023
45	0x3e46553c	0.19368452
46	0xbda1b187	-0.07895189
47	0xbe9ef23b	-0.31044182
48	0x3bd2bca5	0.0064311796
49	0xbcd8f6e6	-0.026484918
50	0x3eb7c2bb	0.35890755
51	0x3e2e6864	0.1703201
52	0x3e1832cd	0.14863129
53	0xbe6fadbb	-0.23406117
54	0x3e053b34	0.13010865
55	0x3db73307	0.089452796
56	0xbe80d0d6	-0.2515933
57	0xbe8aaead	-0.27086392
58	0xb9df25a1	-0.0004256191
59	0xbe9e17dd	-0.3087758
60	0x3deeca75	0.11659709
61	0xbd7d8db2	-0.06190271
62	0xbe2e0ebf	-0.16997813
63	0x3dcbb6ad	0.09946952
64	0xbe2a575f	-0.16634892
65	0xbde88f99	-0.11355514
66	0xbc524341	-0.012833417
67	0xbdfed27d	-0.12442491
68	0xbe605c06	-0.21910104
69	0xbde7f487	-0.11325937
70	0x3e637e8f	0.22216247
71	0xbc65431a	-0.013993049
72	0xbd29a609	-0.04141811
73	0x3c3f6a25	0.011683022
74	0x3e8b896a	0.27253276
75	0xbc2e6e14	-0.010646362
76	0x3e2a4959	0.16629542
77	0xbe0c3699	-0.13692702
78	0x3c428670	0.011872873
79	0x3db8db6c	0.090262264
80	0x3e9facb2	0.31186444
81	0xbe0355e2	-0.1282573
82	0xbe27345c	-0.16328567
83	0x3e20536c	0.15656823
84	0x3d8bee62	0.06832577
85	0xbc915a48	-0.017743245
86	0xbea1ddec	-0.31614625
87	0xbd951005	-0.07278446
88	0xbe5a4e66	-0.21318969
89	0x3e3390f9	0.17535771
90	0xbeb7d995	-0.3590819
91	0xbeaea27e	-0.34108347
92	0xbe286acd	-0.16446991
93	0xbe0aba37	-0.13547598
94	0x3ca6c4f0	0.020357579
95	0x3ecc5cf5	0.3991467
96	0xbd50dee0	-0.0509938
97	0x3dc8f8cd	0.0981308
98	0x3e9a69f1	0.30158952
99	0xbe904547	-0.28177854
100	0x3e5c50df	0.21515225
101	0xbde97056	-0.113983795
102	0x3d22c89a	0.03974209
103	0x3bb2612b	0.005443712
104	0xbe37f6ce	-0.17965242
105	0xbd6e550f	-0.058186587
106	0xbd925090	-0.07144272
107	0xbe8f9e4f	-0.28050467
108	0x3d9247c8	0.071425974
109	0xbd2090b9	-0.03920052
110	0xbeab1083	-0.33411035
111	0xbe18801d	-0.14892621
112	0xbdff03a3	-0.124518655
113	0xbddbd1e9	-0.107333966
114	0x3e5a593d	0.21323104
115	0xbc9f8054	-0.019470371
116	0x3e90ad5d	0.28257266
117	0xbe564750	-0.20925641
118	0x3ef5fa37	0.4804246
119	0x3e8c3b01	0.27388766
120	0x3ddba774	0.107252985
121	0x3e048e70	0.1294496
122	0xbecb26fb	-0.39678177
123	0x3cf82c2e	0.030294504
124	0x3b8a2e37	0.004216935
125	0xbe8fb633	-0.28068694
126	0x3bd80a8c	0.006593054
127	0xbd22fae3	-0.039790045
128	0x3e9bedcd	0.30454865
129	0xbd9c3b9d	-0.07628558
130	0xbd273c9e	-0.040829293
131	0x3e831dfa	0.25608808
132	0x3e11842a	0.14210573
133	0xbe3c8df1	-0.18413521
134	0xbe656988	-0.22403538
135	0xbe162da2	-0.14665845
136	0xbe66952f	-0.22517847
137	0x3e5a2e29	0.21306671
138	0x3c05a869	0.008157828
139	0xbe261a58	-0.16220987
140	0x3daf0b7d	0.08547113
141	0x3e10c587	0.1413785
142	0x3e44c4dc	0.19215721
143	0x3d0c76c1	0.03429294
144	0x3ec48f11	0.383904
145	0x3ecf393c	0.40473354
146	0x3c7dc921	0.015489847
147	0x3e8a23c6	0.26980418
148	0xbec1df05	-0.37865463
149	0x3e85a0f2	0.26099354
150	0x3df5b1f1	0.1199683
151	0xbe402b05	-0.1876641
152	0xbe6e914f	-0.23297618
153	0xbe97c89d	-0.29645243
154	0xbe1adf19	-0.15124168
155	0xbdf790f0	-0.120881915
156	0x3ea75b24	0.32686722
157	0xbeb8f6da	-0.36125833
158	0x3d9dde2e	0.07708393
159	0xbdc78ddc	-0.097438544
160	0xbe4838d9	-0.19552936
161	0x3d920cee	0.071313724
162	0x3e45b74a	0.193082
163	0xbe7823fd	-0.24232478
164	0xbe9a9b7b	-0.30196747
165	0x3e93b93c	0.2885226
166	0xbdf85d7c	-0.12127206
167	0x3e8b31d3	0.2718645
168	0x3c7c3428	0.015393294
169	0x3d47357c	0.04863499
170	0x3e9d2e33	0.3069931
171	0xbd818f3a	-0.063261464
172	0xbd70a07e	-0.058746807
173	0x3e3486cb	0.17629544
174	0x3df95314	0.12174049
175	0x3f0ceeec	0.55052066
176	0x3dd53a73	0.10411539
177	0x3e05cb36	0.130658
178	0x3e5a79e6	0.21335563
179	0xbe3f7b2c	-0.1869933
180	0xbeb4611a	-0.35230333
181	0xbe6d3ca1	-0.2316766
182	0xbe3fc128	-0.18726027
183	0xbe9ab03d	-0.30212584
184	0x3e119136	0.1421555
185	0xbdd75be7	-0.10515576
186	0x3e92378a	0.28557998
187	0xbde0e4fe	-0.10981177
188	0x3d88ab90	0.06673348
189	0x3e9e0814	0.30865538
190	0x3d9ea2a7	0.07745867
191	0x3e5870f6	0.21136841

init_layer.0.bias f4 [64]
0	0x3e8fdc5a	0.28097802
1	0x3d7678aa	0.060173668
2	0x3db28f16	0.08718698
3	0xbe883321	-0.26601508
4	0x3caba608	0.020953193
5	0xbb259b9f	-0.002526976
6	0x3e3a61d3	0.1820138
7	0x3e606578	0.21913707
8	0xbe0cee4c	-0.13762778
9	0xbe35eef7	-0.17766939
10	0x3ea4f508	0.32218194
11	0x3e16f620	0.14742327
12	0x3e3f4411	0.18678309
13	0x3eaa143e	0.3321857
14	0xbd2a446e	-0.041569166
15	0x3e88daff	0.2672958
16	0x3ea94c7c	0.33066165
17	0x3e1390a2	0.14410642
18	0x3d968283	0.07349112
19	0x3d5dc912	0.054146834
20	0x3e24342c	0.16035527
21	0x3c3fa5a3	0.011697206
22	0x3e8269e4	0.25471413
23	0x3da9fe21	0.08300424
24	0x3e01c29d	0.12671895
25	0xbe304e23	-0.17217307
26	0x3e080b16	0.13285479
27	0xbd84f9f5	-0.06492988
28	0xbea38d4f	-0.31943747
29	0x3e7fa75a	0.24966183
30	0xbddde9c8	-0.10835606
31	0xbdde714c	-0.108614534
32	0xbe01d772	-0.12679842
33	0x3e3ede29	0.18639435
34	0x3e30d64f	0.17269252
35	0x3e81c56e	0.2534594
36	0xbe6e77de	-0.23287913
37	0xbe016fe9	-0.12640347
38	0xbe97b46e	-0.29629844
39	0xbd82376f	-0.06358229
40	0xbeb6de36	-0.35716408
41	0x3cd8d508	0.026468769
42	0xbe515811	-0.20443751
43	0xbdaf440c	-0.08557901
44	0x3e079993	0.13242178
45	0x3d142cd1	0.036175553
46	0xbe293d05	-0.16527183
47	0xbd948ab4	-0.07253018
48	0xbd43e78c	-0.047828242
49	0x3e411776	0.18856606
50	0xbe457321	-0.192822
51	0xbe1a1338	-0.15046394
52	0xbe07bac0	-0.13254833
53	0xbe1bf012	-0.15228298
54	0x3ddc52ab	0.10757955
55	0x3e283094	0.16424781
56	0x3e690bc3	0.22758393
57	0x3cff8975	0.031193474
58	0x3d189d30	0.03725928
59	0xbe57936f	-0.21052335
60	0x3d937160	0.07199359
61	0xbdd46742	-0.10371257
62	0x3e1e4954	0.1545766
63	0x3d9eab90	0.07747567

hiden_layers.0.weight f4 [64, 64]
0	0xbe7cf9bf	-0.24704646
1	0xbe4e198e	-0.20126936
2	0x3d36a84a	0.044594087
3	0x3e8b1336	0.27163094
4	0xbe056167	-0.13025437
5	0xbdfdb891	-0.12388719
6	0x3dbc641f	0.09198784
7	0xbe45e9a5	-0.1932741
8	0x3e8b77b6	0.2723977
9	0x3d9d9de6	0.07696132
10	0xbd9d76de	-0.07688688
11	0x3d71eef3	0.05906577
12	0xbdf29d17	-0.11846369
13	0x3df03c4e	0.11730252
14	0x3ea94186	0.33057803
15	0xbefcbe58	-0.4936397
16	0xbd80e612	-0.062938824
17	0xbe2344b8	-0.15944183
18	0xbe195ed9	-0.14977588
19	0xbe724ade	-0.23661372
20	0xbe7b176f	-0.24520658
21	0x3e100f17	0.14068256
22	0xbe42956f	-0.19002317
23	0xbf0075fd	-0.50180036
24	0x3e1b49f7	0.15164934
25	0x3d836b66	0.06416969
26	0xbdf5eea4	-0.12008408
27	0xbe3e89d4	-0.18607265
28	0xbd169833	-0.036766242
29	0xbe184a2b	-0.14872043
30	0xbe6c4ef2	-0.2307699
31	0x3e2b2ee5	0.16717108
32	0x3d94f8f3	0.07274046
33	0xbe954c48	-0.2915976
34	0xbc660284	-0.014038686
35	0xbe4ba5ff	-0.19887541
36	0xbbcdc151	-0.0062791486
37	0xbca2ff1d	-0.019897038
38	0x3ebd5308	0.3697741
39	0x3e5f74a3	0.21821837
40	0x3e2fa28c	0.1715185
41	0xbe464e3a	-0.19365779
42	0x3e9ec32b	0.31008276
43	0x3d8cc3d9	0.068732925
44	0xbe3acfbd	-0.18243308
45	0xbdea97ae	-0.11454712
46	0x3e1d96bd	0.15389533
47	0xbd8234ba	-0.06357713
48	0x3ec2658a	0.37968093
49	0xbe37e2de	-0.17957637
50	0xbda965b0	-0.082713485
51	0x3d012c75	0.03153654
52	0x3ebccddc	0.36875808
53	0x3c493bf0	0.012282357
54	0x3d08e15f	0.033418056
55	0x3e7fe63c	0.24990171
56	0xbe1e66bb	-0.15468876
57	0xbc3235d3	-0.0108770905
58	0xbe2a6245	-0.1663905
59	0x3e66c226	0.22534999
60	0xbd375e10	-0.04476744
61	0xbe35bc81	-0.1774769
62	0xbd2ccf50	-0.042189896
63	0xbdac0157	-0.08398693
64	0xbc84de6e	-0.016219344
65	0xbe857040	-0.26062202
66	0xbdfce19f	-0.12347721
67	0xbe0bd501	-0.13655473
68	0xbe845bca	-0.2585128
69	0xbe2f859f	-0.17140816
70	0x3e44663f	0.19179629
71	0xbe2919b6	-0.16513714
72	0xbddc738d	-0.10764227
73	0xbf00c13c	-0.5029485
74	0x3eec928f	0.46205565
75	0x3e26e589	0.16298498
76	0x3e726b0c	0.23673648
77	0x3d906faf	0.07052552
78	0x3dbe3b8d	0.09288702
79	0x3ec099c2	0.37617308
80	0x3d21ee7c	0.039534077
81	0x3ea14d52	0.31504303
82	0x3e1b8221	0.15186359
83	0x3dfb6f54	0.122770935
84	0x3eb055ae	0.34440368
85	0xbde33ebf	-0.11095952
86	0x3ea68f9e	0.32531446
87	0x3e5b7a09	0.21433271
88	0xbdfc8cb5	-0.12331525
89	0xbd81fcee	-0.06347071
90	0x3e63a80f	0.22232078
91	0xbd1269d7	-0.035745468
92	0x3ddfe756	0.10932796
93	0x3e01650f	0.12636207
94	0xbe2e78ed	-0.17038317
95	0xbeb4071e	-0.3516168
96	0xbe3c30f2	-0.18378046
97	0x3e3295fb	0.17440026
98	0x3f35248c	0.7075889
99	0x3eee7673	0.46574745
100	0x3e522533	0.20522003
101	0xbe0048c3	-0.12527756
102	0xbec09b58	-0.37618518
103	0x3b2cf65a	0.0026391954
104	0xbdb73f8b	-0.08947667
105	0x3e0b7800	0.13619995
106	0xbf0c730c	-0.5486305
107	0xbe9bf5ee	-0.30461067
108	0x3e88b5b5	0.2670113
109	0xbe7d742f	-0.24751352
110	0xbdde3bba	-0.10851236
111	0xbe52c6df	-0.20583676
112	0xbe4041ae	-0.18775055
113	0xbd3c11d4	-0.04591544
114	0xbde156f0	-0.1100291
115	0xbdb6b3cc	-0.08921012
116	0x3cb57e48	0.022154942
117	0xbeb32798	-0.34991145
118	0x3e8b660b	0.2722629
119	0x3e12e9fa	0.14347067
120	0xbe44ca3b	-0.1921777
121	0xbe5208f3	-0.20511226
122	0xbe2fb17d	-0.1715755
123	0xbe2db22c	-0.16962498
124	0x3ea2149d	0.31656352
125	0x3e210b30	0.15726924
126	0x3e820d0e	0.25400585
127	0xbe1c2809	-0.15249647
128	0x3dd3db89	0.103446074
129	0xbe35ba43	-0.17746834
130	0x3e8520b9	0.26001528
131	0xbd4b9108	-0.04969886
132	0xbe83ace0	-0.2571783
133	0x3dde11b4	0.1084322
134	0xbd9dbe2a	-0.077022865
135	0xbe8e2cf2	-0.27768666
136	0x3d5b2b89	0.053508315
137	0xbd272bb4	-0.040813163
138	0xbb1535a4	-0.0022767568
139	0x3df2b0b4	0.1185011
140	0x3e200fcb	0.15631025
141	0xbe6b7c65	-0.22996671
142	0x3e886e58	0.26646686
143	0xbdf34557	-0.1187846
144	0xbe0587fa	-0.13040152
145	0xbe838731	-0.2568908
146	0x3d5a6526	0.05331912
147	0xbd2060fb	-0.039154988
148	0x3bcb6562	0.006207154
149	0xbe01ce8f	-0.12676452
150	0xbdf3aa32	-0.118976966
151	0xbdb13da5	-0.08654336
152	0xbc5470dc	-0.012966361
153	0xbe352b58	-0.17692316
154	0xbda7db4f	-0.08196127
155	0x3ea09629	0.31364563
156	0xbc4542cd	-0.012039852
157	0xbdfdeb9e	-0.12398456
158	0x3eca4f43	0.39513597
159	0x3e526480	0.2054615
160	0xbe4d4264	-0.20044857
161	0xbddaeb85	-0.10689453
162	0x3e4b074b	0.19827001
163	0x3e664334	0.22486573
164	0xbd654d53	-0.055981945
165	0xbca18501	-0.019716742
166	0xbd43756e	-0.04771941
167	0x3ca796c5	0.020457635
168	0xbe3e9d44	-0.1861468
169	0xbcecd5a8	-0.028910473
170	0x3e3607f4	0.17776471
171	0x3e652981	0.22379114
172	0x3e5be643	0.21474557
173	0x3dd7999f	0.10527348
174	0x3ca2f4c9	0.019892113
175	0xbdd51d7c	-0.10406014
176	0xbdfd2543	-0.12360623
177	0x3e018cb8	0.12651336
178	0xbd316b1d	-0.04331504
179	0x3e168cac	0.147021
180	0x3d3ed15e	0.046586387
181	0x3da7bb1b	0.081899844
182	0xbde9be6a	-0.11413272
183	0x3c48ffc3	0.01226801
184	0xbe86717e	-0.26258463
185	0x3e40e777	0.18838297
186	0xbed567b0	-0.4168067
187	0xbe39b108	-0.18133938
188	0x3e8e55c3	0.27799806
189	0xbdbbc8b1	-0.09169138
190	0xbe4ff032	-0.20306471
191	0x3d8dafbc	0.06918284
192	0xbe252a08	-0.16129315
193	0x3d767a71	0.060175363
194	0x3dae007c	0.08496186
195	0xbd6d0c3e	-0.057873003
196	0x3cffc6ef	0.031222789
197	0xbe24731a	-0.16059533
198	0xbe20c706	-0.15700921
199	0xbe916d14	-0.28403533
200	0xbdbbf135	-0.09176866
201	0xbe505f5e	-0.2034888
202	0xbd2d5a48	-0.042322427
203	0x3dcc9c11	0.09990705
204	0xbe4f6ec0	-0.20257092
205	0xbf161c3f	-0.5863685
206	0x3ea41def	0.32054088
207	0xbdc38565	-0.09546927
208	0xbed1054e	-0.4082436
209	0x3e69d3e0	0.2283473
210	0x3e89000f	0.26757857
211	0xbd7462d8	-0.059664577
212	0x3e73c2d6	0.23804793
213	0x3cdfed3b	0.0273348
214	0xbe12fb2a	-0.14353624
215	0xbe82eaf8	-0.25569892
216	0xbd515f87	-0.051116493
217	0x3e430150	0.1904347
218	0xbe78084c	-0.24221915
219	0xbe02331f	-0.12714814
220	0x3ea934db	0.33048138
221	0xbed95d10	-0.42453814
222	0xbc710980	-0.014711738
223	0xbd41029b	-0.047121625
224	0xbe4288bd	-0.18997474
225	0xbb3c36c3	-0.0028719164
226	0xbdfc7c68	-0.12328416
227	0x3d133144	0.035935655
228	0x3e9e881c	0.30963218
229	0x3c038a4f	0.008028581
230	0xbb099c04	-0.0020997534
231	0xbe0d6d92	-0.13811329
232	0x3e3afe68	0.18261111
233	0x3db6a6c1	0.089185245
234	0x3cf3a582	0.029742006
235	0x3df157a5	0.11784295
236	0x3dcc52c8	0.09976727
237	0xbdfdd809	-0.12394721
238	0x3dfee58b	0.124461256
239	0x3d91bfb5	0.07116643
240	0x3e9affcc	0.30273283
241	0xbdacdce8	-0.08440572
242	0x3eef273e	0.46709627
243	0x3d55513b	0.05207942
244	0x3bcb7f95	0.0062102773
245	0x3e1d4f0a	0.15362182
246	0x3e8912e3	0.26772222
247	0xbcc1d251	-0.023659857
248	0xbf00bcbd	-0.5028799
249	0xbe769948	-0.2408191
250	0x3cd68245	0.026185164
251	0x3f00f3d2	0.5037204
252	0xbc6b6d0b	-0.01436926
253	0xbc40f5d8	-0.011777364
254	0xbd96004b	-0.07324275
255	0xbe1b511b	-0.15167658

hiden_layers.0.bias f4 [64]
0	0xbda663cb	-0.08124503
1	0x3e932ca0	0.28744984
2	0xbd0481ac	-0.032350227
3	0xbe48fdb8	-0.19628036
4	0x3d1a09e5	0.037607092
5	0xbc869e8a	-0.01643302
6	0x3df122c4	0.11774209
7	0xbcc4eb56	-0.024037998
8	0x3a9b6ec4	0.0011858572
9	0xbdf2e203	-0.118595146
10	0xbe2dae01	-0.16960908
11	0x3e2e84a8	0.17042792
12	0x3dc43bec	0.09581742
13	0xbcc179cf	-0.023617653
14	0xbb8d1857	-0.00430588
15	0x3ddd675d	0.108107306
16	0xbd584448	-0.052799493
17	0x3ccae0d4	0.02476541
18	0x3da53a98	0.080678165
19	0xbe81e6d0	-0.25371408
20	0xbe7889aa	-0.24271265
21	0x3d6d7eb3	0.057982158
22	0xbd8a7c75	-0.067620195
23	0x3d83b650	0.06431258
24	0x3dfcbdcc	0.123408884
25	0x3d9645c1	0.07337523
26	0xbde6ba6a	-0.112660244
27	0xbd8cc10b	-0.068727575
28	0x3dd4dcc8	0.10393673
29	0x3d4ce011	0.050018374
30	0xbd44c57d	-0.048039902
31	0x3d90b875	0.070664324
32	0x3dc8a73c	0.097975224
33	0xbd1c29fc	-0.038125977
34	0xbe2168a5	-0.15762575
35	0xbd0602c2	-0.032717474
36	0xbdb67ed0	-0.08910906
37	0x3cedb11f	0.029015122
38	0xbde5e0b6	-0.11224501
39	0xbd178af5	-0.036997754
40	0xbeb0fd25	-0.34568134
41	0xbe09f2ca	-0.13471523
42	0x3e04e87f	0.12979315
43	0xbddf0f7d	-0.10891626
44	0x3ca40bd4	0.020025171
45	0x3dd65b8b	0.10466679
46	0x3c1eae28	0.009685077
47	0x3c967574	0.018366553
48	0x3dc936e6	0.09824924
49	0xbd724343	-0.059146177
50	0x3e74256a	0.23842397
51	0x3dddc8cc	0.108293146
52	0xbd9e1b74	-0.0772008
53	0xbdb4a854	-0.088211685
54	0xbd124964	-0.035714522
55	0x3b6d9bc9	0.0036256185
56	0xbe0fab7f	-0.14030264
57	0x3c8d4ae5	0.017247627
58	0xbd390c4c	-0.045177743
59	0xbdd385dc	-0.10328266
60	0xbe8efc75	-0.27926984
61	0x3dac6eb5	0.08419553
62	0xbdef354c	-0.116800874
63	0x3d21272a	0.03934399

hiden_layers.1.weight f4 [64, 64]
0	0xbc7f605c	-0.015586939
1	0x3d318f2c	0.04334943
2	0xbe9fe5bc	-0.3122996
3	0x3d1e254e	0.038609795
4	0xbe3ed19f	-0.18634652
5	0x3e6f5332	0.2337158
6	0xbdb395ff	-0.08768844
7	0xbe201f2b	-0.1563689
8	0x3dc3dd89	0.09563739
9	0x3b24e721	0.0025162178
10	0xbce984f3	-0.028505778
11	0xbdff4a79	-0.124653764
12	0x3dd870a6	0.10568361
13	0xbce14c9b	-0.027502349
14	0xbd7f1fb6	-0.0622861
15	0xbda6bf3f	-0.08141946
16	0x3cc28da0	0.023749173
17	0x3e3ed397	0.18635403
18	0x3dc1c0e1	0.09460617
19	0x3dc83b69	0.097769566
20	0x3e699fc3	0.2281485
21	0xbdc96ab6	-0.098348066
22	0x3d608ad5	0.0548199
23	0xbe2d736c	-0.16938561
24	0xbd6408c1	-0.05567241
25	0xbe533f9b	-0.20629732
26	0xbdc4d2f9	-0.09610552
27	0x3e3e932c	0.18610829
28	0x3b3e86e0	0.002907209
29	0xbaf7268c	-0.0018856092
30	0xbdb8213c	-0.08990714
31	0x3ce90a2c	0.028447233
32	0xbe922136	-0.28540963
33	0x3e59a04d	0.21252556
34	0xbe263b7e	-0.16233632
35	0xbe4d47c4	-0.20046908
36	0xbde85cb8	-0.1134581
37	0xbd91b2cb	-0.0711418
38	0xbd58871f	-0.052863237
39	0x3e202d00	0.15642166
40	0x3c9712ba	0.018441547
41	0x3e2f2d9b	0.17107241
42	0xbe27df64	-0.1639381
43	0x3e231ebb	0.15929691
44	0x3e4fd7e0	0.20297194
45	0x3d6177a0	0.055045724
46	0x3e44f0b0	0.1923244
47	0xbe44051a	-0.19142571
48	0x3c5b5011	0.013385789
49	0xbe0cae33	-0.13738327
50	0xbe0e71b2	-0.13910559
51	0x3e07d666	0.1326538
52	0xbdf4dbec	-0.11956009
53	0xbd949582	-0.07255079
54	0xbb9d0dfe	-0.0047929278
55	0xbe60bdcf	-0.21947406
56	0x3e61a78f	0.22036575
57	0xbdff40ec	-0.12463555
58	0xbe4856a0	-0.19564295
59	0x3d885b7d	0.06658075
60	0x3d964144	0.07336667
61	0x3dc02a81	0.09383107
62	0x3d17bf81	0.037047867
63	0xbdc0bbe9	-0.09410841
64	0x3e6a58f2	0.22885492
65	0x3c360202	0.011108877
66	0x3cd39087	0.025825752
67	0xbe00b7bb	-0.12570088
68	0xbd42f5f2	-0.047597833
69	0xbd2f7630	-0.04283732
70	0xbb31b591	-0.0027116279
71	0xbeab51c4	-0.3346082
72	0x3e3b8512	0.18312481
73	0xbfc63c46	-1.5487144
74	0xba225347	-0.0006192219
75	0x3e924f6d	0.28576222
76	0x3d6293e0	0.055316806
77	0xbcb0f346	-0.021600377
78	0xbdaff3df	-0.085914366
79	0xbdd80828	-0.10548431
80	0xbd6b011a	-0.057374097
81	0xbe0d20a1	-0.13781978
82	0x3d825890	0.06364548
83	0xbea024bc	-0.31278026
84	0x3d2a5060	0.041580558
85	0x3dc64391	0.09680856
86	0xbe12b72e	-0.1432769
87	0x3e207e45	0.15673168
88	0xbd92443c	-0.07141921
89	0xbd67c3e2	-0.056583293
90	0x3d55e4bf	0.052220102
91	0x3d816c66	0.063195035
92	0xbd9573e2	-0.072974935
93	0x3e6d3a6b	0.23166816
94	0x3d71efdf	0.05906665
95	0x3db946d4	0.090467125
96	0x3e7eee36	0.24895558
97	0xbd005352	-0.03132946
98	0xbe13313f	-0.14374255
99	0xbecf51d0	-0.40492105
100	0xbec307aa	-0.38091785
101	0xbdd1bbb3	-0.10240879
102	0x3c0ee40f	0.008721366
103	0xbf062b89	-0.5241018
104	0xbf3072db	-0.68925256
105	0xbbda0881	-0.006653846
106	0x3e6dbbbf	0.2321615
107	0xbea9ccfb	-0.331642
108	0xbdb23ce2	-0.08703019
109	0x3e51395e	0.2043204
110	0x3ebcbb1e	0.3686151
111	0xbed3df65	-0.41381374
112	0x3daeccbf	0.08535146
113	0x3e25c4fb	0.16188423
114	0xbe486611	-0.19570185
115	0x3de1263a	0.10993619
116	0xbe1b4f5e	-0.15166995
117	0x3ddeb777	0.10874837
118	0x3ebb7552	0.36612946
119	0x3eba63b6	0.36404198
120	0xbe459892	-0.19296482
121	0x3f163c2f	0.5868558
122	0x3c0a00a8	0.008423008
123	0x3d0bf093	0.034164976
124	0x3dac7c40	0.08422136
125	0xbde0fbe6	-0.10985546
126	0xbe18327e	-0.14863011
127	0xbd5c8729	-0.053839836
128	0x3da35a9d	0.079762675
129	0x3e863f5c	0.26220214
130	0x3e4d958e	0.20076582
131	0x3e2253da	0.158523
132	0x3d0c22ee	0.034213
133	0x3ddb4f44	0.10708478
134	0xbe082742	-0.13296226
135	0x3e65e9aa	0.22452417
136	0x3e0c1ee1	0.13683654
137	0xbbbb425c	-0.0057146978
138	0xbe35564b	-0.177087
139	0x3b82c549	0.0039908034
140	0x3e039135	0.12848361
141	0x3bc1228a	0.00589401
142	0x3de4ae24	0.11166027
143	0x3e314d76	0.17314705
144	0xbdd5ff84	-0.10449126
145	0xbd3ed6f3	-0.04659171
146	0x3d9ee1b6	0.07757895
147	0x3c312b1f	0.0108135035
148	0xbe0802fd	-0.1328239
149	0xbda65889	-0.081223555
150	0xbdc04382	-0.09387876
151	0xbe1dfbe9	-0.15428127
152	0x3e0667ca	0.1312553
153	0x3ea7662f	0.32695147
154	0xbeb14280	-0.34621048
155	0xbe8c1d37	-0.2736604
156	0x3e251f7e	0.16125295
157	0xbd54643e	-0.05185341
158	0x3dfb471e	0.12269424
159	0x3e8f1284	0.27943814
160	0xbc080a9d	-0.008303312
161	0xbe1e74a5	-0.15474184
162	0xbe132cd0	-0.14372563
163	0xbd86d989	-0.0658446
164	0xbd072615	-0.032995302
165	0xbe106dc7	-0.14104377
166	0xbd1a6d8a	-0.03770212
167	0xbd58902a	-0.05287186
168	0xbe20b141	-0.15692617
169	0xbe6da52d	-0.23207541
170	0xbeb03a91	-0.34419683
171	0xbdd92b0e	-0.10603915
172	0x3e25e8f3	0.16202144
173	0x3d37fc5a	0.044918396
174	0xbe3dc872	-0.18533495
175	0x3cf70c03	0.030157095
176	0x3de11aa3	0.10991409
177	0xbdba0224	-0.090824395
178	0x3c0a0eb9	0.008426362
179	0xbe8654dc	-0.26236618
180	0x3d3b9c74	0.045803502
181	0xbd4f35f0	-0.05058855
182	0x3ddd4613	0.10804381
183	0x3b6cc3ce	0.003612745
184	0xbdaefb8c	-0.085440725
185	0x3e1f83fb	0.1557769
186	0xbe841f56	-0.25805157
187	0x3df247bc	0.118300885
188	0xbd7a106a	-0.06105081
189	0x3cd846ec	0.026401006
190	0x3ddeb6bd	0.10874698
191	0xbd70409f	-0.058655377
192	0x3e275c15	0.1634372
193	0xbd2051f3	-0.039140653
194	0xbdf74640	-0.12073946
195	0x3de5a1d5	0.11212508
196	0x3e30ad39	0.17253579
197	0xbe25300e	-0.16131613
198	0xbd67931d	-0.056536783
199	0xbdd49ca8	-0.10381442
200	0xbe1a5fec	-0.15075654
201	0x3bae4781	0.0053185825
202	0xbe0f8d10	-0.14018655
203	0x3e99b4a3	0.30020627
204	0x3e94aeef	0.29039714
205	0x3ea2c1ed	0.3178858
206	0x3d3655c3	0.044515382
207	0x3e53241f	0.20619248
208	0x3d4f86d7	0.050665703
209	0xbd933f32	-0.07189788
210	0x3de1081b	0.10987874
211	0x3e0c5086	0.13702592
212	0x3ce17eb8	0.027526245
213	0xbe22e54d	-0.15907784
214	0x3d56177b	0.052268486
215	0x3d990134	0.074709326
216	0x3e0d708e	0.13812467
217	0x3d6d1349	0.05787972
218	0x3bd05c1d	0.006358637
219	0xbcfac085	-0.030609379
220	0x3e1cace0	0.15300322
221	0x3e3f69f9	0.18692769
222	0x3e00a052	0.12561157
223	0x3e4c7c04	0.19969183
224	0x3e805853	0.25067386
225	0x3ba941a2	0.0051652947
226	0xbdd5817d	-0.104250886
227	0x3c15cf08	0.009143598
228	0x3e0c9e06	0.13732156
229	0x3e23a929	0.15982498
230	0x3e2dd854	0.16977054
231	0x3e3f8238	0.18702018
232	0x3e414e59	0.18877544
233	0xbd7322ac	-0.059359238
234	0x3e00007a	0.12500182
235	0x3d492ef8	0.04911706
236	0xbdf2baab	-0.1185201
237	0xbe0fbec0	-0.14037609
238	0xbe177d06	-0.14793786
239	0xbd8c9240	-0.068638325
240	0x3bdf5392	0.0068153823
241	0x3d9fd3df	0.07804083
242	0xbe2a7db9	-0.16649522
243	0x3e024088	0.12719929
244	0x3e0c8500	0.1372261
245	0xbdb5ba2a	-0.088733986
246	0xbe9c9151	-0.30579618
247	0xbc5ff311	-0.013668791
248	0xbe1a0eaa	-0.15044656
249	0xbd311564	-0.04323329
250	0x3e23423f	0.1594324
251	0x3c31f006	0.010860449
252	0xbe2a9897	-0.16659771
253	0x3e5a0e8b	0.2129461
254	0x3dbc26eb	0.091871105
255	0xbe6be8b1	-0.23037983

hiden_layers.1.bias f4 [64]
0	0x39ee68fb	0.00045473114
1	0xbc84a88e	-0.016193654
2	0x3d133dbb	0.035947543
3	0x3d6adef8	0.057341546
4	0xbdfd0255	-0.123539604
5	0x3db05245	0.08609442
6	0xbd02190c	-0.031762168
7	0xbddd0adb	-0.10793086
8	0xbdeeee3e	-0.11666535
9	0x3d89e59e	0.06733249
10	0x3c7b046a	0.015320877
11	0xbdab0291	-0.08350099
12	0xbe1915ce	-0.14949724
13	0xbc8ee492	-0.017442975
14	0xbdf1ac68	-0.11800462
15	0xbd124946	-0.03571441
16	0xbdc409ce	-0.095721826
17	0xbd9671ac	-0.073459
18	0x3d395045	0.045242567
19	0xbe31f16b	-0.1737725
20	0xbdce3cb0	-0.10070169
21	0x3daf79ea	0.08568175
22	0x3d231c0c	0.03982167
23	0x3c1a9715	0.009435435
24	0x3b919081	0.004442275
25	0x3ddb9780	0.10722256
26	0x3ca1c068	0.019745067
27	0x3d8b0983	0.067889236
28	0xbdc46471	-0.0958947
29	0x3d80ccf9	0.062890954
30	0xba038199	-0.0005016565
31	0xbb1fc0dc	-0.0024376428
32	0xbdfe116d	-0.124056675
33	0xbe3e8dc8	-0.18608773
34	0xbb658c8a	-0.0035026395
35	0xbdb6aaf9	-0.08919329
36	0xbb435f01	-0.0029811265
37	0xbdbd0d48	-0.09231049
38	0xbd3e7b11	-0.046504084
39	0xbdbe0b80	-0.09279537
40	0x3d45f7f5	0.048332173
41	0xbdc3f401	-0.095680244
42	0xbdadb89a	-0.084824756
43	0x3cfc8677	0.030825837
44	0x3d9ff91e	0.07811187
45	0x3c8db9b6	0.017300468
46	0xbdec21ae	-0.115298614
47	0xbd5e94d0	-0.054341137
48	0x3cff252c	0.031145655
49	0x3d9131cb	0.070895754
50	0x3ba47077	0.0050182897
51	0x3b77ef30	0.0037831776
52	0xbdedc969	-0.116106816
53	0xbe2ef02b	-0.17083804
54	0xbcf6d46d	-0.03013059
55	0xbd495791	-0.049155775
56	0xbd2e19be	-0.04250502
57	0xbd427bde	-0.04748141
58	0x3cb9e848	0.022693768
59	0x3db4d5e9	0.088298626
60	0xbd144854	-0.03620179
61	0xbe1637a5	-0.14669664
62	0x3d54860d	0.051885653
63	0xbc2f888b	-0.010713707

hiden_layers.2.weight f4 [64, 64]
0	0xbdd3b99f	-0.10338139
1	0xbda96746	-0.08271651
2	0xbc8e8788	-0.01739861
3	0xbdc6bf8a	-0.09704502
4	0x3e6488a9	0.22317757
5	0xbf800a1a	-1.0003083
6	0xba1e2edb	-0.00060342037
7	0x3bfe1ea9	0.00775512
8	0xbd40c75c	-0.047065124
9	0xbe50e93e	-0.20401475
10	0xbd3b141e	-0.045673482
11	0x3e007780	0.12545586
12	0x3d3a3376	0.045459233
13	0x3fdc4e06	1.7211311
14	0xbe35e105	-0.1776162
15	0x3d7ad739	0.06124041
16	0xbe4859c5	-0.19565494
17	0xbe57eac0	-0.21085644
18	0xbe86e63d	-0.26347533
19	0xbe993aa5	-0.29927555
20	0x3e7ab77f	0.2448406
21	0xbfd44aeb	-1.6585363
22	0xbebc718b	-0.36805376
23	0x3bef3d77	0.0073010284
24	0x3f1c81c4	0.61135507
25	0xbea6dda4	-0.32590973
26	0xbe93a79a	-0.28838807
27	0xbe197299	-0.14985122
28	0x3e51b8c2	0.20480636
29	0xbe780b5f	-0.24223088
30	0x3cf4a314	0.029862918
31	0xbdc9f9ef	-0.09862124
32	0x3d05f398	0.032703012
33	0x3e75d7d2	0.2400811
34	0xbede4e73	-0.43419227
35	0xbe6fad34	-0.23405915
36	0x3e751796	0.23934779
37	0x3ee03033	0.43786773
38	0x3ec9a640	0.3938465
39	0x3c00e00c	0.007865917
40	0xbc5f0f1a	-0.01361444
41	0xbd852d32	-0.06502761
42	0x3e917805	0.2841188
43	0x3d90f8ad	0.07078681
44	0x3e6e159b	0.2325043
45	0x3d9bbb6b	0.076041065
46	0x3df7948e	0.120888814
47	0xbb901b0e	-0.0043977564
48	0xbe806c0d	-0.25082436
49	0x3e877c2d	0.26461926
50	0xbf47309b	-0.7780854
51	0xbebcece6	-0.3689949
52	0xbe8fd1dd	-0.280898
53	0x3d4c8181	0.049928192
54	0x3ebd16e4	0.36931527
55	0x3e6d4fbd	0.23174949
56	0xbeaf360e	-0.34220928
57	0x3eedf448	0.46475434
58	0x3ddc5d42	0.10759975
59	0xbe64d099	-0.22345199
60	0xbed2c37f	-0.41164777
61	0x3f870f7c	1.05516
62	0x3e9a550d	0.30143014
63	0x3df6671e	0.12031387
64	0x3e1250d4	0.14288646
65	0xbd544e3f	-0.051832434
66	0x3f0a07ca	0.53918135
67	0xbcdbf115	-0.026848355
68	0x3e9051ec	0.281875
69	0x3eff6c0b	0.49887118
70	0x3ea2a23a	0.31764394
71	0x3ec0771d	0.37590876
72	0x3edd4823	0.43219098
73	0xbec2238b	-0.37917742
74	0x3f20155e	0.62532604
75	0x3d050924	0.03247942
76	0x3c0a3ab1	0.008436845
77	0xbeac9b0e	-0.33712047
78	0xbeaf92c0	-0.3429165
79	0x3e152145	0.14563473
80	0xbece5a1a	-0.40303117
81	0xbcdf618e	-0.027268197
82	0xbea16f49	-0.31530216
83	0xbf0c6723	-0.54844874
84	0x3ef09bd4	0.46993887
85	0x3e27db87	0.16392337
86	0x3e88a1dd	0.26685992
87	0x3d4e56a5	0.0503756
88	0xbe07decf	-0.13268588
89	0x3d830990	0.06398308
90	0x3e96bf41	0.2944279
91	0x3d63ef86	0.05564835
92	0xbea8bf1a	-0.329583
93	0x3c853454	0.016260304
94	0x3d2c671a	0.042090513
95	0xbf3d4f26	-0.73948896
96	0xbe40ad77	-0.18816172
97	0x3e853c3e	0.26022524
98	0x3e18ab34	0.14909059
99	0x3e28fcd4	0.16502696
100	0x3ebabd2a	0.36472446
101	0xbf62a52a	-0.8853327
102	0x3ebaddba	0.3649729
103	0xbe61cb98	-0.22050321
104	0x3e6ffa9d	0.23435445
105	0x3d354cfe	0.04426288
106	0x3e4f5b2e	0.20249626
107	0x3e8fa2a7	0.2805378
108	0x3da1803e	0.078857884
109	0x3d6d8d77	0.05799624
110	0xbe199984	-0.14999968
111	0x3ec44b5c	0.38338745
112	0xbf0115bd	-0.50423795
113	0x3e77fce6	0.24217567
114	0x3e23eaa8	0.16007483
115	0xbeae907e	-0.34094614
116	0xbd76cf6b	-0.060256403
117	0xbdadb862	-0.08482434
118	0xbf31f445	-0.6951335
119	0xbea671ff	-0.32508847
120	0x3ef0f278	0.4705999
121	0xbd7ed7d6	-0.062217556
122	0xbdc9ac4b	-0.098473154
123	0x3f2d2bc4	0.67644906
124	0x3dda007a	0.10644622
125	0x3daeda04	0.08537677
126	0x3db9b4c5	0.09067682
127	0xbec79d5a	-0.38987237
128	0x3d3cfbd6	0.046138607
129	0xbe05e946	-0.13077268
130	0xbe04be41	-0.12963201
131	0xbdc50704	-0.09620479
132	0x3f034dda	0.5129067
133	0x3e7b2a0b	0.24527757
134	0x3d7bafde	0.061447017
135	0xbe586592	-0.21132496
136	0xbee105d8	-0.4394977
137	0x3f0defd9	0.55444103
138	0xbe055142	-0.13019279
139	0x3e407e86	0.18798265
140	0x3e9d1371	0.30678895
141	0xbd99742f	-0.074928634
142	0xbdbbf4a5	-0.091775216
143	0x3d1cc30b	0.038271945
144	0xbcba3c84	-0.022733934
145	0xbe33994c	-0.17538947
146	0x3e8ac140	0.27100563
147	0x3d63c249	0.055605207
148	0xbe9c9e84	-0.30589688
149	0x3e91d281	0.28480914
150	0x3e56c582	0.20973781
151	0xbe9916d4	-0.2990023
152	0xbe038fd7	-0.1284784
153	0xbe9cc81b	-0.30621418
154	0xbe05c869	-0.13064732
155	0x3d604d0e	0.054760985
156	0x3e8e5ac2	0.27803618
157	0x3e74de41	0.23912908
158	0xbe19f001	-0.1503296
159	0x3e8a907e	0.27063364
160	0x3d4b3740	0.049613237
161	0xbe8fb2c5	-0.28066078
162	0x3c60ba99	0.013716363
163	0x3e351ffe	0.17687985
164	0x3ea4eb56	0.32210797
165	0xbdeaa068	-0.11456376
166	0x3dc35969	0.09538538
167	0x3f33ddc0	0.7026024
168	0x3d8d64e7	0.06904011
169	0xbc68460d	-0.014176858
170	0xbd94772e	-0.07249294
171	0xbd0adb51	-0.033900563
172	0x3e58b9b8	0.21164596
173	0x3e26f2c1	0.16303541
174	0xbd2b3ab4	-0.04180403
175	0xb9aa697e	-0.00032503525
176	0x3db67c50	0.089104295
177	0xbd8842e5	-0.06653384
178	0xbe3e9c00	-0.18614197
179	0x3e501d3b	0.2032365
180	0xbe695ae6	-0.22788581
181	0x3daea4d0	0.08527529
182	0x3ec9f715	0.3944632
183	0xbd322b28	-0.04349819
184	0xbeaa8bd5	-0.33309808
185	0xbde6e831	-0.11274756
186	0xbe39886e	-0.1811845
187	0xbe506c43	-0.20353799
188	0x3d83a1ba	0.06427331
189	0xbe8159fc	-0.25263965
190	0x3d6fb441	0.058521513
191	0x3d83f107	0.06442457
192	0xbe594a15	-0.21219666
193	0xbe6c2f3b	-0.23064892
194	0xbcc4bfa9	-0.024017172
195	0x3e9fd5d2	0.3121782
196	0xbe405efe	-0.18786237
197	0xbdf7f27e	-0.121067986
198	0x3d05500d	0.032547045
199	0xbdf4f653	-0.11961045
200	0xbddb0be9	-0.10695631
201	0x3e8b51d9	0.27210882
202	0x3de671a6	0.112521455
203	0xbe4c4a06	-0.19950113
204	0x3d85874c	0.065199465
205	0x3d0bc8ba	0.034126975
206	0xbd687a3c	-0.056757197
207	0xbd5bac86	-0.053631328
208	0x3e6bdb9d	0.23032995
209	0xbed2ef77	-0.41198322
210	0xbda89218	-0.0823099
211	0x3d4b7748	0.049674302
212	0xbea9500c	-0.33068883
213	0x3d29cdb1	0.04145593
214	0x3e4cddcc	0.20006484
215	0xbd347ae5	-0.044062514
216	0xbd715b8a	-0.05892519
217	0x3b08a9a9	0.0020853078
218	0x3d795425	0.060871262
219	0x3e16bcf3	0.14720516
220	0xbdc60c77	-0.09670346
221	0x3dfc963a	0.12333341
222	0xbe5b86a2	-0.21438077
223	0xbe096b3b	-0.13419811
224	0xbe3e9376	-0.1861094
225	0xbe0298b2	-0.12753561
226	0x3e1d1b44	0.15342432
227	0x3e9d3d5d	0.3071088
228	0x3a65fe2e	0.00087735325
229	0x3d8ac962	0.06776692
230	0x3b5840f1	0.0032997692
231	0xbdf25ab0	-0.118337035
232	0x3e2460d3	0.1605256
233	0xbe553320	-0.20820284
234	0x3dc0b9ca	0.094104365
235	0x3d806f7a	0.062712625
236	0x3dc72b86	0.09725098
237	0xbc66f61a	-0.014096761
238	0xbf22c589	-0.63582665
239	0xbda1af36	-0.07894747
240	0x3eb96f46	0.36217707
241	0x3d8b263f	0.06794404
242	0x3de1cd61	0.11025501
243	0xbe604537	-0.21901403
244	0xbe13c510	-0.14430642
245	0xbe809eba	-0.251211
246	0x3e008ad7	0.12552963
247	0xbd081164	-0.03321971
248	0x3e866344	0.2624761
249	0xbe5648c2	-0.20926192
250	0xbdbb5e06	-0.09148793
251	0x3e519c14	0.20469695
252	0x3db688b7	0.08912795
253	0xbe506496	-0.2035087
254	0x3e874f82	0.26427847
255	0x3e01dd69	0.12682118

hiden_layers.2.bias f4 [64]
0	0xbdf88ebd	-0.121366
1	0xbd15df1e	-0.036589734
2	0x3eb7b304	0.35878766
3	0x3d89cc32	0.067284
4	0x3cc92aab	0.024556478
5	0xbe8d1c6f	-0.27560756
6	0x3c4c0444	0.012452189
7	0xbdd7300b	-0.1050721
8	0x3dc3d831	0.095627196
9	0x3dd04ec8	0.10171276
10	0x3c6bddab	0.0143961115
11	0xbd99e1fd	-0.07513807
12	0x3d5ce683	0.05393077
13	0x3d3a4d0d	0.045483638
14	0x3da96b51	0.08272422
15	0x3d301889	0.04299215
16	0x3d9224d2	0.07135929
17	0xbdd68ea6	-0.10476427
18	0x3ddc7cf8	0.107660234
19	0xbc502bbb	-0.012705739
20	0x3de231b8	0.11044639
21	0xbe40f679	-0.18844022
22	0x3d5531ea	0.052049555
23	0x3d8ff6d0	0.070294976
24	0xbd1a4faa	-0.03767363
25	0xbd1ecc5c	-0.03876911
26	0xbb8e2f3a	-0.004339126
27	0xbe8d7935	-0.27631536
28	0xbe1a88eb	-0.15091293
29	0x3cae4b59	0.021276163
30	0x3e0c0b1a	0.1367611
31	0x3ce8d71b	0.028422883
32	0x3e040807	0.12893687
33	0x3cf8a9ce	0.030354407
34	0xbd20a5bb	-0.039220553
35	0x3d09f6a3	0.033682477
36	0x3dd56aa7	0.10420733
37	0x3b739522	0.0037167748
38	0x3dd80934	0.1054863
39	0x3da28fc5	0.07937578
40	0x3d0f9b33	0.03506012
41	0xbb6e0c0f	-0.0036323105
42	0x3cb6bed2	0.022307787
43	0xbddeeb52	-0.108847275
44	0x3db53411	0.088478215
45	0x3cb723c7	0.022355927
46	0x3abef85a	0.0014569864
47	0x3d06ebb6	0.032939635
48	0x3cebdfa8	0.028793171
49	0xbd8c08e6	-0.06837635
50	0xbb9d28da	-0.0047961297
51	0xbdecfc34	-0.115715414
52	0x3bc1ab4a	0.005910312
53	0xbd36c80e	-0.04462438
54	0xbdae9980	-0.085253716
55	0xbd6a2293	-0.05716188
56	0x3d90ceeb	0.070707165
57	0xbd048aa9	-0.0323588
58	0xbe843148	-0.2581885
59	0xbce0d8c7	-0.027447117
60	0xbd8b96b6	-0.06815855
61	0xbc861da9	-0.016371565
62	0xbd2ffdc7	-0.04296663
63	0xbd076a78	-0.03306052

hiden_layers.3.weight f4 [64, 64]
0	0xbc8f509a	-0.017494489
1	0x3e335931	0.17514493
2	0x3e01a66a	0.12661138
3	0x3f15f3cb	0.58575124
4	0xbd9da89b	-0.076981746
5	0x3e2bb5e5	0.16768606
6	0xbd83b16e	-0.064303264
7	0xbe8cee5a	-0.27525598
8	0x3dc366aa	0.09541066
9	0x3e10c774	0.14138585
10	0x3d87274f	0.065992944
11	0x3d1daa80	0.03849268
12	0x3e6f79a8	0.23386252
13	0xbe9cccd7	-0.3062503
14	0x3e5eb9d6	0.21750578
15	0xbe041c5e	-0.12901446
16	0xbea9fae0	-0.33199215
17	0xbd9bb897	-0.07603567
18	0x3d597e43	0.05309893
19	0xbdb25ac2	-0.08708717
20	0x3e78d1e7	0.24298821
21	0xbd86d8f1	-0.06584347
22	0x3dc892b8	0.097936094
23	0x3e174852	0.14773682
24	0x3da99862	0.08281018
25	0x3e76a796	0.24087366
26	0xbde1f7b0	-0.11033571
27	0x3c69f23a	0.014278943
28	0x3dab5dc2	0.08367492
29	0x3dc76130	0.09735334
30	0xbd2a350d	-0.0415545
31	0x3dfc0f41	0.12307597
32	0x3e0f3c85	0.1398793
33	0x3db8ae28	0.09017593
34	0x3d3830a5	0.044968266
35	0x3dc05011	0.093902715
36	0x3c1f7ff9	0.009735101
37	0x3dbd95fb	0.09257122
38	0xbe2a8ef5	-0.16656096
39	0xbcd7ca43	-0.026341563
40	0xbdb7fcf1	-0.089837916
41	0x3dbfdcd4	0.093682915
42	0xbce94611	-0.028475793
43	0x3c61053d	0.013734159
44	0x3c92f2be	0.017938014
45	0x3d8ed45a	0.069740966
46	0x3c0d88cf	0.008638575
47	0x3d780d9e	0.06055986
48	0x3e9ffab3	0.31245956
49	0xbda9877f	-0.08277797
50	0xbdec4316	-0.11536233
51	0xbd6028ca	-0.0547264
52	0x3e9101e7	0.28321764
53	0x3e5cdec0	0.21569347
54	0x3e631f54	0.2217992
55	0xbe0463ed	-0.12928744
56	0x3d8694cc	0.065713495
57	0x3d91e711	0.071241505
58	0xbc77fbd9	-0.015135729
59	0x3e6cad51	0.2311299
60	0x3e5f1517	0.21785389
61	0x3e280091	0.16406466
62	0xbde89c58	-0.11357945
63	0x3e7c4efe	0.24639508
64	0xbe02381c	-0.12716717
65	0xbdc01014	-0.09378067
66	0xbd843284	-0.064549476
67	0x3dbb5c85	0.09148506
68	0xbd3fe49f	-0.04684889
69	0x3da14698	0.07874793
70	0xbec2272d	-0.37920514
71	0x3e29acfc	0.16569895
72	0xbdb43276	-0.08798687
73	0xbe3a0cce	-0.18168947
74	0x3e9786c7	0.29595014
75	0x3d614c0e	0.055004172
76	0x3e4ad58b	0.19808023
77	0x3d44ee89	0.048079047
78	0xbd808ca2	-0.062768236
79	0x3dab789d	0.083726145
80	0x3c2227e4	0.009897206
81	0xbd3db2b7	-0.046313014
82	0x3e1b0ad5	0.15140851
83	0x3e04097e	0.12894246
84	0x3e61e2ec	0.2205922
85	0xbdfee0af	-0.12445199
86	0xbdbee94c	-0.093218416
87	0x3e2d110b	0.16901033
88	0xbe3e9b33	-0.18613891
89	0xbd08e6b0	-0.033423126
90	0x3e9f2fcf	0.31091163
91	0xbe527d9a	-0.20555726
92	0x3e67840b	0.22608964
93	0xbc27f223	-0.010250601
94	0xbe481f23	-0.19543128
95	0x3dd33b74	0.10314074
96	0x3e8aa378	0.27077842
97	0xbe289824	-0.16464287
98	0x3e38c84e	0.1804516
99	0x3e07900e	0.13238546
100	0xbd878ca3	-0.06618621
101	0xbe554c26	-0.2082983
102	0xbe3b2285	-0.18274887
103	0x3c3665a5	0.011132632
104	0x3d6e22e1	0.058138732
105	0x3d7ddcdd	0.06197821
106	0xbaf2d52d	-0.0018526666
107	0x3f094463	0.53619975
108	0xbd033ec3	-0.032042276
109	0x3de744ff	0.11292457
110	0x3e21f31e	0.15815398
111	0x3d0bc579	0.03412387
112	0x3e113fee	0.14184543
113	0xbe8e2af5	-0.2776715
114	0xbc88a824	-0.016681738
115	0x3e1436e0	0.14474058
116	0x3dddfb4d	0.108389474
117	0xbdb87e33	-0.090084456
118	0xbe2ad77c	-0.16683763
119	0x3e1beaa1	0.15226223
120	0x3dce1634	0.10062829
121	0xbe006576	-0.12538704
122	0x3e8dc141	0.27686504
123	0x3da761fb	0.08172985
124	0x3d813763	0.06309392
125	0x3e60ab8f	0.21940444
126	0xbd5eb47e	-0.05437135
127	0x3e63d4da	0.22249165
128	0x3e6ff05b	0.23431532
129	0x3e82e740	0.25567055
130	0xbf2200c3	-0.6328241
131	0xbc73c036	-0.01487737
132	0xbebc1606	-0.36735553
133	0x3e1926f9	0.14956273
134	0xbdd8879d	-0.10572741
135	0xbe0f76a0	-0.14010096
136	0xbde26fa4	-0.1105645
137	0xbea3834d	-0.31936112
138	0xbe4f0d8d	-0.20220013
139	0x3da64818	0.081192195
140	0xbe6469ea	-0.22306028
141	0x3e30c5cb	0.17262952
142	0xbd7ff0e4	-0.06248559
143	0x3f0a17e2	0.5394269
144	0x3c236454	0.009972651
145	0x3ead3c66	0.33835143
146	0xbe046926	-0.12930736
147	0xbde39235	-0.11111871
148	0xbdad6567	-0.084666066
149	0xbd0701af	-0.03296059
150	0xbdcded5a	-0.10055037
151	0x3ea530d3	0.32263812
152	0x3dd236cb	0.10264357
153	0xbd60e4db	-0.054905754
154	0xbe3ff48b	-0.1874563
155	0x3ebaa7a3	0.36456022
156	0x3e2366ea	0.15957227
157	0xbcaed465	-0.021341512
158	0x3e231918	0.15927541
159	0xbe423d48	-0.1896869
160	0x3d50d5ec	0.05098526
161	0xbd0a0f60	-0.03370607
162	0x3e21139a	0.15730134
163	0x3cbb4e51	0.022864493
164	0x3d053295	0.032518942
165	0xbd14bb2b	-0.03631131
166	0xbceb0c39	-0.028692352
167	0x3d5d3e76	0.054014646
168	0x3e006830	0.12539744
169	0xbeac4cd1	-0.33652356
170	0xbd2471ee	-0.040147714
171	0xbeaab49a	-0.33340913
172	0xbe3a46d2	-0.18191078
173	0xbe995842	-0.29950148
174	0x3b9202e7	0.0044559124
175	0xbe37a909	-0.17935576
176	0xbe3853fc	-0.18000787
177	0xbe83dfa4	-0.25756562
178	0x3dfba3cb	0.122871004
179	0x3d7baed3	0.061446022
180	0xbdb5d957	-0.08879345
181	0x3e197061	0.14984275
182	0xbdf45a2a	-0.1193126
183	0xbe344594	-0.17604667
184	0xbf0245a1	-0.50887495
185	0xbd53d1fa	-0.05171392
186	0x3db6245f	0.08893656
187	0x3e643d4d	0.2228901
188	0x3df2c8ef	0.11854731
189	0xbd4a1274	-0.049334005
190	0x3e7b31f4	0.24530774
191	0x3dc1da37	0.09465449
192	0x3e070671	0.13186051
193	0xbcfe4dbb	-0.031042924
194	0xbd4ccbe4	-0.049999133
195	0x3dce6a23	0.10078838
196	0xbe8529eb	-0.26008543
197	0xbcef0985	-0.029179344
198	0xbcf4a268	-0.029862598
199	0xbe070e9a	-0.13189164
200	0x3d3d5886	0.046227
201	0xbe8ba472	-0.272739
202	0xbe72149f	-0.23640679
203	0xbb6906c1	-0.0035557004
204	0xbd841c70	-0.064507365
205	0xbe36269f	-0.1778817
206	0x3dff578f	0.12467872
207	0xbd497078	-0.049179524
208	0xbe959462	-0.2921477
209	0x3e25d725	0.16195352
210	0xbcece69b	-0.028918555
211	0xbe10075a	-0.14065304
212	0xbcf67a1f	-0.030087529
213	0xbd4eda87	-0.050501373
214	0x3d5c6bb3	0.053813647
215	0xbe336e51	-0.17522551
216	0x3e74ff55	0.23925526
217	0x3d8fbfad	0.07018981
218	0x3dd23d46	0.10265593
219	0x3e4b0742	0.19826987
220	0x3e78bfd0	0.2429192
221	0xbdbf28df	-0.093339674
222	0x3d92737e	0.07150935
223	0x3dda87fa	0.10670467
224	0x3e33941c	0.17536968
225	0x3e70abe8	0.23503077
226	0xbb640c52	-0.0034797383
227	0xbea73449	-0.32657078
228	0xbe860c90	-0.2618146
229	0xbc5bb8e9	-0.013410785
230	0xbeb874e1	-0.36026672
231	0xbe4cd88a	-0.20004478
232	0x3dc22eb4	0.09481564
233	0xbd8ff3c4	-0.070289165
234	0xbe098e00	-0.13433075
235	0x3e910131	0.2832122
236	0x3e4c741b	0.19966166
237	0xbe6f0a42	-0.23343757
238	0x3e04734d	0.12934609
239	0x3e7d5b54	0.2474187
240	0xbe1712e4	-0.147533
241	0x3e394354	0.1809209
242	0xbe1fc9b1	-0.15604283
243	0xbe3945bc	-0.18093008
244	0x3d919e24	0.07110241
245	0xbc495ecb	-0.012290667
246	0x3c76dd29	0.015067377
247	0x3e328bd6	0.17436156
248	0x3e98aa01	0.29817203
249	0x3e184c6e	0.14872906
250	0x3de1543d	0.11002395
251	0xba15af73	-0.0005710043
252	0xbba849de	-0.005135759
253	0xbe6da0ec	-0.23205918
254	0xbe4fc803	-0.20291142
255	0x3dc71f98	0.09722823

hiden_layers.3.bias f4 [64]
0	0xbbe966a8	-0.0071228333
1	0x3d30b406	0.043140434
2	0xbcc47ec8	-0.023986235
3	0xbd74f012	-0.05979926
4	0x3d951cdb	0.07280894
5	0xbdbfc6fb	-0.093641244
6	0xbab3c74e	-0.0013716014
7	0xbd68b800	-0.0568161
8	0x3e1631fa	0.14667502
9	0x3d3d2b00	0.046183586
10	0x3d396ce5	0.045269866
11	0xbc9ad028	-0.018898085
12	0xbdbda641	-0.09260226
13	0xbc88ef21	-0.016715588
14	0x3dcd9269	0.10037691
15	0xbd6f66e7	-0.058447745
16	0x3e129ef9	0.14318456
17	0xbdf3be98	-0.11901587
18	0x3e100c29	0.14067139
19	0x3c6661fb	0.014061446
20	0xbd1b732b	-0.03795163
21	0x3dccdd26	0.10003118
22	0xbd5047c2	-0.050849684
23	0xbb6bdf63	-0.0035991303
24	0xbd6f5d1b	-0.0584384
25	0x3d9d113c	0.07669303
26	0x3cb107db	0.021610191
27	0xbe001b2f	-0.1251037
28	0x3d8310fa	0.063997224
29	0x3d0795f4	0.03310199
30	0xbd5d4286	-0.05401852
31	0xbe16f901	-0.14743425
32	0xbde29c04	-0.11064914
33	0xbd73d396	-0.059527956
34	0xbe4c6379	-0.19959821
35	0xbdae1aa6	-0.085011765
36	0x3dbd5578	0.092448175
37	0x3bbccfe6	0.005762088
38	0x3a804937	0.0009787445
39	0x3d5dbe61	0.054136638
40	0xbddeb849	-0.10874993
41	0xbbd5545b	-0.0065103
42	0x3db2e47c	0.08734986
43	0x3e586744	0.21133143
44	0xbdb41f1e	-0.08794998
45	0x3d3c2711	0.045935694
46	0xbd87ff7f	-0.06640529
47	0x3c88070d	0.016604925
48	0xbdbeb6b5	-0.09312192
49	0x3d4a187c	0.049339756
50	0x3c8dda0e	0.01731589
51	0xbe1083fb	-0.14112847
52	0x3cec703d	0.028862113
53	0xbcacb3c8	-0.02108182
54	0xbdcf1f42	-0.10113384
55	0x3d21ea30	0.03952998
56	0x3b751dd1	0.0037401805
57	0x3d205958	0.039147705
58	0x3d8bf973	0.06834688
59	0xbdf223c6	-0.118232295
60	0x3dc4dc47	0.09612327
61	0x3d899963	0.06718709
62	0xbda481ba	-0.08032556
63	0x3d971102	0.07376291

hiden_layers.4.weight f4 [64, 64]
0	0xbe86a551	-0.26298
1	0x3ef4f488	0.47842813
2	0x3e342208	0.17591107
3	0xbd0b4b73	-0.0340075
4	0x3c868a08	0.01642324
5	0xbdac7dd2	-0.08422436
6	0xbd944b43	-0.072409175
7	0x3e952ca5	0.29135624
8	0xbe7b4749	-0.24538912
9	0xbd08af9a	-0.03337059
10	0x3daeb4b4	0.0853056
11	0xbd877cd3	-0.06615605
12	0x3e58dd57	0.21178184
13	0xbe77c299	-0.24195327
14	0xbe376d26	-0.1791273
15	0x3da19841	0.07890368
16	0xbe592e02	-0.21208957
17	0xbd0d5c8b	-0.034512084
18	0x3e805fd8	0.25073123
19	0x3e7323e7	0.23744164
20	0xbe49d6b4	-0.19710809
21	0x3e5187f5	0.2046202
22	0xbed5250d	-0.4162983
23	0xbe08cfd6	-0.13360533
24	0x3e6a0756	0.22854361
25	0xbd9c1197	-0.076205425
26	0x3df3fbb0	0.1191324
27	0x3e35f2e8	0.17768443
28	0xbea10736	-0.31450814
29	0xbd2b19f9	-0.041772816
30	0xbe7b0400	-0.24513245
31	0x3d1bc975	0.03803392
32	0x3ccb7c30	0.02483949
33	0xbe12b933	-0.1432846
34	0x3ed97c51	0.42477658
35	0xbd792280	-0.060823917
36	0x3e258600	0.16164398
37	0xbe2b97e1	-0.16757156
38	0x3c0d357b	0.008618708
39	0xbb33b531	-0.002742123
40	0x3e06f924	0.13180977
41	0xbc03d006	-0.008045202
42	0x3db38ffc	0.08767697
43	0xbe4ab42e	-0.19795296
44	0xbd99b136	-0.075045034
45	0x3cc75c72	0.024336074
46	0x3d51c325	0.051211495
47	0xbd91d67d	-0.071209885
48	0xbe8ea2bf	-0.2785854
49	0xbe1204dd	-0.14259668
50	0x3ebf4771	0.37359193
51	0x3d7769b6	0.06040355
52	0xbe9e01d1	-0.3086076
53	0x3e0e8c4a	0.13920704
54	0x3e968d67	0.29404756
55	0xbead2428	-0.33816648
56	0xbc660847	-0.014040059
57	0x3daefe2c	0.08544573
58	0xbe265c1b	-0.16246073
59	0xbdb9780d	-0.09056101
60	0x3d127cb2	0.03576345
61	0x3db5a133	0.08868637
62	0xbe63f55b	-0.22261564
63	0xbdc98f8d	-0.09841833
64	0xbdd8bd40	-0.105829716
65	0xbe3b4371	-0.18287446
66	0xbdfb2f86	-0.12264924
67	0x3e94766a	0.28996593
68	0x3e20b466	0.15693817
69	0x3d0b1271	0.033953134
70	0xbecf10a4	-0.40442383
71	0xbddad573	-0.106852435
72	0xbe8ce706	-0.27520007
73	0xbcdf5be1	-0.027265491
74	0xbe4d2dae	-0.20036957
75	0x3e9db85d	0.3080472
76	0x3c155aef	0.009115919
77	0x3d9db97c	0.07701394
78	0xbe81bd0e	-0.2533955
79	0x3e282077	0.16418634
80	0xbe08b53e	-0.13350388
81	0xbe80d093	-0.2515913
82	0x3e3fc81e	0.18728682
83	0xbd50287f	-0.05081987
84	0x3e8cf19a	0.27528077
85	0x3d8827cc	0.06648216
86	0x3e76ada4	0.24089676
87	0x3da945d6	0.08265273
88	0xbd24d3ab	-0.040240925
89	0xbea23a92	-0.3168531
90	0xbd90b7c5	-0.07066301
91	0x3deb499e	0.11488651
92	0xbd81564f	-0.0631529
93	0x3d73e1f4	0.059541658
94	0xbb80c53b	-0.0039297617
95	0xbe1e38e6	-0.15451393
96	0x3e73b634	0.23799974
97	0xbc2b9844	-0.010473315
98	0x3e180c49	0.14848436
99	0xbd381de0	-0.044950366
100	0xbe281b36	-0.1641663
101	0x3d4a0cfe	0.049328797
102	0x3e02e20b	0.12781541
103	0x3dc80a79	0.097676225
104	0x3e3b379b	0.1828293
105	0xbe067056	-0.1312879
106	0x3dc7f5ec	0.09763703
107	0x3e7e4959	0.24832667
108	0xbe3404ad	-0.17579909
109	0x3da36713	0.07978644
110	0xbdb055ef	-0.086101405
111	0xbcb65931	-0.022259327
112	0xbe0ff174	-0.14056951
113	0x3e8af72f	0.2714171
114	0xbd9fd725	-0.078047074
115	0xbddad5cb	-0.10685309
116	0x3ec629f6	0.3870389
117	0xbd9e2a1e	-0.07722877
118	0x3dc0e1ff	0.09418105
119	0x3e912a0c	0.28352392
120	0x3da9c981	0.08290387
121	0xbe8c3e3c	-0.2739123
122	0x3d2f048d	0.04272895
123	0xbdcec987	-0.10097032
124	0x3e58c219	0.21167792
125	0xbc7ea8e4	-0.015543196
126	0x3dce1ca0	0.100640535
127	0xbb936788	-0.004498426
128	0xbe5deca2	-0.216723
129	0xbd5b2694	-0.053503588
130	0x3dcb1877	0.09916776
131	0xbea82cab	-0.3284658
132	0xbdb36c95	-0.08760945
133	0xbe9b5e8e	-0.30345577
134	0x3d7d28b8	0.06180641
135	0x3e2751aa	0.16339746
136	0x3d818664	0.06324461
137	0xbd2a83a0	-0.041629434
138	0x3e0516b3	0.1299694
139	0xbee6c55e	-0.45072454
140	0xbce41a60	-0.027844608
141	0x3e3f9231	0.18708111
142	0x3e36a9ce	0.17838213
143	0xbc937238	-0.0179988
144	0x3db0555f	0.08610033
145	0xbcf5308a	-0.029930372
146	0xbb7970b3	-0.0038061559
147	0x3e2bafa0	0.16766214
148	0xbc93bd43	-0.018034583
149	0xbe73b489	-0.23799337
150	0xbe1201b9	-0.1425847
151	0xbd0cff03	-0.034422886
152	0xbbefa11d	-0.0073129074
153	0xbe8faa65	-0.28059688
154	0xbd13f752	-0.036124535
155	0x3e97859b	0.2959412
156	0xbe4ad84d	-0.19809075
157	0x3e366066	0.1781021
158	0xbe804156	-0.25049847
159	0x3ef747b2	0.48296887
160	0xbda1ccb6	-0.07900374
161	0xbe9419ab	-0.28925833
162	0xbd1a0804	-0.0376053
163	0xbc57ec46	-0.013178891
164	0x3d11fb94	0.035640314
165	0x3d15673f	0.036475416
166	0xbdb9dc3c	-0.090752095
167	0x3e254b7e	0.16142079
168	0x3e316ac9	0.17325892
169	0x3da86b3d	0.08223579
170	0xbf181c69	-0.5941835
171	0xbcdd0573	-0.026980137
172	0xbce9b532	-0.028528783
173	0x3e4a1277	0.19733606
174	0x3dc71ab6	0.097218916
175	0x3e51b13f	0.2047777
176	0x3e4261e3	0.18982653
177	0xbdc9fb64	-0.09862402
178	0x3e247028	0.16058409
179	0xbcbcf065	-0.023063848
180	0xbd6eaf78	-0.05827281
181	0x3e1b94d4	0.15193492
182	0x3cf48279	0.02984737
183	0x3ce7b4d2	0.028284464
184	0xbe704682	-0.23464397
185	0xbdceead1	-0.101033814
186	0xbd63453a	-0.05548594
187	0x3eca0573	0.39457282
188	0x3d97d4d8	0.074136436
189	0x3d368c80	0.044567585
190	0x3d16818e	0.036744647
191	0x3e5d82c1	0.2163191
192	0x3da32051	0.07965148
193	0xbef06a87	-0.46956274
194	0x3ae1b7d6	0.0017220925
195	0x3ddc7dcf	0.107661836
196	0x3d1d87e7	0.038459685
197	0xbdb9ec8a	-0.09078319
198	0x3dc27f15	0.09496895
199	0xbde7464b	-0.11292704
200	0x3e21d5fe	0.15804288
201	0x3e022c34	0.12712175
202	0x3e6c157c	0.2305507
203	0x3e109682	0.14119914
204	0x3d8f2155	0.069887795
205	0x3d6a829f	0.057253476
206	0x3e3ad567	0.18245469
207	0x3e823c6e	0.2543673
208	0x3d1d71b6	0.03843852
209	0xbce99d01	-0.028517248
210	0x3cc00467	0.0234396
211	0xbd3ce705	-0.046118755
212	0xbdabe365	-0.083929814
213	0x3d4cd68f	0.050009307
214	0x3f15b738	0.58482695
215	0x3d4c3c01	0.04986191
216	0x3be536b6	0.0069950474
217	0xbc3f6e6a	-0.01168404
218	0x3e199471	0.14998032
219	0xbe512f8a	-0.20428291
220	0xbe9711ab	-0.29505667
221	0xbd13d842	-0.03609491
222	0xbd62b33b	-0.05534671
223	0xbde6256f	-0.11237609
224	0xbd1b9b32	-0.037989803
225	0x3cc0c115	0.023529569
226	0xbd985021	-0.074371584
227	0xbe06ca92	-0.13163212
228	0x3ca48934	0.020084955
229	0x3d78cd19	0.06074247
230	0xbccfa8f3	-0.025349116
231	0x3dabc2fd	0.083868004
232	0xbeacbf51	-0.33739713
233	0x3dd60625	0.10450391
234	0xbe914389	-0.28371838
235	0x3e8b0eb1	0.27159646
236	0x3dcb91c7	0.09939914
237	0xbd8c771f	-0.06858658
238	0xbdcce078	-0.100037515
239	0xbb30a242	-0.0026952182
240	0xbe8070bd	-0.25086012
241	0xbd2a2c2b	-0.041546028
242	0xbe426969	-0.18985523
243	0x3e79ca03	0.24393468
244	0xbd0fd529	-0.035115395
245	0x3e17bfc4	0.14819247
246	0x3c74890d	0.014925254
247	0x3e6017ce	0.21884081
248	0xbedb7a7e	-0.42866892
249	0xbceef2a1	-0.029168429
250	0x3e1f9d6d	0.15587397
251	0x3d0978eb	0.033562582
252	0x3e1e0521	0.15431644
253	0x3e1b1c20	0.15147448
254	0x3eb49649	0.35270908
255	0x3e37825c	0.17920822

hiden_layers.4.bias f4 [64]
0	0x3cb11283	0.021615272
1	0x3ca2170d	0.019786382
2	0x3dc1647a	0.094429925
3	0x3d466cf4	0.04844375
4	0x3d8d63ed	0.06903825
5	0xbd04ef2c	-0.032454655
6	0x3e4dd0d1	0.20099188
7	0xbe00c6fd	-0.12575908
8	0xbdbc49e8	-0.09193784
9	0x3cc2ad3f	0.02376425
10	0x3d645a97	0.055750456
11	0x3d8fc88e	0.07020675
12	0x3ddb8a64	0.10719755
13	0xbe51469a	-0.20437089
14	0x3da1969a	0.07890053
15	0x3d842776	0.06452839
16	0x3dae1941	0.085009106
17	0xbac7e29d	-0.0015250031
18	0x3de4481e	0.11146568
19	0xbcccbd8a	-0.024992723
20	0xbdb5c4d1	-0.088754304
21	0xbe415132	-0.1887863
22	0xbe4fccb2	-0.20292929
23	0xbd9e9c5e	-0.077446684
24	0x3c7c4b1e	0.015398769
25	0xbdb52fdf	-0.08847021
26	0xbc6e3023	-0.014537844
27	0x3cf51832	0.029918764
28	0xbd5f8bc6	-0.054576658
29	0x3e35cd7e	0.1775417
30	0x3d04c4d0	0.032414258
31	0x3ddb7cdf	0.10717177
32	0xbca0c29b	-0.019624045
33	0xbc544832	-0.012956666
34	0xbb47970f	-0.0030455028
35	0x3dbdafe9	0.09262068
36	0xbd8e5c7a	-0.06951232
37	0x3d979241	0.074009426
38	0xbdb6be53	-0.0892302
39	0xbd2e5b66	-0.042567633
40	0xbd02d209	-0.031938586
41	0x3cbdbab4	0.023160316
42	0x3e16cc62	0.14726403
43	0x3e63b275	0.22236045
44	0x3cbb8cfc	0.022894375
45	0x3e725431	0.23664929
46	0x3e160c45	0.14653118
47	0xbcbde169	-0.023178773
48	0xbd3306ae	-0.043707542
49	0x3c783b02	0.015150787
50	0x3ea87194	0.32899153
51	0x3cfe30d4	0.031029142
52	0xbda8ef65	-0.08248786
53	0x3dcc8f7a	0.099883035
54	0xbb8372fd	-0.0040115104
55	0x3c73e431	0.014885948
56	0x3c0ad7cc	0.008474302
57	0x3dad56f0	0.08463848
58	0x3d225a05	0.03963663
59	0xbdc6c20b	-0.097049795
60	0xbd9e44cf	-0.07727968
61	0x3e00a538	0.12563026
62	0xbe194b57	-0.14970146
63	0xbd492a19	-0.049112413
