results/2_model_1_case_2/epoch100/model_weights.pth (torch, 484214 bytes, 88 tensors)

init_layer.0.weight f4 [64, 3]
0	0xbefbbf1a	-0.49169236
1	0xbdc6b078	-0.097016275
2	0x3e8e4efa	0.2779463
3	0x3eab1f38	0.33422256
4	0xbcd596e8	-0.026072934
5	0x3b9160e9	0.0044366014
6	0xbdb19b92	-0.08672251
7	0xbe3347a9	-0.17507805
8	0xbe5ba929	-0.21451248
9	0x3f0e0b26	0.5548576
10	0x3d995eb2	0.07488765
11	0x3db125f7	0.08649819
12	0xbe02896a	-0.12747732
13	0x3dcd23da	0.10016604
14	0x3ea69c61	0.32541183
15	0xbe0917cf	-0.13387989
16	0xbe4c7ee0	-0.19970274
17	0x3e85bffd	0.26123038
18	0x3e995fdc	0.29955947
19	0xbc32fc50	-0.010924414
20	0x3e995ec3	0.2995511
21	0x3ee4e913	0.44709072
22	0x3e12902e	0.14312813
23	0x3e9f71a8	0.311414
24	0x3e8c1c6f	0.27365443
25	0xbeacebfd	-0.33773795
26	0x3d92edba	0.07174249
27	0xbdd873b2	-0.10568942
28	0xbde76bfc	-0.11299893
29	0x3e91075b	0.28325924
30	0xbeee8b98	-0.46590877
31	0xba0f41eb	-0.00054648396
32	0x3da6b0da	0.081392005
33	0x3da63777	0.08116048
34	0x3d7905fc	0.060796723
35	0xbe8f137b	-0.2794455
36	0xbd16a6c1	-0.036780123
37	0xbd8df2bd	-0.06931064
38	0xbd9b087d	-0.075699784
39	0xbde8a24a	-0.11359079
40	0x3da4d495	0.08048359
41	0x3ee5511e	0.4478845
42	0x3e335b2a	0.17515245
43	0xbebf676f	-0.373836
44	0xbc938af1	-0.018010588
45	0x3e2f8044	0.17138773
46	0xbe50c3df	-0.20387219
47	0xbe6dcf5f	-0.23223637
48	0x3e1acf8e	0.15118238
49	0xbd93d1b8	-0.07217735
50	0x3e9327e3	0.2874137
51	0x3e42dca0	0.19029474
52	0x3e460850	0.19339108
53	0xbe635e88	-0.2220403
54	0x3dec7ae6	0.115468785
55	0x3bb31a36	0.005465771
56	0xbe82399f	-0.25434586
57	0xbe990b67	-0.29891512
58	0x3db0d91f	0.086351626
59	0xbe34d4a5	-0.17659242
60	0x3dee4fec	0.11636338
61	0xbdbce0c1	-0.09222556
62	0xbe12afd3	-0.14324884
63	0x3e669048	0.22515976
64	0xbbae0e80	-0.005311787
65	0xbdebf9c3	-0.11522248
66	0xbbc1f07f	-0.005918562
67	0xbd8e6d8a	-0.06954487
68	0xbe7c6642	-0.24648383
69	0xbd321693	-0.04347856
70	0x3e4e986d	0.20175333
71	0xbd30cea1	-0.043165807
72	0xbdcbfe0e	-0.099605665
73	0xbbbad4ee	-0.0057016527
74	0x3eaec054	0.3413111
75	0xbd851cb2	-0.06499614
76	0x3e329c67	0.17442475
77	0xbe33d74a	-0.17562595
78	0x3d033091	0.03202874
79	0x3e7ea818	0.2486881
80	0x3ebd4c33	0.36972198
81	0xbe082736	-0.13296208
82	0xbe34d695	-0.17659982
83	0x3e1c92e0	0.15290403
84	0x3e1295f7	0.1431502
85	0x3e2d3785	0.1691571
86	0xbe9fc413	-0.3120428
87	0x3d989230	0.07449758
88	0xbe8d37bc	-0.27581584
89	0x3e09650b	0.13417451
90	0xbe7441fe	-0.23853299
91	0xbe10f8e6	-0.14157447
92	0xbd94af42	-0.0725999
93	0xbd9c586b	-0.07634052
94	0x3c4bd0e0	0.012439936
95	0x3ead6b98	0.3387115
96	0xbdc92c22	-0.09822871
97	0x3e091f93	0.13390951
98	0x3e94baee	0.29048866
99	0xbead4a6b	-0.3384584
100	0x3e7f6d95	0.24944146
101	0xbdedce1e	-0.11611579
102	0x3cf29827	0.029613568
103	0xbc552ac9	-0.013010689
104	0xbe311bc5	-0.1729575
105	0xbd2b2c14	-0.041790083
106	0xbd8723e5	-0.06598643
107	0xbe51d7b0	-0.20492435
108	0x3dce8e0e	0.100856885
109	0xbb498393	-0.003074859
110	0xbec2e43e	-0.3806476
111	0xbe4f4656	-0.20241675
112	0xbd56ccd8	-0.052441448
113	0xbe12e034	-0.14343339
114	0x3e851b70	0.25997496
115	0xbdadbbb0	-0.08483064
116	0x3e9ebda9	0.31004074
117	0xbecfd9ed	-0.40595952
118	0x3e8a8706	0.2705614
119	0x3e8c1498	0.27359462
120	0x3e0c2e88	0.13689625
121	0xbd2940af	-0.041321453
122	0xbee31fb5	-0.44360128
123	0x3d6ceda8	0.057843834
124	0x3abb891a	0.0014307827
125	0xbeb5e78e	-0.35528225
126	0x3d0adda0	0.033902764
127	0xbd18ffbf	-0.037353273
128	0x3ea1fc95	0.31638017
129	0xbd5c4978	-0.053781003
130	0xbc8b087b	-0.016971817
131	0x3e7d926a	0.24762884
132	0x3e0b518c	0.13605326
133	0xbe14a6ac	-0.14516705
134	0xbe6e4fdd	-0.23272653
135	0xbe611cc5	-0.21983631
136	0xbe57566c	-0.21029061
137	0x3e76ccc5	0.24101551
138	0xbc88e9b9	-0.01671301
139	0xbe26fdb8	-0.16307724
140	0x3db36465	0.08759383
141	0x3e1347c9	0.14382853
142	0x3e58f216	0.21186098
143	0x3d322467	0.043491747
144	0x3ec00d91	0.3751035
145	0x3ec36de9	0.38169792
146	0x3d69d568	0.057088286
147	0x3e0e5e90	0.1390326
148	0xbe674b68	-0.22587359
149	0x3e8eb890	0.27875185
150	0x3d3a6b88	0.045512706
151	0xbe93a908	-0.28839898
152	0xbe25888e	-0.16165373
153	0xbee72434	-0.45144808
154	0xbd947fea	-0.0725096
155	0xbe0e7ff3	-0.13915996
156	0x3eaa07bf	0.33209035
157	0xbe9bd65c	-0.3043698
158	0x3dbfc4bf	0.09363698
159	0xbdf17e0c	-0.1179162
160	0xbe2f0b63	-0.17094187
161	0x3d309be4	0.04311742
162	0x3dffbff8	0.12487787
163	0xbde6db92	-0.112723485
164	0xbe9ec9a9	-0.3101323
165	0x3ec7372a	0.38909274
166	0xba50d7b8	-0.0007966715
167	0x3e9c1045	0.30481163
168	0x3e3e1eaf	0.18566392
169	0x3cea7818	0.028621718
170	0x3ea1d27d	0.31605902
171	0x3d18bac5	0.037287492
172	0xbdbefaea	-0.09325202
173	0x3d497823	0.049186837
174	0x3e8054a3	0.25064573
175	0x3e802993	0.2503172
176	0x3df18d65	0.11794547
177	0x3e0f42b8	0.13990295
178	0x3db2bb93	0.08727183
179	0xbe8c5ff8	-0.27416968
180	0xbe946f3f	-0.28991124
181	0xbe992645	-0.2991201
182	0xbe186290	-0.14881349
183	0xbe1f9ebd	-0.15587898
184	0xbca36f73	-0.019950604
185	0xbd8e5759	-0.06950254
186	0x3eb5662a	0.35429507
187	0x3c76dc61	0.015067191
188	0x3d32ef82	0.043685444
189	0x3eba4894	0.36383498
190	0x3c10702c	0.008815806
191	0x3e67e794	0.22646934

init_layer.0.bias f4 [64]
0	0x3e89b29c	0.2689408
1	0xbcb14082	-0.021637205
2	0x3c65c311	0.014023558
3	0xbe7efbae	-0.24900696
4	0x3d569306	0.052386306
5	0xbc9f655d	-0.019457513
6	0x3e049dda	0.1295084
7	0x3e3e5349	0.18586458
8	0xbe047c13	-0.12937956
9	0xbe20a2a4	-0.15687042
10	0x3e8a9676	0.27067918
11	0x3e374c14	0.17900115
12	0x3e4fee07	0.20305644
13	0x3ec351ef	0.38148448
14	0x3b9d1ccf	0.004794694
15	0x3e4e17e2	0.20126298
16	0x3e5c785e	0.21530291
17	0x3da444e1	0.0802095
18	0x3dd69380	0.10477352
19	0x3d4d771c	0.05016242
20	0x3e2226cc	0.15835112
21	0x3cb45c38	0.02201663
22	0x3e889561	0.26676467
23	0x3dabd885	0.08390907
24	0x3e0e50b4	0.13897973
25	0xbdc33b5d	-0.09532807
26	0x3da1a211	0.0789224
27	0xbda51e9a	-0.080624774
28	0xbea2c8f8	-0.31793952
29	0x3e1a9100	0.15094376
30	0xbcd9abe5	-0.026571224
31	0xbdc4a1c1	-0.096011646
32	0xbdfd494f	-0.12367498
33	0x3e19a6f6	0.15005097
34	0x3e3e4e98	0.18584669
35	0x3e95b366	0.29238433
36	0xbe735cc6	-0.23765859
37	0xbd80d72f	-0.06291043
38	0xbe59ad15	-0.21257432
39	0xbd336426	-0.04379668
40	0xbea3164f	-0.31852958
41	0xbcdd5bce	-0.027021315
42	0xbe94ac25	-0.29037586
43	0xbe321222	-0.1738973
44	0x3e04fee1	0.12987854
45	0xbc357b5f	-0.011076777
46	0xbe35c5ab	-0.17751186
47	0xbda1c933	-0.07899704
48	0xbd8d863b	-0.06910368
49	0x3e357183	0.17719083
50	0xbdea7f3d	-0.1145005
51	0xbdf07cc0	-0.11742544
52	0xbd83929d	-0.06424449
53	0xbe13ba8f	-0.14426635
54	0x3d3c3030	0.045944393
55	0x3e0bc57e	0.13649556
56	0x3e57cbb2	0.21073797
57	0xbdebfde6	-0.11523037
58	0x3cf6882a	0.030094225
59	0xbe428744	-0.18996912
60	0xbc088a26	-0.008333718
61	0xbcfe224c	-0.031022213
62	0x3ddeb7d3	0.108749054
63	0x3d83a286	0.06427483

hiden_layers.0.weight f4 [64, 64]
0	0xbea7b1d5	-0.32752863
1	0x3bc05670	0.005869679
2	0x3e3a9282	0.18219951
3	0x3e275142	0.16339591
4	0xbe8c0347	-0.2734625
5	0xbda34c29	-0.07973511
6	0x3d431f72	0.04763741
7	0xbe4a0eba	-0.1973218
8	0x3d26dc91	0.040737692
9	0xbdb228d0	-0.086991906
10	0xbdc56d73	-0.096400164
11	0x3e5eda7c	0.21763033
12	0x3d64c2f8	0.05585
13	0x3c0bd194	0.008533854
14	0x3e4b3b35	0.19846804
15	0xbe1bff29	-0.15234055
16	0xbdf41409	-0.11917884
17	0xbd8bbfdc	-0.06823704
18	0x3d0e3d01	0.034726147
19	0xbe15674d	-0.14590187
20	0xbd88e7ec	-0.066848606
21	0x3db10f1a	0.086454585
22	0x3c34d856	0.011037907
23	0xbe66fcc9	-0.22557367
24	0xbb8dee8c	-0.0043314155
25	0x3db9d994	0.09074703
26	0xbe237d98	-0.15965879
27	0xbe4e1517	-0.20125233
28	0x3d1e8312	0.038699217
29	0xbdbaa311	-0.09113134
30	0xbe2ce7ac	-0.16885251
31	0xbdef6fd9	-0.11691255
32	0xbe0f6ed5	-0.14007123
33	0xbdb2c16c	-0.087282985
34	0x3e59ee89	0.212824
35	0x3ca52482	0.02015901
36	0x3e172418	0.14759862
37	0x3d83d45a	0.06436987
38	0x3e8f393e	0.2797336
39	0x3cb16546	0.021654736
40	0x3e8847d8	0.26617312
41	0x3cd747e9	0.026279407
42	0x3e11d815	0.14242585
43	0xbe0ceee2	-0.13763002
44	0x3a404ece	0.00073359616
45	0xbdda53d2	-0.10660519
46	0x3d05ec35	0.032695968
47	0xbe5af70f	-0.21383308
48	0x3e940ce5	0.28916088
49	0xbe3bd41c	-0.18342632
50	0xbd3ff14a	-0.04686097
51	0x3da0cc14	0.07851425
52	0x3d8a0b88	0.06740481
53	0x3c3a10ad	0.011356515
54	0x3e818a9d	0.25301066
55	0x3e20da82	0.15708354
56	0xbe7b0624	-0.24514061
57	0xbe026137	-0.12732397
58	0xbe04f53a	-0.12984172
59	0x3e875dfc	0.26438892
60	0x3ce94eba	0.028479923
61	0xbd2c5849	-0.042076383
62	0xbd7d9b49	-0.06191567
63	0xbe321c0d	-0.17393513
64	0xb9379b9f	-0.00017510213
65	0xbe565463	-0.20930628
66	0xbe1fbefb	-0.15600197
67	0x3d8895c6	0.06669192
68	0xbe866cfb	-0.2625502
69	0xbe401235	-0.18756945
70	0x3e1435a9	0.14473595
71	0xbe4d3253	-0.20038728
72	0xbd298b96	-0.041392885
73	0xbecd516c	-0.40101182
74	0x3e8f804c	0.2802757
75	0x3dbce887	0.092240386
76	0x3e1cfaa5	0.15329988
77	0x3d131fb6	0.035918914
78	0x3d1ae317	0.037814226
79	0x3e87864d	0.2646965
80	0x3cf81241	0.030282142
81	0x3e8a4ef7	0.2701337
82	0x3e46a4ba	0.19398776
83	0x3d0792e5	0.033099074
84	0x3dfd4919	0.12367458
85	0xbe20fede	-0.15722224
86	0x3ec17e50	0.3779168
87	0x3e42d844	0.19027811
88	0xbdd33ac6	-0.103139445
89	0xbd4b67a8	-0.0496594
90	0x3e486691	0.19570376
91	0x3ceb561f	0.02872759
92	0x3dddda8e	0.108327016
93	0x3e092299	0.13392104
94	0xbe006b85	-0.12541015
95	0xbeb4c6d0	-0.35307932
96	0xbe2b579c	-0.16732639
97	0x3dbf0b78	0.09328359
98	0x3f022eb5	0.5085252
99	0x3ec3897a	0.38190824
100	0x3e5cce88	0.2156316
101	0xbca18914	-0.019718684
102	0xbe268648	-0.16262162
103	0x3e1448e9	0.14480938
104	0xbd8af70d	-0.067854024
105	0x3d58efc0	0.05296302
106	0xbedaaa67	-0.42708132
107	0xbe918ddb	-0.2842854
108	0x3e7ccd69	0.24687733
109	0xbe771fe0	-0.24133253
110	0xbc648d69	-0.01394973
111	0xbe665a4e	-0.22495386
112	0xbe001ece	-0.12511751
113	0xbd8f207d	-0.069886185
114	0xbd9dc1f2	-0.07703008
115	0xbd9c650e	-0.07636462
116	0x3d3467ec	0.04404442
117	0xbe7b6c4e	-0.24553034
118	0x3e8c9c42	0.27462965
119	0x3dc796d4	0.09745565
120	0xbe3d6e67	-0.18499146
121	0xbe588304	-0.21143728
122	0xbe4b7f55	-0.19872792
123	0xbdfc5ff4	-0.12322989
124	0x3e83f1b4	0.25770342
125	0x3e5fbad4	0.21848613
126	0x3e2d9432	0.16951063
127	0xbdff5977	-0.12468236
128	0x3e08acb5	0.13347133
129	0xbd97cb3a	-0.07411809
130	0x3e3b822c	0.18311375
131	0xbd24c79d	-0.04022943
132	0xbe525194	-0.20538932
133	0x3d53b02a	0.051681675
134	0xbcf20856	-0.02954499
135	0xbe4238b1	-0.18966939
136	0x3e1800b3	0.14844017
137	0xbbb1c377	-0.0054249126
138	0x3961c914	0.0002153258
139	0x3db7fe9a	0.08984108
140	0x3dfde9f3	0.12398138
141	0xbe40379f	-0.18771218
142	0x3e9d7234	0.30751193
143	0xbddd1a92	-0.107960835
144	0xbdb82460	-0.08991313
145	0xbe82a364	-0.25515282
146	0x3d1a165a	0.037618972
147	0xbdd2df0e	-0.102964506
148	0xbc2dd06b	-0.010608773
149	0xbe255f53	-0.16149645
150	0xbe28dcfa	-0.16490546
151	0xbdd12a83	-0.102131866
152	0x3cf40b9e	0.029790696
153	0xbe44f19a	-0.19232789
154	0xbcf29083	-0.029609924
155	0x3e94119d	0.28919688
156	0xbd6c0cf9	-0.05762956
157	0xbdd9080b	-0.10597237
158	0x3e7e80fb	0.2485389
159	0x3e70e81d	0.23526044
160	0xbe3449eb	-0.17606322
161	0xbe3d44c0	-0.18483257
162	0x3e29a2b6	0.16565976
163	0x3e466d01	0.19377519
164	0xbdc51ef4	-0.096250445
165	0xbdf29537	-0.11844867
166	0xbc3eae52	-0.011638241
167	0xba886cf7	-0.0010408451
168	0xbe54b748	-0.20773041
169	0xbd982ace	-0.07430039
170	0x3e5d7172	0.21625307
171	0x3e842c42	0.25815016
172	0x3e478a83	0.19486432
173	0x3dc0c0e6	0.094117925
174	0x3d63d378	0.055621594
175	0xbd1e941a	-0.03871546
176	0xbd9dfd9a	-0.07714386
177	0x3ddc7110	0.107637525
178	0xbda13276	-0.07870953
179	0xbcac1940	-0.021008134
180	0x3e2364a1	0.15956356
181	0x3d710d3f	0.058850523
182	0xbe07e3d6	-0.13270506
183	0x3d5786d2	0.05261881
184	0xbe62611b	-0.22107355
185	0x3e57e6cf	0.2108414
186	0xbe604a72	-0.21903399
187	0xbe375cb6	-0.1790646
188	0x3e544d65	0.20732649
189	0xbe58a4b9	-0.21156587
190	0xbdba5cdf	-0.09099745
191	0x3e2b8e59	0.1675352
192	0x3e0f9b87	0.14024173
193	0xbdec1816	-0.115280315
194	0x3cef8f36	0.029243093
195	0xbd89e846	-0.06733756
196	0x3dec2f23	0.11532428
197	0x3d461b82	0.048366077
198	0xbd03adf5	-0.03214832
199	0xbe165770	-0.14681792
200	0xbe6bed4a	-0.23039737
201	0xbe745953	-0.238622
202	0x3d819593	0.06327357
203	0x3e010408	0.12599194
204	0xbda44a05	-0.080219306
205	0xbe21b202	-0.15790561
206	0x3c81700c	0.015800498
207	0xbda61811	-0.08110059
208	0xbdb18886	-0.08668618
209	0x3e602815	0.2189029
210	0x3e7a87f7	0.24465929
211	0xbd981bc8	-0.07427174
212	0x3e90dfae	0.28295654
213	0xbd28da24	-0.04122366
214	0xbe091941	-0.1338854
215	0xbdc6dd26	-0.097101495
216	0x3e0a2ee7	0.13494454
217	0x3d940468	0.07227403
218	0xbd265162	-0.040604956
219	0xbe1479f1	-0.14499642
220	0xbd99b280	-0.07504749
221	0xbe509c66	-0.20372161
222	0xbe3579b3	-0.17722206
223	0xbce1b143	-0.027550345
224	0xbe289b86	-0.16465577
225	0x3de985e5	0.114024915
226	0xbdaf4b34	-0.08559266
227	0x3d5acb09	0.053416286
228	0x3d046723	0.03232492
229	0xbe4c7e7d	-0.19970126
230	0x3c90b108	0.01766254
231	0xbd6829f3	-0.05668063
232	0xbe027192	-0.12738636
233	0x3cc87901	0.024471762
234	0x3cae9c7a	0.021314848
235	0x3ddab696	0.10679357
236	0x3d9e96e2	0.07743622
237	0x3c14ce43	0.00908238
238	0xbb75825b	-0.003746173
239	0x3de44157	0.11145275
240	0x3e0228a6	0.12710819
241	0xbe16eced	-0.14738818
242	0x3e39f284	0.18158919
243	0xbd90d8c9	-0.070725985
244	0xbe5e8649	-0.21730913
245	0x3d1c4912	0.038155623
246	0x3e6c9b11	0.23106028
247	0x3d864ddd	0.0655782
248	0xbe42e7fc	-0.19033808
249	0xbe34c0ab	-0.17651622
250	0xbd802ca6	-0.06258516
251	0x3e475f71	0.19470002
252	0xbdd05527	-0.101724915
253	0xbdabd536	-0.08390276
254	0xbcaf95b2	-0.021433685
255	0xbdb39d2e	-0.08770214

hiden_layers.0.bias f4 [64]
0	0xbddc6e65	-0.107632436
1	0x3e1d14e9	0.15340008
2	0xbd67bdd8	-0.056577533
3	0xbb1ba5f6	-0.0023750043
4	0x3d59c1d3	0.05316336
5	0x3d323548	0.043507844
6	0x3d8d7b28	0.06908256
7	0xbd1ec06c	-0.038757727
8	0x3d838557	0.06421917
9	0xbcef50b2	-0.029213283
10	0xbe1bdd39	-0.15221108
11	0x3d9a1198	0.07522887
12	0x3e1a1d25	0.1505018
13	0xbd36ee52	-0.044660874
14	0x3a238bd3	0.0006238792
15	0x3e24aeea	0.1608235
16	0xbd913425	-0.07090024
17	0xbabd4219	-0.0014439254
18	0x3d7a378b	0.061088126
19	0xbdaf875a	-0.08570738
20	0xbe4bdfd3	-0.19909601
21	0x3d7b1a8b	0.06130461
22	0xbc1674a2	-0.009183081
23	0xbbd6fd49	-0.0065609557
24	0x3d7bba07	0.061456706
25	0x3d68458b	0.056706946
26	0xbe290210	-0.16504693
27	0xbdffada1	-0.12484289
28	0x3ddd94e3	0.108194135
29	0x3b2ad44f	0.0026066487
30	0x3d059cbb	0.032620173
31	0x3db3002b	0.087402664
32	0x3d6bf8fc	0.057610497
33	0xbd273a1b	-0.040826898
34	0xbe1f7574	-0.15572149
35	0xbd9a5f65	-0.07537726
36	0xbdc5d3eb	-0.09659561
37	0x3d482f0c	0.048872992
38	0xbe586279	-0.21131314
39	0xbe63cdcd	-0.22246476
40	0xbe59556e	-0.21223995
41	0xbde97869	-0.113999195
42	0x3da645a5	0.081187524
43	0xbdc58c29	-0.09645874
44	0x3c9f2f04	0.019431598
45	0x3e0f36c3	0.13985734
46	0xbd6884d1	-0.05676729
47	0x3caf0a86	0.021367323
48	0x3cee6424	0.029100485
49	0xbd87fa63	-0.06639554
50	0x3dc1a9a9	0.09456188
51	0x3d33f0f3	0.04393096
52	0x3c93d898	0.018047616
53	0xbd9835ad	-0.07432113
54	0x3d7fb707	0.062430408
55	0x3d894d2e	0.06704174
56	0xbdc2f26a	-0.09518893
57	0xbee2cc6a	-0.4429658
58	0xbe48fc35	-0.1962746
59	0xbe2ee814	-0.17080718
60	0xbf2cb4c5	-0.6746333
61	0x3d9268a9	0.071488686
62	0xbd9b9ce0	-0.07598281
63	0xbc75e20d	-0.015007508

hiden_layers.1.weight f4 [64, 64]
0	0xb9b67563	-0.00034801205
1	0x3cfa4dea	0.03055473
2	0xbe78f683	-0.24312787
3	0x3db9cfa9	0.09072811
4	0xbe778a13	-0.24173765
5	0x3e5f8233	0.21827011
6	0xbdfd1015	-0.12356583
7	0xbe0f6c4a	-0.14006153
8	0xbad2851e	-0.00160614
9	0x3da337dc	0.07969639
10	0xbba173f3	-0.0049271523
11	0xbe277368	-0.16352618
12	0x3dbeeb1d	0.09322188
13	0x3d4be056	0.04977449
14	0xbc09f12f	-0.008419319
15	0xbd3ce108	-0.046113044
16	0x3d038638	0.032110423
17	0x3e6121b8	0.21985519
18	0x3dd3253b	0.103098355
19	0x3e21e808	0.15811169
20	0x3e910ad9	0.2832859
21	0xbde96ec9	-0.11398084
22	0x3d47e44e	0.048801713
23	0xbdf167fc	-0.117874116
24	0xbd3aa5c7	-0.045568254
25	0xbe5f8cd2	-0.21831062
26	0x3bb693d7	0.005571823
27	0x3e733218	0.23749578
28	0x3d60d543	0.054890882
29	0xbd80b191	-0.06283868
30	0xbe1203ba	-0.14259234
31	0x3dba9f09	0.09112365
32	0xbe8a3ff3	-0.27001914
33	0x3e55120f	0.2080767
34	0xbe27d43c	-0.16389555
35	0xbe1f451d	-0.15553708
36	0xbdd302f4	-0.10303298
37	0x3d58fca9	0.05297533
38	0xbd7fd598	-0.06245956
39	0x3de0f93f	0.1098504
40	0x3e68f4ec	0.2274968
41	0x3e27817d	0.1635799
42	0xbe44b2a6	-0.19208774
43	0x3e395aa4	0.18100983
44	0x3e7eef71	0.24896027
45	0x3bfa5583	0.0076395883
46	0x3dff12a1	0.12454725
47	0xbe911d7b	-0.28342804
48	0xbd479008	-0.048721343
49	0xbe35314f	-0.17694591
50	0xbcffe4cd	-0.03123703
51	0x3e1f7ec1	0.15575697
52	0xbdd3a81a	-0.10334797
53	0x3bc93a67	0.0061409953
54	0xbc3d19b1	-0.01154177
55	0xbe2ff53e	-0.17183396
56	0x3e556b52	0.2084172
57	0xbe388778	-0.18020427
58	0xbe4c2cc5	-0.19938953
59	0x3e13802c	0.14404362
60	0x3d610350	0.0549348
61	0xbc3cd5b3	-0.011525559
62	0x3d397d82	0.04528571
63	0xbe13e37f	-0.14442252
64	0x3d610c5d	0.05494343
65	0x3e733302	0.23749927
66	0xbe8f7efd	-0.28026572
67	0x3e29033b	0.16505139
68	0xbdc1f29d	-0.09470103
69	0x3c5e4d68	0.01356826
70	0xbe07ef0c	-0.13274783
71	0xbd9a6d77	-0.0754041
72	0x3d9df4fe	0.07712744
73	0xbe292127	-0.16516553
74	0x3e1bb018	0.15203893
75	0x3e2f1a2e	0.1709983
76	0x3e908922	0.28229624
77	0xbdcd7305	-0.10031704
78	0xbd85ae3a	-0.06527372
79	0x3d342798	0.043983072
80	0x3d3af4da	0.045643665
81	0xbdaaf9e5	-0.08348445
82	0x3e173a0d	0.14768238
83	0x3ba1cd5e	0.0049378118
84	0xbe3a67db	-0.1820368
85	0x3e775411	0.24153163
86	0xbe27dd4c	-0.16393012
87	0x3d4edbff	0.050502773
88	0x3cf8f70c	0.030391239
89	0x3e1a0e47	0.15044509
90	0xbf03d08c	-0.5149009
91	0xbe85f837	-0.26165935
92	0x3d53214e	0.051545434
93	0xbbc64c12	-0.0060515488
94	0xbdc000cd	-0.09375153
95	0x3dfd6730	0.12373197
96	0x3dce8678	0.10084242
97	0x3dcbd563	0.0995281
98	0xbef09677	-0.46989796
99	0xbe2abbbd	-0.16673179
100	0xbea501e1	-0.32227996
101	0x3cd73425	0.026269982
102	0xbe7d7f82	-0.24755672
103	0xbe724717	-0.23659931
104	0xbea69591	-0.32535985
105	0xbe7572e6	-0.23969612
106	0x3d371748	0.044699937
107	0xbe22e81d	-0.15908857
108	0x3e5ca8ed	0.21548815
109	0x3e00d061	0.1257949
110	0x3d717905	0.058953304
111	0xbdca7f22	-0.0988753
112	0x3ee2f519	0.4432762
113	0x3d1205fb	0.035650235
114	0xbe0ce586	-0.13759431
115	0x3c269bde	0.010168998
116	0xbc926bdd	-0.017873699
117	0xbcad7dcc	-0.021178149
118	0x3e43b901	0.19113542
119	0xbd599ff1	-0.053131048
120	0xbd216da8	-0.039411217
121	0x3e1b18d1	0.15146185
122	0xbea5256a	-0.32255107
123	0x3e05858e	0.13039228
124	0x3ba00240	0.0048830807
125	0xbce287a3	-0.027652567
126	0x3ca81d5e	0.020521816
127	0x3df97d00	0.12182045
128	0x3d412a96	0.047159754
129	0x3e4c4696	0.19948801
130	0xbcaec8f8	-0.021336064
131	0x3d458cfa	0.04823015
132	0x3e487eb1	0.19579579
133	0x3e5fc7db	0.21853583
134	0xbe037767	-0.12838517
135	0x3e56646b	0.20936744
136	0x3e49da54	0.19712192
137	0x3c16842b	0.009186785
138	0xbe77d955	-0.24204
139	0xbcc8d685	-0.024516353
140	0x3d897822	0.06712367
141	0xbc47c319	-0.012192511
142	0x3e3f4999	0.18680419
143	0x3e382962	0.17984536
144	0xbe0b3823	-0.13595633
145	0xbd263f73	-0.040587854
146	0x3c87a458	0.016557857
147	0xbd082f62	-0.033248313
148	0x3cc98e99	0.024604129
149	0xbe7002d0	-0.23438573
150	0xbe460a96	-0.19339976
151	0xbe084ac7	-0.13309775
152	0xbdb93ba1	-0.090445764
153	0x3e26596e	0.16245052
154	0xbe841574	-0.25797617
155	0xbd394ab4	-0.045237258
156	0x3e1df462	0.15425256
157	0x3c6de524	0.014519963
158	0x3e0beff8	0.1366576
159	0x3e379d45	0.17931087
160	0x3e3ebba0	0.18626261
161	0xbe1deb14	-0.15421706
162	0xbdf60727	-0.12013083
163	0xbe212e17	-0.15740238
164	0xbd1ed428	-0.038776547
165	0xbe64e5cc	-0.22353286
166	0xbd7e6771	-0.06211037
167	0xbe4b07ab	-0.19827144
168	0xbe8d59fd	-0.27607718
169	0xbe2ddb7e	-0.16978261
170	0xbe716d82	-0.2357693
171	0xbd63bce7	-0.055600073
172	0x3d790760	0.06079805
173	0x3e212a7a	0.1573886
174	0xbdbc8833	-0.092056654
175	0x3cd0722c	0.025445066
176	0xbb81cc97	-0.0039611566
177	0xbc94078a	-0.018070001
178	0xbc99f6f3	-0.018794512
179	0xbe81e28f	-0.25368163
180	0xbd0748f9	-0.033028577
181	0xbe751fe0	-0.2393794
182	0x3e558cf1	0.20854546
183	0xbd1f5437	-0.038898673
184	0xbe073022	-0.13201955
185	0x3e5fbb59	0.21848811
186	0xbde02276	-0.10944073
187	0xbd3bf3cb	-0.045886796
188	0xbd1ad2c0	-0.037798643
189	0x3e2086ea	0.15676466
190	0x3d5b6b65	0.053569216
191	0x3cc77b8a	0.0243509
192	0x3e4b2c8c	0.19841212
193	0xbd048b1b	-0.032359224
194	0xbe5774fc	-0.2104072
195	0x3e6456bd	0.22298713
196	0x3ea98429	0.33108643
197	0xbe4f4651	-0.20241667
198	0xbdbcc9ae	-0.09218155
199	0xbdd48829	-0.10377533
200	0xbceb464a	-0.02872004
201	0xbdea296b	-0.11433681
202	0xbd8f278c	-0.06989965
203	0x3e2676a7	0.162562
204	0x3e8d1603	0.27555856
205	0x3e180ba3	0.14848189
206	0xbd6fa718	-0.058508962
207	0x3e0f9750	0.14022565
208	0x3aee2049	0.0018167581
209	0xbdaae8f9	-0.08345217
210	0x3da5ac0d	0.08089457
211	0x3e1bc6f0	0.15212607
212	0x3a9e8364	0.0012093601
213	0xbe40d3c5	-0.18830784
214	0x3d5e85c2	0.05432678
215	0x3dce79b4	0.10081807
216	0x3e9a849e	0.30179304
217	0x3d792982	0.0608306
218	0xbbb2fd83	-0.00546235
219	0xbda1ab5d	-0.07894013
220	0x3e56a9aa	0.20963159
221	0x3e650d17	0.22368275
222	0x3de6ea28	0.112751305
223	0x3e53c58f	0.20680831
224	0x3e6fef22	0.23431066
225	0xbe082cd6	-0.13298354
226	0xbe19de8b	-0.150263
227	0x3cfee2e8	0.031114057
228	0xba01219a	-0.00049259665
229	0x3cc60d84	0.024176367
230	0x3e120171	0.14258362
231	0x3e280552	0.1640828
232	0x3e0ab7d6	0.1354669
233	0xbd4a21d6	-0.049348675
234	0x3e02f92b	0.12790363
235	0x3dc8eab1	0.09810389
236	0xbddef2d1	-0.10886157
237	0xbe15d141	-0.14630605
238	0xbe3ba9a1	-0.18326427
239	0xbe135c06	-0.14390573
240	0xbac66b91	-0.0015138258
241	0x3d956454	0.07294527
242	0x3d405ded	0.046964575
243	0x3e2c8244	0.16846567
244	0x3e2b34a9	0.16719307
245	0x3c98303a	0.018577684
246	0xbeb09d86	-0.3449518
247	0xbd8845a1	-0.06653906
248	0xbe4a47e3	-0.19753985
249	0xbdcb6364	-0.09931067
250	0x3deded38	0.116175115
251	0x3dc1c78a	0.09461887
252	0xbe857ac4	-0.26070225
253	0x3e43cecb	0.19121854
254	0x3dd6389e	0.104600176
255	0xbe37a449	-0.17933764

hiden_layers.1.bias f4 [64]
0	0xbc2aff3f	-0.010436832
1	0x3d61a973	0.05509324
2	0x3d61f48a	0.05516485
3	0x3d860087	0.06543069
4	0xbd13aa35	-0.036050994
5	0x3d8ce781	0.06880093
6	0xbd573ff3	-0.05255122
7	0xbcbab76c	-0.02279254
8	0xbcfea9fe	-0.031086918
9	0xbbf730a6	-0.007543641
10	0xbc99e45e	-0.018785652
11	0xbd93c8b6	-0.07216017
12	0x3d05712a	0.032578625
13	0x3cbc832a	0.023011763
14	0xbd135d36	-0.035977565
15	0xbd23f0e6	-0.04002466
16	0x39df6b7e	0.00042613962
17	0xbd8ff0f8	-0.07028383
18	0xbc49f079	-0.0123254
19	0xbb88f863	-0.0041800006
20	0xbb868bd5	-0.0041060247
21	0x3e99e941	0.3006077
22	0x3d86f5f6	0.06589882
23	0x3d2fba33	0.042902183
24	0x3ccc16a2	0.024913136
25	0x3bf65ad2	0.007518151
26	0x3d6b77ca	0.057487287
27	0x3d0852c5	0.03328206
28	0xbd1a0f57	-0.037612285
29	0x3c353cd4	0.011061866
30	0xbce4e641	-0.027941825
31	0xbdf387ea	-0.11891158
32	0xbd21148a	-0.03932623
33	0xbd8601bf	-0.06543302
34	0x3cef1e4c	0.029189251
35	0xba867d93	-0.0010260813
36	0x3df08e82	0.11745931
37	0xbe76b864	-0.24093777
38	0xbdc90629	-0.09815628
39	0x3e3fb333	0.18720703
40	0x3ddb96a8	0.10722095
41	0xbd6aee3f	-0.057356115
42	0xbcb005b9	-0.021487104
43	0xbd2509ec	-0.040292665
44	0x3d959417	0.073036365
45	0xbe104140	-0.14087391
46	0xbd34f6f6	-0.044180833
47	0x3cce24ee	0.025164094
48	0xbd4e7aa3	-0.050409924
49	0xbd6786de	-0.056525104
50	0x3c923c44	0.017851003
51	0x3dc4717b	0.09591957
52	0xbcfadc47	-0.030622615
53	0xbd0fa274	-0.035067037
54	0xbde35885	-0.11100868
55	0xbd202745	-0.03909995
56	0x3d1f6fff	0.038925167
57	0xbe0a7f9c	-0.13525242
58	0x3be1fdb9	0.006896701
59	0x3e2c07cb	0.16799848
60	0x3e029e49	0.12755693
61	0xbd518ab9	-0.051157687
62	0x3c1334e2	0.008984776
63	0xbdb3d97d	-0.08781717

hiden_layers.2.weight f4 [64, 64]
0	0xbe144df0	-0.14482856
1	0xbe90bcfb	-0.2826918
2	0xbd99fdb5	-0.07519094
3	0xbd7ec88f	-0.062202986
4	0x3d1dca7b	0.03852318
5	0xbec5daf4	-0.3864361
6	0xbe2d0b86	-0.16898927
7	0xbe2303d2	-0.15919426
8	0xbeeb39d7	-0.45942566
9	0xbdb89b14	-0.09013954
10	0x3b78f6c0	0.0037988871
11	0xbd8fe1a2	-0.07025458
12	0xbe3262f7	-0.17420565
13	0x3e8dd6e0	0.27703
14	0xbe3f23eb	-0.18666045
15	0x3e28ebe2	0.16496232
16	0x3dc3b978	0.0955686
17	0xbdbc2cf6	-0.09188263
18	0xbcfc90de	-0.030830797
19	0xbe680033	-0.22656326
20	0x3d999739	0.074995466
21	0x3dc981d5	0.098392166
22	0xbcf09b70	-0.029370993
23	0xbd0a15b6	-0.03371211
24	0xbd58186a	-0.052757658
25	0xbe6ac3f5	-0.22926314
26	0xbe139568	-0.14412463
27	0x3d7e8a5a	0.06214366
28	0x3d754e06	0.059888862
29	0xbdc5266e	-0.096264705
30	0x3e1ba087	0.15197955
31	0x3e0ad266	0.13556823
32	0xbe4d7cdb	-0.2006716
33	0x3e405b08	0.18784726
34	0xbe18b064	-0.14911038
35	0xbe168b62	-0.14701608
36	0x3e99fb97	0.3007476
37	0x3e64c5ff	0.22341155
38	0x3ebb2f4c	0.36559522
39	0x3e89ea40	0.2693653
40	0xbe56b365	-0.20966871
41	0x3d1f8743	0.038947355
42	0x3d23de1f	0.040006753
43	0xbdcb3073	-0.0992135
44	0x3d933416	0.07187669
45	0xbe83c3be	-0.25735277
46	0xbccd4a9c	-0.02505999
47	0x3dd9d74b	0.10636767
48	0x3db5c7bb	0.08875986
49	0x3dadfb40	0.08495188
50	0xbe1243a8	-0.14283621
51	0xbe878a1a	-0.2647255
52	0xbdb27111	-0.08712972
53	0x3d66f2ed	0.056384016
54	0x3e92d974	0.2868153
55	0x3e7c72bb	0.24653141
56	0xbcc0e321	-0.023545804
57	0x3e608f85	0.21929748
58	0x3d45449a	0.048161127
59	0xbd076669	-0.03305665
60	0xbd4dce98	-0.05024585
61	0x3db67534	0.089090735
62	0x3e30bcf9	0.17259587
63	0x3ebef57b	0.37296662
64	0x3e13a697	0.14419018
65	0x3dc1aa1a	0.094562724
66	0x3dddb8d5	0.108262695
67	0x3d9c321a	0.076267436
68	0x3e644f58	0.22295892
69	0x3e761fc5	0.24035557
70	0x3d3900ae	0.045166664
71	0x3e8c139f	0.2735872
72	0x3e1ef593	0.15523367
73	0x3e8cea6e	0.27522606
74	0x3ea97c25	0.33102527
75	0x3ddefb2f	0.10887753
76	0xbd5d1fce	-0.05398541
77	0xbe1a4976	-0.15067086
78	0xbcc78711	-0.024356397
79	0x3da4234a	0.08014543
80	0xbe24ce46	-0.16094312
81	0xbbd08e7f	-0.006364643
82	0xbe84e7a3	-0.25957975
83	0xbdbd55af	-0.092448585
84	0xbe0436e8	-0.1291157
85	0xbe04839f	-0.12940834
86	0x3d81ca06	0.06337361
87	0xbe85f78e	-0.26165432
88	0xbe5ddfe6	-0.21667442
89	0x3ca52a9c	0.02016192
90	0x3e80bf54	0.25145972
91	0x3bd936b5	0.006628836
92	0xbe4d5111	-0.20050456
93	0x3d3f7a34	0.0467474
94	0xbcc07655	-0.023493925
95	0x3ca5e51b	0.020250848
96	0x3d8245ce	0.063609704
97	0x3dec493d	0.115374066
98	0xbcd3acb7	-0.025839193
99	0x3db0af5e	0.08627199
100	0x3e8867ec	0.26641786
101	0x3dadc02f	0.08483922
102	0xbc30df33	-0.010795402
103	0xbe83e62d	-0.25761548
104	0xbdf818ab	-0.1211408
105	0xbe037026	-0.1283575
106	0x3d0abb49	0.033870015
107	0x3e151638	0.14559257
108	0x3db5b65c	0.08872673
109	0xbe6eb354	-0.23310596
110	0xbe0f3fe0	-0.1398921
111	0x3e8488d0	0.2588563
112	0xbda3f4fa	-0.0800571
113	0x3ea3a97d	0.31965247
114	0xbdd47d8a	-0.10375507
115	0xbdf4f1a9	-0.119601555
116	0xbe256bd5	-0.16154416
117	0x3e37e95d	0.17960115
118	0xbda0b5fa	-0.07847209
119	0xbe96fed4	-0.29491293
120	0x3e9bfadc	0.30464828
121	0xbbfecba4	-0.0077757407
122	0x3d96b2fc	0.07358357
123	0x3ddaf1d2	0.10690655
124	0x3d92bc86	0.07164864
125	0x3e4f03e4	0.20216328
126	0x3e0474ec	0.12935227
127	0xbea1ca88	-0.31599832
128	0x3e3ebfb5	0.18627818
129	0xbf362c89	-0.71161705
130	0xbefbfc4b	-0.49215922
131	0xbe3c6ebc	-0.18401617
132	0x3e0b2011	0.13586451
133	0xbe83d6a6	-0.257497
134	0x3e43dcf5	0.19127257
135	0xbd575e37	-0.052580085
136	0xbe0b6e1e	-0.13616225
137	0x3e811c0b	0.25216708
138	0x3d2a3c29	0.04156128
139	0x3e709153	0.23492937
140	0xbed65681	-0.41862872
141	0x3e44e8e2	0.19229463
142	0xbe30013a	-0.17187968
143	0x3e6b9e99	0.23009719
144	0xbbfc8004	-0.0077056903
145	0xbe1cbb3b	-0.15305798
146	0x3eab1fab	0.33422598
147	0xbe93f6f9	-0.28899363
148	0xbe382130	-0.1798141
149	0xbdf2ed3c	-0.11861655
150	0x3e0a1ad9	0.13486804
151	0xbe828938	-0.25495315
152	0xbd1c69b5	-0.038186748
153	0xbdf5ada0	-0.11996007
154	0x3d183d01	0.037167553
155	0xbe10a4f1	-0.1412542
156	0x3e1ca282	0.15296367
157	0x3f01ea75	0.5074838
158	0x3df9e650	0.12202132
159	0x3eeff35c	0.46865356
160	0xbd2fbcdb	-0.042904716
161	0x3e380385	0.17970093
162	0xbd965e25	-0.073421754
163	0x3dd4978c	0.10380468
164	0x3eec6c04	0.4617616
165	0x3d16e183	0.03683616
166	0x3d61ac6e	0.055096082
167	0x3ee1a614	0.4407202
168	0x3e6051c0	0.21906185
169	0xbce57edd	-0.028014595
170	0xbe21c397	-0.15797268
171	0xbeb0b190	-0.3451047
172	0x3d6ddc7e	0.058071606
173	0x3e288592	0.16457203
174	0xbd8fa0b2	-0.07013072
175	0xbdbedeee	-0.09319864
176	0x3e914078	0.28369498
177	0xbc899870	-0.01679632
178	0x3cab131b	0.020883134
179	0x3e049f86	0.12951478
180	0xbea4febf	-0.32225606
181	0x3d33787a	0.043816067
182	0x3f36ab1d	0.7135485
183	0xbe3111e5	-0.17291982
184	0xbe3ecb89	-0.1863233
185	0x3dd2f1aa	0.103
186	0xbeda8ddf	-0.42686364
187	0xbe4a28fe	-0.197422
188	0x3d76c46d	0.06024592
189	0xbe0aded5	-0.13561566
190	0x3e4cb80e	0.19992086
191	0x3f03cb4c	0.5148208
192	0x3d1d186d	0.038353372
193	0xbe6d5253	-0.23175935
194	0xbe00f3ad	-0.12592955
195	0x3e53871b	0.20657007
196	0xbe641148	-0.22272217
197	0xbe0f544d	-0.13997002
198	0x3d234091	0.039856497
199	0xbd923e00	-0.07140732
200	0x3de8fe03	0.11376574
201	0x3e469336	0.19392094
202	0x3dcb8118	0.09936732
203	0xbe04eb59	-0.12980403
204	0x3df11cd2	0.11773075
205	0x3c337d7d	0.010955212
206	0xbde672a9	-0.112523384
207	0xba48d11b	-0.00076605537
208	0x3e07addd	0.13249917
209	0xbe4146fc	-0.18874735
210	0xbd55439c	-0.05206643
211	0x3da46927	0.08027869
212	0xbe74178c	-0.23837107
213	0xbe26b4c7	-0.16279899
214	0xbc09023e	-0.008362351
215	0xbdc01307	-0.09378629
216	0xbdaf30c9	-0.08554227
217	0xbd61686c	-0.055031225
218	0x3d459a79	0.04824302
219	0xbdc00618	-0.09376162
220	0xbe7dc435	-0.24781878
221	0x3eb7ecdb	0.35922894
222	0x3de0299a	0.10945435
223	0xbe4b1c0f	-0.19834922
224	0xbddfc8da	-0.10926981
225	0xbdc46af5	-0.09590713
226	0x3e64460c	0.22292346
227	0x3e130cf0	0.14360404
228	0xbd860889	-0.06544597
229	0x3e635165	0.22199018
230	0x3db3815b	0.08764907
231	0xbe68912a	-0.22711626
232	0x3eb33f0d	0.3500904
233	0xbeb049a7	-0.34431192
234	0x3dc99b35	0.098440565
235	0x3c550a47	0.013002939
236	0x3ddd3db1	0.10802782
237	0xbd854a12	-0.065082684
238	0xbd87073c	-0.06593177
239	0x3bc5023c	0.0060122292
240	0xbcd23f3e	-0.025664922
241	0xbd2841b0	-0.04107827
242	0x3e766213	0.2406085
243	0xbe83a0c7	-0.257086
244	0xbdf9d389	-0.1219855
245	0xbe028b7d	-0.12748523
246	0x3dc41f9d	0.09576342
247	0xbdbb029d	-0.09131358
248	0x3e43e8d8	0.19131792
249	0xbdcd0d31	-0.10012282
250	0xbda4ff39	-0.08056492
251	0x3e6f2250	0.23352933
252	0x3e60ce11	0.21953608
253	0xbe7cdfa9	-0.24694695
254	0x3e6b265b	0.2296385
255	0xbcc3f3c4	-0.023919947

hiden_layers.2.bias f4 [64]
0	0xbc9873cd	-0.018609906
1	0xbd814a45	-0.06312994
2	0x3d533bb2	0.0515706
3	0xbd18a410	-0.037265837
4	0xbc3d644f	-0.01155956
5	0xbe1376a5	-0.14400728
6	0x3db65f45	0.0890489
7	0xbc89cca9	-0.016821222
8	0xbc52c825	-0.012865101
9	0xbe0a2c5e	-0.13493487
10	0xb9df59e3	-0.00042600845
11	0xbd1e55e1	-0.03865612
12	0x3c3087cd	0.010774565
13	0x3cc10f5a	0.02356689
14	0x3d0a0d9c	0.033704385
15	0xbc77b6a2	-0.015119227
16	0xbd66d41b	-0.056354623
17	0xbe39f7fc	-0.18161005
18	0x3d938be0	0.072044134
19	0xbd0eb695	-0.034842093
20	0xbda5c82e	-0.08094822
21	0xbde5bf74	-0.112181574
22	0x3d27c297	0.04095706
23	0x3d721782	0.05910445
24	0x3d6f1aff	0.058375355
25	0xbb14955c	-0.0022672033
26	0xbba9e3de	-0.0051846346
27	0x3cb18fe9	0.021675067
28	0xbda024e8	-0.07819539
29	0x3bc869bd	0.0061161206
30	0xbb93428f	-0.0044940184
31	0x3c00c16c	0.007858615
32	0xbc2ef40a	-0.010678301
33	0xbc95413f	-0.018219588
34	0xbd419abc	-0.047266707
35	0x3c02772a	0.007962981
36	0x3d771118	0.060319036
37	0x3c1f8db4	0.0097383745
38	0x3d26044c	0.04053144
39	0x3d81405b	0.06311103
40	0x3d804ada	0.06264277
41	0xbd383494	-0.044972017
42	0x3d9972c0	0.0749259
43	0x3ca01a8a	0.019543905
44	0x3d8fd8b7	0.07023757
45	0x3ce0c381	0.027436974
46	0xbdb35775	-0.087569155
47	0xbd2f5793	-0.042808127
48	0xbcecf786	-0.028926622
49	0xbde5927d	-0.11209581
50	0x3b98618a	0.0046502994
51	0xbb87d15b	-0.00414483
52	0xbc771189	-0.015079864
53	0x3b191970	0.002336111
54	0x3c81cd42	0.015844945
55	0xbd398963	-0.045297038
56	0x3b4829c7	0.003054248
57	0xbd2f7aa8	-0.042841583
58	0x3cb877df	0.022518096
59	0xbdaa2897	-0.08308523
60	0xbe33df8a	-0.17565742
61	0x3d125fdc	0.03573595
62	0xbd00d62a	-0.031454243
63	0x3cb00e94	0.021491326

hiden_layers.3.weight f4 [64, 64]
0	0xbdb8d2e9	-0.09024603
1	0x3e7ced3c	0.24699873
2	0x3d8260ca	0.06366117
3	0xbdd00d63	-0.10158803
4	0xbe19bcc8	-0.1501342
5	0x3e1a7124	0.15082222
6	0xbe188c5a	-0.1489729
7	0xbe9671a5	-0.2938358
8	0x3d226eda	0.039656498
9	0x3e03dea3	0.12877898
10	0x3e1c1342	0.15241721
11	0xbdf0dc86	-0.117608115
12	0x3e14b907	0.14523707
13	0xbe117c8b	-0.14207666
14	0x3df7b0f6	0.120942995
15	0xbcb3f151	-0.021965655
16	0xbdf56b79	-0.119833894
17	0xbda8cc2c	-0.08242068
18	0x3e446652	0.19179657
19	0xbe9cf177	-0.30652973
20	0x3e61ed28	0.22063124
21	0xbea0a669	-0.3137696
22	0x3e460a53	0.19339876
23	0x3e9908b6	0.29889458
24	0x3c19b749	0.0093820775
25	0x3dd957bb	0.106124364
26	0xbd906397	-0.07050245
27	0xbebbc9b9	-0.3667734
28	0x3de509b9	0.11183495
29	0x3e3f0d70	0.1865747
30	0x3da96573	0.08271303
31	0x3e7ba1d1	0.24573447
32	0x3e50a463	0.20375209
33	0x3d135aa4	0.035975114
34	0xbda9a3e2	-0.08283211
35	0x3e0acead	0.13555403
36	0x3af1ea46	0.001845666
37	0x3d1e4dca	0.038648404
38	0xbda90cfa	-0.08254428
39	0xbda22686	-0.07917504
40	0x3ca43324	0.020043917
41	0x3e478387	0.19483767
42	0xbe613c06	-0.21995553
43	0xbdee5351	-0.11636985
44	0x3d56e5ca	0.052465238
45	0x3e851afb	0.25997147
46	0xbaeb8296	-0.0017967995
47	0xbc2e3f40	-0.010635197
48	0x3e65af96	0.22430262
49	0xbe71600a	-0.23571792
50	0xbe1d9e79	-0.15392484
51	0xbe81d536	-0.2535798
52	0x3e84f831	0.25970605
53	0x3e5daa27	0.21646939
54	0x3e92fdf6	0.28709382
55	0xbe202c82	-0.15641978
56	0x3d55fa85	0.052240867
57	0x3ddc4c08	0.10756689
58	0xbe083fa1	-0.13305523
59	0x3e61cb5c	0.22050232
60	0x3b0df3b3	0.0021660149
61	0x3e456288	0.19275868
62	0xbdce3992	-0.100695744
63	0x3e81f00c	0.25378454
64	0xbeba178b	-0.36346087
65	0xbb81696d	-0.0039493353
66	0xbdc8a424	-0.09796932
67	0x3d01bf5a	0.031676628
68	0x3d8c98d6	0.06865089
69	0x3e25ed48	0.16203797
70	0xbe641008	-0.2227174
71	0x3e069474	0.13142568
72	0xbe80771a	-0.25090867
73	0xbe56df4d	-0.2098362
74	0x3e2b6ae0	0.16739988
75	0x3e290e3f	0.1650934
76	0xbc364d54	-0.011126835
77	0xbc3a1bb5	-0.011359145
78	0x3e487e87	0.19579516
79	0x3e5f99cc	0.21836013
80	0x3d8f81e6	0.07007198
81	0xbe0e3588	-0.13887608
82	0x3e128d0a	0.14311615
83	0x3e30f7fa	0.17282096
84	0x3e42e7cd	0.19033737
85	0x3b9d97b6	0.004809345
86	0xbe13beb3	-0.14428215
87	0x3de1f0a0	0.11032224
88	0xbe93e1f5	-0.2888333
89	0x3e817d20	0.25290775
90	0x3cfdcc1d	0.030981118
91	0xbe6f4f79	-0.2337016
92	0x3e19e90a	0.15030304
93	0x3ef71af0	0.4826274
94	0xbe5d0e4f	-0.2158749
95	0x3de78826	0.11305265
96	0x3e4d1771	0.20028473
97	0xbdb42095	-0.08795277
98	0x3e6ee1b8	0.23328292
99	0xbcbf7cdf	-0.023374973
100	0xbd5e5d85	-0.054288406
101	0xbe4b3aab	-0.19846599
102	0xbe236745	-0.15957363
103	0x3db19774	0.086714655
104	0xba3c50c1	-0.0007183664
105	0xbe3a26ac	-0.18178815
106	0x3d8a4d42	0.06753017
107	0x3e72a218	0.23694646
108	0xbd252a60	-0.040323615
109	0x3dd94502	0.10608865
110	0x3e67e728	0.22646773
111	0xbddbdc0e	-0.107353315
112	0x3c3cb96b	0.011518816
113	0xbe296fd4	-0.16546565
114	0xbe12ec65	-0.1434799
115	0x3e62e696	0.22158274
116	0x3e0c32fa	0.13691321
117	0xbd1be6c8	-0.038061887
118	0xbd2823db	-0.04104982
119	0x3e371ad8	0.17881334
120	0x3e7e0767	0.24807511
121	0xbe182618	-0.14858282
122	0x3daa161a	0.08304997
123	0x3da33317	0.07968729
124	0x3e31743e	0.17329499
125	0x3e80c1ba	0.25147802
126	0xb86c4992	-5.6335302e-05
127	0x3d1bc93e	0.038033716
128	0xbe13c49c	-0.1443047
129	0x3e6e151d	0.23250242
130	0xbe914558	-0.28373218
131	0xbd86d976	-0.06584446
132	0xbdaccd46	-0.0843759
133	0x3ddf7130	0.10910261
134	0x3e711088	0.23541462
135	0xbe6a38ca	-0.22873226
136	0x3dbdb5f0	0.092632174
137	0xbdebfdd7	-0.115230255
138	0xbd0d34e6	-0.034474276
139	0x3d3beb1c	0.045878515
140	0xbdc4145c	-0.09574196
141	0xbbd68d03	-0.0065475716
142	0x3e1b46a5	0.15163668
143	0x3c59f9d9	0.013304197
144	0x3daa6698	0.083203495
145	0xbd6aed40	-0.057355165
146	0xbdfcdcc0	-0.12346792
147	0xbe2dbfd7	-0.16967712
148	0xbd8a6fd1	-0.067596085
149	0x3c20daa4	0.009817753
150	0xbe0cf89f	-0.13766716
151	0x3daa1ebb	0.083066426
152	0x3c9193bd	0.017770642
153	0x3cdeecdd	0.027212555
154	0xbe3e7c02	-0.18601993
155	0x3e840828	0.25787473
156	0x3e33cbf6	0.17558274
157	0xbdbaec2c	-0.091270775
158	0xbe139a7b	-0.14414398
159	0xbe1920cf	-0.14953922
160	0xbeae1a58	-0.34004474
161	0xbd2d6919	-0.042336557
162	0x3e46480d	0.19363423
163	0x3ddb1cf4	0.10698882
164	0x3ccadd6d	0.024763787
165	0xbd56b850	-0.052421868
166	0x3debc9a8	0.11513072
167	0x3d590b86	0.052989505
168	0x3e4f4f6a	0.20245138
169	0xbec96c30	-0.39340353
170	0xbdf36d2c	-0.11886057
171	0x3d5012eb	0.05079929
172	0x3b42e1b5	0.0029736583
173	0xbe1e91fa	-0.15485373
174	0x3d902a7b	0.070393525
175	0xbe4d57a3	-0.20052962
176	0xbdd8a2ec	-0.1057795
177	0xbe7943e0	-0.24342299
178	0x3e8e9ae5	0.2785255
179	0x3e145da1	0.14488842
180	0x3bef859f	0.00730963
181	0xbe27c45a	-0.16383496
182	0xbe55d4a6	-0.208819
183	0xbe81321a	-0.25233537
184	0xbe27d915	-0.16391404
185	0xbe56843d	-0.20948882
186	0x3d47b66d	0.04875796
187	0x3e2bfd69	0.16795887
188	0x3e1dbe78	0.1540469
189	0x3a0fb474	0.00054819067
190	0x3d783deb	0.060605925
191	0xbcb93b26	-0.022611212
192	0x3e49d3a6	0.19709644
193	0xbe3859ca	-0.18003002
194	0x3da3984e	0.07988034
195	0x3cf5b655	0.02999417
196	0xbe85f3ef	-0.2616267
197	0xbd8a0df9	-0.06740946
198	0x3cd1fd59	0.0256335
199	0xbe0f16c0	-0.13973522
200	0x3d6b864b	0.05750112
201	0xbe24ada3	-0.16081862
202	0xbe6c33bd	-0.23066612
203	0xbe297ae5	-0.16550787
204	0xbe107aad	-0.14109297
205	0xbe80673f	-0.2507877
206	0xbe0ebc90	-0.13939118
207	0xbdf503a9	-0.11963589
208	0xbdbd757c	-0.09250924
209	0x3e0860a8	0.13318121
210	0x3a502214	0.00079396483
211	0x3c97d879	0.01853584
212	0xbcacf9c9	-0.0211152
213	0xbd5297b0	-0.05141419
214	0xbdb8c2d6	-0.09021537
215	0xbdf3a299	-0.118962474
216	0x3e4fdeb3	0.20299797
217	0x3da52ede	0.0806558
218	0xbdbe5317	-0.09293192
219	0xbcee2218	-0.029068992
220	0x3e2ba5e9	0.16762508
221	0xbe9bed95	-0.30454698
222	0x3dc3a870	0.09553611
223	0x3e2e8cc1	0.17045881
224	0x3ded309d	0.11581538
225	0x3e06c9eb	0.13162963
226	0x3d48d011	0.049026553
227	0xbe57cf66	-0.2107521
228	0xbe7319b4	-0.23740274
229	0xbd289bc5	-0.04116418
230	0xbe860a8d	-0.26179925
231	0xbd16dd1d	-0.036831964
232	0x3d28ed67	0.04124203
233	0xbdeb6202	-0.11493303
234	0xbe82c698	-0.2554214
235	0xbd2f8351	-0.042849842
236	0x3d935cd6	0.071954414
237	0xbe34cdc0	-0.17656612
238	0x3e872cf9	0.264015
239	0x3e749faf	0.2388904
240	0xbe2a6355	-0.16639455
241	0x3e4152b5	0.18879206
242	0xbda9dc6b	-0.082939945
243	0xbe10c871	-0.14138962
244	0x3e13bb50	0.14426923
245	0x3e45bf61	0.19311287
246	0x3e1cc0a8	0.15307868
247	0x3e7124de	0.2354922
248	0x3e072178	0.13196361
249	0x3e4bb032	0.19891432
250	0x3e3e9deb	0.18614928
251	0xbe2433c0	-0.16035366
252	0xbdab2bae	-0.083579406
253	0xbe8d96c4	-0.27654088
254	0xbe073c8f	-0.13206695
255	0x3d039a23	0.032129418

hiden_layers.3.bias f4 [64]
0	0xbd82f7f7	-0.06394952
1	0x3cfa4980	0.030552626
2	0x3d1d0bef	0.03834146
3	0xbc7f0455	-0.015564998
4	0x3c49fc2f	0.012328192
5	0xbcc7ef46	-0.024406087
6	0x3cdfc943	0.027317649
7	0x3b668d60	0.003517948
8	0x3e898e7a	0.26866513
9	0xbd79d923	-0.060998093
10	0x3de93045	0.1138616
11	0xbd673d89	-0.05645517
12	0xbd1aa49a	-0.037754633
13	0xbdecd4d9	-0.11564035
14	0x3d87ab13	0.06624427
15	0xbbad36bc	-0.005286066
16	0x3bb87a91	0.0056298454
17	0xbdc50739	-0.09620518
18	0x3e3fe4de	0.1873965
19	0xbc24f640	-0.010068476
20	0xbd2f1c5a	-0.042751648
21	0xbb5fbd38	-0.0034139883
22	0x3cf7783c	0.0302087
23	0x3d7a0c3b	0.06104682
24	0x3d491041	0.049087767
25	0xbc426b5d	-0.011866418
26	0xbd095ef0	-0.033537805
27	0xbda88629	-0.08228714
28	0x3df038a5	0.11729554
29	0xbdee2bd5	-0.11629454
30	0x3d0efe6c	0.034910604
31	0xbd6e3c8c	-0.05816321
32	0x3e2cd60a	0.16878524
33	0x3de5a8ec	0.1121386
34	0xbbf5c1c2	-0.0074999044
35	0xbd02f029	-0.031967316
36	0x3a3a6bc3	0.00071113947
37	0xbbb37879	-0.005477008
38	0x3cff48cd	0.031162644
39	0x3d702603	0.05863
40	0xbda6522e	-0.08121143
41	0xbd61adb2	-0.05509729
42	0x3d1255c9	0.035726342
43	0x3d64a955	0.05582555
44	0xbc7d8dfc	-0.015475746
45	0x3b02e4c7	0.0019972788
46	0x3d9f7cfe	0.07787512
47	0xbc1c7fa7	-0.009551919
48	0xbd7b5653	-0.061361622
49	0xbc2d24a3	-0.010567817
50	0xbd88180f	-0.06645214
51	0xbd825f2b	-0.06365808
52	0x3d19975a	0.037497856
53	0x3cb93fb4	0.022613384
54	0x3cb2c7a2	0.021823708
55	0x3df58873	0.11988916
56	0x3db2f4d3	0.08738103
57	0x3d492ec1	0.049116854
58	0x3b9d7078	0.004804667
59	0x397fb9af	0.00024387868
60	0xbe6674bc	-0.22505468
61	0x3d253d4e	0.040341668
62	0xbd3af11a	-0.04564009
63	0x3c3eea5b	0.011652554

hiden_layers.4.weight f4 [64, 64]
0	0xbe5aad1c	-0.21355098
1	0x3e5ce358	0.215711
2	0x3dcc89e2	0.099872366
3	0xbea9deaf	-0.33177707
4	0xbd9f3cba	-0.077752545
5	0x3bc7ec34	0.0061011557
6	0xbd940066	-0.072266385
7	0x3e1823fb	0.14857475
8	0xbdbdfda1	-0.092768915
9	0xbddbc091	-0.107300885
10	0x3d458b77	0.048228707
11	0x3dc6a590	0.09699547
12	0xbcd16996	-0.025563043
13	0x3b9bd59c	0.004755689
14	0xbe20d586	-0.15706453
15	0xbe25c5d1	-0.16188742
16	0x3d4b02ae	0.049563102
17	0xbd501c25	-0.05080809
18	0x3dc8d482	0.09806158
19	0x3e690efe	0.22759625
20	0xbe70201d	-0.2344975
21	0x3d04704b	0.032333653
22	0xbe859926	-0.26093405
23	0xbe29c03e	-0.16577241
24	0x3d07ceac	0.033156082
25	0xbe2c8aa7	-0.16849767
26	0x3e514c55	0.20439275
27	0x3e538227	0.20655118
28	0xbe2b9900	-0.16757584
29	0xbdb3bb2a	-0.08775933
30	0xbd749c49	-0.059719358
31	0xbc31d56d	-0.010854107
32	0x3e457e16	0.19286379
33	0x3cd59218	0.02607064
34	0x3e29f6a5	0.16597994
35	0xbd96a853	-0.07356324
36	0x3d3ba4e9	0.045811567
37	0xbdd82c6b	-0.10555347
38	0xbd869f9f	-0.06573414
39	0xbcc7892a	-0.024357397
40	0xbe0591d5	-0.13043912
41	0x3dd955ca	0.10612066
42	0x3df600e2	0.12011887
43	0x3cbc8513	0.023012673
44	0x3daa39bd	0.08311794
45	0x3e15838c	0.14600962
46	0x3e4646e6	0.19362983
47	0xbe18ec06	-0.14933786
48	0xbdfae2dd	-0.12250302
49	0xbe0ffc3d	-0.14061065
50	0x3dfca56b	0.123362385
51	0xbc42e5a1	-0.011895568
52	0xbe7361f7	-0.2376784
53	0x3e7f2021	0.249146
54	0x3e0779e9	0.13230099
55	0xbe34e816	-0.17666659
56	0x3cab1ea3	0.020888632
57	0x3c85ba66	0.016324233
58	0xbeb1642c	-0.34646738
59	0xbe1e4c0c	-0.15458697
60	0x3d9d66b2	0.07685603
61	0xbe6449b0	-0.22293735
62	0x3d08ddef	0.033414777
63	0xbd0e29f2	-0.03470797
64	0xbcd92a15	-0.026509324
65	0xbe866d0d	-0.26255074
66	0xbe697221	-0.22797443
67	0x3e36f71d	0.17867704
68	0x3dcbe6a0	0.099560976
69	0xbcb508b7	-0.022098882
70	0xbe718eb9	-0.235896
71	0xbdfa0827	-0.12208586
72	0xbdf5163f	-0.11967134
73	0xbcb2e071	-0.021835538
74	0xbe431e72	-0.19054583
75	0x3e810d16	0.25205296
76	0x3e73f7e3	0.2382503
77	0x3e146c62	0.1449447
78	0xbe2f584b	-0.17123525
79	0x3e993700	0.29924774
80	0xbe475dc9	-0.1946937
81	0xbd1909da	-0.03736291
82	0x3e0f3f6b	0.13989036
83	0x3c9ef1c2	0.019402388
84	0x3e1b131c	0.15144008
85	0x3e08f912	0.13376263
86	0x3e2e6be1	0.1703334
87	0x3eb0ed8c	0.34556234
88	0xbe2a12b1	-0.16608693
89	0xbdec354d	-0.11533604
90	0xbe225ca3	-0.1585565
91	0x3de17133	0.11007919
92	0x3d55de80	0.052214146
93	0x3cf91358	0.030404732
94	0xbe1cdb93	-0.15318136
95	0xbdcffcd8	-0.10155648
96	0x3e12c291	0.14332034
97	0x3de2b29e	0.11069225
98	0x3e214b2b	0.1575133
99	0xbe0972a8	-0.13422644
100	0xbe952f88	-0.29137826
101	0x3d572800	0.05252838
102	0x3e0e63c3	0.13905244
103	0xbcaecb9a	-0.02133732
104	0x3e0363bb	0.12831013
105	0xbe83b0f1	-0.25720933
106	0x3dddb1c7	0.10824924
107	0x3e371250	0.1787808
108	0xbc863347	-0.016381873
109	0x3e0ebe41	0.13939764
110	0xbde279f9	-0.11058421
111	0xbdaf4ab0	-0.085591674
112	0xbd80f7b0	-0.06297243
113	0x3dc2ce67	0.095120244
114	0xbe560c4f	-0.20903133
115	0xbdefd6f1	-0.11710919
116	0x3e262dd5	0.16228421
117	0xbe05f956	-0.13083395
118	0x3e1c7ac1	0.15281202
119	0x3d302cbf	0.043011423
120	0x3d4947d2	0.04914076
121	0xbec33384	-0.3812524
122	0x3e17e00f	0.14831565
123	0xbcb497fb	-0.022045126
124	0x3e74d138	0.23907936
125	0x3e21b53f	0.15791796
126	0x3da3294e	0.079668626
127	0x3e4d264e	0.20034143
128	0xbe3d75d0	-0.18501973
129	0xbde62ecf	-0.11239397
130	0xbda9561a	-0.08268376
131	0xbe217ce7	-0.15770303
132	0xbc7e18cd	-0.015508843
133	0xbe01bfc0	-0.12670803
134	0xbd4ec718	-0.05048284
135	0x3e1c531d	0.1526608
136	0xbd17680c	-0.03696446
137	0xbe5157d9	-0.20443667
138	0x3df96d92	0.12179102
139	0xbdfa6d63	-0.12227895
140	0x3d912da7	0.070887856
141	0x3e33e697	0.17568432
142	0x3e32675a	0.17422238
143	0xbdd88066	-0.10571365
144	0x39f637e6	0.00046962424
145	0x3e2bea28	0.16788542
146	0xbdc9e4a0	-0.0985806
147	0x3d42a63e	0.047521822
148	0x3c74f421	0.014950783
149	0xbe3d970e	-0.18514654
150	0xbd7c0b6e	-0.061534338
151	0x3d298db0	0.04139489
152	0xbe9cab85	-0.3059961
153	0xbe8f513c	-0.27991664
154	0xbb7f2e7e	-0.0038937624
155	0x3ed734e2	0.42032534
156	0xbe4265ca	-0.18984142
157	0x3e0f0a76	0.13968834
158	0xbd98369c	-0.07432291
159	0x3e1b3f75	0.15160926
160	0xbdd30a02	-0.10304643
161	0xbd1cf792	-0.03832204
162	0xbe871bd7	-0.26388428
163	0x3e0cea4e	0.13761255
164	0xbac4ffdc	-0.0015029865
165	0x3d473b41	0.048640493
166	0xbe59849f	-0.21241997
167	0x3e6c6bdd	0.23088022
168	0x3e33eda9	0.17571129
169	0x3e0bfb56	0.13670096
170	0xbe8d28c3	-0.2757016
171	0xbd2c2a78	-0.04203269
172	0xbdc69fe0	-0.096984625
173	0x3cc04971	0.02347252
174	0x3deb3435	0.11484567
175	0x3e2beb83	0.1678906
176	0x3da369b6	0.07979147
177	0x3dbd6b70	0.09249008
178	0x3e4a12b4	0.19733697
179	0xbe490384	-0.19630247
180	0xbe2fd620	-0.17171526
181	0x3e18d125	0.14923532
182	0x3cd2b29d	0.025719935
183	0x3dd669de	0.10469411
184	0xbe3825d2	-0.17983177
185	0x3d5644a7	0.052311566
186	0x3e725e0e	0.23668692
187	0x3e59db42	0.21275046
188	0x3b7b68d0	0.0038362034
189	0x3cfbf897	0.030758185
190	0x3e0a74cc	0.13521117
191	0x3e7c46d7	0.24636398
192	0x3d94d5fc	0.07267377
193	0xbde5b1a7	-0.11215525
194	0xbe444a46	-0.19168958
195	0xbd132f6b	-0.035933893
196	0x3e326aaa	0.17423502
197	0xbd16e07e	-0.036835186
198	0x3d776cb9	0.06040642
199	0xbe95dfdc	-0.29272354
200	0x3e1fd735	0.15609439
201	0xbcbb9139	-0.022896396
202	0x3e43a7de	0.19107005
203	0xbad0cc7d	-0.0015930083
204	0xbdafff4a	-0.085936144
205	0xbe06cc4c	-0.1316387
206	0x3e73dfd4	0.23815852
207	0x3e6d45cf	0.23171161
208	0x3c9c8e67	0.019110871
209	0x3dc75c12	0.09734358
210	0xbe224e3e	-0.1585016
211	0xbe915a15	-0.2838904
212	0xbd2511b4	-0.040300086
213	0x3dc0bd92	0.09411158
214	0x3e479c7c	0.19493288
215	0x3e7a6811	0.2445376
216	0x3e50add4	0.2037881
217	0xbc5e02d3	-0.013550478
218	0x3db89aef	0.09013926
219	0xbddef935	-0.10887376
220	0xbdf5f790	-0.120101094
221	0x3dbfad13	0.09359183
222	0xbc18cf28	-0.009326734
223	0xbe3c7053	-0.18402223
224	0xbd83d154	-0.064364105
225	0x3d95f503	0.07322123
226	0xbc830824	-0.015995093
227	0xbe142356	-0.14466605
228	0x3e19e380	0.1502819
229	0xbd2eade6	-0.04264631
230	0xbe05fc0b	-0.13084428
231	0x3e2136e6	0.15743598
232	0xbb368846	-0.0027852221
233	0x3d67a16d	0.056550432
234	0xbe1e042d	-0.1543128
235	0x3e8f7896	0.28021687
236	0x3dfacc5e	0.12246011
237	0xbdcc609a	-0.09979363
238	0xbe1ad980	-0.15122032
239	0xbe4a118a	-0.19733253
240	0xbe149de1	-0.14513351
241	0x3d9e37a2	0.07725455
242	0xbd6e6677	-0.058203187
243	0x3e7dff21	0.24804355
244	0x3cbbe78e	0.022937562
245	0x3d12ac27	0.03580871
246	0x3d1f286c	0.03885691
247	0x3e94984d	0.29022446
248	0xbe61a271	-0.22034623
249	0xbe12e5d4	-0.14345485
250	0x3e827441	0.2547932
251	0x3cba2322	0.02272183
252	0x3df979d1	0.12181438
253	0x3d863a02	0.06554033
254	0x3dd9bf8f	0.1063224
255	0x3e41c562	0.18922952

hiden_layers.4.bias f4 [64]
0	0xbc4950ba	-0.012287313
1	0x3d09288a	0.033485927
2	0xbca74f20	-0.020423472
3	0xbd5fc51e	-0.054631345
4	0x3cd56d8e	0.026053216
5	0xbd9ce938	-0.076616704
6	0x3d12e25c	0.035860404
7	0xbc163a1f	-0.009169131
8	0x3dc2612d	0.09491191
9	0xbbbffd69	-0.0058590663
10	0xbd36e5f1	-0.044652883
11	0xbcbbfbf7	-0.022947295
12	0x3d6fbfc8	0.058532506
13	0x3cc3d1b9	0.023903714
14	0x3cd963d5	0.026536861
15	0xbb20a605	-0.0024513018
16	0x3ce0743d	0.027399177
17	0x3cf23e02	0.029570583
18	0xbd892b45	-0.06697706
19	0x3cfdc402	0.030977253
20	0x3e0d6af7	0.13810335
21	0x3d856244	0.06512883
22	0xbd365825	-0.044517655
23	0x3d4f9d39	0.05068705
24	0x3d9e9c19	0.07744617
25	0xbd580be6	-0.052745722
26	0xbd1a0e71	-0.03761143
27	0x3c609267	0.01370678
28	0x3bfdb15c	0.00774209
29	0xbc8ba284	-0.017045267
30	0xbd954a3b	-0.07289549
31	0xbd2736c7	-0.040823724
32	0x3ca98a99	0.020695971
33	0x3c09aa7a	0.008402461
34	0xbc5f4cd4	-0.013629157
35	0x3d07d87d	0.033165444
36	0xbd0b732c	-0.034045383
37	0xbda2ed02	-0.07955362
38	0x3c32b50c	0.010907423
39	0xbe18eacb	-0.14933316
40	0x3d20cc40	0.039257288
41	0xbd592b6d	-0.05301993
42	0x3d45cb04	0.048289314
43	0x3c0c06b3	0.008546519
44	0xbe92ea09	-0.2869418
45	0x3cea0155	0.028565088
46	0x3e3745ff	0.17897795
47	0x3d4c6957	0.049905147
48	0x3d2cea7f	0.04221582
49	0x3c72337d	0.014782784
50	0xbcb920ed	-0.022598708
51	0x3df5e791	0.120070584
52	0xbcf0e58c	-0.029406331
53	0x3cfabde2	0.030608121
54	0x3d80da92	0.06291689
55	0xbdbc294a	-0.09187563
56	0x3d6e4952	0.058175392
57	0xbdb3c52f	-0.08777844
58	0xbd4aaf61	-0.04948366
59	0xbd27b524	-0.040944234
60	0x3d85098b	0.06495961
61	0xbe172947	-0.1476184
62	0xbe108607	-0.14113627
63	0xbe0d3a7f	-0.13791846
