results/7_model_3_case_2_zoom/epoch1650/model_weights.pth (torch, 484214 bytes, 88 tensors)

init_layer.0.weight f4 [64, 3]
-0.07218055 -0.06451396 0.36347657 0.06929551 0.07314214 0.34915018 0.00886189 -0.21538733
-0.21394703 0.16729328 -0.033674464 0.015383005 -0.027814195 0.03260023 0.6645012 -0.14399374
-0.41538244 0.16259551 0.23333402 -0.027373912 0.42923325 0.16857813 0.21950428 0.26286355
0.30618912 -0.38732016 0.14123176 -0.09932319 -0.091027506 0.4319947 -0.06320674 0.016293425
-0.49402386 0.09659397 0.06486959 -0.8498441 -0.017489301 0.006055059 0.6601853 0.010918574
0.020599551 1.1890221 0.12657902 -0.3236279 0.098454885 0.00758127 0.0008993011 -1.2375436
0.093259 -0.05438377 0.27382097 0.18192972 0.28214917 -0.25124422 0.017346947 -0.007859123
-0.39081708 -0.07180661 0.091997854 -0.47764555 0.01832303 -0.11906015 -0.71091044 0.1835196
-0.017187476 -0.1827737 0.15068072 -0.10131053 -0.46442902 -0.033724695 0.29979312 -0.036995072
0.00913144 0.0044644363 0.94572234 0.009349952 0.051268496 -0.3134679 -0.03834137 -0.023629328
1.0912033 -0.14958595 -0.31880838 0.4049326 0.062494818 0.06777303 -0.59494793 0.025749536
-0.26492944 0.18753779 -0.22069255 -0.16895357 -0.4353151 -0.03141853 0.050780803 0.46652073
-0.087747276 0.11649945 0.7771742 -0.5550893 0.2848356 -0.047778774 -0.0046294206 -0.024584046
-0.35568634 -0.026080575 -0.0116088465 -0.7103285 0.014550743 -0.0029997628 -0.4086675 -0.088100635
-0.035464488 -0.3833175 0.093889326 0.06368162 1.5891173 -0.1614048 0.3992108 0.178922
0.10676327 0.05038473 -0.5144526 -0.03683941 -0.01186124 -1.0047721 0.11799599 -0.009690205
0.26912686 -0.004871318 -0.034797225 0.84168273 0.0747545 -0.3313149 -0.30151176 -0.1646432
-0.13177268 0.19897178 -0.012507367 -0.062248122 0.38218927 0.10513018 0.25028777 -0.036593933
0.22553717 0.352058 0.19183286 0.064139426 -0.29296097 0.17762694 -0.080526106 -0.032604434
-0.5226594 -0.26550233 -0.45254728 -0.021617865 0.20334083 -0.22159886 0.38289908 -0.14097969
-0.0993303 0.56270033 0.10385444 -0.1945066 -0.38402188 0.11389715 -0.023777261 0.7675275
0.06607273 0.046435967 0.29498905 0.012344687 -0.027184123 0.35737678 0.13280584 0.3285864
0.111620136 0.120511875 0.18601511 -0.4295032 -0.09929654 -0.20358706 -0.23853712 -0.06820998
0.036800295 -0.27206537 0.12354679 -0.014907324 -0.12894323 0.14160031 0.026334627 0.26749814
00000000: 65d3 93bd e51f 84bd 9a19 ba3e ceea 8d3d
00000010: 8ccb 953d d0c3 b23e 7631 113c 7f8e 5cbe
00000020: ee14 5bbe ee4e 2b3e 3cee 09bd 0009 7c3c
00000030: 98da e3bc d287 053d c01c 2a3f 1873 13be
00000040: 02ad d4be 707f 263e 1def 6e3e 413f e0bc
00000050: 76c4 db3e bf9f 2c3e bbc5 603e 0d96 863e
00000060: d2c4 9c3e d44e c6be 0f9f 103e f569 cbbd
00000070: a16c babd 692e dd3e 8972 81bd ca79 853c
00000080: b2f0 fcbe 0fd3 c53d 59da 843d 628f 59bf
00000090: b945 8fbc 8469 c63b e701 293f d2e3 323c
000000a0: 64c0 a83c e031 983f ee9d 013e 8eb2 a5be
000000b0: b7a2 c93d 4d6c f83b 13bf 6b3a d467 9ebf
000000c0: 93fe be3d 84c1 5ebd 4332 8c3e c94b 3a3e
000000d0: db75 903e 15a3 80be 2f1b 8e3c 8dc3 00bc
000000e0: 2d19 c8be 580f 93bd 5f69 bc3d f58d f4be
000000f0: 2e1a 963c cfd5 f3bd 3afe 35bf 90ec 3b3e
00000100: c0cc 8cbc 0729 3bbe 0c4c 1a3e e57b cfbd
00000110: a4c9 edbe e822 0abd 7c7e 993e 2588 17bd
00000120: 099c 153c 684a 923b dc1a 723f 8b30 193c
00000130: eafe 513d dd7e a0be d70b 1dbd 4b92 c1bc
00000140: 8dac 8b3f 0f2d 19be da3a a3be 5353 cf3e
00000150: 91fa 7f3d 96cc 8a3d 824e 18bf b1f0 d23c
00000160: d5a4 87be e809 403e 3afd 61be 2a02 2dbe
00000170: 9fe1 debe b7b0 00bd 88ff 4f3d cedb ee3e
00000180: d8b4 b3bd 4397 ee3d e3f4 463f 551a 0ebf
00000190: f9d5 913e adb3 43bd 65b2 97bb 7b64 c9bc
000001a0: 851c b6be eea6 d5bc 0833 3ebc 17d8 35bf
000001b0: 3d66 6e3c ab97 44bb de3c d1be 1b6e b4bd
000001c0: 3643 11bd 3142 c4be 0c49 c03d 826b 823d
000001d0: 3268 cb3f 4d47 25be 5c65 cc3e 5437 373e
000001e0: b4a6 da3d 3860 4e3d 2ab3 03bf ece4 16bd
000001f0: a555 42bc 5f9c 80bf e2a7 f13d aac3 1ebc
00000200: ffca 893e 949f 9fbb 8987 0ebd 8578 573f
00000210: e318 993d 1ba2 a9be c05f 9abe 3a98 28be
00000220: 6bef 06be 42bf 4b3e b3eb 4cbc e3f7 7ebd
00000230: 50ae c33e 7e4e d73d b825 803e 85e3 15bd
00000240: 37f3 663e f240 b43e d56f 443e 885b 833d
00000250: fbfe 95be d6e3 353e dfea a4bd 3a8c 05bd
00000260: 02cd 05bf ecef 87be 47b4 e7be f317 b1bc
00000270: 9438 503e d0ea 62be 590b c43e fb5c 10be
00000280: af6d cbbd 210d 103f a3b1 d43d bd2c 47be
00000290: 849e c4be e942 e93d 88c8 c2bc af7c 443f
000002a0: 2451 873d a433 3e3d ce08 973e 5f41 4a3c
000002b0: 3db1 debc 17fa b63e 41fe 073e 7a3c a83e
000002c0: 1999 e43d eece f63d bf7a 3e3e d8e7 dbbe
000002d0: fc5b cbbd 2079 50be 1343 74be adb1 8bbd
000002e0: e8bb 163d 274c 8bbe 1906 fd3d d93d 74bc
000002f0: b209 04be acff 103e b7bb d73c 84f5 883e

init_layer.0.bias f4 [64]
-0.42544082 -0.106707804 -0.30440167 0.37799093 -0.3364558 -0.12558313 0.007139029 -0.38270077
-0.11633196 -0.3154514 0.061461456 -0.96714145 0.64759165 1.5672114 0.10587398 -0.015728643
-0.3495225 0.12964906 0.44668633 -0.017591778 -0.1779072 0.069022655 -0.5465393 0.22743636
1.1971772 0.1977562 0.2646811 0.31949025 0.12424809 -0.000531205 -0.51807547 -0.43404925
0.019588595 -0.22217602 0.3639969 -0.30375573 0.43856782 0.38696322 0.5937565 0.2646064
0.3523772 -1.226811 -0.35615116 -0.056420345 0.14393087 -0.33588204 0.34612185 -0.24318482
0.006249825 -0.22191149 -0.33811557 -0.1445867 0.4473277 0.50772214 0.25310186 0.30561045
-0.42922294 -0.37056667 -0.12964086 -0.29132542 -0.0364185 0.2003547 0.26405102 -0.33385104
00000000: 61d3 d9be 9f89 dabd 89da 9bbe 0788 c13e
00000010: ef43 acbe dd98 00be 84ee e93b 5bf1 c3be
00000020: 733f eebd d982 a1be 02bf 7b3d 9596 77bf
00000030: 91c8 253f 629a c83f 75d4 d83d 5bd9 80bc
00000040: 9df4 b2be b9c2 043e 12b4 e43e a21c 90bc
00000050: 4e2d 36be c05b 8d3d 00ea 0bbf 14e5 683e
00000060: 1a3d 993f 9a80 4a3e 4884 873e 3a94 a33e
00000070: c875 fe3d 9040 0bba 98a0 04bf b43b debe
00000080: 4378 a03c 1c82 63be cd5d ba3e df85 9bbe
00000090: f68b e03e 0b20 c63e 6d00 183f 7d7a 873e
000000a0: c96a b43e 2508 9dbf 7259 b6be 0519 67bd
000000b0: 9d62 133e bbf8 abbe e236 b13e 7105 79be
000000c0: 55cb cc3b c43c 63be 7c1d adbe 890e 14be
000000d0: 2308 e53e 14fa 013f 9196 813e f978 9c3e
000000e0: 1cc3 dbbe eaba bdbe 93c0 04be 9b28 95be
000000f0: 912b 15bd c829 4d3e b231 873e 86ee aabe

hiden_layers.0.weight f4 [64, 64]
-0.12874469 0.0741821 -0.43406308 0.0952034 -0.13175043 -0.02195596 0.10353087 -0.27712083
0.20093451 -0.0010873919 -0.27979156 -0.8371917 2.1611483 1.3336612 0.35196498 -0.5003062
-0.1356241 -0.08491618 -0.006325796 -0.4045637 -0.6416463 -0.09093502 -1.278979 -0.01699103
1.1513714 -0.072524756 0.50534624 0.43835393 -0.30852923 0.15490486 -0.57818973 -0.07624023
0.16053815 0.013444942 0.14941971 -0.60299146 0.050869394 0.03200937 0.9152156 0.58876073
-0.010818941 -1.9728783 -0.022642065 0.29281858 -0.17502417 -0.0696965 0.97249967 -0.39949933
0.24205865 -0.1509293 -0.985981 -0.02080848 0.4455412 0.55657876 0.10122257 0.9267741
-0.26599097 -0.115957774 -0.12041718 -0.47355872 -0.35824752 -0.10763366 -0.010429971 -0.22074027
-0.29860818 -0.21843325 -0.22524507 0.20439428 -0.33923316 -0.18656045 0.0935211 -0.27488038
0.012799356 -0.4432528 0.23298198 -0.17592534 0.063259415 0.05740292 0.10714747 0.18088374
-0.26587304 0.32732746 0.44975227 0.022811834 -0.09664502 -0.11862272 0.054414734 0.21447329
-0.021191958 0.0683476 0.25546783 0.116690114 0.25037327 0.03288606 -0.14963993 -0.5200464
-0.09815072 0.040355783 0.59040403 0.11287767 0.926766 0.11637016 -0.064012945 0.11944171
0.114425175 -0.103189595 -0.4537828 -0.016112087 0.3074043 -0.31708825 0.22087537 -0.20033856
-0.054917764 -0.18008848 -0.106298484 -0.1267298 0.16705865 -0.1413171 0.3710946 0.13392612
-0.43376097 -0.40436202 -0.22322574 -0.15893088 0.18355756 0.3292441 0.21964903 -0.22211117
0.08665361 -0.055226665 0.18026897 0.018953718 -0.19326067 0.00090706145 0.026722223 -0.15200047
0.073399216 -0.0748071 -0.042433113 0.18093169 0.108052604 -0.21320945 0.21702045 -0.13612068
-0.10099542 -0.11931901 0.055266865 -0.06281255 0.0036410529 -0.06735832 -0.12318854 -0.03933795
-0.011170446 -0.11495853 -0.025995582 0.1816512 -0.032549437 -0.14880204 0.19921298 0.22177868
-0.1575342 -0.16472195 0.19200784 0.18945324 -0.08955532 -0.1450527 0.00870601 0.024057249
-0.18924716 -0.018448267 0.19524482 0.2122053 0.19908974 -0.020678386 -0.031695195 -0.024733096
0.005562283 0.08846181 -0.12563233 -0.07328865 0.04816 -0.08830273 -0.13968572 0.060078133
-0.21943636 0.15681198 -0.1782689 -0.1138581 0.17296891 -0.1782563 -0.07187328 0.17247416
-0.74495256 -0.48118722 -0.02468934 0.36470133 -0.4659764 -0.41365957 -0.76007086 -0.75451034
-0.39119115 -1.0206405 0.38005346 0.35998702 0.015243981 -0.48434028 0.15528807 0.23599817
-1.0574558 0.6077835 1.8973628 0.23435917 0.2954561 0.33697978 -0.15458295 0.30943927
-0.18997328 0.4852809 -0.098381944 -0.2633084 0.9036111 -0.6268773 0.012781991 -1.600189
-0.8420329 -0.06285793 1.1640517 0.20402123 1.8929464 0.4763474 -0.46192232 -0.19934233
0.6707309 0.062656164 -0.909201 -0.57592577 0.8018517 -0.24629715 0.35128972 -0.34760207
-0.12620923 -0.7380866 0.2999417 0.11323623 0.04399948 -0.08967885 1.2573208 -0.08982607
-1.1491165 -1.4472032 -0.43416977 0.39950675 -0.07542068 0.6176964 0.524454 -0.6883671
00000000: a6d5 03be c9ec 973d 843d debe 00fa c23d
00000010: 96e9 06be fcdc b3bc fe07 d43d c8e2 8dbe
00000020: c7c1 4d3e d186 8eba d740 8fbe 3252 56bf
00000030: 4150 0a40 69b5 aa3f c134 b43e 1114 00bf
00000040: 0be1 0abe 89e8 adbd 9f48 cfbb f922 cfbe
00000050: ef42 24bf 243c babd 95b5 a3bf c630 8bbc
00000060: 2360 933f dc87 94bd 5f5e 013f ed6f e03e
00000070: 8bf7 9dbe 619f 1e3e 3e04 14bf d623 9cbd
00000080: 1d64 243e 2d48 5c3c 7b01 193e a65d 1abf
00000090: 6d5c 503d 421c 033d 924b 6a3f 06b9 163f
000000a0: ed41 31bc 4787 fcbf da7b b9bc 51ec 953e
000000b0: 8939 33be 0abd 8ebd bdf5 783f 2d8b ccbe
000000c0: 39de 773e 368d 1abe 4069 7cbf 8c76 aabc
000000d0: fa1d e43e f27b 0e3f c74d cf3d 1141 6d3f
000000e0: f82f 88be 457b edbd 489d f6bd 4a76 f2be
000000f0: 386c b7be 096f dcbd 78e2 2abc bd09 62be
00000100: 2ce3 98be f7ac 5fbe a5a6 66be bc4c 513e
00000110: f8af adbe b409 3fbe fe87 bf3d 1fbd 8cbe
00000120: 64b4 513c 08f2 e2be d492 6e3e c625 34be
00000130: 278e 813d 531f 6b3d 2270 db3d 9639 393e
00000140: 8320 88be 7797 a73e ee45 e63e e2df ba3c
00000150: d3ed c5bd 78f0 f2bd fce1 5e3d e39e 5b3e
00000160: c29a adbc d4f9 8b3d aecc 823e 3afb ee3d
00000170: ed30 803e 89b3 063d 363b 19be c321 05bf
00000180: 3f03 c9bd 1b4c 253d b824 173f 682c e73d
00000190: 8940 6d3f 7a53 ee3d 3819 83bd db9d f43d
000001a0: bf57 ea3d 1155 d3bd 3856 e8be 7ffd 83bc
000001b0: 1964 9d3e 6459 a2be 272d 623e 8d25 4dbe
000001c0: 73f1 60bd 1d69 38be 05b3 d9bd 75c5 01be
000001d0: 6c11 2b3e 6eb5 10be 1d00 be3e ee23 093e
000001e0: eb15 debe 8a08 cfbe 4a95 64be c7be 22be
000001f0: 83f6 3b3e af92 a83e adeb 603e 1c71 63be
00000200: 7377 b13d 5b35 62bd 6e98 383e d444 9b3c
00000210: 20e6 45be ddc7 6d3a 90e8 da3c 03a6 1bbe
00000220: 5452 963d 7734 99bd 58ce 2dbd 2846 393e
00000230: af4a dd3d 9453 5abe 9c3a 5e3e 3863 0bbe
00000240: b0d6 cebd 865d f4bd 825f 623d dea3 80bd
00000250: bb9e 6e3b 29f3 89bd 464a fcbd d520 21bd
00000260: 3f04 37bc 616f ebbd b0f4 d4bc c602 3a3e
00000270: 8f52 05bd 905f 18be 7dfe 4b3e f319 633e
00000280: a550 21be dfac 28be b49d 443e 0800 423e
00000290: c868 b7bd b288 14be a7a3 0e3c b513 c53c
000002a0: 02ca 41be d220 97bc 42ee 473e 594c 593e
000002b0: 2ede 4b3e b865 a9bc d2d2 01bd 109d cabc
000002c0: d043 b63b 772b b53d c3a5 00be 5c18 96bd
000002d0: 6c43 453d 10d8 b4bd c609 0fbe 7d14 763d
000002e0: edb3 60be 5293 203e 1f8c 36be 6f2e e9bd
000002f0: c31e 313e d288 36be 4c32 93bd 119d 303e
00000300: 36b5 3ebf 2c5e f6be 4c41 cabc 22ba ba3e
00000310: 7594 eebe 30cb d3be 0194 42bf 9727 41bf
00000320: 354a c8be 59a4 82bf 5e96 c23e 3850 b83e
00000330: e4c1 793c 73fb f7be d603 1f3e 81a9 713e
00000340: b65a 87bf b397 1b3f c9dc f23f dafb 6f3e
00000350: 0646 973e 9d88 ac3e fe4a 1ebe d36e 9e3e
00000360: 5b88 42be bd76 f83e 797c c9bd 5cd0 86be
00000370: 0f53 673f 087b 20bf 8e6b 513c fed2 ccbf
00000380: 788f 57bf a9bb 80bd a5ff 943f f1ea 503e
00000390: 114c f23f cee3 f33e 1581 ecbe 6520 4cbe
000003a0: 05b5 2b3f e051 803d 66c1 68bf df6f 13bf
000003b0: 2746 4d3f 5235 7cbe 3fdc b33e e6f8 b1be
000003c0: fe3c 01be 3ef3 3cbf f591 993e 66e8 e73d
000003d0: cc38 343d 8ba9 b7bd e3ef a03f bbf6 b7bd
000003e0: 4016 93bf f43d b9bf 804b debe 268c cc3e
000003f0: 2876 9abd 5a21 1e3f 9e42 063f d438 30bf

hiden_layers.0.bias f4 [64]
0.39639515 0.30148768 -0.018510524 0.486574 0.14544858 0.15504313 0.14006507 -0.076899596
-0.037625287 0.31368446 0.0729304 -0.20369929 -0.11697402 0.024356138 0.24307744 -0.18014991
-0.16801187 -0.07423614 0.077237785 0.057873476 0.08439209 -0.18422256 -0.023829935 -0.123281814
-0.010026464 0.00887455 0.06587446 0.030902218 0.2723469 0.012478132 -0.038224094 -0.1618526
0.042465825 0.023562849 -0.12927164 0.022273464 0.015853453 0.18930179 0.0023195543 -0.08432582
0.030276755 0.21332765 -0.11863283 -0.06132209 -0.115339324 -0.1338423 -0.047803603 -0.19847356
0.18385848 0.3800265 0.24193583 -0.111163855 0.24465948 0.0043528047 0.114231996 -0.053641956
-0.111547686 0.09993637 -0.15967149 0.020711267 -0.18563049 -0.018106217 -0.047345113 -0.09831328
00000000: 4ef4 ca3e 985c 9a3e 62a3 97bc 3a20 f93e
00000010: 79f0 143e a0c3 1e3e 386d 0f3e 897d 9dbd
00000020: f91c 1abd 409b a03e 895c 953d 8c96 50be
00000030: 1390 efbd 8686 c73c 4be9 783e 3879 38be
00000040: 4e0b 2cbe 1e09 98bd d82e 9e3d bd0c 6d3d
00000050: c3d5 ac3d d7a4 3cbe ff36 c3bc 2d7b fcbd
00000060: 0a46 24bc 9066 113c 30e9 863d a626 fd3c
00000070: 0e71 8b3e 1471 4c3c de90 1cbd b0bc 25be
00000080: a5f0 2d3d e006 c13c c95f 04be d776 b63c
00000090: 1adf 813c 54d8 413e aa03 183b 04b3 acbd
000000a0: f506 f83c 9072 5a3e c5f5 f2bd df2c 7bbd
000000b0: 0637 ecbd f50d 09be b6cd 43bd a73c 4bbe
000000c0: 6645 3c3e d592 c23e 07be 773e e0a9 e3bd
000000d0: 0488 7a3e f9a1 8e3b 77f2 e93d abb7 5bbd
000000e0: 1d73 e4bd 71ab cc3d ec80 23be adaa a93c
000000f0: eb15 3ebe 7d53 94bc f3ec 41bd 7958 c9bd

hiden_layers.1.weight f4 [64, 64]
-0.12999794 0.023692407 -0.19958167 0.19967707 -0.28185105 0.1690358 -0.10577535 -0.017339325
0.12847014 0.03468455 -0.07158073 -0.103215545 0.019713461 0.011811648 0.007011158 -0.018463997
0.06442591 0.16198187 0.14155602 0.059083857 0.26600865 -0.06986923 0.013183799 -0.11351693
0.011938844 -0.2147479 0.05816431 0.2941478 0.023188584 -0.03774845 -0.034826163 0.12980638
-0.33826482 0.20348442 -0.25232917 -0.19015864 -0.07544208 0.009964113 0.0124129625 0.15392576
0.102173656 0.10288846 -0.10802799 0.20456654 0.18063335 0.059519414 0.12554325 -0.17624094
-0.10388816 -0.14646773 -0.09432927 0.08994396 0.029600497 -0.059778605 -0.013657582 -0.24869445
0.2021358 -0.11322519 -0.21370049 0.08010814 0.09179 0.13187067 0.03845068 -0.16788165
0.18983239 0.13622409 -0.48788944 -0.15407617 -0.1358346 1.0405545 -0.16771576 -0.16350843
-0.064248204 -0.14517993 0.40868613 -0.009359767 0.03983757 0.061666504 0.22366677 -0.09039526
0.16300015 -0.6941944 0.19439906 0.29555547 0.03168447 0.22877681 -0.1757398 -0.13153663
0.28462163 -0.027982052 -0.48829198 -0.07244074 0.09099775 -0.16805777 -0.16074145 -0.08519345
-0.21507189 -0.108881354 -0.20033062 0.17764764 0.15746614 0.0072912904 -0.66150534 0.023776747
-0.076163635 -0.10004624 -0.7716395 -0.15752335 0.10821876 -0.12603685 0.0245114 -0.33414698
0.8554517 0.12046047 0.013062892 -0.1341083 0.10283214 -0.007234839 -0.052553553 0.022927968
-0.33831862 0.4784418 -0.2815007 0.09271503 -0.038763635 -0.04211159 0.067224726 -0.06766052
0.06348655 0.41493022 -0.022143308 0.37716842 0.08454374 0.24491997 -0.09741632 0.16358286
0.06556302 -0.09611179 -0.22603957 -0.03455765 0.019402632 0.037308577 0.16483766 0.07522178
-0.1969134 -0.06939276 0.06584281 -0.07838954 -0.038628224 -0.1770809 -0.28665414 -0.21644492
-0.029169377 0.2609471 0.0002613194 -0.09005007 0.012832099 0.18149176 0.1361056 0.19889097
0.21396068 -0.20292757 0.051167175 -0.18941087 0.0460695 -0.18057342 0.0844725 -0.15299313
-0.13908315 -0.20753461 -0.14928655 -0.12003354 0.018282041 0.16382742 -0.14404285 0.05050369
-0.07796976 0.030263623 0.07824703 -0.17422302 0.02319797 -0.17618908 0.073624894 -0.034339484
-0.113130555 0.18465382 -0.16384023 0.03280473 -0.034035303 0.06955294 0.035120666 -0.06521699
0.060575217 -0.037266336 -0.18855599 0.29784366 0.20688382 -0.14445676 -0.08549115 -0.09293679
-0.015517405 0.21868323 -0.1450143 0.21492656 0.19481607 0.075997226 -0.12747179 0.117924996
-0.037146237 -0.08527651 0.07749949 0.12101627 0.040506706 -0.41772538 0.1437551 0.16462569
0.05212786 0.10522888 0.14228211 -0.061954416 0.0073536476 0.15914637 0.08977164 0.123855345
0.13049774 -0.004912239 -0.28809363 0.056078628 0.04887225 -0.013524953 0.2695294 0.17085592
0.06532412 -0.08013448 0.10207803 0.09621184 -0.10966283 -0.025242994 -0.1454009 -0.12721156
0.04891268 0.1823144 -0.03785591 0.0561105 0.1332357 -0.013463285 -0.18540761 -0.08719594
-0.10042126 -0.07930925 0.13848338 0.0010638726 -0.17278337 0.2805983 0.040508535 -0.16721393
00000000: 2e1e 05be 9416 c23c 235f 4cbe 2578 4c3e
00000010: c84e 90be b917 2d3e bfa0 d8bd 330b 8ebc
00000020: ad8d 033e 6311 0e3d eb98 92bd ac62 d3bd
00000030: 207e a13c a485 413c dbbd e53b cf41 97bc
00000040: bbf1 833d 93de 253e 10f4 103e ea01 723d
00000050: 4932 883e 9917 8fbd dc00 583c 907b e8bd
00000060: 249b 433c e0e6 5bbe b33d 6e3d 8a9a 963e
00000070: fcf5 bd3c 1e9e 1abd e1a5 0ebd f7eb 043e
00000080: 0c31 adbe 385e 503e 4a31 81be f2b8 42be
00000090: 6181 9abd 8540 233c bd5f 4b3c b79e 1d3e
000000a0: 6c40 d13d 2fb7 d23d c73d ddbd e479 513e
000000b0: f3f7 383e a1ca 733d 698e 003e 8178 34be
000000c0: 51c3 d4bd a3fb 15be b42f c1bd 8a34 b83d
000000d0: be7c f23c 69da 74bd 0dc4 5fbc c2a9 7ebe
000000e0: b0fc 4e3e 9ce2 e7bd 4dd4 5abe bd0f a43d
000000f0: 65fc bb3d 1b09 073e 767e 1d3d 2be9 2bbe
00000100: 6c63 423e 547e 0b3e a5cc f9be 25c6 1dbe
00000110: 3a18 0bbe e430 853f aebd 2bbe c16e 27be
00000120: 9094 83bd 0caa 14be 4f3f d13e b559 19bc
00000130: b82c 233d 0496 7c3d e708 653e 2621 b9bd
00000140: 83e9 263e b9b6 31bf 8c10 473e 0c53 973e
00000150: 93c7 013d 7844 6a3e 22f5 33be 8ab1 06be
00000160: edb9 913e 9e3a e5bc 6801 fabe d05b 94bd
00000170: 075d ba3d 5617 2cbe 6899 24be e779 aebd
00000180: ce3b 5cbe 30fd debd 7823 4dbe 43e9 353e
00000190: ce3e 213e c7eb ee3b 6a58 29bf 74c7 c23c
000001a0: aefb 9bbd 0be5 ccbd 2b8a 45bf cd4d 21be
000001b0: cca1 dd3d ce0f 01be 22cc c83c 5015 abbe
000001c0: e2fe 5a3f fbb3 f63d bd05 563c b053 09be
000001d0: a899 d23d 3a12 edbb 6542 57bd 6fd3 bb3c
000001e0: 1938 adbe 53f6 f43e dc20 90be 61e1 bd3d
000001f0: 9ec6 1ebd 347d 2cbd 1ead 893d 9991 8abd
00000200: 3c05 823d bc71 d43e e265 b5bc 381c c13e
00000210: 4525 ad3d 4dcc 7a3e 3582 c7bd 4482 273e
00000220: e845 863d 42d6 c4bd eb76 67be 538c 0dbd
00000230: 45f2 9e3c e1d0 183d 34cb 283e e00d 9a3d
00000240: aba3 49be cb1d 8ebd 98d8 863d b28a a0bd
00000250: a138 1ebd b254 35be 55c4 92be bda3 5dbe
00000260: 9ef4 eebc dc9a 853e b201 8939 2c6c b8bd
00000270: b93d 523c fad8 393e 445f 0b3e 13aa 4b3e
00000280: 8218 5b3e 3fcc 4fbe ac94 513d ecf4 41be
00000290: 5fb3 3c3d 3de8 38be ebff ac3d 3baa 1cbe
000002a0: d06b 0ebe f483 54be 93de 18be 25d4 f5bd
000002b0: 38c4 953c 60c2 273e f87f 13be f5dc 4e3d
000002c0: 9cae 9fbd 6beb f73c fb3f a03d 8567 32be
000002d0: ab09 be3c e96a 34be a6c8 963d 8fa7 0cbd
000002e0: feb0 e7bd e415 3d3e bcc5 27be 415e 063d
000002f0: 9a68 0bbd c671 8e3d b0da 0f3d 7c90 85bd
00000300: b81d 783d 96a4 18bd d214 41be f77e 983e
00000310: 5ad9 533e 79ec 13be fc15 afbd a555 bebd
00000320: b73c 7ebc 7fee 5f3e a17e 14be b515 5c3e
00000330: dd7d 473e 6fa4 9b3d f787 02be a982 f13d
00000340: a726 18bd 73a5 aebd 0db8 9e3d 61d7 f73d
00000350: 5cea 253d 1ae0 d5be 8934 133e a393 283e
00000360: 0684 553d 3d82 d73d 67b2 113e eac3 7dbd
00000370: def6 f03b 44f7 223e 32da b73d dfa7 fd3d
00000380: 33a1 053e d9f6 a0bb 0281 93be b4b2 653d
00000390: 452e 483d c497 5dbc c2ff 893e dbf4 2e3e
000003a0: a7c8 853d 8c1d a4bd 490e d13d b70a c53d
000003b0: e896 e0bd 65ca cebc f9e3 14be bf43 02be
000003c0: aa58 483d a0b0 3a3e cc0e 1bbd 20d4 653d
000003d0: f06e 083e 1c95 5cbc 7edb 3dbe c993 b2bd
000003e0: a9a9 cdbd e36c a2bd 96ce 0d3e a471 8b3a
000003f0: 20ee 30be 95aa 8f3e 47ec 253d 213a 2bbe

hiden_layers.1.bias f4 [64]
-0.0583764 0.105762914 0.07197485 -0.003378551 -0.14851685 0.03715191 -0.016983295 0.17516074
0.030266386 0.11840195 0.022555957 0.00042790113 0.023198912 0.017718943 -0.01708136 -0.022540929
-0.01678408 0.042328898 -0.081849456 -0.05721717 -0.09053765 0.055310145 -0.05889108 0.015841747
0.042478226 -0.01568859 0.016723523 -0.015781758 -0.26502022 -0.10673885 -0.09051037 -0.010671837
-0.029278366 0.0012942728 -0.06535661 0.06135083 -0.07034573 -0.23813961 0.008445463 0.045281775
0.057787064 -0.055084243 0.12621374 -0.043766607 -0.106431685 0.018089335 -0.015663655 0.0073788646
-0.08304212 -0.034740042 0.04334959 0.018991306 0.15833038 -0.14066571 -0.032169253 -0.013715214
-0.018899512 0.076345764 -0.20617378 0.004423425 -0.24482518 -0.020590521 -0.11014634 0.034267977
00000000: 181c 6fbd 3a9a d83d 8d67 933d ae6a 5dbb
00000010: cd14 18be 9a2c 183d 8d20 8bbc 565d 333e
00000020: 36f1 f73c b97c f23d 45c7 b83c eb57 e039
00000030: a50b be3c 5127 913c 35ee 8bbc c1a7 b8bc
00000040: c47e 89bc 1161 2d3d b0a0 a7bd 8d5c 6abd
00000050: ce6b b9bd e48c 623d c637 71bd 8dc6 813c
00000060: a6fd 2d3d 5c85 80bc c5ff 883c bf48 81bc
00000070: bbb0 87be e699 dabd 805d b9bd eed8 2ebc
00000080: 2fd9 efbc 97a4 a93a b0d9 85bd 024b 7b3d
00000090: 6c11 90bd dfda 73be d75e 0a3c 6279 393d
000000a0: 21b2 6c3d 04a0 61bd 2d3e 013e 9d44 33bd
000000b0: dbf8 d9bd 1630 943c 1151 80bc 67ca f13b
000000c0: fd11 aabd 934b 0ebd 578f 313d a893 9b3c
000000d0: 5c21 223e ac0a 10be e8c3 03bd c7b5 60bc
000000e0: 26d3 9abc 2b5b 9c3d 381f 53be 61f2 903b
000000f0: 74b3 7abe 74ad a8bc 6894 e1bd 945c 0c3d

hiden_layers.2.weight f4 [64, 64]
-0.31699544 0.20799057 -0.42363876 -0.3204542 0.06958978 -0.12732482 -1.8266714 -0.16362387
-0.24463798 -0.024710475 0.24454688 0.10170198 -0.69682187 0.16372387 -0.07197131 0.2751229
-0.40386993 -0.0036570712 -0.07352725 -0.12422689 0.34870017 0.15223566 -0.056044385 0.16943085
-0.07589927 -0.16651088 -0.013436329 -0.094349004 0.004778928 -0.33455688 0.15821418 0.42133132
-0.17733692 0.026129896 -0.10243861 -0.107255414 0.20283136 0.53003526 0.375411 0.004727981
0.35696128 -0.029617265 0.0832213 0.09662687 0.0988094 -0.19449107 0.026799526 0.18696973
0.24478783 -0.04046176 -0.2076051 -0.36264578 -0.115508184 0.12048947 0.026310468 0.3212098
-0.34251717 0.119186275 0.2583354 0.82058024 0.052194424 -0.003989018 0.16444878 0.12027338
0.06212971 0.31571218 0.11602176 0.13358556 0.16467401 0.13379265 0.2591445 0.17130631
0.05407348 0.21574444 0.25036037 0.075923674 -0.19816625 -0.10580863 0.026388906 0.17791075
-0.2520712 0.14490205 -0.29029816 -0.058588117 0.12815537 -0.09066301 -0.058277074 -0.15426111
0.060200077 0.14675422 0.11801192 0.030602299 -0.07625528 0.10702781 -0.051309396 -0.11320861
0.04727798 0.14285797 -0.1182444 0.21710904 0.18694355 -0.10691063 0.07594817 -0.17287777
-0.34849197 -0.12678307 -0.05897392 0.066669285 0.14072731 -0.1958831 -0.1950854 0.25139987
-0.12424498 0.44267705 -0.13299663 -0.08111085 -0.100946635 0.20182021 -0.015727974 -0.1967797
0.062026467 -0.029707825 -0.15856937 0.16210671 0.009036403 0.17523222 0.09256456 0.04579859
0.2822105 -0.027832791 -0.19027443 -0.13235135 0.11996284 0.10518854 0.16045818 0.026805677
-0.15842424 0.1985739 -0.08986115 0.12283428 0.32529783 0.23824863 -0.17401446 0.049156006
0.1332681 0.059739135 0.13726652 -0.3178219 -0.007367769 0.10831503 0.23375633 -0.16980918
-0.040100604 -0.07560085 -0.09679831 -0.22762536 0.08571026 0.030475546 -0.030498339 0.41690612
0.016714804 -0.030757306 0.12304551 0.008890258 0.27949584 -0.021204175 -0.16286069 0.018826533
0.14269581 0.14395837 0.01853485 -0.08057404 0.28003955 0.010854671 -0.049411993 -0.1963246
0.27454332 0.00992306 -0.42298326 0.19094676 -0.18164678 0.15164265 0.019956978 0.15984498
0.038890384 0.08629233 -0.2207805 -0.25076902 0.051404446 -0.021892 0.06101818 0.008605476
0.16898203 -0.046130117 -0.06012171 0.16700932 -0.11520679 -0.15238322 -0.03173418 -0.1146421
0.08977858 0.12472152 0.014694538 -0.1050701 0.40554276 -0.18762025 -0.18598549 0.21127243
0.12395432 -0.22627915 -0.28976002 0.06915358 -0.17377093 -0.046345346 0.28129148 -0.08066063
-0.43682048 -0.06813061 0.14969242 0.06693596 -0.01633258 0.29006425 0.1206188 -0.1396497
-0.41200298 -0.11757158 0.19767956 0.4868229 -0.056338757 0.29636887 -0.17267945 -0.25848216
0.3498094 -0.17551845 0.19808081 -0.21393849 0.057781897 -0.1471338 0.056542743 -0.2660754
-0.13202423 0.3485853 0.114002906 -0.20487015 -0.04168365 -0.09200722 0.8271215 -0.04295593
-0.65925896 -0.10298038 -0.049376473 0.557324 0.13455015 -0.3009006 0.20065854 0.022328919
00000000: 3a4d a2be 7bfb 543e 2ee7 d8be 9312 a4be
00000010: 1685 8e3d 7061 02be 5ed0 e9bf 048d 27be
00000020: 6182 7abe 9f6d cabc 7f6a 7a3e 2149 d03d
00000030: eb62 32bf 3ba7 273e b265 93bd e9dc 8c3e
00000040: 0ac8 cebe 79ab 6fbb 7495 96bd ab6a febd
00000050: d488 b23e aae3 1b3e cc8e 65bd 487f 2d3e
00000060: 1471 9bbd d481 2abe 0c24 5cbc 0d3a c1bd
00000070: 8e98 9c3b 0a4b abbe e602 223e bdb8 d73e
00000080: cf97 35be 5d0e d63c 55cb d1bd baa8 dbbd
00000090: 06b3 4f3e 64b0 073f df35 c03e 2eed 9a3b
000000a0: a1c3 b63e e89f f2bc ee6f aa3d 4fe4 c53d
000000b0: 955c ca3d ab28 47be ae8a db3c fe74 3f3e
000000c0: a9a9 7a3e 3bbb 25bd 6e96 54be b5ac b9be
000000d0: 8e8f ecbd 2fc3 f63d 0d89 d73c 9c75 a43e
000000e0: 695e afbe ef17 f43d 8a44 843e 8c11 523f
000000f0: d2c9 553d 4fb6 82bb 4365 283e e451 f63d
00000100: b97b 7e3d 07a5 a13e d19c ed3d a7ca 083e
00000110: 4ea0 283e f100 093e 97ae 843e ec6a 2f3e
00000120: 277c 5d3d 1cec 5c3e 3c2f 803e df7d 9b3d
00000130: 18ec 4abe 32b2 d8bd 8c2d d83c 3c2e 363e
00000140: 7a0f 81be 3461 143e f6a1 94be 18fa 6fbd
00000150: 293b 033e 87ad b9bd f1b3 6ebd a0f6 1dbe
00000160: 5b94 763d bd46 163e 3cb0 f13d acb1 fa3c
00000170: ba2b 9cbd 6531 db3d cd29 52bd ead9 e7bd
00000180: 8ea6 413d 5c49 123e 1f2a f2bd d551 5e3e
00000190: 216e 3f3e f6f3 dabd b78a 9b3d df06 31be
000001a0: 8a6d b2be 6cd3 01be a38e 71bd e889 883d
000001b0: d21a 103e 9495 48be 78c4 47be 7cb7 803e
000001c0: 2774 febd 91a6 e23e 4530 08be 721d a6bd
000001d0: 1cbd cebd f5a9 4e3e f4d7 80bc 9e80 49be
000001e0: 770f 7e3d d35d f3bc 0260 22be 4dff 253e
000001f0: 6c0d 143c 1370 333e 7d92 bd3d 4d97 3b3d
00000200: e57d 903e 9801 e4bc 4dd7 42be 1d87 07be
00000210: 14af f53d 176d d73d 264f 243e 9497 db3c
00000220: f739 22be f556 4b3e 1f09 b8bd 8a90 fb3d
00000230: 708d a63e 73f7 733e d930 32be cf57 493d
00000240: 6f77 083e 06b1 743d 988f 0c3e 8db9 a2be
00000250: 536d f1bb 45d4 dd3d d25d 6f3e 75e2 2dbe
00000260: 8840 24bd 9ed4 9abd 313e c6bd 9f16 69be
00000270: dc88 af3d daa7 f93c a7d7 f9bc b874 d53e
00000280: 7ced 883c bff6 fbbc 49ff fb3d 72a8 113c
00000290: 141a 8f3e 61b4 adbc f4c4 26be 1a3a 9a3c
000002a0: da1e 123e d369 133e 66d6 973c 0104 a5bd
000002b0: 5861 8f3e cad7 313c 3b64 4abd 5109 49be
000002c0: f190 8c3e 5594 223c 4391 d8be 8c87 433e
000002d0: 9d01 3abe 3648 1b3e d17c a33c 67ae 233e
000002e0: 864b 1f3d 08ba b03d 4914 62be cc64 80be
000002f0: 788d 523d da56 b3bc 33ee 793d fbfd 0c3c
00000300: a009 2d3e eff2 3cbd 2f42 76bd 7e04 2b3e
00000310: 8af1 ebbd 590a 1cbe b3fb 01bd 7ac9 eabd
00000320: d5dd b73d ff6d ff3d 5cc1 703c fe2e d7bd
00000330: 4da3 cf3e 861f 40be fb72 3ebe cd57 583e
00000340: c3db fd3d b9b5 67be 6d5b 94be 64a0 8d3d
00000350: 02f1 31be 9ed4 3dbd 7005 903e 6631 a5bd
00000360: efa6 dfbe 1088 8bbd f848 193e b815 893d
00000370: e7cb 85bc 4d83 943e fd06 f73d 5500 0fbe
00000380: 0ef2 d2be 5ec9 f0bd 836c 4a3e da40 f93e
00000390: 78c3 66bd a9bd 973e e2d2 30be c657 84be
000003a0: 381a b33e 1cbb 33be b2d5 4a3e b112 5bbe
000003b0: b6ac 6c3d 3eaa 16be 5d99 673d 093b 88be
000003c0: 5c31 07be c679 b23e 5b7a e93d 7bc9 51be
000003d0: 7abc 2abd 486e bcbd 3cbe 533f 8ff2 2fbd
000003e0: 32c5 28bf 61e7 d2bd fc3e 4abd c9ac 0e3f
000003f0: 84c7 093e a50f 9abe 6f79 4d3e 23eb b63c

hiden_layers.2.bias f4 [64]
0.045926176 -0.027940545 -0.058349658 0.0032323601 -0.039101087 -0.09576532 -0.13328585 -0.13048616
-0.051505685 0.024329813 -0.04084305 -0.0036042032 0.011597075 -0.022878848 -0.05071563 -0.044864334
-0.015224859 -0.0580988 0.0043815454 -0.03534605 -0.006748726 0.013032915 0.039674256 -0.07115317
0.09553928 0.030505957 0.18091957 -0.03236774 0.016677832 -0.051635865 0.09728116 -0.007235488
-0.035814036 0.017909322 -0.00031293044 0.00999645 0.012316441 -0.036180902 -0.16345587 0.023225516
-0.005200505 -0.0022479154 -0.07880561 -0.16853958 0.023194153 -0.067110285 0.00997517 -0.009123574
0.0977911 -0.16195975 0.034721516 0.012937764 -0.057241905 -0.018655935 0.0076453574 -0.015084824
0.02282016 0.006162319 -0.061929516 -0.043152478 -0.1563772 -0.032156143 -0.049108822 0.08471562
00000000: 161d 3c3d 92e3 e4bc 0d00 6fbd 01d6 533b
00000010: 7628 20bd 9c20 c4bd 167c 08be 2a9e 05be
00000020: a0f7 52bd 514f c73c 0b4b 27bd 7f34 6cbb
00000030: a801 3e3c 6c6c bbbc 31bb 4fbd aac3 37bd
00000040: b071 79bc 02f9 6dbd 1193 8f3b 05c7 10bd
00000050: 6b24 ddbb 0288 553c 7981 223d c1b8 91bd
00000060: 19aa c33d a1e7 f93c fb42 393e 0994 04bd
00000070: f39f 883c 2180 53bd 583b c73d ac17 edbb
00000080: bdb1 12bd 92b6 923c d010 a4b9 26c8 233c
00000090: e6ca 493c 6d32 14bd fa60 27be 7043 be3c
000000a0: ff68 aabb c351 13bb d664 a1bd a495 2cbe
000000b0: aa01 be3c 1e71 89bd e56e 233c 0b7b 15bc
000000c0: b346 c83d c7d8 25be 2638 0e3d eaf8 533c
000000d0: 7d76 6abd 55d4 98bc e885 fa3b 5626 77bc
000000e0: 58f1 ba3c 47ed c93b cea9 7dbd a7c0 30bd
000000f0: 5821 20be 29b6 03bd 5526 49bd 627f ad3d

hiden_layers.3.weight f4 [64, 64]
-0.37873146 0.35946658 0.21979235 -0.26380247 -0.20588143 0.09821359 -0.13902493 -0.14064401
-0.23190568 0.17394301 0.16229928 0.029835064 -0.047934666 -0.24690063 0.22546592 -0.030364348
-0.07930083 -0.15177582 0.032330908 -0.20731492 0.28029314 -0.10123343 0.19235274 0.116940066
0.12744933 0.19582331 -0.13500054 0.2789571 0.16072027 0.086441085 -0.20533568 0.08080236
-0.1412186 -0.09870214 0.032808986 0.11889009 0.028079439 -0.026070371 0.14692497 -0.29513797
0.050586957 0.37451172 -0.39680436 -0.31640282 0.019274738 0.11668455 0.21235555 -0.16275126
0.37282294 -0.17595705 -0.0973897 -0.21282767 0.4177966 0.12739809 0.13458517 -0.06938064
-0.034069285 0.20166676 -0.14875287 0.17829831 0.0034821546 0.21924348 -0.14481027 0.20834835
-0.038057316 -0.042014264 0.0016432699 0.12424947 0.11529429 0.18240753 -0.19865069 0.12052785
-0.09253378 -0.25109342 0.084243216 0.04648699 0.14119844 -0.0907225 0.00059495255 0.2306269
0.3423625 0.097545095 0.10901602 0.16726105 0.18871889 -0.024836026 -0.046714336 0.1251593
-0.4641484 0.030340025 0.19694342 -0.20609324 0.14071006 -0.101026 -0.059001684 0.1721947
0.061406184 -0.09687522 0.4298342 0.06184249 -0.09190225 -0.051191308 -0.18103372 0.14946705
0.060628176 -0.2793988 0.001018648 0.31283966 -0.0889936 0.0020761192 0.078512795 0.30821288
-0.121383 -0.13869521 -0.15739422 0.18270664 0.11946596 -0.043647017 0.2621112 0.20199315
0.21979254 -0.11062368 0.2842683 0.15626791 0.23869987 0.20296122 0.03551019 0.044355936
-0.23170799 0.108432464 -0.10688019 -0.22068512 -0.11566379 0.18287696 0.24085204 -0.29727063
-0.08352961 0.065368645 -0.2153352 0.17690144 -0.034418844 0.06836294 0.14760925 0.04086288
0.37502262 0.3367612 -0.23243007 -0.3027346 0.016274825 0.16813457 -0.4938336 -0.06451687
-0.19865929 -0.088809475 -0.24820775 0.46120203 0.009098633 -0.31970668 -0.16341388 -0.16190283
-0.5906518 -0.075444795 0.32732597 -0.10614512 0.21310323 -0.27378893 -0.2017382 0.15093872
0.3696654 -0.22245082 -0.08551352 0.26670402 -0.18870199 -0.35606733 0.2636894 -0.007993737
-0.03908296 -0.15615174 0.2547553 0.13895935 0.18683831 -0.1497138 0.25076205 -0.43800774
-0.041699238 -0.0012561161 0.025266215 0.06669008 0.36359468 0.00086914306 -0.1875364 -0.029610017
-0.1632852 0.021929748 0.055058956 -0.15389828 -0.18490049 -0.023833752 -0.11836099 -0.14298438
-0.2159221 -0.066629104 -0.25530294 -0.06982123 -0.24676783 -0.10323566 -0.15310419 0.101525575
-0.07494724 0.11097094 0.041767273 0.19194746 0.03612422 0.02733785 -0.21530922 -0.045904536
0.18966201 0.14429618 0.09487987 -0.13217567 0.10494162 -0.29825503 0.042959858 0.016796455
0.34038866 0.14140096 0.09570783 -0.028127907 -0.18964642 0.034048695 -0.1717169 -0.0055015027
0.08354073 -0.03839439 -0.10815518 -0.03968737 0.1190579 -0.13316561 0.20344004 0.005283552
0.2127082 0.17502925 -0.06284792 -0.07171962 0.06557766 0.059779745 0.14077945 0.22132537
-0.035339408 0.11810147 0.20162174 -0.062053204 -0.05711073 -0.108202204 -0.081239864 0.05102011
00000000: 17e9 c1be 010c b83e 3f11 613e 1e11 87be
00000010: 95d2 52be 3524 c93d 8d5c 0ebe fc04 10be
00000020: af78 6dbe 1e1e 323e c831 263e aa68 f43c
00000030: 2457 44bd 85d3 7cbe 8ae0 663e a7be f8bc
00000040: 7968 a2bd 1f6b 1bbe 6a6d 043d 5d4a 54be
00000050: 9582 8f3e 7953 cfbd 1ef8 443e 467e ef3d
00000060: 1482 023e e885 483e 953d 0abe 77d3 8e3e
00000070: db93 243e 0608 b13d 8443 52be b57b a53d
00000080: 9c9b 10be 5924 cabd b762 063d a67c f33d
00000090: da06 e63c 8891 d5bc 8073 163e 531c 97be
000000a0: 4534 4f3d 00c0 bf3e f129 cbbe 8dff a1be
000000b0: 0ee6 9d3c 4ff8 ee3d bc73 593e 44a8 26be
000000c0: a6e2 be3e 162e 34be 4074 c7bd 7fef 59be
000000d0: 70e9 d53e a574 023e b2d0 093e 7017 8ebd
000000e0: 3c8c 0bbd bb81 4e3e ac52 18be d593 363e
000000f0: dc34 643b 5d81 603e 2549 14be 4559 553e
00000100: fde1 1bbd 2617 2cbd fd62 d73a 8276 fe3d
00000110: 6a1f ec3d 0ac9 3a3e 166b 4bbe 4ed7 f63d
00000120: 5a82 bdbd 518f 80be b587 ac3d 2469 3e3d
00000130: 5396 103e b8cc b9bd 97f6 1b3a 7529 6c3e
00000140: 234a af3e b9c5 c73d cb43 df3d 7b46 2b3e
00000150: 863f 413e ec74 cbbc 8857 3fbd c229 003e
00000160: dca4 edbe a58b f83c 89ab 493e 1b0a 53be
00000170: 4c16 103e b8e6 cebd c0ab 71bd cf53 303e
00000180: 0d85 7b3d 8466 c6bd 3a13 dc3e 8d4e 7d3d
00000190: 3f37 bcbd faad 51bd e760 39be e40d 193e
000001a0: 4055 783d 5c0d 8fbe 2884 853a 852c a03e
000001b0: 4742 b6bd 800f 083b 51cb a03d 14ce 9d3e
000001c0: a697 f8bd 1e06 0ebe f32b 21be 7317 3b3e
000001d0: 92aa f43d 37c7 32bd 7033 863e 4bd7 4e3e
000001e0: 4c11 613e ab8e e2bd 9d8b 913e b204 203e
000001f0: bd6d 743e 11d5 4f3e 2273 113d 92ae 353d
00000200: dc44 6dbe d711 de3d 00e4 dabd 48fb 61be
00000210: 23e1 ecbd 1944 3b3e eba1 763e db33 98be
00000220: 9211 abbd ffdf 853d d580 5cbe a725 353e
00000230: c6fa 0cbd de01 8c3d e126 173e d65f 273d
00000240: f702 c03e f76b ac3e 2602 6ebe 0800 9bbe
00000250: c852 853c 782b 2c3e c2d7 fcbe 6c21 84bd
00000260: 576d 4bbe bee1 b5bd 2c2a 7ebe ac22 ec3e
00000270: 6f12 153c 98b0 a3be f855 27be dbc9 25be
00000280: f534 17bf cd82 9abd 4597 a73e 9d62 d9bd
00000290: bc37 5a3e 102e 8cbe 7594 4ebe ae8f 1a3e
000002a0: c944 bd3e 26ca 63be b621 afbd 6e8d 883e
000002b0: 183b 41be 754e b6be 4c02 873e 2af8 02bc
000002c0: 7415 20bd 3ee6 1fbe 496f 823e 5c4b 0e3e
000002d0: 8b52 3f3e 934e 19be e263 803e 8d42 e0be
000002e0: d2cc 2abd 43a4 a4ba 18fb ce3c cf94 883d
000002f0: 1529 ba3e 34d7 633a 8b09 40be b590 f2bc
00000300: 3c34 27be 04a6 b33c 8085 613d 8397 1dbe
00000310: 8e56 3dbe 003f c3bc 3f67 f2bd 7f6a 12be
00000320: af1a 5dbe d774 88bd 11b7 82be 6ffe 8ebd
00000330: b5b0 7cbe 386d d3bd 58c7 1cbe a4ec cf3d
00000340: f07d 99bd bb44 e33d 2914 2b3d e08d 443e
00000350: fdf6 133d a0f3 df3c 057a 5cbe 6506 3cbd
00000360: c236 423e 61c2 133e 6150 c23d 0f59 07be
00000370: a2eb d63d e2b4 98be adf6 2f3d b898 893c
00000380: 6c47 ae3e 6acb 103e 7702 c43d 7f6c e6bc
00000390: ac32 42be a576 0b3d 8ed6 2fbe f345 b4bb
000003a0: 6717 ab3d 7043 1dbd 7780 ddbd 398f 22bd
000003b0: a1d4 f33d 915c 08be 9652 503e a621 ad3b
000003c0: 2ed0 593e de3a 333e 69b6 80bd bce1 92bd
000003d0: 954d 863d 9bdb 743d 7d28 103e 1ea3 623e
000003e0: 0ec0 10bd 2fdf f13d ee75 4e3e 802b 7ebd
000003f0: f1ec 69bd 1e99 ddbd 1661 a6bd 76fa 503d

hiden_layers.3.bias f4 [64]
-0.053406827 -0.15072316 -0.046028785 0.08186902 0.00844437 -0.054323234 0.020385329 -0.025675625
-0.08941155 -0.10476901 -0.008358273 0.02447318 -0.10177729 0.0909 0.016463494 -0.028363926
0.031683605 -0.041149274 0.021178024 -0.0076183057 0.016384404 -0.045762118 -0.052944735 0.08377681
-0.033594944 -0.024899283 0.006339452 -0.08947274 -0.050093696 -0.11079892 0.057458054 0.05574053
-0.079576515 0.10679618 0.07142138 0.00034326394 -0.06727454 0.03033727 -0.04685181 0.11103567
-0.19837125 0.05802702 -0.050491896 -0.08065788 -0.02359716 0.036579717 -0.0822824 -0.14909595
-0.09271064 0.031602778 -0.063384265 0.020326046 -0.05579591 0.08240036 0.03042734 -0.015534332
0.074057996 -0.028533842 -0.0024135143 -0.047311634 0.06598964 0.0039312495 0.024713654 -0.0098002795
00000000: 1ec1 5abd 2c57 1abe ae88 3cbd f2aa a73d
00000010: 415a 0a3c 0a82 5ebd 22ff a63c b055 d2bc
00000020: 671d b7bd 2291 d6bd 23f1 08bc fa7b c83c
00000030: 9d70 d0bd c729 ba3d 73de 863c 775b e8bc
00000040: abc6 013d 248c 28bd 897d ad3c fba2 f9bb
00000050: 9638 863c 0f71 3bbd 94dc 58bd 2d93 ab3d
00000060: da9a 09bd 95f9 cbbc 2ebb cf3b 7c3d b7bd
00000070: 0c2f 4dbd 8bea e2bd 2359 6b3d 2f50 643d
00000080: 03f9 a2bd f5b7 da3d 5f45 923d 1bf8 b339
00000090: 3cc7 89bd de85 f83c afe7 3fbd ab66 e33d
000000a0: d521 4bbe bead 6d3d 97d0 4ebd f52f a5bd
000000b0: d54e c1bc 9dd4 153d ad83 a8bd 9cac 18be
000000c0: 13df bdbd ea71 013d 9ccf 81bd cf82 a63c
000000d0: 418a 64bd 85c1 a83d c242 f93c b683 7ebc
000000e0: b8ab 973d cebf e9bc 0d2c 1ebb d8c9 41bd
000000f0: 9425 873d b6d1 803b 4a74 ca3c 5a91 20bc

hiden_layers.4.weight f4 [64, 64]
-0.3933059 0.41090864 0.07267901 -0.113143794 -0.054348726 -0.07607445 0.044269826 0.08735242
-0.15268731 -0.033069313 -0.18108909 0.1629315 0.15583032 -0.16116881 0.0467169 0.05187493
-0.04201758 -0.03019702 0.1279125 0.3478426 -0.2074522 -0.021793945 -0.14501192 -0.023486905
-0.39468774 -0.28298408 0.2600379 0.24838574 -0.39281094 -0.2211476 -0.12098445 -0.087980874
0.22859937 -0.035082076 -0.07063362 -0.4478999 -0.027249254 0.05565172 0.061890498 -0.045354173
-0.4103923 -0.0042933314 -0.008496555 0.029822914 0.07309829 0.20118381 0.28096375 -0.02536909
-0.18262476 0.034993876 -0.20673575 0.20819831 -0.60621494 0.16875625 0.24476412 -0.27580172
-0.038187794 -0.09472117 -0.38912874 -0.15320885 -0.07630784 -0.20672336 -0.12487956 -0.083192736
0.45955735 -0.5866458 -0.2686756 0.1123787 -0.066330254 -0.013400337 -0.10735465 0.21935262
-0.19329138 0.009187737 0.081782885 -0.004995409 0.1016719 0.6567643 -0.43896046 0.004700194
-0.31490695 -0.013023707 0.10245794 0.013568228 0.32824838 -0.03920331 0.1923492 0.1815296
0.08544212 -0.085139975 -0.3003139 0.09435765 0.23748876 0.114430055 -0.2290214 -0.051248774
-0.053395476 -0.12776835 0.32180738 -0.072685 -0.33493367 0.014751341 0.119285926 0.07318918
0.4991268 0.080442466 0.1634474 0.12751164 -0.16699167 0.16151437 -0.30233327 -0.19471613
-0.25951663 0.042946782 -0.22714762 -0.09090955 0.3977896 0.0032385055 0.0263821 0.085805506
0.1803861 -0.045280453 0.040566083 -0.024775438 0.5625816 0.0708243 0.5124266 0.061801225
0.09368893 -0.18907925 -0.19424023 -0.13046248 0.09849672 0.09296851 -0.0847015 0.054929886
-0.13007735 -0.28971085 0.041939605 -0.071849346 -0.08755183 0.34051833 0.2551563 -0.041812114
0.062096987 0.06847058 -0.05058058 -0.020833928 -0.23171784 -0.108686306 -0.1035223 0.07440021
-0.30459952 -0.16069071 -0.23391372 0.1372012 -0.08739612 0.089916736 -0.007234026 0.07268901
-0.21332352 -0.06034033 0.11413285 0.24569154 -0.043133095 0.07478614 -0.20373231 0.27508467
0.25205514 -0.056189835 -0.22926478 -0.072915345 -0.29573274 -0.040856488 0.077003375 -0.11906389
0.25968254 -0.06291238 0.39815465 -0.25745854 0.1012608 0.23291805 -0.020172931 0.05158154
-0.0151237715 0.04617701 0.25197858 0.19474208 0.22518857 -0.03047584 -0.18652385 0.26012412
0.15101829 -0.2146131 -0.036538273 -0.10483233 -0.12500155 -0.06341614 -0.09686337 -0.21442118
0.0062572393 0.20266742 0.1908517 -0.04547702 -0.0035240126 -0.028073302 -0.07306025 0.18900599
0.056022678 -0.04907382 -0.19579652 -0.21576999 -0.10188356 0.045844115 0.15635256 0.17424454
0.16345148 0.076767206 0.014021732 -0.22847955 -0.10811817 0.12280807 -0.0438711 -0.30044428
0.17560202 0.021961283 -0.009339327 -0.11289511 0.23442805 -0.029439138 -0.24889849 0.20372356
-0.35920256 0.079018116 -0.047899514 0.08193673 0.06610895 -0.15031776 -0.13137195 -0.07945528
-0.0056719854 0.039271507 -0.053662952 0.1473895 0.035269644 0.07932899 0.032224618 0.12237311
-0.09525262 -0.15139726 0.19112179 0.19075024 0.12962301 -0.04475699 -0.05985158 0.15162517
00000000: 645f c9be 9e62 d23e bcd8 943d efb7 e7bd
00000010: c59c 5ebd eccc 9bbd 4754 353d d3e5 b23d
00000020: 105a 1cbe b073 07bd 6b6f 39be 84d7 263e
00000030: fc91 1f3e 7009 25be 385a 3f3d ce7a 543d
00000040: a01a 2cbd be5f f7bc 7ffb 023e 6d18 b23e
00000050: 596e 54be 3789 b2bc 017e 14be 9c67 c0bc
00000060: 8314 cabe 4ae3 90be b023 853e d558 7e3e
00000070: 841e c9be 8474 62be b2c6 f7bd 512f b4bd
00000080: f415 6a3e 39b2 0fbd 5ca8 90bd 2353 e5be
00000090: d439 dfbc 0ff3 633d e480 7d3d 4cc5 39bd
000000a0: f11e d2be 13af 8cbb 2235 0bbc 2f4f f43c
000000b0: 8eb4 953d 2103 4e3e 7bda 8f3e d6d2 cfbc
000000c0: fc01 3bbe bd55 0f3d 89b2 53be f031 553e
000000d0: e730 1bbf 70ce 2c3e 72a3 7a3e e235 8dbe
000000e0: ce6a 1cbd 2cfd c1bd e23b c7be c8e2 1cbe
000000f0: 4947 9cbd 4aaf 53be dbc0 ffbd f460 aabd
00000100: 1a4b eb3e 6b2e 16bf d98f 89be ce26 e63d
00000110: 28d8 87bd 168d 5bbc c1dc dbbd f99d 603e
00000120: 2dee 45be 2988 163c c97d a73d 87b0 a3bb
00000130: 5b39 d03d b521 283f 6dbf e0be 1604 9a3b
00000140: 7c3b a1be 6361 55bc 78d5 d13d 464d 5e3c
00000150: 2c10 a83e a693 20bd 30f7 443e e5e2 393e
00000160: 47fc ae3d de5d aebd bec2 99be 953e c13d
00000170: 4130 733e 4e5a ea3d 9684 6abe 3cea 51bd
00000180: 37b5 5abd b5d5 02be f0c3 a43e e0db 94bd
00000190: 6d7c abbe 9caf 713c 2e4c f43d 35e4 953d
000001a0: 8c8d ff3e 05bf a43d c15e 273e 6992 023e
000001b0: ddff 2abe 0664 253e 6dcb 9abe aa63 47be
000001c0: 5ddf 84be f7e8 2f3d 6399 68be c92e babd
000001d0: 14ab cb3e 1b3d 543b 461f d83c ccba af3d
000001e0: 22b7 383e ff77 39bd 9f28 263d dcf5 cabc
000001f0: 5905 103f 550c 913d 642e 033f 4823 7d3d
00000200: fbdf bf3d fe9d 41be e9e6 46be f597 05be
00000210: a6b8 c93d 4666 be3d fb77 adbd 29fe 603d
00000220: ff32 05be fb54 94be ddc8 2b3d c025 93bd
00000230: 604e b3bd 6b58 ae3e d9a3 823e 2e43 2bbd
00000240: 6959 7e3d 4e3a 8c3d 952d 4fbd eaab aabc
00000250: 7147 6dbe ed96 debd 8003 d4bd 235f 983d
00000260: 78f4 9bbe 1b8c 24be 1487 6fbe 797e 0c3e
00000270: bdfc b2bd 4426 b83d 690b edbb fadd 943d
00000280: 7b71 5abe 6c27 77bd 7cbe e93d 9096 7b3e
00000290: 54ac 30bd 7a29 993d 349f 50be e6d7 8c3e
000002a0: 5f0d 813e 5027 66bd 63c4 6abe a454 95bd
000002b0: 486a 97be 2259 27bd f2b3 9d3d c5d7 f3bd
000002c0: 1cf5 843e 35d8 80bd edda cb3e 9bd1 83be
000002d0: d361 cf3d 1282 6e3e b441 a5bc 2a47 533d
000002e0: b2c9 77bc 1b24 3d3d 5603 813e 786a 473e
000002f0: d597 663e 78a8 f9bc 1c00 3fbe fd2e 853e
00000300: 8aa4 1a3e 89c3 5bbe 28a9 15bd 55b2 d6bd
00000310: 6800 00be 52e0 81bd 4d60 c6bd 3a91 5bbe
00000320: 8709 cd3b 0c88 4f3e a16e 433e 1d46 3abd
00000330: 1ff3 66bb fbf9 e5bc 9da0 95bd c98a 413e
00000340: 0978 653d a101 49bd e27e 48be cff2 5cbe
00000350: 54a8 d0bd 0ac7 3b3d e31a 203e 296d 323e
00000360: d35f 273e 2038 9d3d 68bb 653c 8bf6 69be
00000370: 0f6d ddbd cc82 fb3d 2fb2 33bd d5d3 99be
00000380: 04d1 333e 26e8 b33c fa03 19bc 8d35 e7bd
00000390: e80d 703e 592a f1bc 3fdf 7ebe e99c 503e
000003a0: 66e9 b7be 40d4 a13d 4832 44bd 72ce a73d
000003b0: 2164 873d e6ec 19be 5e86 06be 73b9 a2bd
000003c0: 10dc b9bb 29db 203d afcd 5bbd 46ed 163e
000003d0: e776 103d 3d77 a23d f6fd 033d c19e fa3d
000003e0: ce13 c3bd e207 1bbe 6eb5 433e 0854 433e
000003f0: e5bb 043e 1b53 37bd ee26 75bd a143 1b3e

hiden_layers.4.bias f4 [64]
-0.05515678 -0.012144243 0.17605823 0.028609056 -0.11298819 -0.10294644 0.15522833 0.14535141
0.060263127 -0.1906186 -0.052043594 -0.15351099 0.1220135 -0.12084039 0.14912808 -0.013257937
-0.073683456 0.056694094 0.16082004 -0.029572515 -0.00052988366 0.11171401 0.04850879 0.017661465
-0.13680895 0.009641278 -0.055028573 0.08511596 0.0699339 0.070483305 0.03301327 0.050935213
-0.058481377 0.17689283 0.02319395 -0.034210723 -0.08948319 0.042143617 -0.03859201 -0.051554088
0.22237846 0.00027177142 0.02055491 -0.0015173785 0.085172996 -0.019699868 0.0596019 -0.08175175
0.23600352 -0.022299303 0.04931145 0.10283379 -0.17998849 -0.06341619 -0.10661071 0.06051855
0.032641307 0.14660825 -0.030263802 0.08229501 0.018939573 0.04713745 0.1489904 0.07105618
00000000: 13ec 61bd a6f8 46bc 9c48 343e 8a5d ea3c
00000010: 5a66 e7bd 95d5 d2bd 2df4 1e3e 00d7 143e
00000020: 78d6 763d 8631 43be aa2b 55bd fc31 1dbe
00000030: 37e2 f93d 2b7b f7bd 08b5 183e d137 59bc
00000040: 5ae7 96bd 1138 683d 02ae 243e 0f42 f2bc
00000050: e4e7 0aba 51ca e43d 27b1 463d c7ae 903c
00000060: a517 0cbe 73f6 1d3c a465 61bd 4751 ae3d
00000070: 8139 8f3d 8d59 903d ec38 073d 71a1 503d
00000080: 2b8a 6fbd 6523 353e 3d01 be3c 8b20 0cbd
00000090: f642 b7bd c99e 2c3d a812 1ebd 612a 53bd
000000a0: 2eb7 633e 8b7c 8e39 c562 a83c c6e2 c6ba
000000b0: 2e6f ae3d 9e61 a1bc 1f21 743d 766d a7bd
000000c0: e8aa 713e 07ad b6bc cefa 493d 869a d23d
000000d0: e74e 38be 59e0 81bd b756 dabd 4de2 773d
000000e0: e4b2 053d 7920 163e cbeb f7bc 498a a83d
000000f0: 2a27 9b3c 3313 413d f090 183e e785 913d
