results/7_model_3_case_2_zoom/epoch1550/model_weights.pth (torch, 484214 bytes, 88 tensors)

init_layer.0.weight f4 [64, 3]
-0.07509182 -0.065908894 0.36349496 0.07248025 0.071734324 0.3488042 0.010372246 -0.21874148
-0.21317768 0.17022312 -0.03127016 0.01666948 -0.032055646 0.034324527 0.6640994 -0.14788792
-0.40720797 0.16812715 0.23821573 -0.024662767 0.43310496 0.17884627 0.22267607 0.26553157
0.3125244 -0.38441804 0.13853122 -0.10260721 -0.09183501 0.432707 -0.0660326 0.014117714
-0.49559367 0.100491256 0.06847553 -0.85300845 -0.01569601 0.006759836 0.6618716 0.011318005
0.018026825 1.1914648 0.12676533 -0.32353824 0.0999486 0.010081725 0.0020276 -1.2180959
0.094784714 -0.054285426 0.27386796 0.18880673 0.2830969 -0.24910441 0.017386824 -0.007957088
-0.3913512 -0.073271796 0.08725157 -0.47981617 0.020501105 -0.11779052 -0.70766515 0.18302871
-0.016195092 -0.18309006 0.15022111 -0.108022794 -0.46597973 -0.036375076 0.29595694 -0.040009566
0.006712361 0.0041926266 0.946779 0.0077637197 0.051965076 -0.31286168 -0.03844362 -0.02458925
1.0821004 -0.15451826 -0.31155065 0.4065158 0.061069213 0.06888787 -0.5955722 0.02035535
-0.26445428 0.19047463 -0.22841673 -0.16916999 -0.44126803 -0.032382183 0.0517052 0.4672549
-0.09098153 0.12034434 0.77583355 -0.54564226 0.28171968 -0.059658818 -0.0041290587 -0.025853265
-0.3556399 -0.02636058 -0.011654026 -0.71242 0.014395546 -0.0032680242 -0.40886256 -0.090417475
-0.035176847 -0.38342887 0.09483196 0.06304429 1.5891973 -0.16155268 0.3959801 0.18450136
0.11030016 0.050847497 -0.51427364 -0.03666643 -0.013233883 -1.0068094 0.11736481 -0.010028495
0.2688841 -0.0038257672 -0.038887165 0.840443 0.07618429 -0.33323514 -0.3040582 -0.16683899
-0.13414982 0.19909029 -0.01487058 -0.0622564 0.38241628 0.107983775 0.25245684 -0.033735115
0.23318473 0.34777942 0.19765687 0.06439292 -0.2921587 0.17990832 -0.084271446 -0.033529855
-0.5268418 -0.26722956 -0.43750247 -0.024079924 0.20682186 -0.22132272 0.38706726 -0.14399602
-0.10775781 0.5682242 0.1063461 -0.1954366 -0.38588715 0.11009941 -0.020961866 0.7652989
0.07053474 0.0466462 0.29491386 0.0138589945 -0.026886903 0.3577509 0.13382657 0.321934
0.11506022 0.123357564 0.19108802 -0.43261084 -0.10826775 -0.20088828 -0.24159569 -0.07143309
0.036193017 -0.27224562 0.12953562 -0.0147428475 -0.12957726 0.13979803 0.027034521 0.26722518
00000000: bdc9 99bd 3efb 86bd 031c ba3e 8670 943d
00000010: 72e9 923d 7796 b23e 5af0 293c c4fd 5fbe
00000020: 404b 5abe f84e 2e3e 2415 00bd 6f8e 883c
00000030: c84c 03bd e097 0c3d 6b02 2a3f ee6f 17be
00000040: 907d d0be 8629 2c3e d3ee 733e 9209 cabc
00000050: efbf dd3e 7a23 373e 3205 643e c1f3 873e
00000060: 3303 a03e 71d2 c4be 21db 0d3e bb23 d2bd
00000070: fe13 bcbd c68b dd3e 1a3c 87bd fc4d 673c
00000080: 74be fdbe 5cce cd3d e63c 8c3d c35e 5abf
00000090: eb94 80bc 9d81 dd3b 6b70 293f 276f 393c
000000a0: feac 933c eb81 983f c5ce 013e cea6 a5be
000000b0: dab1 cc3d d22d 253c 7ce1 043b 91ea 9bbf
000000c0: 7d1e c23d 655a 5ebd 6c38 8c3e 8d56 413e
000000d0: 14f2 903e 3a15 7fbe d06e 8e3c 725e 02bc
000000e0: 2f5f c8be 860f 96bd f3b0 b23d 77aa f5be
000000f0: eff1 a73c 283c f1bd 8b29 35bf e16b 3b3e
00000100: 92ab 84bc f67b 3bbe 90d3 193e 0e3b ddbd
00000110: e594 eebe 08fe 14bd ab87 973e 12e1 23bd
00000120: 5df3 db3b 4d62 893b 1c60 723f cd66 fe3b
00000130: 55d9 543d 682f a0be 0f77 1dbd 656f c9bc
00000140: 4482 8a3f 093a 1ebe 9183 9fbe d722 d03e
00000150: b623 7a3d 1515 8d3d 6b77 18bf 43c0 a63c
00000160: 8d66 87be c80b 433e 13e6 69be e63a 2dbe
00000170: e2ed e1be 2ea3 04bd d5c8 533d 093c ef3e
00000180: 8654 babd 1877 f63d 079d 463f 36af 0bbf
00000190: 903d 903e ce5c 74bd 0e4d 87bb 3aca d3bc
000001a0: 6f16 b6be 25f2 d7bc 87f0 3ebc 2861 36bf
000001b0: 4cdb 6b3c 592c 56bb 6f56 d1be cc2c b9bd
000001c0: 9915 10bd ca50 c4be 4237 c23d 5d1d 813d
000001d0: d16a cb3f 116e 25be e7bd ca3e eded 3c3e
000001e0: 0de5 e13d 7745 503d 70a7 03bf 8a2f 16bd
000001f0: eed2 58bc 21df 80bf f65c f03d 8f4e 24bc
00000200: 2dab 893e b9b9 7abb 2648 1fbd 4627 573f
00000210: 8206 9c3d cc9d aabe 84ad 9bbe d7d7 2abe
00000220: 925e 09be 53de 4b3e bca3 73bc 9100 7fbd
00000230: 11cc c33e 9926 dd3d 0642 813e d52d 0abd
00000240: fac7 6e3e 2510 b23e 9066 4a3e 6fe0 833d
00000250: d395 95be e339 383e 8296 acbd 9a56 09bd
00000260: 1bdf 06bf 50d2 88be 5300 e0be 4343 c5bc
00000270: 1cc9 533e 6ca2 62be ae2d c63e b173 13be
00000280: 20b0 dcbd 2477 113f fccb d93d 8820 48be
00000290: 0093 c5be cd7b e13d 38b8 abbc a1ea 433f
000002a0: 8574 903d 1610 3f3d f3fe 963e d610 633c
000002b0: ec41 dcbc 202b b73e d509 093e 89d4 a43e
000002c0: b1a4 eb3d e4a2 fc3d 94ac 433e 2b7f ddbe
000002d0: 7bbb ddbd a8b5 4dbe dc64 77be 834b 92bd
000002e0: 213f 143d c763 8bbe fca4 043e fc8b 71bc
000002f0: e7af 04be 3727 0f3e 8077 dd3c bdd1 883e

init_layer.0.bias f4 [64]
-0.4257627 -0.10842938 -0.30490723 0.37741852 -0.33651218 -0.12646717 0.0076230485 -0.38675192
-0.123163156 -0.3155619 0.06264715 -0.9638807 0.64727706 1.5638682 0.106487274 -0.020663435
-0.34977716 0.13268039 0.446323 -0.015663067 -0.18139921 0.07305309 -0.5459729 0.2285457
1.1948531 0.19738244 0.26877415 0.32288456 0.12389884 0.0014224858 -0.51081383 -0.43360117
0.01825536 -0.22618873 0.36396757 -0.30256343 0.43859506 0.3869353 0.5955412 0.2640632
0.35364223 -1.224492 -0.35623527 -0.054838825 0.14201234 -0.3370852 0.34631196 -0.24870345
0.0032212934 -0.22219352 -0.33644703 -0.1410282 0.44226182 0.5067027 0.2529758 0.30753192
-0.42971683 -0.36995232 -0.13139126 -0.2896169 -0.03660761 0.20033714 0.26458457 -0.33587423
00000000: 92fd d9be 3910 debd cd1c 9cbe 003d c13e
00000010: 534b acbe 9c80 01be c4ca f93b 5904 c6be
00000020: f73c fcbd 5491 a1be 264d 803d e3c0 76bf
00000030: f3b3 253f d52c c83f 0016 da3d 5d46 a9bc
00000040: fe15 b3be 5edd 073e 7384 e43e d54f 80bc
00000050: b7c0 39be dc9c 953d e1c4 0bbf e207 6a3e
00000060: f2f0 983f 9f1e 4a3e c49c 893e 2051 a53e
00000070: adbe fd3d b472 ba3a b2c4 02bf f900 debe
00000080: 448c 953c 059e 67be f559 ba3e 98e9 9abe
00000090: 888f e03e 621c c63e 6375 183f 4b33 873e
000000a0: 9810 b53e 27bc 9cbf 7864 b6be ad9e 60bd
000000b0: af6b 113e 6e96 acbe cd4f b13e 1eac 7ebe
000000c0: 561c 533b b386 63be c942 acbe b269 10be
000000d0: 2470 e23e 45b7 013f 0b86 813e d374 9d3e
000000e0: d803 dcbe 646a bdbe 6e8b 06be ab48 94be
000000f0: dcf1 15bd 2e25 4d3e a177 873e b5f7 abbe

hiden_layers.0.weight f4 [64, 64]
-0.13023515 0.07457855 -0.44217348 0.103143364 -0.13129911 -0.020447234 0.09819619 -0.28482467
0.21035437 -0.0038277428 -0.28231138 -0.853636 2.2234912 1.3434892 0.34936684 -0.501392
-0.13499132 -0.08808375 -0.006765572 -0.40757328 -0.64248604 -0.08406669 -1.2889792 -0.009747013
1.1626104 -0.073497266 0.5078036 0.44494104 -0.308455 0.15183112 -0.5838919 -0.076222606
0.15967514 0.014661445 0.14874381 -0.6092399 0.05035514 0.03225712 0.91561383 0.5930056
-0.008870248 -1.9871554 -0.022845317 0.29446077 -0.17115924 -0.07615569 0.9954616 -0.40740526
0.24660219 -0.15689199 -0.99981713 -0.024707608 0.44634837 0.567374 0.10458446 0.9316146
-0.26623678 -0.11504253 -0.12490118 -0.47923473 -0.35497147 -0.10943349 -0.0056625577 -0.22235468
-0.29563156 -0.21657474 -0.22544064 0.20512444 -0.33848006 -0.1875628 0.09551567 -0.2751871
0.013173814 -0.4421129 0.23165992 -0.17546256 0.06295794 0.056911916 0.10802149 0.18106115
-0.25821364 0.32606754 0.44456688 0.021746563 -0.09670061 -0.11523199 0.056103893 0.21515702
-0.021641077 0.06596622 0.2551568 0.12017565 0.24997722 0.03410066 -0.15219599 -0.5183491
-0.09896574 0.04189836 0.5870482 0.11277613 0.9224358 0.11230825 -0.064399846 0.123767175
0.11429831 -0.10274679 -0.44727978 -0.01583423 0.30543172 -0.31726316 0.22106135 -0.202727
-0.054427836 -0.18010858 -0.1068918 -0.12820856 0.16790883 -0.14162967 0.37105614 0.13423264
-0.42852694 -0.3989907 -0.22284816 -0.1600744 0.18195438 0.3255945 0.22114818 -0.21758139
0.08594713 -0.056509193 0.18146172 0.01635488 -0.19467229 -0.0028477847 0.0255712 -0.1490669
0.076474234 -0.075454764 -0.04027747 0.17961003 0.1080025 -0.21302946 0.21695048 -0.13476898
-0.10267797 -0.12178049 0.05620111 -0.06072217 0.004875464 -0.070801675 -0.12421199 -0.03792719
-0.010956043 -0.11327427 -0.026394513 0.17972362 -0.030882644 -0.15028653 0.20394582 0.22102158
-0.1581844 -0.16454917 0.1929363 0.1908604 -0.088511065 -0.14415172 0.0071812426 0.020045081
-0.18835285 -0.018367235 0.1940994 0.21041925 0.1992532 -0.017174091 -0.031591464 -0.022532368
0.010815159 0.0859208 -0.123750545 -0.07647727 0.047730308 -0.087107696 -0.13933648 0.058622316
-0.22008477 0.15535386 -0.17380859 -0.114417836 0.17290185 -0.1761219 -0.07367721 0.17180382
-0.7520881 -0.49332324 -0.019202657 0.36355153 -0.5030749 -0.4130318 -0.7666656 -0.757403
-0.4031306 -1.0344726 0.38812208 0.35791075 0.016051525 -0.4825049 0.16012876 0.23853646
-1.0700445 0.61912924 1.9058654 0.240312 0.29931986 0.3399846 -0.15572436 0.30479044
-0.18840055 0.5104306 -0.0985994 -0.2699607 0.9101172 -0.62902826 0.013281205 -1.61069
-0.8466958 -0.0659517 1.1752622 0.20532013 1.9025967 0.49153495 -0.46182436 -0.19599275
0.68705136 0.061128136 -0.9214305 -0.580383 0.8135427 -0.2550424 0.35111392 -0.34359276
-0.12130891 -0.73709786 0.3018026 0.11183236 0.04211803 -0.0871702 1.2660111 -0.09225043
-1.1572992 -1.4598923 -0.43438962 0.4012784 -0.07168956 0.6487245 0.5249993 -0.69986504
00000000: 5d5c 05be a4bc 983d 9064 e2be d43c d33d
00000010: 4673 06be f580 a7bc 161b c93d 8ad4 91be
00000020: 2367 573e deda 7abb 1e8b 90be e487 5abf
00000030: ae4d 0e40 74f7 ab3f 36e0 b23e 3a5b 00bf
00000040: 2a3b 0abe 4165 b4bd bbb1 ddbb 72ad d0be
00000050: f779 24bf 282b acbd 45fd a4bf f0b1 1fbc
00000060: 6bd0 943f bc85 96bd 6bff 013f 50cf e33e
00000070: d0ed 9dbe 9e79 1b3e f179 15bf 991a 9cbd
00000080: e181 233e 8f36 703c 4c50 183e 25f7 1bbf
00000090: 3141 4e3d 0b20 043d ab65 6a3f 37cf 173f
000000a0: 8454 11bc 1c5b febf 1a26 bbbc 90c3 963e
000000b0: 5e44 2fbe 84f7 9bbd 92d6 7e3f 6c97 d0be
000000c0: 4985 7c3e 4ba8 20be 04f4 7fbf 9c67 cabc
000000d0: c687 e43e 6c3f 113f 6130 d63d 4b7e 6e3f
000000e0: 3050 88be 6b9b ebbd 31cc ffbd 415e f5be
000000f0: d2be b5be aa1e e0bd fa8c b9bb f2b0 63be
00000100: 055d 97be c5c5 5dbe e9d9 66be 240c 523e
00000110: 424d adbe 7610 40be b89d c33d 53e5 8cbe
00000120: fbd6 573c 9f5c e2be 4238 6d3e 75ac 33be
00000130: 18f0 803d 781c 693d 5f3a dd3d 1868 393e
00000140: 9434 84be 53f2 a63e 459e e33e d925 b23c
00000150: f80a c6bd c0fe ebbd 32cd 653d 1f52 5c3e
00000160: a148 b1bc 4c19 873d e9a3 823e a71e f63d
00000170: 07fa 7f3e 22ad 0b3d 44d9 1bbe 87b2 04bf
00000180: 8dae cabd 9d9d 2b3d ca48 163f 2cf7 e63d
00000190: c124 6c3f de01 e63d 11e4 83bd a579 fd3d
000001a0: 3b15 ea3d e96c d2bd db01 e5be cab6 81bc
000001b0: 8c61 9c3e 5170 a2be e85d 623e ab97 4fbe
000001c0: b9ef 5ebd 626e 38be 17ea dabd 1b49 03be
000001d0: 4bf0 2b3e 5e07 11be 12fb bd3e 4874 093e
000001e0: e267 dbbe 8248 ccbe 4f32 64be 8bea 23be
000001f0: 4052 3a3e 53b4 a63e ab74 623e a8cd 5ebe
00000200: 0d05 b03d 2f76 67bd 1ad1 393e abfa 853c
00000210: 2c58 47be e6a1 3abb b17a d13c fea4 18be
00000220: 869e 9c3d 0788 9abd fdf9 24bd b1eb 373e
00000230: 6a30 dd3d 6524 5abe 4428 5e3e e100 0abe
00000240: d448 d2bd 0d68 f9bd 2333 663d cfb7 78bd
00000250: 5bc2 9f3b 7800 91bd db62 febd 8b59 1bbd
00000260: fa80 33bc 57fc e7bd 4e39 d8bc 7809 383e
00000270: 99fd fcbc b6e4 19be 2cd7 503e 7b53 623e
00000280: 17fb 21be 947f 28be 1891 453e e970 433e
00000290: 4a45 b5bd 829c 13be a150 eb3b 9535 a43c
000002a0: 92df 40be e276 96bc fec1 463e 2578 573e
000002b0: 0809 4c3e aeb0 8cbc 0d66 01bd cd95 b8bc
000002c0: 1132 313c 3ff7 af3d ed70 fdbd 1da0 9cbd
000002d0: db80 433d 8565 b2bd 39ae 0ebe f41d 703d
000002e0: e75d 61be 1515 1f3e e1fa 31be e653 eabd
000002f0: 2f0d 313e 4d59 34be 14e4 96bd 57ed 2f3e
00000300: d988 40bf dd94 fcbe e44e 9dbc 6d23 ba3e
00000310: 84c9 00bf e778 d3be 3244 44bf 2ae5 41bf
00000320: 2267 cebe 9969 84bf f0b7 c63e 1440 b73e
00000330: 7d7e 833c e20a f7be cbf8 233e e742 743e
00000340: 38f7 88bf 417f 1e3f 66f3 f33f 5914 763e
00000350: 7440 993e 7612 ae3e 3576 1fbe 7e0d 9c3e
00000360: 13ec 40be 94ab 023f 7bee c9bd 4a38 8abe
00000370: 71fd 683f ff07 21bf 6999 593c 172b cebf
00000380: 0ec1 58bf af11 87bd fe6e 963f 713f 523e
00000390: 4a88 f33f 78aa fb3e 3e74 ecbe 53b2 48be
000003a0: 99e2 2f3f 7f61 7a3d dfe2 6bbf fb93 14bf
000003b0: 5644 503f eb94 82be 34c5 b33e 64eb afbe
000003c0: ce70 f8bd 72b2 3cbf df85 9a3e 5d08 e53d
000003d0: f583 2c3d 4a86 b2bd a70c a23f cbed bcbd
000003e0: 6122 94bf c0dd babf 5168 debe 5d74 cd3e
000003f0: fad1 92bd cf12 263f 5b66 063f 5b2a 33bf

hiden_layers.0.bias f4 [64]
0.39686647 0.30097663 -0.018397106 0.48863867 0.14368053 0.15499283 0.13983531 -0.07624902
-0.03859494 0.31461534 0.071424484 -0.20355457 -0.115899645 0.022324556 0.2422127 -0.17884192
-0.16889545 -0.07552656 0.07729435 0.05868625 0.082766786 -0.1852045 -0.022321958 -0.122682
-0.008695544 0.010737986 0.06881567 0.0284055 0.27377006 0.012162426 -0.04134345 -0.16038065
0.042371035 0.022417828 -0.12893274 0.022142647 0.015712913 0.18813525 0.004094928 -0.08260879
0.029154543 0.21485692 -0.11864846 -0.0597106 -0.115023546 -0.13492204 -0.047642533 -0.19962534
0.17813733 0.382186 0.24093075 -0.1118428 0.24381417 0.0048281904 0.11066566 -0.052842688
-0.11423663 0.10103109 -0.159334 0.020775305 -0.18610734 -0.015678857 -0.047195114 -0.09712099
00000000: 1532 cb3e 9c19 9a3e 87b5 96bc d92e fa3e
00000010: fd20 133e 71b6 1e3e fd30 0f3e 7228 9cbd
00000020: ba15 1ebd 4315 a13e 0047 923d 9c70 50be
00000030: cb5c edbd fde1 b63c 9b06 783e 5622 37be
00000040: eef2 2cbe abad 9abd 804c 9e3d fe60 703d
00000050: a281 a93d 40a6 3dbe 8adc b6bc b340 fbbd
00000060: c177 0ebc 61ee 2f3c 3bef 8c3d a7b2 e83c
00000070: 972b 8c3e e944 473c c057 29bd d33a 24be
00000080: 408d 2d3d 98a5 b73c f206 04be 7f64 b53c
00000090: 5eb8 803c 87a6 403e bf2e 863b cc2e a9bd
000000a0: 82d5 ee3c 7403 5c3e f7fd f2bd 1a93 74bd
000000b0: 7791 ebbd 0129 0abe d124 43bd 966a 4cbe
000000c0: a269 363e e2ad c33e 8db6 763e d70d e5bd
000000d0: 6caa 793e cc35 9e3b ada4 e23d 9371 58bd
000000e0: e5f4 e9bd 63e9 ce3d 7428 23be f930 aa3c
000000f0: ec92 3ebe f270 80bc aa4f 41bd 5fe7 c6bd

hiden_layers.1.weight f4 [64, 64]
-0.13138106 0.025118163 -0.19876231 0.19728363 -0.28280938 0.16880772 -0.106321104 -0.019673113
0.123948775 0.034117766 -0.06768941 -0.10414577 0.01903905 0.010930989 0.008122855 -0.017237812
0.06397335 0.16295041 0.1422756 0.05835958 0.26705825 -0.06980251 0.012209357 -0.11495253
0.008513573 -0.21403633 0.05848061 0.2994106 0.023989404 -0.038091376 -0.036334332 0.12829556
-0.33934823 0.2019482 -0.25386766 -0.18879516 -0.07677749 0.01000637 0.01568636 0.15045486
0.10163704 0.10819625 -0.10658485 0.2044772 0.18057929 0.05962679 0.12595993 -0.17873426
-0.1017933 -0.14487997 -0.092756055 0.09013143 0.030099772 -0.056810822 -0.012372676 -0.2505036
0.20335588 -0.11451841 -0.2158135 0.08349478 0.091156736 0.13230814 0.039321925 -0.16582833
0.19038562 0.13658275 -0.4884875 -0.15356629 -0.12892781 1.0141717 -0.16808008 -0.16406353
-0.07179398 -0.144627 0.40540785 -0.009589184 0.039422926 0.06437737 0.22338004 -0.0909173
0.16295749 -0.63822114 0.19524986 0.2890584 0.03223199 0.22822383 -0.17605649 -0.13150196
0.2744028 -0.028659027 -0.48760742 -0.07661443 0.0889817 -0.16813403 -0.15801693 -0.084170006
-0.19932708 -0.103072174 -0.1997692 0.16907744 0.14436261 0.0076526226 -0.6606446 0.01595471
-0.07578807 -0.09949427 -0.750379 -0.15776433 0.106413074 -0.123769484 0.021242583 -0.33370867
0.8707527 0.12101259 0.012927583 -0.12960719 0.10338486 0.022324746 -0.05345347 0.023489047
-0.32765135 0.48344076 -0.27973574 0.087761685 -0.038869865 -0.042543694 0.06497999 -0.059123132
0.063255 0.41491655 -0.018526401 0.37338728 0.08324724 0.24353157 -0.0946315 0.16333166
0.062395666 -0.09561131 -0.21887663 -0.034111217 0.020187099 0.036722016 0.16859613 0.07538833
-0.19667609 -0.07034993 0.0662765 -0.07476948 -0.03835985 -0.17845154 -0.27990326 -0.21606742
-0.024283689 0.25935128 -0.00066546066 -0.093187645 0.01751529 0.18264106 0.13998665 0.19642149
0.20862995 -0.19774182 0.049312077 -0.19081306 0.050625116 -0.18030284 0.08023265 -0.15114039
-0.14249478 -0.20790523 -0.15232293 -0.123149976 0.018015422 0.16378255 -0.14577444 0.04939489
-0.07349193 0.030794706 0.07844936 -0.17997709 0.022332912 -0.17480072 0.0793644 -0.030020071
-0.11518519 0.18503109 -0.16020165 0.038453672 -0.03102682 0.0671971 0.031466473 -0.0650518
0.064084485 -0.037460603 -0.1896074 0.29868478 0.20662937 -0.14528632 -0.08465409 -0.09259816
-0.01868149 0.21626739 -0.1431269 0.21533954 0.19596416 0.07922164 -0.12753347 0.11740184
-0.036136534 -0.084243715 0.076431036 0.12010725 0.03983057 -0.41401914 0.14295308 0.16499604
0.05627259 0.10668701 0.14102054 -0.061265234 0.007792007 0.16047287 0.091037296 0.12350418
0.13202964 -0.0040509123 -0.28956276 0.05506444 0.04969191 -0.013392206 0.27109993 0.17267235
0.06630227 -0.07897568 0.10133002 0.09574379 -0.109348804 -0.024737349 -0.14663123 -0.12744652
0.047132567 0.18178248 -0.038057413 0.05174918 0.13250841 -0.0161071 -0.18665908 -0.08919925
-0.09679467 -0.07800532 0.13954364 0.00050095044 -0.17198065 0.2776963 0.041677505 -0.17028068
00000000: c288 06be 9bc4 cd3c 5988 4bbe b804 4a3e
00000010: 64cc 90be eedb 2c3e e1be d9bd 8229 a1bc
00000020: dbd8 fd3d 12bf 0b3d bfa0 8abd 614a d5bd
00000030: c8f7 9b3c e417 333c b915 053c 5036 8dbc
00000040: 7604 833d 79dc 263e b2b0 113e 740a 6f3d
00000050: dcbb 883e 9ef4 8ebd c109 483c 3b6c ebbd
00000060: 837c 0b3c 572c 5bbe 5d89 6f3d 594c 993e
00000070: 6d85 c43c b405 1cbd 4fd3 14bd e95f 033e
00000080: 0dbf adbe 82cb 4e3e f1fa 81be 8553 41be
00000090: 843d 9dbd c2f1 233c ae80 803c d710 1a3e
000000a0: 1527 d03d ff95 dd3d 2849 dabd 7962 513e
000000b0: c7e9 383e 393b 743d a4fb 003e 1d06 37be
000000c0: 0179 d0bd 6a5b 14be e3f6 bdbd d496 b83d
000000d0: cc93 f63c 77b2 68bd c4b6 4abc 0242 80be
000000e0: 863c 503e a188 eabd 37fe 5cbe 50ff aa3d
000000f0: 62b0 ba3d c97b 073e 0710 213d e7ce 29be
00000100: 73f4 423e 59dc 0b3e 091b fabe 7b40 1dbe
00000110: a705 04be 61d0 813f 2f1d 2cbe 4500 28be
00000120: b908 93bd 1a19 14be 9e91 cf3e f41b 1dbc
00000130: ef79 213d 48d8 833d bdbd 643e d932 babd
00000140: 54de 263e 7662 23bf 94ef 473e 76ff 933e
00000150: b105 043d 82b3 693e 2748 34be 73a8 06be
00000160: 867e 8c3e 56c6 eabc aea7 f9be 07e8 9cbd
00000170: 0a3c b63d 542b 2cbe 31cf 21be 5361 acbd
00000180: 661c 4cbe 8117 d3bd 4c90 4cbe a322 2d3e
00000190: cbd3 133e dac2 fa3b 0120 29bf 74b3 823c
000001a0: c736 9bbd a7c3 cbbd d718 40bf f98c 21be
000001b0: 19ef d93d db7a fdbd ed04 ae3c dddb aabe
000001c0: a6e9 5e3f 73d5 f73d 37ce 533c bfb7 04be
000001d0: 71bb d33d 63e2 b63c 07f2 5abd 1a6c c03c
000001e0: ebc1 a7be 8c85 f73e 8639 8fbe 66bc b33d
000001f0: 0236 1fbd 4c42 2ebd 3b14 853d 192b 72bd
00000200: d68b 813d f16f d43e aec4 97bc 9e2c bf3e
00000210: 877d aa3d 5760 793e 29ce c1bd 6a40 273e
00000220: 9992 7f3d ddcf c3bd 3221 60be 34b8 0bbd
00000230: 6a5f a53c d369 163d 77a4 2c3e 3265 9a3d
00000240: 7565 49be a013 90bd f9bb 873d be20 99bd
00000250: 381f 1dbd 00bc 36be 7b4f 8fbe c740 5dbe
00000260: 96ee c6bc b1c9 843e 4f72 2eba 2ad9 bebd
00000270: 3a7c 8f3c 4206 3b3e a958 0f3e b722 493e
00000280: 17a3 553e d57c 4abe 76fb 493d 8064 43be
00000290: 485c 4f3d 4fa1 38be 0451 a43d 8cc4 1abe
000002a0: 27ea 11be 1ce5 54be 8bfa 1bbe 0e36 fcbd
000002b0: 1495 933c 9db6 273e e545 15be 4c52 4a3d
000002c0: f082 96bd 2e45 fc3c 0faa a03d ea4b 38be
000002d0: 83f3 b63c f6fe 32be cd89 a23d a7ec f5bc
000002e0: 37e6 ebbd ca78 3d3e e70b 24be 9981 1d3d
000002f0: f52b febc a29e 893d fde2 003d e139 85bd
00000300: ba3e 833d 4a70 19bd 7128 42be 36ed 983e
00000310: a696 533e f0c5 14be 205f adbd 1ba4 bdbd
00000320: ed09 99bc 3375 5d3e dc8f 12be f881 5c3e
00000330: d4aa 483e f53e a23d 2298 02be 6070 f03d
00000340: e703 14bd f887 acbd e087 9c3d cafa f53d
00000350: 6125 233d 51fa d3be 4b62 123e b9f4 283e
00000360: 167e 663d b87e da3d b067 103e 41f1 7abd
00000370: 1854 ff3b 0053 243e c371 ba3d c2ef fc3d
00000380: c732 073e 84bd 84bb 9241 94be 408b 613d
00000390: bf89 4b3d fc6a 5bbc 9ccd 8a3e 05d1 303e
000003a0: 7cc9 873d 00be a1bd 1d86 cf3d 5215 c43d
000003b0: 44f2 dfbd fba5 cabc 7f26 16be 5781 02be
000003c0: 140e 413d 3025 3a3e 17e2 1bbd f3f6 533d
000003d0: 49b0 073e 09f3 83bc 8f23 3fbe 19ae b6bd
000003e0: 493c c6bd 41c1 9fbd 87e4 0e3e 3752 033a
000003f0: b21b 30be 362e 8e3e 08b6 2a3d 0f5e 2ebe

hiden_layers.1.bias f4 [64]
-0.05763254 0.106315054 0.07027052 -0.004159221 -0.14814863 0.03678876 -0.017686635 0.17298368
0.030912535 0.11584486 0.024068354 -0.0013818548 0.021109132 0.018513676 -0.015683357 -0.022609293
-0.018464234 0.04156709 -0.0807297 -0.055964727 -0.08995193 0.05634249 -0.059017338 0.015244789
0.042475026 -0.013688919 0.018173225 -0.02024723 -0.26422024 -0.1070057 -0.090949066 -0.014339834
-0.030702624 0.002173615 -0.064825244 0.06313817 -0.07129432 -0.23840334 0.007263144 0.046978418
0.0582412 -0.05682424 0.12567234 -0.043141503 -0.10979266 0.017280638 -0.016371863 0.008943528
-0.08336741 -0.03346584 0.042916387 0.018558532 0.15739484 -0.13596632 -0.03138216 -0.0133199245
-0.01914666 0.07604521 -0.20613086 0.0041639837 -0.24457094 -0.020609528 -0.10958514 0.034255117
00000000: 1910 6cbd b5bb d93d fee9 8f3d 134a 88bb
00000010: 46b4 17be d0af 163d 90e3 90bc a222 313e
00000020: 493c fd3c 1240 ed3d ff2a c53c 5a1f b5ba
00000030: 0fed ac3c fea9 973c 627a 80bc 2037 b9bc
00000040: 4e42 97bc 4142 2a3d 9d55 a5bd 453b 65bd
00000050: b838 b8bd 62c7 663d 2abc 71bd 48c5 793c
00000060: 4bfa 2d3d 7d47 60bc 04e0 943c 85dd a5bc
00000070: e047 87be ce25 dbbd 8143 babd a0f1 6abc
00000080: 1284 fbbc 3573 0e3b 19c3 84bd 964e 813d
00000090: c202 92bd 0120 74be abff ed3b 716c 403d
000000a0: 538e 6e3d 89c0 68bd 40b0 003e 25b5 30bd
000000b0: f9da e0bd 2090 8d3c 491e 86bc e087 123c
000000c0: 88bc aabd 7a13 09bd 18c9 2f3d 1008 983c
000000d0: 1d2c 213e c13a 0bbe 948a 00bd d03b 5abc
000000e0: 75d9 9cbc 97bd 9b3d f813 53be 0772 883b
000000f0: ce70 7abe 50d5 a8bc 2d6e e0bd 184f 0c3d

hiden_layers.2.weight f4 [64, 64]
-0.33817002 0.20432454 -0.42226762 -0.3187577 0.068576775 -0.12709266 -1.8107086 -0.16333558
-0.24413304 -0.021749616 0.24073008 0.10784107 -0.69190305 0.16236001 -0.07213542 0.27509868
-0.39399517 -0.006367697 -0.073694885 -0.12290351 0.34473547 0.14906956 -0.05897255 0.15692197
-0.0736507 -0.16702323 -0.018911736 -0.07682581 0.004472456 -0.33081296 0.15783697 0.42483422
-0.17754214 0.036826637 -0.105770834 -0.109495446 0.20040642 0.5271538 0.3657204 0.0057826927
0.34972847 -0.026762284 0.08316012 0.09653003 0.10382423 -0.20327646 0.03768527 0.18662994
0.23984398 -0.037514452 -0.20175882 -0.36321893 -0.115068026 0.119027615 0.023133913 0.3098159
-0.3440429 0.120577626 0.2575916 0.81629837 0.051627204 -0.00030131784 0.16942763 0.11786895
0.05909588 0.31186253 0.11793261 0.13179001 0.1639894 0.13378513 0.2679055 0.17194785
0.053739857 0.21504398 0.2470934 0.08166962 -0.20757884 -0.10981654 0.027948596 0.18289664
-0.25626004 0.1519804 -0.2899466 -0.05565807 0.12478853 -0.095533155 -0.059923757 -0.15237431
0.064180054 0.1454146 0.11859862 0.024490952 -0.07561641 0.109597504 -0.049581733 -0.11598705
0.046951916 0.14357631 -0.11716587 0.21954237 0.18917575 -0.10786947 0.079668134 -0.17751776
-0.3490074 -0.124759495 -0.0538677 0.06517649 0.14425375 -0.19254829 -0.19302756 0.24892558
-0.12115784 0.44017652 -0.1359963 -0.08906292 -0.101037085 0.20255093 -0.015146447 -0.19321474
0.062027916 -0.031119337 -0.15782367 0.15777025 0.009180224 0.16885619 0.0974469 0.039149825
0.27900168 -0.036345378 -0.18938501 -0.13964052 0.11902298 0.10477497 0.15126264 0.026884714
-0.15873793 0.19968398 -0.09327477 0.12819074 0.32199746 0.23163757 -0.17259282 0.042905223
0.1349916 0.062787615 0.13796699 -0.31536695 -0.00864262 0.11389633 0.23888133 -0.17281704
-0.044627707 -0.07421183 -0.09669393 -0.2284264 0.085614465 0.035481934 -0.024879446 0.4187163
0.018653251 -0.03859658 0.117945336 0.014779758 0.27753454 -0.020913571 -0.16317528 0.022517394
0.14791195 0.14103846 0.01781452 -0.07483224 0.27982914 0.010981011 -0.049822383 -0.19487722
0.27669013 0.010828136 -0.42995393 0.20361395 -0.17992577 0.15085429 0.02603067 0.14791873
0.03595628 0.08705757 -0.22365813 -0.25211233 0.047478907 -0.025672635 0.062340524 0.003421662
0.15459755 -0.05576025 -0.055273477 0.1671272 -0.11916548 -0.1540299 -0.027862992 -0.11272842
0.08882316 0.12950364 0.011935051 -0.11201767 0.40770635 -0.18481569 -0.18695232 0.21955949
0.12924911 -0.2326054 -0.29163578 0.07158469 -0.17341398 -0.048302837 0.283525 -0.08206569
-0.4297477 -0.06977769 0.14492375 0.07928671 -0.018164428 0.28323296 0.11903725 -0.13440156
-0.41760466 -0.0759539 0.20114921 0.488821 -0.05650084 0.28746757 -0.16974285 -0.2557634
0.3485127 -0.17335126 0.1962928 -0.21747155 0.058163565 -0.14308605 0.052239757 -0.25841624
-0.13330166 0.35444695 0.114403166 -0.2069227 -0.041522183 -0.09306169 0.7931593 -0.059137437
-0.66229606 -0.103024036 -0.052303527 0.5552681 0.13200413 -0.29502147 0.19773154 0.02266907
00000000: 9f24 adbe 743a 513e 7633 d8be 3634 a3be
00000010: fb71 8c3d 9424 02be 4dc5 e7bf 7141 27be
00000020: 03fe 79be 402c b2bc f281 763e c7db dc3d
00000030: 8f20 31bf b441 263e bcbb 93bd bcd9 8c3e
00000040: bcb9 c9be 1da8 d0bb 58ed 96bd d6b4 fbbd
00000050: 2b81 b03e b1a5 183e 338d 71bd 27b0 203e
00000060: 2ed6 96bd 2308 2bbe c9ec 9abc da56 9dbd
00000070: ae8d 923b 5160 a9be 04a0 213e df83 d93e
00000080: 9bcd 35be 87d7 163d 619e d8bd 263f e0bd
00000090: 5737 4d3e 8df3 063f b43f bb3e be7c bd3b
000000a0: 9c0f b33e 943c dbbc da4f aa3d 89b1 c53d
000000b0: cca1 d43d b427 50be df5b 1a3d eb1b 3f3e
000000c0: a999 753e c1a8 19bd dd99 4ebe d5f7 b9be
000000d0: c9a8 ebbd c0c4 f33d 5583 bd3c 31a0 9e3e
000000e0: 6426 b0be 67f1 f63d 0ce3 833e eef8 503f
000000f0: 0c77 533d 32fa 9db9 707e 2d3e 4765 f13d
00000100: 850e 723d 72ac 9f3e a786 f13d f6f3 063e
00000110: d6ec 273e f8fe 083e e92a 893e 1913 303e
00000120: 531e 5c3d 7d34 5c3e 0d06 7d3e 6742 a73d
00000130: 8c8f 54be 7ee7 e0bd 74f4 e43c 4249 3b3e
00000140: 8434 83be c0a0 1b3e e173 94be b7f9 63bd
00000150: 2191 ff3d e3a6 c3bd 9d72 75bd 0308 1cbe
00000160: d570 833d 91e7 143e d5e3 f23d 40a1 c83c
00000170: c7dc 9abd a874 e03d 3716 4bbd 9e8a edbd
00000180: a750 403d ab05 133e a9f4 efbd b7cf 603e
00000190: 4ab7 413e abea dcbd 0c29 a33d 37c7 35be
000001a0: 19b1 b2be e881 ffbd 61a4 5cbd 407b 853d
000001b0: 41b7 133e 612b 45be 04a9 45be 59e6 7e3e
000001c0: 9a21 f8bd d15e e13e 9d42 0bbe 9f66 b6bd
000001d0: 88ec cebd 8369 4f3e ce28 78bc 16da 45be
000001e0: fc10 7e3d fbed febc 879c 21be 868e 213e
000001f0: a668 163c a3e8 2c3e 3e92 c73d 915b 203d
00000200: 4fd9 8e3e e4de 14bd 25ee 41be edfd 0ebe
00000210: 52c2 f33d 4294 d63d 98e4 1a3e 553d dc3c
00000220: 328c 22be f579 4c3e d806 bfbd 6f44 033e
00000230: dadc a43e 6632 6d3e 2cbc 30be 63bd 2f3d
00000240: 3d3b 0a3e cb96 803d 3847 0d3e c777 a1be
00000250: c799 0dbc 7b42 e93d 4f9d 743e f3f6 30be
00000260: 8bcb 36bd 5ffc 97bd 7807 c6bd 9ce8 69be
00000270: a356 af3d 8155 113d fbcf cbbc fc61 d63e
00000280: b4ce 983c 7317 1ebd 538d f13d cc26 723c
00000290: 0219 8e3e f052 abbc 6c17 27be 6676 b83c
000002a0: 3b76 173e 636c 103e c2ef 913c a541 99bd
000002b0: c445 8f3e b3e9 333c 8e12 4cbd e58d 47be
000002c0: 54aa 8d3e 7e68 313c ec22 dcbe 2d80 503e
000002d0: 763e 38be 8c79 1a3e 463e d53c 0278 173e
000002e0: e446 133d 3d4b b23d a306 65be de14 81be
000002f0: 3e79 423d 6b4f d2bc c758 7f3d f63d 603b
00000300: d24e 1e3e dc64 64bd 7166 62bd 6523 2b3e
00000310: 080d f4bd 04ba 1dbe ee40 e4bc 28de e6bd
00000320: ebe8 b53d 9a9c 043e 3b8b 433c 8569 e5bd
00000330: e3be d03e 5340 3dbe 6e70 3fbe 34d4 603e
00000340: e159 043e 1c30 6ebe 4951 95be fe9a 923d
00000350: 6f93 31be 32d9 45bd 302a 913e 0e12 a8bd
00000360: e407 dcbe 9be7 8ebd e466 143e 1261 a23d
00000370: 91cd 94bc e903 913e cdc9 f33d 90a0 09be
00000380: 47d0 d5be b88d 9bbd 0ffa 4d3e bf46 fa3e
00000390: 6d6d 67bd f32e 933e 12d1 2dbe 6cf3 82be
000003a0: 4270 b23e fe82 31be fb00 493e ddb0 5ebe
000003b0: eb3c 6e3d 2685 12be 5bf9 553d 224f 84be
000003c0: 3b80 08be 127a b53e 354c ea3d 8be3 53be
000003d0: 2a13 2abd 2197 bebd 7d0c 4b3f 193a 72bd
000003e0: 3c8c 29bf 44fe d2bd 393c 56bd 0d26 0e3f
000003f0: 172c 073e 0e0d 97be 237a 4a3e 7cb4 b93c

hiden_layers.2.bias f4 [64]
0.046223793 -0.02829796 -0.0589967 0.0050637745 -0.03932056 -0.095023856 -0.134014 -0.12682354
-0.05212071 0.02505765 -0.038065337 -0.004285347 0.0115371365 -0.023078538 -0.05271179 -0.040202554
-0.014725651 -0.057513647 0.0039750147 -0.034161072 -0.006405839 0.010710854 0.039591443 -0.07030313
0.09457433 0.031988505 0.17692608 -0.032803066 0.01658715 -0.050446335 0.09807469 -0.006919509
-0.035666652 0.018125761 -0.00042775171 0.011731784 0.012069439 -0.03392018 -0.16390772 0.023581173
-0.0048517394 -0.001790013 -0.078930594 -0.16924734 0.023901757 -0.06702666 0.005115382 -0.009180802
0.09684957 -0.15719293 0.0342616 0.014387352 -0.05716067 -0.020531548 0.0073760925 -0.013656257
0.021119516 0.005767797 -0.061149396 -0.04379199 -0.1558553 -0.0313851 -0.049539085 0.085041925
00000000: 2955 3d3d 20d1 e7bc 86a6 71bd 05ee a53b
00000010: 980e 21bd de9b c2bd f73a 09be 08de 01be
00000020: 877c 55bd b345 cd3c 66ea 1bbd 196c 8cbb
00000030: 4206 3d3c 340f bdbc 51e8 57bd 6fab 24bd
00000040: db43 71bc 6e93 6bbd d740 823b 7bec 0bbd
00000050: 13e8 d1bb 947c 2f3c a32a 223d 16fb 8fbd
00000060: 30b0 c13d 6106 033d 1c2c 353e 825c 06bd
00000070: c6e1 873c d1a0 4ebd 62db c83d 0cbd e2bb
00000080: 3217 12bd 7a7c 943c dd43 e0b9 ab36 403c
00000090: e5be 453c e3ef 0abd 6dd7 27be 4e2d c13c
000000a0: 57fb 9ebb df9e eaba 5da6 a1bd 2d4f 2dbe
000000b0: 9ecd c33c 4645 89bd ef9e a73b 136b 16bc
000000c0: 1159 c63d 2ff7 20be e455 0c3d eeb8 6b3c
000000d0: 4f21 6abd c731 a8bc 26b3 f13b 7ebe 5fbc
000000e0: d602 ad3c caff bc3b ca77 7abd 3b5f 33bd
000000f0: 8898 1fbe aa8d 00bd 7fe9 4abd 762a ae3d

hiden_layers.3.weight f4 [64, 64]
-0.38113096 0.36107486 0.22022775 -0.26307037 -0.20594645 0.09544649 -0.14042068 -0.14292824
-0.22575359 0.17023416 0.15713087 0.030909063 -0.050734077 -0.24982533 0.22299355 -0.030447269
-0.07940357 -0.15396021 0.032972295 -0.20880513 0.2749535 -0.10428543 0.18764424 0.1225518
0.12539059 0.20362061 -0.13486713 0.2775839 0.15728681 0.08698099 -0.20451581 0.078858495
-0.14236286 -0.094802916 0.029489191 0.12282256 0.026171887 -0.023320777 0.14868158 -0.2888205
0.05316544 0.36946544 -0.39757645 -0.31599396 0.018954016 0.12024567 0.21450625 -0.15917191
0.37279528 -0.17590815 -0.09608457 -0.21419999 0.41383895 0.12653579 0.13553154 -0.072358064
-0.031740636 0.20042539 -0.1498965 0.17803016 -0.0017048205 0.21667396 -0.14063072 0.20974045
-0.041378506 -0.041068226 -0.0026648273 0.12157036 0.115592815 0.18875682 -0.19554621 0.12105518
-0.08234331 -0.2513227 0.080433264 0.046137024 0.14118284 -0.08706645 0.0076793716 0.23025112
0.34258384 0.09613135 0.108173564 0.16525477 0.19549403 -0.020139 -0.038206983 0.13172567
-0.4630776 0.03151326 0.19688249 -0.19868433 0.13825887 -0.09808879 -0.05748163 0.1693279
0.061555356 -0.109534405 0.43091482 0.05852892 -0.084066726 -0.054527238 -0.17859326 0.1558984
0.061477356 -0.27879652 0.0057917233 0.31648162 -0.08912309 0.00014798979 0.07668323 0.30422047
-0.1250968 -0.13749836 -0.1557095 0.18286088 0.12180773 -0.042529903 0.2570405 0.20798396
0.21688479 -0.112692825 0.28981915 0.15496379 0.23518254 0.20332922 0.03038458 0.045053277
-0.23098147 0.119050644 -0.10057563 -0.21360068 -0.1157793 0.1810004 0.24726245 -0.2983851
-0.06762134 0.06494332 -0.2068412 0.18510775 -0.031291787 0.059828784 0.14733188 0.039094705
0.36900613 0.33830732 -0.23443386 -0.29931363 0.018752607 0.17227422 -0.4998091 -0.07047403
-0.19662718 -0.09169273 -0.24824923 0.45593908 0.015434694 -0.31472132 -0.16121885 -0.17736262
-0.59287816 -0.08088601 0.328704 -0.113669716 0.20852372 -0.28494903 -0.19632834 0.16054472
0.36552212 -0.22590676 -0.09744426 0.26676533 -0.19003521 -0.3625201 0.26083747 -0.008719147
-0.032662187 -0.15905531 0.25145677 0.13944176 0.1853479 -0.1584999 0.2519434 -0.43991464
-0.046764452 -0.0009866903 0.02403947 0.0722814 0.36566567 -0.0066052014 -0.17813002 -0.032064058
-0.16826686 0.021194583 0.060130246 -0.15450142 -0.18429148 -0.027127236 -0.11672373 -0.14035274
-0.21051191 -0.07686007 -0.24789861 -0.06959364 -0.24095285 -0.11052525 -0.14840797 0.102942
-0.07609733 0.117379256 0.03405536 0.19302063 0.03555415 0.023213103 -0.21873075 -0.04725767
0.18976651 0.14949852 0.09585749 -0.15171903 0.11198903 -0.2957417 0.03697044 0.014811245
0.3231408 0.13863601 0.099774264 -0.027629387 -0.20210429 0.03477413 -0.16720322 0.0043936414
0.07491984 -0.034350544 -0.11504481 -0.03589116 0.11616224 -0.131153 0.20245595 0.0066116476
0.21141122 0.17257632 -0.062203567 -0.07588709 0.06503287 0.059502695 0.14906405 0.22815259
-0.029317081 0.109071046 0.19586335 -0.06214927 -0.05221928 -0.10884073 -0.08241248 0.047383215
00000000: 9923 c3be cede b83e 6283 613e 29b1 86be
00000010: a0e3 52be 7379 c33d 70ca 0fbe c85b 12be
00000020: f32b 67be dd51 2e3e eae6 203e 0135 fd3c
00000030: 89ce 4fbd 36d2 7fbe 6c58 643e 8d6c f9bc
00000040: 579e a2bd bfa7 1dbe f50d 073d 03d1 55be
00000050: b5c6 8c3e 9993 d5bd d025 403e 70fc fa3d
00000060: 6466 003e ec81 503e 9c1a 0abe 7a1f 8e3e
00000070: cb0f 213e 1723 b23d 986c 51be 9080 a13d
00000080: 92c7 11be 0828 c2bd 5193 f13c 658a fb3d
00000090: 6d66 d63c 370b bfbc fc3f 183e 48e0 93be
000000a0: 01c4 593d 932a bd3e 248f cbbe f6c9 a1be
000000b0: 7445 9b3c 5d43 f63d 87a7 5b3e f6fd 22be
000000c0: 06df be3e 4421 34be fdc7 c4bd 3e57 5bbe
000000d0: b3e2 d33e 9992 013e c8c8 0a3e 7730 94bd
000000e0: 7802 02bd 503c 4d3e 787e 19be 8a4d 363e
000000f0: 4974 dfba c7df 5d3e 8001 10be 33c6 563e
00000100: 827c 29bd 2837 28bd 62a4 2ebb e2f9 f83d
00000110: edbb ec3d 7849 413e 443d 48be c7eb f73d
00000120: 9ca3 a8bd 5ead 80be 32ba a43d 2dfa 3c3d
00000130: 3c92 103e e54f b2bd 3da3 fb3b f3c6 6b3e
00000140: 2667 af3e 83e0 c43d 1a8a dd3d 8c38 293e
00000150: 962f 483e 8bfa a4bc ed7e 1cbd 18e3 063e
00000160: 8218 edbe 0c14 013d 909b 493e e873 4bbe
00000170: bc93 0d3e c7e2 c8bd dc71 6bbd 4b64 2d3e
00000180: 7821 7c3d 9353 e0bd dea0 dc3e 05bc 6f3d
00000190: 2d2b acbd f457 5fbd 27e1 36be d5a3 1f3e
000001a0: aecf 7b3d 6bbe 8ebe 7fc8 bd3b e109 a23e
000001b0: 2b86 b6bd b52d 1b39 190c 9d3d c9c2 9b3e
000001c0: 6019 00be 5fcc 0cbe 5072 1fbe e23f 3b3e
000001d0: 5576 f93d d633 2ebd d09a 833e bff9 543e
000001e0: 0c17 5e3e 7fcb e6bd 2d63 943e d4ae 1e3e
000001f0: b1d3 703e 8935 503e 15e9 f83c c989 383d
00000200: 6886 6cbe d3d0 f33d 99fa cdbd 23ba 5abe
00000210: b31d edbd 2b58 393e 5e32 7d3e efc5 98be
00000220: 0f7d 8abd 0101 853d 2ece 53be e38c 3d3e
00000230: d12b 00bd 070f 753d 2bde 163e c521 203d
00000240: 5fee bc3e 9e36 ad3e 6e0f 70be a33f 99be
00000250: 119f 993c a768 303e fae6 ffbe b054 90bd
00000260: a358 49be 66c9 bbbd 0c35 7ebe d970 e93e
00000270: cce1 7c3c 2723 a1be 8e16 25be 8c9e 35be
00000280: ddc6 17bf 90a7 a5bd e44b a83e abcb e8bd
00000290: 3e87 553e d7e4 91be 4c0a 49be d665 243e
000002a0: b725 bb3e 1a54 67be db90 c7bd 7795 883e
000002b0: 9798 42be 3c9c b9be 7d8c 853e c1da 0ebc
000002c0: c9c8 05bd 65df 22be f1be 803e d2c9 0e3e
000002d0: d7cb 3d3e cc4d 22be bafe 803e 7e3c e1be
000002e0: 158c 3fbd d553 81ba 6cee c43c 4508 943d
000002f0: 8838 bb3e 7270 d8bb b767 36be 9a55 03bd
00000300: 264e 2cbe 43a0 ad3c 224b 763d 9f35 1ebe
00000310: e8b6 3cbe f039 debc da0c efbd a1b8 0fbe
00000320: 6f90 57be d068 9dbd 22d9 7dbe 1c87 8ebd
00000330: 58bc 76be 105b e2bd 42f8 17be 41d3 d23d
00000340: ebd8 9bbd 8964 f03d a27d 0b3d 33a7 453e
00000350: 3aa1 113d 6829 be3c f4fa 5fbe 4291 41bd
00000360: 2752 423e 2416 193e ef50 c43d 3c5c 1bbe
00000370: 815a e53d 756b 97be 516e 173d ddaa 723c
00000380: b672 a53e 99f6 0d3e 7356 cc3d 0657 e2bc
00000390: 6df4 4ebe 516f 0e3d 5237 2bbe 89f8 8f3b
000003a0: 936f 993d 28b3 0cbd 9d9c ebbd 9c02 13bd
000003b0: 78e6 ed3d f94c 06be 9d50 4f3e 85a6 d83b
000003c0: 2f7c 583e d9b7 303e 2bc9 7ebd b16a 9bbd
000003d0: f42f 853d 19b9 733d 3fa4 183e d5a0 693e
000003e0: 602a f0bc a460 df3d 6790 483e 3c90 7ebd
000003f0: e2e3 55bd e3e7 debd e0c7 a8bd e714 423d

hiden_layers.3.bias f4 [64]
-0.054357786 -0.14979808 -0.04504476 0.07755482 0.0076845377 -0.05844732 0.018259957 -0.024063803
-0.090729766 -0.1034936 -0.0043981336 0.023373349 -0.096810535 0.091681734 0.015907176 -0.026189918
0.03378095 -0.040888395 0.021074494 -0.009551236 0.019861845 -0.045703318 -0.05072059 0.080521986
-0.03578002 -0.026370408 0.006970816 -0.08567394 -0.04922011 -0.10955805 0.05835267 0.053886104
-0.079251565 0.1089057 0.069949985 -0.0028456245 -0.067924336 0.030002324 -0.046548497 0.10958867
-0.19693422 0.05780237 -0.049402684 -0.07965791 -0.025053764 0.035473466 -0.08287695 -0.14929083
-0.098639354 0.031644758 -0.061499774 0.019311352 -0.055571966 0.08210757 0.030741282 -0.017817736
0.07322519 -0.031588066 -0.0036558846 -0.05124559 0.07266446 0.0066569545 0.024379827 -0.012419176
00000000: 45a6 5ebd ab64 19be db80 38bd 10d5 9e3d
00000010: 93ce fb3b 7566 6fbd e895 953c 7421 c5bc
00000020: 87d0 b9bd 74f4 d3bd 381e 90bb 7779 bf3c
00000030: 9a44 c6bd a2c3 bb3d c44f 823c 3d8c d6bc
00000040: e55d 0a3d 977a 27bd 6ba4 ac3c ca7c 1cbc
00000050: 4fb5 a23c 6733 3bbd 65c0 4fbd b6e8 a43d
00000060: 128e 12bd c106 d8bc 716b e43b d275 afbd
00000070: 079b 49bd f95f e0bd 3603 6f3d adb7 5c3d
00000080: a54e a2bd f409 df3d f041 8f3d a87d 3abb
00000090: ea1b 8bbd 6fc7 f53c a3a9 3ebd 0670 e03d
000000a0: 20a9 49be 2ec2 6c3d 785a 4abd b023 a3bd
000000b0: 8d3d cdbc a04c 113d 64bb a9bd b2df 18be
000000c0: 6e03 cabd ef9d 013d 30e7 7bbd d732 9e3c
000000d0: 6e9f 63bd 0328 a83d 24d5 fb3c 80f6 91bc
000000e0: 17f7 953d 7d62 01bd 9197 6fbb e5e6 51bd
000000f0: 1bd1 943d 9522 da3b 34b8 c73c cd79 4bbc

hiden_layers.4.weight f4 [64, 64]
-0.39821872 0.4130169 0.07382447 -0.109636925 -0.051292803 -0.07736708 0.038389787 0.0934257
-0.1638255 -0.03521718 -0.17391352 0.16606703 0.1561277 -0.15644376 0.048215713 0.054846536
-0.04177044 -0.023405315 0.12980281 0.34464192 -0.2099932 -0.023179894 -0.14089747 -0.030177483
-0.39642647 -0.2722637 0.25578701 0.24532996 -0.38522083 -0.21963796 -0.115965165 -0.089721024
0.24495125 -0.0426125 -0.073571675 -0.44502988 -0.011238584 0.055541333 0.05435021 -0.041852724
-0.4155872 -0.013521585 -0.011567377 0.023721114 0.06844278 0.19945566 0.27174973 -0.037787504
-0.18891229 0.030449199 -0.21574034 0.19752231 -0.607328 0.17167586 0.2536794 -0.26638278
-0.037020452 -0.09378842 -0.38262624 -0.15494898 -0.07011085 -0.21796912 -0.1256389 -0.079838745
0.44502503 -0.59639126 -0.27119505 0.1092963 -0.055877335 -0.012539933 -0.10498784 0.21502432
-0.1929237 0.009375327 0.08297847 0.002892289 0.10866958 0.65711737 -0.43432233 -0.00072476437
-0.30987498 -0.026417453 0.10238989 0.01952293 0.33048555 -0.03839256 0.18992132 0.18374056
0.078334235 -0.09895926 -0.30240414 0.09539244 0.24093269 0.118070945 -0.23067223 -0.04954026
-0.06042839 -0.12578192 0.3271758 -0.06924121 -0.33929577 0.013496562 0.121294394 0.07628516
0.5000196 0.0805228 0.16710706 0.1293894 -0.16834909 0.16250034 -0.29883444 -0.19550426
-0.26163992 0.04470681 -0.23121513 -0.086499624 0.4167172 0.0009022318 0.03556839 0.082476676
0.171542 -0.049575124 0.04572882 -0.026084527 0.5638979 0.06810391 0.5022797 0.06474232
0.08647698 -0.18170966 -0.19987603 -0.12812987 0.103438064 0.09671589 -0.08674616 0.062260374
-0.1190107 -0.29006928 0.035666928 -0.070216 -0.082703434 0.3426424 0.2540762 -0.035312567
0.055679783 0.07425383 -0.043555126 -0.028411264 -0.22613071 -0.1011962 -0.1075669 0.07855436
-0.30471936 -0.16586813 -0.23696089 0.1382525 -0.09181667 0.09130549 -0.009157711 0.08377369
-0.21649414 -0.058973044 0.109974645 0.24762437 -0.04732182 0.07789972 -0.20021592 0.27486858
0.2510497 -0.058248933 -0.2314178 -0.07496013 -0.296338 -0.043016106 0.08006566 -0.10901528
0.260629 -0.06509625 0.396203 -0.24936472 0.108310804 0.23624244 -0.017090913 0.053519845
-0.012606756 0.050800875 0.2587512 0.18736267 0.21927874 -0.034021415 -0.19230273 0.25629967
0.1512879 -0.22119428 -0.035915565 -0.08324401 -0.124055386 -0.06676873 -0.09490361 -0.2052277
0.008613965 0.20049205 0.18502453 -0.04744794 -0.0062268386 -0.0284808 -0.074083425 0.191737
0.04938004 -0.044853948 -0.1953875 -0.21383221 -0.09869934 0.056783557 0.15649569 0.17583579
0.16993393 0.07210763 0.01826042 -0.22584955 -0.11179257 0.121469125 -0.044947844 -0.30291587
0.18117225 0.02884815 -0.013147552 -0.120073594 0.24013238 -0.031555012 -0.2484702 0.20153971
-0.36590356 0.086363226 -0.05372855 0.07323072 0.06380619 -0.15149362 -0.1340344 -0.08222534
-0.011663588 0.04317909 -0.06184779 0.15231194 0.05007315 0.07668595 0.028360575 0.13661492
-0.0911698 -0.14256306 0.19148494 0.17908469 0.12687656 -0.041177783 -0.05507163 0.14878455
00000000: 53e3 cbbe f376 d33e 4931 973d 5389 e0bd
00000010: 6718 52bd a272 9ebd 9c3e 1d3d f955 bf3d
00000020: dfc1 27be e43f 10bd 6316 32be 7a0d 2a3e
00000030: f1df 1f3e cb32 20be d77d 453d c3a6 603d
00000040: 7b17 2bbd 81bc bfbc 07eb 043e e874 b03e
00000050: 7508 57be c3e3 bdbc 6d47 10be c536 f7bc
00000060: 69f8 cabe 2666 8bbe 84f6 823e c737 7b3e
00000070: aa3b c5be c6e8 60be 257f edbd a8bf b7bd
00000080: 80d4 7a3e 728a 2ebd bfac 96bd f5da e3be
00000090: 0a22 38bc 4f7f 633d 539e 5e3d c36d 2bbd
000000a0: d8c7 d4be a389 5dbc 1885 3dbc c852 c23c
000000b0: ba2b 8c3d 1b3e 4c3e c822 8b3e 12c7 1abd
000000c0: 3972 41be 9970 f93c 09eb 5cbe 4a43 4a3e
000000d0: d979 1bbf cccb 2f3e 44e2 813e 5363 88be
000000e0: c2a2 17bd 2514 c0bd 96e7 c3be f2aa 1ebe
000000f0: 4796 8fbd 4c33 5fbe 7ca7 00be 7f82 a3bd
00000100: 52da e33e 19ad 18bf 14da 8abe bdd6 df3d
00000110: a2df 64bd 4b74 4dbc dd03 d7bd 562f 5c3e
00000120: ca8d 45be f99a 193c 9ef0 a93d 8f8c 3d3b
00000130: 288e de3d d838 283f 7f5f debe 1dfe 3dba
00000140: efa7 9ebe 6a69 d8bc cab1 d13d 8dee 9f3c
00000150: 6735 a93e 8441 1dbd bc7a 423e 7c26 3c3e
00000160: b36d a03d 27ab cabd b7d4 9abe 1d5d c33d
00000170: 0fb7 763e 2ecf f13d 5735 6cbe baea 4abd
00000180: c283 77bd facc 00be 9683 a73e 56ce 8dbd
00000190: 2db8 adbe af20 5d3c 3269 f83d 653b 9c3d
000001a0: 4901 003f 23e9 a43d 1d1e 2b3e a87e 043e
000001b0: b463 2cbe 7d66 263e d400 99be 4532 48be
000001c0: abf5 85be 7d1e 373d a9c3 6cbe b726 b1bd
000001d0: f55b d53e c083 6c3a 29b0 113d 88e9 a83d
000001e0: b5a8 2f3e 490f 4bbd 254e 3b3d 38af d5bc
000001f0: 9d5b 103f 107a 8b3d 6795 003f 9f97 843d
00000200: d81a b13d 1912 3abe 4dac 4cbe 7a34 03be
00000210: 56d7 d33d fb12 c63d f9a7 b1bd bc04 7f3d
00000220: e2bb f3bd f683 94be 7c17 123d 68cd 8fbd
00000230: 6b60 a9bd d36e af3e 4716 823e e9a3 10bd
00000240: 7c10 643d 6412 983d dc66 32bd bdbe e8bc
00000250: cf8e 67be f43f cfbd 094c dcbd 1ce1 a03d
00000260: 2d04 9cbe 56d9 29be e0a5 72be 1092 0d3e
00000270: 610a bcbd 5ffe ba3d 390a 16bc 8a91 ab3d
00000280: a4b0 5dbe b88d 71bd 633a e13d 3e91 7d3e
00000290: 86d4 41bd e389 9f3d 6705 4dbe 93bb 8c3e
000002a0: 9689 803e 6f96 6ebd caf8 6cbe b284 99bd
000002b0: 9db9 97be a831 30bd 77f9 a33d 6743 dfbd
000002c0: 2a71 853e 2f51 85bd 1fdb ca3e 7759 7fbe
000002d0: 0ed2 dd3d 8ae9 713e 3e02 8cbc a037 5b3d
000002e0: 918c 4ebc 9414 503d 0a7b 843e 00dc 3f3e
000002f0: 9b8a 603e 0a5a 0bbd 02eb 44be b639 833e
00000300: 37eb 1a3e c180 62be 331c 13bd d67b aabd
00000310: c010 febd 0bbe 88bd d35c c2bd 3627 52be
00000320: 9621 0d3c ca4d 4d3e 1277 3d3e c558 42bd
00000330: 820a ccbb 9150 e9bc 0db9 97bd b456 443e
00000340: ba42 4a3d c6b8 37bd a913 48be d5f6 5abe
00000350: e122 cabd e095 683d 6840 203e 4c0e 343e
00000360: 2903 2e3e 2aad 933d e096 953c 1b45 67be
00000370: 81f3 e4bd cec4 f83d 3b1b 38bd ca17 9bbe
00000380: 3885 393e f552 ec3c d468 57bc 25e9 f5bd
00000390: 43e5 753e d43f 01bd f96e 7ebe 6d60 4e3e
000003a0: b657 bbbe 34df b03d 7812 5cbd fdf9 953d
000003b0: d2ac 823d 2521 1bbe 5040 09be c265 a8bd
000003c0: a218 3fbc 8fdc 303d 1c54 7dbd a9f7 1b3e
000003d0: 8119 4d3d 860d 9d3d 7054 e83c c8e4 0b3e
000003e0: 3bb7 babd 0dfc 11be a114 443e fa61 373e
000003f0: eeeb 013e 09aa 28bd ca92 61bd fa5a 183e

hiden_layers.4.bias f4 [64]
-0.052950315 -0.009858493 0.17303781 0.031826176 -0.11425314 -0.108710185 0.15453771 0.14502724
0.05644979 -0.18783668 -0.05323348 -0.14846501 0.12075775 -0.123834394 0.14741793 -0.013579245
-0.07395588 0.05817667 0.15791926 -0.029664299 -0.0016732044 0.10814168 0.052662425 0.02106494
-0.12918474 0.012227442 -0.056050412 0.08640665 0.06908449 0.07070662 0.03247445 0.043362457
-0.05338395 0.17735496 0.022693638 -0.034307558 -0.091836736 0.041441936 -0.040268056 -0.052074675
0.21724136 0.00047437256 0.023649357 -0.0007895041 0.07384858 -0.017047817 0.05741458 -0.08148405
0.24026671 -0.023515489 0.050538667 0.0985932 -0.17061827 -0.06080353 -0.10537908 0.063800044
0.031954624 0.14807533 -0.032361876 0.08262341 0.01918476 0.048495438 0.14058411 0.07034609
00000000: 6ee2 58bd 8485 21bc d330 313e 2a5c 023d
00000010: 8dfd e9bd 72a3 debd 223f 1e3e 0582 143e
00000020: e537 673d 4258 40be 590b 5abd 3607 18be
00000030: d74f f73d e39c fdbd baf4 163e 7b7b 5ebc
00000040: 2e76 97bd a94a 6e3d 96b5 213e 8b02 f3bc
00000050: 6c4f dbba 6379 dd3d 8eb4 573d 6290 ac3c
00000060: 0149 04be 9c55 483c 1e95 65bd f8f5 b03d
00000070: 2b7c 8d3d a2ce 903d ee03 053d d59c 313d
00000080: 21a9 5abd 8a9c 353e 02e8 b93c 1586 0cbd
00000090: e614 bcbd 05bf 293d 1ef0 24bd 414c 55bd
000000a0: 8574 5e3e 35b5 f839 4cbc c13c b9f6 4eba
000000b0: ed3d 973d dda7 8bbc 8d2b 6b3d 1ce1 a6bd
000000c0: 7a08 763e 8ea3 c0bc a201 4f3d 3beb c93d
000000d0: 8eb6 2ebe 1f0d 79bd fdd0 d7bd 99a9 823d
000000e0: dae2 023d 0fa1 173e e38d 04bd 7636 a93d
000000f0: 5c29 9d3c 27a3 463d 48f5 0f3e 9c11 903d
