results/2_model_1_case_2/epoch300/model_weights.pth (torch, 484214 bytes, 88 tensors)

init_layer.0.weight f4 [64, 3]
0	0xbed86793	-0.4226652
1	0xbe066a2e	-0.13126442
2	0x3e87af04	0.26500714
3	0x3e90b989	0.28266552
4	0xbd1489f2	-0.036264367
5	0x3d02701a	0.03184519
6	0xbdacabfa	-0.084312394
7	0xbe549b70	-0.2076242
8	0xbe4a5b07	-0.19761287
9	0x3efb5745	0.4909002
10	0x3d7b2ef1	0.061324064
11	0x3dd256fe	0.10270499
12	0xbdf8273c	-0.12116858
13	0x3e1552bd	0.14582343
14	0x3ea81a5f	0.3283262
15	0xbdcd8db7	-0.100367956
16	0xbe583893	-0.21115331
17	0x3e8af7ce	0.27142185
18	0x3e950f96	0.29113454
19	0xbd932904	-0.071855575
20	0x3e9e443c	0.30911434
21	0x3f06e8e2	0.526991
22	0x3e5886e3	0.21145205
23	0x3ea92fa0	0.33044147
24	0x3e842cc5	0.25815406
25	0xbed41398	-0.414212
26	0x3db9308a	0.09042461
27	0xbe04e4de	-0.12977931
28	0xbd8022af	-0.06256615
29	0x3e9ec494	0.31009352
30	0xbec49046	-0.38391322
31	0x3d0b8540	0.034062624
32	0x3da0ec2b	0.078575455
33	0x3dac565c	0.08414909
34	0x3d006b4f	0.031352337
35	0xbe95549b	-0.2916611
36	0xbdad2c5e	-0.08455728
37	0xbd3d384f	-0.04619628
38	0xbdacebc1	-0.08443404
39	0xbd9e3532	-0.0772499
40	0x3c7e081c	0.015504863
41	0x3ee09764	0.43865502
42	0x3e166270	0.14685988
43	0xbee2f297	-0.44325706
44	0xbc9f4a0c	-0.019444488
45	0x3e405190	0.18781114
46	0xbe96d77c	-0.29461277
47	0xbe811993	-0.25214824
48	0x3dcb3070	0.09921348
49	0xbcd788aa	-0.026310284
50	0x3e9af0ea	0.30261928
51	0x3e4a59c6	0.19760808
52	0x3e8bf4fc	0.27335346
53	0xbe678b5c	-0.22611755
54	0x3dddbc01	0.108268745
55	0xbc2f9b34	-0.010718156
56	0xbe8163ab	-0.25271353
57	0xbe8a2ad3	-0.26985797
58	0x3dcdfd86	0.100581214
59	0xbe1e3415	-0.15449555
60	0x3df8a8f6	0.12141602
61	0xbdc9b058	-0.09848088
62	0xbe1cb836	-0.15304646
63	0x3e294c89	0.16533102
64	0xbcb12ac4	-0.021626838
65	0xbdbe7bb4	-0.09300938
66	0x3bb3e1b9	0.0054895547
67	0xbd543fe0	-0.05181873
68	0xbe87f8fa	-0.26557142
69	0xbdc059a8	-0.093921006
70	0x3e80b8a3	0.25140867
71	0xbd5dd91c	-0.05416213
72	0xbd9d334e	-0.07675801
73	0xbc884530	-0.016634554
74	0x3ea9d3d8	0.33169436
75	0xbc8c8c8f	-0.017156867
76	0x3dd318ed	0.103074886
77	0xbe408de1	-0.18804123
78	0xbd50cee0	-0.05097854
79	0x3e3132bd	0.17304511
80	0x3eba1581	0.3634453
81	0xbe0d71ce	-0.13812944
82	0xbe2541a2	-0.16138318
83	0x3e228f7c	0.15875047
84	0x3df14bd3	0.117820404
85	0x3db25f13	0.0870954
86	0xbe9c6811	-0.30548146
87	0x3d89baec	0.06725106
88	0xbece1617	-0.40251228
89	0x3e05388f	0.13009857
90	0xbe8cdf9f	-0.2751436
91	0xbe8f8730	-0.28032827
92	0xbda5ce9c	-0.08096048
93	0xbdc727e9	-0.09724409
94	0x3c0e27a0	0.0086764395
95	0x3eb183ca	0.3467086
96	0xbdd92588	-0.10602862
97	0x3dfb815d	0.122805335
98	0x3e97cccb	0.29648432
99	0xbe94f1db	-0.2909077
100	0x3e635e94	0.22204047
101	0xbe04260f	-0.12905143
102	0x3d2463dd	0.0401343
103	0xbca01a09	-0.019543665
104	0xbe41b564	-0.18916851
105	0xbc9ecc1d	-0.019384438
106	0xbd907007	-0.070526175
107	0xbe5e8701	-0.21731187
108	0x3da83963	0.08214071
109	0x3bdff336	0.006834413
110	0xbec09e70	-0.37620878
111	0xbe3e5b3e	-0.18589494
112	0xbd72f9a2	-0.0593201
113	0xbe190b5a	-0.14945737
114	0x3e89a14b	0.2688087
115	0xbdbbab19	-0.09163494
116	0x3e9ab6ff	0.3021774
117	0xbefbe0d2	-0.49194962
118	0x3e8b592a	0.27216464
119	0x3e7a3962	0.24435952
120	0x3d99f252	0.07516922
121	0xbcb9a5fb	-0.022662153
122	0xbee3ae97	-0.4446914
123	0x3d880314	0.06641212
124	0x3bafeadd	0.005368574
125	0xbeb0d589	-0.34537914
126	0x3ca95fd9	0.020675587
127	0xbd692f98	-0.056930155
128	0x3eadf854	0.33978522
129	0xbd76f3f0	-0.06029123
130	0xbce99c92	-0.028517041
131	0x3e82f044	0.25573933
132	0x3e047214	0.12934142
133	0xbe227459	-0.15864696
134	0xbe69eeee	-0.2284505
135	0xbe35c4d8	-0.17750871
136	0xbe3658d4	-0.17807323
137	0x3e722ff0	0.23651099
138	0x3c6665bb	0.01406234
139	0xbe43db18	-0.19126546
140	0x3db617a2	0.08891226
141	0x3dd8745c	0.10569069
142	0x3e89bb74	0.26900828
143	0x3d22cf6c	0.039748594
144	0x3ed6b898	0.4193771
145	0x3ecbd39c	0.39809883
146	0x3d53f377	0.051745858
147	0x3dec3af4	0.11534682
148	0xbe4968e6	-0.19668922
149	0x3e91ff07	0.28514883
150	0x3dc132b2	0.094334975
151	0xbe8cb713	-0.27483425
152	0xbe1e2912	-0.15445355
153	0xbefadb90	-0.48995638
154	0xbcb795ce	-0.0224103
155	0xbe0b3b37	-0.13596807
156	0x3ea82c77	0.32846424
157	0xbeb8473f	-0.35991856
158	0x3dcb1965	0.09916953
159	0xbdfd87f5	-0.12379447
160	0xbe7d8495	-0.24757607
161	0x3d6514c6	0.055928014
162	0x3dcd69aa	0.100299194
163	0xbe002772	-0.12515047
164	0xbe98a9bd	-0.29817
165	0x3ee58a99	0.44832304
166	0xbe29f650	-0.16597867
167	0x3e9ace6a	0.30235606
168	0x3e2fd696	0.17171702
169	0x3cbba63c	0.022906415
170	0x3eaa07a5	0.33208957
171	0x3d93723c	0.07199523
172	0xbe0c5273	-0.13703327
173	0x3d64bf43	0.055846464
174	0x3e8f165b	0.27946743
175	0x3e5c7c7e	0.21531865
176	0x3ddda058	0.10821599
177	0x3ddfb3da	0.10922976
178	0x3d825724	0.06364277
179	0xbe8a5c73	-0.27023658
180	0xbecb7b56	-0.39742535
181	0xbea1094e	-0.3145241
182	0xbe166442	-0.14686683
183	0xbddb3849	-0.10704095
184	0xbdd125c7	-0.102122836
185	0xbd95f826	-0.07322721
186	0x3ee2ddf9	0.44309977
187	0xbd134efc	-0.035963997
188	0x3d07ba3b	0.033136588
189	0x3ec94576	0.39310807
190	0x3c95ac5c	0.018270664
191	0x3e5ddefb	0.21667092

init_layer.0.bias f4 [64]
0	0x3e90abdc	0.28256118
1	0xbc0bcd25	-0.008532797
2	0x3cd0345c	0.025415592
3	0xbe8d44a8	-0.27591443
4	0x3d3b5c3c	0.04574226
5	0xbb22adad	-0.0024822757
6	0x3df06bdc	0.117393225
7	0x3e2c77bd	0.16842552
8	0xbe2365cc	-0.15956801
9	0xbe41c761	-0.18923713
10	0x3e9f3395	0.3109404
11	0x3e431bd3	0.19053583
12	0x3e52df6c	0.20593041
13	0x3ed9877b	0.42486176
14	0xbbfea470	-0.0077710673
15	0x3e521eb3	0.20519523
16	0x3e658285	0.2241307
17	0x3db0124d	0.085972406
18	0x3dfec369	0.12439615
19	0x3d6c46db	0.05768476
20	0x3e279ab8	0.16367614
21	0x3cf33c67	0.029691888
22	0x3e8a3ae9	0.2699807
23	0x3dad997a	0.08476539
24	0x3e2598a7	0.16171513
25	0xbddcc13f	-0.10779046
26	0x3d8e46ef	0.06947123
27	0xbd958fb5	-0.073028006
28	0xbeb24701	-0.34819797
29	0x3e2cb08a	0.1686422
30	0xbb36e25f	-0.0027905924
31	0xbdf8410e	-0.12121783
32	0xbe1728d5	-0.1476167
33	0x3e3a1861	0.18173362
34	0x3e5452de	0.20734736
35	0x3e950a98	0.29109645
36	0xbe8b2ba4	-0.27181733
37	0xbd8a8baa	-0.0676492
38	0xbe7a50c2	-0.24444869
39	0xbd060364	-0.032718077
40	0xbeb4f266	-0.35341185
41	0xbd263513	-0.04057796
42	0xbe955cc2	-0.2917233
43	0xbe30cd77	-0.17265879
44	0x3e123c9d	0.14280935
45	0x3bfac569	0.0076529277
46	0xbe3bb26f	-0.18329786
47	0xbdaa8bec	-0.08327469
48	0xbd4a4c69	-0.049389277
49	0x3e3eba3d	0.18625732
50	0xbdf4fbe4	-0.11962107
51	0xbe05b4b7	-0.13057218
52	0xbd6d52fd	-0.057940472
53	0xbe180810	-0.14846826
54	0x3d39d2b9	0.045366976
55	0x3e187757	0.14889275
56	0x3e6fc3ed	0.23414584
57	0xbdec0749	-0.11524827
58	0x3d0aa29a	0.033846475
59	0xbe54f0aa	-0.20794931
60	0x3ce7eae4	0.028310247
61	0xbd3de3bf	-0.046359774
62	0x3debc1fa	0.115116075
63	0x3d3af08a	0.045639552

hiden_layers.0.weight f4 [64, 64]
0	0xbea38420	-0.3193674
1	0x3c19d66c	0.009389501
2	0x3e4722ad	0.19446822
3	0x3e401791	0.1875899
4	0xbe8fad80	-0.28062057
5	0xbd8f9167	-0.07010155
6	0x3d218d27	0.039441254
7	0xbe608c5c	-0.21928543
8	0x3dac302d	0.08407626
9	0xbdae195b	-0.0850093
10	0xbdea14e9	-0.114297695
11	0x3e5dec46	0.21672162
12	0x3d8c5494	0.068520695
13	0xbbae4584	-0.0053183455
14	0x3e342acc	0.1759445
15	0xbe18bbf9	-0.14915456
16	0xbdf3c6de	-0.11903165
17	0xbd8eb5e5	-0.069682874
18	0x3d19f275	0.03758474
19	0xbe192c1c	-0.14958233
20	0xbd5ca858	-0.053871483
21	0x3dbcab15	0.09212319
22	0x3c81e457	0.015855951
23	0xbe84e47f	-0.2595558
24	0xbb960fb9	-0.004579511
25	0x3d8aee9b	0.06783792
26	0xbe31271f	-0.1730008
27	0xbe487c99	-0.1957878
28	0x3cbaffd3	0.022827065
29	0xbdc8fae3	-0.09813478
30	0xbe1d1476	-0.15339836
31	0xbdef1e3d	-0.11675689
32	0xbe18c842	-0.14920142
33	0xbdebf8af	-0.11522042
34	0x3e5efc60	0.21775961
35	0x3ccec37a	0.025239695
36	0x3e1ab7a0	0.1510911
37	0x3d7bf591	0.061513487
38	0x3e953db0	0.29148626
39	0x3cebc12c	0.028778635
40	0x3e8d0644	0.27543843
41	0x3ccf2ebd	0.025290841
42	0x3e1a0824	0.15042168
43	0xbe0c940c	-0.1372835
44	0x3c331d97	0.010932348
45	0xbdcc0818	-0.09962481
46	0x3d3d2aea	0.046183504
47	0xbe6c9de2	-0.23107103
48	0x3e919391	0.28432897
49	0xbe2feb36	-0.1717957
50	0xbc8d75d8	-0.017268106
51	0x3dca3dfa	0.09875102
52	0x3dbfbd0f	0.09362232
53	0x3c8310ce	0.015999224
54	0x3e858c9a	0.26083833
55	0x3e0fd66d	0.1404664
56	0xbe8215cc	-0.25407255
57	0xbde50d7a	-0.11184211
58	0xbe15b5b3	-0.14620094
59	0x3e834698	0.25639796
60	0x3d36a0f4	0.04458709
61	0xbd37ad07	-0.044842746
62	0xbda56010	-0.08074963
63	0xbe3cc472	-0.18434313
64	0xbab8f60d	-0.0014111415
65	0xbe6be7d3	-0.23037653
66	0xbe1d5030	-0.1536262
67	0x3d53384f	0.051567372
68	0xbe8940d1	-0.26807263
69	0xbe745f7e	-0.23864552
70	0x3e0a9a65	0.1353546
71	0xbe7dff73	-0.24804477
72	0xbd61f9d0	-0.05516988
73	0xbef9948b	-0.48746142
74	0x3e9c6e43	0.30552873
75	0x3e44bf64	0.19213635
76	0x3e1a8a66	0.15091857
77	0x3d0e5819	0.034751985
78	0x3c91b60c	0.017787002
79	0x3e8fbc73	0.28073463
80	0x3c82d37b	0.015969982
81	0x3ea6a81a	0.32550126
82	0x3e7bbef4	0.24584562
83	0x3d71e5a2	0.059056886
84	0x3e0e891b	0.13919489
85	0xbe25b8d5	-0.16183789
86	0x3ed6dc61	0.4196501
87	0x3e66b5d3	0.22530298
88	0xbdeb83ed	-0.11499772
89	0xbca0e29f	-0.019639311
90	0x3e413123	0.188664
91	0xbcc46a77	-0.023976548
92	0x3e00c31f	0.12574433
93	0x3db498e0	0.08818221
94	0xbdfcdb89	-0.123465605
95	0xbec9c632	-0.39409024
96	0xbe45e4a2	-0.19325498
97	0x3e0184d7	0.1264833
98	0x3f0ea373	0.55718154
99	0x3ecc270b	0.39873537
100	0x3e63d6a2	0.22249845
101	0xbbf22b57	-0.0073904204
102	0xbe65e141	-0.22449209
103	0x3e0ae949	0.13565554
104	0xbd851690	-0.06498444
105	0x3d94bbf5	0.072624125
106	0xbf04c720	-0.5186634
107	0xbeca8e81	-0.39561847
108	0x3e888353	0.26662692
109	0xbe8e0d04	-0.27744305
110	0xbd262c43	-0.040569555
111	0xbe448b6d	-0.19193812
112	0xbd49c08b	-0.04925589
113	0xbdc8973b	-0.0979447
114	0xbd83aab7	-0.06429046
115	0xbd1d90bc	-0.038468108
116	0x3cbea0d1	0.023270043
117	0xbe861298	-0.2618606
118	0x3e932cd9	0.28745154
119	0x3db0a2d1	0.08624805
120	0xbe4bef89	-0.19915594
121	0xbe7ee156	-0.24890646
122	0xbe48b5da	-0.19600621
123	0xbde555c0	-0.11197996
124	0x3e778a30	0.24173808
125	0x3e64f853	0.22360353
126	0x3e15babd	0.14622016
127	0xbe1c65b1	-0.15273167
128	0x3e2ba856	0.16763434
129	0xbe04cecb	-0.1296951
130	0x3e2af6a9	0.16695656
131	0xbd88ec16	-0.06685655
132	0xbe36a2ae	-0.17835495
133	0x3da1f8b1	0.07908762
134	0xbd507249	-0.05089024
135	0xbe702c1f	-0.23454331
136	0x3e0c6dfc	0.1371383
137	0x3c451a23	0.012030157
138	0x3cd12988	0.025532499
139	0x3d9c145a	0.07621069
140	0x3e01907f	0.12652777
141	0xbe29cf16	-0.16582903
142	0x3e9ce134	0.30640566
143	0xbde99b3b	-0.11406561
144	0xbdb6b200	-0.089206696
145	0xbe9582e0	-0.29201412
146	0x3c809345	0.015695224
147	0xbd9180c9	-0.07104642
148	0xbce99796	-0.028514665
149	0xbe5ed715	-0.21761735
150	0xbe305b32	-0.17222288
151	0xbd84ce3b	-0.06484648
152	0x3d5fba87	0.054621246
153	0xbe480a1b	-0.19535105
154	0xbc5a577d	-0.013326523
155	0x3ea331e7	0.3187401
156	0xbda6a255	-0.08136431
157	0xbde89fcf	-0.11358606
158	0x3e8e5204	0.27796948
159	0x3e81939a	0.25307924
160	0xbe2438b7	-0.1603726
161	0xbe27c74e	-0.16384622
162	0x3e2003f2	0.15626505
163	0x3e41fae0	0.18943357
164	0xbdf6cb09	-0.12050445
165	0xbdcc2fd7	-0.09970062
166	0xbcce89f5	-0.025212267
167	0xbb6c9e47	-0.0036105083
168	0xbe6bcf7f	-0.23028372
169	0xbdc50360	-0.09619784
170	0x3e62dd2d	0.22154684
171	0x3e8aaeec	0.2708658
172	0x3e367af5	0.17820342
173	0x3e0bac16	0.13639864
174	0x3d3f0146	0.046632074
175	0xbd1a8801	-0.03772736
176	0xbdd91923	-0.106004976
177	0x3dd0dde1	0.1019857
178	0xbdcc389e	-0.09971736
179	0x3d0b6d1b	0.034039598
180	0x3e10637c	0.1410045
181	0x3d809658	0.06278676
182	0xbe1d2d03	-0.15349202
183	0x3c8381ab	0.016053041
184	0xbe65f10d	-0.22455235
185	0x3e40be4a	0.1882259
186	0xbe73bbe4	-0.23802143
187	0xbe53eea2	-0.206965
188	0x3e6ca48c	0.23109645
189	0xbe448c10	-0.19194055
190	0xbe1b41d5	-0.15161832
191	0x3e062eaa	0.13103738
192	0x3e2bb303	0.16767506
193	0xbdcfbd46	-0.10143523
194	0x3baab3e7	0.0052094343
195	0xbdc6b15c	-0.09701797
196	0x3de33219	0.1109354
197	0x3d084abe	0.033274405
198	0x3cb7311f	0.02236229
199	0xbe0dd42b	-0.13850467
200	0xbe61f7e7	-0.22067223
201	0xbe7c573a	-0.2464265
202	0x3daab555	0.083353676
203	0x3e02952a	0.12752214
204	0xbde25d02	-0.11052896
205	0xbe32ee06	-0.17473611
206	0x3c9d0da0	0.019171536
207	0xbd9d883b	-0.076919995
208	0xbd61ac33	-0.055095863
209	0x3e6ea20c	0.23304003
210	0x3e818e3e	0.25303835
211	0xbdd6763b	-0.104717694
212	0x3e978137	0.2959077
213	0xbc9b3b03	-0.018949037
214	0xbe16b110	-0.14715981
215	0xbde71a71	-0.1128434
216	0x3df76510	0.12079823
217	0x3d6bcf6f	0.05757087
218	0xbcc058e2	-0.023479883
219	0xbe2a53ff	-0.16633604
220	0xbd439a37	-0.047754493
221	0xbe198249	-0.14991106
222	0xbe424532	-0.18971708
223	0xbcce05c5	-0.025149236
224	0xbe2554ae	-0.16145584
225	0x3dd7cf27	0.10537558
226	0xbdb0bbf8	-0.08629602
227	0x3d0b5320	0.03401482
228	0x3d4a7c10	0.04943472
229	0xbe867b7c	-0.26266086
230	0x3d1a0066	0.037598036
231	0xbd3af596	-0.045644365
232	0xbdeac378	-0.11463064
233	0x3ced3259	0.028954672
234	0x3d118c03	0.035533916
235	0x3ddafc0b	0.10692605
236	0x3da57d61	0.08080555
237	0xbb7cc520	-0.0038569644
238	0xbbee74ea	-0.007277121
239	0x3e007617	0.12545048
240	0x3d9d7dc0	0.076900005
241	0xbdcc835e	-0.09985994
242	0x3e2ea433	0.17054825
243	0xbda84676	-0.08216564
244	0xbe4e5847	-0.20150863
245	0x3c3c3ca1	0.011489064
246	0x3e6be533	0.23036651
247	0x3dd3be87	0.103390746
248	0xbe195417	-0.14973484
249	0xbe0e635a	-0.13905087
250	0xbd6d5ccf	-0.057949837
251	0x3e6054e6	0.21907386
252	0xbda12dcf	-0.078700654
253	0xbe1e4676	-0.15456566
254	0xbbf07b8e	-0.0073389476
255	0xbd7eccb5	-0.062206943

hiden_layers.0.bias f4 [64]
0	0xbdcd0f08	-0.100126326
1	0x3e1df9a7	0.15427266
2	0xbd54d6d9	-0.051962707
3	0xbc9c96a0	-0.019114792
4	0x3d0ab207	0.033861186
5	0x3d00387c	0.031303868
6	0x3d8f5a31	0.069996245
7	0xbd101c10	-0.035183012
8	0x3ccba00d	0.024856592
9	0xbd2164f9	-0.039402936
10	0xbe41f36e	-0.18940517
11	0x3dad0402	0.0844803
12	0x3e29dca7	0.16588078
13	0xbcc50ed7	-0.024054928
14	0x3cb05787	0.021526111
15	0x3da74ce8	0.081689656
16	0xbd9bce84	-0.07607749
17	0xbd21afb0	-0.03947419
18	0x3d9ec0c2	0.077516094
19	0xbdd3a758	-0.10334653
20	0xbe5e447c	-0.21705812
21	0x3d634111	0.055481974
22	0xbb4ee803	-0.0031571395
23	0xbc13438a	-0.008988271
24	0x3d7b4e15	0.06135376
25	0x3d845fcf	0.064635865
26	0xbe41f89e	-0.18942496
27	0xbe0c816c	-0.13721246
28	0x3de4f037	0.1117863
29	0x3c387d2e	0.011260314
30	0x3d14c0b3	0.036316585
31	0x3db717de	0.08940099
32	0x3d49cad2	0.04926569
33	0xbd42b7b0	-0.04753846
34	0xbe2a1a17	-0.16611515
35	0xbd515cf2	-0.05111403
36	0xbdc633ca	-0.09677847
37	0x3d5928bb	0.05301736
38	0xbe2d3ab7	-0.16916929
39	0xbe7327e8	-0.23745692
40	0xbe4ffc44	-0.20311075
41	0xbdf5b2df	-0.119970076
42	0x3dc96688	0.098340094
43	0xbdd94e2a	-0.10610612
44	0x3cb3eea4	0.021964379
45	0x3e09e41a	0.1346592
46	0xbd5e41da	-0.05426202
47	0x3c04e163	0.008110377
48	0x3cff4c50	0.031164318
49	0xbdca6543	-0.098825954
50	0x3dc4246a	0.09577258
51	0x3d6bb066	0.057541274
52	0x3c5efd1d	0.013610152
53	0xbda16c54	-0.0788199
54	0x3d5c03be	0.053714506
55	0x3da7d81d	0.08195517
56	0xbdc30d50	-0.095240235
57	0xbec7c56b	-0.39017805
58	0xbe4b9e76	-0.19884667
59	0xbe5609bf	-0.20902155
60	0xbf2b44f3	-0.66902083
61	0x3da32fc6	0.079680964
62	0xbd9cde77	-0.07659619
63	0xbc6b4d7f	-0.014361738

hiden_layers.1.weight f4 [64, 64]
0	0xbbcc8bc2	-0.0062422464
1	0x3d11a6b3	0.035559367
2	0xbe6ed02d	-0.233216
3	0x3d5eb684	0.05437328
4	0xbe63ae51	-0.22234465
5	0x3e618381	0.22022821
6	0xbde57b52	-0.11205162
7	0xbdd25db4	-0.10271779
8	0x3c95b628	0.018275335
9	0x3da6fb0d	0.08153353
10	0x3ae05695	0.0017115647
11	0xbe1bf716	-0.15230975
12	0x3dc9e74c	0.098585695
13	0x3d40428f	0.046938475
14	0xba6c1016	-0.00090050825
15	0xbb858025	-0.004074114
16	0x3d46b758	0.048514694
17	0x3e4b0da8	0.19829428
18	0x3e07b88b	0.13253991
19	0x3e4d2d6a	0.20036855
20	0x3e8e48ae	0.27789825
21	0xbde9a59d	-0.11408541
22	0x3d05c44c	0.032657906
23	0xbde72f3e	-0.112883076
24	0xbd4dd10f	-0.050248202
25	0xbe5bb50d	-0.21455784
26	0x3be2e900	0.0069247484
27	0x3e6cee22	0.23137715
28	0x3d6da668	0.058020025
29	0xbd82991d	-0.0637686
30	0xbdff6f96	-0.12472455
31	0x3dd53bdb	0.10411807
32	0xbe407337	-0.18793951
33	0x3e5c2c03	0.21501164
34	0xbe354383	-0.17701535
35	0xbe2320af	-0.15930437
36	0xbdcab243	-0.09897282
37	0x3d8cdc5e	0.06877969
38	0xbd78bfa7	-0.06072965
39	0x3d8f410c	0.069948286
40	0x3e697a01	0.22800447
41	0x3e0ba447	0.13636886
42	0xbe517e14	-0.20458251
43	0x3e335719	0.17513694
44	0x3e76c030	0.24096751
45	0xbc14ce0f	-0.009082331
46	0x3df4a0c3	0.11944725
47	0xbe91675c	-0.2839917
48	0xbd72bec4	-0.05926396
49	0xbe29ce93	-0.16582708
50	0xbd14153a	-0.036153056
51	0x3e283b5a	0.16428891
52	0xbdce1844	-0.10063222
53	0xbc20538f	-0.009785547
54	0xbce3962c	-0.027781568
55	0xbe251341	-0.16120626
56	0x3e593d08	0.21214688
57	0xbe688316	-0.22706255
58	0xbe56b9b4	-0.20969278
59	0x3e19490c	0.14969271
60	0x3d3632af	0.04448193
61	0xbc0cc825	-0.00859264
62	0x3d33684f	0.04380065
63	0xbddf8e6d	-0.109158374
64	0x3d5a9052	0.05336029
65	0x3ea3a71e	0.31963438
66	0xbe6fd193	-0.2341979
67	0x3e26f4f1	0.16304375
68	0xbd82bde9	-0.06383879
69	0x3d1da0e3	0.03848351
70	0xbdfe2413	-0.12409224
71	0xbd63fa31	-0.055658523
72	0x3deb42c7	0.11487346
73	0xbe3bb2f1	-0.1832998
74	0x3e1c2513	0.15248518
75	0x3e2cdabb	0.16880314
76	0x3ea4acb0	0.32163
77	0xbd6c143e	-0.057636492
78	0xbd9be112	-0.07611288
79	0x3d623cb6	0.05523368
80	0x3cd02db9	0.025412427
81	0xbd9dd344	-0.07706311
82	0x3e0e6473	0.13905506
83	0xbb75e345	-0.0037519496
84	0xbe895a19	-0.26826552
85	0x3e7c7b6c	0.24656457
86	0xbe0e9199	-0.13922729
87	0x3d91124e	0.070835695
88	0x3d6a20a6	0.057160042
89	0x3e0f6b26	0.14005718
90	0xbf2153a8	-0.63018274
91	0xbe9346c7	-0.28764936
92	0x3d8ae982	0.06782819
93	0xbd03fd45	-0.03222396
94	0xbdb1c7b2	-0.08680667
95	0x3e17abd0	0.14811635
96	0x3e1774eb	0.14790694
97	0x3de75e1d	0.112972476
98	0xbef9caa1	-0.48787406
99	0xbe43470d	-0.19070072
100	0xbeaedf60	-0.34154797
101	0x3ca2baf6	0.01986454
102	0xbe8afc25	-0.27145496
103	0xbe747f44	-0.23876673
104	0xbea6baa0	-0.3256426
105	0xbe8e6877	-0.27814075
106	0x3d3c4982	0.04596854
107	0xbe79931b	-0.24372523
108	0x3e8e6b77	0.27816364
109	0x3df90472	0.12159051
110	0x3cf94c54	0.030431904
111	0xbda352cb	-0.07974776
112	0x3ee56d2d	0.44809857
113	0x3c1fce7d	0.0097538205
114	0xbde0b111	-0.10971273
115	0x3c1715a3	0.009221467
116	0xbc1ae712	-0.0094545055
117	0xbccd9e6a	-0.025099952
118	0x3e3fa58c	0.18715495
119	0xbd883462	-0.06650616
120	0xbd224537	-0.03961679
121	0x3e1c225b	0.1524748
122	0xbeb0e884	-0.34552395
123	0x3e06a30e	0.13148138
124	0xbb489221	-0.0030604678
125	0x3c9a82b6	0.018861156
126	0x3c9645e6	0.018343877
127	0x3e12463c	0.14284605
128	0x3d1928f5	0.037392575
129	0x3e520a7c	0.20511812
130	0xbb619654	-0.0034421878
131	0x3c9036bf	0.01760423
132	0x3e54c2cc	0.20777434
133	0x3e8cb7b0	0.27483892
134	0xbe1b8c53	-0.15190248
135	0x3e823e46	0.25438136
136	0x3e9096a9	0.28239945
137	0x3c829e2a	0.01594456
138	0xbe8b4c36	-0.27206582
139	0xbc8fe039	-0.017562972
140	0x3cb1bc1b	0.021696141
141	0xbddb8762	-0.107191816
142	0x3e5b281c	0.2140202
143	0x3e03ce4d	0.12871666
144	0xbdf8e7af	-0.12153565
145	0xbd470119	-0.04858503
146	0x3d303b77	0.04302546
147	0xbd67582d	-0.056480575
148	0x3cd758e4	0.026287504
149	0xbe6777b5	-0.22604258
150	0xbe57e50f	-0.21083473
151	0xbddd3b21	-0.108022936
152	0xbd8d3a50	-0.06895888
153	0x3e43c7bb	0.1911916
154	0xbe849dcc	-0.2590164
155	0xbcbbae5b	-0.022910288
156	0x3e348868	0.1763016
157	0x3cb76030	0.022384733
158	0x3e098351	0.13429
159	0x3e406140	0.18787098
160	0x3bfcb70a	0.0077122496
161	0xbe370ca8	-0.17875922
162	0xbda46a1b	-0.080280505
163	0xbdb7231c	-0.089422435
164	0x3cf25376	0.029580813
165	0xbe83c31e	-0.257348
166	0xbd3af6db	-0.045645576
167	0xbe8ae820	-0.27130222
168	0xbe985eee	-0.29759926
169	0xbe8655aa	-0.26237231
170	0xbe5858e6	-0.21127662
171	0xbd4532f6	-0.048144303
172	0x3c2a0c1a	0.010378862
173	0x3db69627	0.08915358
174	0xbdcb1ca2	-0.09917571
175	0x3d3e08ed	0.04639523
176	0xbc92defa	-0.01792859
177	0x3c0fb70f	0.008771672
178	0xbd2f8f80	-0.04286146
179	0xbea05294	-0.31313002
180	0xbd85ed91	-0.06539453
181	0xbe70cd9c	-0.23515934
182	0x3e4cc8c4	0.19998461
183	0xbcc38cd1	-0.023870857
184	0xbe1d1200	-0.15338898
185	0x3e3b46da	0.18288746
186	0xbda32d5e	-0.079676375
187	0xbd9bdc54	-0.07610384
188	0xbbc2983f	-0.0059385593
189	0x3e54b61d	0.20772596
190	0x3d07a146	0.033112787
191	0x3e386726	0.18008098
192	0x3e3c192d	0.18368979
193	0xbbb2f3e2	-0.005461202
194	0xbe7d93b4	-0.24763376
195	0x3e611e82	0.21984294
196	0x3ebc8cce	0.36826175
197	0xbe37f727	-0.17965375
198	0xbd574432	-0.05255527
199	0xbe4683bd	-0.19386192
200	0xbd328535	-0.043584067
201	0xbe065f63	-0.13122325
202	0xbdd49697	-0.10380285
203	0x3e3d0ca1	0.18461849
204	0x3e9799d2	0.29609543
205	0x3e685f28	0.22692549
206	0xbd7b5d02	-0.061367996
207	0x3e19ef18	0.15032613
208	0x3b9efe55	0.004852096
209	0xbde6a236	-0.11261408
210	0x3e259b33	0.16172485
211	0x3e2d4b3c	0.16923231
212	0xbcf8ed2f	-0.030386535
213	0xbe3cc332	-0.18433836
214	0x3d84d106	0.064851806
215	0x3db203ba	0.08692117
216	0x3ea794c3	0.32730684
217	0x3d715c03	0.05892564
218	0xbd20167e	-0.03908395
219	0xbde2d128	-0.1107505
220	0x3e6bd75b	0.2303137
221	0x3e711b4f	0.23545574
222	0x3de0f19d	0.10983584
223	0x3e2ffe0f	0.1718676
224	0x3e6c2a85	0.23063095
225	0xbea8f431	-0.32998803
226	0xbe2ce6c1	-0.168849
227	0x3c4f357e	0.012647031
228	0x3c4a8cb5	0.012362649
229	0x3e0b57f7	0.13607775
230	0x3def4097	0.116822414
231	0x3e1440bc	0.14477819
232	0x3de6fd11	0.11278737
233	0xbd4de9fa	-0.050271966
234	0x3e1ab732	0.15108946
235	0x3da66a27	0.08125716
236	0xbdc5ec5f	-0.09664225
237	0xbe0b8fc5	-0.13629062
238	0xbe8f326d	-0.2796816
239	0xbdfbb675	-0.1229066
240	0x3c0bdff3	0.00853728
241	0x3daf74c0	0.0856719
242	0x3d6644f0	0.056218088
243	0x3e45ca60	0.19315481
244	0x3e0c27b4	0.1368702
245	0xbc0845f1	-0.008317457
246	0xbe9ac9fa	-0.3023222
247	0xbd7795d6	-0.06044563
248	0xbe5afff2	-0.21386698
249	0xbe00a1be	-0.125617
250	0x3dbece8d	0.0931674
251	0x3d83a6a5	0.06428269
252	0xbe9294a2	-0.28629023
253	0x3e227a4d	0.15866967
254	0x3db508cf	0.08839571
255	0xbe51a036	-0.20471272

hiden_layers.1.bias f4 [64]
0	0xbab6278a	-0.0013897282
1	0x3d5fcfbe	0.054641478
2	0x3c3fde59	0.011710727
3	0x3dad26e5	0.08454684
4	0xbd2a5e17	-0.041593637
5	0x3d89d281	0.067296036
6	0xbd2054b6	-0.039143287
7	0xbd039c54	-0.032131508
8	0xbcaf062f	-0.021365253
9	0xbb031019	-0.0019998609
10	0xbca6e391	-0.020372184
11	0xbdb388d2	-0.08766331
12	0x3d210898	0.039314836
13	0x3d1513ea	0.036395945
14	0xbcf90608	-0.030398384
15	0xbd52398e	-0.05132442
16	0xbc290e03	-0.010318282
17	0xbd9c0aa0	-0.07619214
18	0xbbf595f2	-0.0074946815
19	0xbcaf2aae	-0.021382656
20	0x3ac3d45c	0.0014940607
21	0x3e84a6f0	0.25908613
22	0x3d3f27e0	0.046668887
23	0x3d0a9fb3	0.033843707
24	0x3b5a7a59	0.0033337085
25	0xbaff2a2d	-0.0019467525
26	0x3d85bdc7	0.06530338
27	0x3cdebb2e	0.027188864
28	0xbd42e31d	-0.047579873
29	0x3c4fa163	0.012672755
30	0xbda896f5	-0.08231918
31	0xbe2333a5	-0.1593767
32	0xbd80ff52	-0.062986985
33	0xbda38377	-0.07984059
34	0x3d512139	0.051057074
35	0xbc11dd25	-0.008902823
36	0x3ddf7568	0.10911065
37	0xbe7db927	-0.24777661
38	0xbdae87cb	-0.08521994
39	0x3e408f38	0.18804634
40	0x3dd21ab9	0.10259003
41	0xbd4c1e17	-0.049833383
42	0xbbda7878	-0.006667193
43	0xbcdc833e	-0.02691805
44	0x3db624e8	0.08893758
45	0xbe034055	-0.1281751
46	0xbd9a77dd	-0.07542393
47	0x3d49457c	0.04913853
48	0xbd4d56d4	-0.050131634
49	0xbd60c983	-0.054879677
50	0x3b550dcf	0.0032509451
51	0x3dd00e21	0.10158945
52	0xbcaa76e2	-0.02080864
53	0xbd12aca3	-0.03580917
54	0xbe0e51ee	-0.13898441
55	0xbcf5bda2	-0.02999765
56	0x3db4d359	0.08829374
57	0xbe1b50c9	-0.15167536
58	0xbc7a234c	-0.0152672045
59	0x3e46fd99	0.19432677
60	0x3e0f8c57	0.14018379
61	0xbd7687d6	-0.060188137
62	0x3d09eff8	0.033676118
63	0xbdbe244e	-0.09284268

hiden_layers.2.weight f4 [64, 64]
0	0xbdc27810	-0.09495556
1	0xbeb8d4da	-0.36099893
2	0x3cde30b2	0.02712283
3	0xbddb470c	-0.107069105
4	0x3da74085	0.08166603
5	0xbed2372c	-0.41057718
6	0xbe3ef6ea	-0.18648878
7	0xbe0cd280	-0.13752174
8	0xbee35dce	-0.44407505
9	0xbdcd170e	-0.10014163
10	0xbbd5dd0a	-0.006526594
11	0xbda6b480	-0.081398964
12	0xbdfb199c	-0.12260744
13	0x3e920688	0.28520608
14	0xbe122b5c	-0.14274353
15	0x3d9968ac	0.07490668
16	0x3dac01e8	0.08398801
17	0xbdad94b1	-0.08475626
18	0xbca77d9e	-0.020445641
19	0xbe6ef084	-0.23333937
20	0x3cf211f7	0.029549582
21	0x3dc8310f	0.09774982
22	0x3c92c71e	0.017917212
23	0xbb9f670e	-0.00486458
24	0xbd3cdb3a	-0.04610751
25	0xbe70e492	-0.23524693
26	0xbe0c6619	-0.13710822
27	0x3d5dd47d	0.054157723
28	0x3d692822	0.05692304
29	0xbd16a73e	-0.03678059
30	0x3e178631	0.14797284
31	0x3e14fa5e	0.14548633
32	0xbe271a0c	-0.1631853
33	0x3e629a88	0.22129261
34	0xbdb17536	-0.08664934
35	0xbe24b07e	-0.16082951
36	0x3e9b0f69	0.30285195
37	0x3e7290d8	0.23688066
38	0x3ea4145d	0.32046786
39	0x3e8d7269	0.2762635
40	0xbe9399e7	-0.28828356
41	0x3d53673e	0.05161213
42	0x3d9ad974	0.07561007
43	0xbdb8411e	-0.08996795
44	0x3da24a15	0.07924286
45	0xbe924a84	-0.28572476
46	0xbc2a8ab4	-0.010409046
47	0x3dee9e19	0.116512485
48	0x3d158a8c	0.03650908
49	0x3ced1f15	0.028945485
50	0xbde113af	-0.109900825
51	0xbe859b44	-0.2609502
52	0xbd4fe8a5	-0.050758976
53	0x3e3e6632	0.18593672
54	0x3e93902f	0.2882094
55	0x3e5d3a5a	0.2160429
56	0xbd29f4ea	-0.041493334
57	0x3e6e649b	0.23280565
58	0xbbe82d4f	-0.0070854793
59	0xbd9ad8e8	-0.07560903
60	0xbd6bba42	-0.057550676
61	0x3dc6b5c9	0.097026415
62	0x3e12ff9e	0.14355323
63	0x3ec09a4e	0.37617725
64	0x3e36e555	0.1786092
65	0x3daf7134	0.08566514
66	0x3de07be0	0.10961127
67	0x3ddc5363	0.10758092
68	0x3e6ad39e	0.22932288
69	0x3e62a122	0.2213178
70	0x3d99cf92	0.07510294
71	0x3e9cadfc	0.3060149
72	0x3e3c3e1f	0.18383072
73	0x3e8a100a	0.26965362
74	0x3e9d3680	0.30705643
75	0x3e0451c4	0.12921816
76	0xbda1098e	-0.078631505
77	0xbdf2d765	-0.118574895
78	0xbd36f7a6	-0.04466977
79	0x3d910e0f	0.070827596
80	0xbe15f5bf	-0.14644526
81	0x3c751633	0.014958906
82	0xbe81a33c	-0.2531985
83	0xbe04f934	-0.12985688
84	0xbd636265	-0.05551376
85	0xbe07a5d2	-0.13246849
86	0x3d85fb32	0.06542052
87	0xbe915282	-0.2838326
88	0xbeb3ca16	-0.35115117
89	0xbb5004e7	-0.0031741203
90	0x3e8417eb	0.25799498
91	0xbcd38df5	-0.025824526
92	0xbe53b2da	-0.20673695
93	0x3d9b6d9f	0.07589268
94	0xbb5431a3	-0.0032378219
95	0x3cd5b18c	0.026085638
96	0x3d8ce67a	0.068798974
97	0x3e039c2e	0.12852547
98	0xbcaf1550	-0.021372467
99	0x3dc88c07	0.09792333
100	0x3e9a43f8	0.3012998
101	0x3dc50f59	0.09622068
102	0xbc0bdfc6	-0.008537238
103	0xbe71403e	-0.23559663
104	0xbdc317f4	-0.09526053
105	0xbe1b607b	-0.15173523
106	0x3d6fdb48	0.058558732
107	0x3ddb1ca3	0.106988214
108	0x3db89e71	0.09014595
109	0xbe8a015e	-0.26954168
110	0xbe32f1de	-0.17475078
111	0x3e52b6d2	0.20577553
112	0xbda8cabb	-0.08241793
113	0x3e9fb4b6	0.3119256
114	0xbd9c0c08	-0.07619482
115	0xbdd67e31	-0.10473288
116	0xbe314b24	-0.1731382
117	0x3e0da238	0.13831413
118	0xbc3487ba	-0.011018688
119	0xbe9d76eb	-0.3075479
120	0x3e9c75b2	0.30558544
121	0xbb32f472	-0.0027306345
122	0x3d83e1c1	0.064395435
123	0x3ded0b97	0.11574476
124	0x3dc09bd1	0.094047196
125	0x3e6bfabb	0.23044865
126	0x3de85b37	0.11345523
127	0xbe9e7328	-0.30947232
128	0x3e179a50	0.1480496
129	0xbf434ecd	-0.76292115
130	0xbeed8934	-0.4639374
131	0xbd9cc84b	-0.0765539
132	0x3e3d315a	0.18475857
133	0xbe822289	-0.25416973
134	0x3e60f42c	0.21968144
135	0xbe0edb99	-0.13950957
136	0x3e136727	0.14394818
137	0x3e35123a	0.17682734
138	0xbd402ced	-0.046917845
139	0x3e2f023b	0.17090695
140	0xbee9f21d	-0.4569253
141	0x3e701484	0.23445326
142	0xbe52ea90	-0.20597291
143	0x3e86e482	0.26346213
144	0xbdb0cad9	-0.0863244
145	0xbde4a8a3	-0.111649774
146	0x3eaee8c8	0.34161973
147	0xbea1a116	-0.3156821
148	0xbd858272	-0.06519021
149	0xbe2676af	-0.16256212
150	0x3dd8c116	0.10583703
151	0xbeb5e9e5	-0.3553001
152	0xbe65e0ff	-0.2244911
153	0xbe0994c0	-0.1343565
154	0x3d189a25	0.03725638
155	0xbe37174d	-0.17879982
156	0x3def37cb	0.116805635
157	0x3eb4bca1	0.35300162
158	0x3ddfd579	0.109293886
159	0x3f02c286	0.5107807
160	0xbd2dd459	-0.04243884
161	0x3e53d22a	0.2068564
162	0xbde3395c	-0.11094925
163	0x3dbc3525	0.09189824
164	0x3ef659d3	0.48115405
165	0x3da2387a	0.07920928
166	0x3e0f7d3a	0.14012614
167	0x3ec77673	0.38957557
168	0x3e5b576e	0.2142007
169	0x3bad2ffb	0.0052852607
170	0xbe0469ad	-0.12930937
171	0xbea5144b	-0.32242045
172	0x3db281f2	0.08716191
173	0x3e15d342	0.1463137
174	0xbdab4bec	-0.0836409
175	0xbdebf8e2	-0.1152208
176	0x3e63e406	0.22254953
177	0xbdb5e743	-0.08882
178	0xbc713d84	-0.014724139
179	0x3dcc99ab	0.09990247
180	0xbea27868	-0.31732488
181	0xbd1b7d8f	-0.03796154
182	0x3f3f7559	0.74788433
183	0xbe2e8b41	-0.17045309
184	0xbe3d144d	-0.18464775
185	0x3defd09f	0.11709713
186	0xbeaee310	-0.3415761
187	0xbe659301	-0.22419359
188	0x3c9382f3	0.018006777
189	0xbda23a50	-0.079212785
190	0x3e842cdb	0.25815472
191	0x3f2a333c	0.6648443
192	0x3d3a3c76	0.045467816
193	0xbe5f7c34	-0.21824723
194	0xbe03b986	-0.1286374
195	0x3e5cf8fe	0.21579358
196	0xbe62eb96	-0.22160181
197	0xbe09d248	-0.13459122
198	0x3d476f12	0.04868991
199	0xbdb1485f	-0.08656382
200	0x3dce5d24	0.10076359
201	0x3e7536b0	0.23946643
202	0x3d7d942a	0.06190888
203	0xbdb463a4	-0.088080674
204	0x3c642c43	0.013926568
205	0x3d4c4c54	0.04987748
206	0xbdd95208	-0.10611349
207	0xbd563b1c	-0.052302465
208	0x3e3c5f4d	0.1839573
209	0xbded257b	-0.115794145
210	0xbd4c2d98	-0.04984817
211	0x3d82a932	0.06379928
212	0xbec0f749	-0.37688664
213	0xbe2cdf87	-0.16882144
214	0xbc53f338	-0.012936406
215	0xbdd773df	-0.105201475
216	0xbe170653	-0.14748506
217	0xbd65c684	-0.056097522
218	0x3d55cb06	0.05219557
219	0xbdc59c4f	-0.09648954
220	0xbe621e40	-0.22081852
221	0x3ebcaeab	0.3685201
222	0x3dec8b25	0.11549977
223	0xbe5b11cd	-0.21393509
224	0xbe384050	-0.17993283
225	0xbdcef313	-0.101049565
226	0x3e79f6b4	0.24410516
227	0x3e27316d	0.16327448
228	0xbd3a5dfa	-0.04549978
229	0x3e51ad98	0.20476377
230	0x3d675fb1	0.056487743
231	0xbe64381c	-0.22287029
232	0x3eb78137	0.3584077
233	0xbed1d2f9	-0.40981272
234	0x3e11ae01	0.14226533
235	0xbc9c8114	-0.019104518
236	0x3dd82a55	0.10554949
237	0xbcdaec39	-0.026723968
238	0xbe13aac6	-0.14420614
239	0x3d21e4a6	0.039524697
240	0xbc97ac86	-0.018514883
241	0xbad93596	-0.0016571756
242	0x3e9c3f8f	0.3051724
243	0xbe85b84b	-0.26117167
244	0xbe0ad276	-0.13556847
245	0xbedee994	-0.4353758
246	0x3dea7d95	0.11449734
247	0xbda1009d	-0.07861445
248	0x3e8f999b	0.2804688
249	0xbdbdafeb	-0.09262069
250	0xbd634866	-0.055488966
251	0x3e57aebf	0.21062754
252	0x3e54e56a	0.2079064
253	0xbe76dffb	-0.2410888
254	0x3e4ce32b	0.20008533
255	0xbc718c0d	-0.014742863

hiden_layers.2.bias f4 [64]
0	0xbccd41ec	-0.025055848
1	0xbd9ca26b	-0.07648166
2	0x3c19f19e	0.009395985
3	0xbbc879f7	-0.006118055
4	0xbcfba448	-0.030717984
5	0xbe40843f	-0.18800448
6	0x3dec9aa3	0.11552932
7	0xbbc468d0	-0.00599394
8	0x3bb031de	0.0053770384
9	0xbe09cea9	-0.13457741
10	0xbc8eb979	-0.017422425
11	0xbd735308	-0.059405357
12	0xbb594bb7	-0.0033156702
13	0x3c877512	0.016535316
14	0x3d259d9d	0.040433515
15	0xbcdb498e	-0.026768472
16	0xbcf8f41b	-0.030389836
17	0xbe333633	-0.17501144
18	0x3dcab6cc	0.09898147
19	0xbd0d1a3f	-0.03444886
20	0xbd892763	-0.066969655
21	0xbdc1f58d	-0.09470663
22	0x3d233cd0	0.039852917
23	0x3d517e92	0.051146097
24	0x3d26d017	0.040725794
25	0xbcb438c6	-0.021999728
26	0xbaea0420	-0.0017854013
27	0x3cdcd77e	0.026958223
28	0xbd94a404	-0.07257846
29	0x3c37845b	0.01120099
30	0xbd07e377	-0.03317591
31	0xbcaad54e	-0.020853665
32	0xbc81748a	-0.01580264
33	0xbd15f7bc	-0.03661321
34	0xbd3706b1	-0.044684116
35	0x3c46737c	0.012112495
36	0x3d2a4b1b	0.041575532
37	0x39ac726b	0.00032891645
38	0x3cf4b4ea	0.029871423
39	0x3dcedba8	0.1010049
40	0x3d8ca983	0.06868269
41	0xbd3a9db8	-0.04556057
42	0x3d9b12fb	0.075719796
43	0x3c47ba0a	0.012190351
44	0x3d7396d1	0.05947
45	0x3c8d6af0	0.017262906
46	0xbdb4a442	-0.08820392
47	0xbd12efbe	-0.035873167
48	0xbd3f532b	-0.046710175
49	0xbe05c3a9	-0.1306292
50	0x3cabb2be	0.020959254
51	0xbd70c01a	-0.058776952
52	0xbcaee1f5	-0.02134798
53	0xb8c6afb6	-9.4741044e-05
54	0xbc16a004	-0.009193424
55	0xbd73d4dd	-0.059529174
56	0xbcf0e4c6	-0.029405963
57	0xbcd97952	-0.026547108
58	0x3d22387a	0.03960464
59	0xbdeed178	-0.11661047
60	0xbe2dc3e0	-0.16969252
61	0x3c124bd9	0.008929216
62	0x3bb73fcc	0.005592322
63	0x3c4b153a	0.0123951975

hiden_layers.3.weight f4 [64, 64]
0	0xbdc3e68c	-0.09565458
1	0x3e7e377c	0.24825853
2	0x3d51d88e	0.051231913
3	0xbe6e29d9	-0.23258151
4	0xbdfbf796	-0.12303083
5	0x3e3ce521	0.1844678
6	0xbe75681f	-0.239655
7	0xbe5a6c6c	-0.21330422
8	0x3d87d786	0.06632905
9	0x3deeea82	0.116658226
10	0x3cf96314	0.030442752
11	0xbe4df8fb	-0.2011451
12	0x3e1dc694	0.15407783
13	0xbe1a00de	-0.15039393
14	0x3ec5fc63	0.38669118
15	0x3cb780a4	0.022400208
16	0xbdf4d732	-0.11955108
17	0xbdd81772	-0.10551347
18	0x3e6cfeab	0.23144023
19	0xbec300e9	-0.38086632
20	0x3e8c5204	0.27406323
21	0xbed4c6f7	-0.41558048
22	0x3e0d1cb1	0.13780476
23	0x3e87f7dd	0.26556292
24	0x3cbb79f1	0.022885295
25	0x3dc21ece	0.09478532
26	0xbe0834b9	-0.13301362
27	0xbeefc30d	-0.468285
28	0x3ddb5fc4	0.10711625
29	0x3e594e69	0.21221317
30	0x3daaa746	0.08332686
31	0x3e82e1a6	0.2556278
32	0x3e6882b5	0.22706111
33	0x3d7fe15b	0.062470775
34	0xbd96a8d7	-0.073564224
35	0x3dff752f	0.12473523
36	0x3cd42253	0.025895273
37	0x3d70aa5d	0.05875622
38	0xbe2e2862	-0.17007592
39	0xbe079738	-0.13241279
40	0x3cfd67c1	0.030933263
41	0x3e4fa6f5	0.20278533
42	0xbe6f1ca8	-0.23350775
43	0xbe11e685	-0.14248092
44	0xbcad8a21	-0.021184029
45	0x3e84194b	0.25800547
46	0x3bdfa78d	0.0068253935
47	0xbd015ee7	-0.031584647
48	0x3ec4b5e4	0.38420022
49	0xbead206c	-0.33813798
50	0xbe5c3fec	-0.2150876
51	0xbeb32584	-0.3498956
52	0x3eb3a557	0.35087082
53	0x3e4cf371	0.2001474
54	0x3ea88b73	0.3291889
55	0xbe356081	-0.17712595
56	0x3dadf29c	0.0849354
57	0x3d8c1c44	0.06841329
58	0xbd2a6559	-0.04160056
59	0x3e38237d	0.17982288
60	0x3d6bc049	0.057556424
61	0x3e84c763	0.2593337
62	0x3becf0df	0.0072308625
63	0x3e73380b	0.23751847
64	0xbebc119d	-0.36732188
65	0x3d0c18da	0.034203388
66	0xbd9891ed	-0.07449708
67	0x3cee2081	0.029068233
68	0x3d33a307	0.043856647
69	0x3e8c1ead	0.27367154
70	0xbe6c7a34	-0.23093492
71	0x3db8c5bb	0.09022089
72	0xbe964364	-0.2934829
73	0xbe79aa9c	-0.24381489
74	0x3e575ca3	0.21031432
75	0x3dd30fae	0.10305725
76	0xbd4466e8	-0.0479497
77	0x3b81fa36	0.003966595
78	0x3e592424	0.21205193
79	0x3e8ae9ee	0.271316
80	0x3dc482ec	0.09595284
81	0xbe23ed18	-0.16008413
82	0x3e5571fa	0.2084426
83	0x3e5c6ea1	0.21526577
84	0x3d2b7993	0.04186399
85	0x3c10f772	0.008848058
86	0xbe0cc890	-0.13748384
87	0x3e2f5f91	0.171263
88	0xbe54c3df	-0.20777844
89	0x3e77c5c8	0.24196541
90	0x3db21e95	0.08697239
91	0xbe49cca5	-0.19706972
92	0x3ddd5bca	0.10808523
93	0x3f044fab	0.51684064
94	0xbe719134	-0.23590547
95	0x3e22092a	0.15823808
96	0x3e701d00	0.23448563
97	0xbd784f11	-0.06062228
98	0x3e63dbaf	0.22251771
99	0xbdaaadbb	-0.08333918
100	0xbdacc103	-0.084352516
101	0xbe441a6f	-0.19150709
102	0xbe909857	-0.28241226
103	0x3de1e634	0.11030236
104	0x3c7c8f2c	0.015414994
105	0xbe5a3610	-0.21309686
106	0x3dfa862b	0.12232622
107	0x3dee6f5a	0.116423324
108	0xbd4c57ce	-0.049888425
109	0x3d828c93	0.06374469
110	0x3e74ebd6	0.2391809
111	0xbe0e4305	-0.13892753
112	0x3ceb0f95	0.028693954
113	0xbe030197	-0.12793575
114	0xbe77bd3e	-0.24193284
115	0x3e42b085	0.1901265
116	0xbc78ef41	-0.015193761
117	0xbd391c7b	-0.045193177
118	0xbd2739a6	-0.040826462
119	0x3e1b2e49	0.15154375
120	0x3e80ede2	0.2518149
121	0xbccd8edf	-0.02509254
122	0x3e3f417c	0.18677324
123	0x3d6c11a5	0.057634015
124	0x3e48c0f1	0.19604851
125	0x3e907ef1	0.2822185
126	0xbd31403f	-0.04327416
127	0x3dbb80a8	0.091553986
128	0xbe0405cf	-0.12892841
129	0x3e82c244	0.25538838
130	0xbe4eb2ac	-0.20185345
131	0xbd74e746	-0.059790872
132	0xbdabf101	-0.08395577
133	0x3e29037d	0.16505237
134	0x3e7f0e02	0.24907687
135	0xbe8885b2	-0.266645
136	0x3d822a3d	0.063557126
137	0xbe03a4d4	-0.12855846
138	0xbc8cef96	-0.017204087
139	0x3c19e0c2	0.009391965
140	0xbdd9430f	-0.106084935
141	0x3ccfa882	0.025348905
142	0x3e0a954d	0.13533516
143	0x3c94c73e	0.018161412
144	0x3e018fbb	0.12652485
145	0xbd803490	-0.062600255
146	0xbe122dd7	-0.14275299
147	0xbdb0ad80	-0.086268425
148	0xbdf6f539	-0.12058491
149	0x3acd5951	0.0015666877
150	0xbe1c4b07	-0.15262996
151	0x3de39522	0.11112429
152	0x3da25c1c	0.07927725
153	0x3c16c906	0.009203201
154	0xbdbbe27f	-0.0917406
155	0x3e8fa3a6	0.2805454
156	0x3e1fd84c	0.15609854
157	0xbe1f5cad	-0.15562697
158	0xbe22cd34	-0.15898591
159	0xbe16c1d7	-0.14722382
160	0xbead9d14	-0.33908904
161	0xbcdc17a0	-0.026866734
162	0x3e4147ee	0.18875095
163	0x3dbcc9cc	0.09218177
164	0x3d0df43e	0.034656756
165	0xbd3772a3	-0.04478706
166	0x3dabaebb	0.083829366
167	0x3d4f9fec	0.050689623
168	0x3e57790a	0.21042266
169	0xbed08ee6	-0.40734023
170	0xbdcd4109	-0.1002217
171	0x3d426438	0.047458857
172	0x3a1758dd	0.00057734345
173	0xbe17a096	-0.14807352
174	0x3db051ef	0.086093776
175	0xbe4d755e	-0.20064303
176	0xbdf194e6	-0.11795978
177	0xbe814ae3	-0.25252447
178	0x3e99c064	0.30029595
179	0x3e22c9d6	0.15897307
180	0xbd55da47	-0.05221012
181	0xbdd00566	-0.1015728
182	0xbe5595d6	-0.20857939
183	0xbe937d5b	-0.28806576
184	0xbe1654c8	-0.14680779
185	0xbe5a7dfe	-0.21337125
186	0x3e31653e	0.17323777
187	0x3e249d93	0.16075735
188	0x3e214fea	0.15753141
189	0xbcd8b26f	-0.026452271
190	0x3cedd948	0.029034272
191	0xbd6863da	-0.05673585
192	0x3e4c3e3b	0.19945614
193	0xbe08e123	-0.13367133
194	0x3d318653	0.043340992
195	0xbd09fe9e	-0.033690087
196	0xbe9a8a83	-0.301838
197	0xbd284eeb	-0.041090887
198	0x3d4063fe	0.04697036
199	0xbdff7246	-0.12472968
200	0x3b3422d6	0.0027486584
201	0xbe1f0b30	-0.15531611
202	0xbe37dec1	-0.17956068
203	0xbe377f4f	-0.17919658
204	0xbe0e0029	-0.13867249
205	0xbe217065	-0.15765531
206	0xbde3e66d	-0.111279346
207	0xbe0ec327	-0.13941632
208	0xbd67cc88	-0.05659154
209	0x3de7e03a	0.11322065
210	0xbcf24c75	-0.029577473
211	0x3e1ffd09	0.15623869
212	0xbd8064b8	-0.062692106
213	0xbda5c1d9	-0.08093614
214	0xbd84040f	-0.064460866
215	0xbdc354a1	-0.09537626
216	0x3e462d70	0.1935327
217	0x3da54fc5	0.080718555
218	0xbce8bc27	-0.02841003
219	0xbd475aca	-0.048670568
220	0x3dfe7546	0.12424712
221	0xbea7dad4	-0.3278414
222	0x3d9849ea	0.07435973
223	0x3e3ca31b	0.18421595
224	0x3dd6daff	0.10490989
225	0x3e08d949	0.13364138
226	0x3de85b9c	0.11345598
227	0xbe411875	-0.18856986
228	0xbe4f13a1	-0.20222332
229	0xbd2ba2db	-0.041903358
230	0xbe637605	-0.2221299
231	0xbe25dab4	-0.1619671
232	0x3d74e8db	0.05979238
233	0xbdb1e43a	-0.08686109
234	0xbe8d041f	-0.27542207
235	0xbc66f1a7	-0.0140957
236	0x3dcfefed	0.10153184
237	0xbd8302ac	-0.06396994
238	0x3e810fcc	0.25207365
239	0x3e33022e	0.174813
240	0xbe75a5e3	-0.23989062
241	0x3e4f2c72	0.20231798
242	0xbd60221f	-0.05472004
243	0xbdde04c0	-0.1084075
244	0x3e35c7eb	0.17752044
245	0x3e1fd1fb	0.15607445
246	0x3e2f956c	0.17146844
247	0x3e8e3265	0.27772823
248	0x3e19e43a	0.15028468
249	0x3e5ba9fb	0.21451561
250	0x3e702c06	0.23454294
251	0xbe2001ae	-0.15625641
252	0xbcb64e03	-0.022253996
253	0xbea046f8	-0.31304145
254	0xbdfdaf1d	-0.12386916
255	0x3d4f70bb	0.050644618

hiden_layers.3.bias f4 [64]
0	0xbd8ac7a5	-0.067763604
1	0x3cd3dbc4	0.025861628
2	0x3d89a7c2	0.067214504
3	0xbcfc9794	-0.030833997
4	0xbbe01f01	-0.0068396335
5	0xbdb2ba80	-0.08726978
6	0x3d834a57	0.064106636
7	0x3d014200	0.031557083
8	0x3e9409dd	0.28913775
9	0xbd8da6b2	-0.0691656
10	0x3dddca20	0.10829568
11	0xbd9e1175	-0.077181734
12	0xbd50e4a6	-0.050999306
13	0xbe113ded	-0.14183779
14	0x3dd35802	0.103195205
15	0x3c821477	0.015878899
16	0x3d4f793c	0.050652727
17	0xbdcc210f	-0.09967243
18	0x3e32bc46	0.17454633
19	0x3bac9216	0.0052664382
20	0xbcd00e53	-0.025397455
21	0xbc54e489	-0.01299394
22	0x3d96c30a	0.073614195
23	0x3d6e099d	0.058114637
24	0x3d6bd166	0.057572745
25	0x3c595cf5	0.013266792
26	0xbc70cf1b	-0.014697815
27	0xbdc41307	-0.09573942
28	0x3dd5c960	0.104388
29	0xbe143178	-0.14471996
30	0x3d053dbe	0.032529585
31	0xbcfa43a5	-0.030549834
32	0x3e1f201e	0.15539595
33	0x3def0848	0.116715014
34	0x3cd05837	0.02543269
35	0xbd7eab4f	-0.06217509
36	0x3b8f16d7	0.0043667364
37	0xbb3f2e76	-0.002917198
38	0x3d23627e	0.03988885
39	0x3ce796c9	0.028270142
40	0xbdf41ef9	-0.1191997
41	0xbdcfeb25	-0.10152272
42	0x3d064d3a	0.032788493
43	0x3d9b2ff4	0.07577506
44	0xbcf81da3	-0.03028757
45	0xbb9b4f4f	-0.004739679
46	0x3dee0912	0.11622824
47	0x3c99cc3c	0.018774144
48	0xbda53f83	-0.080687545
49	0xbce73f5c	-0.028228454
50	0xbdb537bb	-0.0884852
51	0xbd8ff077	-0.07028287
52	0x3ce634df	0.028101383
53	0x3c04b9e9	0.008100965
54	0x3b8e9886	0.0043516783
55	0x3dfe36fc	0.12412831
56	0x3dbe2f7e	0.09286402
57	0x3cecf4cd	0.028925324
58	0xbc8e874f	-0.017398505
59	0x3cb3226a	0.021866996
60	0xbe7eebfc	-0.24894708
61	0x3d0d01ad	0.034425426
62	0xbc7dffe4	-0.015502904
63	0x3c5de845	0.013544147

hiden_layers.4.weight f4 [64, 64]
0	0xbe788879	-0.2427081
1	0x3e4e8b7f	0.20170401
2	0x3d9e85a2	0.07740332
3	0xbeafaef4	-0.34313166
4	0xbd59c912	-0.05317027
5	0x3bc78f9d	0.006090118
6	0xbda12558	-0.07868451
7	0x3de958e9	0.113939114
8	0xbdb1416d	-0.08655057
9	0xbdaf542b	-0.08560976
10	0x3cd5403d	0.026031608
11	0x3dd69b58	0.10478848
12	0xbd18b17e	-0.037278645
13	0x3c184889	0.0092946375
14	0xbdd91e5a	-0.10601492
15	0xbe3200b8	-0.17383087
16	0x3d9c6769	0.076369114
17	0xbd9d389e	-0.076768145
18	0x3da747e8	0.08168012
19	0x3e651845	0.2237254
20	0xbe598b56	-0.21244559
21	0x3cc09846	0.02351011
22	0xbe2b35fb	-0.1671981
23	0xbe6e303d	-0.23260589
24	0x3c25835d	0.01010212
25	0xbe1fc899	-0.15603866
26	0x3e3105f5	0.17287429
27	0x3e58404e	0.2111828
28	0xbe547e62	-0.20751336
29	0xbdff0160	-0.12451434
30	0x3c39f37e	0.011349557
31	0xbc5f8584	-0.013642672
32	0x3e6a7da5	0.22899492
33	0x3c9762ff	0.018479822
34	0x3e6b8b18	0.23002279
35	0x3c1c9d0c	0.009558927
36	0x3c01bbac	0.00791828
37	0xbddfc476	-0.10926144
38	0xbcff6ee9	-0.031180816
39	0xbd0d322f	-0.034471687
40	0xbe07d538	-0.1326493
41	0x3e1262df	0.14295529
42	0x3da40507	0.080087714
43	0x3d5b8ada	0.053599216
44	0x3e01026a	0.12598577
45	0x3df649c0	0.120257854
46	0x3e12d2dd	0.1433825
47	0xbe137609	-0.14400496
48	0xbdf9adb9	-0.12191338
49	0xbdf4a996	-0.119464085
50	0x3e08a308	0.13343441
51	0xbd16dece	-0.036833577
52	0xbe805352	-0.25063568
53	0x3e87d3f5	0.26528898
54	0x3e01da91	0.12681033
55	0xbe777e33	-0.24169235
56	0x3d10b188	0.035325557
57	0xbc19d6a0	-0.0093895495
58	0xbea5f46a	-0.32413036
59	0xbda6c050	-0.081421494
60	0x3e07fb76	0.13279518
61	0xbe8f4cd8	-0.27988315
62	0x3bd6f5b6	0.0065600527
63	0xbd1d6783	-0.038428795
64	0xbcf00765	-0.029300401
65	0xbe8fdb68	-0.2809708
66	0xbe395a51	-0.18100859
67	0x3e58bc47	0.21165572
68	0x3df44865	0.11927871
69	0xbcac7f7a	-0.02105688
70	0xbe8199de	-0.25312704
71	0xbe01cebb	-0.12676518
72	0xbdd971e2	-0.106174245
73	0xbb3b2178	-0.0028553884
74	0xbdfa0f09	-0.12209899
75	0x3e6b62fc	0.22986978
76	0x3e883109	0.2659991
77	0x3eab83dc	0.33499038
78	0xbe8337be	-0.25628465
79	0x3e88450c	0.2661518
80	0xbe2cd89f	-0.1687951
81	0xbceb9a89	-0.028760212
82	0x3e4cc015	0.19995148
83	0x3c9fb578	0.01949571
84	0x3e41d1b7	0.18927656
85	0x3e38d321	0.1804929
86	0x3df64a32	0.120258704
87	0x3ea07b20	0.31343937
88	0xbe28cdb2	-0.16484717
89	0xbdb677ba	-0.08909555
90	0xbe034193	-0.12817983
91	0x3e052b35	0.13004763
92	0x3d8a224f	0.06744825
93	0x3db9a7c3	0.09065201
94	0xbdf837d0	-0.121200204
95	0xbdc5a3c8	-0.096503794
96	0x3df1eb41	0.11812449
97	0x3dd375c2	0.10325195
98	0x3dde38d0	0.1085068
99	0xbdab637a	-0.08368583
100	0xbe883620	-0.26603794
101	0x3d18a444	0.03726603
102	0x3df1de54	0.11809984
103	0x3d14df99	0.03634605
104	0x3dc4d3ac	0.09610686
105	0xbe7aae99	-0.24480666
106	0x3dc4cc44	0.09609273
107	0x3db6df64	0.08929327
108	0x3c5e64ec	0.013573866
109	0x3e06df5c	0.13171142
110	0xbd9a73db	-0.07541629
111	0xbdb46bc8	-0.0880962
112	0xbc65b428	-0.014020003
113	0x3dadd062	0.084870115
114	0xbe72f21c	-0.2372517
115	0xbdc88c7a	-0.09792419
116	0x3e68ea02	0.22745517
117	0xbe34df46	-0.17663297
118	0x3e2575b9	0.16158189
119	0x3d21269e	0.03934347
120	0x3cded9b8	0.027203426
121	0xbeb386c3	-0.35063753
122	0x3e69e1d5	0.22840054
123	0x3cdaefcd	0.026725674
124	0x3e8891f4	0.26673853
125	0xbc814829	-0.015781479
126	0x3da456d0	0.08024371
127	0x3e42cf45	0.1902438
128	0xbe5aea22	-0.21378377
129	0xbe071c1d	-0.13194318
130	0xbd59a2b6	-0.05313369
131	0xbe32127a	-0.17389861
132	0xbd4c7839	-0.04991934
133	0xbdda5cb8	-0.10662216
134	0xbe16be59	-0.1472105
135	0x3e4a3d0d	0.19749852
136	0xbd6f4cf6	-0.058423005
137	0xbe64afd1	-0.22332694
138	0xbcd1b958	-0.025601074
139	0xbe28c1b7	-0.16480146
140	0x3ccd13fb	0.025033941
141	0x3e61f281	0.22065164
142	0x3e33f006	0.1757203
143	0xbdfebf1e	-0.124387965
144	0x3dae5610	0.08512509
145	0x3d46933c	0.048480257
146	0xbe0202ca	-0.12696376
147	0x3e1f508f	0.15558074
148	0x3d904179	0.07043738
149	0xbdf10c3d	-0.117699124
150	0xbdb2490b	-0.08705338
151	0xbe1f92dd	-0.15583368
152	0xbe8b0554	-0.27152503
153	0xbe70110a	-0.23444
154	0x3e06062c	0.13088292
155	0x3ecf8b2d	0.4053587
156	0xbe2483c6	-0.16065893
157	0x3e498075	0.19677909
158	0xbd5f74be	-0.054554693
159	0x3e02424b	0.12720601
160	0xbe056a66	-0.13028869
161	0xbdf4370b	-0.11924561
162	0xbe6ea1c1	-0.23303892
163	0x3e167d65	0.14696272
164	0xbe0023e0	-0.12513685
165	0x3d3d0012	0.046142645
166	0xbe2feb70	-0.17179656
167	0x3e54f60b	0.20796983
168	0x3c8b85cb	0.01703157
169	0x3e491274	0.19635946
170	0xbdd482a6	-0.10376482
171	0x3cc77481	0.024347546
172	0xbdc6b852	-0.09703125
173	0x3dc253b2	0.0948862
174	0x3dd0432d	0.10169063
175	0x3e273999	0.16330566
176	0x3d657bd9	0.056026313
177	0x3e1cdbb5	0.15318187
178	0x3e556d01	0.20842363
179	0xbe77811a	-0.24170342
180	0xbe1cfea9	-0.1533152
181	0x3e1f7a6a	0.15574041
182	0xbcb1b6f0	-0.021693677
183	0x3cb4262f	0.021990864
184	0xbe513e79	-0.20433988
185	0x3cb71e29	0.022353249
186	0x3e51e650	0.20498013
187	0x3e4d0973	0.20023136
188	0xb94c5174	-0.000194853
189	0x3c84ed69	0.016226487
190	0x3e0a686c	0.13516396
191	0x3e635e97	0.22204052
192	0x3d227b24	0.039668217
193	0xbdf53558	-0.11973065
194	0xbe911592	-0.2833677
195	0x3db4e9f1	0.08833683
196	0x3e4111c0	0.18854427
197	0xbaad622a	-0.0013228108
198	0x3dbfa2aa	0.093571976
199	0xbeaeb4b2	-0.34122235
200	0x3dec90c4	0.11551049
201	0xbcc654ae	-0.0242103
202	0x3eaa3911	0.33246663
203	0x3d8ee493	0.06977191
204	0xbde420f1	-0.111390956
205	0xbd3e04bc	-0.046391234
206	0x3e3b7464	0.18306118
207	0x3e243238	0.16034782
208	0x3a7519a0	0.0009349827
209	0x3de1a1da	0.11017199
210	0xbda096d2	-0.07841267
211	0xbe90d953	-0.28290805
212	0xbc8d7a78	-0.017270312
213	0x3d9ea559	0.07746381
214	0x3e014b59	0.12626399
215	0x3e99d778	0.30047202
216	0x3e418a72	0.18900469
217	0xbc2223cb	-0.009896229
218	0x3d6a0ffa	0.057144143
219	0xbdf770bc	-0.12082049
220	0xbe056e29	-0.13030304
221	0x3daea2e6	0.08527164
222	0xbdcbbfea	-0.09948714
223	0xbe88defd	-0.26732627
224	0x3d3ae94c	0.045632645
225	0x3dd4a507	0.10383039
226	0xbd23dc26	-0.04000487
227	0xbe51a4b4	-0.20472986
228	0x3e2829a3	0.16422133
229	0xbd5842e8	-0.05279818
230	0xbddaf2f0	-0.10690868
231	0x3de15f05	0.11004452
232	0xbb8ffc56	-0.0043940945
233	0xbdd91655	-0.105999626
234	0xbe1906e2	-0.14944032
235	0x3eb7e9c9	0.3592055
236	0x3dcc49e2	0.099750295
237	0xbd779f10	-0.06045443
238	0xbda1bbfc	-0.07897183
239	0xbe9a4561	-0.30131057
240	0xbe007dab	-0.12547939
241	0x3d717593	0.05895002
242	0xbd8966ab	-0.067090355
243	0x3e98e8c3	0.29865083
244	0x3d82912d	0.06375346
245	0x3d5d420a	0.054018058
246	0xbbed64e2	-0.007244692
247	0x3e86ac86	0.263035
248	0xbe5f7540	-0.21822071
249	0xbd3dd737	-0.046347823
250	0x3e230b9c	0.15922397
251	0x3d2e1633	0.04250164
252	0x3d985a8b	0.07439145
253	0x3da7ce4e	0.08193646
254	0x3dd85a45	0.105640925
255	0x3e00dd8d	0.12584515

hiden_layers.4.bias f4 [64]
0	0xbd1f7e2c	-0.038938686
1	0x3cb1d957	0.021710081
2	0xbd930d81	-0.0718031
3	0xbde03af1	-0.10948742
4	0xbcc1af3c	-0.023643129
5	0xbe00c4ce	-0.12575075
6	0x3d68aab8	0.056803435
7	0xba2a5fe1	-0.00064992724
8	0x3db55379	0.08853812
9	0x3c0e8da2	0.00870076
10	0xbd4ca757	-0.049964275
11	0x3c46f5b9	0.012143546
12	0x3d60b32c	0.05485837
13	0x3cb25ea3	0.021773642
14	0xbc0303d7	-0.007996521
15	0xbc605788	-0.013692744
16	0x3ca9758b	0.020685932
17	0x3b8a84c6	0.0042272536
18	0xbdc1f1ac	-0.094699234
19	0x3d6cacef	0.05778211
20	0x3e368dec	0.17827576
21	0x3d020db2	0.031751342
22	0xbd3a5684	-0.045492664
23	0x3d555d3e	0.052090876
24	0x3d7e7e4c	0.062132165
25	0xbd0813e4	-0.033222094
26	0xbd80e85e	-0.062943205
27	0x3d8bf31f	0.06833481
28	0xbd66e783	-0.05637313
29	0xbd8f25f4	-0.06989661
30	0xbdb4ca3a	-0.08827634
31	0xbd5fb202	-0.05461312
32	0xbcd94716	-0.026523154
33	0xbd18fffd	-0.037353504
34	0xbbb6d806	-0.005579951
35	0x3d35b23b	0.044359427
36	0xbd83cc6f	-0.06435477
37	0xbd249288	-0.040178806
38	0x3c52982a	0.012853662
39	0xbdf3321e	-0.118747935
40	0x3dc81476	0.097695276
41	0xbc880ed3	-0.016608631
42	0xbc378fb9	-0.0112037
43	0xbd27abb8	-0.040935248
44	0xbe950534	-0.29105532
45	0x3cb1cfc2	0.021705512
46	0x3e3fb6db	0.18722098
47	0x3dda83aa	0.10669644
48	0x3d34e7a9	0.04416624
49	0x3c1b9890	0.009496823
50	0xbd0267ca	-0.031837262
51	0x3e00201c	0.12512249
52	0xbd498a34	-0.049204066
53	0x3d63f1d9	0.055650566
54	0x3d871b63	0.065970205
55	0xbdfd2f6a	-0.12362559
56	0x3d905a62	0.07048489
57	0xbe03da3f	-0.12876223
58	0xbdc9a8df	-0.09846663
59	0xbcebe9c9	-0.028798
60	0x3d9d9e9a	0.076962665
61	0xbe11c734	-0.14236146
62	0xbe0c1f8d	-0.1368391
63	0xbe068ff9	-0.13140859
