results/5_model_3_case_1/epoch150/model_weights.pth (torch, 484214 bytes, 88 tensors)

init_layer.0.weight f4 [64, 3]
-0.17330033 -0.051016856 0.31262532 0.6951308 0.04998612 -0.08133459 -0.19737379 -0.2206638
-0.15479863 0.29966387 0.05759748 0.075606786 -0.09891996 0.27656555 0.26594737 -0.20575371
-0.28690553 0.2249322 0.3084324 0.016474713 0.33547035 0.40577534 0.11060864 0.25446877
0.28758693 -0.24415776 0.11320573 -0.113419205 -0.09224051 0.26332217 -0.33963826 0.02453998
0.039627023 0.10858642 0.09448703 -0.26705536 -0.16542394 0.0020194196 -0.02618925 -0.06789161
0.036312055 0.34497613 0.18479143 -0.36173213 -0.05857523 0.16558655 -0.09232482 -0.30161545
-0.015513858 -0.058758784 0.34358737 0.22846736 0.16520676 -0.22586612 0.19791107 0.0041399132
-0.27240273 -0.41263527 0.013581384 -0.23480557 0.12100388 -0.049068745 -0.16207789 0.18499681
-0.07004655 -0.12216278 -0.013226826 -0.1493796 -0.21318196 -0.116882235 0.24367782 -0.03192152
-0.0718079 0.020124298 0.26104134 -0.049367797 0.19343105 -0.15096168 -0.0153411515 0.19768938
0.31755254 -0.15441824 -0.16686751 0.16003996 0.08602696 -0.0112921065 -0.3069187 -0.009644087
-0.2112719 0.17758264 -0.34243652 -0.15794773 -0.13331468 -0.100052975 0.045854323 0.3792777
-0.04041928 0.08891812 0.3050656 -0.29960304 0.19144577 -0.115314275 0.019465623 -0.009198452
-0.16353232 -0.055223115 -0.061579134 -0.26596987 0.0809882 -0.012399005 -0.3254128 -0.17371683
-0.12341244 -0.10118435 0.34491217 -0.044505518 0.2728328 -0.3306536 0.3047349 0.3211759
0.16043471 0.0840472 -0.3890376 0.0270086 -0.0025330824 -0.27753633 0.01725707 -0.02956856
0.29402387 -0.07918715 -0.02376194 0.24420658 0.13227995 -0.14131302 -0.24408081 -0.18444152
-0.18242593 0.23828667 0.006229086 -0.16081078 0.0895422 0.1931646 0.15837277 0.049354203
0.3113509 0.33444744 0.032588646 0.22464639 -0.3398159 0.2672296 0.083234 -0.2251887
-0.23444524 -0.3409102 -0.14189288 -0.114031196 0.29989466 -0.29115286 0.09336731 -0.11505263
-0.20092861 0.07414895 0.20017931 -0.12940562 -0.33375 0.31225044 -0.10492093 0.26165867
0.03701973 0.015773082 0.29303575 -0.09296959 -0.03368535 0.17628288 0.2611424 0.3227206
0.11202705 0.1679783 0.14999802 -0.18319939 -0.267691 -0.20519447 -0.18500037 -0.29873016
0.061702814 -0.097737275 0.32400987 -0.09881252 0.05798003 0.4317639 0.03681578 0.20576645
00000000: a475 31be 0df7 50bd 6d10 a03e 18f4 313f
00000010: 3fbe 4c3d c092 a6bd 5b1c 4abe b1f5 61be
00000020: 8883 1ebe 8b6d 993e 56eb 6b3d bbd7 9a3d
00000030: 8c96 cabd 009a 8d3e 412a 883e 1ab1 52be
00000040: 48e5 92be a054 663e daea 9d3e faf5 863c
00000050: c5c2 ab3e c9c1 cf3e c886 e23d bb49 823e
00000060: 983e 933e 7e04 7abe 68d8 e73d 5448 e8bd
00000070: 98e8 bcbd 2ad2 863e 11e5 adbe 1108 c93c
00000080: f24f 223d 8f62 de3d 6a82 c13d 7bbb 88be
00000090: e564 29be 3d58 043b d78a d6bc c20a 8bbd
000000a0: f3bb 143d b6a0 b03e f739 3d3e f434 b9be
000000b0: 95ec 6fbd 858f 293e cc14 bdbd 576d 9abe
000000c0: d62d 7ebc 0dad 70bd afea af3e 59f3 693e
000000d0: f62b 293e 7349 67be 33a9 4a3e 1ca8 873b
000000e0: 5f78 8bbe ee44 d3be 7484 5e3c df70 70be
000000f0: e2d0 f73d 4ffc 48bd bff7 25be ce6f 3d3e
00000100: 9174 8fbd 7b30 fabd 54b5 58bc f7f6 18be
00000110: 5f4c 5abe f45f efbd ae86 793e 24c0 02bd
00000120: 0510 93bd b6db a43c 36a7 853e e335 4abd
00000130: ca12 463e b395 1abe 7459 7bbc 166f 4a3e
00000140: 3f96 a23e d11f 1ebe 51df 2abe 84e1 233e
00000150: e72e b03d 8702 39bc 7324 9dbe 3c02 1ebc
00000160: a957 58be 39d8 353e d753 afbe 0dbd 21be
00000170: a583 08be 93e8 ccbd bed1 3b3d b030 c23e
00000180: b08e 25bd b41a b63d 8f31 9c3e 9265 99be
00000190: 5c0a 443e e429 ecbd 5f76 9f3c 1bb5 16bc
000001a0: 0475 27be a231 62bd 673a 7cbd 342d 88be
000001b0: 24dd a53d 3225 4bbc 829c a6be d3e2 31be
000001c0: a9bf fcbd be39 cfbd 5498 b03e 6b4b 36bd
000001d0: beb0 8b3e 6e4b a9be 3606 9c3e 2b71 a43e
000001e0: ff48 243e f020 ac3d f02f c7be 2441 dd3c
000001f0: 1202 26bb 3e19 8ebe b35e 8d3c c439 f2bc
00000200: 4c8a 963e df2c a2bd 66a8 c2bc 4a11 7a3e
00000210: 6574 073e 5cb4 10be 52f0 79be 3dde 3cbe
00000220: ddcd 3abe 6c01 743e 5c1d cc3b 95ab 24be
00000230: e761 b73d f1cc 453e 792c 223e a227 4a3d
00000240: 6369 9f3e b23c ab3e ac7b 053d b409 663e
00000250: 5afc adbe 51d2 883e 9676 aa3d de97 66be
00000260: 6a12 70be c88b aebe 5e4c 11be 3089 e9bd
00000270: cb8b 993e fd11 95be 5c37 bf3d b7a0 ebbd
00000280: 3bc0 4dbe 68db 973d cefb 4c3e e882 04be
00000290: 48e1 aabe 4adf 9f3e c9e0 d6bd 20f8 853e
000002a0: 00a2 173d 8d36 813c c808 963e d766 bebd
000002b0: a6f9 09bd 8083 343e 75b4 853e a23b a53e
000002c0: 706e e53d 8102 2c3e 1599 193e 9f98 3bbe
000002d0: cb0e 89be 801e 52be bd70 3dbe 29f3 98be
000002e0: 17bc 7c3d 7b2a c8bd 9fe4 a53e 385e cabd
000002f0: 787c 6d3d 2810 dd3e 25cc 163d 71b4 523e

init_layer.0.bias f4 [64]
0.25857884 -0.037850868 0.07954381 -0.23063716 0.009188629 0.0057761837 0.12885638 0.15995489
-0.11907039 -0.1545598 0.2481986 0.124709934 0.17816032 0.2822697 -0.075779036 0.23052299
0.27136537 0.115691274 0.022214346 0.09770448 0.14257568 -0.0024086402 0.22883767 0.08810509
0.10804737 -0.13966876 0.121422715 -0.050249733 -0.28107756 0.20089112 -0.111390755 -0.1048959
-0.11777568 0.14501476 0.15152812 0.23592432 -0.19872294 -0.122134894 -0.2459445 -0.036866724
-0.30324852 0.022940613 -0.19455524 -0.07082736 0.11533115 0.047415756 -0.14828107 -0.05365623
-0.085871816 0.20489691 -0.15596092 -0.108632825 -0.122622706 -0.1332862 0.076856405 0.093329534
0.17840898 0.03692175 0.03540456 -0.20710716 0.053008083 -0.042687364 0.107253395 0.02162095
00000000: 7264 843e 8309 1bbd dde7 a23d 262c 6cbe
00000010: e78b 163c 2446 bd3b edf2 033e 37cb 233e
00000020: 2ddb f3bd ed44 1ebe c627 7e3e ec67 ff3d
00000030: a96f 363e a785 903e 0a32 9bbd 380e 6c3e
00000040: 67f0 8a3e 8cef ec3d dcfa b53c 4919 c83d
00000050: 5cff 113e 47da 1dbb 6c54 6a3e 7170 b43d
00000060: f147 dd3d 5405 0fbe 79ac f83d aad2 4dbd
00000070: 66e9 8fbe 67b6 4d3e d620 e4bd a9d3 d6bd
00000080: 6034 f1bd c07e 143e 302a 1b3e 2596 713e
00000090: 077e 4bbe dc21 fabd e0d8 7bbe 9001 17bd
000000a0: 6443 9bbe f4ed bb3c 7d39 47be ef0d 91bd
000000b0: bd32 ec3d 0637 423d fed6 17be a3c6 5bbd
000000c0: 90dd afbd 7fd0 513e 38b4 1fbe e37a debd
000000d0: 9d21 fbbd 2d7c 08be e466 9d3d 8e23 bf3d
000000e0: d8b0 363e 433b 173d 5f04 113d e613 54be
000000f0: 011f 593d f2d8 2ebd aba7 db3d 6b1e b13c

hiden_layers.0.weight f4 [64, 64]
-0.25207007 -0.025861368 -0.07873022 0.39726126 -0.093542814 -0.0042479504 0.11800333 -0.18319388
0.23322387 0.065414175 -0.18843125 0.07566288 -0.24392655 0.12435794 0.16841047 -0.35508892
-0.054926287 -0.17888705 -0.10373033 -0.3541174 -0.22632565 0.12807527 -0.2698652 -0.44138917
0.13955687 0.0651186 -0.1022558 -0.14433882 -0.035759136 -0.13230136 -0.18771131 0.072390646
0.06353008 -0.3085931 -0.04786033 -0.27139744 -0.00048044889 -0.028993895 0.61799145 0.23559713
0.15327801 -0.17938325 0.3304901 0.044129286 -0.18735869 -0.06753899 0.23090194 -0.013940312
0.33745378 -0.18475525 -0.11569306 0.035206076 0.23077112 0.078101 0.06299229 0.26618752
-0.1512493 -0.023714958 -0.12581162 0.20998645 -0.11672513 -0.22812589 0.02018807 -0.04057266
-0.028781958 -0.22143112 -0.100930326 -0.054008897 -0.2586195 -0.20925224 0.1562962 -0.19427365
-0.107028194 -0.4821518 0.38614964 0.15054618 0.23717369 0.06250512 0.029227091 0.36961365
0.031183388 0.32898018 0.16293706 0.10826079 0.31722224 -0.124663286 0.37176624 0.26113895
-0.12546663 -0.054867513 0.21419251 -0.04091946 0.11752548 0.12350201 -0.15153007 -0.34710523
-0.18708487 0.15970114 0.68897086 0.49435264 0.21110666 -0.09196834 -0.32308212 0.027581317
-0.079452984 0.133879 -0.54546887 -0.2923596 0.27077273 -0.27960435 -0.13521601 -0.22814558
-0.13803172 -0.093272634 -0.11498688 -0.076481424 -0.026913092 -0.34750628 0.27686808 0.10727589
-0.20169751 -0.20056646 -0.17625003 -0.15961756 0.29424894 0.17835526 0.24333857 -0.14746222
0.1052989 -0.13008994 0.21303518 -0.030017374 -0.22789723 0.05144817 -0.06702215 -0.23847568
0.08684325 -0.031944577 -0.017771168 0.111420125 0.13665181 -0.22394405 0.25353986 -0.13034776
-0.13162914 -0.24910434 0.047683034 -0.05429127 -0.009575589 -0.1617159 -0.15260103 -0.07143036
0.0019900126 -0.16307485 -0.058653634 0.28917357 -0.01617743 -0.1376023 0.3178583 0.22743621
-0.17459013 -0.13534713 0.18055038 0.19717355 -0.06475081 -0.06436451 -0.028676953 0.044803355
-0.18754761 -0.050031334 0.19648053 0.23956622 0.18798399 0.08797145 0.0190904 -0.06443755
-0.074762836 0.07873355 -0.056607686 0.059411194 0.08600458 0.061710343 -0.1392462 0.018573822
-0.2542033 0.19758743 -0.28260615 -0.17245796 0.22820017 -0.12720801 -0.15053433 0.12002823
-0.14408013 -0.074284434 0.036410976 -0.0024701976 0.04360523 -0.00075268146 -0.1487182 -0.27515852
-0.1292959 -0.20702238 -0.059154592 0.1025716 -0.25108525 -0.47657463 0.2855552 -0.092034474
-0.35586494 0.20896667 0.2689957 -0.060643435 0.2441596 0.035666507 -0.16797714 -0.23570326
-0.01723806 0.19516127 -0.19438829 -0.12378653 0.27542898 -0.4126129 -0.02979844 -0.036144182
-0.17155215 0.020375546 -0.1358735 0.0034203506 0.24302593 -0.017420612 0.018876212 -0.13287768
0.12450634 0.06894244 0.04383572 0.120409645 0.094294846 -0.057496283 0.103050135 0.121940404
0.19825688 -0.1803795 0.44090143 0.033431094 -0.08181431 0.16084364 0.2648329 -0.015715916
-0.39750662 -0.2732721 -0.10982124 0.4852775 -0.07297593 -0.03433164 -0.054272708 -0.16352788
00000000: 540f 81be 38db d3bc 4f3d a1bd d465 cb3e
00000010: 6093 bfbd 6432 8bbb bbab f13d 2d97 3bbe
00000020: 3dd2 6e3e def7 853d 1ff4 40be 24f5 9a3d
00000030: e2c7 79be 60af fe3d cb73 2c3e 37ce b5be
00000040: 63fa 60bd 2b2e 37be 9170 d4bd e04e b5be
00000050: e9c1 67be 2a26 033e c62b 8abe c3fd e1be
00000060: ffe7 0e3e e75c 853d 7d6b d1bd 8ecd 13be
00000070: 2c78 12bd 027a 07be 6537 40be 8c41 943d
00000080: 0f1c 823d eaff 9dbe 3209 44bd 9bf4 8abe
00000090: c2e4 fbb9 9b84 edbc b034 1e3f 6040 713e
000000a0: e9f4 1c3e 3eb0 37be 0036 a93e e9c0 343d
000000b0: f5da 3fbe e251 8abd 8f71 6c3e e865 64bc
000000c0: bec6 ac3e 7b30 3dbe 7cf0 ecbd 3f34 103d
000000d0: 444f 6c3e 6bf3 9f3d 1a02 813d bb49 883e
000000e0: 19e1 1abe df45 c2bc c3d4 00be b006 573e
000000f0: 960d efbd d599 69be 7461 a53c 842f 26bd
00000100: 24c8 ebbc d7be 62be 8fb4 cebd 6f38 5dbd
00000110: c669 84be 3846 56be 1c0c 203e acef 46be
00000120: 9931 dbbd 9adc f6be 68b5 c53e c728 1a3e
00000130: a9dd 723e af02 803d a76d ef3c 003e bd3e
00000140: 4e74 ff3c 1770 a83e f9d8 263e d5b7 dd3d
00000150: f46a a23e 774f ffbd 2558 be3e 01b4 853e
00000160: 537a 00be c2bc 60bd 4855 5b3e 2a9b 27bd
00000170: 33b1 f03d 9fee fc3d b32a 1bbe c7b7 b1be
00000180: 2d93 3fbe b288 233e 6560 303f ca1b fd3e
00000190: 582c 583e e659 bcbd 056b a5be 37f2 e13c
000001a0: 3fb8 a2bd 9417 093e d9a3 0bbf 28b0 95be
000001b0: b9a2 8a3e 4d28 8fbe 1176 0abe ff9e 69be
000001c0: 3058 0dbe b905 bfbd 3e7e ebbd 4ba2 9cbd
000001d0: d878 dcbc 58ec b1be a7c1 8d3e 76b3 db3d
000001e0: cb89 4ebe 4b61 4dbe e37a 34be c972 23be
000001f0: cca7 963e c3a2 363e bf2d 793e 5600 17be
00000200: f3a6 d73d 4c36 05be e525 5a3e ffe6 f5bc
00000210: e45d 69be 51bb 523d e942 89bd f832 74be
00000220: e0da b13d 51d8 02bd d794 91bc 3c30 e43d
00000230: 74ee 0b3e 9751 65be facf 813e e279 05be
00000240: cac9 06be 3515 7fbe 494f 433d 8660 5ebd
00000250: eee2 1cbc da98 25be 7243 1cbe 154a 92bd
00000260: df6a 023b 18fd 26be cb3e 70bd 8f0e 943e
00000270: 8886 84bc 9ee7 0cbe 53be a23e 0ae5 683e
00000280: c1c7 32be 7098 0abe 33e2 383e dde7 493e
00000290: 139c 84bd 8ad1 83bd eeeb eabc b983 373d
000002a0: 7b0c 40be a8ed 4cbd 3132 493e d950 753e
000002b0: e07e 403e 602a b43d 7863 9c3c d6f7 83bd
000002c0: 421d 99bd 0e3f a13d 76dd 67bd 2759 733d
000002d0: 2b23 b03d fcc3 7c3d 8e96 0ebe 2128 983c
000002e0: ef26 82be 5c54 4a3e c1b1 90be d298 30be
000002f0: 4ead 693e d142 02be ac25 1abe 5cd1 f53d
00000300: be89 13be 7022 98bd ad23 153d 0ae3 21bb
00000310: 669b 323d 994f 45ba 9549 18be 94e1 8cbe
00000320: 2566 04be adfd 53be 164c 72bd 0f11 d23d
00000330: 3f8e 80be 9701 f4be 4b34 923e 927c bcbd
00000340: ee33 b6be 5cfb 553e ceb9 893e 4065 78bd
00000350: f904 7a3e 0b17 123d 3302 2cbe 325c 71be
00000360: d536 8dbc 5bd8 473e b90d 47be cb83 fdbd
00000370: 0705 8d3e ff41 d3be dc1b f4bc ec0b 14bd
00000380: 5eab 2fbe 9eea a63c 6c22 0bbe f627 603b
00000390: cadb 783e acb5 8ebc 49a2 9a3c 1611 08be
000003a0: 2efd fe3d b231 8d3d 158d 333d 5599 f63d
000003b0: a81d c13d 3981 6bbd f30b d33d e4bb f93d
000003c0: da03 4b3e 67b5 38be d5bd e13e 0bef 083d
000003d0: 438e a7bd 32b4 243e 2e98 873e aabe 80bc
000003e0: fd85 cbbe 52ea 8bbe f5e9 e0bd 4b76 f83e
000003f0: 6874 95bd 559f 0cbd 0f4d 5ebd da73 27be

hiden_layers.0.bias f4 [64]
-0.16990906 0.26432198 -0.04585808 -0.19351824 0.04478062 -0.006191979 0.09808628 -0.048561063
0.010242505 -0.12048861 -0.14008944 0.13637647 0.082509294 -0.0237562 -0.013204474 0.11886145
-0.044674836 0.030756887 0.08133328 -0.22158003 -0.21506083 0.0719648 -0.03332735 0.05307167
0.118551016 0.06872411 -0.0654494 -0.06850917 0.11230674 -0.03378679 -0.051927123 0.06670848
0.04318064 -0.051415615 -0.12879516 -0.021741938 -0.063336454 0.037322685 -0.15548234 -0.08044331
-0.27000913 -0.12925728 0.09704802 -0.11073854 0.012653453 0.106223196 0.010838338 0.011975974
0.105349086 -0.05856944 0.23712327 0.106278084 -0.05221869 -0.08317217 0.010013041 0.03560434
-0.11237778 0.019066084 -0.09269185 -0.089124046 -0.2233265 0.06738382 -0.10290768 0.04365187
00000000: a4fc 2dbe 3655 873e afd5 3bbd a529 46be
00000010: e26b 373d 16e6 cabb 76e1 c83d f7e7 46bd
00000020: 2ed0 273c bbc2 f6bd 9b73 0fbe 46a6 0b3e
00000030: a2fa a83d 5d9c c2bc 9457 58bc a26d f33d
00000040: f6fc 36bd def5 fb3c 1092 a63d e0e5 62be
00000050: e838 5cbe 4862 933d 4282 08bd ae61 593d
00000060: e0ca f23d 3abf 8c3d 560a 86bd 894e 8cbd
00000070: 1301 e63d 0464 0abd 89b1 54bd 759e 883d
00000080: 2fde 303d 2e99 52bd e1e2 03be 261c b2bc
00000090: 8bb6 81bd acdf 183d c336 1fbe 76bf a4bd
000000a0: a33e 8abe 055c 04be 1dc1 c63d e3ca e2bd
000000b0: 6e50 4f3c 8c8b d93d 4993 313c e036 443c
000000c0: 43c1 d73d 82e6 6fbd 71d0 723e 53a8 d93d
000000d0: 44e3 55bd 2c56 aabd bd0d 243c dbd5 113d
000000e0: 5226 e6bd 7a30 9c3c 3ad5 bdbd ab86 b6bd
000000f0: b4af 64be 8700 8a3d 43c1 d2bd 4ecc 323d

hiden_layers.1.weight f4 [64, 64]
-0.029616894 0.06451563 -0.2486515 0.04544262 -0.29874447 0.2052792 -0.09807389 -0.1516549
0.05135145 0.0051096273 -0.019201674 -0.14212416 0.11098157 0.0057480494 -0.08516737 -0.077142835
-0.0013656737 0.21721445 0.038526874 0.109896325 0.21385098 -0.07834515 0.093166865 -0.1155937
-0.06846538 -0.21906856 -0.10591237 0.19197457 0.014259368 -0.026870536 -0.11729908 0.057145987
-0.3271179 0.23900272 -0.177759 -0.1942209 -0.07039179 -0.009604493 -0.037417833 0.1318582
0.08476839 0.1761448 -0.16664992 0.17880288 0.23432179 0.05407453 0.17038293 -0.18151698
0.024654523 -0.16292123 -0.1444317 0.1305013 -0.11016335 3.6887828e-05 -0.011169872 -0.22853401
0.22663255 -0.13605836 -0.22256696 0.08885932 0.05006938 0.05844858 0.075036846 -0.15938194
0.18487482 0.0021453365 -0.07208432 -0.10686924 -0.07629966 -0.080772504 -0.08484905 -0.26119468
0.10951308 -0.3963271 0.07672498 0.21214521 0.01772219 -0.062176708 -0.082676955 -0.051221482
0.027918924 -0.0990101 0.20777212 -0.25544274 0.04401783 0.11635318 -0.14851993 0.06523743
-0.05615292 0.06743908 0.03923031 -0.013216752 -0.06949905 0.1598422 0.012205342 0.12049477
0.19496915 0.12633808 -0.13938124 -0.23351455 -0.3213937 -0.028948735 -0.06873663 -0.30861905
-0.5992253 -0.08757799 0.09303198 -0.22244968 -0.03292727 0.17281315 0.18194103 -0.37511656
0.107318 0.19621688 -0.20105368 0.044972662 -0.062422264 0.11781245 0.28506845 0.20867328
-0.03923692 0.25954607 0.010399931 0.07184927 0.09169601 -0.103125975 -0.085569635 0.043609757
0.10529787 0.34097683 0.10447657 0.10187537 0.021046804 0.1796533 -0.1308501 0.16868792
0.18574984 -0.020668898 -0.19912541 -0.009952268 0.12587465 -0.02946493 0.13923748 0.08228028
-0.20322426 -0.024178408 0.029302943 -0.018169595 -0.1454789 -0.09315857 -0.06955829 -0.22665553
0.046411525 0.16832703 -0.33561835 -0.17318033 0.16732182 0.013730775 0.1836723 0.19956248
0.044901997 -0.18726753 -0.18533677 -0.107823305 -0.06234268 -0.222457 -0.06798704 -0.07915334
-0.18392967 -0.20110077 -0.22294328 -0.09776142 0.110432506 0.072622 -0.12385632 0.0045721075
0.073703885 -0.099333815 -0.0082283495 -0.23006158 0.010199877 -0.11604841 0.100837275 -0.008542228
-0.121910356 0.1853001 -0.21287595 0.059795406 -0.12719913 0.060391404 0.03489016 -0.0017603986
0.16954795 -0.04755107 -0.1495424 0.1615327 0.3132469 -0.22545181 -0.060592607 -0.11116119
-0.06748444 0.005393687 -0.12195245 0.28283393 0.28100073 0.16942921 0.04026095 0.14151548
-0.04356458 -0.1475958 0.09116997 0.16121888 0.0139917135 -0.1924299 0.083909065 0.052025452
0.19106871 0.090944774 -0.00058318477 -0.058928806 0.15319982 0.23386154 0.14703971 0.18931064
0.28478563 -0.06611303 -0.111651726 0.049261738 0.041185826 0.048953988 0.12873751 0.22118248
0.21280089 -0.055656243 0.18102758 0.07041844 -0.13880368 -0.12534785 -0.19036664 -0.074724644
0.026719147 0.07891501 -0.17760621 0.09641818 0.17832446 -0.07417548 -0.31115228 -0.007719139
-0.16599719 -0.07050002 0.15043223 0.036050737 -0.16483557 0.19635087 0.025061915 -0.18972023
00000000: 219f f2bc c520 843d 809e 7ebe 0a22 3a3d
00000010: 09f5 98be b634 523e f7da c8bd 6c4b 1bbe
00000020: e655 523d a96e a73b d44c 9dbc ff88 11be
00000030: 4e4a e33d 225a bc3b 3b6c aebd 10fd 9dbd
00000040: 6800 b3ba 776d 5e3e 5bce 1d3d 5311 e13d
00000050: c0fb 5a3e 6c73 a0bd 45ce be3d 64bc ecbd
00000060: 9437 8cbd 8253 60be 96e8 d8bd fb94 443e
00000070: 20a0 693c 991f dcbc 803a f0bd e911 6a3d
00000080: ff7b a7be 21bd 743e 7506 36be d8e1 46be
00000090: 9229 90bd 2a5c 1dbc 7143 19bd d605 073e
000000a0: 0d9b ad3d 4d5f 343e 47a6 2abe 1a18 373e
000000b0: 0df2 6f3e 417d 5d3d dd78 2e3e 96df 39be
000000c0: 48f8 c93c d3d4 26be e7e5 13be 22a2 053e
000000d0: 539d e1bd 01b8 1a38 d701 37bc d204 6abe
000000e0: 5d12 683e e252 0bbe 98e8 63be e0fb b53d
000000f0: 8d15 4d3d c767 6f3d ebac 993d 0535 23be
00000100: d34f 3d3e c698 0c3b f2a0 93bd 43de dabd
00000110: ff42 9cbd 0e6c a5bd 57c5 adbd 4fbb 85be
00000120: 6548 e03d 63eb cabe fc21 9d3d 983c 593e
00000130: 202e 913c 01ad 7ebd 8952 a9bd 9ecd 51bd
00000140: 3ab6 e43c cfc5 cabd 37c2 543e 64c9 82be
00000150: 0a4c 343d 934a ee3d 9c15 18be 349b 853d
00000160: 9b00 66bd 801d 8a3d f6af 203d 138b 58bc
00000170: 8555 8ebd acad 233e eaf8 473c f6c5 f63d
00000180: fea5 473e c55e 013e f5b9 0ebe 701e 6fbe
00000190: b78d a4be e625 edbc cac5 8cbd 5103 9ebe
000001a0: d466 19bf 175c b3bd 8d87 be3d d9c9 63be
000001b0: bfde 06bd eef5 303e c04e 3a3e 470f c0be
000001c0: 8ac9 db3d 14ed 483e 04e1 4dbe 4135 383d
000001d0: 7dae 7fbd a747 f13d 7ef4 913e 73ae 553e
000001e0: e5b6 20bd 39e3 843e 7964 2a3c b625 933d
000001f0: 1ecb bb3d b633 d3bd 223f afbd 25a0 323d
00000200: 69a6 d73d 8494 ae3e d0f7 d53d 09a4 d03d
00000210: 596a ac3c 09f7 373e 92fd 05be 87bc 2c3e
00000220: 3535 3e3e d251 a9bc 88e7 4bbe d60e 23bc
00000230: 49e5 003e 7060 f1bc 4594 0e3e 9082 a83d
00000240: 051a 50be cc11 c6bc ba0c f03c 67d8 94bc
00000250: 6cf8 14be ecc9 bebd 9474 8ebd 6318 68be
00000260: 031a 3e3d ec5d 2c3e 2bd6 abbe 2f56 31be
00000270: 6956 2b3e 0bf7 603c 9714 3c3e 1b5a 4c3e
00000280: 28eb 373d 0fc3 3fbe ecc8 3dbe 77d2 dcbd
00000290: 0a5b 7fbd c5cb 63be ca3c 8bbd 251b a2bd
000002a0: 0f58 3cbe 5ced 4dbe 3e4b 64be 2437 c8bd
000002b0: 702a e23d d8ba 943d 62a8 fdbd 9ed1 953b
000002c0: 10f2 963d 876f cbbd 33d0 06bc 4395 6bbe
000002d0: 631d 273c caaa edbd c683 ce3d b3f4 0bbc
000002e0: 23ac f9bd 4fbf 3d3e 27fc 59be 07ec 743d
000002f0: 7d40 02be fa5c 773d fce8 0e3d 2dbd e6ba
00000300: fa9d 2d3e e9c4 42bd a521 19be d468 253e
00000310: e661 a03e d7dc 66be f42f 78bd 7aa8 e3bd
00000320: 4835 8abd 87bd b03b 35c2 f9bd 9ccf 903e
00000330: 54df 8f3e da7e 2d3e aae8 243d 6fe9 103e
00000340: c670 32bd 5a23 17be 52b7 ba3d 9016 253e
00000350: 803d 653c 580c 45be 84d8 ab3d a418 553d
00000360: 84a7 433e 4141 ba3d dee0 18ba 555f 71bd
00000370: 6ae0 1c3e 6679 6f3e 9491 163e a6da 413e
00000380: 6ccf 913e 4566 87bd a9a9 e4bd adc6 493d
00000390: 78b2 283d fa83 483d c4d3 033e a97d 623e
000003a0: 7ae8 593e cdf7 63bd 4b5f 393e 8b37 903d
000003b0: 8d22 0ebe 305b 00be 79ef 42be 3c09 99bd
000003c0: 1de2 da3c 319e a13d 67de 35be e576 c53d
000003d0: b09a 363e 50e9 97bd 5a4f 9fbe d5f0 fcbb
000003e0: 2bfb 29be 5162 90bd e80a 1a3e f0a9 133d
000003f0: a8ca 28be 3410 493e a54e cd3c 0546 42be

hiden_layers.1.bias f4 [64]
-0.005032389 -0.027703168 0.025091574 0.040549967 -0.080879204 0.08849547 -0.022243403 -0.06388118
-0.09464661 -0.0005751107 -0.01927218 -0.05554256 -0.15443051 -0.010880411 -0.0623824 -0.027656524
-0.067593254 -0.011661538 0.04215591 -0.10502061 -0.05417637 0.09910679 0.08645653 -0.03042987
-0.069538884 0.09802248 0.06399264 0.05341927 -0.042520653 0.062146407 -0.018758971 0.001361563
-0.058564257 -0.17507732 0.04863242 -0.025168044 -0.0052279998 -0.12469248 -0.039201755 -0.10697908
0.03945757 -0.0793976 -0.071178645 0.0026172223 -0.0024713043 -0.062172696 -0.058032177 -0.02673758
0.037833337 -0.013561655 0.026030837 0.02881254 -0.12165789 -0.03448639 -0.07737567 -0.060648594
-0.012582817 -0.13631934 0.05420121 0.0586732 0.015583756 -0.15220767 -0.003910791 -0.03951736
00000000: bde6 a4bb c1f1 e2bc d88c cd3c b917 263d
00000010: ffa3 a5bd 1d3d b53d cc37 b6bc 23d4 82bd
00000020: 15d6 c1bd 07c3 16ba b1e0 9dbc 9880 63bd
00000030: 0823 1ebe c043 32bc b084 7fbd ef8f e2bc
00000040: 556e 8abd 0910 3fbc adab 2c3d 0c15 d7bd
00000050: 0be8 5dbd 80f8 ca3d 1f10 b13d 1048 f9bc
00000060: 676a 8ebd 03c0 c83d 930e 833d 2ace 5a3d
00000070: 232a 2ebd 3b8d 7e3d 6aac 99bc 7976 b23a
00000080: 13e1 6fbd 7847 33be ca32 473d 372d cebc
00000090: a44f abbb c55e ffbd 0592 20bd d917 dbbd
000000a0: 439e 213d 359b a2bd 1cc6 91bd b485 2b3b
000000b0: 9bf5 21bb cca8 7ebd 26b3 6dbd c508 dbbc
000000c0: 21f7 1a3d b431 5ebc 9f3e d53c 4708 ec3c
000000d0: c627 f9bd 9a41 0dbd 2377 9ebd a96a 78bd
000000e0: 2928 4ebc 4c97 0bbe 1702 5e3d 4f53 703d
000000f0: 0353 7f3c 54dc 1bbe 1826 80bb f5dc 21bd

hiden_layers.2.weight f4 [64, 64]
0.009586102 -0.06558963 -0.13739108 -0.22551584 0.2402127 -0.891905 -0.019992754 -0.08277642
-0.14151816 -0.18665104 -0.063306645 0.20027192 0.028438997 1.3804859 -0.15273221 0.1768717
0.2791165 0.0004879763 -0.15921064 -0.28225136 0.2429779 -0.88358396 -0.4813979 0.12076738
0.50316626 -0.30877948 -0.27137873 -0.121837415 0.12152376 -0.23964767 0.32816687 0.5015468
-0.06447349 0.2230684 -0.42308047 -0.23062164 0.21645913 0.45753518 0.32099292 -0.009621425
-0.07128927 -0.031238105 0.23251629 -0.025181433 0.050089303 -0.04388008 -0.0169966 0.14343075
0.10280906 0.15464564 -0.16912028 -0.3275025 -0.29791036 0.15210631 0.38651457 0.21888195
-0.15388255 0.38295367 0.10583606 -0.17034969 -0.26009026 0.82108545 0.16807464 0.22351253
0.20887315 -0.039536398 0.29211587 0.18591855 -0.30984837 0.49795225 0.3258824 0.38523373
0.3206529 -0.19836849 0.58969074 0.046704307 -0.003880224 -0.3368719 -0.31493276 0.20533264
-0.9416142 -0.050876856 -0.1918108 -0.6325784 0.22644526 0.13991068 0.1848397 -0.0055534835
-0.11676561 0.07507365 0.30666897 -0.02967405 -0.16442117 0.05585977 -0.1491802 -0.6423451
-0.12591638 0.2477566 0.08829794 0.08037182 0.36318788 -0.70112437 0.25792596 -0.2298411
0.28747007 -0.18537705 0.16816375 0.05858733 -0.021750914 0.044085763 -0.25566408 0.3445842
-0.46399245 0.3159245 0.1672439 -0.36645576 -0.065517455 0.07511777 -0.6808142 -0.32893848
0.21747738 -0.12827316 -0.15949027 0.5316564 -0.06768737 0.12772684 0.39932305 -0.17575394
0.1422977 -0.11153212 -0.18379854 -0.13389911 0.3627679 0.21077095 0.11874978 -0.13454528
-0.38659453 0.49391624 -0.068885915 0.19609985 0.27866012 -0.047741927 -0.09922727 0.10154812
-0.053043973 -0.24124421 0.25701293 -0.018867439 -0.26000345 0.24589103 0.1578802 -0.25230452
-0.14318879 -0.26971912 -0.10481146 0.10138596 0.23693685 0.27384552 0.037983365 0.18835883
-0.029746097 -0.3089658 0.0063309195 0.16441593 0.26817968 -0.14213908 0.100539595 0.64569956
0.07507617 -0.0045763594 -0.08061782 0.07565946 0.30492967 0.15386601 -0.025998324 -0.15378709
0.15963323 0.030210856 -0.15844269 0.2616158 -0.24853244 0.025575723 0.23351756 -0.048587944
-0.32871187 -0.05575894 -0.20157294 -0.16387773 0.041299984 -0.20652235 0.11789791 0.15359676
-0.07190891 -0.1961577 -0.036647625 0.28544283 -0.22192243 -0.06456544 0.024597302 -0.19275115
-0.057648588 0.2752475 0.16376607 -0.3039707 0.04788239 0.019567208 -0.05758354 0.04587789
0.1294171 -0.37194622 -0.08871205 0.05732496 -0.34661674 0.028765626 0.18496984 -0.04103415
-0.06606898 0.056641232 0.12714417 0.1775621 -0.094392076 0.15811363 -0.0805691 -0.18437056
-0.2442117 -0.20588496 0.25206834 0.2626303 0.0054967687 0.041060716 -0.0073206914 -0.11613164
0.2103418 -0.26665634 -0.0033665411 0.039563175 0.10777192 -0.052603617 -0.22550726 -0.04041966
0.2260049 0.035290048 0.21084386 -0.19068605 -0.11747556 -0.20207176 0.053846683 -0.02635119
0.2432457 -0.18730168 -0.11232042 0.24089183 0.08731302 -0.21101537 0.2615975 0.02117331
00000000: 070f 1d3c db53 86bd 3fb0 0cbe a0ed 66be
00000010: 51fa 753e e353 64bf d8c7 a3bc af86 a9bd
00000020: 23ea 10be 7321 3fbe eaa6 81bd 1514 4d3e
00000030: e6f8 e83c c3b3 b03f d565 1cbe db1d 353e
00000040: 5ce8 8e3e 12d7 ff39 1d08 23be 4083 90be
00000050: 33cf 783e 8f32 62bf c979 f6be e354 f73d
00000060: 81cf 003f 5818 9ebe 27f2 8abe e585 f9bd
00000070: 73e1 f83d 3366 75be 7d05 a83e 5f65 003f
00000080: ad0a 84bd 0b6c 643e 019e d8be 1428 6cbe
00000090: 76a7 5d3e 0d42 ea3e 2f59 a43e 2ea3 1dbc
000000a0: 1c00 92bd 0ee7 ffbc c018 6e3e 4b49 cebc
000000b0: 712a 4d3d 99bb 33bd 743c 8bbc 83df 123e
000000c0: 8e8d d23d 6d5b 1e3e de2d 2dbe 68ae a7be
000000d0: b587 98be c2c1 1b3e 3de5 c53e 9722 603e
000000e0: 6393 1dbe 8112 c43e 94c0 d83d 2670 2ebe
000000f0: 8d2a 85be a832 523f c21b 2c3e 78e0 643e
00000100: d8e2 553e ebf0 21bd 3690 953e 6f61 3e3e
00000110: 72a4 9ebe 99f3 fe3e 0fda a63e 5b3d c53e
00000120: 9e2c a43e 1c21 4bbe f9f5 163f 044d 3f3d
00000130: 5b4b 7ebb 797a acbe de3e a1be b842 523e
00000140: a10d 71bf 4064 50bd 0d6a 44be a8f0 21bf
00000150: 44e1 673e bf44 0f3e 9e46 3d3e fff9 b5bb
00000160: cf22 efbd 37c0 993d b703 9d3e fe16 f3bc
00000170: 065e 28be 37cd 643d b2c2 18be ba70 24bf
00000180: 39f0 00be e8b3 7d3e 8dd5 b43d fb99 a43d
00000190: c3f3 b93e e37c 33bf df0e 843e 775b 6bbe
000001a0: 472f 933e 7bd3 3dbe 1e33 2c3e 45f9 6f3d
000001b0: f92e b2bc 4693 343d 67e6 82be 576d b03e
000001c0: 6b90 edbe dbc0 a13e fc41 2b3e 17a0 bbbe
000001d0: 042e 86bd 58d7 993d d749 2ebf a06a a8be
000001e0: 64b2 5e3e 0a5a 03be 6b51 23be a21a 083f
000001f0: ad9f 8abd d3ca 023e 1274 cc3e d7f8 33be
00000200: 7db6 113e f46a e4bd af35 3cbe d91c 09be
00000210: b7bc b93e 57d4 573e 1633 f33d 3dc6 09be
00000220: b8ef c5be 97e2 fc3e 0f14 8dbd 66ce 483e
00000230: 8aac 8e3e 0a8d 43bd ab37 cbbd 76f8 cf3d
00000240: a344 59bd b908 77be 3397 833e e38f 9abc
00000250: 2c1f 85be dcca 7b3e 59ab 213e 0f2e 81be
00000260: 15a0 12be a018 8abe 64a7 d6bd 71a3 cf3d
00000270: 939f 723e 7b35 8c3e 7294 1b3d 23e1 403e
00000280: 16ae f3bc c430 9ebe 9a73 cf3b a65c 283e
00000290: d94e 893e e88c 11be b4e7 cd3d 914c 253f
000002a0: 89c1 993d 49f5 95bb f51a a5bd 59f3 9a3d
000002b0: be1f 9c3e 0d8f 1d3e 70fa d4bc 5d7a 1dbe
000002c0: e576 233e c27c f73c cd3e 22be 82f2 853e
000002d0: 4a7f 7ebe 2e84 d13c 3a1f 6f3e 2704 47bd
000002e0: ec4c a8be 7c63 64bd 2369 4ebe 90cf 27be
000002f0: 2c2a 293d 987a 53be 7674 f13d 7848 1d3e
00000300: fb44 93bd 90dd 48be d21b 16bd 9025 923e
00000310: a23f 63be e33a 84bd 4880 c93c 8f60 45be
00000320: ed20 6cbd 3eed 8c3e 4bb2 273e 0ca2 9bbe
00000330: 5320 443d 694b a03c b8dc 6bbd 74ea 3b3d
00000340: eb85 043e bc6f bebe aaae b5bd 94cd 6a3d
00000350: c077 b1be e4a5 eb3c bc68 3d3e 6d13 28bd
00000360: 2c4f 87bd a300 683d 1532 023e d7d2 353e
00000370: a250 c1bd 8ae8 213e 6a01 a5bd a3cb 3cbe
00000380: a212 7abe 82d3 52be 1a0f 813e 7b77 863e
00000390: 3d1e b43b 482f 283d 69e2 efbb 6dd6 edbd
000003a0: d763 573e 2e87 88be 30a1 5cbb ff0c 223d
000003b0: 86b7 dc3d e476 57bd 60eb 66be 168f 25bd
000003c0: d46d 673e 4c8c 103d 74e7 573e 3443 43be
000003d0: 0797 f0bd e6eb 4ebe 578e 5c3d 73de d7bc
000003e0: 6715 793e 03cc 3fbe 4008 e6bd 59ac 763e
000003f0: 2bd1 b23d 6a14 58be 1cf0 853e a673 ad3c

hiden_layers.2.bias f4 [64]
-0.10407363 -0.025386961 0.26357046 0.051475044 0.004212081 -0.11589985 0.0028746116 -0.017055502
0.051841933 -0.021186156 0.021327492 -0.07079725 0.027698038 0.0077511133 0.04085883 0.022853727
0.013345581 -0.098102406 0.08450839 -0.0155586535 0.019356836 -0.041294787 0.03313559 0.035885446
-0.0103202285 -0.087795705 0.02441575 -0.10237978 -0.0908019 0.04706946 0.067525156 0.024143163
0.13399431 0.0014974019 -0.052816276 0.013142866 0.044451796 0.015128747 0.14075567 0.08859137
0.07756735 0.032584704 0.045969486 -0.05701145 0.10961729 0.03324386 -0.008101129 -0.018918594
0.004099589 -0.04870044 0.008753813 -0.09568265 0.01451867 -0.00459154 -0.06912004 -0.031232793
0.039909016 -0.02463982 -0.25079563 -0.045132764 -0.062174883 -0.02453874 -0.042780682 0.022218702
00000000: 8e24 d5bd 51f8 cfbc b5f2 863e 7fd7 523d
00000010: 7f05 8a3b e75c edbd fb63 3c3b fbb7 8bbc
00000020: 3558 543d 978e adbc feb6 ae3c 26fe 90bd
00000030: ffe6 e23c 0dfd fd3b 975b 273d bd37 bb3c
00000040: 6ca7 5a3c eae9 c8bd bc12 ad3d b9e9 7ebc
00000050: 3a92 9e3c b924 29bd 2fb9 073d 9efc 123d
00000060: 2d16 29bc 3cce b3bd 8a03 c83c 7dac d1bd
00000070: 59f6 b9bd e8cb 403d a14a 8a3d e2c7 c53c
00000080: ce35 093e 7844 c43a e155 58bd 2d55 573c
00000090: 1613 363d 90de 773c 4122 103e 646f b53d
000000a0: a1db 9e3d 8a77 053d 804a 3c3d d784 69bd
000000b0: 087f e03d b72a 083d 99ba 04bc 2bfb 9abc
000000c0: d855 863b 1d7a 47bd 276c 0f3c 44f5 c3bd
000000d0: b7df 6d3c a174 96bb cf8e 8dbd eadb ffbc
000000e0: a377 233d 73d9 c9bc 4968 80be 22dd 38bd
000000f0: 17ab 7ebd 7805 c9bc cc3a 2fbd ff03 b63c

hiden_layers.3.weight f4 [64, 64]
-0.06327406 0.22885051 0.030578164 0.27654418 0.014775736 0.18537065 -0.04141119 -0.3895198
0.106112376 0.11449666 0.097771496 0.01129061 0.12590794 -0.30335012 0.2766384 -0.09469444
-0.20636785 -0.104802415 0.052768603 -0.10832625 0.21471569 -0.14333789 0.32626423 0.18152528
0.11595036 0.1699418 0.036913563 0.03098387 0.18454675 0.13664968 -0.060395956 0.305495
0.1584705 0.0642993 -0.07875811 0.082123645 0.04863753 0.11865584 -0.10601654 -0.025539149
-0.023517435 0.02463828 -0.13145116 -0.13105766 0.059800766 0.18506278 -0.07857801 -0.062801816
0.21396059 -0.1941117 -0.19372007 -0.16151276 0.20705113 0.19504283 0.25225696 -0.15341201
0.14238246 0.116251275 -0.064851224 0.1499955 0.167926 0.15960947 -0.057987068 0.2866263
-0.11000628 -0.05249309 -0.06343535 0.073280506 -0.0036569715 0.13117823 -0.36656547 0.13170494
-0.16318633 -0.20178694 0.355926 0.030894121 0.18513505 0.039016232 -0.057051912 0.1441931
0.13162258 -0.05792427 0.20641504 0.18492854 0.20522569 -0.08485987 -0.108077414 0.24238986
-0.1870035 0.04536119 0.24101052 -0.18395774 0.18406561 -0.039335985 -0.18665609 0.08856921
0.30919793 -0.1352571 0.19821917 0.1410714 -0.0559223 -0.19099067 -0.17275965 0.1143716
0.06541851 0.033856686 0.03496006 0.51323974 0.0030376965 0.06344131 0.11139999 -0.013458899
0.16239084 -0.23998185 -0.04454386 0.20641387 0.16566727 -0.09284193 -0.16216907 0.1406213
0.10300856 -0.119042076 0.18228984 0.099103615 0.049776834 0.16211565 -0.0010887833 0.13594408
0.2569489 0.26690218 -0.54508674 -0.023472913 -0.28447437 0.16191895 0.014815269 -0.1629129
0.039945766 -0.13373962 -0.13102865 -0.0012352549 -0.16249737 0.13654462 0.025182372 0.33644342
-0.026908515 0.23171347 -0.24359797 -0.13282809 -0.064688265 -0.032383695 -0.12010941 0.31345594
0.0687598 0.055958554 -0.16567291 0.32001066 0.11938249 -0.15296452 0.015543083 -0.13642834
-0.06646218 -0.044855244 0.20416984 0.01800513 -0.03729879 0.011229543 -0.04850232 0.13921493
0.13288562 -0.25377584 -0.11433394 -0.032800093 -0.12797008 -0.19478258 -0.011627238 -0.19653651
-0.2079052 -0.28726506 0.15154831 0.15121424 -0.041532926 -0.026323117 -0.19752374 -0.16727406
-0.36009663 -0.053049304 0.28270963 0.23018563 0.14662759 -0.13029766 0.16574864 0.07916585
0.0966504 -0.03061425 0.03382427 0.059476893 -0.2482783 -0.03246635 -0.09858839 -0.13202067
0.03840781 -0.23878373 -0.2722072 -0.14999582 -0.26855764 -0.29149935 0.03598159 -0.03096367
-0.25948483 0.13318478 0.07948187 -0.106993176 0.018271193 -0.02532855 -0.009472946 -0.13944334
0.22352284 0.05574039 0.16799262 0.16411473 0.14791024 -0.08018231 0.01641596 0.05112744
0.11171084 0.20004545 0.0089795645 -0.27872387 -0.22035854 0.012662753 -0.29910707 -0.0606996
0.085044004 -0.16181879 -0.24734731 0.029232655 0.14848521 -0.2285163 0.062240753 0.18821357
-0.08215642 0.19030674 -0.26011282 -0.06670465 0.028158044 0.20972134 0.06215637 0.19388606
0.2239327 0.19749784 0.11874166 0.064970404 0.024397245 -0.19966999 -0.2220064 0.078768365
00000000: d595 81bd ca57 6a3e 0f7f fa3c 3397 8d3e
00000010: ee15 723c ced1 3d3e c89e 29bd 246f c7be
00000020: 7251 d93d 3a7d ea3d 6c3c c83d 40fc 383c
00000030: 03ee 003e b550 9bbe 8ca3 8d3e 29ef c1bd
00000040: 1852 53be a6a2 d6bd e423 583d 27da ddbd
00000050: 6ede 5b3e 2bc7 12be 1b0c a73e c3e1 393e
00000060: 6277 ed3d 3905 2e3e ad32 173d e3d1 fd3c
00000070: d3f9 3c3e e5ed 0b3e c061 77bd d769 9c3e
00000080: 1746 223e 5aaf 833d ef4b a1bd 7130 a83d
00000090: 2638 473d d501 f33d 331f d9bd 7a37 d1bc
000000a0: a3a7 c0bc 38d6 c93c 229b 06be fb33 06be
000000b0: a6f1 743d 1981 3d3e 82ed a0bd 3d9e 80bd
000000c0: 7c18 5b3e 38c5 46be 8e5e 46be 9a63 25be
000000d0: 3605 543e 4fb9 473e d327 813e 0a18 1dbe
000000e0: b5cc 113e 2615 ee3d b8d0 84bd 6c98 193e
000000f0: cbf4 2b3e aa70 233e d983 6dbd afc0 923e
00000100: f94a e1bd ff02 57bd 65ea 81bd 1714 963d
00000110: cda9 6fbb 9653 063e 78ae bbbe a9dd 063e
00000120: 511a 27be 3ca1 4ebe ef3b b63e ab15 fd3c
00000130: 0b94 3d3e 7ccf 1f3d 44af 69bd 5ba7 133e
00000140: 12c8 063e 0042 6dbd 775e 533e e85d 3d3e
00000150: af26 523e 03cb adbd b157 ddbd 0c35 783e
00000160: d87d 3fbe a8cc 393d 76cb 763e 6b5f 3cbe
00000170: b27b 3c3e c51e 21bd c622 3fbe c663 b53d
00000180: 314f 9e3e d680 0abe f7f9 4a3e 0575 103e
00000190: c80e 65bd 0f93 43be e8e7 30be a83b ea3d
000001a0: 24fa 853d 4fad 0a3d 4832 0f3d ae63 033f
000001b0: 1714 473b 84ed 813d ae25 e43d b782 5cbc
000001c0: c949 263e cdbd 75be 9f73 36bd 285e 533e
000001d0: aea4 293e e923 bebd a60f 26be 08ff 0f3e
000001e0: 27f6 d23d 55cc f3bd 30aa 3a3e d6f6 ca3d
000001f0: cbe2 4b3d a501 263e 81b5 8eba ed34 0b3e
00000200: ce8e 833e 67a7 883e ce8a 0bbf 444a c0bc
00000210: a0a6 91be 15ce 253e bebb 723c a4d2 26be
00000220: 2c9e 233d 0af3 08be 602c 06be 47e8 a1ba
00000230: b665 26be 5ad2 0b3e 434b ce3c 5042 ac3e
00000240: 3f6f dcbc 4c46 6d3e bf71 79be 1604 08be
00000250: 487b 84bd c4a4 04bd ecfb f5bd 4c7d a03e
00000260: f0d1 8c3d cc34 653d 29a6 29be 70d8 a33e
00000270: cf7e f43d bba2 1cbe 6aa8 7e3c dfb3 0bbe
00000280: 531d 88bd 22ba 37bd e611 513e 7f7f 933c
00000290: 9ec6 18bd 1efc 373c 5eaa 46bd 5c8e 0e3e
000002a0: 2b13 083e e8ee 81be ea27 eabd 6459 06bd
000002b0: 970a 03be 1675 47be 2c80 3ebc de40 49be
000002c0: 1ae5 54be 6814 93be 7b2f 1b3e e8d7 1a3e
000002d0: 6e1e 2abd 94a3 d7bc aa43 4abe e449 2bbe
000002e0: 965e b8be 3a4a 59bd 51bf 903e c8b5 6b3e
000002f0: 8b25 163e c06c 05be 03ba 293e b521 a23d
00000300: a5f0 c53d bcca fabc 518b 0a3d 0b9e 733d
00000310: ab3c 7ebe 6ffb 04bd b6e8 c9bd 6d30 07be
00000320: 8251 1d3d b983 74be be5e 8bbe 8198 19be
00000330: 6380 89be 673f 95be 6f61 133d 86a7 fdbc
00000340: 32db 84be 9761 083e 64c7 a23d 3d1f dbbd
00000350: 78ad 953c d27d cfbc 6a34 1bbc 3cca 0ebe
00000360: 2ce3 643e 0950 643d 4206 2c3e b10d 283e
00000370: c875 173e 9f36 a4bd c37a 863c 026b 513d
00000380: a7c8 e43d b7d8 4c3e 061f 133c e5b4 8ebe
00000390: aba5 61be 7077 4f3c 9024 99be 25a0 78bd
000003a0: 8d2b ae3d d3b3 25be 9d48 7dbe 5279 ef3c
000003b0: 820c 183e 2d00 6abe 29f0 7e3d 0fbb 403e
000003c0: a041 a8bd c5df 423e 822d 85be 739c 88bd
000003d0: b3ab e63c 31c1 563e ae97 7e3d 118a 463e
000003e0: 9d4e 653e e03c 4a3e d42e f33d 340f 853d
000003f0: bbdc c73c 4a76 4cbe a555 63be 4f51 a13d

hiden_layers.3.bias f4 [64]
0.011849998 0.034840293 -0.013505429 0.0021211756 0.047935262 -0.06928617 -0.0072893384 0.009680262
0.16303107 0.12945655 0.034423534 -0.026520452 -0.04989543 -0.0032316335 0.06943032 -0.07964291
0.079954505 -0.0994653 0.10083574 0.0052566403 -0.029433114 0.031051924 -0.047403097 -0.0039020258
-0.0095223095 0.03156441 0.025956208 -0.08300043 0.02624672 -0.034708157 -0.013484964 -0.11914046
-0.01453037 -0.04132086 -0.13057162 -0.04081362 0.0077107423 -0.0043821344 -0.031224206 0.05255273
-0.054661933 -0.023823893 0.06289523 0.1550301 -0.025010895 0.04472106 -0.032506447 -0.030846436
-0.092460714 0.017280297 0.022803826 -0.10797521 0.0044974755 0.10194493 -0.10049821 0.049396984
0.026158908 0.049584683 0.08288884 -0.095778465 0.08470404 -0.019571152 -0.06528279 0.018416155
00000000: 7e26 423c b2b4 0e3d e045 5dbc 6c03 0b3b
00000010: c457 443d e8e5 8dbd 67db eebb f699 1e3c
00000020: 9ef1 263e 4290 043e b1ff 0c3d 6b41 d9bc
00000030: 275f 4cbd d0c9 53bb 7c31 8e3d d21b a3bd
00000040: 30bf a33d 77b4 cbbd f882 ce3d e53f ac3b
00000050: b71d f1bc 9b60 fe3c c029 42bd 21b9 7fbb
00000060: 7603 1cbc af49 013d 1da2 d43c 21fc a9bd
00000070: 5d03 d73c 242a 0ebd 0af0 5cbc eaff f3bd
00000080: ca10 6ebc 1040 29bd 91b4 05be 2f2c 27bd
00000090: 65aa fc3b 0298 8fbb e8c9 ffbc 8841 573d
000000a0: 31e5 5fbd 532a c3bc 37cf 803d 36c0 1e3e
000000b0: a6e3 ccbc 6e2d 373d 7b25 05bd aab1 fcbc
000000c0: 0b5c bdbd 698f 8d3c 17cf ba3c 1b22 ddbd
000000d0: 8f5f 933b 81c8 d03d 01d2 cdbd 7e54 4a3d
000000e0: 354b d63c 4f19 4b3d a0c1 a93d 8027 c4bd
000000f0: 5079 ad3d ae53 a0bc fcb2 85bd 7add 963c

hiden_layers.4.weight f4 [64, 64]
-0.2169426 0.22233194 0.23673697 -0.15107314 -0.31648967 -0.09962184 0.00449684 0.1953262
-0.02549926 -0.016072337 0.032134574 -0.06600514 0.14348476 -0.09489582 -0.16517554 0.024929503
-0.09237545 -0.09354365 0.22632836 0.26685256 -0.2555176 0.062295012 -0.3946132 -0.07235411
0.14387892 -0.104177445 0.18563995 0.18630953 -0.090825714 -0.11068364 -0.17624891 -0.063565575
0.17211626 0.032508902 0.24983336 -0.21325716 0.20451568 0.013694891 -0.10375351 -0.12997483
-0.31313467 0.08834332 0.1695864 0.008488309 -0.029628536 0.20799749 0.069682434 -0.13739488
-0.2900139 -0.23177329 0.24215066 0.104212254 -0.295137 0.107322566 0.26092404 -0.13566557
0.107315615 -0.0068123178 -0.22669931 -0.17808259 0.15866752 -0.16908064 -0.054463334 -0.08533732
-0.07024489 -0.26475158 -0.23590954 0.14989947 0.15274203 0.12058702 -0.1560298 -0.10160193
-0.23167951 -0.06350479 -0.21023098 0.34328178 -0.00012782897 0.2532696 -0.16258748 0.2031228
-0.13420466 -0.09948537 0.21689749 -0.0031979792 0.30763644 0.13450459 0.23898056 0.11906272
-0.14371173 -0.20195974 -0.122247316 0.12771723 -0.11013613 -0.014113764 -0.10985078 -0.12873659
0.18730156 0.17277363 0.1321081 -0.13208894 -0.25916287 0.059946023 0.037961308 0.096468456
0.061445903 -0.27368265 0.11500569 0.29105884 -0.104159236 0.14457974 -0.04744621 -0.08802074
-0.088764995 0.30064768 -0.11117167 -0.16479246 0.17272072 -0.0681456 0.13829792 0.101378776
0.051815312 -0.26787615 0.1266618 -0.029980568 0.30195263 0.065265596 0.12665029 0.10910514
-0.26320937 -0.06061509 0.06010291 -0.2691828 -0.05274275 -0.25055218 0.031506535 0.15592511
-0.033987988 -0.07425032 0.11567944 -0.19000518 -0.02928293 0.08428564 0.26169202 -0.16041258
0.029153688 0.07489318 0.06719507 0.116031945 -0.051130895 -0.1433916 -0.15815929 0.09887084
-0.1404921 -0.3132783 -0.010308336 0.31002524 -0.23003581 0.1342 -0.21989794 0.38300326
-0.08313723 -0.063032314 -0.10306763 -0.029348556 0.016753126 0.055759277 -0.08211068 0.21012689
0.38646093 0.13407525 -0.45654783 -0.17063886 -0.06906987 0.048393458 0.16778956 0.13610707
0.18348671 -0.03820759 0.13925804 -0.10727839 -0.16806306 0.20280823 0.03194919 0.10815257
-0.17201483 -0.01848611 0.11071397 0.46107465 0.004021564 -0.1095156 0.0056860237 0.19606143
0.085268594 -0.29951563 -0.054239586 0.17167072 0.15366872 -0.06535103 -0.053277124 -0.12544976
0.2012937 0.12647112 0.16230072 0.054027725 0.16422631 -0.10571313 0.21480232 0.24870268
0.054892894 0.0052933535 -0.04323967 -0.18539223 -0.20185402 -0.001622563 0.5251983 0.0813343
0.14554928 -0.064997435 0.18897048 -0.10660942 -0.18551785 0.030957054 -0.025110835 -0.15657812
-0.122374065 0.015217107 -0.09776678 -0.15726976 0.07277866 -0.018486096 -0.035146743 0.18205585
-0.3599342 0.10072833 -0.16313751 0.27508625 0.09291298 -0.18242025 -0.0444362 -0.2184301
-0.10033147 0.12511612 -0.10483772 0.21104985 -0.02014692 0.05652185 0.09114015 0.20697857
-0.28725234 0.061965648 0.12198213 0.088875644 0.14535263 0.068537444 0.21090119 0.17110519
00000000: 3326 5ebe fcaa 633e 2d6b 723e ebb2 1abe
00000010: ef0a a2be 8906 ccbd 3a5a 933b 9703 483e
00000020: d3e3 d0bc 22aa 83bc 8b9f 033d b42d 87bd
00000030: abed 123e bd58 c2bd c723 29be f538 cc3c
00000040: 572f bdbd d093 bfbd 9fc2 673e e6a0 883e
00000050: 34d3 82be 0e29 7f3d be0a cabe 642e 94bd
00000060: ff54 133e fc5a d5bd 6618 3e3e edc7 3e3e
00000070: d502 babd 1bae e2bd 987a 34be ab2e 82bd
00000080: 3f3f 303e 0e28 053d 51d4 7f3e 1660 5abe
00000090: 8f6c 513e 8960 603c b87c d4bd 1f18 05be
000000a0: 3053 a0be 58ed b43d 0fa8 2d3e 8c12 0b3c
000000b0: 8bb7 f2bc 4bfd 543e aab5 8e3d 3eb1 0cbe
000000c0: b47c 94be fa55 6dbe 58f6 773e 3c6d d53d
000000d0: 321c 97be efcb db3d d697 853e eaeb 0abe
000000e0: 4ac8 db3d dd39 dfbb dd23 68be 485b 36be
000000f0: bd79 223e 7a23 2dbe f214 5fbd 55c5 aebd
00000100: 8edc 8fbd 858d 87be 4592 71be 3f7f 193e
00000110: 6868 1c3e 54f6 f63d 47c6 1fbe ac14 d0bd
00000120: 653d 6dbe cd0e 82bd ca46 57be a1c2 af3e
00000130: d409 06b9 8eac 813e 557d 26be 6cff 4f3e
00000140: f26c 09be fcbe cbbd 601a 5e3e 3095 51bb
00000150: 8682 9d3e 92bb 093e 52b7 743e 28d7 f33d
00000160: 2b29 13be 89ce 4ebe cd5c fabd 4ec8 023e
00000170: 0d8f e1bd 6b3d 67bc 72f9 e0bd 86d3 03be
00000180: fbcb 3f3e 92eb 303e 5947 073e 5342 07be
00000190: ffb0 84be f689 753d 517d 1b3d 4191 c53d
000001a0: b3ae 7b3d 2220 8cbe 1a88 eb3d aa05 953e
000001b0: 7051 d5bd b60c 143e f556 42bd 3844 b4bd
000001c0: 6cca b5bd 7eee 993e f9ad e3bd 5bbf 28be
000001d0: b3dd 303e ec8f 8bbd f89d 0d3e ad9f cf3d
000001e0: 4b3c 543d 1027 89be a2b3 013e cf99 f5bc
000001f0: 8999 9a3e f8a9 853d 9db0 013e 8472 df3d
00000200: 61c3 86be 8747 78bd 782e 763d 54d2 89be
00000210: c808 58bd 6048 80be ff0c 013d d5aa 1f3e
00000220: fd36 0bbd 8d10 98bd 58e9 ec3d b890 42be
00000230: c1e2 efbc f39d ac3d 7ffc 853e 3243 24be
00000240: b7d3 ee3c 9861 993d 929d 893d 28a2 ed3d
00000250: a16e 51bd 3fd5 12be 82f4 21be cc7c ca3d
00000260: 29dd 0fbe 0366 a0be 4be4 28bc a1bb 9e3e
00000270: 828e 6bbe ba6b 093e ed2c 61be 0119 c43e
00000280: da43 aabd 1617 81bd 1f15 d3bd 626c f0bc
00000290: da3d 893c d763 643d a529 a8bd 812b 573e
000002a0: 35de c53e 064b 093e a3c0 e9be f4bb 2ebe
000002b0: 8174 8dbd 3838 463d 07d1 2b3e a75f 0b3e
000002c0: f1e3 3b3e 907f 1cbd a999 0e3e c6b4 dbbd
000002d0: b918 2cbe f6ac 4f3e 27dd 023d 187f dd3d
000002e0: a824 30be 2f70 97bc 02be e23d fa11 ec3e
000002f0: 53c7 833b b749 e0bd d351 ba3b 54c4 483e
00000300: 4da1 ae3d 1d5a 99be 542a 5ebd 73ca 2f3e
00000310: 555b 1d3e c3d6 85bd 1d39 5abd e775 00be
00000320: f01f 4e3e a581 013e 2932 263e 2d4c 5d3d
00000330: f12a 283e 2080 d8bd 24f5 5b3e eaab 7e3e
00000340: 5fd7 603d de73 ad3b 151c 31bd 76d7 3dbe
00000350: d2b2 4ebe 2eac d4ba 6573 063f 9992 a63d
00000360: df0a 153e 601d 85bd 7a81 413e 0a56 dabd
00000370: 64f8 3dbe a699 fd3c 3db5 cdbc 0456 20be
00000380: 419f fabd 2c51 793c f339 c8bd 530b 21be
00000390: fa0c 953d 2770 97bc 08f6 0fbd d96c 3a3e
000003a0: 4c49 b8be a84a ce3d 850d 27be 1bd8 8c3e
000003b0: 2949 be3d 60cc 3abe bc02 36bd 24ac 5fbe
000003c0: 967a cdbd 711e 003e 29b5 d6bd 741d 583e
000003d0: 270b a5bc 7583 673d b0a7 ba3d 31f2 533e
000003e0: bd12 93be b1cf 7d3d c4d1 f93d 6f04 b63d
000003f0: 52d7 143e 5c5d 8c3d 7bf6 573e 3336 2f3e

hiden_layers.4.bias f4 [64]
0.06362715 -0.019135134 0.02596123 0.021121003 0.054293893 -0.011725525 0.12678088 -0.07005792
-0.037282582 -0.01368393 0.029645257 0.033694923 0.090181105 -0.15483423 0.0030525161 0.012009846
-0.016147034 0.040322717 0.042783007 0.032845665 -0.067612864 -0.057710327 -0.12803504 -0.010515523
0.012755461 -0.026080877 -0.005322745 0.029722976 -0.024919346 0.10002192 -0.0033683602 0.059728976
0.055974618 -0.008389218 0.0023231267 0.07799008 -0.02617588 0.031984277 -0.008700663 0.004615732
-0.004061657 -0.0060108816 0.11179618 0.12109873 -0.0072051925 0.13397236 0.082747735 0.049041603
-0.035909824 0.003924766 0.20092005 -0.031837627 -0.031655956 0.0935899 -0.035238285 -0.010838249
0.05453132 0.075324036 -0.044158474 -0.10084601 -0.032270294 0.10216363 -0.123268716 -0.002516773
00000000: f44e 823d 49c1 9cbc a5ac d43c f405 ad3c
00000010: 4663 5e3d 6b1c 40bc d9d2 013e 877a 8fbd
00000020: 9fb5 18bd 9032 60bc 9cda f23c b003 0a3d
00000030: dfb0 b83d dd8c 1ebe b90c 483b f2c4 443c
00000040: c946 84bc 6f29 253d 3c3d 2f3d 2d89 063d
00000050: 9d78 8abd aa61 6cbd 9e1b 03be 4d49 2cbc
00000060: 48fc 503c 90a7 d5bc 6c6a aebb 997d f33c
00000070: a823 ccbc 4bd8 cc3d b5bf 5cbb 5fa6 743d
00000080: a445 653d ee72 09bc 993f 183b 43b9 9f3d
00000090: cd6e d6bc f201 033d 3a8d 0ebc 913f 973b
000000a0: a617 85bb eef6 c4bb 65f5 e43d 9c02 f83d
000000b0: 8919 ecbb 0d30 093e a577 a93d d9df 483d
000000c0: 2e16 13bd 539b 803b fcbd 4d3e 2c68 02bd
000000d0: ada9 01bd 10ac bf3d 0556 10bd e992 31bc
000000e0: 3c5c 5f3d 7d43 9a3d 84df 34bd 5a88 cebd
000000f0: db2d 04bd 2a3b d13d 4f74 fcbd 72f0 24bb
